landing_falcon_raw_ckpt/ckpt_00002001.pt (torch, 507255 bytes, 15 tensors)

actor.linear1.weight f4 [128, 120]
000000 2f 0f 31 bd 1f de 90 bd 4a 54 70 bd 23 27 64 3d
       -0.04322737 -0.07073616 -0.058674134 0.055701386
000010 94 4c 84 bd 80 c6 af bb e0 ec c9 3c 53 3f 70 bd
       -0.064599186 -0.005364239 0.024649084 -0.05865414
000020 a7 8b 54 3d b7 99 91 3d 6b f8 d8 bc 93 1b 83 3d
       0.051890995 0.07109397 -0.026485642 0.06401744
000030 5d e3 b7 3d 10 1e ae bd 2f 75 8b 3d 9b cc ab 3d
       0.08978913 -0.08501828 0.0680946 0.08388635
000040 06 dc 63 3d 07 81 21 3c eb da 7c bd c4 15 7e 3d
       0.055629753 0.009857423 -0.061732214 0.062032476
000050 e2 74 98 3d c2 02 c2 3b ae 3d 0c 3d b0 3c 89 3d
       0.074441686 0.005920739 0.03423851 0.06701028
000060 22 7c 93 bd 50 ef ea bc a5 8a 8d bc f6 d9 98 bd
       -0.07201411 -0.028678566 -0.017278025 -0.07463448
000070 8e b4 ab bd 94 1b 73 3c 69 b2 5b bd de 1a 07 bd
       -0.083840474 0.014838118 -0.053636942 -0.032984607
000080 99 01 1f bd 55 22 ab 3c 11 f8 de bc bc 46 ba bb
       -0.038819883 0.020890394 -0.027217897 -0.0056847017
000090 ef f6 1b ba 6a 6b 0f 3d 63 9f b3 3d 9c 8b 8b 3d
       -0.0005949577 0.035014547 0.08770635 0.06813738
0000a0 ac aa 9b 3d 89 9b 4a bd 73 6c a7 3d 12 9a 75 bd
       0.076009125 -0.049464736 0.08174982 -0.059961386
0000b0 9a 5c 95 3d 2d 19 75 bd ec 0e bf bc 48 83 8e bd
       0.07293053 -0.059838463 -0.023322545 -0.06958634
0000c0 1d 53 9f 3d 22 96 96 bc 7f 90 54 bd dd f2 1a bd
       0.077795245 -0.018382136 -0.051895615 -0.03782927
0000d0 a2 78 af bd 04 a0 1f bd d2 67 a6 bc a9 90 c3 bc
       -0.08567931 -0.038970962 -0.020313177 -0.02387269
0000e0 8b 08 4f bd b0 01 45 3c f9 b7 80 bd ee b6 22 bd
       -0.050545257 0.012024328 -0.0628509 -0.039725237
0000f0 3e 76 66 3b 1c cc 97 3d 2b e4 f0 3c 81 22 ae 3c
       0.0035165693 0.07411978 0.029405674 0.021256687
000100 62 37 93 3d d7 1c b3 3b 69 e9 48 3d 4e 3b a4 bd
       0.07188298 0.0054660845 0.049050722 -0.08019124
000110 9f c4 af 3c 60 1a 8e 3d 45 9c 68 3d 93 2d 9e bc
       0.02145606 0.069386244 0.056789655 -0.01930884
000120 2b b2 2a 3c b7 8f 9b bd df 47 66 3c 55 7c 5d 3d
       0.010418455 -0.07595771 0.014055221 0.05407365
000130 27 ba 96 bc dc 47 46 3d 39 b7 f6 ba d4 c2 8e bd
       -0.018399311 0.048408374 -0.0018822915 -0.06970754
000140 7e df 68 3d 5a a4 df 3c 1f 98 9a bd 07 81 74 3d
       0.056853764 0.027300049 -0.07548546 0.059693363
000150 60 63 c3 bd 01 a5 36 bc 16 e2 3b 3c da ac 38 3d
       -0.09540439 -0.011147738 0.011467477 0.04508672
000160 da f8 3b bb e3 e0 23 3d 37 9f e6 3a 8c c7 21 3d
       -0.0028682263 0.04000939 0.0017595057 0.039496943
000170 9d 77 01 3d a8 d5 82 3d e3 7e c8 3b 8a 5e b4 bd
       0.031608213 0.06388408 0.0061186417 -0.088070944
000180 9d be 17 bd cb 4c 28 3c e6 42 95 3d 22 81 ac 3d
       -0.037047017 0.010272215 0.072881505 0.08423068
000190 90 7a f0 bb 5d 98 89 bd 81 28 9a 3c c4 cb b2 bb
       -0.0073388293 -0.06718514 0.018818142 -0.0054564197
0001a0 47 55 90 bd 35 7c 3d bd 08 f6 fb bc 90 36 9c bd
       -0.07047515 -0.04626103 -0.030756965 -0.076275945
0001b0 ea 1b 69 bd ed 17 d7 3c d2 c7 38 3d a0 56 17 bd
       -0.056911387 0.026256526 0.04511244 -0.036947846
0001c0 23 32 90 bd 70 a4 30 3b c7 08 17 3d 8f 16 11 bd
       -0.07040813 0.002695348 0.036873605 -0.035421904
0001d0 c2 63 69 3d 60 89 ad bc 91 d8 1c bd af ad 94 3d
       0.056979902 -0.02118367 -0.03829247 0.0725969
0001e0 78 10 b9 3d ed 25 a8 3d 01 34 60 3d 63 ff 9d 3d
       0.09036344 0.08210359 0.054737095 0.07714727
0001f0 02 4f 40 bd e0 47 8b bd ff 62 67 3d ff 3a 8e 3d
       -0.046950348 -0.068008184 0.056490894 0.06944846
000200 65 0f 79 bd 06 cc dd bc e5 b6 5a 3d df a7 7a 3d
       -0.060805697 -0.027074825 0.053397078 0.06119525
000210 5b 56 92 bc 32 c1 69 3b d4 9d 71 bd ae a8 07 bd
       -0.017863443 0.0035668132 -0.058988407 -0.03311985
000220 de a9 b3 3c 24 69 a1 bd a7 69 3e bb 5f cb 66 bd
       0.021931585 -0.07881382 -0.0029054673 -0.056346294
000230 f4 9b 86 3d 28 07 30 bd ec 5d ee bb 5a d9 ae 3d
       0.065727144 -0.042975575 -0.00727438 0.0853755
000240 1a d4 33 3d 11 87 65 bd df db 75 3d a9 44 b7 3d
       0.043903448 -0.056037012 0.06002414 0.08948643
000250 df 70 4c 3c c7 0b 01 bc 0d 57 99 3b 25 ed 42 3d
       0.012478082 -0.007876343 0.0046795667 0.04758944
000260 56 d8 39 3d 9e 21 99 3d 8e 4d 60 bd 19 68 9b 3d
       0.04537233 0.07477115 -0.054761462 0.075882144
000270 4c 37 b7 3d 7e c8 66 bd b8 66 5b bd 78 0f 2a bd
       0.08946094 -0.056343548 -0.053564757 -0.04151866
000280 8e 9c 0e 3c d2 29 69 bd 61 a7 a5 bd 8d 5d a2 38
       0.008704318 -0.05692465 -0.080885656 7.742187e-05
000290 3d e3 94 3c 52 07 40 3d f1 36 90 bd 94 bb 5b 3c
       0.018174762 0.04688198 -0.07041729 0.013411421
0002a0 d8 ba f0 3c c7 d9 84 bd 09 85 0f 3d a1 d5 a3 3d
       0.029385969 -0.0648685 0.03503898 0.07999731
0002b0 0d 6d a8 bd 1b 80 82 3d a0 53 53 bd 81 31 ab bd
       -0.08223925 0.063720904 -0.051593423 -0.083590515
0002c0 2c eb 9e 3d 8d cf 3b 3c 3c ee 0a 3d a8 ec 93 3d
       0.07759699 0.011463058 0.033918604 0.07222873
0002d0 21 53 9c 3c 74 04 9e bd 6b b8 a5 3d 25 fd df 3c
       0.019082608 -0.07715693 0.080918156 0.027342388
0002e0 3e 29 50 3d 4c 37 92 3d 18 6c 7c 3d 2a 95 36 bd
       0.05082058 0.07139453 0.061626524 -0.044575848
0002f0 27 2b b0 3d f7 25 d1 3c 8b 95 63 bd a0 85 c7 3d
       0.08601981 0.025530798 -0.055562537 0.09742284
000300 5c c9 11 3d b2 6e 4f bc 69 56 24 bd 73 8f 19 3d
       0.035592422 -0.012660669 -0.04012147 0.03749032
000310 59 09 a5 3d 91 46 3b 3d 6a b2 5b bd e1 12 48 3d
       0.080584235 0.045721594 -0.053636946 0.04884613
000320 79 14 41 3d 80 64 59 bd 97 35 07 3d bc c2 25 bd
       0.047138665 -0.05307436 0.03301009 -0.040468916
000330 68 d0 65 3d 7b 8b b6 38 73 03 6e 3d 87 9f 8d bc
       0.056106955 8.7044165e-05 0.05810876 -0.017287983
000340 12 3e 62 bd 29 61 3b bd 16 60 fa b9 3c 03 14 38
       -0.055234976 -0.045746956 -0.00047755305 3.5288962e-05
000350 22 51 98 3d 3b ad ff 3c 3c d4 78 3d 8f 70 1c bd
       0.0743735 0.031210532 0.060749277 -0.03819328
000360 d0 97 91 bc e6 2f f6 bc b2 96 af bd 18 85 df 3a
       -0.017772585 -0.030052137 -0.08573665 0.0017053215
000370 63 81 46 3d aa a9 53 3d 40 14 ec bc f7 22 28 bc
       0.048463237 0.051675476 -0.02881825 -0.0102622425
000380 df a4 ae bc 72 03 b2 bc e0 14 32 3d ff df ff 3b
       -0.021318851 -0.021730158 0.04347694 0.007808685
000390 74 32 75 bd bd 2d 5c bd 77 4a 54 3d 9b 1d bf 3d
       -0.05986257 -0.053754557 0.051828828 0.09331819
0003a0 97 10 8a bd 9d 3c 16 3d 92 e6 7d bc d9 14 05 bd
       -0.067414455 0.0366789 -0.015496867 -0.032490585
0003b0 67 ee 73 bd ed 14 cd bc d2 d6 2a 3d b2 71 71 3d
       -0.05955353 -0.025034392 0.041708775 0.05894632
0003c0 a1 dc 8c 3d a2 a1 83 bd 34 f6 54 bd 52 f3 98 bd
       0.06878019 -0.064273134 -0.05199261 -0.07468285
0003d0 1f 9b 9f bd 7a 8b 9b bd d3 35 a1 bd 48 c2 e6 3c
       -0.07793259 -0.075949624 -0.07871594 0.028168812
0003e0 71 39 81 bd 6e 3b 8c bd 67 ee 35 3d 2a cb 73 ba
       -0.06309784 -0.06847273 0.04441681 -0.0009299988
0003f0 a8 22 6d 3d 11 d5 6d bd cb dd 34 bd 1d b9 f3 3c
       0.05789438 -0.058064524 -0.04415683 0.029751355

actor.linear1.bias f4 [128]
000000 16 90 99 3d 74 cd 77 3c 5b 55 57 3c 75 c8 57 3d
       0.07498185 0.015124667 0.013142909 0.052681405
000010 1e 39 af bd d3 9f 75 bb 09 da 06 3d 68 a2 93 3d
       -0.08555816 -0.0037479296 0.03292278 0.07208711
000020 b9 1a a7 3d b4 5b 1b 3d 93 30 40 bd 7e f3 30 3d
       0.08159394 0.03792925 -0.046921324 0.043200962
000030 d4 49 b1 3d f1 4f 2d bd 23 71 88 bc bc 1c 0d 3d
       0.0865666 -0.042312566 -0.01665551 0.03445123
000040 b7 55 54 3b ca e8 aa bd 12 fd 2c bd 09 cb 11 bd
       0.0032399723 -0.08345182 -0.042233534 -0.03559402
000050 c6 78 87 bd af 43 71 3d 31 3e bc bd 65 f5 99 ba
       -0.066148326 0.05890244 -0.091915496 -0.0011746107
000060 9b df 5a 3d 10 d1 53 bb 15 3b 0c 3c dd 03 2b 3d
       0.053435903 -0.0032320656 0.008559008 0.04175173
000070 29 fd bb 3d 5e a0 cd 3a 0f 93 1f ba 37 e7 81 3d
       0.09179146 0.0015688052 -0.0006087282 0.06342929
000080 16 63 5a 3d a2 4c 6e 3d 37 53 17 3d 19 2e 67 3d
       0.053317152 0.05817855 0.036944594 0.056440447
000090 a6 36 c2 3d 5b bf 65 bd 43 c2 13 bc 88 c8 fb 3c
       0.094830796 -0.056090694 -0.009018484 0.03073527
0000a0 71 94 99 3a 34 e4 54 3d 13 8a 01 bd 25 95 11 3d
       0.0011717213 0.051975444 -0.03162582 0.035542626
0000b0 1b f8 ca 3c 7d 86 2a bd 8f fe 72 3d 12 f6 86 bd
       0.024776509 -0.041632164 0.059324797 -0.06589903
0000c0 48 3b 9d bd 6a 72 2b 3d 83 f9 05 3d 83 b8 64 3d
       -0.076773226 0.04185716 0.032708656 0.055840027
0000d0 12 7d 1e bd a7 02 b1 3d 5e 98 a8 3b 1b cf 19 3d
       -0.038693495 0.08643084 0.0051451167 0.037551027
0000e0 71 5a 9b bd e4 fb a2 bd 3d a0 17 3c b5 dc 88 bd
       -0.0758561 -0.079582006 0.009254512 -0.066827215
0000f0 79 23 90 3d de 2c 45 3c 18 75 7f 3d ae a1 8e 3d
       0.07038016 0.012034623 0.06236753 0.06964432
000100 9d 7c 97 3d 7f 4a a4 bc b6 e6 fd 3a a4 9d ee bc
       0.07396815 -0.020055054 0.0019371125 -0.029127903
000110 49 2c ab bd ec 04 79 bc 2e 56 6a bd c7 6c 98 bd
       -0.08358056 -0.015198927 -0.057211094 -0.07442623
000120 99 74 c9 bc e6 59 5f 3d 04 72 50 bc 3e 69 e9 3c
       -0.02459173 0.054529093 -0.012722496 0.028492566
000130 b4 ec ae 3d 75 45 96 3d eb 05 7d 3d 81 bd f3 bc
       0.08541241 0.073374666 0.061773222 -0.029753448
000140 9a 82 59 bd 90 59 37 3d a1 80 84 3d 80 09 9c bd
       -0.053103067 0.044763148 0.064698465 -0.076189995
000150 19 b1 81 bd 92 2e 46 bd 20 02 bf bb 44 a0 8a bd
       -0.06332607 -0.048384257 -0.0058291107 -0.067688495
000160 0c 61 f6 3c 6b d7 94 bd a3 da f4 3c 26 5e 07 bd
       0.030075572 -0.0726765 0.02988941 -0.03304877
000170 d2 55 9e bd de 01 94 bd ac d2 cd bb 0c 98 36 3d
       -0.07731213 -0.07226919 -0.0062812176 0.044578597
000180 60 bd 87 bd 0e ea 3c bd 26 9e a6 3d 1a 9b 91 bd
       -0.06627917 -0.04612165 0.08135633 -0.071096614
000190 29 ce 4d 3c 3b 00 26 bd 52 64 d8 3c 49 4d bd bb
       0.012561359 -0.040527564 0.026415024 -0.0057770354
0001a0 33 fb 94 bd ea 31 29 bc 59 64 04 3d 1f 62 e1 3a
       -0.07274475 -0.010326842 0.03232226 0.001719538
0001b0 3c 11 43 bd 04 b2 05 3c bd b4 32 bd e6 ba 2c bd
       -0.047623858 0.008160118 -0.043629397 -0.042170428
0001c0 7e 2f 2f bc b2 6d 0d 3d 36 b5 dd 3b 76 8c 8f 3d
       -0.010692475 0.03452844 0.006765987 0.07009213
0001d0 5a fe ac bd f3 af 92 bc cf cf 3d 3d 01 a3 d2 bc
       -0.08446951 -0.017906165 0.04634076 -0.025712492
0001e0 a7 42 94 3d 3f d3 96 bb 4b 00 aa 3d 3d 6a 70 3d
       0.072392754 -0.004602819 0.08300837 0.058695067
0001f0 3b 43 42 3c be ce c9 3c 2c c6 9a bd 0b d6 f1 bc
       0.011856849 0.024634715 -0.075573295 -0.029521009

actor.linear2.weight f4 [128, 128]
000000 10 71 ab bd f8 07 98 bb 3e 16 1a bd 95 ef 9e 3d
       -0.08371174 -0.004639622 -0.037618868 0.077605404
000010 f6 b2 97 bd 1f 15 99 bd cd a2 90 3b 0b be cd 3c
       -0.07407181 -0.07474732 0.0044139386 0.025115034
000020 cd 91 81 3c 67 2c b0 bd 4a ba b3 bc 3a 1d a3 bd
       0.015816594 -0.08602219 -0.021939415 -0.07964559
000030 3c 3a 88 3d f3 17 36 3c 22 e8 53 3d 49 b9 09 bd
       0.06651732 0.011114108 0.05173505 -0.033623967
000040 88 31 18 bd 10 f5 90 bd 62 08 04 3d cb 78 ab 3d
       -0.03715661 -0.07077992 0.032234557 0.08372649
000050 2a 35 66 3d 0c bd 9b bd e9 60 31 3d 89 e0 81 3d
       0.056203045 -0.07604417 0.04330531 0.06341655
000060 e8 15 66 bd 75 fd a3 bd c5 e0 b4 bb 1e a8 97 3d
       -0.056173235 -0.080073275 -0.0055199587 0.07405113
000070 0a d8 93 3d 4f 4c 25 bd 98 70 06 3c 2b b1 71 bd
       0.072189406 -0.040355977 0.008205555 -0.05900685
000080 bd 7d 51 bd 0d 7e 49 bd ff 6c 67 bd fe 63 1e bd
       -0.051145304 -0.049192477 -0.05650043 -0.03866958
000090 57 a7 9b 3c eb 97 20 bd f9 ae 7b bd 83 6c 56 3d
       0.019000692 -0.03920738 -0.061446164 0.05234958
0000a0 da 65 e2 bc 77 95 64 3d bc 67 d6 3c 0c 0b 71 3d
       -0.027636457 0.055806603 0.026172511 0.058848426
0000b0 42 84 47 3d 0c f6 ea ba c2 ac af 3d 91 33 4a 3d
       0.048710115 -0.0017926111 0.08577873 0.049365584
0000c0 a7 e0 f7 bc 87 71 30 bd b8 e0 9c bd be da 31 bd
       -0.03025849 -0.043077018 -0.07660049 -0.0434215
0000d0 a0 18 09 bb c2 6b 9e bb 53 41 cc bc 22 09 e9 bc
       -0.0020919219 -0.004834623 -0.024933493 -0.028446738
0000e0 16 ee 34 3d 29 cf d1 bb 44 b3 0f 3d fa 35 24 3d
       0.04417237 -0.0064028692 0.03508307 0.04009054
0000f0 c0 f7 09 bd 72 07 97 3d 01 43 83 bd f6 e7 88 bd
       -0.03368354 0.07374467 -0.06409264 -0.06684868
000100 d8 b6 af bc b0 82 6d bc 26 9a b6 3d 64 2e 49 3b
       -0.021449491 -0.01449649 0.0891612 0.0030697817
000110 db cc 5e 3d 8a 71 31 3d 87 bf 97 bd a6 9d 9d 3d
       0.054394584 0.04332117 -0.07409578 0.07696085
000120 be ab 90 3d 39 d5 a3 bb 6b 33 b6 3c b6 43 93 bc
       0.07064007 -0.0049997834 0.022241315 -0.017976623
000130 58 31 d0 3c ee eb f3 bc 5a eb 5e 3d 99 95 6b bd
       0.025414154 -0.029775586 0.054423667 -0.057515714
000140 9d b0 ff 3b 1a 87 25 bd 03 f7 4f bb 35 1f 82 bd
       0.0078030364 -0.040412046 -0.0031732924 -0.063536085
000150 59 e2 6f bd 1b db 16 3d 24 ef 7a bd f4 3f 4f bd
       -0.05856547 0.03683005 -0.06126322 -0.0505981
000160 c9 45 b7 3b 36 5e 4c 3c 5e 06 4b bd 23 8a b6 bc
       0.005593036 0.0124736335 -0.04956662 -0.022282666
000170 4c 5e 00 bd 1a 91 3f 3d 40 11 1f 3d 3d e4 d7 bb
       -0.03133993 0.04676924 0.03883481 -0.0065884874
000180 5a e5 13 3b cc 3b e4 3c a4 a2 9e bd 72 07 a3 bc
       0.0022567124 0.027860545 -0.07745865 -0.019901011
000190 e8 a4 98 3d 5b 47 99 bd a3 e3 a1 bd 32 3a 78 3d
       0.07453328 -0.07484313 -0.079047464 0.060602374
0001a0 fd 2f 6a bd de 1f 96 bd ff 13 9a 3d 67 48 c2 bb
       -0.05717467 -0.07330297 0.07523345 -0.005929041
0001b0 c5 5f b4 bd 4b b8 ae 3d 60 de 11 bc 1d 21 ea 3c
       -0.08807329 0.08531245 -0.008903116 0.028580243
0001c0 c2 5f b1 bc a1 6d 33 bd 0f 4b 08 3d f1 85 60 bb
       -0.021652106 -0.043805722 0.033274706 -0.0034259523
0001d0 70 51 7d 3c 30 a9 ae bd 2d c6 95 3d 0c 80 67 3d
       0.015461311 -0.08528364 0.0731319 0.0565186
0001e0 51 ba aa 3d 24 62 9b 3d ec 52 28 bd ac 97 00 bc
       0.08336318 0.07587078 -0.041094705 -0.007848661
0001f0 02 aa 8d 3d 8c 74 96 bc e8 b4 92 bd 43 86 74 bc
       0.06917192 -0.01836612 -0.071634114 -0.014924589
000200 5d c1 b2 3d 7f f4 87 bc e6 80 81 bd 7a 6a 77 3c
       0.08728287 -0.016596077 -0.063234136 0.01510107
000210 d4 22 5e 3d 8a 54 56 3d bd ba 7d 3c 4d 45 46 3d
       0.054232433 0.052326716 0.015486416 0.048405934
000220 ac 88 6f 3c 32 3f 3d 3d 3d ab a3 bd da a8 c0 3c
       0.014619987 0.046202846 -0.079916455 0.023518015
000230 72 48 b5 bc 40 46 00 3d cf dd 16 bd 93 5a 11 3d
       -0.022129271 0.031316996 -0.036832627 0.03548677
000240 1b 69 8d bd a9 67 bf bd 3d 7e f0 3c 65 84 db bc
       -0.06904813 -0.093459435 0.02935707 -0.02679653
000250 12 d7 83 bd fa 09 36 3d ce c6 95 3d d5 55 8f 3c
       -0.06437506 0.04444311 0.073133096 0.017496983
000260 ce c5 a3 bd 2f 41 cd bc 2b 99 90 3d f2 e0 57 3d
       -0.079967126 -0.025055496 0.070604645 0.05270476
000270 45 57 23 3d 49 c7 ab 3c e7 58 8c 3d e3 94 9e 3d
       0.03987815 0.02096905 0.06852894 0.07743242
000280 34 19 a6 bd a2 34 b4 bd a9 1f cb bc 89 25 a8 bb
       -0.08110276 -0.087991014 -0.02479537 -0.0051314277
000290 ea c9 4d bd 40 3e 43 3b 65 53 93 3d 2c 08 4e bc
       -0.05024139 0.0029791743 0.071936406 -0.0125751905
0002a0 43 12 51 bc 68 c9 09 3c 01 5d 4d 3d 2b ad 90 bd
       -0.012760702 0.008409835 0.050137524 -0.07064279
0002b0 53 16 09 3c 73 69 22 bd 09 35 a8 3d c6 4d 87 bd
       0.008367139 -0.039651345 0.08213241 -0.06606631
0002c0 3a 8b cf bc 23 59 88 3d d7 f9 82 3d d8 e2 39 3d
       -0.025334943 0.066576265 0.063953094 0.04538235
0002d0 d7 01 75 3d 8e 0f b8 3b 32 fe 20 bd fb bc 8a bd
       0.059816208 0.0056170886 -0.03930492 -0.067743264
0002e0 3c d7 49 39 6c 3f 69 bd 27 a0 e3 bc b4 10 b0 3d
       0.00019249035 -0.05694525 -0.027786328 0.08596936
0002f0 c6 eb 80 bc 23 3f 65 3d 75 30 72 3d 34 bd 77 bb
       -0.015737426 0.055968415 0.059128243 -0.0037801983
000300 69 e0 24 3d 87 46 38 3d 26 c1 57 3d e2 b9 07 bc
       0.040253077 0.044989135 0.052674435 -0.008284064
000310 95 55 64 bb 45 42 83 bd cc 09 88 3d e3 54 75 3d
       -0.003484105 -0.06409124 0.066424936 0.059895407
000320 64 09 44 3d 55 1e 83 3d 32 2f 8b bd ab e1 85 bd
       0.047860518 0.0640227 -0.06796111 -0.065371834
000330 44 89 a4 3d ff fe 51 3c 7b 55 15 3d b0 a0 ae 3b
       0.08033994 0.012817143 0.036458474 0.005329214
000340 54 7b 4f 3d fe 7e 82 bc e0 8e 81 bb 7e 03 9f 3d
       0.050654724 -0.015929695 -0.0039537996 0.07764338
000350 7f 8b e1 bc 7f 89 90 3d 16 3f 42 3d 6c 76 f8 3b
       -0.027532337 0.07057475 0.047423445 0.0075824764
000360 36 e4 23 bc 32 1b 7d 3d 66 a4 e4 bb c6 9d e5 bc
       -0.01000314 0.061793514 -0.0069776056 -0.028029334
000370 b9 a2 b8 3d 50 c1 bd 3d 97 5f a2 3d 9e f7 86 bd
       0.09015412 0.09265387 0.079283886 -0.06590198
000380 ca d2 45 bc e8 10 fc 3c ea 96 55 bc c5 32 e5 3c
       -0.012074182 0.03076978 -0.013036469 0.02797831
000390 bb a4 10 bd bf bf 7d bd 87 0a 76 3d a4 8f 90 3d
       -0.03531335 -0.06195044 0.060068633 0.07058647
0003a0 50 01 95 3d 16 07 8d bd fc 85 20 bd 62 eb c5 bb
       0.07275641 -0.06886117 -0.039190277 -0.0060400227
0003b0 ea 98 eb 3c 5d 54 c4 ba 0d 02 fa 3c 56 7c 25 3d
       0.028759439 -0.0014978755 0.030518556 0.04040178
0003c0 04 fc a3 bd 3f d9 51 3d a8 39 98 bc 3f cd 99 bd
       -0.080070525 0.051232573 -0.01858218 -0.07509851
0003d0 b6 53 a7 3d 0b 89 a9 3d 3f 6b b4 bd 0a 32 49 3c
       0.081702635 0.08278092 -0.08809518 0.012279997
0003e0 af 07 99 bd fb fd 48 3d 3d 32 5d 3d fe d9 78 bd
       -0.07472169 0.04907034 0.05400299 -0.06075477
0003f0 bf 19 d2 3c 21 1a 1b bc 6a 48 b5 3d 5e b4 00 3d
       0.025647042 -0.009466679 0.088517025 0.03142201

actor.linear2.bias f4 [128]
000000 97 77 47 3d f5 1e 33 bd 1f 71 48 bd d7 f2 2e bd
       0.048698034 -0.043730695 -0.048936006 -0.04271206
000010 6a 08 86 3b d6 fd ac 3a cd 3b 0b 3d 6a f0 b7 3c
       0.0040903585 0.0013198208 0.033992577 0.022453506
000020 62 80 9f bd a5 1b 2c bc 60 7d 7e bd d9 30 88 bd
       -0.07788159 -0.010504638 -0.062131286 -0.06649942
000030 a5 15 a5 bd 54 58 0d 3d 8a f3 25 3d c2 35 a8 3d
       -0.08060769 0.034508064 0.04051546 0.082133785
000040 d1 db 77 bd 2c 48 98 bc 1c 0d 9c bd 1b 75 39 3d
       -0.060512368 -0.018589102 -0.07619688 0.045277696
000050 ae 67 9d 3d 5c b6 76 3c 47 04 9e bd 71 32 07 bc
       0.07685791 0.015058126 -0.077156596 -0.008251772
000060 91 89 47 3d 5e f0 64 bd 50 e2 0a bd 35 91 83 3d
       0.048715178 -0.055893295 -0.033907235 0.064241804
000070 1c 4a 84 bd de 2d 80 bd ef a5 33 3d aa 22 16 3d
       -0.06459448 -0.062587485 0.04385942 0.036654152
000080 60 14 e3 3c b7 a1 47 3d ed 5b 91 bd 54 14 2f 3c
       0.027719676 0.048738208 -0.070976116 0.010685999
000090 35 c1 32 3d 3e 73 15 bd da be a4 3d 73 e8 3b 3d
       0.043641288 -0.036486857 0.080442145 0.045875978
0000a0 f2 03 11 bd 65 3c 2c 3c 2a a5 14 bc 8f 90 85 bb
       -0.035404153 0.010512446 -0.009072581 -0.0040760706
0000b0 33 64 83 bd 7f ce 18 3b e2 fd f0 bc 15 7d 63 3d
       -0.06415596 0.002331644 -0.029417936 0.05553921
0000c0 81 24 93 3d b3 b9 82 bd 2f 50 4c 3d ad 61 f2 3c
       0.07184697 -0.063830756 0.049881157 0.029587591
0000d0 e8 42 ad 3d 45 be 04 bd 00 72 49 bd b0 92 d9 bc
       0.08460027 -0.032408018 -0.049180984 -0.026559204
0000e0 58 67 b5 3d 73 31 bd 3b 80 b0 92 bd 37 e9 88 3c
       0.08857602 0.005773717 -0.07162571 0.016712768
0000f0 15 a4 22 bc f5 b0 7e bd ae e4 81 bc 1f db a1 3d
       -0.0099268155 -0.062180478 -0.015856113 0.07903122
000100 55 e9 8b bd 91 bf 87 3d 5c c5 43 3d 85 89 a6 3d
       -0.06831614 0.06628335 0.04779564 0.081316985
000110 ec 0a 62 bd 75 33 b6 3c 33 ce b4 3c 5e 20 c6 bb
       -0.055186197 0.022241333 0.02207098 -0.006046339
000120 bd 17 3a bd ec bc a7 3c 19 74 35 bc 76 39 06 3d
       -0.045432795 0.020475827 -0.011075043 0.032769643
000130 11 5e db ba 89 be a5 bc 28 82 a7 bd 9d 21 30 bc
       -0.0016736408 -0.020232456 -0.08179122 -0.0107502015
000140 c4 9b 8b 3d e6 bc 2b bb 26 26 92 3d aa 1b 3c 3c
       0.06816819 -0.0026205122 0.071361825 0.011481205
000150 b1 e7 3f bd 71 46 22 bb 39 19 47 3c 60 6c 15 3d
       -0.046851818 -0.0024761225 0.01215201 0.036480308
000160 c7 af 0a bd 23 34 96 3d 4b 78 1b bd fb 53 48 3d
       -0.03385904 0.07334163 -0.037956517 0.048908215
000170 ae e2 ce bc 26 36 e3 bc 1c 8a b7 3d 4b 15 b5 bc
       -0.025254574 -0.02773578 0.08961889 -0.02210488
000180 9c c1 2d 3d b9 7d 51 3d db f7 d3 bc 88 50 5f bd
       0.04242097 0.05114529 -0.025875023 -0.05452016
000190 85 26 61 bd c4 c2 a4 3d 8a 50 db 3c 35 30 9a 3d
       -0.054968376 0.08044961 0.026771802 0.07528726
0001a0 a4 e5 4c 3d e9 69 2a bd 4c 00 d6 3c 19 71 85 3d
       0.05002369 -0.04160491 0.026123188 0.06515712
0001b0 f1 4d 8b 3d d6 f8 1a 3b ca 3b 81 3d e0 51 73 3d
       0.068019755 0.0023646853 0.06310232 0.059404254
0001c0 d2 48 a3 3d 31 25 6f bd 26 67 b6 3d a2 07 68 bd
       0.07972874 -0.058385078 0.08906393 -0.056647904
0001d0 25 1e 46 bd 1d 7e 6e 3b 9c 8c 1f bd 4d 7c d3 ba
       -0.04836859 0.0036391087 -0.038952455 -0.0016135067
0001e0 fa 29 97 bd 9b 08 4e bd 0e 6b 66 bd 4b 30 e2 3c
       -0.07381053 -0.050301176 -0.05625444 0.027610919
0001f0 8b 21 22 bd e9 12 11 bd 85 5a 6e 3d 6f a2 7e 3d
       -0.03958277 -0.035418425 0.058191795 0.062166627

actor.linear3.weight f4 [128, 128]
000000 c2 dd ad bd c6 7d 8d bd 80 ff b8 bc 0a 5d 2c bd
       -0.084895626 -0.06908755 -0.02258277 -0.042080916
000010 92 ac 51 3c 03 28 60 3d f0 c4 84 bd 0a 82 a2 3d
       0.012797492 0.05472566 -0.06482875 0.07934959
000020 0f 89 ad bd 85 4d 74 3d f7 ec 18 3d f1 6d 6b bd
       -0.084734075 0.05964424 0.037335362 -0.057477895
000030 bc 87 eb bb 3c ae 6a bd 00 83 b0 bd 2c 43 88 bd
       -0.0071878117 -0.05729507 -0.08618736 -0.06653437
000040 93 06 ea bc 54 86 4f 3d 17 b5 01 3d 8d b1 67 bc
       -0.028567588 0.050665215 0.03166684 -0.0141414525
000050 47 fc aa bd 7b 05 5e 3d f2 52 a4 3d 33 86 5a 39
       -0.08348899 0.054204445 0.08023633 0.00020840093
000060 83 8e 06 3d 68 65 11 bd 39 c1 d4 3c e7 b4 a9 bd
       0.032850754 -0.0354971 0.025971042 -0.082864575
000070 d7 4d 8b 3d 0c 2b b2 b9 9f 30 a1 3c 92 a4 a0 bd
       0.06801956 -0.00033982878 0.019676505 -0.07843889
000080 39 41 9a 3b 24 8e 42 bc 7f e9 04 3b 3a 91 ed 3b
       0.004707482 -0.011874709 0.0020280776 0.0072499784
000090 8c 2d a6 3d ba 2d 0c bd 07 1e 6c 3d 48 51 17 bd
       0.08114156 -0.034223296 0.057645824 -0.03694275
0000a0 e5 cc 90 3c a7 d8 8d 3d 90 ad 1b 3d 81 4c ae 3b
       0.017675826 0.06926089 0.03800732 0.0053191786
0000b0 26 13 45 3d 68 fc b2 3d 7f 92 1b 3d 2b 07 77 3d
       0.048113964 0.08739549 0.037981506 0.06030957
0000c0 ec ac 59 bd 8a 21 1e 3d 23 d5 b0 3d 35 b5 6f bd
       -0.053143427 0.038606204 0.086344026 -0.058522422
0000d0 36 4e a7 3d de 1b 15 3d c7 b5 36 3d 21 b5 1d 3c
       0.081692144 0.03640353 0.04460695 0.009625704
0000e0 e3 b1 a1 bd 1a be ad 3d 8e ca 89 bd 01 dc 58 bd
       -0.07895257 0.084835246 -0.06728087 -0.052944187
0000f0 39 16 25 bd 23 95 70 3d cb 43 21 3d 5b 6c 57 3d
       -0.040304396 0.058735978 0.039371293 0.05259357
000100 0e e7 ac bd 93 f9 86 3d 6b a5 f9 3b be 5c 08 bd
       -0.08442508 0.06590571 0.0076185963 -0.03329157
000110 c0 30 56 bd df 59 0b 3c 4d 95 13 3c f4 b7 e3 bc
       -0.052292585 0.008505314 0.009007764 -0.027797677
000120 d0 e6 51 bd ea 81 9e 3c c2 59 2c bd 7f 63 3c bd
       -0.05124551 0.019349057 -0.042077787 -0.045993324
000130 9a 93 32 3d ff cc 99 3d fc f0 a6 3d c1 f8 03 bd
       0.043597795 0.07509803 0.08151433 -0.032219652
000140 4b 40 89 bd 7b f3 57 3d a9 72 4c 3d ed bb 24 ba
       -0.06701716 0.052722435 0.049914036 -0.00062841066
000150 98 16 a3 bd 75 43 6b bc d6 dd 85 3c 85 71 5b 3d
       -0.07963294 -0.014359345 0.016341131 0.053575058
000160 44 cb 64 bd 4a cf f0 3c 35 4c c0 bb 30 95 93 3d
       -0.05585791 0.029395718 -0.0058684596 0.0720619
000170 1c 6d 77 bd 5d 29 74 bd aa c2 50 3d 17 d6 35 bb
       -0.06040679 -0.05960976 0.050966896 -0.0027746016
000180 6c b2 6e 3d 8e 57 97 3d aa 81 9e 3d 33 9a c1 bc
       0.058275625 0.073897466 0.07739575 -0.023633098
000190 eb 6c 34 bd 8e 2b 80 bd c5 41 4a 3d 98 86 2b 3d
       -0.044049185 -0.062583074 0.04937913 0.041876405
0001a0 1d b2 3b bd a0 cf 3e 3c f7 90 57 bd c4 e3 a6 bd
       -0.04582416 0.011646181 -0.052628484 -0.081489116
0001b0 2c 5c 04 3d c6 cd 0a 3c 58 a4 ac bc b7 bb b3 3d
       0.032314464 0.008471912 -0.021074459 0.08776038
0001c0 67 90 0f bd 21 4e 98 3d ad bd fa 3c f1 a0 b2 bd
       -0.035049822 0.07436777 0.030608023 -0.087221034
0001d0 0c 25 5d bb 8f a9 5d 3c 41 90 43 bd bd 20 85 3d
       -0.0033744005 0.013529195 -0.047744993 0.06500385
0001e0 9e 95 af 3d 82 fc 87 3d c0 8b 9f 3d e1 01 5f 3d
       0.08573459 0.06639959 0.07790327 0.05444515
0001f0 22 72 2d bd 08 1f c4 bb c9 1b 34 bd 1e bc 1c 3d
       -0.042345174 -0.0059851445 -0.04397181 0.03826534
000200 16 c5 1b 3d 70 96 0c 3c 56 71 96 bc 70 72 49 bd
       0.038029753 0.008580789 -0.01836459 -0.0491814
000210 d7 85 9b bd c4 f0 94 3d 4f e1 4e 3d 90 a2 1b bc
       -0.07593887 0.07272485 0.05050784 -0.009499207
000220 d1 d7 ef 3c 5f 5d c1 bc 37 c3 b2 3d 7c 0a 76 3d
       0.029277714 -0.023604093 0.087286405 0.060068592
000230 7d 16 a3 bd ce ef b9 3d 45 d2 91 3d c6 53 b9 bb
       -0.07963274 0.09078942 0.07120184 -0.0056557385
000240 39 04 4a bd 0e 48 0f bb 82 5f 4f 3d d0 42 93 bd
       -0.049320433 -0.0021863016 0.050628193 -0.07190478
000250 92 0c e5 bb 39 11 b7 bd 39 98 a8 3c 36 56 5b bd
       -0.006990024 -0.08938832 0.020580398 -0.053549014
000260 77 82 1e 3d da 48 52 3d 55 c4 80 3d 1e 7a c6 bc
       0.03869864 0.051339008 0.06287447 -0.024228152
000270 f5 e8 b3 3d ad f2 39 3d 2a 55 e7 bc 35 6d ad 3d
       0.087846674 0.04539745 -0.028238852 0.08468095
000280 e7 37 3c 3d c7 88 57 3d 05 8e 03 bd f0 14 46 3d
       0.04595175 0.052620675 -0.032117862 0.04835981
000290 20 5a 74 3c 0c eb 81 bd 4f f7 5f 3d dd 7c 9c bd
       0.014914066 -0.0634366 0.05467921 -0.07641003
0002a0 b8 04 6a bd 62 d6 71 3d d8 98 6f bd e1 33 8b 3d
       -0.057133406 0.059042342 -0.058495373 0.067970045
0002b0 9d 43 03 bd c1 c6 10 3d 7b e5 b1 bc 32 52 a7 3c
       -0.032046903 0.035345796 -0.02171587 0.020424936
0002c0 d9 2d 13 3d 57 d7 78 bd 80 16 a2 3c 8d 3d 37 3d
       0.035932396 -0.06075224 0.01978612 0.044736434
0002d0 27 27 90 bd 52 0f 6f 3b 66 14 6b 3c 36 d0 32 bd
       -0.07038718 0.0036477637 0.014348125 -0.043655597
0002e0 52 25 51 3d 48 69 b2 3d d1 56 52 3c 9a 70 8b 3c
       0.051060982 0.08711487 0.012838081 0.017021466
0002f0 5a e4 6c 3d 03 fc ae 3c 95 f4 a4 3c ea 00 a9 bd
       0.05783496 0.021360403 0.020136157 -0.082521275
000300 f2 30 fa 3c 04 69 a9 bd 11 be 89 bd 0d 42 a8 bd
       0.030540917 -0.08271983 -0.067257054 -0.08215723
000310 17 b1 24 bd d8 94 1d bd cf c6 f7 bc fc d9 88 bd
       -0.04020795 -0.038472027 -0.030246167 -0.06682202
000320 86 34 42 3c 8f 21 7c 3d 78 50 2f 3b 61 c2 3e 3b
       0.011853343 0.06155544 0.0026750844 0.0029107558
000330 96 15 3b bd 59 c0 e0 3c 8e aa dd 3c 5b 82 99 bd
       -0.045674883 0.027435469 0.027058866 -0.074955665
000340 e2 ae b1 bc 1b f9 9f 3c 8a 71 e8 bb 50 db a7 3c
       -0.021689836 0.019527962 -0.007093613 0.020490319
000350 de 0d c0 3c 4d 7c 9f bc 99 5d 81 bc 1a ad 20 3d
       0.023444112 -0.01946845 -0.015791701 0.039227583
000360 45 04 94 bd a8 2c b0 3c 2c 0b 8f 3d 99 8a 7f 3c
       -0.07227377 0.021505669 0.06984553 0.015597009
000370 1e 2a 15 3d 9b 92 0c bb c8 d9 63 bc 42 da e3 bc
       0.03641712 -0.0021449688 -0.013906904 -0.027814034
000380 1a ae 3c bd 54 87 ab 3d 2d 04 9f bc 19 7e 8d 3d
       -0.046064474 0.08375421 -0.01941117 0.06908817
000390 70 53 65 3c f9 14 14 bd 44 28 e1 3c 2d 44 4a bd
       0.013996944 -0.036152814 0.02748502 -0.049381424
0003a0 03 3e a8 3d c3 65 56 3d d4 a6 6b 3d c7 64 76 3c
       0.08214953 0.05234314 0.057532147 0.015038676
0003b0 f0 c3 3a 3d 9b 3f ab bd 16 64 11 3d a9 25 b9 3d
       0.045597017 -0.08361741 0.03549584 0.09040386
0003c0 15 22 9f bd ea 94 6e 3d a8 4d 32 3c e9 90 4a bc
       -0.077701725 0.058247484 0.0108827725 -0.012363651
0003d0 9a a7 69 3d ab 6f f8 3c 2a 96 b9 bd 58 3b aa bd
       0.057044603 0.030326685 -0.09061845 -0.083121
0003e0 0b ae 88 bd d0 be 14 bc a8 24 9b bd f5 51 ac bd
       -0.06673821 -0.009078696 -0.07575351 -0.084140696
0003f0 0c f5 9a bc 35 59 37 bc cc 57 9c 3c a6 03 86 bd
       -0.018915676 -0.011190702 0.019084834 -0.06543665

actor.linear3.bias f4 [128]
000000 dd 22 bc bc da 33 ac 3d 76 44 4a bd 41 ea b2 bd
       -0.022965843 0.084083274 -0.049381696 -0.08736087
000010 2e 5e 81 bd 86 8f 52 3d ac 41 bf 3c 62 d9 46 bd
       -0.063167915 0.051406406 0.023346744 -0.048547156
000020 93 62 20 bc af e6 9e 3d 2c 77 7f bd 57 51 9e 3d
       -0.009789127 0.07758843 -0.06236951 0.07730358
000030 a3 6f 82 3d 52 e9 7e 3d 73 eb 54 3d ed c2 68 bd
       0.06368949 0.06223423 0.051982354 -0.05682652
000040 ed 2d 91 3c f5 c5 a9 3d ca 47 76 3d 6e a1 c3 3c
       0.017722094 0.082897104 0.060127057 0.023880687
000050 6d 5f 49 3c 94 24 2b bb ff 88 e1 bc 5d 6e f2 bc
       0.012290818 -0.0026114332 -0.027531145 -0.029593641
000060 59 58 49 bd 7e 0c a9 3d ef 81 3c bd 06 8e fb 3c
       -0.04915652 0.08254336 -0.04602235 0.03070737
000070 4f cc 78 bd 99 98 15 3d 69 b3 c6 38 40 4c e0 3b
       -0.06074172 0.03652248 9.4747935e-05 0.006845027
000080 07 66 88 3d 4a 03 26 bd 9a fd 3d 3d f1 17 bc bd
       0.06660085 -0.04053048 0.04638443 -0.09184254
000090 b2 2e ce bb ff 6e ab bd 9e 83 c4 3c c7 96 9e bd
       -0.0062921876 -0.0837078 0.023988541 -0.07743602
0000a0 b9 67 91 bd c0 e3 6f 3d 7e c9 f0 3c a0 ed 4d 3d
       -0.07099862 0.05856681 0.029392954 0.050275445
0000b0 77 18 88 bd 8d 80 5a bb ad 1c d3 3b 70 d4 b1 3d
       -0.06645291 -0.0033340782 0.0064426274 0.08683097
0000c0 c0 ba 26 bc 01 7a a2 3c 25 2e 8b 3d b3 f5 9f 3c
       -0.010176361 0.019833567 0.06795911 0.019526338
0000d0 3c 6f 99 bc 98 02 b3 bd 15 05 9e bd a4 45 56 3d
       -0.018729798 -0.08740729 -0.07715813 0.05231251
0000e0 bb 62 d0 3c 7e 03 ee bc 6e 6f b8 3b d2 de f3 3c
       0.025437703 -0.0290544 0.005628518 0.029769335
0000f0 23 4e 95 3b 3c 74 36 bc 89 95 53 3d dd 7a 71 3c
       0.0045564338 -0.011136111 0.05165628 0.014738766
000100 51 63 18 bd e1 59 b5 bc 88 fd 7d 3d 13 a5 9d bd
       -0.03720409 -0.022137584 0.062009364 -0.07697501
000110 d6 e8 8c bd 68 27 a3 3d 49 50 74 3d ae a3 96 bd
       -0.068803474 0.079665005 0.05964688 -0.07355438
000120 7a c5 39 3d ee 8b 9a bd 9c 97 8d bb bd c7 ad 3c
       0.045354344 -0.07546221 -0.0043210518 0.021213407
000130 c5 d2 13 bc 3c 0a 92 bc 09 2f 95 bd a1 47 b8 3d
       -0.009022419 -0.017827146 -0.07284362 0.08998037
000140 3f 72 a3 3d 61 61 a9 bd e0 4f 13 3b fd aa d4 3c
       0.07980775 -0.08270527 0.002247803 0.02596044
000150 33 64 86 3b c5 d7 73 bc ac 3e 18 3b b3 08 83 bd
       0.0041013 -0.014882986 0.0023230715 -0.063981436
000160 f7 ed 93 bd 28 a3 c4 bc 39 a5 37 bc f8 be 76 3d
       -0.072231226 -0.02400358 -0.011208826 0.060240716
000170 1a 63 03 3b 52 96 38 3d 01 9c b1 3c c4 bb c1 3c
       0.0020048083 0.04506523 0.021680834 0.023649104
000180 0d 45 40 bc 70 ee ae 3d f8 59 14 3d 3e d3 44 bd
       -0.011735213 0.08541572 0.036218613 -0.04805302
000190 50 7b dc 3b b3 9d e3 bc 83 c7 26 3d 05 37 91 3d
       0.006728567 -0.027785158 0.040717613 0.07090572
0001a0 66 00 a2 3d 8e 6d 06 3d 4b 16 4e bd 4b 1c f9 bc
       0.07910232 0.032819323 -0.05031423 -0.030408999
0001b0 c2 6b b5 3d a2 26 17 bc 46 e0 b0 3d 42 af 9a bd
       0.08858444 -0.009225519 0.08636527 -0.07552959
0001c0 20 72 19 3d b6 c4 b4 3c 86 e6 94 bd 4c 8e 68 bd
       0.037462354 0.022066455 -0.07270531 -0.05677633
0001d0 fc 9f 5f bd 4d a1 6e bd a1 05 72 3d 05 6f 9b 3d
       -0.054595932 -0.058259297 0.0590874 0.07589535
0001e0 2f e1 4b 3d e5 c9 a4 3d a2 0c 83 3d d8 50 c3 bc
       0.0497753 0.08046321 0.06398894 -0.02384226
0001f0 08 e5 cc 3c 45 22 a6 3a 89 b9 af 3d 71 df 94 bd
       0.025011554 0.0012675008 0.0858031 -0.072691806

actor.linear4.weight f4 [9, 128]
000000 35 66 24 3d 26 26 d4 3c c6 1d 34 bc c2 c1 b3 bd
       0.040136535 0.025897097 -0.010993427 -0.08777191
000010 d4 92 54 bd 86 2b c0 bc c5 07 14 3d 49 ea 84 bd
       -0.05189784 -0.023458254 0.036140222 -0.06489999
000020 a9 19 67 3d c6 62 ae bc ce d8 36 bc e7 a0 5a 3d
       0.056420956 -0.021287333 -0.011160089 0.053376105
000030 8d c1 f5 bb b4 98 0d bd 4d 2e 90 3d 9f e0 51 3d
       -0.0074998797 -0.034569457 0.07040081 0.051239606
000040 a4 ab 3c 3d 00 7f 9d 3c f4 81 6b 3d 9e 9f 93 3d
       0.046062127 0.019225597 0.05749698 0.07208179
000050 46 d8 81 bd de f5 6e bd e2 92 9d bd dd 1b c4 bc
       -0.06340079 -0.058339946 -0.07694031 -0.023939067
000060 1a 02 99 bd 24 b6 97 3b 6d 52 a4 3c dd f3 11 bc
       -0.07471104 0.004629867 0.020058835 -0.008908239
000070 f8 e7 9d bd 9d c3 b5 3d b7 50 5d bd 10 58 d2 3c
       -0.0771026 0.08875201 -0.054032054 0.025676757
000080 34 c7 1a bd 15 51 83 bd c0 2f 00 bb 5c e0 6f bd
       -0.03778763 -0.064119495 -0.0019559711 -0.058563575
000090 90 f2 d6 3c a6 59 bf bc 52 47 95 3d a3 fe 60 bd
       0.02623871 -0.023358177 0.07288994 -0.05493034
0000a0 ff 35 28 bd 84 4d 37 bd 20 76 57 bd 1b 06 3f bd
       -0.04106712 -0.04475166 -0.052602887 -0.046636682
0000b0 e0 17 89 3d da b8 43 3d 17 59 3a bd 1f a9 ea bc
       0.06694007 0.04778371 -0.04549512 -0.028645096
0000c0 fc 5c 42 3d 81 22 9d 3d af 7d 5a bc 7d 04 6b bd
       0.047451958 0.07672597 -0.013335629 -0.057377327
0000d0 f2 33 87 bd 79 80 9a bd d7 ce 31 3d 38 55 a2 bd
       -0.06601705 -0.075440355 0.04341015 -0.079264104
0000e0 dd c8 01 bd dd c2 6c 3d 81 2e b0 3d 7f 6b e9 3a
       -0.0316857 0.057803024 0.0860262 0.0017808526
0000f0 9d fc 79 bd 1c fb 86 bd 30 a5 0a bd 83 9f 6a 3d
       -0.061031926 -0.06590864 -0.03384894 0.05728103
000100 e2 a6 4e bd 2b 58 9e 3d c1 0b 9f 3c a5 42 8e 3d
       -0.05045212 0.077316605 0.019414784 0.06946305
000110 95 01 9c bc c9 af ac 3d fc 9b 34 3d 90 5d 2d bd
       -0.019043723 0.08431966 0.04409407 -0.042325556
000120 c1 ee 07 3d 44 0a 2b bd d7 e2 7d bc 90 16 9d 3d
       0.033186678 -0.041757837 -0.015495977 0.07670319
000130 f6 7b a0 3d 41 0d c0 3c ef 07 a0 3d 00 bf b1 3d
       0.07836144 0.02344382 0.07814013 0.086790085
000140 c2 f7 38 3d 99 1f 16 3d 14 12 8f 3c 50 1e 41 3c
       0.045158155 0.036651228 0.017464675 0.011787012
000150 54 e6 30 3d da 69 9d 3c 11 b2 36 3c 7b 4b 9b 3d
       0.043188408 0.019215513 0.011150853 0.07582756
000160 c4 93 73 3c e9 0b 91 3d a9 4a 4e 3d 3b 86 4c bd
       0.014866773 0.0708235 0.05036417 -0.0499327
000170 6b ac 1c 3d 4a f7 48 bc 40 07 a8 bd 0e 07 6a 3d
       0.038250368 -0.01226599 -0.08204508 0.057135634
000180 c3 f0 6a 3b d3 65 aa bc 36 ac af 3d fb a4 32 3d
       0.0035849072 -0.020800507 0.085777685 0.04361437
000190 0f ba bb bd b8 8b 37 bd bd 0c 82 3d 86 3a 29 3b
       -0.09166347 -0.04481098 0.06350086 0.0025822236
0001a0 cd f9 73 bd b8 b1 94 3d 88 d7 98 bd 00 62 74 bd
       -0.0595644 0.0726046 -0.07462984 -0.059663773
0001b0 c9 45 00 bd 0a 64 4a bc 64 a0 bf 3d c0 d8 33 3d
       -0.031316552 -0.012352953 0.09356764 0.04390788
0001c0 e1 96 42 bd 72 7c 60 ba 97 2e 64 bd d9 53 92 3d
       -0.04750717 -0.00085634657 -0.055708494 0.07144899
0001d0 be fe 8d 3d 50 bf 9b 3d b1 f5 38 bd a3 47 17 bd
       0.06933354 0.07604849 -0.045156185 -0.036933552
0001e0 c7 eb 2c 3d 51 c1 a8 3c d9 a9 b4 bc 98 a2 89 bd
       0.042217042 0.020599993 -0.022053646 -0.067204654
0001f0 f8 59 d5 3b 82 1c 67 bd 90 e5 7d bd ac 85 7f bd
       0.0065109693 -0.05642367 -0.061986506 -0.06238334
000200 e0 36 8c 3d 7e c2 68 3d 13 ee 9b 3d 2a 99 54 3d
       0.06846404 0.056826107 0.076137684 0.05190388
000210 a7 a4 89 bd 06 74 a8 3d ee 3c 8d 3d a2 1f cd 3c
       -0.06720858 0.08225255 0.06896387 0.025039498
000220 06 88 8f bb 19 e0 bc 3a 33 47 dd 3a ad d5 5d 3d
       -0.004380229 0.0014410048 0.0016882181 0.054158855
000230 97 b6 13 3d ca 25 70 bc 9a 7b 13 bc ec 26 2f 3d
       0.036062803 -0.014657447 -0.009001637 0.04276173
000240 83 23 fb bc 43 6a d0 3c 02 15 ae 3c cb 8e 95 3d
       -0.030656582 0.025441295 0.021250252 0.07302626
000250 12 8f 7f bd a6 30 83 bd 42 4d b0 3c 7e 66 a2 bc
       -0.0623923 -0.06405763 0.021521214 -0.019824263
000260 79 11 47 3d b6 0f e7 3c 3c 46 71 3d 51 1a ea 3c
       0.048600648 0.028205734 0.05890487 0.028577002
000270 3c e0 86 bd 34 4e 20 bc 40 1f 0d bd 1d 35 9a 3d
       -0.06585738 -0.00978427 -0.03445363 0.07529662
000280 39 1f 3c bc 1c df 79 bd ec b4 b1 bd 5b 00 9f 3d
       -0.011482053 -0.06100379 -0.08677086 0.0776374
000290 85 c3 7d bd de 55 9c 3c c0 f1 16 3c a7 ea a9 3d
       -0.06195404 0.019083913 0.009212911 0.082967095
0002a0 bc dd f1 bb 2d aa 94 bd 81 b2 a2 3c d5 28 a3 bd
       -0.007381169 -0.07259021 0.019860508 -0.079667725
0002b0 8d 4d 84 bc 30 47 81 bd b2 30 75 3b 18 35 e9 3c
       -0.01615026 -0.06312406 0.0037413058 0.0284677
0002c0 12 4e 65 bd bb 42 b4 bd 92 60 d3 bc 53 5f 18 3c
       -0.055982657 -0.0880179 -0.025802884 0.009300071
0002d0 bb b0 26 3d 8a 3f 54 3d fc 96 9b 3d ad 77 9f 3c
       0.040695887 0.051818408 0.07597157 0.019466246
0002e0 30 95 19 bc 70 6a 58 3c 5f 5b 66 3c e0 6a 43 3d
       -0.009373948 0.01320897 0.0140598705 0.047709346
0002f0 ed 0d 08 3d 19 35 54 3d 4d 09 fd 3c 26 7a 60 bd
       0.033216406 0.05180845 0.030888224 -0.05480399
000300 e3 f5 6f bc 5d ce 89 3d 69 53 92 bd 72 f9 a2 bd
       -0.014646026 0.06728814 -0.071448155 -0.07957734
000310 88 18 76 bd 2a e3 64 3c d1 bb b9 3d e8 f2 51 3d
       -0.06008199 0.013970176 0.09069026 0.051257044
000320 d9 55 b2 3b c6 77 81 bc 3f 4f d1 bc b0 a1 61 3d
       0.0054423627 -0.015804183 -0.025550483 0.055085838
000330 03 17 87 bd f3 cd 45 3d 20 cb 48 3d 56 f4 8b 3d
       -0.06596186 0.04829211 0.04902184 0.06833713
000340 04 fd 2e 3d 64 b6 88 3d 4b 10 ec 3c b4 66 a4 bd
       0.042721763 0.06675413 0.028816363 -0.080274016
000350 5c 5e 50 bd 45 1a 99 3d b8 9d 8d bd 11 a8 b2 bd
       -0.050871238 0.07475714 -0.06914848 -0.087234624
000360 3b bb 25 3d c6 72 1e bc 56 82 9f 3b 2c f4 ad bd
       0.04046176 -0.009670919 0.004867832 -0.08493838
000370 3f fd 31 3d 60 4a 8f bd d3 fb 8a 3d 62 29 9d 3d
       0.043454405 -0.06996608 0.06786313 0.07673909
000380 f5 e0 a9 bd 8c 49 2a bd 77 3e 84 bd c9 21 fb 3b
       -0.0829486 -0.041574046 -0.06457227 0.0076639396
000390 10 2d d0 39 2b 44 45 3d 70 a6 92 bd a3 b8 39 bc
       0.00039706426 0.048160713 -0.07160652 -0.011335525
0003a0 12 38 0a bc 8e b2 c0 bc 46 7f f1 3c 1f d5 15 3d
       -0.00843622 -0.023522642 0.029479634 0.0365802
0003b0 5f 4c 16 3d f8 3b 3d bc 32 c4 94 3c a9 11 ab bd
       0.036693927 -0.011549942 0.01815996 -0.08352978
0003c0 f6 7e 04 3b f8 63 42 3d ac d0 b1 3d e5 ac 08 3d
       0.0020217276 0.04745862 0.08682379 0.03336801
0003d0 3d 5e ae 3d 55 6e 28 3d be 25 0c bd e0 55 38 3c
       0.08514068 0.041120846 -0.03421568 0.011250943
0003e0 0c 0b 66 3d 1c 0c b7 bd 23 2a 50 3d 7e 17 8e bd
       0.05616288 -0.089378566 0.050821435 -0.069380745
0003f0 00 57 eb 3c f7 fa 93 bd 98 de b7 3d 9e 8a 86 3a
       0.028728008 -0.07225602 0.08978003 0.00102647

actor.linear4.bias f4 [9]
000000 4c a7 81 3d 71 34 9e bd 8b 6a bd 3c 2f 5c ae 3d
       0.063307375 -0.07724846 0.023122093 0.085136764
000010 12 88 a5 3b 77 c3 33 bd f1 50 69 3d 94 5b 7d 3d
       0.0050516212 -0.04388758 0.056961957 0.061854914
000020 a9 e9 90 3d
       0.07075817

critic.linear1.weight f4 [128, 120]
000000 34 31 9d 3d fb e4 fe 3d 2d 35 b2 3d 4e 94 ea 3b
       0.076754004 0.12446018 0.08701549 0.0071587926
000010 45 b6 0e bd 45 26 8e 3d 4b 64 c8 3c bf 97 14 3d
       -0.034841795 0.06940893 0.024461886 0.03627753
000020 91 48 09 3a 71 a7 e6 3d c7 e7 8d 3d 3a 6a 94 bd
       0.00052369485 0.11262406 0.06928974 -0.072468236
000030 dc 91 56 3d 25 3b bb bc 86 50 96 bd 87 4a a7 bc
       0.052385196 -0.02285535 -0.073395774 -0.02042128
000040 1f 43 7e 3d 21 3a bf bd 3c 83 14 bc da 0e 65 3d
       0.06207573 -0.09337259 -0.009064492 0.055922367
000050 b9 58 ca 3c 85 d9 84 3b b2 b0 1e 3d 1c bd 38 bd
       0.02470051 0.0040542507 0.03874273 -0.045102224
000060 8f 1c 00 3d cf aa 4e bd be 6b a4 3c 2c 5e b6 3c
       0.031277236 -0.050455865 0.020070907 0.022261702
000070 69 c9 14 bd 65 bb 38 3d 1a 8c 9b 3d f4 d5 0c bd
       -0.036324892 0.04510059 0.075950816 -0.03438373
000080 c3 73 67 bd ba e9 24 3d 03 3e bb 3d 5f 90 83 3c
       -0.056506883 0.04026196 0.09142687 0.016060052
000090 d2 11 9a 3d b9 78 a4 3d eb 4a bb bd 95 4c a9 bc
       0.0752293 0.080308385 -0.09145149 -0.0206664
0000a0 ae 6f 0a bc 9b e4 a4 3d 02 65 a9 bd 0d 10 de 3d
       -0.008449478 0.080514155 -0.08271219 0.10842905
0000b0 80 bb fc bc 65 0b 84 bd 26 7f 88 bd 9d eb 25 bd
       -0.030851126 -0.06447486 -0.06664877 -0.0405079
0000c0 d1 cd a6 3d a7 69 b3 3d 91 2c 49 3d 27 d1 b5 3d
       0.08144725 0.08760386 0.049114767 0.08877783
0000d0 28 60 a5 39 f6 38 8c ba a4 c1 a6 3d f7 2f d0 3d
       0.00031542894 -0.0010698128 0.08142403 0.101653986
0000e0 3b 53 ac bd 18 68 5e bc d3 a4 ad bd 39 d9 6d 3d
       -0.084143125 -0.013574623 -0.08478703 0.058068488
0000f0 65 52 92 bd 26 cd 4a 3c b3 11 04 b9 ad 25 b8 bd
       -0.07144622 0.012378013 -0.00012595094 -0.08991561
000100 f8 20 90 bc f0 3c f3 bd 48 33 b4 3d 5f 59 e1 bc
       -0.017593846 -0.11876857 0.087988436 -0.027508436
000110 0b c7 ba 3d f1 c9 28 bd 49 22 af 3c 02 d9 15 bd
       0.09119996 -0.04120821 0.021378653 -0.036583908
000120 a1 03 9b bd 66 fd e2 bd 36 67 dc 3c 1a cf 72 bd
       -0.075690515 -0.11083488 0.026904684 -0.05927954
000130 42 59 fd bc 11 3c b3 3d 3c 9d 92 3c bc 72 e0 bc
       -0.03092635 0.08751691 0.01789724 -0.02739846
000140 c6 29 c8 bd 69 0b be bd 95 78 97 bd f3 cf 17 bd
       -0.09773593 -0.0927952 -0.07396046 -0.03706355
000150 4f 32 a1 3d cb 4c 80 bc f1 17 51 bd 89 4f 02 3d
       0.07870924 -0.015661618 -0.051048223 0.031814132
000160 56 28 85 bc 8f 65 98 bd 47 22 c1 bd b8 d4 6c 3d
       -0.016254585 -0.07441246 -0.09430366 0.057820052
000170 67 e7 14 3d 0e 86 5e bb aa dc 04 3d 91 cd 76 3d
       0.036353495 -0.0033954415 0.032437004 0.060254637
000180 5b 27 2b 3d d9 c3 3d 3d 06 ab 39 bc fc 69 51 bc
       0.04178558 0.046329353 -0.011332279 -0.012781616
000190 04 80 5c bd 86 17 90 3d ea d8 84 bd bb c6 e9 bb
       -0.053833023 0.07035737 -0.064866856 -0.007134286
0001a0 bd 6b 47 bc c6 37 9a 3d ad 03 a2 bd d8 c2 65 3d
       -0.012171683 0.07530169 -0.07910857 0.05609402
0001b0 d9 b2 cf bd 51 b9 b5 3d 14 4e df 3d 89 a6 89 bc
       -0.10141534 0.08873237 0.10903564 -0.016803043
0001c0 0e 30 b4 3d eb 65 e6 bd e1 08 d4 3d bf 41 4d 3c
       0.08798228 -0.11249908 0.10353256 0.012527882
0001d0 bb 65 b0 ba 2e 74 a4 bd e0 31 e5 3d 48 2f c6 3d
       -0.0013458052 -0.08029972 0.111911535 0.09676987
0001e0 77 22 1e bd cc c4 d3 bd 0e 37 0a 3d b7 55 a6 3d
       -0.038607087 -0.103402704 0.03374391 0.081218176
0001f0 41 2e 19 bc f3 0b 9e bd 8e 3b 90 bd f2 1f 10 3d
       -0.009349407 -0.07717123 -0.07042609 0.035186715
000200 13 a4 b4 bb 54 e4 33 bd 9f 6d 23 bd a7 4f 9a 3d
       -0.0055127232 -0.043918923 -0.039899465 0.07534724
000210 22 2d c7 bb dc b5 aa bd 43 1d be 3d 95 f2 57 3d
       -0.0060783783 -0.08335468 0.09282925 0.05272158
000220 4a 19 18 3d ef 20 83 bc d1 a2 ad bd 93 c8 60 bd
       0.037133493 -0.016006915 -0.084783204 -0.054878782
000230 af 2e 84 bd 56 ca 2a 3c 32 0a b9 3d e2 35 44 bd
       -0.06454217 0.010424217 0.09035148 -0.04790295
000240 25 09 70 3d a3 51 4d bc 7c a8 01 3d a9 1b 94 3c
       0.05860247 -0.012531671 0.03165482 0.018079596
000250 27 c0 49 3d 4b dd 21 3c 51 0b 82 3d 44 53 4c bd
       0.049255516 0.0098794205 0.06349815 -0.049884096
000260 06 a1 89 bd 46 54 90 bd 3e 6e fb bc 45 5a 51 3d
       -0.06720166 -0.07047324 -0.030692216 0.05111148
000270 0f 65 0e bd b2 37 ad bd 03 89 94 3d ec d7 a8 3c
       -0.034764346 -0.08457889 0.072526954 0.020610772
000280 af 70 25 bc 6a 07 32 3c 04 24 2d 3d be e2 83 3c
       -0.010097667 0.010866025 0.042270675 0.01609933
000290 d1 45 48 bd c6 d6 48 3d b7 fb 8a bd 95 b6 18 bd
       -0.048894707 0.04903295 -0.06786292 -0.0372835
0002a0 a1 b5 ba bd 7f 62 59 3d 02 8c bb 3c 24 a0 86 bd
       -0.09116674 0.05307245 0.02289391 -0.06573513
0002b0 71 1a 8c bd 81 e5 c4 bd a9 be ae 3d 8f 11 c8 bd
       -0.06840981 -0.09614087 0.08532459 -0.09768974
0002c0 ce 70 71 bd ba f6 08 3c 65 3c a2 3d ff 73 9d bd
       -0.05894547 0.008359605 0.079216756 -0.0768814
0002d0 0f e9 59 3d e1 a5 e7 3c c4 2d 2b 3d 69 e1 23 3b
       0.053200778 0.02827734 0.041791692 0.002500618
0002e0 5b 0a ae 3d 55 81 e5 3c 46 a7 8b bd 75 f3 98 bd
       0.08498069 0.028015772 -0.06819014 -0.07468311
0002f0 fb 14 64 3c 0e d0 ca bd 9a 72 fe bc 93 e0 cb bd
       0.013921018 -0.099029645 -0.031060506 -0.099549435
000300 8c 3f 03 bd 9f 8d 94 3d 13 1e a0 3d bd a2 89 3b
       -0.032043025 0.072535746 0.07818236 0.004200308
000310 83 4d 08 3d 3d 27 56 bd 1b f5 57 3d 2a b6 64 3d
       0.033277046 -0.052283514 0.052723985 0.055837788
000320 94 80 0e bd 7d 8f 47 bd 59 ab a5 3d 87 af 3d bd
       -0.03479059 -0.048720825 0.080893226 -0.046309974
000330 ce eb 96 3c 2b fa 50 b9 87 9e 91 bc 0a 69 ed bd
       0.018422987 -0.0001992962 -0.017775787 -0.115923
000340 20 3e 05 bd 41 7c 76 3c 7b 0f 82 bc ed 9c 85 3b
       -0.03252995 0.015044273 -0.015876522 0.004077545
000350 9f 80 a6 3d bf 63 a4 bd d1 39 03 3b 7d c1 ae 3b
       0.08130001 -0.080268376 0.0020023475 0.005333124
000360 28 a5 d1 3c 19 da 16 bd 8d 5c 02 bd 88 bb 62 bd
       0.025591448 -0.036829088 -0.031826545 -0.055354625
000370 66 57 a5 bd 03 44 e3 bc d7 cb 92 3d 98 a5 72 3d
       -0.080733106 -0.027742391 0.071677856 0.059239954
000380 a3 09 5b bd d1 33 a0 ba 33 da a7 3d 75 da a3 bc
       -0.053475987 -0.0012222474 0.08195915 -0.02000163
000390 96 04 17 3d 1d 6b 83 3d 0b 99 fe bb f1 6e 9a 3d
       0.036869608 0.064169146 -0.007769709 0.07540692
0003a0 8f 52 37 3d 1f 28 aa 3d 42 37 9d bd ca af 46 bd
       0.04475647 0.08308434 -0.07676555 -0.04850749
0003b0 9f 6c c3 bc 04 00 b5 3d cc 80 b6 3b f2 55 d8 bb
       -0.023855506 0.088378936 0.005569553 -0.0066020424
0003c0 27 e6 46 bb 78 51 9a 3d bc d9 63 3a 7d cb e1 bd
       -0.0030349584 0.0753507 0.0008691808 -0.110251404
0003d0 91 3c b0 bd 71 6b 9e 3c 6d c1 33 bd 80 0a 2f bd
       -0.08605302 0.019338341 -0.043885637 -0.042734623
0003e0 ed 9a 96 3d 17 00 fe 3d 09 57 bd 3d 9c 9c 4a bd
       0.073537685 0.12402361 0.09245116 -0.04946576
0003f0 39 a3 de 3c 9f a0 0d 3d 80 49 80 3c 12 05 cf 3a
       0.02717744 0.03457701 0.015660048 0.0015794358

critic.linear1.bias f4 [128]
000000 86 d4 30 3b 16 32 13 bd 86 5f d0 3d 2f 80 27 bd
       0.0026982143 -0.035936438 0.1017447 -0.04089373
000010 99 9b ae 3d 02 aa ed 3d 4d dd 88 3d 71 b3 f3 bc
       0.08525772 0.11604692 0.06682835 -0.02974865
000020 91 41 c6 bb 1a c3 18 3d 35 3f 5a bb 69 f1 69 3d
       -0.0060502966 0.03729544 -0.0033301834 0.057114992
000030 ea 07 bc bd a6 76 9b 3d 4e c3 b3 3d 70 bb 8a 3d
       -0.09181197 0.0759099 0.08777486 0.06774032
000040 30 c0 42 bd fb 06 04 3e eb cd f7 3d a8 c6 5d 3c
       -0.047546566 0.12893288 0.120998226 0.013536133
000050 15 66 cf 3d 3e 46 90 3d 53 57 8d 3c 0f 36 9d 3c
       0.101268925 0.07044648 0.017253553 0.019190816
000060 55 2f 43 3d b8 ce ac bc c0 df 62 bd 76 fe 62 bc
       0.04765256 -0.021094665 -0.055389166 -0.0138546135
000070 79 89 22 3d ca 2c 9c 3d 57 46 59 3d f3 ee e3 3d
       0.039681885 0.0762573 0.053045597 0.1112956
000080 51 4a be 3d ae bf ef 3c ce d5 21 bc c5 18 e0 3c
       0.092915185 0.029266205 -0.009877635 0.027355561
000090 6b ef 50 bb ee cc e1 3d c4 4d ba 3d 59 f0 b7 bd
       -0.0031880985 0.11025415 0.09096864 -0.089813896
0000a0 6d 0b d2 3d 38 60 2f bd 4c ba 70 3c 9b c7 d0 3d
       0.102560855 -0.04281637 0.014692854 0.10194322
0000b0 5e 34 f8 3d d5 f3 36 3d 71 be aa 3d 6f 1d 20 bd
       0.12119363 0.04466613 0.08337105 -0.03909057
0000c0 5d 99 db bd f9 1d 43 bc 8c b8 f2 3d fc 6a ad 3c
       -0.10722611 -0.0119090015 0.11851606 0.021169178
0000d0 0f c3 d9 bd 15 fe 6c 3d 4b 32 f9 bd e8 83 63 3d
       -0.106329076 0.0578595 -0.12167796 0.055545717
0000e0 87 9c ab 3d 63 23 ff bd 7a cf cc 3d 5c be d6 bd
       0.083794646 -0.12457921 0.100005105 -0.10485527
0000f0 28 31 e0 bd 4d e8 e3 3c 7a 66 98 bb 1e 06 92 bd
       -0.10946876 0.02782073 -0.004650888 -0.07130073
000100 86 75 61 bc 14 6d c0 3d 95 3a f5 bc 34 d3 e3 3c
       -0.01376093 0.09395805 -0.02993516 0.02781067
000110 79 93 e2 3c 0c 6b a5 3c 82 69 12 3d 0b 6c 5a bd
       0.027658211 0.020192645 0.03574515 -0.053325694
000120 5c 5d 0f bd 1a c4 ea 3d a2 52 de 3c ae 5a dc bc
       -0.035001144 0.11463185 0.027139012 -0.026898708
000130 34 a3 d2 3d 02 f6 f8 ba bd c8 63 bd 29 ef 1f bd
       0.10285035 -0.0018994214 -0.05561136 -0.03904644
000140 e8 86 86 bc 72 5d a2 3d 04 75 c4 3d 8f 57 d0 bd
       -0.01642175 0.079279795 0.095926315 -0.101729505
000150 84 ce f1 3d ae ed f2 3d fd 1f e4 bc dc 9e 04 3e
       0.11806968 0.1186174 -0.027847284 0.12951225
000160 31 fe 9e 3b c8 c9 bc bd 1f ba fc 3d 7f 18 d2 3c
       0.0048520793 -0.09218174 0.12340187 0.025646446
000170 56 e9 69 bb c3 72 4f 3d fd 42 5f bd 1e c4 ce 3d
       -0.0035692058 0.050646555 -0.054507244 0.10096
000180 59 e5 db 3d f4 77 5c 3d 64 8a ff bb 28 d6 3e bd
       0.10737104 0.053825334 -0.00779848 -0.046590954
000190 b3 a5 b0 3d 6e b9 dd bd ac 90 61 bd d1 81 0c bd
       0.086253546 -0.108263835 -0.05506961 -0.03430349
0001a0 93 af 59 bd 76 9f f4 3d 63 7b 0e bd f2 4a 88 3d
       -0.053145956 0.11944477 -0.03478564 0.0665492
0001b0 41 6a 90 3d fc 84 15 bd b9 88 a6 3d c6 2e 61 3d
       0.07051516 -0.036503777 0.081315465 0.054976247
0001c0 3e a8 a5 bc c8 67 3d bd 1d 65 00 3e 11 58 41 bd
       -0.020221826 -0.04624155 0.12538572 -0.047203127
0001d0 5d 95 1b 3d 55 0a fb 3d 91 b8 83 3c 1b 07 02 3e
       0.03798424 0.1225783 0.016079219 0.12698023
0001e0 4c a4 c4 3d ef c2 e8 3c 20 14 d2 bb 43 c1 5c bd
       0.0960165 0.028413264 -0.0064110905 -0.053895246
0001f0 89 96 90 bd 8d a7 67 3d 8d 53 ef bc 79 6f 24 3d
       -0.07059962 0.056556273 -0.029214645 0.04014537
