landing_falcon_raw_ckpt/ckpt_00007401.pt (torch, 796023 bytes, 15 tensors)

actor.linear1.weight f4 [128, 120]
000000 0a 26 4b bd a7 e4 7c bd 22 64 94 bd 9c 19 3f 3d
       -0.049596824 -0.061741497 -0.07245661 0.046655282
000010 b7 90 15 bd cf 28 3a 3d df bc 01 3d b2 dc df bd
       -0.036514964 0.045449074 0.031674262 -0.10930766
000020 c6 bd 4f 3d 6d 80 93 3d 25 5b 23 bd 5a fd 5f 3d
       0.05071809 0.0720223 -0.039881844 0.054684974
000030 41 99 f1 3d 0c 14 0c bd 3a 84 8a 3d 7d 1d 08 3d
       0.11796809 -0.034198806 0.067635015 0.033231247
000040 3a 80 67 3d 46 7d 14 3c b3 cc 57 bd f3 c9 86 3d
       0.05651877 0.009063071 -0.05268545 0.065814875
000050 45 75 ac 3d b4 72 80 3c 67 06 db 3c 29 39 9d 3d
       0.08420805 0.015679695 0.026736451 0.07676918
000060 f5 d4 90 bd 3d 7d dd bc 2d d9 ec bc 17 a2 a1 bd
       -0.07071868 -0.027037257 -0.028912151 -0.07892244
000070 71 cd 62 bd b9 80 86 3d 2a 24 5d bd 8a 4b ab bd
       -0.055371705 0.06567521 -0.053989567 -0.08364017
000080 d9 a8 2c bd d8 b0 ba 3c 24 a8 c6 bc 1c e0 39 bc
       -0.042153213 0.022789404 -0.024250098 -0.011344936
000090 73 67 16 3c 38 65 37 3d ae 5d b3 3d f4 87 9f 3d
       0.009179938 0.044774264 0.08758102 0.07789603
0000a0 f2 a8 9a 3d 9a 9b 35 bd e6 ee ad 3d f0 9e 77 bd
       0.07551755 -0.044337846 0.08492832 -0.06045431
0000b0 c7 31 d2 3d cf 55 12 bc 94 64 a4 bc e6 41 f6 bd
       0.102634005 -0.008931591 -0.02006749 -0.12024288
0000c0 07 c7 9e 3d 65 e7 b7 bc 68 aa 6c bd 6a 45 07 bd
       0.07752805 -0.022449205 -0.0577797 -0.033025183
0000d0 f7 b7 9b bd cb 47 ef bc 60 a9 c8 bc 59 3b 67 bc
       -0.07603448 -0.029209038 -0.024494827 -0.014113271
0000e0 e0 ff 43 bd e9 a6 26 3c b5 0f 7d bd 96 7c 2c bd
       -0.047851443 0.01017163 -0.061782558 -0.042111002
0000f0 b6 18 1c 3d cf 50 00 3e 62 03 f6 3c 1e e0 f0 bc
       0.038109504 0.12530826 0.03003091 -0.029403742
000100 81 7b 96 3d 82 da 00 3c 28 7d 4a 3d a3 68 a1 bd
       0.07347775 0.007864596 0.049435765 -0.07881286
000110 ed 24 f6 3c 2c 19 a2 3d 7b 07 6d 3d 2f 6c 1c bc
       0.030046904 0.079149574 0.057868462 -0.009547277
000120 0d d4 27 3c a4 5f 94 bd c6 23 8c 3c 55 cc 77 3d
       0.010243428 -0.072448045 0.017106902 0.0604976
000130 5a 3d 9a 3c 09 59 ce 3d 58 5e 66 3b 30 8b f6 bd
       0.018828083 0.10075576 0.0035151448 -0.12038267
000140 be 8c 62 3d 80 de cb 3c 91 5e 96 bd 77 d2 70 3d
       0.055310003 0.02488637 -0.07342256 0.058794465
000150 1e 53 b2 bd c4 73 c3 ba ed 60 44 3c 60 b1 60 3d
       -0.087072596 -0.001491182 0.0119859995 0.054856658
000160 8c 5b 51 ba a4 e0 28 3d 7a 24 26 bb ac ed 33 3d
       -0.0007986359 0.04122986 -0.0025351332 0.043927833
000170 1c 24 88 3d 38 e9 f6 3d a4 fd a6 3b e0 22 0e be
       0.06647512 0.12056202 0.0050961543 -0.13880491
000180 96 bf 14 bd 47 9e b0 3b c1 75 90 3d ca 65 a9 3d
       -0.036315523 0.005389962 0.0705371 0.08271368
000190 eb 27 d3 bb d6 81 70 bd b7 91 a7 3c 7a 6a 8e 3b
       -0.0064439676 -0.05871757 0.020455224 0.004346189
0001a0 08 5c 85 bd 28 20 35 bd af 65 1b bd c5 19 ab bd
       -0.06511694 -0.04422012 -0.03793877 -0.083545245
0001b0 ad 37 00 bd 64 80 b3 3d 94 64 35 3d 1a 0c b4 bd
       -0.031303097 0.08764723 0.044285372 -0.08791371
0001c0 75 1b 86 bd 66 44 55 ba 6e 40 3f 3d dc f2 16 bd
       -0.06548206 -0.00081354973 0.046692304 -0.036852702
0001d0 be 83 64 3d 38 ca 6b bc f9 76 13 bd fc fd a8 3d
       0.0557897 -0.014391474 -0.036002133 0.08251569
0001e0 43 e6 c3 3d 1b 22 c9 3d a5 18 81 3d 31 42 84 3d
       0.09565403 0.09820958 0.06303529 0.064579375
0001f0 03 a4 86 bd 87 35 de bd 71 d0 72 3d f4 d4 d0 3d
       -0.065742515 -0.10850053 0.059280816 0.101968676
000200 43 f3 5c bd 65 56 2d bd 6f 05 7c 3d 43 71 44 3d
       -0.05394293 -0.04231872 0.06152862 0.047959577
000210 04 62 16 bd 9a 43 17 bd bc 21 79 bd 11 f7 1c ba
       -0.03671457 -0.036929704 -0.060823187 -0.00059877435
000220 54 a5 dc 3c 8c 63 ab bd 3b 69 ba 3b 39 92 50 bd
       0.026934303 -0.083685964 0.005688814 -0.0509207
000230 e0 2b 9d 3d 95 29 03 bd e7 82 16 bc 5f 46 c5 3d
       0.07674384 -0.032022078 -0.009186483 0.09632563
000240 05 d3 23 3d bc e5 75 bd 0f b0 89 3d f3 4f a4 3d
       0.039996166 -0.060033545 0.06723034 0.080230616
000250 63 ab d6 bb a2 2e 46 bd 2c 13 4e 39 2d 11 a4 3d
       -0.0065511926 -0.048384316 0.00019652833 0.080110885
000260 8f 41 55 3d 4a 1a 9c 3d bf c9 65 bd 3c 86 81 3d
       0.052064475 0.07622202 -0.056100603 0.06324431
000270 59 2b ce 3d 9c df 39 bd 79 ab 4b bd a9 6b fa bc
       0.10066862 -0.045379266 -0.049724076 -0.030568914
000280 1b 3a 5b 3c 1c 1f 71 bd cf b4 ac bd 10 2c 5a 3c
       0.013380553 -0.05886756 -0.08432924 0.013316169
000290 14 08 cf ba a4 60 cf 3b 04 1e 92 bd 82 24 3c 3d
       -0.0015795254 0.006328659 -0.07134631 0.045933254
0002a0 d8 fd 06 3d b9 6a 7d bd 4d b8 bf 3c 97 7c a7 3d
       0.032956928 -0.061869357 0.023403311 0.081780605
0002b0 10 2b 90 bd 82 0a 99 3d 29 61 44 bd da c4 94 bd
       -0.070394635 0.07472707 -0.04794422 -0.07264109
0002c0 27 d2 99 3d ad 01 2b 3c 19 35 0b 3d c8 d1 9e 3d
       0.075107865 0.010437411 0.033986185 0.07754856
0002d0 09 46 51 bb 22 71 f1 bd 39 c1 9f 3d 4a 36 75 3d
       -0.0031932613 -0.117891565 0.07800526 0.059866227
0002e0 ed d3 57 3d 65 22 89 3d 8c 11 8d 3d d1 5b 1b bd
       0.052692343 0.06696013 0.068881124 -0.03792936
0002f0 db 7d ca 3d 8c 54 16 3d 70 e0 67 bd ed f0 dd 3d
       0.09887286 0.036701724 -0.056610525 0.108369686
000300 cc 7d 0d 3d 60 99 54 bc 20 f8 1e bd 5d d7 02 3d
       0.034543797 -0.012976021 -0.03881085 0.031943668
000310 85 38 6c 3d 8c 29 8c 3b 85 3a 6b bd fb a8 a6 3d
       0.05767109 0.0042774137 -0.057428855 0.08137699
000320 85 8d 46 3d 9e 77 60 bd e6 8f 16 3d 23 af 1a bd
       0.048474807 -0.054801576 0.036758326 -0.03776468
000330 d9 a3 88 3d 43 ce 41 3c e9 89 5a 3d fc 16 d0 bb
       0.066718765 0.011828962 0.053354178 -0.006350396
000340 67 91 64 bd a1 7b 46 bd d3 88 fc 3a c1 96 d3 ba
       -0.05580273 -0.048457745 0.0019266851 -0.0016142951
000350 c7 cc 56 3d d6 8f 4e bc ca 01 74 3d ec 9d b8 bb
       0.052441385 -0.012607535 0.05957202 -0.00563406
000360 86 19 b1 bc f3 db d3 bc fd ba ac bd 0b 98 6d 3b
       -0.021618616 -0.025861716 -0.08434103 0.0036253955
000370 f3 a4 5e 3d 27 6a 83 3d 4c f0 f8 bc 11 03 27 3a
       0.054356527 0.06416731 -0.03038802 0.00063710014
000380 6c 00 01 bd 1a 6d d7 bc 55 22 35 3d 84 70 3b 3c
       -0.031494543 -0.02629714 0.044222195 0.0114404
000390 b0 3d a2 bd cf 11 cb bd ee b0 42 3d 6a 02 01 3e
       -0.07921922 -0.09915506 0.047532015 0.12598577
0003a0 d4 b7 88 bd 98 9f 1a 3d 59 24 b9 bc e0 d7 09 bd
       -0.066756874 0.037749857 -0.02260034 -0.03365314
0003b0 08 19 7e bd 1f d2 87 bc 95 5f 14 3d c0 b2 8e 3d
       -0.06203559 -0.016579686 0.036223967 0.069676876
0003c0 0f 84 88 3d 39 12 59 bd 24 8d 79 bd fb 6e aa bd
       0.06665813 -0.052995894 -0.060925618 -0.08321949
0003d0 3f 12 8b bd e7 f3 62 bd f6 e6 91 bd ae f0 1b 3b
       -0.067905895 -0.055408385 -0.071241304 0.002379458
0003e0 85 09 8d bd c5 b1 98 bd 12 e8 10 3d 47 47 23 bc
       -0.06886581 -0.07455782 0.03537757 -0.009965724
0003f0 f5 26 8b 3d a8 af 19 bd 22 18 38 bd 9f cb 81 3b
       0.0679454 -0.037521034 -0.04494489 0.003961041

actor.linear1.bias f4 [128]
000000 85 8c ad 3d 81 9a d5 3c c5 65 be 3c 68 be 32 3d
       0.084740676 0.02607465 0.023241887 0.043638617
000010 b2 46 a3 bd 3e 81 fb 3b 75 3e 1b 3d f7 a0 a0 3d
       -0.079724684 0.007675319 0.03790136 0.078432016
000020 ff e6 b4 3d 76 e9 12 3d a4 4b 14 bd a4 fc 44 3d
       0.088331215 0.035867177 -0.03620495 0.0480925
000030 65 c1 ca 3d eb 67 1f bd 18 bf 13 bc 5b aa 28 3d
       0.09900168 -0.038917463 -0.009017728 0.04117809
000040 2a bb 75 3c 34 41 9c bd 06 a0 06 bd 05 e6 b6 bc
       0.014998237 -0.07629624 -0.032867454 -0.022326479
000050 fc 89 78 bd 05 64 99 3d 1d cf a3 bd c9 97 23 3c
       -0.060678467 0.0748978 -0.07998488 0.009984919
000060 d8 24 53 3d bd f8 26 3b 46 2e 38 3c fb 44 4e 3d
       0.05154881 0.002547785 0.011241501 0.050358754
000070 77 b7 ca 3d ea 48 0f bc ad 5a ca 3b 2d 80 82 3d
       0.098982744 -0.008745411 0.00617536 0.06372104
000080 4d d1 75 3d 29 da 33 3d 14 1b 16 3d 2a 70 8a 3d
       0.060014058 0.043909226 0.036646917 0.06759675
000090 15 f0 d8 3d a0 12 6d bd 4b 49 12 ba 84 42 fb 3c
       0.10592667 -0.05787909 -0.00055803795 0.030671366
0000a0 e1 91 b7 3b 0d 22 7b 3d 5d 98 ce bc de 8d 1f 3d
       0.005602107 0.06131177 -0.025219137 0.038953654
0000b0 b4 60 db 3c a1 fd 1f bd 4f bf 70 3d bf b3 71 bd
       0.02677951 -0.03906024 0.058776196 -0.05900931
0000c0 9a 98 aa bd b3 d9 12 3d 4b 6a 1a 3d 57 b9 5e 3d
       -0.08329888 0.035852145 0.037699025 0.054375973
0000d0 22 e3 06 bd 3e 90 c0 3d cc 81 54 3c b5 fa 08 3d
       -0.032931454 0.09402512 0.012970399 0.033442218
0000e0 f6 5f 83 bd 77 ed 8e bd 09 42 8b 3c c3 d3 82 bd
       -0.064147875 -0.069788866 0.016999261 -0.063880466
0000f0 8f 5b 94 3d 8d 92 c1 3b fa 63 9d 3d 53 b2 a2 3d
       0.07244026 0.005907363 0.07685085 0.07944169
000100 57 bc ac 3d 4a 51 84 bc 9c 20 f4 3b 45 b8 ad bc
       0.084343605 -0.016152043 0.0074501764 -0.02120603
000110 cb fa a1 bd fd cc 77 bb 7e 8a 47 bd 20 1f 99 bd
       -0.07909163 -0.0037811392 -0.04871606 -0.0747664
000120 af b6 4c bc 9b 48 65 3d 16 73 c2 bb c2 ce 10 3d
       -0.012494727 0.055977445 -0.0059341295 0.03535343
000130 26 6a b8 3d fd 5f 99 3d 93 0c 8f 3d 4d 27 57 bc
       0.09004621 0.074890114 0.0698482 -0.013131929
000140 ca c5 72 bd df d5 65 3d 13 ed a3 3d 61 a6 88 bd
       -0.059270658 0.056112166 0.08004203 -0.06672359
000150 b7 0a 6e bd 50 0e 3f bd 49 6e 4f bc 98 62 83 bd
       -0.058115687 -0.04664451 -0.012660571 -0.0641529
000160 7d b2 0e 3d 45 5f 9d bd 31 a5 ca 3c 82 2c 88 bc
       0.03483819 -0.07684187 0.024736973 -0.016622785
000170 83 87 8a bd 61 c3 87 bd 16 98 9b ba ce 71 10 3d
       -0.06764128 -0.066290624 -0.0011870887 0.035264783
000180 2f cf 79 bd 40 5d 22 bd 03 98 c6 3d 11 fa 81 bd
       -0.0609886 -0.03963971 0.09696963 -0.063465245
000190 1a cd 83 3c 0f ab 2a bd 0f 2c f8 3c e2 68 a3 bb
       0.016089011 -0.04166704 0.030294446 -0.0049868682
0001a0 20 85 9d bd 47 ba a4 bc 79 8e 0e 3d ef 49 8c 3a
       -0.07691407 -0.020108355 0.03480384 0.0010703186
0001b0 9d 46 31 bd 78 1b 0c 3c 1c c5 1c bd 94 5d 1a bd
       -0.043280233 0.008551471 -0.038273916 -0.0376869
0001c0 a1 48 4d bc f1 2f 1f 3d 02 b6 3f 3b 99 26 8e 3d
       -0.012529523 0.03886408 0.0029252772 0.06940956
0001d0 25 d9 98 bd aa fc 26 bc 28 2f 51 3d 97 1b fe bc
       -0.07463292 -0.010192076 0.051070362 -0.031019015
0001e0 b8 c5 a8 3d d2 01 b8 b9 51 2f b4 3d 08 db 82 3d
       0.08240837 -0.0003509657 0.087980874 0.06389433
0001f0 fb 60 93 3b 28 1e fe 3c c8 18 96 bd 94 1d ef bc
       0.004497645 0.031020239 -0.073289454 -0.029188909

actor.linear2.weight f4 [128, 128]
000000 c4 5e b4 bd 3c b3 f9 3b 36 0e 0d bd 86 1e 8d 3d
       -0.088071376 0.0076202434 -0.03443738 0.068905875
000010 34 ee ab bd 89 95 ae bd 29 67 ab 3c 83 f8 11 3d
       -0.08395043 -0.08524615 0.020923214 0.03563739
000020 a4 fa ac 3c e8 fe af bd fe 9c ee bc 77 16 83 bd
       0.021115609 -0.085935414 -0.029127594 -0.06400769
000030 72 5d a2 3d 8e 59 ba 3c 1c cd 57 3d ef c2 24 bd
       0.079279795 0.022747781 0.052685842 -0.040224966
000040 c5 29 9c bc 13 2b 5a bd ed 57 79 3c 1c 53 cb 3d
       -0.019062886 -0.053263735 0.015218717 0.09927961
000050 d6 da 8e 3d ea 79 8b bd 16 ce 11 3d 7d e9 a3 3d
       0.069753334 -0.06810363 0.03559693 0.08003519
000060 a0 91 66 bd 89 a6 84 bd 49 6c 76 3b 39 90 a9 3d
       -0.056291223 -0.064770766 0.0037601164 0.082794614
000070 6a 37 8b 3d c8 44 45 bd ca 05 8b 3c 97 e6 5b bd
       0.06797679 -0.048161298 0.016970534 -0.053686704
000080 1e 1a 29 bd f2 17 45 bd ea 3a 72 bd 1c de 26 bd
       -0.041284673 -0.04811854 -0.059138216 -0.040739164
000090 9f 43 1c 3d 99 e0 3a bd 60 8e 90 bd be c2 56 3d
       0.038150426 -0.04562435 -0.07058406 0.052431814
0000a0 00 e3 08 bd 51 9a 7b 3d ef d9 e9 3c 15 ef 96 3d
       -0.03341961 0.061426464 0.028546302 0.0736982
0000b0 58 df 45 3d cd e0 6c bb 73 a8 bd 3d bf 80 81 3d
       0.0483087 -0.0036144734 0.09260645 0.063233845
0000c0 26 25 e4 bc b0 09 2a bd 43 b3 80 bd 1a d8 0a bd
       -0.027849745 -0.041513145 -0.062841915 -0.033897497
0000d0 13 68 86 3c 33 88 07 bc bb aa f3 bb 24 e1 df bc
       0.016407048 -0.0082722185 -0.007436124 -0.027329035
0000e0 93 6c 4c 3d 48 48 fe bb dd 22 0b 3d 7e 8e 03 3d
       0.049908232 -0.0077600814 0.033968795 0.032118313
0000f0 84 5c dd bc 59 bb 82 3d d4 03 7a bd 7a e5 84 bd
       -0.027021654 0.0638339 -0.061038807 -0.06489082
000100 c6 a3 14 bd 67 6c c9 ba b3 26 c7 3d cd 1f 3c 3c
       -0.036289 -0.001536739 0.09724178 0.011482191
000110 03 01 7a 3d d8 d8 24 3d 9f bf 8f bd 35 ce 9e 3d
       0.06103612 0.04024586 -0.07018971 0.077541746
000120 11 e8 97 3d 4e 51 78 3b 54 f0 06 3d 74 c8 c6 ba
       0.0741731 0.0037890258 0.03294404 -0.0015165941
000130 f4 4e 00 3d 4a ed f0 bc 6f ce 91 3d eb ac 92 bd
       0.031325296 -0.029410023 0.07119452 -0.07161888
000140 16 b6 95 3b c6 77 10 bd 46 d7 92 3c 04 7d 4f bd
       0.0045688255 -0.035270475 0.017924916 -0.050656334
000150 32 62 6d bd a8 cb 11 3d 1d 21 7c bd b1 d6 14 bd
       -0.057954974 0.035594612 -0.061555017 -0.03633756
000160 0c 66 83 3a f5 01 14 3c 2e e4 61 bd 88 cc 89 bc
       0.0010024919 0.00903367 -0.05514925 -0.01682116
000170 5f 97 33 bd f5 18 47 3d 97 40 e4 3c 9d 23 7e 3b
       -0.04384553 0.048607785 0.02786283 0.0038778551
000180 03 67 7d 3c b8 44 30 3d 53 0c 9a bd 64 f0 fa bb
       0.015466454 0.043034285 -0.07521882 -0.0076580513
000190 65 19 a9 3d 16 d9 84 bd db 42 b5 bd c8 79 8a 3d
       0.08256797 -0.06486718 -0.08850642 0.06761509
0001a0 09 1e 72 bd 73 e4 84 bd dc 12 8e 3d 6b 16 90 3b
       -0.059110675 -0.06488886 0.06937191 0.0043972037
0001b0 1a dc c5 bd 2f 2f a3 3d e7 4d 0c bc 19 77 29 3d
       -0.09661122 0.07967984 -0.008563495 0.041373346
0001c0 e3 22 ed bc 16 04 27 bd 80 3e 06 3d 3b ed 00 bc
       -0.0289473 -0.04077538 0.03277445 -0.00786906
0001d0 15 96 80 3c aa 95 95 bd 02 9b b1 3d a5 0f 8a 3d
       0.015696565 -0.07303937 0.086721435 0.06741265
0001e0 d2 a7 ab 3d 2f 42 ae 3d ba 96 f2 bc bd a3 d7 39
       0.083816186 0.08508717 -0.029612888 0.0004112999
0001f0 e5 cf 83 3d 6d d6 1a bc f0 f4 93 bd 45 1d 84 bc
       0.06436137 -0.009450537 -0.072244525 -0.016127238
000200 98 3b cd 3d cd f4 a8 bc a6 98 74 bd 84 e0 7d 3c
       0.10021132 -0.020624543 -0.05971589 0.015495423
000210 a8 4d 97 3d 6c c8 82 3d 85 30 aa 3b 85 f9 18 3d
       0.07387859 0.06385884 0.0051937723 0.037347335
000220 6a e9 ae 3c 88 5d 33 3d dc d7 85 bd c0 f0 69 3c
       0.021351535 0.04379037 -0.065353125 0.014278591
000230 16 b5 e7 bc cf 99 c0 3c b5 a0 fc bc 82 f2 50 3d
       -0.02828459 0.023510842 -0.03083835 0.051012523
000240 88 e9 a9 bd e5 e5 d5 bd 18 4f 42 3d 34 31 38 bd
       -0.08296496 -0.104442395 0.04743871 -0.0449688
000250 91 0f 9a bd 7a 75 3d 3d 76 89 bb 3d ac 4d 32 3b
       -0.075225 0.046254613 0.09157078 0.002720694
000260 bf 15 92 bd 7a 7a 16 bd 2a 1f 7c 3d 64 26 56 3d
       -0.07133054 -0.036737897 0.061553158 0.052282706
000270 ab 07 6d 3d 92 a1 bd 3c 7c ef 89 3d 4b 98 a5 3d
       0.05786864 0.023148332 0.06735131 0.08085688
000280 d6 f9 a9 bd 01 49 b8 bd b7 a9 8d bc 2f a3 ee 3a
       -0.082996055 -0.089982994 -0.01729284 0.0018206591
000290 d1 ad 87 bd 0a 31 de 3b d7 ce a5 3d c7 e7 16 bc
       -0.0662495 0.0067807483 0.08096092 -0.009210533
0002a0 86 45 45 bb 56 0d 56 b9 16 e8 71 3d 0c a4 a0 bd
       -0.0030101254 -0.00020413598 0.059059225 -0.078437895
0002b0 75 7e 91 3c 1b 88 15 bd 0a a8 a1 3d c1 51 96 bd
       0.017760495 -0.036506753 0.07893379 -0.07339812
0002c0 5c c9 80 bc 57 6c 88 3d 7e 0b 5d 3d 14 e1 36 3d
       -0.015721016 0.06661289 0.053966038 0.044648245
0002d0 c5 f5 3b 3d 30 6c 99 3c 9a ba 54 bd 31 bf 9b bd
       0.04588868 0.018728346 -0.05193577 -0.07604826
0002e0 9f 6b 09 3c 3d 57 3a bd ca 75 af bc 0e 15 b9 3d
       0.008387475 -0.045493353 -0.02141847 0.09037219
0002f0 45 db e2 bc 85 e8 62 3d 35 03 61 3d 1e 6c 8f 3b
       -0.027692446 0.05539753 0.0549347 0.0043769022
000300 a5 82 6f 3d d6 a0 28 3d c6 90 44 3d 77 39 d3 bb
       0.0584742 0.04116901 0.04798963 -0.0064460593
000310 a5 a0 08 bc 5b 10 3a bd 11 22 8f 3d 48 a3 67 3d
       -0.008339082 -0.045425754 0.069889195 0.0565522
000320 f3 4e 4f 3d 3e 49 7c 3d e2 21 92 bd 31 f4 9f bd
       0.0506124 0.061593287 -0.07135369 -0.07810248
000330 b9 f0 b0 3d 8b 4f 98 3c 9c ab ba 3c 95 87 f8 3c
       0.08639664 0.018592617 0.022786908 0.030338088
000340 e6 a2 39 3d 45 3f 46 bc 68 c9 9b bc 67 07 85 3d
       0.045321368 -0.012100046 -0.019016936 0.064955525
000350 27 95 97 bc c0 ec 9b 3d 21 2a 18 3d 98 be 48 3b
       -0.018503739 0.07613516 0.037149552 0.003063118
000360 aa b0 b3 b9 1b f0 81 3d 72 9d 34 bc 54 4e a4 bc
       -0.00034273166 0.063446246 -0.011023866 -0.020056881
000370 69 e0 cb 3d 04 fe d1 3d 73 69 b0 3d 0f e5 88 bd
       0.09954912 0.10253528 0.08613863 -0.066843145
000380 76 36 9a bc 99 a0 a9 3c dc 2e 47 bc 7c c5 9e 3c
       -0.018824797 0.020706462 -0.012157168 0.019381277
000390 11 6f 08 bd e8 aa 82 bd 4a 92 89 3d de b2 8b 3d
       -0.033309046 -0.06380254 0.067173555 0.068212256
0003a0 8e 5f 8d 3d a4 65 97 bd 37 16 bc bc c4 0b 7c bc
       0.06902991 -0.07392433 -0.022959812 -0.0153836645
0003b0 94 e5 2d 3d 5e 9e 00 3c 49 1e 33 3d fa 20 00 3d
       0.04245527 0.007850258 0.043730054 0.03128145
0003c0 df 24 a3 bd 3f 34 64 3d 79 a6 39 bc 4d 51 83 bd
       -0.07966017 0.05571389 -0.011331194 -0.06411991
0003d0 c4 64 bb 3d 96 df a2 3d f8 f8 c1 bd 1c 4d d7 3b
       0.09150079 0.07952802 -0.09471315 0.0065704715
0003e0 f9 e1 7c bd 30 49 13 3d e1 57 4c 3d 68 54 73 bd
       -0.06173894 0.03595847 0.049888495 -0.059406668
0003f0 ab 41 de 3c f9 11 55 bc e9 57 cb 3d 7c d1 28 3d
       0.027130922 -0.013004773 0.09928877 0.041215405

actor.linear2.bias f4 [128]
000000 b1 7a 6b 3d 7f b3 2d bd 24 4c 31 bd 6f a9 0d bd
       0.057490055 -0.04240751 -0.043285504 -0.034585413
000010 96 aa 24 3c 4a d9 40 bb 61 0c 1d 3d 71 a3 b7 3c
       0.0100504365 -0.002942639 0.038341884 0.022416802
000020 4a 33 a5 bd a5 27 8d bb 32 15 8e bd 1e b0 87 bd
       -0.08066423 -0.0043077045 -0.069376364 -0.066253886
000030 ff 0e a2 bd 87 71 1e 3d cc 0c 32 3d c7 0b b5 3d
       -0.079130165 0.038682487 0.043469235 0.08840137
000040 2e 2c 50 bd 69 d9 38 bc f4 d2 81 bd 31 48 35 3d
       -0.050823383 -0.011282303 -0.06339064 0.0442583
000050 c1 d4 a0 3d 3b d6 89 3c 8d 87 95 bd 1a f8 5c bb
       0.078530796 0.016825786 -0.07301245 -0.0033717216
000060 f1 0e 6b 3d 4d f8 55 bd 71 33 d2 bc f5 cc 88 3d
       0.057387296 -0.05223875 -0.025659295 0.066797175
000070 a1 c6 74 bd 67 13 4f bd 13 bb 5b 3d cc 36 45 3d
       -0.05975974 -0.050555613 0.053645205 0.04814796
000080 66 e6 02 3d b3 17 53 3d 0b 18 71 bd f6 10 85 3c
       0.031958006 0.051536273 -0.05886082 0.01624344
000090 52 24 58 3d e5 46 13 bd 68 e7 ad 3d 21 eb 2e 3d
       0.052769013 -0.035956282 0.08491403 0.042704705
0000a0 86 e6 b9 bc e4 ef 72 3c 46 fe 7a bb f4 91 87 ba
       -0.02269293 0.014827702 -0.0038298531 -0.001034318
0000b0 15 d2 6c bd f5 56 ce 3b 47 52 c6 bc da af 7b 3d
       -0.057817537 0.006296987 -0.024209155 0.061447002
0000c0 4a 21 a8 3d 01 94 93 bd 1c 9c 71 3d 21 6d 0c 3d
       0.082094744 -0.07205964 0.058986768 0.03428376
0000d0 85 b7 bd 3d 60 0d c1 bc eb 67 4f bd 73 1a 1a bd
       0.09263519 -0.023565948 -0.050636213 -0.03762288
0000e0 d0 37 9b 3d c7 4b 09 3c 5f 81 a2 bd f3 0e c6 3c
       0.07579005 0.008379883 -0.07934832 0.02417705
0000f0 b8 c9 2e bc 06 d1 6a bd ba 9b cc bb d0 34 a4 3d
       -0.010668211 -0.057328247 -0.00624415 0.08017886
000100 5a db 7f bd e1 6e ac 3d be d1 2c 3d cd 05 a5 3d
       -0.06246505 0.08419586 0.042192213 0.08057747
000110 54 d8 4a bd 5f 3f 89 3c 9c c6 80 3c a9 f0 f2 bb
       -0.049522713 0.01675385 0.015719704 -0.007413943
000120 27 54 1c bd 6c 25 ea 3c d8 f4 4e bc f1 73 18 3d
       -0.03816619 0.028582297 -0.0126316175 0.037219945
000130 7e c8 b6 3b d3 1b 21 bc b3 3e 8b bd ea d5 06 bc
       0.0055780997 -0.009833294 -0.06799068 -0.008229712
000140 2d e3 8a 3d 14 53 55 bb 3e e9 a9 3d be bd 88 3c
       0.067816116 -0.003255074 0.082964405 0.016692039
000150 c6 68 46 bd ae 8d 33 3b b6 c0 29 3c 6a 46 3b 3d
       -0.048439763 0.002739768 0.010360887 0.04572145
000160 e5 c5 f3 bc 64 03 9b 3d c6 f4 03 bd d3 50 4f 3d
       -0.02975745 0.07569006 -0.032215856 0.05061419
000170 f5 c6 67 bc 9b ca 76 bc 11 c1 c1 3d cf 2a ef bc
       -0.014146556 -0.015062953 0.094606526 -0.029195217
000180 c6 dc dd 3c 0e 48 81 3d 37 20 ec bc 6f b1 45 bd
       0.027082812 0.063125715 -0.028823955 -0.048264917
000190 93 54 45 bd 7b 19 ab 3d 11 e0 f6 3c c2 4f a8 3d
       -0.04817636 0.083544694 0.03013614 0.082183376
0001a0 82 29 71 3d 22 60 03 bd 58 46 12 3d d7 01 87 3d
       0.058877476 -0.0320741 0.035711616 0.06592148
0001b0 fd a7 6a 3d 4e e1 7d 3a b9 f9 89 3d 36 35 8c 3d
       0.057289112 0.0009684757 0.06737084 0.06846087
0001c0 96 eb ad 3d 55 9d 39 bd 39 75 c4 3d 0b 1f 49 bd
       0.084922 -0.04531606 0.09592671 -0.04910187
0001d0 b9 4f 30 bd 1e 2f 62 3c f4 72 06 bd 9c 5d 75 3b
       -0.04304478 0.013805179 -0.03282447 0.0037439829
0001e0 d1 1e 89 bd d1 e9 2e bd 12 be 62 bd 28 d6 1a 3d
       -0.06695331 -0.042703453 -0.055357046 0.03780189
0001f0 1f d2 fd bc a0 a1 02 bd b0 1a 57 3d 80 cb 8d 3d
       -0.030983983 -0.03189242 0.052515686 0.0692358

actor.linear3.weight f4 [128, 128]
000000 75 d6 9f bd 37 ce 95 bd f9 86 7c bc 2b f3 00 bd
       -0.07804576 -0.07314723 -0.015413039 -0.031481903
000010 d9 8c 47 3c ad f1 3f 3d 5a a0 60 bd 75 d0 ab 3d
       0.012179577 0.04686134 -0.054840423 0.083893694
000020 36 0f 91 bd c6 ca 96 3d 2f ae 16 3d 66 5b 41 bd
       -0.070829794 0.07362895 0.03678721 -0.047206305
000030 d8 9f 6b bc fe a1 63 bd ba bf bb bd 5c 95 9c bd
       -0.014381371 -0.05557441 -0.09167428 -0.076456755
000040 0e 83 20 bd 17 7a 7d 3d 6d 25 2d 3d 49 45 b0 bc
       -0.039187483 0.061884012 0.04227202 -0.021517413
000050 7d 30 a4 bd 73 28 2b 3d 98 76 ae 3d b1 11 6c 3c
       -0.08017061 0.041786622 0.08518714 0.014408515
000060 88 86 2d 3d 7c 3e 3d bd a7 86 28 3d 9e a7 98 bd
       0.042364627 -0.046202168 0.04114404 -0.074538454
000070 8c 53 75 3d 69 4a 96 bb 0d 0e 14 3d 9f da 99 bd
       0.05989413 -0.004586507 0.036146212 -0.07512402
000080 e7 72 bd 3c d9 d0 9a 3a da ba c9 bb 62 13 64 3c
       0.023126079 0.0011811509 -0.0061563076 0.013920637
000090 a7 c2 9b 3d e7 ae 10 bd 70 26 88 3d 79 6c b9 bc
       0.07605486 -0.03532305 0.06647956 -0.022634732
0000a0 1f 82 02 3d 25 0a 84 3d a2 a8 1c 3d dd 65 83 3c
       0.031862374 0.064472474 0.03824676 0.016039783
0000b0 8d 7b 37 3d 9d 8d af 3d 40 4a 45 3d 29 e3 a5 3d
       0.04479556 0.085719325 0.048166513 0.08099968
0000c0 f2 41 86 bd ee a8 01 3d 05 b2 da 3d a9 00 46 bd
       -0.06555547 0.031655245 0.10678486 -0.048340473
0000d0 89 bd 90 3d 40 d9 05 3d e3 41 5d 3d fa 13 67 3a
       0.07067401 0.03267789 0.054017913 0.00088149274
0000e0 5d b6 ae bd bb 47 d8 3d c5 44 8e bd 8c 96 80 bd
       -0.08530877 0.105605565 -0.069467105 -0.062787145
0000f0 57 7c f0 bc 1a 3c 91 3d 1a 42 78 3d 97 2f 4c 3d
       -0.029356165 0.070915416 0.060609914 0.049850073
000100 66 3c b4 bd ce 21 98 3d 0d e4 35 3b 34 b3 07 bd
       -0.088005826 0.07428323 0.0027754337 -0.033129886
000110 d5 b3 5d bd 4d 5e 71 3c 01 c1 fa ba ec b1 a9 bc
       -0.05412658 0.014731956 -0.0019131006 -0.020714723
000120 99 c4 68 bd 25 74 15 3d c2 1d 38 bd 8f 6e 1c bd
       -0.056828115 0.036487717 -0.044950254 -0.038191374
000130 8f 59 17 3d d1 57 84 3d 7e fa d1 3d 4e ff e3 bc
       0.036950644 0.06462062 0.10252856 -0.0278317
000140 f6 00 65 bd c8 0b 85 3d d8 03 82 3d 15 56 c3 bb
       -0.05590912 0.06496388 0.063483894 -0.0059611895
000150 8a 30 9e bd 69 0a f4 bc 79 9a 97 3c 09 be 66 3d
       -0.07724102 -0.02979012 0.018506275 0.056333575
000160 19 52 76 bd cb af 0e 3d 87 f9 9e bc 10 e5 77 3d
       -0.06013689 0.034835618 -0.019406093 0.060521185
000170 d5 f0 96 bd a5 35 24 bd ad 30 3f 3d 49 8e 36 bc
       -0.07370154 -0.040090222 0.04667728 -0.011142322
000180 b4 9d 5c 3d 9f b9 9d 3d c5 96 88 3d 93 b5 22 bc
       0.053861335 0.0770142 0.06669382 -0.009930986
000190 6a 5d 25 bd ce 8a 83 bd f1 80 4b 3d cc 9f 63 3d
       -0.04037229 -0.06422959 0.049683515 0.055572316
0001a0 5c d6 d5 bc 00 8b 60 3c bf 17 1f bd d4 e6 b4 bd
       -0.026103191 0.013705015 -0.038841005 -0.088330895
0001b0 2b 99 ea 3c 1a 82 1e 3b 31 f4 cd bb 30 19 cd 3d
       0.02863749 0.0024186433 -0.0062852134 0.1001457
0001c0 a2 01 ec bc 4b a4 b6 3d fc da ee 3c 51 20 bb bd
       -0.028809372 0.08918055 0.029157154 -0.09137023
0001d0 89 90 25 3c 9c 56 30 3c 63 86 84 bd 18 3a 79 3d
       0.010105261 0.010762837 -0.06470945 0.06084642
0001e0 59 dd c5 3d 4e ec 9f 3d b7 06 91 3d b5 e3 4a 3d
       0.09661359 0.078087434 0.07081359 0.049533565
0001f0 9d ed f2 bc f9 25 24 bb 20 32 15 bd f3 35 0b 3d
       -0.029654318 -0.0025047048 -0.036424756 0.033986997
000200 71 4b 46 3d e3 4b 4a 3a 27 e0 16 bc 07 37 10 bd
       0.04841179 0.00077169965 -0.0092087155 -0.03520873
000210 1b c1 98 bd 46 58 80 3d fa dd 71 3d b0 0a 55 bb
       -0.07458707 0.06266837 0.059049584 -0.003250759
000220 21 14 30 3d c5 3d 86 bb bc e2 b1 3d 42 25 97 3d
       0.042987946 -0.004096719 0.08685824 0.07380153
000230 fe f3 b9 bd 8c 4f c2 3d 91 40 83 3d 10 da a6 bc
       -0.09079741 0.094878286 0.064087994 -0.020367652
000240 70 b1 84 bd f9 dc 3c 3c ad cd 87 3d 70 2e a7 bd
       -0.06479156 0.011527293 0.066310264 -0.08163154
000250 45 2a 8c b9 eb 2a d5 bd 2e 48 c1 3c 06 ff 0d bd
       -0.00026734374 -0.104085766 0.023593988 -0.034667037
000260 1f 6b 4f 3d 43 0e 1c 3d 89 35 aa 3d e0 2e 45 bc
       0.050639268 0.03809954 0.08310992 -0.012035102
000270 c5 2b a8 3d 08 6e 1e 3d af db a2 bb f0 4f b5 3d
       0.082114734 0.038679153 -0.004970036 0.088531375
000280 65 4f 90 3d 48 95 90 3d bc ec 3a bd 2b 08 67 3d
       0.07046393 0.07059723 -0.045635924 0.056404274
000290 d9 c3 ba 3b 76 e3 84 bd 8d cd 85 3d 8b 41 72 bd
       0.0056996164 -0.06488697 0.06533346 -0.059144538
0002a0 37 89 16 bd de 54 4f 3d 66 32 50 bd 09 c0 ab 3d
       -0.036751952 0.050618045 -0.050829314 0.08386237
0002b0 f1 35 22 bd 13 d9 0a 3d 10 9e c5 bb f5 91 45 3d
       -0.039602224 0.033898424 -0.0060308054 0.0482349
0002c0 34 9f 8a 3c dc c5 8c bd 07 79 39 3d c5 7b 61 3d
       0.016921617 -0.06873676 0.045281436 0.055049676
0002d0 e8 37 af bd 24 54 17 bb a4 b2 f8 3c 87 95 5f bd
       -0.08555585 -0.0023090923 0.03035862 -0.05458596
0002e0 75 b8 33 3d b7 7b e7 3d 99 bf 2e 3c 42 c1 94 3b
       0.043877084 0.113028936 0.010665798 0.0045396397
0002f0 52 ac 94 3d eb 9f 1a 3d 8e 60 4c 3d 2f 22 b6 bd
       0.0725943 0.037750166 0.04989677 -0.08893239
000300 49 74 c2 3c ef cb 93 bd 6c 41 96 bd c4 04 ab bd
       0.02373709 -0.072166316 -0.07336697 -0.08350518
000310 75 9d 28 bd c0 f5 e9 bc a8 cd 39 bd 59 7d 72 bd
       -0.041165788 -0.028559566 -0.045362145 -0.059201572
000320 05 ec 2a 3b 52 e1 ab 3d cd 80 25 ba 16 c1 61 3c
       0.002608062 0.08392586 -0.00063134433 0.013778945
000330 d8 01 62 bd 75 8a 20 3c 33 96 56 3d b6 56 96 bd
       -0.05517754 0.009798636 0.052389335 -0.073407575
000340 78 1e 16 bc b8 d6 16 3d ba a8 72 3c 8b ce 4e 3c
       -0.009162538 0.036825866 0.014810735 0.012622486
000350 e6 cc e0 3c 8c 54 21 bd dc 4d 67 bc 69 04 24 3d
       0.027441453 -0.03938727 -0.014117684 0.04004327
000360 ed 94 9e bd 14 b2 ed 3c 27 c1 54 3d 86 07 38 3b
       -0.07743249 0.029015578 0.051942017 0.0028080656
000370 33 ff 94 3c 44 4f b8 3c 49 40 9a bc 4b ed 1b bd
       0.018188095 0.022498734 -0.018829482 -0.038068097
000380 c1 8b 56 bd 6e 51 b3 3d c8 39 e4 bc 05 25 b1 3d
       -0.052379373 0.08755766 -0.027859583 0.08649639
000390 93 0f 96 3c 63 a2 28 bd 07 dd e7 3c 77 fd ef bc
       0.018317973 -0.04117049 0.028303636 -0.029295666
0003a0 5c 43 e2 3d 68 0c 64 3d 89 22 9b 3d c9 a4 df 3b
       0.11048004 0.055675894 0.075749464 0.006825064
0003b0 20 6d 2a 3d 9f 22 be bd 4e 59 5d 3d f6 50 db 3d
       0.041607976 -0.09283947 0.054040246 0.107088014
0003c0 81 f0 93 bd 91 3b 9f 3d 9d 86 e7 3b b2 72 8e bc
       -0.07223607 0.07775033 0.0070656077 -0.017388675
0003d0 73 d7 96 3d d9 a0 c0 3c 76 c8 e4 bd 9e 32 b9 bd
       0.073653124 0.023514198 -0.111710474 -0.090428576
0003e0 ce 2f 59 bd 76 4c e8 3b a5 61 b1 bd 78 fd b5 bd
       -0.053024106 0.007089193 -0.08661202 -0.08886236
0003f0 96 ed 38 3a 6f 7e b0 bb c2 19 e2 3c b6 8c 92 bd
       0.0007054446 -0.005386166 0.027600173 -0.07155745

actor.linear3.bias f4 [128]
000000 ae 56 85 bc 3f e8 bd 3d 7e 02 30 bd 4b 53 9c bd
       -0.016276684 0.09272813 -0.042971127 -0.076330744
000010 a9 ef 69 bd e6 91 7c 3d 77 e9 e9 3c a3 31 3c bd
       -0.057113323 0.061662577 0.028553708 -0.045945775
000020 51 70 1d bc 7d 63 ab 3d a1 35 7c bd df 34 a1 3d
       -0.009609298 0.08368585 -0.061574582 0.078714125
000030 01 ee 83 3d a3 dc 93 3d 59 7a 3e 3d 5b 7c 68 bd
       0.0644188 0.072198175 0.0465034 -0.05675922
000040 d1 1a c0 3c 8f ee b7 3d fe d6 76 3d c9 8b e8 3c
       0.023450287 0.08981048 0.060263626 0.028386967
000050 94 74 66 3c a6 a8 60 ba a0 30 98 bc 8e 68 a8 bc
       0.01406588 -0.00085700525 -0.018577874 -0.020557668
000060 0a 93 29 bd c7 dd ba 3d 94 dc 2f bd 3d 93 00 3d
       -0.041399993 0.09124332 -0.04293497 0.031390417
000070 ef fc 5e bd ae ac 10 3d 41 91 bb 3b c1 04 76 3c
       -0.054440435 0.03532093 0.0057241027 0.015015782
000080 c8 ed 9e 3d 71 49 18 bd 66 ae 5b 3d ba fa b9 bd
       0.07760197 -0.037179414 0.053633116 -0.090810254
000090 f9 53 29 bc 6e 25 a8 bd 57 7a cf 3c 8a c7 83 bd
       -0.010334962 -0.08210264 0.02532689 -0.064345434
0000a0 c6 97 70 bd 2d 0c 78 3d d6 ae 08 3d af 4f 43 3d
       -0.058738492 0.060558487 0.03336986 0.047683414
0000b0 07 82 7f bd e0 23 52 b9 e6 c6 6f 3c 4e 4a c5 3d
       -0.062379863 -0.00020040525 0.014634823 0.09633313
0000c0 76 93 b7 bb d8 71 8d 3c f5 3d 88 3d 8c ba d2 3c
       -0.0056022955 0.017266199 0.06652442 0.025723718
0000d0 e8 68 63 bc 63 05 ad bd 95 5e 93 bd 18 25 7a 3d
       -0.013879992 -0.08448293 -0.071957745 0.06107053
0000e0 f1 94 ea 3c 39 94 b8 bc 88 b5 45 3b 66 73 04 3d
       0.028635474 -0.022531616 0.0030168016 0.032336615
0000f0 4a b6 1a 3c 93 ee 8e bb d8 c5 69 3d 0e 36 22 3c
       0.009442875 -0.0043619364 0.057073444 0.009900583
000100 6b fb 03 bd 79 ab b5 bc a8 ca 6f 3d 77 b8 b1 bd
       -0.032222193 -0.022176491 0.058542877 -0.08677762
000110 1e 60 67 bd b7 d5 96 3d ee b2 89 3d 35 be 8d bd
       -0.05648815 0.073649816 0.06723581 -0.06921045
000120 20 ef 4c 3d ca 01 84 bd 66 95 f3 39 84 26 98 3c
       0.050032735 -0.06445654 0.00046459882 0.018573053
000130 97 61 27 bc 9f 45 75 bc 30 1a 98 bd 20 27 c1 3d
       -0.010216138 -0.014970212 -0.0742687 0.094312906
000140 af 06 ab 3d af eb a6 bd 41 e3 99 3b da 23 f6 3c
       0.08350884 -0.08150422 0.00469628 0.030046392
000150 74 e3 9c 3b 6a 44 26 bc 4c 6b d4 3b 36 d6 8d bd
       0.0047878567 -0.010148147 0.0064825173 -0.06925623
000160 d0 75 7f bd f1 32 02 bd ae 78 f3 bb eb cd 62 3d
       -0.062368214 -0.031786863 -0.0074301576 0.05537216
000170 88 06 4e 3b 41 19 28 3d ae a8 ef 3c cf 0b cc 3c
       0.0031436998 0.04103971 0.029255237 0.024907975
000180 25 f1 3a bc 36 3d ae 3d a0 9e 15 3d ba 82 33 bd
       -0.011410032 0.08507769 0.03652823 -0.043825842
000190 99 c7 45 3c 78 e0 9d bc e8 c7 f2 3c ad 1a 9a 3d
       0.012071514 -0.019272074 0.029636338 0.07524619
0001a0 f1 62 99 3d 76 a5 12 3d 85 ac 43 bd ca 71 00 bd
       0.07489575 0.035802327 -0.04777195 -0.031358518
0001b0 84 b0 c8 3d 31 1b 16 ba 8b ee b4 3d c1 3c 8b bd
       0.09799293 -0.0005726098 0.08834561 -0.06798697
0001c0 d2 7d 26 3d c2 47 f3 3c d9 cd 94 bd dc 7b 45 bd
       0.040647335 0.029697303 -0.07265825 -0.048213825
0001d0 f3 40 52 bd 7a d5 82 bd 58 53 86 3d 3b 41 a5 3d
       -0.05133147 -0.06388374 0.06558865 0.08069082
0001e0 c4 53 60 3d 86 a8 b3 3d bd d4 8e 3d 8d 07 7c bc
       0.054767385 0.08772378 0.0697417 -0.01538266
0001f0 3e 4a ee 3c f8 2a 4e b9 8a 3e bc 3d 48 84 82 bd
       0.029088136 -0.00019661698 0.09191616 -0.06372887

actor.linear4.weight f4 [9, 128]
000000 44 d7 14 3d ac 9f c0 3c f5 90 6f bc 10 c5 b0 bd
       0.036338106 0.023513637 -0.014621963 -0.08631337
000010 7a 7a 5c bd d6 84 ed bc 93 02 00 3d 6c 20 8a bd
       -0.05382774 -0.028994005 0.031252455 -0.06744465
000020 34 6e 4f 3d 45 4a be bc fa e8 4a bc 52 73 49 3d
       0.050642207 -0.023228774 -0.0123846475 0.049182244
000030 3c 5a 2c bc 59 70 2c bd 5e 3d 88 3d 4b d5 40 3d
       -0.01051956 -0.04209933 0.0665233 0.047078412
000040 5f 72 3a 3d e7 e6 88 3c 60 d4 58 3d 3e 21 89 3d
       0.04551923 0.016711665 0.05293691 0.066957936
000050 d2 ea 89 bd cd 8e 7a bd 32 e5 92 bd b9 03 d5 bc
       -0.067342415 -0.06117134 -0.07172622 -0.026002752
000060 a1 87 a6 bd 4d 6f eb ba d9 a7 77 3c 5c b4 43 bc
       -0.08131338 -0.0017962247 0.015115702 -0.0119448565
000070 dd 5f a6 bd 9d 22 b2 3d e6 80 68 bd 20 3b a6 3c
       -0.08123753 0.08698008 -0.056763552 0.020291865
000080 98 43 20 bd b5 60 8a bd 3f 0c 83 bb 9c 3c 65 bd
       -0.039126962 -0.06756727 -0.0039992626 -0.055966005
000090 5b 78 a4 3c 5d cd ab bc e0 89 8c 3d d7 16 78 bd
       0.020076921 -0.020971948 0.06862235 -0.060568657
0000a0 f9 43 38 bd 6a 76 3d bd 36 54 5f bd a1 5b 36 bd
       -0.0449867 -0.046255507 -0.05452367 -0.044520978
0000b0 88 de 83 3d b3 c2 3a 3d fd 7f 43 bd 69 59 ed bc
       0.06438929 0.045595836 -0.04772948 -0.028973298
0000c0 e6 9f 31 3d 7d 45 8d 3d 5a 64 7f bc 44 09 7b bd
       0.04336538 0.068980195 -0.0155878905 -0.061288133
0000d0 85 80 94 bd 66 aa 9d bd 25 33 26 3d 7d 43 ad bd
       -0.07251076 -0.076985165 0.04057612 -0.08460138
0000e0 87 eb e6 bc 40 a1 54 3d 50 6c ab 3d 59 03 9a 3b
       -0.02818848 0.051911592 0.08370268 0.004700106
0000f0 4f 22 65 bd 77 e9 92 bd 55 14 16 bd 08 26 6a 3d
       -0.055940922 -0.07173436 -0.036640484 0.057165176
000100 f2 78 55 bd 1f 36 92 3d 42 1c 41 3c 18 ff 95 3d
       -0.052117296 0.07139229 0.011786522 0.07324046
000110 5c e7 b7 bc 4f 77 aa 3d 1f 48 21 3d c5 46 2c bd
       -0.022449188 0.083235376 0.03937542 -0.04205968
000120 f6 65 ee 3c 43 ec 30 bd 74 e6 9c bc 91 1b a5 3d
       0.029101353 -0.043194067 -0.019152857 0.080618985
000130 bb b8 95 3d 90 b0 99 3c 63 9c 97 3d 14 4a ab 3d
       0.07310625 0.01876095 0.07402875 0.08363739
000140 3c 2b 27 3d cc a6 df 3c 19 cd 46 3c 6f 06 12 3c
       0.040812716 0.027301215 0.01213386 0.008912667
000150 95 b3 22 3d 8d 9a 9b 3c 5a 29 7e 3b 44 79 a3 3d
       0.039722044 0.018994594 0.0038781972 0.07982114
000160 bb 7c 60 3c 8b b5 97 3d 5a 78 45 3d 82 ae 5d bd
       0.013701613 0.074076734 0.04821048 -0.0541215
000170 6f 6e 26 3d f1 42 9f bb 57 a1 b2 bd 96 50 68 3d
       0.04063266 -0.004860275 -0.087221794 0.056717478
000180 27 7f e6 3a 86 cf d5 bc dc a6 a7 3d 69 1a 1a 3d
       0.0017585502 -0.026099931 0.08186123 0.037622843
000190 0f 89 b6 bd 94 fb 58 bd dc cb 83 3d a6 b5 93 ba
       -0.089128606 -0.0529743 0.064353675 -0.0011269345
0001a0 97 c5 59 bd d5 79 8e 3d fc 55 a4 bd 47 0a 77 bd
       -0.053166952 0.06956831 -0.08024213 -0.060312536
0001b0 11 42 20 bd 2e a1 67 bc d1 bb ba 3d f5 60 2d 3d
       -0.039125506 -0.014137549 0.091178544 0.042328794
0001c0 60 43 28 bd b2 5d 92 bb 4d ba 75 bd 28 14 8f 3d
       -0.04107988 -0.0044667358 -0.059992123 0.069862664
0001d0 e8 94 8c 3d 0a 82 a3 3d 86 4b 48 bd c4 f7 0d bd
       0.06864339 0.07983787 -0.04890015 -0.034660116
0001e0 a1 03 1d 3d 9d e4 b5 3c eb f3 dd bc 1a 27 8a bd
       0.03833354 0.022203738 -0.027093848 -0.06745739
0001f0 91 d1 80 3b 50 51 62 bd a8 ad 87 bd e1 73 79 bd
       0.0039312323 -0.055253327 -0.06624919 -0.060901526
000200 01 8b 8b 3d 2e d6 2e 3d 51 e2 c9 3d b5 8d 4b 3d
       0.06813622 0.042684726 0.098576196 0.04969569
000210 63 92 aa bd e9 ef e0 3d 1d b8 bb 3d fa 6e 3e 3d
       -0.08328702 0.10983259 0.09165976 0.046492554
000220 7d df 24 3c 71 d3 4a bc eb c0 56 3c e0 77 97 3d
       0.010063049 -0.012379513 0.013107519 0.07395911
000230 bf be 5d 3d 44 5a 42 3c 74 96 9f bb 23 f6 6c 3d
       0.054136988 0.011862341 -0.0048702303 0.05785192
000240 0d f4 35 bd b7 4e 3b 3d db 8b 07 3d ad ab c5 3d
       -0.044422198 0.045729365 0.03309236 0.09651885
000250 9e ec 8e bd 12 e9 84 bd b6 1f ec 3b a6 2e 9a bc
       -0.06978725 -0.06489767 0.0072059287 -0.018821072
000260 96 7a 22 3d 6e 73 1d 3d 7c 12 7b 3d 2e c6 13 3d
       0.03966769 0.03844016 0.061296925 0.03607767
000270 7f 70 38 bd 93 99 96 bc 94 0f 16 bd 61 30 d1 3d
       -0.04502916 -0.018383777 -0.03663595 0.10214306
000280 e2 55 fa bc df 79 39 bd 28 be d9 bd e3 60 9c 3d
       -0.03055853 -0.04528224 -0.106319726 0.07635667
000290 25 b2 1d bd b6 c6 8e 3c 59 6e 2c 3c a9 57 e2 3d
       -0.03849997 0.017428737 0.010524356 0.11051876
0002a0 9d bc 68 3c f6 d7 9e bd 76 84 77 3c c9 e9 a8 bd
       0.014205125 -0.07756035 0.015107265 -0.08247716
0002b0 c3 5d eb bc 8e 02 94 bd 1e 0a 2a bc 34 bb 46 3c
       -0.028731233 -0.0722705 -0.010378389 0.012129594
0002c0 2c 09 a6 bd d7 d5 9d bd 87 58 f0 bb 17 2e 7f 3a
       -0.08107218 -0.07706802 -0.007334772 0.0009734346
0002d0 27 71 85 3d d2 77 63 3d b7 2b c1 3d 36 84 2b 3d
       0.06515723 0.05553419 0.09432166 0.041874133
0002e0 56 ae ad bc a6 0d a6 bb 8f 8c 0c 3d a9 e2 6b 3d
       -0.021201294 -0.005067545 0.034313735 0.057589207
0002f0 25 e5 ba 3c 83 e1 89 3d 2c 43 14 3d b1 ed 39 bd
       0.022814343 0.06732466 0.036196873 -0.045392696
000300 a3 ce 0c bd 05 a1 b8 3d bf 5f 6d bd 00 a4 ac bd
       -0.03437675 0.09015087 -0.05795264 -0.08429718
000310 43 2b 9d bd cc cd b3 3c b0 48 e6 3d 3d 16 49 3d
       -0.07674267 0.021948718 0.11244333 0.049093474
000320 5b c2 01 3d 2f 69 09 bd 60 83 46 bd dc 5a 5e 3d
       0.031679492 -0.033547577 -0.048465133 0.05428587
000330 e7 f5 79 bd b7 c8 8a 3d 31 0e 81 3d c3 f0 88 3d
       -0.061025526 0.067765646 0.06301535 0.06686547
000340 3b dc 55 3d 8c 70 9f 3d b9 fb c6 3c 0c b0 a5 bd
       0.05221198 0.077851385 0.024289953 -0.08090219
000350 70 ba de bc f0 a7 b7 3d 3f 45 31 bd 77 d5 ba bd
       -0.02718851 0.089675784 -0.04327893 -0.091227464
000360 82 b2 7c 3d 99 ee 72 bb 7c d1 f6 bb 7b e5 88 bd
       0.061693676 -0.0037068485 -0.0075322967 -0.06684395
000370 d1 c1 e2 3c c5 d0 a2 bd 5d 85 b8 3d 72 5b 77 3d
       0.02768031 -0.07949976 0.09009812 0.060389943
000380 3a af ac bd 31 11 ae bc e8 90 98 bd 40 35 19 3d
       -0.08431859 -0.021248432 -0.07449514 0.0374043
000390 41 a1 4d ba 81 4f 70 3d bc 8d 91 bd 99 58 66 bb
       -0.0007844158 0.05866957 -0.07107112 -0.0035148023
0003a0 d6 e1 45 bc 8f d3 16 bd 83 1c 4e 3d d5 86 22 3d
       -0.012077769 -0.03682285 0.05032016 0.039679367
0003b0 0a 2b 77 3d f6 25 c8 bc 8a 19 63 3c 99 4f ca bd
       0.06034378 -0.024432164 0.013861069 -0.09878463
0003c0 fc be 01 bb ed d2 35 3d b5 cd d6 3d ad f0 67 3d
       -0.0019797673 0.044390608 0.10488454 0.05662601
0003d0 69 b2 a1 3d 62 20 07 3d a1 98 43 bc ff c2 38 3c
       0.07895357 0.032989867 -0.011938245 0.011276959
0003e0 7e aa 82 3d 60 15 df bd b9 0b 6c 3d 92 6a b3 bd
       0.06380175 -0.10892749 0.057628367 -0.08760561
0003f0 47 4e 8e 3a fd 83 ac bd 4b c0 d3 3d 16 50 b4 bc
       0.0010857069 -0.08423612 0.10339411 -0.022010844

actor.linear4.bias f4 [9]
000000 8f 66 70 3d 30 25 94 bd cb 1d 03 3d 56 4f ac 3d
       0.058691557 -0.072336555 0.032010835 0.0841357
000010 8e 2f cd 3b 52 c5 37 bd d4 2d 4f 3d 26 03 65 3d
       0.0062617725 -0.044865914 0.050580814 0.055911206
000020 6e 0b 96 3d
       0.07326399

critic.linear1.weight f4 [128, 120]
000000 eb 58 98 3d 9f 3d 23 3e 3d 06 ad 3d e4 f5 f2 bc
       0.07438835 0.15941475 0.084484555 -0.029658265
000010 6e 7d fd bc 50 66 90 3d d3 cb 7f 3d be cf 0f 3d
       -0.030943599 0.070507646 0.06245024 0.035110228
000020 46 72 07 3b 18 24 0d 3e 39 8d 89 3d 10 8c e1 bd
       0.0020667478 0.137833 0.06716389 -0.11013043
000030 98 86 66 3d 22 3c b2 bc 9d 06 ab bd 81 da b0 bc
       0.056280702 -0.02175719 -0.08350871 -0.021588566
000040 c4 a7 93 3d cd 7a d2 bd 52 0f 05 3d 48 3e c5 3d
       0.07209733 -0.10277329 0.032485314 0.0963102
000050 73 3a 81 3d e3 7c 2e 3d 30 39 da 3b 9c 70 d6 bb
       0.063099764 0.04259957 0.0066596493 -0.006544186
000060 7a 68 03 3d ab 2e c7 bc c7 4b 9e 3c 8f 64 a8 bc
       0.03208206 -0.024314245 0.019323243 -0.020555763
000070 f1 dc 04 bd 11 38 3d 3d 8e 19 3c 3d e6 9d 11 bd
       -0.03243727 0.046196047 0.04592281 -0.035550974
000080 f7 e0 71 bd d0 63 80 3b f2 b2 16 3e e4 06 00 3c
       -0.059052434 0.0039181486 0.147167 0.007814143
000090 ab be e7 3d f2 54 f3 3d 97 30 ec bd 7c 90 92 3c
       0.11315664 0.118814364 -0.11532705 0.017891161
0000a0 0c 54 35 bc 4e af 93 3d b7 e0 99 bd 2b b9 b6 3d
       -0.011067402 0.07211171 -0.07513564 0.08922037
0000b0 87 2c dd bc c1 d2 81 bd ba 6f c5 bd 38 b3 2a bd
       -0.026998771 -0.06339026 -0.09640451 -0.041674823
0000c0 dc 53 a4 3d 9e 50 7c 3d 03 46 8a 3d db 4a 99 3d
       0.080238074 0.06160032 0.06751635 0.07484981
0000d0 4c 43 15 3d 62 b2 18 3d c5 6d bb 3d 07 93 0f 3e
       0.036441132 0.037279494 0.09151796 0.1402093
0000e0 59 5e a6 bd 96 e2 c4 bc 47 da b6 bd 61 f4 9c 3d
       -0.08123464 -0.024033826 -0.08928352 0.07663799
0000f0 0e cb 8a bd a9 de 5b 3c 9b fb 7c bc dd 88 ba bd
       -0.06777011 0.013419786 -0.015440847 -0.09108136
000100 33 45 3d bc 10 ff fa bd 17 4c ef 3d bb 0c 19 bd
       -0.011552143 -0.122556806 0.11684435 -0.037365656
000110 51 b5 f9 3d f5 61 64 bb aa 6b 92 3c a7 9c 00 3b
       0.121927865 -0.0034848426 0.017873604 0.0019624622
000120 8d 9b 9b bd 92 14 d4 bd 35 79 df 3c 90 8b 44 bd
       -0.07598028 -0.10355486 0.027279476 -0.04798466
000130 37 97 e4 bc 8b 02 b5 3d 5f 98 ce 3c 1d f7 e9 bc
       -0.027904136 0.08838376 0.02521914 -0.028560216
000140 c7 1e c4 bd 45 8b b5 bd 48 63 8e bd 30 a5 de bc
       -0.09576183 -0.08864454 -0.0695253 -0.027178377
000150 d7 fc d9 3d 32 85 a0 3c 84 c8 5f bd 63 06 90 3d
       0.106439285 0.019594762 -0.054634586 0.07032468
000160 e0 78 6d bc ac e4 88 bd 0e dc b9 bd 5f 5e 59 3d
       -0.014494151 -0.06684241 -0.09075175 0.053068515
000170 f7 65 1f 3d d5 88 54 bb 65 93 1e 3d b8 1c 72 3d
       0.0389156 -0.003243019 0.038714785 0.05910942
000180 c3 90 38 3d e6 a0 5d 3d 37 42 8b bc ab f5 d5 bb
       0.04505993 0.054108523 -0.016999347 -0.00652953
000190 88 b8 36 bc 05 c6 c7 3d 8b e5 7a bd 30 d9 ff 3c
       -0.011152394 0.09754566 -0.061254065 0.031231493
0001a0 7b cc 68 bb bb 19 98 3d 69 2d a4 bd b1 db 75 3d
       -0.003552227 0.07426783 -0.08016474 0.060023967
0001b0 1f 95 d4 bd d9 6c b3 3d a5 1e d4 3d 98 78 92 bc
       -0.10380005 0.087609954 0.103574075 -0.01787977
0001c0 1a dd ac 3d 54 6b ed bd 98 91 dd 3d 4e 9c f1 3c
       0.08440609 -0.11592737 0.108187854 0.029493477
0001d0 cf cd 8f 3d 49 29 76 bd 19 68 d9 3d 59 c4 09 3e
       0.07021677 -0.060097966 0.10615558 0.13453807
0001e0 6b 69 26 bd f6 a5 ef bb a7 6a a2 3c b7 c4 7b bc
       -0.04062788 -0.0073134853 0.019826246 -0.015366725
0001f0 97 b3 01 3c d8 1a af bd 61 eb cd 3c ae 2b 67 3d
       0.007916353 -0.08550042 0.025136651 0.05643814
000200 bc bc 95 bb 08 1a 09 3d 1f d4 5b bd 61 d2 b2 bc
       -0.004569618 0.03347209 -0.05366909 -0.021828832
000210 60 aa 37 3c d7 c4 bb bd bd d4 1a 3e 3a 7f 97 3d
       0.011210054 -0.091684036 0.15120216 0.073973134
000220 94 be 1e 3d 46 ca b2 bd db f6 15 3c d4 05 13 3d
       0.03875597 -0.08729987 0.009153093 0.03589423
000230 94 37 0a 3d 2a 53 de 3d 58 a5 e1 3d 18 b0 4d 3d
       0.03374441 0.10855706 0.11017865 0.050216764
000240 b3 f2 88 3d dc 98 10 bd 2e d8 97 3c 7a 27 98 bd
       0.06686916 -0.035302028 0.0185357 -0.074294046
000250 82 6b 88 3d 82 17 cb 3a 24 9c cf 3d a4 8e ea bc
       0.066611305 0.0015494677 0.10137203 -0.02863247
000260 e6 97 94 bd 01 3d 16 be f0 0b 16 3d 1f fd 2a bc
       -0.07255535 -0.14671709 0.03663248 -0.010436325
000270 3d 1c 83 3d 2e b9 5e 3c b8 40 9c 3d 4c 29 f3 3d
       0.064018704 0.013593955 0.076295316 0.11873111
000280 9b 60 8a bc d0 2f 0d bd df b1 1e 3d 08 7b 3d 3c
       -0.016891768 -0.034469426 0.03874385 0.0115649775
000290 67 1e 00 bd 9a b5 26 3d 5d fd 81 bd 55 54 83 bc
       -0.031278994 0.040700532 -0.06347153 -0.016031424
0002a0 8c 37 e2 bd d1 9f bc 3d 01 0c e7 bc 73 41 69 bd
       -0.11045751 0.0921017 -0.028203966 -0.056947183
0002b0 fd 24 04 3d d8 af 0f 3b fe e8 0a 3e 5e 86 e3 39
       0.032261837 0.002192488 0.13565442 0.00043396925
0002c0 20 0a a5 bd 99 fb 84 3d 77 8a a2 3d e1 92 22 bd
       -0.08058572 0.06493301 0.07936566 -0.039690856
0002d0 65 c9 92 3d aa 4e a3 3c 49 de ae 3d ee 98 c2 3c
       0.07167319 0.01993497 0.08538491 0.023754563
0002e0 49 8a f4 3d 7b 6c 9e 3d 55 dd 23 bd 33 51 b4 bc
       0.11940438 0.07735535 -0.040006 -0.022011375
0002f0 90 2c f6 3d cf 47 69 b8 14 6f 66 bd df 0e b9 ba
       0.12020218 -5.5618406e-05 -0.056258276 -0.0014118812
000300 2e be 5c bd 27 a3 09 3e be 86 b8 3d d1 03 58 3d
       -0.053892307 0.13441144 0.09010075 0.052738015
000310 98 06 59 3d 1c 7a 78 bd d8 72 ea 3d f0 e5 9d 3d
       0.052984804 -0.060663328 0.11447686 0.07709873
000320 0d 2c 3b bd 51 2e e1 bd ba dc c2 3d 77 b7 4d 3c
       -0.045696307 -0.10995162 0.095147565 0.012555948
000330 20 15 03 3e be 70 cf 3d 01 86 f5 bc 6a 41 91 bc
       0.12801027 0.10128926 -0.029971125 -0.017731387
000340 f0 5b 14 bd 95 b4 86 3d 3c b7 20 bc 72 00 66 3d
       -0.03622049 0.06577412 -0.0098093115 0.05615277
000350 86 8f cd 3d cb d2 b5 bd b0 12 0d 3d 5f 17 da 3c
       0.100371405 -0.08878096 0.03444165 0.026622472
000360 82 b6 11 3d b9 07 c5 bd 05 18 3a bd 14 5e 84 bc
       0.035574444 -0.096206136 -0.045433063 -0.016158141
000370 d1 a2 4d 3c 69 a8 a7 3d 28 86 14 3e c6 6e 21 3e
       0.0125510255 0.081864186 0.14504302 0.15764913
000380 18 96 a0 bd ff 02 08 bd 11 9f e0 3d f3 15 b3 3c
       -0.07841128 -0.033205982 0.109678395 0.021861052
000390 be 20 36 3d 13 39 60 3d 09 f9 c3 bc 7c 42 c6 3d
       0.04446482 0.05474193 -0.02392246 0.0968065
0003a0 64 75 a2 3d d3 1b 18 3e c2 87 bd bd 51 09 80 bd
       0.07932547 0.14854364 -0.092544094 -0.06251777
0003b0 2f 6c ab bc e0 b9 51 3e ae 01 36 3d b0 cf bd 3d
       -0.02092561 0.20481062 0.044435196 0.09268129
0003c0 66 f7 df bb 8c 32 29 bc f4 4d 6d bb 17 99 d0 bc
       -0.006834912 -0.010326993 -0.0036209794 -0.025463624
0003d0 0c 07 aa bd 24 ab 4d 3c c6 56 05 be cb 20 1a bd
       -0.08302125 0.01255301 -0.13021383 -0.03762893
0003e0 94 a4 89 3d ae 18 55 3d 33 b4 b4 3d 11 2f 15 3d
       0.06720844 0.05202549 0.08823433 0.03642184
0003f0 f9 6f f7 3c 7e a9 e3 3c 58 d5 22 bd e2 0e db 3b
       0.03020476 0.027790781 -0.03975424 0.006685124

critic.linear1.bias f4 [128]
000000 b6 fc 28 3d 91 b3 7e 3d 46 7d 5f 3c 59 32 02 be
       0.04125663 0.062182967 0.013640707 -0.12714519
000010 17 59 f3 3d 73 73 d6 3c c6 be a8 3d fa db f1 bd
       0.11882227 0.026178097 0.08239512 -0.11809535
000020 40 07 b7 3d aa d3 49 bd e9 de cb 3c 81 cf d2 3d
       0.0893693 -0.049274124 0.024886565 0.102934845
000030 c4 f3 fc 3b ff f8 75 bc a4 5b 01 3e 70 f9 db 3d
       0.007719489 -0.015012979 0.12632614 0.10740936
000040 cb 2d fe bc 15 b2 20 3e ac 53 05 3d 57 98 87 bc
       -0.031027695 0.15692933 0.0325505 -0.016552133
000050 46 50 05 3e 48 78 a1 bc 72 ef ec 3d 91 c5 86 bd
       0.13018903 -0.019710675 0.11569108 -0.065806516
000060 ff 3c 85 bc 9d aa 6a bd ec c1 89 bc 08 a3 d4 bd
       -0.016264437 -0.057291616 -0.016816102 -0.10382658
000070 ec 26 85 3b f4 46 ed 3d af 0a 0a bd ed 92 af 3c
       0.0040634777 0.11585799 -0.033701595 0.021432364
000080 17 14 39 3b 95 ba 7a bd 57 7d c9 bd b8 f3 72 bd
       0.0028240734 -0.061213095 -0.0983836 -0.05931446
000090 c0 e5 03 3d 5a 09 af 3c b5 15 0d 3e 9b 5e 0e be
       0.03220153 0.021366764 0.13777812 -0.13903277
0000a0 61 17 a2 3c 99 45 08 be 5d 5c 99 bd d4 d9 50 3c
       0.019786539 -0.133078 -0.0748832 0.012747247
0000b0 7d 58 01 3d 6b f6 32 bd cd 45 f2 3d 88 91 a2 bb
       0.03157853 -0.043692034 0.1182972 -0.0049611963
0000c0 92 62 fc bd 79 19 ab 3c 8f c1 f6 3c 7a 0e 44 3d
       -0.12323488 0.02088617 0.030121593 0.04786537
0000d0 61 12 d6 bb 53 aa 83 3d 2b d3 ba bc 2d 60 06 bd
       -0.0065329527 0.06428971 -0.02280577 -0.032806564
0000e0 a5 1f de 3d ce d8 d7 bc ea 31 f1 3d 3e fe 8d bb
       0.108458795 -0.026348498 0.117770985 -0.0043332865
0000f0 20 7f 0d bc bc 08 22 3d 89 4d c2 bd 98 25 e1 3c
       -0.008636266 0.03955911 -0.09487445 0.027483746
000100 71 74 93 3c a2 0a 0a 3e e9 3b f2 bd 08 14 76 bd
       0.01799986 0.13480619 -0.11827833 -0.060077697
000110 4d 6a 04 3e 09 d3 f4 3d 6e 5b 8b 3d bb eb 40 3d
       0.12931176 0.11954314 0.06804548 0.04709981
000120 c4 8c f5 bd fc a3 de 3c 71 15 7c 3b f4 4a 14 3c
       -0.119897395 0.027177803 0.0038464929 0.009051073
000130 1f 28 03 3e 45 12 1b 3d 1c a7 3b 3d a4 70 00 be
       0.12808274 0.03785922 0.045813665 -0.12542969
000140 d7 0e da bd 9f cb e1 3d 01 a2 03 3e 48 02 1d be
       -0.10647362 0.11025166 0.12854768 -0.15332901
000150 f5 b1 ff 3c 54 10 19 3e 2e 21 9b bd 86 11 2d 3d
       0.031212786 0.14947635 -0.07574688 0.04225304
000160 2c e6 ae bd c7 2a fe 3b 51 32 22 3e b1 80 8c 3d
       -0.085399956 0.0077565643 0.15839507 0.068604834
000170 6d 82 bb bd fd 6d 18 3e 40 a4 a1 bc aa 61 09 3e
       -0.09155736 0.14885707 -0.01973164 0.13416162
000180 4a 28 18 3e df d0 0b bd 85 67 c5 bd 36 f0 06 be
       0.14859119 -0.034134742 -0.096388854 -0.1317757
000190 4a 00 cc 3d 67 fa 11 be ac 05 1d 3d 10 ee 88 bb
       0.09960993 -0.14255677 0.038335487 -0.00417877
0001a0 42 b1 db bb ad b4 30 3e aa 9e 9a bd 57 5e c2 3d
       -0.0067044804 0.17256422 -0.07549794 0.0949065
0001b0 ee 26 80 bc 4b 6d 69 bb 5a f6 e3 3d 15 f6 0c bd
       -0.015643563 -0.0035618122 0.11130972 -0.03441437
0001c0 c6 c9 27 3c 80 83 0c bc c9 bd 1c 3d a6 3e 00 bd
       0.010240978 -0.008576274 0.03826693 -0.031309746
0001d0 a8 8b 0c 3e 38 ec 1c 3e 00 c9 ec 3d 05 35 20 3e
       0.1372515 0.15324485 0.11561775 0.15645225
0001e0 b6 15 05 3c d1 9b 85 3d 39 81 c8 bd 82 06 15 bd
       0.008122852 0.0652386 -0.09790272 -0.03638316
0001f0 1c bb ca bc 9c 1b 0d bd 3d c1 92 3d f8 e9 0f 3e
       -0.024747424 -0.03445016 0.071657635 0.14054096
