landing_falcon_raw_ckpt/ckpt_00001801.pt (torch, 496503 bytes, 15 tensors)

actor.linear1.weight f4 [128, 120]
-0.043377813 -0.0705582 -0.060240436 0.055705547 -0.063423485 -0.0049290336 0.025036776 -0.058379397
0.052328628 0.0708568 -0.028049843 0.06393669 0.090962835 -0.08458398 0.067935415 0.08416116
0.054760966 0.009440618 -0.061752252 0.06285129 0.074710704 0.0061611338 0.033927638 0.067249484
-0.07249432 -0.029371856 -0.018719997 -0.07534292 -0.082674146 0.0152698 -0.054311987 -0.03270981
-0.04076645 0.022126965 -0.028436085 -0.0053007766 -0.00023779443 0.035258465 0.08840026 0.06837664
0.07560475 -0.049508244 0.082517914 -0.059524477 0.07404737 -0.05941747 -0.023846013 -0.06931137
0.07745085 -0.01789564 -0.053394653 -0.03862538 -0.085003495 -0.03871287 -0.020286959 -0.023633521
-0.04993842 0.01130129 -0.061756644 -0.03967451 0.004143288 0.0744968 0.029592967 0.021532122
0.07197476 0.0052379947 0.050346985 -0.07911248 0.022643305 0.06970103 0.057913095 -0.01906984
0.011391766 -0.07544171 0.014979019 0.054454792 -0.018589182 0.048591763 -0.0032737073 -0.06943016
0.05878155 0.029157197 -0.075508155 0.059663188 -0.09463853 -0.010608529 0.0121406205 0.04532503
-0.0029967804 0.039413344 0.0014916182 0.039163977 0.030666385 0.06311815 0.0057189353 -0.087785706
-0.036399916 0.010807625 0.07209422 0.08432319 -0.006780179 -0.06607465 0.018408533 -0.0052208574
-0.06963614 -0.045204215 -0.030348603 -0.075888425 -0.05541291 0.024241379 0.045400962 -0.036630478
-0.07114002 0.003493756 0.03679815 -0.03473106 0.057922155 -0.020420378 -0.037003025 0.07282183
0.09108816 0.080604315 0.05655166 0.07895456 -0.046574853 -0.06705485 0.055083476 0.06971101
-0.060764186 -0.027431443 0.055197027 0.062917545 -0.017492492 0.0045204563 -0.0576596 -0.03285726
0.022818903 -0.07891371 -0.004739633 -0.05653177 0.06398971 -0.044703048 -0.008496733 0.083648056
0.04389831 -0.056144852 0.06166718 0.08985526 0.012834594 -0.006921774 0.0029154064 0.047852036
0.04672811 0.07360518 -0.05597365 0.07750914 0.08769889 -0.058070917 -0.05357849 -0.04324608
0.008523359 -0.05689333 -0.08172931 -0.0006317451 0.01846076 0.047840226 -0.06944787 0.0136740785
0.02914528 -0.06534503 0.03504427 0.07884008 -0.08402746 0.061994113 -0.051571768 -0.0853177
0.077503696 0.012478373 0.03295102 0.07209802 0.018924093 -0.07618377 0.08068031 0.02760528
0.050817166 0.07252157 0.061642565 -0.045681342 0.08462566 0.023809288 -0.055900566 0.09569674
0.0345883 -0.011451127 -0.04053346 0.03705486 0.08057704 0.046754956 -0.052623168 0.04911005
0.047836125 -0.05475933 0.032927703 -0.041295845 0.0555504 -0.0015704314 0.05728081 -0.019010022
-0.05511402 -0.04522726 -0.00073116104 -0.0010273807 0.074795574 0.032448906 0.060944844 -0.037925385
-0.018676447 -0.030651497 -0.084548436 0.0008451561 0.047781274 0.05055431 -0.029004756 -0.011967522
-0.022832334 -0.022446465 0.043414444 0.007968797 -0.060423248 -0.052667726 0.051479526 0.09360247
-0.06693079 0.035910357 -0.016394354 -0.032484178 -0.06001506 -0.025584172 0.04184373 0.057313677
0.068694755 -0.06505221 -0.051995583 -0.07426474 -0.0773061 -0.07552118 -0.079089485 0.02791039
-0.06302755 -0.06856065 0.044448163 -0.00035549968 0.058519036 -0.05763611 -0.04426874 0.029492926
00000000: efac 31bd d180 90bd adbe 76bd 802b 643d
00000010: 2ce4 81bd bb83 a1bb ed19 cd3c 3c1f 6fbd
00000020: 8b56 563d 5f1d 913d c9c8 e5bc 3df1 823d
00000030: b94a ba3d 5e3a adbd b921 8b3d b05c ac3d
00000040: 094d 603d d2ac 1a3c eeef 7cbd 2db8 803d
00000050: ed01 993d 56e3 c93b b5f7 0a3d 19ba 893d
00000060: e777 94bd 3f9d f0bc ae5a 99bc 644d 9abd
00000070: 1051 a9bd 2f2e 7a3c 3f76 5ebd b9fa 05bd
00000080: b9fa 26bd 9c43 b53c cbf2 e8bc 23b2 adbb
00000090: 7558 79b9 2e6b 103d 320b b53d 0d09 8c3d
000000a0: aad6 9a3d 28c9 4abd 27ff a83d f0cf 73bd
000000b0: 26a6 973d bc5f 73bd b758 c3bc 1ff3 8dbd
000000c0: 8d9e 9e3d e199 92bc 5ab4 5abd a535 1ebd
000000d0: 5016 aebd 6391 1ebd d630 a6bc 169b c1bc
000000e0: 3b8c 4cbd 0c29 393c 89f4 7cbd bd81 22bd
000000f0: 6bc4 873b c791 983d f36c f23c 2264 b03c
00000100: 8167 933d 7ca3 ab3b a438 4e3d b905 a2bd
00000110: 747e b93c 6abf 8e3d 4836 6d3d 5a38 9cbc
00000120: 88a4 3a3c 2f81 9abd 8f6a 753c fd0b 5f3d
00000130: 5748 98bc 2808 473d b28b 56bb 6631 8ebd
00000140: ecc4 703d 13db ee3c 05a4 9abd 6361 743d
00000150: d8d1 c1bd 65cf 2dbc 74e9 463c bda6 393d
00000160: a265 44bb e36f 213d 6782 c33a 686a 203d
00000170: 1238 fb3c 1744 813d e865 bb3b fec8 b3bd
00000180: 1418 15bd 7712 313c 22a6 933d a3b1 ac3d
00000190: 442c debb 2552 87bd 7ecd 963c ba13 abbb
000001a0: 649d 8ebd 0e28 39bd a29d f8bc 646b 9bbd
000001b0: a6f8 62bd db95 c63c 5cf6 393d d709 16bd
000001c0: dcb1 91bd 80f7 643b a8b9 163d 2842 0ebd
000001d0: c83f 6d3d a348 a7bc 7c90 17bd 9d23 953d
000001e0: 6e8c ba3d e013 a53d b7a2 673d eeb2 a13d
000001f0: 46c5 3ebd 0e54 89bd 369f 613d a5c4 8e3d
00000200: dee3 78bd e8b7 e0bc 4716 623d eada 803d
00000210: 6a4c 8fbc 5620 943b 792c 6cbd 5695 06bd
00000220: b5ee ba3c 839d a1bd ec4e 9bbb db8d 67bd
00000230: 090d 833d 8b1a 37bd e235 0bbc ac4f ab3d
00000240: b7ce 333d 25f8 65bd ba96 7c3d 0906 b83d
00000250: 3048 523c 0cd0 e2bb 6710 3f3b 7f00 443d
00000260: fa65 3f3d 50be 963d a044 65bd 1dbd 9e3d
00000270: 7a9b b33d c5db 6dbd 1e75 5bbd cd22 31bd
00000280: 8fa5 0b3c fb08 69bd b261 a7bd b29b 25ba
00000290: 053b 973c 1df4 433d af3a 8ebd 3e09 603c
000002a0: 15c2 ee3c 9dd3 85bd 958a 0f3d e876 a13d
000002b0: 9716 acbd 8aed 7d3d eb3c 53bd 0cbb aebd
000002c0: 42ba 9e3d 1772 4c3c a6f7 063d 20a8 933d
000002d0: b306 9b3c 3d06 9cbd b83b a53d 7824 e23c
000002e0: a925 503d 3086 943d ea7c 7c3d 5c1c 3bbd
000002f0: 3850 ad3d b20b c33c fef7 64bd a7fc c33d
00000300: 76ac 0d3d 829d 3bbc 6a06 26bd d6c6 173d
00000310: 9305 a53d 2082 3f3d 648b 57bd 9f27 493d
00000320: d0ef 433d 524b 60bd 33df 063d d525 29bd
00000330: d188 633d efd6 cdba 489f 6a3d e8ba 9bbc
00000340: 3dbf 61bd 3840 39bd 63ab 3fba 2da9 86ba
00000350: 6c2e 993d 25e9 043d 4da1 793d a657 1bbd
00000360: 59ff 98bc d918 fbbc bb27 adbd 778d 5d3a
00000370: 4cb6 433d 0912 4f3d 629b edbc 6d13 44bc
00000380: e00a bbbc a6e1 b7bc 58d3 313d 8f8f 023c
00000390: 5e7e 77bd 1dba 57bd 32dc 523d a7b2 bf3d
000003a0: 0313 89bd bd16 133d 744d 86bc 210e 05bd
000003b0: 5ad2 75bd e695 d1bc 5564 2b3d bfc1 6a3d
000003c0: d6af 8c3d 183a 85bd 52f9 54bd 1d18 98bd
000003d0: a952 9ebd d9aa 9abd abf9 a1bd 55a4 e43c
000003e0: 9714 81bd 8769 8cbd 470f 363d 5c62 bab9
000003f0: a8b1 6f3d d713 6cbd 2353 35bd 269b f13c

actor.linear1.bias f4 [128]
0.07522105 0.013397158 0.01258584 0.053435624 -0.08630528 -0.0028596919 0.033030998 0.07223391
0.08142343 0.038375143 -0.048370175 0.04300001 0.0875891 -0.041100986 -0.017285835 0.034151237
0.002626735 -0.082820825 -0.042284574 -0.03642973 -0.06605991 0.05818733 -0.09215983 -0.0021751553
0.05362678 -0.0032596046 0.006812009 0.041017693 0.09030786 0.0007834436 -0.000580946 0.06250503
0.05302731 0.05722805 0.037925433 0.056698777 0.09500585 -0.055958875 -0.008636521 0.028725253
2.6974914e-05 0.05167043 -0.03129135 0.036928065 0.024043862 -0.041350137 0.058478523 -0.06594562
-0.07622359 0.041690435 0.032482024 0.055354133 -0.03960219 0.08627995 0.0049990728 0.037631284
-0.07683654 -0.07888983 0.008463012 -0.06681393 0.069338076 0.011886304 0.06195554 0.06928283
0.07279721 -0.0207589 0.0028556061 -0.029611003 -0.08437842 -0.01557322 -0.056838498 -0.07554158
-0.02571733 0.054268505 -0.011964458 0.028763214 0.08421467 0.07331696 0.060564157 -0.030708833
-0.053648666 0.04437444 0.063701294 -0.0744165 -0.063513994 -0.04842493 -0.007309828 -0.06843526
0.029911386 -0.07303315 0.03050885 -0.03448147 -0.07714041 -0.07377308 -0.006732063 0.04512122
-0.06560266 -0.04685875 0.08033125 -0.07161036 0.0112705985 -0.04033255 0.027267898 -0.0049923817
-0.07250812 -0.010118135 0.031216867 0.0025120375 -0.0480947 0.007825094 -0.04428851 -0.042202342
-0.0113315275 0.03402247 0.0062631425 0.070797 -0.08518739 -0.01688702 0.04632636 -0.025096215
0.07138984 -0.0039872956 0.083568536 0.058277875 0.012551182 0.024773745 -0.07606979 -0.03010527
00000000: 7e0d 9a3d c17f 5b3c d734 4e3c 50df 5a3d
00000010: d3c0 b0bd ab69 3bbb 834b 073d 5fef 933d
00000020: 54c1 a63d 412f 1d3d ce1f 46bd c720 303d
00000030: ea61 b33d 8259 28bd 069b 8dbc 2be2 0b3d
00000040: 4d25 2c3b f79d a9bd 9732 2dbd 5737 15bd
00000050: 6b4a 87bd d655 6e3d 4bbe bcbd 0d8d 0ebb
00000060: c1a7 5b3d 179f 55bb 4637 df3b 2b02 283d
00000070: 54f3 b83d 0360 4d3a a04a 18ba a302 803d
00000080: 2a33 593d f667 6a3d b357 1b3d fa3c 683d
00000090: 6d92 c23d 2235 65bd 3280 0dbc 3951 eb3c
000000a0: 3048 e237 5fa4 533d 5c2b 00bd e241 173d
000000b0: a2f7 c43c c35e 29bd 2d87 6f3d 7f0e 87bd
000000c0: 1d1b 9cbd 97c3 2a3d df0b 053d 04bb 623d
000000d0: e835 22bd 8bb3 b03d 43cf a33b 4323 1a3d
000000e0: 7a5c 9dbd fe90 a1bd 72a8 0a3c bed5 88bd
000000f0: 1f01 8e3d c6be 423c 18c5 7d3d 28e4 8d3d
00000100: b416 953d 920e aabc 1f25 3b3b c692 f2bc
00000110: 98ce acbd d226 7fbc 7ccf 68bd 8bb5 9abd
00000120: 26ad d2bc a748 5e3d 9306 44bc d5a0 eb3c
00000130: be78 ac3d 3427 963d 1f12 783d 1791 fbbc
00000140: b4be 5bbd f9c1 353d d375 823d ae67 98bd
00000150: a013 82bd 3859 46bd 4887 efbb c927 8cbd
00000160: b908 f53c 6792 95bd b2ed f93c 713c 0dbd
00000170: cbfb 9dbd 5716 97bd a398 dcbb 07d1 383d
00000180: b05a 86bd f6ee 3fbd b684 a43d 74a8 92bd
00000190: 51a8 383c be33 25bd ed60 df3c 2297 a3bb
000001a0: 237f 94bd 89c6 25bc 84ba ff3c ffa0 243b
000001b0: f3fe 44bd d334 003c de67 35bd 5ddc 2cbd
000001c0: dfa7 39bc 255b 0b3d 0c3b cd3b 04fe 903d
000001d0: ba76 aebd a656 8abc b6c0 3d3d 9496 cdbc
000001e0: d634 923d dca7 82bb fb25 ab3d c8b4 6e3d
000001f0: 79a3 4d3c 4ff2 ca3c 7aca 9bbd 549f f6bc

actor.linear2.weight f4 [128, 128]
-0.08405884 -0.005724482 -0.037157133 0.07734568 -0.07334378 -0.0746043 0.00398977 0.024285363
0.015568796 -0.08691157 -0.021677688 -0.07946081 0.06539386 0.010140686 0.05237587 -0.03316027
-0.03713888 -0.07187071 0.03285425 0.08404635 0.05526709 -0.07649176 0.04220596 0.06327752
-0.056996003 -0.08126027 -0.0068321577 0.07314206 0.072075725 -0.038956318 0.0072592744 -0.059558496
-0.05141441 -0.04930225 -0.05719552 -0.038459446 0.017714966 -0.038661703 -0.061162293 0.05155603
-0.027585052 0.055618983 0.02620738 0.05896215 0.047895715 -0.0009374774 0.085825846 0.048877545
-0.03160405 -0.041996036 -0.07737028 -0.043575585 -0.0030489266 -0.0040390315 -0.025821812 -0.028111935
0.043893766 -0.0064392337 0.034165896 0.040123247 -0.034087297 0.07472478 -0.06373262 -0.06749711
-0.0198458 -0.01533029 0.08926257 0.0022129472 0.05423793 0.04321905 -0.073699534 0.07705075
0.070049174 -0.00579301 0.02174577 -0.019132482 0.025407292 -0.029530905 0.05263938 -0.05723008
0.009577954 -0.04065574 -0.004818463 -0.06281263 -0.058937926 0.036121693 -0.060431715 -0.05126534
0.0054374724 0.01267167 -0.048597656 -0.022390962 -0.030874848 0.04761293 0.040153928 -0.00779795
0.0018452515 0.026195416 -0.07784237 -0.020438872 0.07382984 -0.076108165 -0.078852646 0.06075288
-0.05697388 -0.072765626 0.07466867 -0.006522481 -0.0880062 0.0865807 -0.00946364 0.028152002
-0.020993307 -0.04484846 0.033224385 -0.0031905007 0.015893111 -0.08644297 0.07192787 0.055677306
0.08247285 0.07598499 -0.04203102 -0.009154815 0.07032149 -0.018987074 -0.07130036 -0.01487258
0.08732156 -0.015889091 -0.06394097 0.01530775 0.054044984 0.052301023 0.01557781 0.04925517
0.015117789 0.04590678 -0.08073144 0.024385916 -0.022116786 0.032712847 -0.03741021 0.03550177
-0.068029836 -0.092451505 0.028362503 -0.025532454 -0.062525444 0.0445395 0.07358321 0.018054765
-0.08040991 -0.024697231 0.07142884 0.05287175 0.039897177 0.020379871 0.06877148 0.07766607
-0.08076883 -0.08903456 -0.024415059 -0.0043376493 -0.05079648 0.0028397073 0.071733676 -0.011898151
-0.013485916 0.008605267 0.049212586 -0.0715033 0.008103055 -0.039835643 0.083101384 -0.06522329
-0.024784762 0.066063814 0.064105764 0.04524767 0.060846526 0.0056931404 -0.038469374 -0.06783846
0.0003750857 -0.05664092 -0.027821416 0.0854592 -0.01579328 0.05567636 0.058792166 -0.0030147247
0.040370237 0.04728549 0.0532997 -0.008324036 -0.004025427 -0.063839614 0.067330845 0.0606525
0.047507677 0.06532178 -0.06710728 -0.06474199 0.081067495 0.012576364 0.03726825 0.0039754547
0.04991365 -0.015724797 -0.002885746 0.07872766 -0.027690152 0.0705098 0.047078982 0.0080654165
-0.010552552 0.06103594 -0.007463858 -0.02822369 0.08844297 0.0918605 0.07771989 -0.06589927
-0.011457471 0.032318823 -0.01332959 0.028778303 -0.035305683 -0.061693523 0.0594695 0.070471756
0.07327097 -0.06905633 -0.03962349 -0.005998471 0.028390197 -0.0022457757 0.03025594 0.04114409
-0.08110272 0.051678535 -0.018133115 -0.07522041 0.08047053 0.082721606 -0.08707861 0.01234697
-0.07558183 0.049945936 0.055037323 -0.060161762 0.024772234 -0.009654606 0.0879908 0.031233985
00000000: 0b27 acbd 6f94 bbbb 1432 18bd 6967 9e3d
00000010: 4435 96bd 24ca 98bd 9ebc 823b 19f2 c63c
00000020: 4314 7f3c b1fe b1bd 6895 b1bc 59bc a2bd
00000030: 37ed 853d 1f25 263c 1588 563d 10d3 07bd
00000040: f01e 18bd f330 93bd 2e92 063d 7e20 ac3d
00000050: bf5f 623d b6a7 9cbd 28e0 2c3d a597 813d
00000060: a474 69bd c96b a6bd 4be0 dfbb 81cb 953d
00000070: 709c 933d a990 1fbd 35df ed3b 9cf3 73bd
00000080: eb97 52bd 28f1 49bd d945 6abd a787 1dbd
00000090: fa1e 913c bc5b 1ebd 5085 7abd 6a2c 533d
000000a0: 0cfa e1bc bbd0 633d dcb0 d63c 4c82 713d
000000b0: 4c2e 443d 0bc1 75ba 76c5 af3d d233 483d
000000c0: 4073 01bd 0904 2cbd 4f74 9ebd 507c 32bd
000000d0: 80d0 47bb da59 84bb 4488 d3bc 004b e6bc
000000e0: f3c9 333d 3500 d3bb 8af1 0b3d 4658 243d
000000f0: 1f9f 0bbd 4e09 993d 3f86 82bd ed3b 8abd
00000100: a993 a2bc e62b 7bbc 4bcf b63d 1807 113b
00000110: 9728 5e3d 7506 313d c8ef 96bd c9cc 9d3d
00000120: f175 8f3d 4ad3 bdbb 2f24 b23c b9bb 9cbc
00000130: f422 d03c ccea f1bc 649c 573d 176a 6abd
00000140: daec 1c3c a286 26bd 33e4 9dbb e8a3 80bd
00000150: e568 71bd 57f4 133d 3f87 77bd 9bfb 51bd
00000160: d32c b23b d69c 4f3c 560e 47bd 406d b7bc
00000170: 40ed fcbc c705 433d 7278 243d f285 ffbb
00000180: 5edc f13a c597 d63c d26b 9fbd 6c6f a7bc
00000190: 1934 973d 99de 9bbd 7f7d a1bd 03d8 783d
000001a0: 715d 69bd 2506 95bd e3eb 983d 89ba d5bb
000001b0: 983c b4bd 3951 b13d 620d 1bbc 079f e63c
000001c0: 28fa abbc 05b3 37bd 4b16 083d b817 51bb
000001d0: 4532 823c 0309 b1bd eb4e 933d e30d 643d
000001e0: 87e7 a83d 059e 9b3d b828 2cbd 14fe 15bc
000001f0: b704 903d c88a 9bbc ec05 92bd 1fac 73bc
00000200: a5d5 b23d d729 82bc 7cf3 82bd 5bcd 7a3c
00000210: 465e 5d3d 9939 563d 123a 7f3c cabf 493d
00000220: 9ab0 773c bf08 3c3d 8656 a5bd f9c4 c73c
00000230: 432e b5bc e8fd 053d 733b 19bd 4e6a 113d
00000240: 3a53 8bbd 3757 bdbd 7b58 e83c 7029 d1bc
00000250: 570d 80bd 0d6f 363d cbb2 963d 96e7 933c
00000260: f3ad a4bd d951 cabc 4949 923d 0c90 583d
00000270: 396b 233d b0f3 a63c 10d8 8c3d 630f 9f3d
00000280: 216a a5bd c057 b6bd 1702 c8bc d722 8ebb
00000290: f80f 50bd 621a 3a3b 1be9 923d 76f0 42bc
000002a0: 08f4 5cbc 1bfd 0c3c 2393 493d 5270 92bd
000002b0: adc2 043c b32a 23bd 0f31 aa3d ca93 85bd
000002c0: 6a09 cbbc 774c 873d e249 833d 9f55 393d
000002d0: 353a 793d 868d ba3b 1092 1dbd e4ee 8abd
000002e0: 27a7 c439 4f00 68bd bde9 e3bc 3c05 af3d
000002f0: e960 81bc e50c 643d 0ed0 703d b092 45bb
00000300: 435b 253d 6eae 413d c950 5a3d 8a61 08bc
00000310: bbe7 83bb 58be 82bd c1e4 893d c16e 783d
00000320: 6997 423d 6dc7 853d 8b6f 89bd 7397 84bd
00000330: b706 a63d 180d 4e3c 98a6 183d 8844 823b
00000340: 4172 4c3d 4ad1 80bc c91e 3dbb f83b a13d
00000350: 75d6 e2bc 7167 903d e4d5 403d cf24 043c
00000360: 9ce4 2cbc d200 7a3d 6193 f4bb 5e35 e7bc
00000370: 9621 b53d 5c21 bc3d 9b2b 9f3d 32f6 86bd
00000380: 1eb8 3bbc be60 043d 5a64 5abc 7ac0 eb3c
00000390: b19c 10bd 59b2 7cbd 4a96 733d 7f53 903d
000003a0: 170f 963d 686d 8dbd 3e4c 22bd d28e c4bb
000003b0: 8f92 e83c dd2d 13bb 4edb f73c b586 283d
000003c0: 2f19 a6bd dfac 533d e68b 94bc 290d 9abd
000003d0: bccd a43d f269 a93d 4556 b2bd f24a 4a3c
000003e0: a6ca 9abd 1c94 4c3d d16e 613d 2e6c 76bd
000003f0: 24ef ca3c 5a2e 1ebc 8534 b43d 6ade ff3c

actor.linear2.bias f4 [128]
0.04784076 -0.04350824 -0.04763027 -0.04400823 0.0018679298 0.00094605563 0.034394465 0.021783665
-0.07948409 -0.010709101 -0.060932253 -0.06704886 -0.0822252 0.035480306 0.04087995 0.081760496
-0.060897607 -0.019785132 -0.07631124 0.045034662 0.07740104 0.015275367 -0.07801784 -0.008786222
0.048771776 -0.056339003 -0.034190547 0.06486202 -0.06386797 -0.06359421 0.043249153 0.037380587
0.0261005 0.048039414 -0.07124722 0.010371091 0.04268767 -0.037019327 0.08153772 0.045794643
-0.036400497 0.010450732 -0.010651278 -0.00540549 -0.064516775 0.0025917846 -0.028895045 0.054801688
0.07166583 -0.06346298 0.05089428 0.030117126 0.08336152 -0.034072403 -0.050798435 -0.027773043
0.0889539 0.006691524 -0.07138077 0.015599225 -0.009391985 -0.06086989 -0.01653721 0.07806594
-0.06931644 0.0651021 0.048608568 0.08079373 -0.05570276 0.02291299 0.022118371 -0.007075838
-0.04641078 0.0199629 -0.0108261 0.03220487 -0.00269145 -0.02172287 -0.08306485 -0.0119057875
0.06786386 -0.0031535882 0.071275264 0.011745195 -0.047597528 -0.0034240582 0.013492689 0.036586724
-0.034261532 0.07214819 -0.037836783 0.04957244 -0.025040645 -0.027802603 0.088351 -0.022934953
0.04242976 0.05149525 -0.025034407 -0.054632366 -0.055222694 0.079177104 0.026622547 0.07545717
0.049548205 -0.041120358 0.027267426 0.065986685 0.06892878 0.0017186004 0.06388612 0.0585219
0.07990496 -0.058876384 0.08872866 -0.055568963 -0.04934951 0.0031922143 -0.03893272 -0.0025961646
-0.07441392 -0.04989981 -0.0569059 0.027510611 -0.0391404 -0.035926692 0.058739565 0.060727827
00000000: acf4 433d b235 32bd f517 43bd f941 34bd
00000010: 53d5 f43a b800 783a 36e1 0c3d a873 b23c
00000020: 8ec8 a2bd 3a75 2fbc 1994 79bd ea50 89bd
00000030: b065 a8bd cc53 113d bc71 273d 0c72 a73d
00000040: c56f 79bd 6e14 a2bc 1149 9cbd 4476 383d
00000050: 7084 9e3d 8845 7a3c d1c7 9fbd 16f4 0fbc
00000060: eac4 473d bac3 66bd 630b 0cbd 61d6 843d
00000070: 36cd 82bd ae3d 82bd 0626 313d 631c 193d
00000080: b7d0 d53c fac4 443d 10ea 91bd 82eb 293c
00000090: 44d9 2e3d 94a1 17bd 40fd a63d 2a93 3b3d
000000a0: b018 15bd 8c39 2b3c b382 2ebc 8920 b1bb
000000b0: 5f21 84bd eeda 293b 4db5 ecbc bc77 603d
000000c0: 89c5 923d e1f8 81bd 8576 503d 31b8 f63c
000000d0: 72b9 aa3d 818f 0bbd 0512 50bd 4b84 e3bc
000000e0: 762d b63d 9244 db3b 1530 92bd e493 7f3c
000000f0: d7e0 19bc b552 79bd 0b79 87bc 09e1 9f3d
00000100: c7f5 8dbd 4054 853d c719 473d 2f77 a53d
00000110: 9428 64bd 06b4 bb3c 9631 b53c 6edc e7bb
00000120: 3b19 3ebd 3c89 a33c f45f 31bc 41e9 033d
00000130: 0a63 30bb 29f4 b1bc e71d aabd 7e10 43bc
00000140: 35fc 8a3d 6eac 4ebb c4f8 913d eb6e 403c
00000150: a0f5 42bd 2a66 60bb 7010 5d3c f6db 153d
00000160: d255 0cbd 6ec2 933d befa 1abd 790c 4b3d
00000170: 0a22 cdbc 49c2 e3bc 5ef1 b43d 15e2 bbbc
00000180: d4ca 2d3d afec 523d f514 cdbc 30c6 5fbd
00000190: 3131 62bd 9b27 a23d 8717 da3c 4a89 9a3d
000001a0: 0ff3 4a3d d26d 28bd f05f df3c 0724 873d
000001b0: 882a 8d3d a942 e13a bad6 823d a9b4 6f3d
000001c0: 36a5 a33d 5d28 71bd 5fb7 b53d 489c 63bd
000001d0: b622 4abd 7834 513b ea77 1fbd 6a24 2abb
000001e0: 5366 98bd be63 4cbd 2916 69bd ef5d e13c
000001f0: af51 20bd de27 13bd e698 703d bebd 783d

actor.linear3.weight f4 [128, 128]
-0.086323395 -0.0686168 -0.02426423 -0.04309503 0.011689616 0.055537127 -0.06495963 0.07865387
-0.08453714 0.058656916 0.036770616 -0.05886662 -0.006689711 -0.057945006 -0.08635624 -0.06623436
-0.028656662 0.050049823 0.03103487 -0.013629313 -0.08427699 0.054690793 0.079723895 -0.0016120044
0.03234276 -0.034156524 0.025183361 -0.08331746 0.068990156 0.00030573958 0.018040609 -0.07913162
0.0031246066 -0.011730225 0.0023723862 0.006656274 0.08104763 -0.03500523 0.057186168 -0.03808226
0.017579542 0.07012297 0.037318785 0.0039644483 0.04843991 0.08701829 0.037739657 0.05880186
-0.053687915 0.03913986 0.085145764 -0.058849026 0.08280631 0.036893364 0.043592747 0.009517034
-0.0787194 0.08332499 -0.06683047 -0.051082447 -0.040882215 0.057665367 0.037749134 0.052312028
-0.08380005 0.0650631 0.0083698025 -0.032966264 -0.051885523 0.007984746 0.009751947 -0.028089445
-0.050854854 0.017889364 -0.042011745 -0.046750378 0.04392333 0.07767967 0.08118132 -0.032673284
-0.067897126 0.05214801 0.048794966 -0.0002788045 -0.07929771 -0.013457476 0.015863389 0.0522781
-0.055022806 0.02884973 -0.00587629 0.07281978 -0.059681144 -0.060301047 0.049830522 -0.002219796
0.05901518 0.07364383 0.07754676 -0.025300095 -0.04475212 -0.06264365 0.049437393 0.04095434
-0.04774782 0.011340278 -0.0537046 -0.082262166 0.033005487 0.00980598 -0.022341361 0.08645324
-0.035480108 0.0739103 0.031733718 -0.086379156 -0.0040722904 0.014106417 -0.04713076 0.064977735
0.08439302 0.06499893 0.07903963 0.055815015 -0.041709904 -0.0059955167 -0.044684418 0.03863516
0.03685887 0.010104797 -0.019836573 -0.049302097 -0.07627354 0.0724491 0.05108833 -0.009442616
0.03041962 -0.024607016 0.087013096 0.05949658 -0.07882505 0.09043822 0.071160845 -0.0037285155
-0.04937038 -0.002152973 0.04955957 -0.07165725 -0.007780923 -0.08944608 0.021038009 -0.05496196
0.03886653 0.05138739 0.06270443 -0.024227805 0.088358715 0.046258688 -0.029432595 0.08475181
0.044147372 0.052632723 -0.03229807 0.04875613 0.01579879 -0.06328983 0.054728672 -0.07708258
-0.05744882 0.060592715 -0.05877604 0.06709025 -0.030863307 0.034896847 -0.021638002 0.01914568
0.036656987 -0.061219707 0.018851085 0.04501419 -0.0683607 0.0051808953 0.014714278 -0.04437485
0.05085605 0.085755244 0.012619206 0.019439215 0.057955917 0.02088868 0.01776986 -0.08159608
0.03221863 -0.08304405 -0.06745866 -0.08108073 -0.03940047 -0.038144343 -0.029173106 -0.066175625
0.012624671 0.059621472 0.0016997389 0.003102889 -0.0443043 0.030009262 0.02577614 -0.074492835
-0.02241556 0.019807806 -0.008241416 0.02151605 0.023557754 -0.018003775 -0.01547309 0.039083622
-0.07108462 0.021884006 0.06990139 0.016819833 0.036872756 -0.0033871997 -0.01378079 -0.028050918
-0.04545483 0.08417091 -0.01884665 0.06792721 0.014082324 -0.03555867 0.028501721 -0.04960653
0.08047241 0.052536987 0.056250695 0.01511135 0.04499383 -0.08195526 0.034368552 0.089300275
-0.077608585 0.05823926 0.0120676765 -0.011505311 0.056918252 0.031927332 -0.090538576 -0.082000315
-0.06716571 -0.009872653 -0.07400956 -0.0831769 -0.018544111 -0.010941892 0.019143386 -0.06362136
00000000: 52ca b0bd f786 8cbd c7c5 c6bc 6a84 30bd
00000010: ce85 3f3c e67a 633d 8e09 85bd 4815 a13d
00000020: cf21 adbd 3c42 703d c99c 163d 201e 71bd
00000030: 5d35 dbbb be57 6dbd 8adb b0bd e1a5 87bd
00000040: 60c1 eabc 0b01 4d3d d73c fe3c 7b4d 5fbc
00000050: 6a99 acbd 7403 603d 4846 a33d e449 d3ba
00000060: d879 043d b6e7 0bbd 564d ce3c 58a2 aabd
00000070: b64a 8d3d ac4b a039 e6c9 933c c20f a2bd
00000080: 33c6 4c3b 2130 40bc 097a 1b3b e01c da3b
00000090: 4dfc a53d a561 0fbd 0b3c 6a3d 25fc 1bbd
000000a0: f902 903c a29c 8f3d 95db 183d 34e8 813b
000000b0: ed68 463d a536 b23d e694 1a3d 38da 703d
000000c0: dce7 5bbd 1e51 203d e760 ae3d ad0b 71bd
000000d0: 5b96 a93d 7f1d 173d 4f8e 323d 55ed 1b3c
000000e0: a337 a1bd 4ba6 aa3d 6ade 88bd d43b 51bd
000000f0: 1c74 27bd 8532 6c3d d69e 1a3d 2345 563d
00000100: 5c9f abbd cd3f 853d 7f21 093c a207 07bd
00000110: ea85 54bd 74d2 023c a1c6 1f3c d61b e6bc
00000120: 2e4d 50bd b78c 923c 8214 2cbd 537d 3fbd
00000130: f3e8 333d 8516 9f3d 6442 a63d 6cd4 05bd
00000140: a60d 8bbd 2799 553d 3bdd 473d 822c 92b9
00000150: d666 a2bd bf7c 5cbc f0f3 813c 9021 563d
00000160: 985f 61bd 4556 ec3c e58d c0bb 8922 953d
00000170: 3774 74bd 3bfe 76bd 171b 4c3d ff79 11bb
00000180: e7b9 713d 94d2 963d d6d0 9e3d 2542 cfbc
00000190: 004e 37bd 504b 80bd dd7e 4a3d bdbf 273d
000001a0: 3893 43bd 93cc 393c 5bf9 5bbd 1179 a8bd
000001b0: c330 073d 43a9 203c 3b05 b7bc 650e b13d
000001c0: 9753 11bd 495e 973d 37fb 013d 8ee7 b0bd
000001d0: d970 85bb 9a1e 673c 2f0c 41bd 0c13 853d
000001e0: 3fd6 ac3d 291e 853d 88df a13d 499e 643d
000001f0: 01d8 2abd 0a76 c4bb 0207 37bd e73f 1e3d
00000200: 54f9 163d 978e 253c 4f80 a2bc fff0 49bd
00000210: 4d35 9cbd 3260 943d ff41 513d 34b5 1abc
00000220: 9132 f93c a794 c9bc ec33 b23d b0b2 733d
00000230: 076f a1bd ac37 b93d c7bc 913d 1c5a 74bb
00000240: 9838 4abd e518 0dbb fafe 4a3d 09c1 92bd
00000250: 1df7 febb 822f b7bd e757 ac3c cb1f 61bd
00000260: 8332 1f3d 957b 523d 2e6b 803d 6479 c6bc
00000270: 6af5 b43d c079 3d3d a01c f1bc 5b92 ad3d
00000280: e0d3 343d 6995 573d fb4a 04bd 82b4 473d
00000290: 776c 813c 199e 81bd 2c2b 603d 79dd 9dbd
000002a0: 744f 6bbd 1130 783d 25bf 70bd 9d66 893d
000002b0: 0cd5 fcbc ffef 0e3d 2e42 b1bc 67d7 9c3c
000002c0: a325 163d 84c1 7abd 976d 9a3c cd60 383d
000002d0: b200 8cbd 80c4 a93b 2814 713c 67c2 35bd
000002e0: 6f4e 503d 72a0 af3d c9c0 4e3c fd3e 9f3c
000002f0: 2f63 6d3d bd1e ab3c 1992 913c d81b a7bd
00000300: aff7 033d 0013 aabd c427 8abd a70d a6bd
00000310: 6362 21bd 3e3d 1cbd 70fc eebc 1687 87bd
00000320: b5d7 4e3c a535 743d c6c9 de3a d759 4b3b
00000330: 6d78 35bd fcd5 f53c 7c28 d33c b38f 98bd
00000340: d6a0 b7bc fb43 a23c 0107 07bc 6d42 b03c
00000350: 31fc c03c a77c 93bc d882 7dbc 2616 203d
00000360: d094 91bd 1646 b33c 7628 8f3d bfc9 893c
00000370: e307 173d c8fb 5dbb d3c8 61bc 0acb e5bc
00000380: d82e 3abd cc61 ac3d 4a64 9abc 6c1d 8b3d
00000390: 8cb9 663c f8a5 11bd 717c e93c 3830 4bbd
000003a0: b8ce a43d 0631 573d 2167 663d 9995 773c
000003b0: 734b 383d 29d8 a7bd 0ac6 0c3d 10e3 b63d
000003c0: 40f1 9ebd 4a8c 6e3d 81b7 453c c680 3cbc
000003d0: 1d23 693d 3cc6 023d 4a6c b9bd c8ef a7bd
000003e0: 2d8e 89bd e8c0 21bc 5392 97bd a758 aabd
000003f0: d2e9 97bc 9f45 33bc 97d2 9c3c ea4b 82bd

actor.linear3.bias f4 [128]
-0.02373829 0.08425741 -0.04948291 -0.08791718 -0.06374213 0.04982855 0.022665333 -0.049990207
-0.010794776 0.076293394 -0.064678624 0.07612464 0.06302823 0.06333647 0.052612595 -0.0567037
0.016378244 0.08145976 0.06070636 0.02338299 0.011788826 -0.0024635757 -0.027586162 -0.029474296
-0.04975343 0.0833362 -0.046836197 0.029869743 -0.0598426 0.036592357 0.0018835355 0.005453027
0.06754188 -0.040488705 0.04566915 -0.09123523 -0.007606272 -0.08271205 0.024755446 -0.07986663
-0.07073374 0.059254378 0.028521977 0.05090052 -0.06745453 -0.0044059004 0.0065394603 0.086278275
-0.0108423475 0.019618016 0.067701824 0.02062287 -0.019872831 -0.08741313 -0.07784334 0.051306546
0.025323516 -0.029542008 0.0042223837 0.030008899 0.004929557 -0.011857319 0.05198302 0.015721371
-0.03604676 -0.022992145 0.06269761 -0.07676368 -0.069943175 0.07973962 0.05942361 -0.073324196
0.0450722 -0.07581741 -0.0051957048 0.020785395 -0.009325052 -0.017485768 -0.07410545 0.08927414
0.079371154 -0.08212566 0.00231195 0.026147014 0.0044762357 -0.014080994 0.0025972868 -0.06361571
-0.072811864 -0.023983145 -0.013603637 0.061538924 0.0025615846 0.045492675 0.020336576 0.023084432
-0.0118324915 0.0849063 0.035945516 -0.05003126 0.0074553858 -0.027329108 0.040985864 0.07040785
0.07997859 0.03147467 -0.050059687 -0.030694082 0.08780023 -0.008374761 0.08523344 -0.07538255
0.037672546 0.022317609 -0.07218435 -0.056609962 -0.05550077 -0.059202828 0.059214238 0.075784266
0.049090404 0.07984111 0.06240324 -0.023451297 0.024929522 0.0017925213 0.08620531 -0.073191926
00000000: cd76 c2bc 268f ac3d 98ae 4abd ec0d b4bd
00000010: 3c8b 82bd 0619 4c3d a6ac b93c 88c2 4cbd
00000020: 92dc 30bc b63f 9c3d 3a76 84bd 3ce7 9b3d
00000030: f214 813d 8db6 813d 4e80 573d 2442 68bd
00000040: ab2b 863c 60d4 a63d 3ba7 783d af8d bf3c
00000050: ec25 413c f173 21bb 60fc e1bc 1474 f1bc
00000060: 41ca 4bbd 2bac aa3d 50d7 3fbd 64b1 f43c
00000070: 841d 75bd dee1 153d f7e0 f63a 4eaf b23b
00000080: 6653 8a3d 7cd7 25bd 930f 3b3d 89d9 babd
00000090: 093e f9bb ef64 a9bd efcb ca3c 1e91 a3bd
000000a0: dadc 90bd b8b4 723d eca6 e93c 107d 503d
000000b0: 9a25 8abd 5f5f 90bb f848 d63b aab2 b03d
000000c0: 1aa4 31bc f6b5 a03c 41a7 8a3d 4bf1 a83c
000000d0: 59cc a2bc a805 b3bd 546c 9fbd d026 523d
000000e0: 4373 cf3c 1502 f2bc ec5b 8a3b 39d5 f53c
000000f0: 1f88 a13b 3345 42bc 26ec 543d 1bca 803c
00000100: c4a5 13bd 065a bcbc 9b67 803d 4736 9dbd
00000110: 5e3e 8fbd 874e a33d 2c66 733d ff2a 96bd
00000120: a19d 383d 2946 9bbd bb40 aabb 2246 aa3c
00000130: 1ac8 18bc 503e 8fbc 99c4 97bd 5cd5 b63d
00000140: 588d a23d 7f31 a8bd 1684 173b 4332 d63c
00000150: 63ad 923b f8b3 66bc 3e37 2a3b f448 82bd
00000160: 631e 95bd 4d78 c4bc cae1 5ebc 3d10 7c3d
00000170: 42e0 273b 8756 3a3d e498 a63c 901b bd3c
00000180: 11dd 41bc 5be3 ad3d 9b3b 133d 94ed 4cbd
00000190: 4f4c f43b 4be1 dfbc cbe0 273d fe31 903d
000001a0: d1cb a33d 95eb 003d 630b 4dbd 2872 fbbc
000001b0: 9bd0 b33d 4b36 09bc df8e ae3d 2b62 9abd
000001c0: 874e 1a3d 6bd3 b63c 63d5 93bd d9df 67bd
000001d0: c754 63bd aa7e 72bd a18a 723d c834 9b3d
000001e0: 0513 493d bc83 a33d 8a9a 7f3d ef1c c0bc
000001f0: ff38 cc3c 09f3 ea3a 698c b03d a6e5 95bd

actor.linear4.weight f4 [9, 128]
0.04048937 0.025233017 -0.010412797 -0.08675868 -0.05304894 -0.024268443 0.03554086 -0.065187745
0.056145784 -0.02276406 -0.011281501 0.052389823 -0.008199467 -0.034975328 0.06970986 0.050784286
0.044830505 0.019344741 0.056885242 0.07156213 -0.06434509 -0.058624867 -0.076520614 -0.024822447
-0.07426691 0.0033627374 0.020756368 -0.009501466 -0.076573744 0.08830188 -0.054267246 0.02481691
-0.03878932 -0.06332097 -0.0029803563 -0.057919808 0.024980452 -0.022577124 0.072608694 -0.054310903
-0.040292744 -0.04531657 -0.053313084 -0.047790844 0.06727757 0.047552884 -0.04624554 -0.029594004
0.04718105 0.07580207 -0.013509149 -0.05781315 -0.06598193 -0.07481706 0.0423697 -0.077976175
-0.031518124 0.056504793 0.08542657 0.00067487254 -0.06106392 -0.06535678 -0.034289945 0.056674723
-0.050822742 0.07755168 0.018910721 0.069939435 -0.019219132 0.08347579 0.043218184 -0.042269476
0.032304894 -0.04154027 -0.01595086 0.07733514 0.0777047 0.022789285 0.07814792 0.08597521
0.044380605 0.037126064 0.01717259 0.011290156 0.04210973 0.019658351 0.011671335 0.07623439
0.01498397 0.06929647 0.04977641 -0.050467245 0.03848208 -0.013028877 -0.08139952 0.05658957
0.0041643884 -0.022048552 0.085407056 0.043801166 -0.091264494 -0.04581216 0.06327273 0.0018312339
-0.061155554 0.07187427 -0.07524085 -0.060462154 -0.032402657 -0.013268598 0.09289121 0.043012857
-0.047190893 -0.00083735987 -0.056292705 0.07066971 0.068578385 0.077244416 -0.046251267 -0.037080087
0.04160879 0.019493898 -0.022605974 -0.0666297 0.007016089 -0.05626606 -0.06293399 -0.06337622
0.06810935 0.057329193 0.07591966 0.052079353 -0.06661625 0.08092304 0.06811789 0.024043104
-0.0035676553 0.0028747222 0.000773543 0.053756762 0.03500431 -0.015911415 -0.009454563 0.04141783
-0.029705413 0.02541744 0.020824125 0.07111842 -0.062470403 -0.063337505 0.022079378 -0.020415828
0.04914009 0.02807853 0.05875922 0.028519148 -0.06615852 -0.010309922 -0.03413384 0.07339951
-0.010409047 -0.06201661 -0.08516933 0.07789811 -0.06197056 0.019071605 0.009708809 0.080581576
-0.008176499 -0.072701186 0.020821726 -0.07923269 -0.015495825 -0.063712284 0.0046995766 0.029036291
-0.055735126 -0.08874327 -0.02676186 0.00991005 0.039468817 0.051939663 0.07653737 0.018903231
-0.009336668 0.013871934 0.013332969 0.047911104 0.034115672 0.050657816 0.030433979 -0.05576793
-0.013474287 0.06576592 -0.07158639 -0.079840146 -0.059132565 0.013407917 0.089603364 0.052790664
0.0036211882 -0.01480841 -0.024949014 0.054855857 -0.06665987 0.047898572 0.048862133 0.06865197
0.042450774 0.06653522 0.028629802 -0.080697715 -0.051978875 0.07447201 -0.071203254 -0.08700356
0.03893946 -0.00992609 0.0071320715 -0.085615225 0.04445406 -0.070193805 0.066817775 0.077970415
-0.08269934 -0.042146947 -0.06418877 0.006267334 0.00021761828 0.048221268 -0.07217003 -0.011823132
-0.008188189 -0.02243007 0.027642123 0.036351573 0.035080247 -0.011656172 0.01809643 -0.08372622
0.0014995777 0.047803566 0.08622459 0.030876415 0.08482461 0.041675434 -0.035011247 0.011473796
0.05549346 -0.08845452 0.05051824 -0.06877625 0.029963225 -0.07103508 0.08917952 0.0021952859
00000000: 2ed8 253d 79b5 ce3c 709a 2abc 89ae b1bd
00000010: d849 59bd 9dce c6bc 4b93 113d 2781 85bd
00000020: 1ff9 653d b27b babc 0bd6 38bc b696 563d
00000030: 0f57 06bc 4a42 0fbd 0bc4 8e3d 2f03 503d
00000040: 31a0 373d dd78 9e3c 8000 693d 2a8f 923d
00000050: 5cc7 83bd a120 70bd d7b6 9cbd 7258 cbbc
00000060: 4019 98bd 5f61 5c3b 4209 aa3c 09ac 1bbc
00000070: b2d2 9cbd 9ed7 b43d 5547 5ebd d54c cb3c
00000080: 8de1 1ebd 6dae 81bd 1552 43bb 523d 6dbd
00000090: cea3 cc3c a9f3 b8bc deb3 943d 1c75 5ebd
000000a0: 010a 25bd de9d 39bd d25e 5abd 55c0 43bd
000000b0: d3c8 893d d0c6 423d f76b 3dbd 206f f2bc
000000c0: eb40 413d 1e3e 9b3d 7a55 5dbc 7bcd 6cbd
000000d0: 8921 87bd b039 99bd da8b 2d3d f9b1 9fbd
000000e0: 2619 01bd 9271 673d 20f4 ae3d eee9 303a
000000f0: 291e 7abd c7d9 85bd 9d73 0cbd c123 683d
00000100: 822b 50bd 6ad3 9e3d a8ea 9a3c 683c 8f3d
00000110: 7171 9dbc 5bf5 aa3d 8d05 313d c222 2dbd
00000120: 2352 043d 2126 2abd 61ab 82bc e361 9e3d
00000130: a423 9f3d 98b0 ba3c 040c a03d c513 b03d
00000140: 70c8 353d 8011 183d 88ad 8c3c 59fa 383c
00000150: 417b 2c3d 8d0a a13c 2139 3f3c c720 9c3d
00000160: 537f 753c 4feb 8d3d 59e2 4b3d beb6 4ebd
00000170: 639f 1d3d 1277 55bc cbb4 a6bd 77ca 673d
00000180: 6c75 883b 2a9f b4bc e5e9 ae3d da68 333d
00000190: e1e8 babd 88a5 3bbd 2295 813d 0306 f03a
000001a0: 3f7e 7abd d132 933d e017 9abd 2aa7 77bd
000001b0: a6b8 04bd 8964 59bc bf3d be3d 402e 303d
000001c0: 3d4b 41bd 4582 5bba 2e93 66bd 48bb 903d
000001d0: d372 8c3d 5232 9e3d f871 3dbd 4ae1 17bd
000001e0: fb6d 2a3d abb1 9f3c 2a30 b9bc 2775 88bd
000001f0: 38e7 e53b 3d77 66bd 89e3 80bd 64cb 81bd
00000200: ea7c 8b3d 04d2 6a3d c47b 9b3d 2951 553d
00000210: 1a6e 88bd fbba a53d 6481 8b3d 0bf6 c43c
00000220: 53cf 69bb d665 3c3b 98c7 4a3a 0d30 5c3d
00000230: ae60 0f3d a858 82bc 50e7 1abc bea5 293d
00000240: c458 f3bc 3c38 d03c 5b97 aa3c 89a6 913d
00000250: f7e0 7fbd 18b7 81bd d0df b43c 183f a7bc
00000260: 1e47 493d f204 e63c 82ad 703d fda0 e93c
00000270: 1e7e 87bd f2ea 28bc edcf 0bbd 7b52 963d
00000280: b58a 2abc 2105 7ebd 426d aebd 0b89 9f3d
00000290: d8d4 7dbd 0e3c 9c3c b211 1f3c f407 a53d
000002a0: b9f6 05bc 5ce4 94bd 5392 aa3c c044 a2bd
000002b0: 33e2 7dbc 967b 82bd e8fe 993b 84dd ed3c
000002c0: 844a 64bd 08bf b5bd b03b dbbc c35d 223c
000002d0: 0eaa 213d afbe 543d a0bf 9c3d f3da 9a3c
000002e0: d3f8 18bc 1c47 633c 8672 5a3c 6f3e 443d
000002f0: e0bc 0b3d 927e 4f3d ae50 f93c ea6c 64bd
00000300: 42c3 5cbc 48b0 863d e39b 92bd 3b83 a3bd
00000310: fd34 72bd e1ac 5b3c f881 b73d 063b 583d
00000320: 7551 6d3b f99e 72bc e061 ccbc 89b0 603d
00000330: f884 88bd 4b31 443d a923 483d 6799 8c3d
00000340: dde0 2d3d 9e43 883d 0c89 ea3c d844 a5bd
00000350: cde7 54bd c884 983d 03d3 91bd ec2e b2bd
00000360: fc7e 1f3d 0aa1 22bc 27b4 e93b 0957 afbd
00000370: 7615 363d c5c1 8fbd c2d7 883d f4ae 9f3d
00000380: 465e a9bd 47a2 2cbd 6775 83bd 355e cd3b
00000390: 7630 6439 aa83 453d e1cd 93bd cfb5 41bc
000003a0: c127 06bc 44bf b7bc bc71 e23c 63e5 143d
000003b0: 4eb0 0f3d 87f9 3ebc f73e 943c a778 abbd
000003c0: 7a8d c43a accd 433d 8596 b03d 89f0 fc3c
000003d0: 86b8 ad3d dcb3 2a3d f467 0fbd 97fc 3b3c
000003e0: 1c4d 633d a527 b5bd 37ec 4e3d 90da 8cbd
000003f0: 7075 f53c d77a 91bd c1a3 b63d c9de 0f3b

actor.linear4.bias f4 [9]
0.062533945 -0.07749447 0.022405624 0.08518921 0.0062399316 -0.04399715 0.057604074 0.060548544
0.07175106
00000000: cc11 803d 6cb5 9ebd 008c b73c ae77 ae3d
00000010: 5778 cc3b 5b36 34bd 40f2 6b3d c001 783d
00000020: 38f2 923d

critic.linear1.weight f4 [128, 120]
0.07615837 0.12582073 0.0859966 0.0061558913 -0.03435522 0.06949579 0.02542433 0.03620417
0.00027460762 0.11401541 0.06822923 -0.0734832 0.052874118 -0.022768695 -0.06819273 -0.020494642
0.061051633 -0.0950699 -0.008502568 0.057102196 0.025878513 0.005197073 0.040165197 -0.043962453
0.03138179 -0.05233938 0.018909762 0.021243788 -0.03582881 0.045186616 0.07888696 -0.034457084
-0.05622437 0.0402719 0.089571126 0.015416274 0.07652144 0.08146055 -0.09131059 -0.019526457
-0.008674227 0.07815466 -0.08336451 0.108294606 -0.030326946 -0.064391464 -0.064470306 -0.04058124
0.080671676 0.09018707 0.045506824 0.089242876 0.002048193 0.00011967007 0.082469575 0.10279457
-0.08548164 -0.011501331 -0.085738845 0.05881455 -0.07082967 0.0124507835 0.0019051635 -0.08998884
-0.019322753 -0.11958218 0.0874457 -0.024636619 0.09426185 -0.039868295 0.021522041 -0.03544054
-0.075091496 -0.11244195 0.027414873 -0.058191434 -0.030126292 0.08754472 0.019936927 -0.027471295
-0.09796109 -0.09450171 -0.07200712 -0.034811627 0.08242384 -0.013711711 -0.051504474 0.03296843
-0.017456904 -0.075624086 -0.094251454 0.06062212 0.037590668 -0.0035858818 0.034256086 0.060183384
0.041779254 0.046568207 -0.012429946 -0.011106213 -0.052686628 0.07439485 -0.0655723 -0.0059358855
-0.012687938 0.07610171 -0.07846785 0.057974882 -0.10093104 0.087803446 0.11068178 -0.016867654
0.088091925 -0.112592004 0.10400295 0.010499351 -0.0047622165 -0.07468421 0.11356464 0.098150074
-0.037712257 -0.10478883 0.034934007 0.082255326 -0.009809214 -0.07718361 -0.07149964 0.035190552
-0.0053054127 -0.045416113 -0.038679652 0.07640596 -0.0065407995 -0.083366886 0.08743044 0.052725423
0.038194563 -0.01414171 -0.08537153 -0.056180973 -0.06578255 0.009220178 0.08882654 -0.04910389
0.058495075 -0.010306184 0.0329275 0.019227836 0.04878524 0.009867972 0.060627416 -0.049880262
-0.06752537 -0.069921084 -0.028699646 0.051737666 -0.036122527 -0.08579243 0.07255348 0.019409684
-0.009910493 0.013401336 0.042727824 0.016211873 -0.04939668 0.049024373 -0.070006184 -0.037279677
-0.09026427 0.050167665 0.026529832 -0.06607159 -0.07022235 -0.097392485 0.084999606 -0.09889151
-0.057732854 0.0061063794 0.08022803 -0.077519864 0.052578043 0.028280325 0.039635155 0.002504313
0.08667948 0.026965344 -0.06750803 -0.07757557 0.010749218 -0.100434504 -0.031573262 -0.10075396
-0.032644972 0.07153558 0.07757799 0.00317169 0.03236617 -0.05223159 0.050698627 0.05584105
-0.03467672 -0.04843557 0.0786693 -0.04854019 0.014619316 -0.0022242789 -0.019055175 -0.11713831
-0.03132056 0.014332827 -0.015941044 0.0012903083 0.079946436 -0.07998075 0.00108595 0.005334604
0.025748292 -0.03629931 -0.030764125 -0.057121284 -0.08193774 -0.03186077 0.07064483 0.057980917
-0.052913606 -0.0015816169 0.0811973 -0.021881994 0.03630481 0.06520894 -0.007812651 0.07540111
0.045042843 0.08231639 -0.0770665 -0.0464166 -0.020439727 0.08274902 0.004463502 -0.008041047
-0.003879709 0.076738 -0.00028735906 -0.11129374 -0.0856558 0.019303976 -0.04280931 -0.04271294
0.07334708 0.12545872 0.09126046 -0.05052975 0.02757694 0.034542415 0.02080301 0.0016011455
00000000: ebf8 9b3d 26d7 003e fc1e b03d 5cb7 c93b
00000010: 0fb8 0cbd cf53 8e3d af46 d03c d34a 143d
00000020: 36f9 8f39 e980 e93d c4bb 8b3d 5c7e 96bd
00000030: 8892 583d 6a85 babc a1a8 8bbd 61e4 a7bc
00000040: 4711 7a3d 02b4 c2bd 5b4e 0bbc fee3 693d
00000050: 2dff d33c 354c aa3b 4384 243d f911 34bd
00000060: 318a 003d d161 56bd a5e8 9a3c 7407 ae3c
00000070: 3bc1 12bd 9a15 393d 7d8f a13d df22 0dbd
00000080: 864b 66bd 26f4 243d 1171 b73d 8a94 7c3c
00000090: 46b7 9c3d cad4 a63d 0c01 bbbd f3f5 9fbc
000000a0: 581e 0ebc 8d0f a03d 03bb aabd 90c9 dd3d
000000b0: 3770 f8bc acdf 83bd 0209 84bd 8438 26bd
000000c0: 3137 a53d 00b4 b83d 5d65 3a3d f8c4 b63d
000000d0: fa3a 063b 61f7 fa38 cfe5 a83d f685 d23d
000000e0: 0011 afbd 1470 3cbc d997 afbd 87e7 703d
000000f0: 250f 91bd 5ffe 4b3c aeb6 f93a 124c b8bd
00000100: c04a 9ebc 81e7 f4bd bb16 b33d bcd2 c9bc
00000110: 5b0c c13d f04c 23bd fe4e b03c 1a2a 11bd
00000120: 92c9 99bd f747 e6bd 2895 e03c 245a 6ebd
00000130: 6acb f6bc a54a b33d c452 a33c 7b0b e1bc
00000140: d39f c8bd 1d8a c1bd 7878 93bd a396 0ebd
00000150: d5cd a83d 16a7 60bc 5bf6 52bd e809 073d
00000160: c801 8fbc cde0 9abd e806 c1bd e64e 783d
00000170: acf8 193d 1d01 6bbb 1c50 0c3d da82 763d
00000180: b920 2b3d 4ebe 3e3d f9a6 4bbc d5f6 35bc
00000190: efcd 57bd 545c 983d c54a 86bd d181 c2bb
000001a0: 12e1 4fbc 37db 9b3d c1b3 a0bd 1277 6d3d
000001b0: efb4 cebd 4bd2 b33d 21ad e23d 092e 8abc
000001c0: 8a69 b43d a396 e6bd 80ff d43d 7805 2c3c
000001d0: 5e0c 9cbb 09f4 98bd 9494 e83d e802 c93d
000001e0: 2b78 1abd 879b d6bd f616 0f3d 7b75 a83d
000001f0: d3b6 20bc 7112 9ebd 676e 92bd f823 103d
00000200: 07d9 adbb 3f06 3abd 8e6e 1ebd ba7a 9c3d
00000210: 3454 d6bb 42bc aabd bb0e b33d 9df6 573d
00000220: e771 1c3d a1b2 67bc 45d7 aebd 051e 66bd
00000230: 00b9 86bd 3b10 173c b0ea b53d 2921 49bd
00000240: 8898 6f3d 45db 28bc fcde 063d b283 9d3c
00000250: 08d3 473d 46ad 213c 7454 783d 3f4f 4cbd
00000260: be4a 8abd c932 8fbd 851b ebbc e0ea 533d
00000270: 37f5 13bd f1b3 afbd eb96 943d 0f01 9f3c
00000280: 9f5f 22bc 4791 5b3c 5f03 2f3d c3ce 843c
00000290: 2c54 4abd c8cd 483d 675f 8fbd 93b2 18bd
000002a0: 79dc b8bd 9c7c 4d3d 1755 d93c 8b50 87bd
000002b0: bcd0 8fbd b675 c7bd 4614 ae3d a287 cabd
000002c0: 4979 6cbd 0618 c83b 984e a43d bcc2 9ebd
000002d0: 135c 573d 24ac e73c 7958 223d 661f 243b
000002e0: 0385 b13d 6de6 dc3c a641 8abd f1df 9ebd
000002f0: 7d1d 303c 9bb0 cdbd f752 01bd 1858 cebd
00000300: bcb6 05bd 3f81 923d 36e1 9e3d 21dc 4f3b
00000310: 6492 043d cbf0 55bd 5da9 4f3d 96b9 643d
00000320: 2d09 0ebd 6064 46bd 5f1d a13d 14d2 46bd
00000330: db85 6f3c 35c5 11bb 9919 9cbc 36e6 efbd
00000340: fd49 00bd 3cd4 6a3c cb96 82bc 901f a93a
00000350: f5ba a33d f3cc a3bd 6f56 8e3a e7cd ae3b
00000360: 15ee d23c 96ae 14bd 0c05 fcbc 02f8 69bd
00000370: f9ce a7bd 7080 02bd 3dae 903d 667d 6d3d
00000380: f0bb 58bd 424e cfba c54a a63d de41 b3bc
00000390: 5ab4 143d 448c 853d a200 00bc e66b 9a3d
000003a0: d87e 383d 7f95 a83d 0bd5 9dbd 551f 3ebd
000003b0: 3771 a7bc 5178 a93d 9242 923b 98be 03bc
000003c0: b742 7ebb d028 9d3d aea8 96b9 f9ed e3bd
000003d0: 4f6c afbd 5f23 9e3c d158 2fbd c4f3 2ebd
000003e0: fe36 963d 4078 003e c4e6 ba3d 48f8 4ebd
000003f0: 09e9 e13c 597c 0d3d 136b aa3c 87dd d13a

critic.linear1.bias f4 [128]
0.003837932 -0.03713731 0.10294825 -0.039753117 0.08646347 0.11721522 0.068026036 -0.028546132
-0.007261537 0.038493447 -0.0021297846 0.05830471 -0.093022786 0.077087685 0.08897402 0.06893689
-0.046345167 0.13012774 0.12219514 0.012337254 0.10246286 0.071709365 0.016047446 0.020381665
0.04651221 -0.022287132 -0.054170303 -0.012647212 0.03848399 0.07745709 0.054240715 0.11247474
0.09392663 0.03040063 -0.008679085 0.028552067 -0.0019987947 0.11144811 0.09216247 -0.09099684
0.10374455 -0.04163572 0.015908051 0.10308275 0.12239448 0.045870595 0.08456497 -0.037880402
-0.10841948 -0.010715712 0.11960437 0.022367947 -0.10753508 0.059056554 -0.12287608 0.056759678
0.08499195 -0.12578766 0.101202235 -0.106145844 -0.110671185 0.029023346 -0.0036601953 -0.07248631
-0.012563483 0.095150515 -0.028774768 0.029048085 0.026245276 0.019017672 0.036943737 -0.0544747
-0.03380126 0.11582346 0.02594776 -0.025706656 0.10404941 -0.00070606 -0.056900114 -0.037868425
-0.015258297 0.08047458 0.09712964 -0.10291138 0.1192669 0.119816355 -0.029027777 0.13066547
0.0060409773 -0.0934331 0.12459775 0.026875297 -0.0024004206 0.04943737 -0.05336994 0.102153406
0.10857846 0.05490922 -0.0066208886 -0.04542426 0.087450564 -0.109457865 -0.0562657 -0.03310316
-0.051956806 0.12068037 -0.03597525 0.06774551 0.07170902 -0.035304584 0.08250219 0.0561926
-0.019027222 -0.045038648 0.12658224 -0.0459974 0.03678833 0.123777404 0.014878623 0.12817109
0.09715915 0.029603183 -0.0052435673 -0.052689448 -0.06935874 0.05791036 -0.030371273 0.03893718
00000000: d085 7b3b 4b1d 18bd 88d6 d23d 2ad4 22bd
00000010: c213 b13d 890e f03d 3c51 8b3d 94d9 e9bc
00000020: 30f2 edbb 4eab 1d3d db93 0bbb ebd0 6e3d
00000030: bb82 bebd 26e0 9d3d 0338 b63d c92e 8d3d
00000040: 6ed4 3dbd 3540 053e 7241 fa3d 3222 4a3c
00000050: 0cd8 d13d 5cdc 923d ef75 833c 73f7 a63c
00000060: 9683 3e3d 8193 b6bc aee1 5dbd 4036 4fbc
00000070: 63a1 1d3d d3a1 9e3d 832b 5e3d 2859 e63d
00000080: 9b5c c03d be0a f93c b932 0ebc 06e6 e93c
00000090: 36fe 02bb e83e e43d adbf bc3d 8d5c babd
000000a0: 0678 d43d 378a 2abd 9a51 823c 0d1d d33d
000000b0: f5a9 fa3d cee2 3b3d 6630 ad3d 7b28 1bbd
000000c0: 080b debd f490 2fbc 23f3 f43d fc3c b73c
000000d0: 5a3b dcbd 49e5 713d 74a6 fbbd d67c 683d
000000e0: 4210 ae3d 7bce 00be 1e43 cf3d fe62 d9bd
000000f0: 93a7 e2bd 5ec2 ed3c e3df 6fbb b473 94bd
00000100: 11d7 4dbc 46de c23d 10b9 ebbc 40f6 ed3c
00000110: 5500 d73c f3ca 9b3c 5152 173d dd20 5fbd
00000120: 3173 0abd da34 ed3d 6690 d43c c496 d2bc
00000130: db17 d53d e216 39ba 1810 69bd ec1b 1bbd
00000140: f0fd 79bc dbcf a43d e8eb c63d 34c3 d2bd
00000150: 3442 f43d 4762 f53d a9cb edbc 2bcd 053e
00000160: 64f3 c53b da59 bfbd 1b2d ff3d 9529 dc3c
00000170: 6050 1dbb d77e 4a3d 709a 5abd ce35 d13d
00000180: 625e de3d 7ee8 603d 0af4 d8bb ca0e 3abd
00000190: 4819 b33d 722b e0bd dd76 66bd 2e97 07bd
000001a0: a9d0 54bd 4527 f73d c95a 13bd 28be 8a3d
000001b0: 2edc 923d 8a9b 10bd e8f6 a83d 362a 663d
000001c0: fade 9bbc 727a 38bd c69e 013e c567 3cbd
000001d0: 5caf 163d 027f fd3d 78c5 733c 483f 033e
000001e0: 60fb c63d 6082 f23c 3bd2 abbb e4d0 57bd
000001f0: f40b 8ebd 6a33 6d3d 2dcd f8bc 987c 1f3d
