landing_falcon_raw_ckpt/ckpt_00006201.pt (torch, 731383 bytes, 15 tensors)

actor.linear1.weight f4 [128, 120]
00000000: ad0b 48bd 753b 74bd b567 8fbd eb0b 383d
00000010: ead2 25bd 2d36 183d 06bc 003d 200a d1bd
00000020: 1308 5c3d 4fc8 923d 026c 19bd f1d4 593d
00000030: ae77 e93d b406 2ebd 794a 863d a9c2 253d
00000040: 01f5 693d d732 0f3c c5a3 55bd 1c8b 863d
00000050: 4f0e ae3d 6bd7 863c d9a3 da3c 58d2 9e3d
00000060: 223f 8dbd 547a f2bc be36 d9bc 0f4f a2bd
00000070: a013 73bd 720e 6b3d c0d1 64bd e578 9cbd
00000080: 8be8 2ebd 5edb ad3c 73f6 c8bc 0754 5bbc
00000090: a32c 233c 8397 3a3d db88 ba3d 2a21 a13d
000000a0: c4e6 9b3d 0972 43bd 5d18 b23d 8da5 6fbd
000000b0: b008 ca3d 6412 8dbc fdb6 96bc 436f e7bd
000000c0: 6106 a33d 13bd aebc 88e9 73bd 6bed 05bd
000000d0: e420 9abd 5ce3 e8bc c474 9abc b271 5abc
000000e0: 3c71 47bd 8aed 1a3c 78eb 76bd 59d1 28bd
000000f0: 6496 0b3d 37a6 ef3d 2c3d 013d 6693 b5bc
00000100: d247 963d c6b0 043c cd2f 4e3d ae00 9dbd
00000110: 0767 fc3c 20b2 a33d be1f 753d 0fa2 0fbc
00000120: 383a 493c 6cac 93bd 0df5 8e3c 0bdd 743d
00000130: e868 6f3c 1857 bd3d 32af ab3b 51b6 e7bd
00000140: 4072 593d 3700 aa3c b275 93bd 8b5d 6d3d
00000150: 1ddd b0bd b4df 3aba a689 493c 68e4 633d
00000160: 7bf2 42bb 819c 253d 2537 06ba e1cb 293d
00000170: efe5 7b3d 07ce e53d 4ff7 033c 09b5 06be
00000180: 0181 1fbd 2fe4 3d3c 4441 903d 945e a83d
00000190: 8aba c2bb 3358 6dbd 550c b53c a310 a83b
000001a0: 52a7 85bd 70a7 38bd b9e0 19bd 8511 a8bd
000001b0: a2b8 1fbd 3809 a23d ae60 2e3d 2615 a5bd
000001c0: bd75 8ebd 8bee 0239 983b 283d fbb4 1dbd
000001d0: 2cba 633d 377d 5fbc 67f6 1cbd 6a9b aa3d
000001e0: 6748 c13d 0595 c23d 4b77 7a3d 27cf 873d
000001f0: 6c41 81bd b4b3 cfbd 08c5 783d a493 c83d
00000200: b97a 70bd 7360 1dbd fc6e 743d 9526 4b3d
00000210: 099c 0bbd 567f f4bc fcb3 71bd 95b4 97bb
00000220: 27db cf3c eb3a a5bd 33a4 aa3b c19d 4fbd
00000230: 8285 9b3d 2776 06bd 0603 27bc 0fa0 c33d
00000240: d0ed 273d ff94 67bd ce1c 863d e725 a53d
00000250: c267 80bb 812a 29bd 9cdc eb3a becf 9b3d
00000260: 5ac3 563d b46e 9a3d 4c9a 63bd 745b 863d
00000270: f684 cc3d 332c 3dbd 7dac 57bd 7c82 00bd
00000280: 2756 553c 468c 69bd bc54 afbd c106 223c
00000290: d942 8b3a 02c4 5b3c 6a61 98bd 77a1 2b3d
000002a0: e821 f43c 4f6b 7dbd 0bc2 d13c 7427 a73d
000002b0: cbd1 91bd 5064 973d 5d60 54bd 536b 96bd
000002c0: 4b3d 993d d197 503c d37d 063d 0c3d 9e3d
000002d0: 648e 06ba 10ed e2bd 102d 9b3d f4b1 643d
000002e0: de7f 553d 92c7 8c3d 72cd 883d a4f3 24bd
000002f0: b9d5 c83d 2e08 133d f904 6dbd d549 dc3d
00000300: dcda 093d 79a3 5fbc aa4e 24bd 0276 0d3d
00000310: 3ad6 773d 4c67 3a3c 4a17 72bd 9264 9e3d
00000320: aa5e 4b3d 88ee 4fbd 4151 153d 1ee3 0ebd
00000330: 80f6 863d 0f9f 343c 5413 5c3d 1eac eabb
00000340: 3551 60bd 0f5c 3dbd d476 8e3a 2a45 aa3a
00000350: 6e3d 653d d5f1 b2bb 7e6f 6c3d fabb 1ebc
00000360: 1690 98bc d3f5 04bd 4686 a9bd df07 9e3b
00000370: ba27 5b3d bdc5 813d bd76 01bd 26ce 48b9
00000380: 3a40 f8bc e27c c9bc 0adf 383d 09fe 2e3c
00000390: 9ead 94bd c316 bcbd b7d6 4b3d a592 f93d
000003a0: d7ee 82bd 4bdc 133d 26a0 91bc cc34 04bd
000003b0: efe8 80bd 603b 8ebc 87da 183d 7ddc 8c3d
000003c0: 644b 863d 086b 63bd a8f5 6fbd f5b4 a7bd
000003d0: 2a61 93bd c98f 76bd ba17 8fbd 241c dc3b
000003e0: 122b 8dbd 57a7 8dbd 4b72 1a3d d5da 12bc
000003f0: b7d7 823d aa4b 2dbd 72d6 47bd 31f8 073c
-0.04883926 -0.059627015 -0.070022024 0.04493324 -0.040484346 0.03716104 0.031429313 -0.10207009
0.053718638 0.07167112 -0.03745652 0.053181592 0.1139978 -0.04248686 0.06557173 0.040468846
0.05711842 0.0087401485 -0.052158136 0.06569502 0.08498823 0.016460141 0.026689457 0.07754964
-0.06896807 -0.029599346 -0.02651536 -0.079252355 -0.059344888 0.057386823 -0.055864096 -0.07640246
-0.04270224 0.021222766 -0.024531579 -0.013386733 0.009959373 0.04555465 0.09108134 0.07867654
0.076123744 -0.047716174 0.08696053 -0.05850749 0.09864938 -0.017220683 -0.018397802 -0.11300518
0.07960201 -0.021330392 -0.059548885 -0.032697123 -0.07525805 -0.028428726 -0.018854506 -0.013332771
-0.048691973 0.009456048 -0.060283154 -0.041215274 0.03407897 0.11701625 0.03155248 -0.022165012
0.073379174 0.008098787 0.050338555 -0.07666145 0.030810846 0.07992959 0.059844725 -0.008766665
0.012281947 -0.07210621 0.017450834 0.059781116 0.014612414 0.092451274 0.005239391 -0.11314071
0.053087473 0.020752056 -0.07200183 0.057950538 -0.08635924 -0.0007128671 0.012300884 0.055637747
-0.002974658 0.040432457 -0.00051199115 0.0414542 0.06149858 0.11220937 0.008054568 -0.13154997
-0.038941387 0.011590048 0.070436984 0.08221164 -0.0059426473 -0.05794544 0.022100607 0.0051289364
-0.065260544 -0.045081556 -0.037567828 -0.082064666 -0.03899444 0.079119146 0.04257267 -0.08060674
-0.069560505 0.0001248663 0.041072458 -0.038502675 0.05559747 -0.013640693 -0.038320925 0.08330424
0.09437638 0.095010795 0.061148923 0.06631308 -0.06311306 -0.101416975 0.06073478 0.09793785
-0.058710787 -0.03842206 0.059676155 0.04959734 -0.034084354 -0.029845875 -0.059009537 -0.0046296814
0.025373055 -0.08067878 0.0052075624 -0.050687555 0.07593824 -0.032827523 -0.010193592 0.09552013
0.04099828 -0.056538578 0.06548463 0.0806387 -0.003918619 -0.0413003 0.0017994824 0.07607983
0.052432396 0.07540646 -0.05556707 0.06560412 0.09986298 -0.04618473 -0.052654732 -0.03137444
0.013021029 -0.05701854 -0.08561084 0.009889306 0.001062478 0.013413431 -0.07440455 0.04190203
0.029801324 -0.061869916 0.025605222 0.08161822 -0.07120093 0.0739218 -0.05184971 -0.07344689
0.07482394 0.012731508 0.03283484 0.077264875 -0.0005132912 -0.11080372 0.07576954 0.05583377
0.052123897 0.068740025 0.066798106 -0.040271416 0.09806389 0.035896473 -0.05786607 0.1075627
0.033655986 -0.013649815 -0.040114082 0.03453637 0.060507037 0.011377167 -0.05910424 0.07734026
0.049650826 -0.05076459 0.036454443 -0.034884565 0.06589985 0.011024251 0.05372937 -0.0071616312
-0.054764945 -0.046230372 0.0010869154 0.0012990583 0.055966787 -0.0054609575 0.057723515 -0.009688372
-0.018623393 -0.032461 -0.08277564 0.0048227157 0.053504683 0.06336544 -0.03160738 -0.00019150283
-0.030304063 -0.024595682 0.04513458 0.010680684 -0.07259677 -0.09184029 0.049765315 0.12186173
-0.06393211 0.03609876 -0.01777656 -0.032276914 -0.062944286 -0.017362297 0.03731778 0.06877992
0.06557348 -0.055521995 -0.058583885 -0.08188812 -0.07196267 -0.060195718 -0.06986947 0.006717222
-0.06892981 -0.06916683 0.037706655 -0.008963306 0.063888006 -0.042308487 -0.048788495 0.00829892

actor.linear1.bias f4 [128]
00000000: ab25 af3d 6c01 cf3c 2d4d bb3c 9777 333d
00000010: 78f2 a2bd 1842 e43b af31 193d 61de 9f3d
00000020: 80a0 b33d fac7 0d3d 5420 1cbd 5b25 423d
00000030: 0ee3 c63d 486e 1ebd 8110 26bc 00bd 253d
00000040: 1e5a 623c 10d1 9cbd af90 13bd 4b1c bfbc
00000050: 0138 7bbd d716 963d 61cf a4bd 95d9 193c
00000060: dafd 523d c914 b13a a894 313c 7217 4d3d
00000070: 9378 c83d 6484 febb 55ed bc3b 3fc6 823d
00000080: fbbd 723d bbbe 363d 03ef 113d cf91 863d
00000090: 59ca d63d d9b2 6dbd 4ce1 10ba a0c0 ea3c
000000a0: ecf4 a33b 1831 7b3d 817f d4bc c433 1d3d
000000b0: e312 db3c 5892 2ebd d694 6f3d 2ab8 76bd
000000c0: e893 a6bd 8b8f 133d 9c0a 1a3d 83ca 5d3d
000000d0: 7b09 09bd 44a1 bf3d 9bf7 503c 9494 0b3d
000000e0: 348f 86bd e440 90bd 6064 883c 628f 82bd
000000f0: bf31 923d 4bfd 043c 64fc 963d e25c a13d
00000100: 8c7d a83d b579 93bc b253 e33b 7ad6 bbbc
00000110: e3f2 a3bd f56c a1bb 0b8f 4abd d0d2 9abd
00000120: f555 6dbc 7cfb 663d a900 e1bb 5498 103d
00000130: d71f b93d 4a23 993d 1f97 8e3d caa6 74bc
00000140: ff21 74bd 604c 613d dfd5 a13d 12bd 88bd
00000150: 77a5 71bd 9dcc 43bd 5bcc 35bc c4d9 83bd
00000160: b1f9 093d 6d87 9bbd 20a2 ca3c 82f8 97bc
00000170: 5868 93bd 4d4c 88bd fede 45bb 467e 153d
00000180: 4a46 7bbd 5537 26bd 4a44 bf3d 0838 83bd
00000190: 9fe1 853c dc0d 2abd 51eb f43c e6bf 94bb
000001a0: 1537 9fbd 3c43 9abc 2c82 0f3d 0a55 473a
000001b0: 01b6 32bd 05e9 f13b 5aa8 22bd c26f 18bd
000001c0: ba94 51bc 3022 1b3d 3a82 663b fcca 8a3d
000001d0: d68b 99bd 9a1f 31bc 229a 513d 06bc 00bd
000001e0: 0f46 a73d d334 ecba 971d b43d ae4b 823d
000001f0: ae8a b53b be2e fc3c 53c4 96bd ade1 f7bc
0.085521065 0.025269233 0.022863949 0.04381522 -0.079564035 0.006965887 0.037400898 0.07806087
0.08770847 0.03461454 -0.038116768 0.047398906 0.09711276 -0.03867939 -0.010135771 0.040463448
0.013815431 -0.07657063 -0.036026653 -0.02332892 -0.061332706 0.07328575 -0.08047367 0.0093902545
0.051511623 0.0013510223 0.010838665 0.050071187 0.09788623 -0.007767247 0.005765597 0.06385469
0.05926321 0.04461549 0.03562833 0.065707795 0.104878135 -0.05803189 -0.0005526736 0.028656304
0.005003562 0.061326116 -0.025939705 0.038379446 0.026742404 -0.042620033 0.05849155 -0.060234226
-0.0813368 0.036025565 0.037607774 0.05414821 -0.033456307 0.09356931 0.012754346 0.034077242
-0.065702826 -0.07043627 0.016649425 -0.06375004 0.071383946 0.00811703 0.073723584 0.07879044
0.08227071 -0.01800237 0.0069374675 -0.022929419 -0.08005311 -0.004926319 -0.049452823 -0.075597405
-0.014485826 0.056392178 -0.006866534 0.03530152 0.09039276 0.07477434 0.06962418 -0.014932344
-0.059602734 0.055004478 0.07902121 -0.06676687 -0.05899569 -0.047802556 -0.011096085 -0.0643802
0.03368539 -0.0759419 0.02473551 -0.018551115 -0.07197636 -0.06655178 -0.0030192728 0.036497377
-0.06134633 -0.040580112 0.09339197 -0.064071715 0.016342936 -0.041517124 0.029897364 -0.0045394776
-0.07774178 -0.018830888 0.03503625 0.00076039194 -0.043630604 0.0073825144 -0.039711334 -0.037215956
-0.012791807 0.0378744 0.0035172836 0.067769974 -0.07497375 -0.010810757 0.051172383 -0.031429313
0.081676595 -0.0018021114 0.08794706 0.06362091 0.0055402135 0.030784007 -0.073616646 -0.030258978

actor.linear2.weight f4 [128, 128]
00000000: 06b6 b1bd 7895 eb3b 9082 0cbd 03a4 8b3d
00000010: 1d66 a9bd 9613 b0bd 6bc3 9d3c af47 0c3d
00000020: 0e7e aa3c 3679 afbd 5595 d9bc 6e0d 8abd
00000030: a5be a03d 2dd8 ae3c 5e9d 5b3d abfe 20bd
00000040: 87eb a7bc 4231 59bd a8f4 993c 10c2 c83d
00000050: f229 8f3d b387 8bbd 97e9 133d 2678 a03d
00000060: ec62 61bd f968 88bd cc42 913b 77e4 a93d
00000070: 2e7e 8e3d 07c9 46bd 5ab4 933c cd64 57bd
00000080: b7e1 27bd 315b 46bd cd70 67bd b73a 23bd
00000090: ae77 103d 77c5 32bd 21a4 8ebd cb45 5d3d
000000a0: 1fc1 0bbd 28e7 823d a4a8 fe3c 82be 933d
000000b0: a9d4 4b3d ba40 1cbb 3f37 c03d dea8 7c3d
000000c0: d4b4 edbc 91fa 2cbd 3bf5 81bd 29f3 08bd
000000d0: d792 813c 2ca8 c2bb ddf9 03bc c3ed dcbc
000000e0: af3a 4c3d 2bd6 c1bb 893c 0e3d f690 0f3d
000000f0: 8962 eabc 9925 823d 6b2c 7abd d6b0 82bd
00000100: 0308 0cbd fa4a 84bb 3c1c c83d e4b4 2b3c
00000110: 6407 783d ca4d 283d 6dd3 8fbd 1bd0 9c3d
00000120: 3857 993d 4e70 6a3b b02a 033d 9c33 86ba
00000130: dbb0 f73c e77e e2bc c493 913d 1c08 90bd
00000140: af9d 9c3b 669a 0fbd 867e 8a3c a1bb 4dbd
00000150: 01bc 60bd 2c22 143d 1393 7dbd 8e9b 18bd
00000160: d661 1e3b cddc 2b3c 0e63 66bd 839a 85bc
00000170: 7ede 22bd ce5f 493d bbf1 f43c 8a86 193b
00000180: 6fb0 7f3c 06fb 283d 3e4c 96bd de97 07bc
00000190: d87d a83d 565f 85bd 57cc b1bd c68f 893d
000001a0: 303d 75bd ac7c 87bd 41f9 903d 8367 943b
000001b0: ab96 c1bd 2788 a93d 1ea3 00bc 3cf5 243d
000001c0: 41cb e0bc f3eb 1ebd d438 053d a27b f3bb
000001d0: cc61 813c c65e 98bd 857c b13d 45af 883d
000001e0: 744f ae3d 61c5 ab3d 0c6f fabc 2cd6 8c3a
000001f0: 8bf7 813d 3797 00bc 048e 91bd 736b 6dbc
00000200: 0cc1 cc3d deb2 9dbc b86a 6ebd cd99 863c
00000210: b07b 963d cc63 823d ddf9 cb3b fdc2 273d
00000220: cd24 b13c 02fd 373d ffec 8bbd 7aef 903c
00000230: 1419 dbbc ce1c ce3c b563 01bd 3295 4d3d
00000240: 6ab6 a2bd 0d91 d2bd 735c 2b3d dbe4 35bd
00000250: 2ffc 96bd 4b2e 3d3d aade ba3d 42b1 a03b
00000260: 110e 95bd 7fc6 0abd b440 7f3d e083 563d
00000270: 1b4a 643d 9f6f b13c 58d3 873d 3d5e a33d
00000280: e413 a9bd 42c6 b2bd cfc3 a0bc cb1c 083b
00000290: 95e9 82bd 2a3d 973b bbed a43d 3835 34bc
000002a0: 1829 21bb 66cc 5eba 26c5 683d 34c4 9dbd
000002b0: 67e3 873c 9741 1fbd f68b a13d e7f7 94bd
000002c0: ab59 61bc 378e 8a3d 6477 643d 0fa6 373d
000002d0: 4d80 433d aa77 883c 5547 51bd 2b92 99bd
000002e0: bd0e 113c 1538 45bd 14b8 b2bc 89aa b43d
000002f0: 2ddf b8bc 8fa9 633d 7a6f 683d 5288 823b
00000300: e80e 643d 6121 363d 70ad 433d 56ee c8bb
00000310: f568 fdbb 7c3c 3fbd e312 913d 32a5 633d
00000320: a8bf 503d b78a 7c3d f520 8fbd a37c 9ebd
00000330: f95b b33d ef45 873c aa7b c03c b536 e43c
00000340: d587 363d 192c 44bc e599 88bc 07fe 853d
00000350: df91 a1bc 2070 973d 633a 143d 8352 8e3b
00000360: 31b8 e3ba 98af 7b3d b6d5 14bc 05b4 adbc
00000370: c46a c23d 84fa ce3d 2327 ad3d 873e 86bd
00000380: e8f3 96bc 6ca9 ca3c 6fa1 4fbc 88ca ab3c
00000390: 1d3d 04bd d4ff 80bd bd16 893d 528b 8d3d
000003a0: 3103 903d 5c53 90bd 35b5 c5bc 5354 4ebc
000003b0: ff98 293d 7f95 bb3b 38cd 293d 239b 003d
000003c0: 7ad2 a7bd a04e 5b3d 8684 17bc 589c 87bd
000003d0: c9de ba3d eb20 a73d 1012 c0bd b6bf 0b3c
000003e0: 174c 80bd b7ca 1f3d f275 513d 26c8 73bd
000003f0: 69cf de3c 0db4 70bc 2fce c83d 91da 1e3d
-0.08677296 0.007189449 -0.0343042 0.06818392 -0.0827143 -0.08597486 0.019258222 0.03424805
0.02081206 -0.08568041 -0.026560465 -0.06740843 0.078488626 0.021343315 0.053616874 -0.03930537
-0.02049805 -0.05302549 0.018793419 0.098026395 0.06990422 -0.06812992 0.03611144 0.078354165
-0.05502598 -0.06660647 0.0044330116 0.08295529 0.069576606 -0.04853156 0.018030334 -0.052586365
-0.040986743 -0.04842681 -0.05650406 -0.039850917 0.035270385 -0.04364535 -0.06964899 0.054021638
-0.03411972 0.06391746 0.031086273 0.07214071 0.049763355 -0.002384229 0.09385537 0.06168448
-0.02901689 -0.042231146 -0.06345602 -0.03343502 0.015817089 -0.005940458 -0.0080551775 -0.026968842
0.049860653 -0.0059154234 0.0347257 0.035050355 -0.028611438 0.063548274 -0.061077517 -0.06381385
-0.034187328 -0.004037258 0.0977101 0.010480139 0.060553923 0.04108981 -0.07022748 0.076568805
0.07487339 0.0035772505 0.03202313 -0.001023877 0.030235698 -0.027648402 0.07108262 -0.07032797
0.0047795395 -0.035059355 0.016906034 -0.050227765 -0.054866794 0.0361654 -0.06190784 -0.037257724
0.0024167201 0.010489655 -0.05624681 -0.016309028 -0.039762966 0.049163632 0.029900422 0.0023426139
0.01560603 0.04125502 -0.07338761 -0.008275954 0.08227128 -0.065123245 -0.08681553 0.06716876
-0.059872806 -0.06615576 0.070787914 0.004528941 -0.09452566 0.08277922 -0.00785139 0.040272936
-0.027440669 -0.038799237 0.0325249 -0.0074305097 0.015793703 -0.074399516 0.08666328 0.06674055
0.08511248 0.083872564 -0.03057053 0.001074498 0.06346043 -0.007848552 -0.071071655 -0.01449095
0.09997758 -0.01925033 -0.058207244 0.01643076 0.0734781 0.06366691 0.0062248544 0.04095744
0.021623993 0.04491902 -0.06832313 0.017692316 -0.026745357 0.02516022 -0.03158923 0.050191112
-0.07944949 -0.102815725 0.041836213 -0.044407707 -0.07372319 0.046186727 0.09124501 0.0049039433
-0.072780736 -0.033880707 0.062317565 0.05237186 0.055734735 0.02165967 0.066321075 0.07976959
-0.08255747 -0.08729221 -0.019624619 0.0020769115 -0.063922085 0.0046154456 0.08053156 -0.010999016
-0.0024591144 -0.00084990857 0.05682864 -0.077034384 0.016587926 -0.03888091 0.078880236 -0.07273846
-0.013754289 0.067654066 0.055777922 0.0448361 0.04772978 0.016658623 -0.05109342 -0.074985825
0.008853612 -0.048149187 -0.02181629 0.088215895 -0.022567356 0.055581626 0.056746937 0.003983536
0.05567828 0.044465426 0.047772825 -0.0061319275 -0.007733459 -0.04668854 0.070836805 0.055577464
0.050964028 0.061655726 -0.06988708 -0.07738616 0.08757777 0.01651284 0.023496468 0.027858118
0.044563133 -0.011973404 -0.016674945 0.065425925 -0.019722877 0.07394433 0.036188494 0.0043433323
-0.0017373619 0.061446756 -0.009084156 -0.021204004 0.0949302 0.10106376 0.0845473 -0.06554895
-0.01842685 0.02473899 -0.012672766 0.020970598 -0.032284845 -0.06298795 0.0669379 0.06911339
0.07031859 -0.070471495 -0.024134258 -0.012593347 0.041405674 0.0057246084 0.041455477 0.03139795
-0.08194442 0.05354178 -0.009247905 -0.06621617 0.09124524 0.081605755 -0.09378445 0.008529594
-0.06264513 0.039011683 0.051137872 -0.05951705 0.02719851 -0.014691365 0.098049514 0.03878266

actor.linear2.bias f4 [128]
00000000: 5868 6c3d 37ab 2cbd d9d5 32bd 3502 10bd
00000010: 4392 1f3c f0dd 06bb ed4c 183d 6963 c53c
00000020: 2fdc a3bd 9f37 a4bb a237 8bbd 9de2 85bd
00000030: d833 a6bd e9ce 1e3d 2356 273d f1c3 b53d
00000040: 37fd 53bd fee4 46bc 86a8 86bd 8563 2f3d
00000050: f775 9f3d 7253 7f3c 02dc 95bd dc42 43bb
00000060: c144 683d 9390 57bd 314f d6bc 65b4 893d
00000070: 5e78 82bd 26a0 53bd 9c98 5a3d bd3a 353d
00000080: 344a 023d 7185 523d d2f0 7bbd 8bc6 8b3c
00000090: e91c 553d d460 17bd b7e6 ac3d df1e 263d
000000a0: 45b3 c2bc ec26 713c e90b bebb 74b3 1bbb
000000b0: 74c5 72bd b56d bb3b 6391 c8bc 3fcd 7b3d
000000c0: 1aae a63d 943a 91bd 6993 6d3d bed1 0a3d
000000d0: 6f6e bc3d 2c6e c6bc 1505 50bd 4140 10bd
000000e0: 7bb2 a23d 5222 0a3c c3a8 a2bd a132 c63c
000000f0: 2848 22bc 4a07 6bbd 3d69 d3bb 97cc a43d
00000100: 7a51 81bd 0afe a63d 75dc 333d eb42 a53d
00000110: 0c78 4cbd a6e8 9a3c 7b1f 773c 85cc e2bb
00000120: 22e8 20bd b3d0 e73c fb24 4dbc 5161 153d
00000130: 5ac8 bf3b 3ed6 30bc d892 8cbd e1da 17bc
00000140: 1b96 8b3d 72a4 6ebb ba30 a73d 2b7a 863c
00000150: 1861 3fbd 16ec 2e3b 3488 2e3c b3b7 363d
00000160: 01d5 fbbc e14c 993d 3af8 05bd 4482 4a3d
00000170: efbb 7dbc 8334 7abc 4184 bd3d fac0 eebc
00000180: d04a fe3c cb2e 7b3d 3076 f2bc fb0c 46bd
00000190: 3976 46bd 8871 a83d bc69 f23c a2d7 a63d
000001a0: c077 6f3d 641b 0dbd 9193 103d 94c4 853d
000001b0: ee88 6e3d d317 4f3a bb36 893d 6117 8a3d
000001c0: 6d04 af3d 94b1 3dbd e663 c13d fb7a 50bd
000001d0: 49b6 32bd aa5c 593c c1f4 08bd bbab 5f3b
000001e0: 7f47 8abd 3caf 32bd 6d2a 63bd c9b6 163d
000001f0: 351a 02bd 246a 00bd 775b 613d 2827 8c3d
0.057716697 -0.04215547 -0.043660972 -0.035158355 0.009739461 -0.0020579062 0.037182737 0.024095254
-0.08000981 -0.0050115134 -0.067977205 -0.06537364 -0.08115357 0.038771544 0.04085363 0.088752635
-0.051755156 -0.012139557 -0.06575112 0.04281952 0.07786172 0.01558386 -0.07317354 -0.002979449
0.056706194 -0.05262811 -0.026160808 0.06723861 -0.063706145 -0.0516664 0.053368196 0.04424547
0.031809047 0.05139679 -0.06150896 0.017062446 0.052029524 -0.036957577 0.08442443 0.040556785
-0.023767123 0.014718752 -0.0057997596 -0.0023758085 -0.059270337 0.005719865 -0.024483388 0.061475035
0.08138676 -0.07091251 0.05800191 0.033891432 0.09200751 -0.024222456 -0.050786097 -0.035217527
0.07944199 0.008431034 -0.07942345 0.024194064 -0.009904899 -0.05738 -0.0064517544 0.08046835
-0.063143685 0.08153923 0.043911416 0.08069404 -0.049919173 0.018909764 0.015083189 -0.0069213533
-0.03928388 0.028297758 -0.012521024 0.03646976 0.005852741 -0.010793267 -0.06863946 -0.009268493
0.0681574 -0.0036413935 0.08163591 0.016415676 -0.046723455 0.002669101 0.010652591 0.044608783
-0.030741217 0.074853666 -0.03270743 0.049440637 -0.015486701 -0.015271309 0.09253741 -0.029144753
0.031041533 0.061323922 -0.029597372 -0.048352223 -0.04845259 0.08224779 0.029591434 0.081465974
0.058463812 -0.03444995 0.03529698 0.06531635 0.058236055 0.00078999734 0.06699892 0.067427404
0.08545766 -0.04631193 0.09442882 -0.050898533 -0.043630872 0.013266722 -0.03343654 0.003412946
-0.06751918 -0.043624148 -0.055460382 0.03679541 -0.031763274 -0.031351224 0.05501887 0.06843406

actor.linear3.weight f4 [128, 128]
00000000: 75cc 9fbd 8d9e 96bd a5d8 90bc a04c 08bd
00000010: 6154 6b3c bbea 443d 5268 70bd 5488 ac3d
00000020: eaf9 96bd 2b85 973d f6f2 173d 4d74 42bd
00000030: dfe9 49bc 7242 63bd 5401 b7bd 2c40 99bd
00000040: 3859 25bd 890e 753d 8ad4 273d 5e52 a0bc
00000050: af82 a3bd 6079 3a3d c3ca a73d d049 4c3c
00000060: c424 223d a76f 35bd 23dd 223d 655f 97bd
00000070: b09c 833d c7cf 9cbb 4836 0b3d 1099 99bd
00000080: 4371 a63c e389 f2ba e4ec 14bc 3dec 693c
00000090: 3f26 9c3d 3494 0ebd e29a 863d e216 d8bc
000000a0: e14a fb3c 49e2 833d 1d75 1f3d 1e99 853c
000000b0: c32a 3c3d f2ab b13d 7ad6 443d dbf8 a13d
000000c0: cb96 81bd 124d 053d d30f d53d f823 4fbd
000000d0: 508e 933d f15e 043d 980d 5c3d dc97 413b
000000e0: dd3b aebd 1fe6 d03d a6ce 8cbd d76a 7cbd
000000f0: bc50 fbbc f2e9 8e3d 15b1 6f3d 0605 4d3d
00000100: b7dc b4bd 0b12 953d 1add 683b ed26 08bd
00000110: 3b88 5ebd 0b04 713c bd0c 903a 3f64 b5bc
00000120: f069 6bbd 45b5 0e3d fee6 3abd 4386 1dbd
00000130: ca40 1a3d bfee 843d db2e cb3d 076c 00bd
00000140: 9fa4 6dbd e575 823d d759 7e3d 0ad6 abbb
00000150: ee26 9ebd e5e0 dbbc 8d66 8f3c b5f3 5d3d
00000160: 48a7 7bbd ba8a 0d3d a673 8bbc eade 803d
00000170: 3a19 97bd 3e96 2cbd 920a 433d 6c69 1cbc
00000180: cc8d 613d e78b 9b3d 8862 8f3d 485a 36bc
00000190: 5821 26bd 5dbf 85bd 8144 4d3d 3f2d 5c3d
000001a0: 8a61 dabc 2be5 683c 3fe4 1fbd c07c b1bd
000001b0: 4788 ee3c df4e 383b d046 eabb 5b23 ca3d
000001c0: 8cc8 04bd 5fb1 af3d 029f ea3c 1f4e b6bd
000001d0: f433 e73b 257e 273c 9e9a 80bd 5f5b 7a3d
000001e0: 7445 c23d 377f 9d3d c982 923d 9a48 473d
000001f0: b674 f1bc 8bb4 5abb 0d0e 1ebd 1697 0c3d
00000200: 6ad7 423d a676 8f3a 9a8a 3fbc d776 19bd
00000210: 19de 95bd f19f 833d c885 653d 9fa5 65bb
00000220: 1ec0 233d 1068 a7bb 743d b23d ac4b 953d
00000230: de3d b2bd 38b4 c13d 70ed 863d 12b4 91bc
00000240: a047 86bd 4303 133c 1176 833d eb68 a2bd
00000250: f659 98ba 57bb ccbd 93b7 a83c b4c0 19bd
00000260: 20d0 433d 99a8 263d b7f3 a53d f94f 4bbc
00000270: 3fe5 af3d e979 1e3d 4543 03bc 60de b43d
00000280: 7522 893d 9daf 883d 90fd 42bd cf23 663d
00000290: a89c d83b d29a 83bd 4a7c 833d b1bd 82bd
000002a0: 253e 1fbd 160d 523d 7cdc 54bd 0e7d a93d
000002b0: 1dc2 1bbd 01c1 0e3d 7673 f2bb 3019 383d
000002c0: 2bbb a43c 5790 8abd ceb2 2a3d 0586 583d
000002d0: 6884 aabd 7a85 18bb 12fb ea3c f4eb 54bd
000002e0: d823 353d 5327 de3d 96ff 373c 27c8 b73b
000002f0: 272f 903d e865 123d 7a6a 3f3d 5bfb b4bd
00000300: 2556 c33c 20a7 97bd a9db 93bd ade3 aabd
00000310: 8785 2bbd 3685 f1bc a1dd 2abd 2813 79bd
00000320: 1545 033b b14a a73d 2ad5 93ba 0ad2 503c
00000330: dbdd 5ebd 0942 2d3c 532a 453d 6862 9bbd
00000340: 8a56 3ebc 7420 0c3d a7c6 483c e441 663c
00000350: 8f6c e13c 3ed9 14bd e112 79bc 77cd 1c3d
00000360: 55a5 a0bd b724 e63c bcfe 5f3d 4fff a43b
00000370: 53bb 993c b377 9c3c a3af 96bc 07ec 13bd
00000380: f14b 4fbd 6dba b03d 3f75 cdbc b7f1 ac3d
00000390: 9cba 923c 6c4f 29bd a247 e93c 890d 04bd
000003a0: 8c0a de3d f6e4 623d 22eb 973d 57d1 023c
000003b0: 998b 2c3d 9610 bdbd ae52 553d 3a5d d73d
000003c0: 44ae 9abd bbd0 963d 82c5 e63b 844c 7bbc
000003d0: 86b4 8f3d 58d8 c23c 0299 debd 10f2 b7bd
000003e0: f768 62bd 9e57 a13b 0bd9 aebd ade9 b7bd
000003f0: 8f54 93b9 f9c1 d2bb ab3c d33c 19a8 91bd
-0.07802669 -0.0735446 -0.01768143 -0.0332762 0.014363379 0.04807542 -0.058693238 0.0842444
-0.07371886 0.07398447 0.03709694 -0.047474194 -0.012323826 -0.05548329 -0.089358 -0.07482943
-0.04036829 0.059828315 0.040974177 -0.019570526 -0.0798391 0.04552591 0.081929706 0.01246877
0.039585844 -0.044295933 0.039761674 -0.07391242 0.0642637 -0.004785511 0.033987314 -0.074998975
0.02031768 -0.0018504228 -0.009089682 0.014277515 0.07624482 -0.034809306 0.0657251 -0.026378099
0.030675353 0.06439645 0.038930047 0.016308364 0.04593922 0.08675374 0.048056103 0.079087935
-0.063275896 0.032544203 0.10403409 -0.05057141 0.07204878 0.032317106 0.0537239 0.0029539978
-0.08507512 0.10200142 -0.068753526 -0.061625328 -0.030678146 0.06978215 0.058518488 0.05005362
-0.088311605 0.07278832 0.0035532177 -0.033240248 -0.05432914 0.014710437 0.0010990124 -0.022142528
-0.057474077 0.03484084 -0.045630448 -0.03845812 0.037659444 0.0649085 0.09921046 -0.031353023
-0.058018323 0.06370143 0.062097397 -0.0052440213 -0.07722269 -0.026840637 0.017504955 0.054187495
-0.06143883 0.034556128 -0.017022919 0.062925175 -0.073778585 -0.04213547 0.047617503 -0.009546619
0.05506687 0.07595044 0.07001215 -0.011129923 -0.040559143 -0.0653064 0.05011416 0.053754088
-0.026657838 0.014214794 -0.03903603 -0.08666372 0.029117716 0.0028123183 -0.007149555 0.09870025
-0.03241782 0.08578753 0.028640274 -0.08901619 0.007055754 0.010222946 -0.06279491 0.061122295
0.094859034 0.0769028 0.071538515 0.048653223 -0.029474597 -0.0033371772 -0.03858762 0.034323774
0.047568716 0.0010945394 -0.01169076 -0.03746685 -0.073177524 0.06426991 0.056035787 -0.0035041345
0.03997814 -0.0051088408 0.087031275 0.07289824 -0.087032065 0.09458202 0.06588256 -0.01778606
-0.0655663 0.008972946 0.06419004 -0.07930168 -0.001162349 -0.0999667 0.020595348 -0.03753729
0.047805905 0.04068813 0.081031255 -0.012409204 0.08588647 0.03869048 -0.008011644 0.08831477
0.06696025 0.066741206 -0.047605097 0.056186493 0.0066104718 -0.06426014 0.06420191 -0.06383837
-0.038877625 0.05128201 -0.051968083 0.082758054 -0.038026918 0.03485203 -0.007399018 0.044945896
0.02010878 -0.06765812 0.041674428 0.052862186 -0.08326036 -0.0023272918 0.028684173 -0.051982835
0.044223636 0.10847344 0.01123037 0.005608577 0.070402436 0.035741717 0.046732403 -0.08837005
0.023844788 -0.074049234 -0.07219631 -0.08344207 -0.04187539 -0.029482465 -0.041715268 -0.060809284
0.002003019 0.08168543 -0.0011278738 0.01274539 -0.054410797 0.010574826 0.048136067 -0.07587129
-0.011617312 0.034210637 0.012254394 0.0140537955 0.027517585 -0.03633999 -0.015202255 0.038281884
-0.078440346 0.028093679 0.054686293 0.005035318 0.018766081 0.019100046 -0.018394297 -0.036113765
-0.050609533 0.08629308 -0.025080321 0.08444541 0.017911248 -0.04133551 0.02847654 -0.03223947
0.108418554 0.055394135 0.07417895 0.007984481 0.04212532 -0.09231679 0.052080803 0.105158284
-0.0755277 0.07364031 0.0070425877 -0.015338067 0.07016854 0.023784801 -0.10869028 -0.08981717
-0.055275884 0.004923775 -0.085374914 -0.08980117 -0.00028101026 -0.0064318147 0.025785765 -0.0711214

actor.linear3.bias f4 [128]
00000000: 41e9 89bc a3e4 bb3d d73f 35bd 938e a2bd
00000010: 5011 6fbd 73a0 763d 6f89 e93c 809e 40bd
00000020: 9cb3 14bc b8e1 a93d 1a3c 7cbd 727d a13d
00000030: b27f 843d 7d6f 913d 821d 463d 1beb 66bd
00000040: 65bd b93c 9070 b23d 3c38 783d 1941 eb3c
00000050: 09ac 673c 5cca b1ba e1f0 b2bc 8bed afbc
00000060: 9566 33bd 2acc b73d ccc9 38bd e296 013d
00000070: f5eb 65bd 4456 0f3d 7d88 493b b0a5 6d3c
00000080: 0cce 9b3d 186b 1ebd 1ad1 5b3d 3916 bbbd
00000090: 824d 29bc 8246 abbd 8718 d63c b22a 87bd
000000a0: 0171 7bbd 1c14 753d 1d3c 023d 2357 443d
000000b0: 06ff 7bbd 161b 52ba a73f 643c db0a c23d
000000c0: a3ed d7bb 8577 903c 8693 883d edaa c83c
000000d0: 2a79 6abc 073d b9bd d34c 93bd f5c7 743d
000000e0: 787c e23c cf54 bfbc f9f4 313b 9c6f fa3c
000000f0: 3321 fc3b 9f2c b6bb 8545 663d 1e75 2e3c
00000100: c016 07bd 68b5 aebc 38e3 743d fa58 adbd
00000110: 63b3 6abd f15d 9b3d c95b 883d 811b 92bd
00000120: 35cd 4e3d ecc5 86bd 831c 2cb9 f8dc 9e3c
00000130: a6d1 10bc 3ba9 77bc 6f73 96bd fd3e c13d
00000140: 3ce2 a93d 98c2 a9bd edb6 703b 9588 f53c
00000150: 3bc7 aa3b 09f7 40bc 6873 e93b daa1 89bd
00000160: 30b8 84bd eb80 f8bc 1601 f2bb b843 643d
00000170: e306 003b 4db4 2b3d fdd1 e43c 063b c63c
00000180: 8d04 32bc 7232 b03d b49f 183d 9099 38bd
00000190: 073a 163c 6d61 b0bc d346 053d c2a1 9a3d
000001a0: 85fa 993d 4f33 153d 9f48 45bd cdc5 03bd
000001b0: c9a8 c53d c53c e6ba 3b19 b63d 63d7 8abd
000001c0: 0451 203d 3a8f e83c daa5 96bd 139a 47bd
000001d0: d159 54bd 1af2 7fbd 1f75 843d 223b a13d
000001e0: 337e 603d 4344 af3d 7990 8c3d b2cc 95bc
000001f0: 9fa6 d93c 4602 40b9 ebb3 b73d 6d44 86bd
-0.016834857 0.09174468 -0.044250336 -0.0793735 -0.05836612 0.06021161 0.028507916 -0.047026157
-0.009076025 0.082950056 -0.061580755 0.07885255 0.064696684 0.07101343 0.048367985 -0.056376558
0.022673318 0.08712876 0.060600504 0.028717564 0.0141401375 -0.0013564336 -0.021843376 -0.021475574
-0.043799 0.08974488 -0.045114323 0.031638034 -0.05613323 0.03499438 0.003075152 0.014504835
0.0760766 -0.03867635 0.05366621 -0.09135098 -0.010333421 -0.08363058 0.026134742 -0.0659994
-0.061387066 0.05983363 0.03179561 0.047934663 -0.061522506 -0.00080149004 0.0139311915 0.09474727
-0.006589608 0.017635116 0.06668763 0.024495566 -0.014311114 -0.09044843 -0.071923874 0.059761006
0.027647242 -0.02335587 0.0027154072 0.030570798 0.0076943873 -0.0055595185 0.056218643 0.01064804
-0.03298068 -0.021326736 0.059787005 -0.084642366 -0.057299983 0.07586277 0.06658132 -0.07134152
0.05048867 -0.06580719 -0.0001641382 0.019392475 -0.008839047 -0.015116031 -0.07346236 0.09435842
0.08295104 -0.08289069 0.0036730126 0.029972354 0.0052117384 -0.011777648 0.007124353 -0.06720324
-0.064804435 -0.03033491 -0.0073853834 0.055728644 0.0019535355 0.041919995 0.027932161 0.024198066
-0.010865343 0.08603372 0.03726168 -0.045068324 0.009169108 -0.021530831 0.032538246 0.07550384
0.07518486 0.036425885 -0.04816496 -0.03217106 0.09651334 -0.0017565718 0.08891531 -0.06779363
0.039139763 0.028388608 -0.073558524 -0.04873092 -0.051843468 -0.062486745 0.064676516 0.07872607
0.054807853 0.08557942 0.068634935 -0.018286083 0.026568709 -0.00018311394 0.089698635 -0.0655602

actor.linear4.weight f4 [9, 128]
00000000: 3251 1c3d 71af ca3c 293f 54bc 6037 b2bd
00000010: 270a 59bd ae7e debc 5acd 083d 8480 86bd
00000020: 088f 523d 235d b7bc 0da5 54bc 0c0c 543d
00000030: ef3e 02bc eca1 1fbd 0a9a 8b3d 024e 493d
00000040: f262 3f3d f205 a23c e9e0 613d 9d2c 8f3d
00000050: 2d30 86bd 37e3 71bd 69ad 98bd ad26 d1bc
00000060: 3171 a2bd 8ec1 143a 5ce7 773c 6e66 26bc
00000070: 1f60 9fbd 774c b33d 03ba 58bd 5e26 ba3c
00000080: 044d 1bbd c064 7fbd a7d0 3abb 195e 6abd
00000090: 308c a83c 4a89 b0bc 6e9c 913d 78b4 6fbd
000000a0: 872b 2abd 5afd 39bd 442b 5abd 1439 36bd
000000b0: 3ca1 863d b221 3d3d bd5e 3dbd 5828 e5bc
000000c0: 73a7 363d ed1b 953d 09a1 6cbc ac10 70bd
000000d0: efb4 8fbd a962 97bd 4fc1 253d d36b a7bd
000000e0: f722 f3bc ab44 5e3d c878 af3d ebfd 433b
000000f0: 1d17 6cbd fce7 8bbd 7e22 0dbd 956d 603d
00000100: 6425 54bd 44f9 983d 463e 993c 9894 913d
00000110: d302 aebc b070 ac3d 0bb1 283d 121b 26bd
00000120: 9d0c 013d a78f 2cbd 3602 95bc c987 a03d
00000130: 014e 9a3d 2351 ae3c 09c3 9c3d c3b0 ad3d
00000140: 9699 303d 9b1c 013d 5518 623c 1ca9 243c
00000150: 1911 2a3d 8ea8 af3c 1c03 f33b d3f9 9e3d
00000160: c466 713c c1e5 923d f670 493d f86b 57bd
00000170: 49ba 223d df3b ecbb 4a7b adbd 0ee9 603d
00000180: f9cd 02ba 66b4 bfbc 892c ac3d 4897 263d
00000190: 74d3 b7bd 8eff 52bd a3d3 7d3d 4f47 ea39
000001a0: 1335 5fbd 7c74 913d 6e62 9fbd 569c 6ebd
000001b0: 7fcb 14bd 518f 5ebc 80d6 bc3d 6c5c 313d
000001c0: 9128 32bd 972c 41bb dcb1 6abd 28b3 913d
000001d0: 3fd9 8d3d 07a7 a03d 6359 41bd 821b f4bc
000001e0: def1 243d b5e5 a83c 5ca9 c6bc a882 84bd
000001f0: 49b5 ae3b d00b 68bd 3dfa 83bd b4ff 7dbd
00000200: 8941 8a3d 0c0d 323d 3c29 c33d e916 523d
00000210: 7ece a6bd 38be d63d a010 b43d ea93 2e3d
00000220: 7d7d ed3b ec5c 3abc 58cb 2d3c 589e 8f3d
00000230: f8bf 4c3d 61ae ff3b a088 c0bb d664 5d3d
00000240: 46c7 2cbd 7668 263d 80d3 f93c b9fa bd3d
00000250: 19ab 8cbd 5171 85bd 14fa 303c 728f a0bc
00000260: afb5 223d ce78 143d 425b 6f3d 65d0 0a3d
00000270: e440 4fbd 1a2b 88bc 6b87 15bd e49d c73d
00000280: 81fc ebbc 2c25 45bd 2333 d6bd 1f47 9f3d
00000290: df55 37bd c9bc 8d3c be10 193c 04e7 d93d
000002a0: d276 1c3c fabb 9dbd 28f1 693c 667b a6bd
000002b0: 00a7 e9bc 936b 92bd eeb8 1bbc f56d 633c
000002c0: 9fcc 9dbd 7c25 9ebd 15fc 3cbc 9983 bc3a
000002d0: 6dbf 783d 74f8 573d 05b0 b83d 1a0f 1d3d
000002e0: 221c 97bc 6a22 2ebb 0e4f f03c daae 613d
000002f0: 3c8f d03c 7855 843d eee7 0d3d 5615 38bd
00000300: 47e0 0bbd 18e4 af3d 53c1 6dbd 18b3 a9bd
00000310: 164d 9abd 7813 a53c f411 df3d c389 3f3d
00000320: 3be4 dd3c 6e55 06bd 916f 3cbd a506 623d
00000330: b73b 7ebd cf63 833d bf6d 763d 41de 873d
00000340: b46e 4c3d f8c6 993d 4c68 ce3c 9c5b a4bd
00000350: 596e 01bd fa87 b03d 3bb7 41bd 13a0 b8bd
00000360: cbc1 6b3d d96c 78bb 6234 c4bb 1053 90bd
00000370: b449 003d 9e73 9ebd 170e b23d 10f7 7c3d
00000380: eeac aabd 423b cabc 2a45 95bd ce33 023d
00000390: 6976 9eb9 a79b 643d 5478 90bd 7c37 b3bb
000003a0: 5e4c 34bc 44f4 11bd b7b5 3e3d 3c75 1f3d
000003b0: 8300 6a3d 57c9 c3bc a804 643c bde6 c6bd
000003c0: 727f b1b9 fd73 313d 089b d03d 363c 583d
000003d0: 10e0 9d3d 4768 0d3d c469 7fbc 0342 303c
000003e0: 0144 7e3d 729e d2bd 7fda 653d 418a a8bd
000003f0: 4233 db3b cbf1 a4bd 275e cd3d ce51 a5bc
0.03816337 0.02474186 -0.012954512 -0.08701968 -0.052988198 -0.027160015 0.033398964 -0.06567481
0.051405936 -0.022383278 -0.012978804 0.0517693 -0.007949575 -0.03897278 0.0681649 0.04914666
0.04672522 0.019778226 0.05514613 0.06990931 -0.065521576 -0.05905458 -0.0745495 -0.025531137
-0.07931746 0.0005674594 0.015130844 -0.010156257 -0.077820055 0.08754819 -0.05291177 0.022723373
-0.037915245 -0.062351942 -0.0028505714 -0.057218645 0.02057466 -0.02154984 0.07109915 -0.058521718
-0.041545417 -0.04540763 -0.053263918 -0.044488028 0.06573722 0.046174712 -0.046232928 -0.027973339
0.044593286 0.07280717 -0.014442691 -0.05860965 -0.07016932 -0.07391865 0.040467557 -0.08174863
-0.029679758 0.054264706 0.08567959 0.0029905986 -0.05763923 -0.06831357 -0.034456722 0.054792006
-0.05179347 0.07469419 0.018706452 0.0710842 -0.021241581 0.08419931 0.041184466 -0.04055316
0.03150617 -0.042129185 -0.01818953 0.07838399 0.07534409 0.021278923 0.076543875 0.0848098
0.04311522 0.03152142 0.0137997465 0.010050084 0.04152021 0.021442678 0.007416142 0.07762494
0.014733974 0.07172728 0.049179994 -0.0525932 0.039728437 -0.0072092856 -0.08470781 0.05490976
-0.0004989799 -0.02340145 0.08406932 0.040671617 -0.08975878 -0.051513247 0.06196941 0.00044685087
-0.054493975 0.07102296 -0.07782446 -0.058254562 -0.03632688 -0.013583974 0.092206 0.04330103
-0.04349572 -0.002947604 -0.057298526 0.071142495 0.06926202 0.07844358 -0.047204386 -0.029798273
0.040269725 0.020617345 -0.024250679 -0.06470233 0.0053316695 -0.05665189 -0.064442135 -0.062011436
0.06750781 0.043469474 0.09529349 0.05129138 -0.08144854 0.104855 0.087922335 0.04262153
0.0072476254 -0.011374693 0.010607563 0.070126235 0.049987763 0.00780277 -0.005875662 0.054051243
-0.04218223 0.040626965 0.030496359 0.09276337 -0.06868572 -0.06515754 0.010801811 -0.01959965
0.03972405 0.03624802 0.05843664 0.033890147 -0.050598994 -0.016622115 -0.036506098 0.09746912
-0.028806927 -0.048131153 -0.10458972 0.07777237 -0.044759627 0.017301934 0.009342371 0.10639766
0.009549813 -0.07701869 0.014278688 -0.08129005 -0.028522015 -0.071494244 -0.00950454 0.013881196
-0.07705044 -0.07721993 -0.01153471 0.0014382481 0.060729433 0.052727178 0.09017948 0.03834448
-0.018446032 -0.0026570805 0.029334571 0.055098392 0.025458924 0.06461614 0.034645014 -0.044942223
-0.034149434 0.08588427 -0.058045696 -0.082861125 -0.07534234 0.020150885 0.10892096 0.04676224
0.027086368 -0.032796316 -0.046004836 0.055182118 -0.062068667 0.06415521 0.060163256 0.066341884
0.049910262 0.075086534 0.025196217 -0.080252856 -0.031599376 0.086196855 -0.047293883 -0.09014907
0.057557862 -0.0037906675 -0.00598769 -0.07047093 0.03132029 -0.07736896 0.08694094 0.061759055
-0.08333765 -0.02468646 -0.072885826 0.031787686 -0.0003022433 0.055812504 -0.07054201 -0.0054692607
-0.0110045355 -0.03563334 0.046560016 0.038930163 0.057129394 -0.023899717 0.013917126 -0.097119786
-0.00033855025 0.043323506 0.1018582 0.052791797 0.07708752 0.034523275 -0.015589181 0.010757926
0.062076572 -0.10284127 0.056116577 -0.08229495 0.00668946 -0.08053931 0.10027724 -0.02018061

actor.linear4.bias f4 [9]
00000000: 0c38 7a3d 0c27 97bd c328 fd3c d1b1 aa3d
00000010: ebbd c73b 1d08 35bd 49fe 503d 0df9 683d
00000020: a1c5 943d
0.061088607 -0.073804945 0.030903226 0.08334697 0.006095638 -0.04419719 0.051023755 0.05687814
0.07264257

critic.linear1.weight f4 [128, 120]
00000000: d9fa 943d 8fd5 1d3e 7932 ab3d 66cb c6bc
00000010: 3a7a f9bc fcef 913d 92d8 6d3d b550 163d
00000020: 7d0b 8eba 2713 0e3e 2ca9 873d 925d d6bd
00000030: 9c88 683d bb15 acbc d2ef 95bd c9d8 a3bc
00000040: 6920 943d 2056 e3bd ef95 dc3c 0cc3 b93d
00000050: 6eed 6b3d 4af6 173d 273d 393c 6352 45bc
00000060: d5b4 ed3c e4d7 ddbc 15ee 953c b957 73bc
00000070: a9d9 02bd 2a4b 403d d05e 7c3d 331d 0bbd
00000080: 647d 6fbd bc6f 273b 30df 103e f3a3 133c
00000090: 6179 dc3d 8011 e83d 41cb dbbd 6406 4b3c
000000a0: add7 1abc 9324 7d3d 00c1 9cbd 1b43 be3d
000000b0: 001c d9bc 5f49 80bd ae30 a9bd 0a33 24bd
000000c0: 3c05 a93d 70c3 8d3d 0ff1 803d 5797 983d
000000d0: 5659 fd3c 5d2a 023d e25a b83d 3cf1 093e
000000e0: 2163 a8bd df3a 62bc 654a b9bd ab2a 9d3d
000000f0: e0bc 89bd b622 683c 5148 11bc f249 b7bd
00000100: f2a5 51bc 3cb2 febd 746a e13d dd8e 0fbd
00000110: 8c51 ee3d 7d4c 13bc 3670 943c c3fb 67bb
00000120: 1bb7 98bd 7d57 c9bd 8e26 d43c 68e3 48bd
00000130: d5b7 dfbc af87 b63d f405 dc3c 0a0d ddbc
00000140: 40c4 c7bd 386e b4bd 3d9c 81bd 3a40 cebc
00000150: ec34 ce3d 0b88 663c edb1 5bbd 02bd 843d
00000160: 16aa 86bc 0130 83bd 2524 bebd 7782 7b3d
00000170: f058 233d 5b9c 25bb 02f3 1f3d ea6d 783d
00000180: 500b 2e3d 5be4 5c3d 4e06 58bc 4c1d dcba
00000190: 1647 91bc ae4e bc3d 49c6 79bd ec69 d23c
000001a0: 68a4 e9bb 671e 9c3d d561 a7bd 7642 873d
000001b0: 843d cdbd 94aa b43d 5e71 d53d 48ff 86bc
000001c0: 6656 a93d a8d6 ecbd 4fd0 da3d 34cd 033d
000001d0: 95af 753d f426 87bd 0d54 da3d 7ff1 033e
000001e0: 9028 2dbd eb3b 4ebc 9634 9b3c f287 23bc
000001f0: eb85 093c de89 adbd c809 aa3c d3b3 6d3d
00000200: e3ef fcbb d6ba 0c3d fb8f 5fbd c023 86bc
00000210: 547e 3f3c dc33 babd f561 253e 3fc3 9a3d
00000220: 9fae 1f3d 07a4 c3bd 5ed6 6b3b af24 f83c
00000230: ea68 e73c 0412 d33d ea1b eb3d dd2d 373d
00000240: b5a9 823d c9db 1bbd 0091 8f3c 497b 8cbd
00000250: 9d66 893d 4ca9 173b 3f6c ef3d a87e ddbc
00000260: ff60 93bd 46a4 17be 5e7f fd3c 62a8 17bc
00000270: 64b2 6f3d 35af 043c 6d8e ac3d 27e8 e73d
00000280: 2e5b 7abc fd6e 37bd 19f6 183d 8ee8 793c
00000290: 6046 fcbc 08d7 293d e40d 4bbd 018b 6cbc
000002a0: 4e83 ddbd a4fd cb3d 3d38 06bd d4a0 6abd
000002b0: 5a25 db3c 988b 58bb 7e1e 093e 68de a5bb
000002c0: 560f a7bd 42e4 993d 490f a03d 2219 22bd
000002d0: f6d0 933d 2a8e a93c 69f2 bb3d 3da3 cf3c
000002e0: f9f0 f13d 85cc 9a3d e899 3fbd 9935 a1bc
000002f0: e2ca ea3d 6317 b6bb 3d87 64bd ec6c e2bb
00000300: e8de 56bd 23bc 0e3e a4aa b53d eaba 533d
00000310: e668 5b3d 1161 75bd 820d ed3d 2024 a13d
00000320: af61 42bd c25e dfbd ad9b cf3d 8456 6e3c
00000330: a364 fa3d b022 c43d a152 ecbc 215e bebc
00000340: d54e 1cbd c239 8b3d 3dbe 42bc c509 843d
00000350: ab81 cf3d da53 b4bd 7a9a 0f3d 23c8 e63c
00000360: b734 073d dce9 c4bd f56d 2abd 955b 39bc
00000370: acb5 c33b 5833 9c3d 8f6d 133e e9c1 1b3e
00000380: b7d2 a7bd 002c 01bd c760 dd3d 9d56 e43c
00000390: b1bc 443d 7fc4 623d 6560 c2bc 7024 c93d
000003a0: c1d0 9e3d 979e 173e dc3e c0bd 720b 75bd
000003b0: d842 ffbc 17b2 4b3e 462e 383d 172c b23d
000003c0: b5d6 a9bb 1c01 a5bb 24c4 32bb 2fdc fcbc
000003d0: b307 abbd d94a 413c cad6 00be 0ca3 20bd
000003e0: 5b1e 903d d85c 513d d598 b63d bd8a fd3c
000003f0: 8b6c f33c 5279 dd3c d31b 4dbd 58fd a63b
0.07274408 0.15413497 0.08359236 -0.02426691 -0.03045379 0.071258515 0.058067866 0.036698062
-0.0010837164 0.13874494 0.06624064 -0.10467066 0.056770906 -0.021006456 -0.07321133 -0.020000832
0.07232744 -0.111004114 0.026926963 0.09070405 0.057599477 0.037100114 0.011306084 -0.012043568
0.029016891 -0.027080484 0.018302003 -0.014852458 -0.03194586 0.046946682 0.061613858 -0.033963393
-0.05846919 0.0025548777 0.1414764 0.0090112565 0.10765339 0.11331463 -0.10732127 0.01239166
-0.009450835 0.061802458 -0.07653999 0.09290143 -0.02650261 -0.062639944 -0.08261238 -0.040087737
0.082529515 0.06922042 0.06295978 0.07450741 0.030926388 0.031778682 0.090017095 0.1347093
-0.08222032 -0.013807981 -0.09047393 0.07674154 -0.06725478 0.014168432 -0.008867339 -0.08949651
-0.012795912 -0.12436339 0.110066324 -0.035048354 0.116366476 -0.008990404 0.018119913 -0.0035397864
-0.074567996 -0.0983114 0.02589729 -0.049044997 -0.027309338 0.08912598 0.026858307 -0.026983757
-0.097542286 -0.08810085 -0.06328628 -0.02517711 0.10068688 0.014070521 -0.05363648 0.06481363
-0.016438525 -0.064056404 -0.09284238 0.061403718 0.03987974 -0.0025270197 0.03905011 0.060651697
0.042491257 0.053928714 -0.013185097 -0.0016793399 -0.017734092 0.091946945 -0.060980115 0.025685273
-0.0071301945 0.07622986 -0.08172957 0.06604473 -0.10021499 0.08821598 0.10422014 -0.01647915
0.08268432 -0.1156438 0.10684263 0.03217812 0.0599819 -0.065992266 0.10660563 0.12885092
-0.04227501 -0.012587528 0.018945973 -0.009981142 0.008393745 -0.08473562 0.020756617 0.058032822
-0.0077190264 0.034357868 -0.05458067 -0.016374469 0.011687834 -0.09091923 0.16150649 0.075567715
0.03898489 -0.0955277 0.0035985927 0.03029093 0.02824827 0.103061706 0.114799336 0.044721473
0.06380025 -0.0380514 0.017525196 -0.06859452 0.06709025 0.002314168 0.11690568 -0.027037933
-0.07196235 -0.14808759 0.030944522 -0.009256454 0.058519736 0.008098413 0.08425603 0.113235764
-0.015280528 -0.04478358 0.037344072 0.015253199 -0.030795276 0.041464835 -0.049573794 -0.014437438
-0.1081606 0.099604875 -0.032768477 -0.057282284 0.026751209 -0.0033042189 0.13390538 -0.0050619133
-0.08157222 0.0751424 0.078154154 -0.03957475 0.072175905 0.020697672 0.091770954 0.025346393
0.1181354 0.0755854 -0.046777636 -0.019678878 0.11464478 -0.005556987 -0.055793036 -0.006909957
-0.052458674 0.13938956 0.08870438 0.051691927 0.053566836 -0.059907023 0.11574842 0.078682184
-0.04745644 -0.109067455 0.10137115 0.014546994 0.12226226 0.095769286 -0.028847994 -0.023238244
-0.038161118 0.06798126 -0.011886177 0.06447176 0.10132154 -0.08805056 0.03505943 0.028171604
0.033009257 -0.09614918 -0.04160877 -0.011313339 0.0059725847 0.076269805 0.14397262 0.1521069
-0.081944875 -0.031536102 0.108094744 0.027873332 0.048031513 0.055363175 -0.023727605 0.09821403
0.077546604 0.14806591 -0.093869895 -0.05982537 -0.031159803 0.19892155 0.044966005 0.08699816
-0.005183066 -0.0050355326 -0.0027277553 -0.03086671 -0.08351078 0.01179763 -0.12581936 -0.039217994
0.0703704 0.051113933 0.08915869 0.030949945 0.029714843 0.02703539 -0.050075363 0.005096119

critic.linear1.bias f4 [128]
00000000: 3676 123d 6431 683d f4e6 9c3c 571b f9bd
00000010: 7a16 e83d 7abd 013d 6974 9d3d bb9a e6bd
00000020: 2ec3 ab3d de3c 33bd cccc 9e3c fa8e c73d
00000030: b037 123b 44fc 1bbc f673 f73d 16b7 d03d
00000040: 82ac 15bd d00d 1b3e 77d8 1b3d 030c 35bc
00000050: 5b5b ff3d 7ff8 68bc 6fae e13d 6309 77bd
00000060: f761 30bc 2327 54bd 3bce b6bc 1d5d c9bd
00000070: f5a2 1c3c ef05 e23d 0cd9 e6bc 20a4 dc3c
00000080: b32c 083c 1d41 64bd 8736 bebd 8c65 5cbd
00000090: 62be da3c 6215 dc3c 7c73 073e c5be 08be
000000a0: 0f44 cf3c a1a3 02be 7e17 8ebd 1c5d 953c
000000b0: 89d7 173d 9d68 1cbd 9302 e73d 686e 2bbc
000000c0: 4f17 f1bd 0c1a 7c3c 3ae1 113d a082 2d3d
000000d0: 8ff3 44bc ffb4 703d 51d8 e7bc 76b1 dfbc
000000e0: 49d9 d23d 276a 02bd 74e7 e53d f0d6 20bc
000000f0: ee65 67bc 716c 0b3d 4311 b7bd 0622 b43c
00000100: f7bd 4c3c 236a 043e 46f7 e6bd 8788 5fbd
00000110: f098 fd3d ea95 e93d dc16 803d f76e 2a3d
00000120: 4f43 eabd edd5 053d 3652 193c 6ae1 683b
00000130: aa07 fb3d bb8f 043d 8e30 253d c59a f5bd
00000140: a4cf cebd b283 d63d 74ff fb3d 6e62 17be
00000150: 2f64 163d 016d 133e 74df 8fbd cb9c 433d
00000160: c0a4 a3bd 20c8 143b cf8f 1c3e cc3c 813d
00000170: 273a b0bd 04cd 123e a5bc cebc fabe 033e
00000180: bd87 123e 1cb0 eabc f625 babd 124d 01be
00000190: aeb1 c03d 725a 0cbe 5b73 063d 3ca9 1ebc
000001a0: 6ad5 47bc e114 2b3e 335d 8fbd 3d17 b73d
000001b0: b0fc 25bc 1986 14bc 10b2 d83d b8dc ecbc
000001c0: 5a1a 9b3b ae9f 66bc 6747 333d c2d4 16bd
000001d0: 70ed 063e 444a 173e bd89 e13d fb91 1a3e
000001e0: 9814 5f3c fdaf 743d e441 bdbd 009e 2bbd
000001f0: 37c1 f7bc 9e34 edbc 1d85 873d e54a 0a3e
0.035757266 0.056687728 0.019153096 -0.12163418 0.11332412 0.03167484 0.07688219 -0.11259981
0.08386837 -0.04375922 0.019384764 0.097440675 0.0022311024 -0.009520594 0.12082665 0.10191171
-0.03654147 0.15141988 0.038048234 -0.011050227 0.124685965 -0.014219402 0.11019599 -0.060311686
-0.010765544 -0.051795136 -0.022315135 -0.09832213 0.009560336 0.11036288 -0.028179668 0.02693373
0.008311438 -0.05572616 -0.09287744 -0.05380778 0.02670211 0.026865665 0.13227648 -0.13354023
0.025301008 -0.12757732 -0.069380745 0.018232875 0.037070785 -0.038185704 0.11279788 -0.010463335
-0.11772024 0.015387069 0.035615183 0.0423609 -0.0120209595 0.05876636 -0.02830139 -0.0273063
0.1029535 -0.031839516 0.11225787 -0.00981687 -0.014123423 0.034038965 -0.08938839 0.02198888
0.012496463 0.12931113 -0.112776324 -0.054573562 0.12382686 0.11405547 0.0625436 0.04160973
-0.11438619 0.03267472 0.0093579795 0.0035534748 0.12257321 0.032363635 0.04032951 -0.119924106
-0.10098198 0.10474338 0.12304583 -0.14783642 0.036716636 0.1439705 -0.07025042 0.04775695
-0.07990408 0.0022702292 0.15289234 0.06310424 -0.08604842 0.1433602 -0.025236437 0.1286582
0.14309593 -0.028648429 -0.09089272 -0.12627056 0.0940889 -0.13706377 0.032824855 -0.009683903
-0.012196878 0.16707183 -0.07000198 0.08939979 -0.010131046 -0.0090651745 0.10580838 -0.02891384
0.004733366 -0.014076157 0.043769266 -0.036823995 0.13176513 0.14774424 0.110125996 0.1509475
0.01361575 0.059738148 -0.09241083 -0.041898727 -0.0302435 -0.028955754 0.06617186 0.13505132
