landing_falcon_raw_ckpt/ckpt_00002601.pt (torch, 539447 bytes, 15 tensors)

actor.linear1.weight f4 [128, 120]
-0.043817326 -0.06792733 -0.058948226 0.05240334 -0.06461184 -0.0028206774 0.027022887 -0.06565909
0.051641088 0.07099697 -0.026717668 0.060788922 0.08982671 -0.0824715 0.06888736 0.07688095
0.058347095 0.00808348 -0.058697756 0.06245432 0.077633925 0.009107677 0.032279316 0.07019703
-0.0721722 -0.029660616 -0.017357603 -0.07543026 -0.08364675 0.01739451 -0.054501787 -0.039990313
-0.039091926 0.01969785 -0.026565794 -0.008672456 0.0026024126 0.038201906 0.09006893 0.07132414
0.07648316 -0.04854841 0.08277194 -0.058626246 0.07382447 -0.057243623 -0.02467604 -0.07659267
0.07787138 -0.018991744 -0.054540023 -0.036072515 -0.08259117 -0.03578231 -0.019977517 -0.020685807
-0.051133554 0.009498588 -0.063712716 -0.038528137 0.0072832745 0.07687046 0.029820196 0.014248246
0.073592976 0.0031231036 0.04891845 -0.078757726 0.023807522 0.07257474 0.058186833 -0.016121645
0.009691482 -0.07608914 0.013996006 0.055411298 -0.014472078 0.051807445 -0.0003035791 -0.076724485
0.056852862 0.028840102 -0.07390946 0.06151777 -0.09280536 -0.008035839 0.008783499 0.048275057
-0.0027787508 0.03892766 0.0017513691 0.04107893 0.033733193 0.069541 0.0036276751 -0.09512208
-0.039442956 0.011593361 0.07208063 0.08656382 -0.007306409 -0.06472363 0.02098618 -0.0022640734
-0.07062738 -0.044774015 -0.031932928 -0.07615573 -0.060341705 0.03284146 0.04450041 -0.04413672
-0.06917474 0.0014777675 0.037836608 -0.03780298 0.0561681 -0.018911703 -0.038312614 0.075797
0.090135746 0.08567239 0.054630335 0.07468972 -0.047338337 -0.069905885 0.05744286 0.07336407
-0.060925428 -0.028318757 0.0533991 0.05864939 -0.01828117 0.0016673595 -0.057480343 -0.029204119
0.021583294 -0.07874186 -0.00097367325 -0.05553704 0.068229005 -0.04051793 -0.009819238 0.0878306
0.04280735 -0.05566102 0.06037582 0.0884018 0.01196945 -0.0097809825 0.0049997275 0.051505245
0.048615832 0.07544425 -0.055176914 0.07319363 0.09209627 -0.05387786 -0.052054655 -0.039063625
0.009833304 -0.05758401 -0.08073926 0.0017510953 0.017283946 0.044956595 -0.06973113 0.017327258
0.028263733 -0.06307357 0.03345392 0.08241051 -0.07918092 0.0662185 -0.051928576 -0.08113521
0.074869394 0.0122721465 0.03618855 0.07422657 0.016754178 -0.07916604 0.08126421 0.031258505
0.05053857 0.071767226 0.06323335 -0.044136368 0.089529164 0.028152555 -0.058786344 0.099878944
0.035422444 -0.01199156 -0.04070077 0.0384087 0.07871724 0.043369923 -0.055245683 0.052763227
0.048554964 -0.05290981 0.033854935 -0.040285002 0.057415012 0.003135806 0.059536476 -0.014828494
-0.055558395 -0.04632055 0.0011401731 9.6746495e-05 0.07300588 0.027522396 0.061153553 -0.03427231
-0.016604012 -0.030317487 -0.08518557 0.003568021 0.047090583 0.05520915 -0.030703634 -0.007789495
-0.022845902 -0.02160677 0.042944476 0.007961424 -0.056729022 -0.058476914 0.0506486 0.09725469
-0.06658832 0.03605454 -0.016269775 -0.029263252 -0.061934836 -0.024012221 0.04106342 0.061468177
0.06886299 -0.061103366 -0.05237405 -0.07761497 -0.07810105 -0.07574059 -0.07815237 0.02564104
-0.06298042 -0.067860916 0.044123694 -0.0035278709 0.05772563 -0.057854973 -0.044279277 0.027223472
00000000: cc79 33bd 7c1d 8bbd b273 71bd e2a4 563d
00000010: 3653 84bd 1ddb 38bb 1a5f dd3c 4678 86bd
00000020: 9b85 533d dc66 913d 03df dabc cefd 783d
00000030: 11f7 b73d d1e6 a8bd d114 8d3d c273 9d3d
00000040: 5dfd 6e3d 9370 043c 0f6d 70bd 1ad0 7f3d
00000050: 89fe 9e3d 5e38 153c 5137 043d 76c3 8f3d
00000060: 05cf 93bd d2fa f2bc 8831 8ebc 2e7b 9abd
00000070: fd4e abbd ee7e 8e3c 443d 5fbd e2cc 23bd
00000080: db1e 20bd 635d a13c 82a0 d9bc eb16 0ebc
00000090: 3d8d 2a3b 9a79 1c3d 0f76 b83d 6412 923d
000000a0: 34a3 9c3d b3da 46bd 5684 a93d 1322 70bd
000000b0: 4931 973d 4a78 6abd 6825 cabc 9edc 9cbd
000000c0: 087b 9f3d 9394 9bbc 5c65 5fbd c6c0 13bd
000000d0: 8f25 a9bd 7990 12bd e4a7 a3bc 4875 a9bc
000000e0: 6b71 51bd f79f 1b3c d07b 82bd aecf 1dbd
000000f0: 89a8 ee3b 426e 9d3d 7c49 f43c 7a71 693c
00000100: eab7 963d fcac 4c3b b65e 483d bb4b a1bd
00000110: fe07 c33c 11a2 943d 5155 6e3d 8a11 84bc
00000120: 06c9 1e3c 9fd4 9bbd 814f 653c f5f6 623d
00000130: 4b1c 6dbc 0b34 543d b229 9fb9 ba21 9dbd
00000140: 8cde 683d 1442 ec3c d85d 97bd 0ffa 7b3d
00000150: bd10 bebd c0a8 03bc aae8 0f3c 11bc 453d
00000160: b41b 36bb 9c72 1f3d 328e e53a 6142 283d
00000170: d12b 0a3d 836b 8e3d 4abe 6d3b 5dcf c2bd
00000180: f08e 21bd 15f2 3d3c 029f 933d 5f48 b13d
00000190: 9a6a efbb d38d 84bd 36eb ab3c d960 14bb
000001a0: 16a5 90bd f564 37bd 1acc 02bd 89f7 9bbd
000001b0: dd28 77bd c484 063d 1046 363d b5c8 34bd
000001c0: 7cab 8dbd a6b1 c13a 8ffa 1a3d 4cd7 1abd
000001d0: 8610 663d b7ec 9abc b0ed 1cbd 753b 9b3d
000001e0: 1799 b83d 0275 af3d 0fc4 5f3d edf6 983d
000001f0: d8e5 41bd d12a 8fbd 3449 6b3d e73f 963d
00000200: f18c 79bd bdfc e7bc 04b9 5a3d 583a 703d
00000210: 64c2 95bc 4d8b da3a 8270 6bbd 7a3d efbc
00000220: 73cf b03c 6a43 a1bd 1b3e 7fba cf7a 63bd
00000230: a6bb 8b3d 21f6 25bd dfe0 20bc 88e0 b33d
00000240: c356 2f3d cffc 63bd a34c 773d 010c b53d
00000250: 831b 443c 6a40 20bc c1d4 a33b 2af7 523d
00000260: 6521 473d 8482 9a3d 3001 62bd 8be6 953d
00000270: f89c bc3d 08af 5cbd 4337 55bd 2e01 20bd
00000280: de1b 213c 36dd 6bbd a05a a5bd 0285 e53a
00000290: 1097 8d3c 6824 383d 32cf 8ebd e5f1 8d3c
000002a0: 5889 e73c b72c 81bd fa06 093d d7c6 a83d
000002b0: 9b29 a2bd 919d 873d 0fb3 54bd 382a a6bd
000002c0: 2055 993d 1d11 493c 723a 143d 1a04 983d
000002d0: 0f40 893c ce21 a2bd da6d a63d eb08 003d
000002e0: 8801 4f3d b2fa 923d 7d80 813d 56c8 34bd
000002f0: 115b b73d 30a0 e63c f3c9 70bd 558d cc3d
00000300: 2017 113d 4078 44bc dab5 26bd 7152 1d3d
00000310: 8136 a13d a9a4 313d 4c49 62bd 411e 583d
00000320: 92e1 463d f5b7 58bd 79ab 0a3d e301 25bd
00000330: 012c 6b3d 1882 4d3b 85dc 733d 36f3 72bc
00000340: 3391 63bd 9eba 3dbd dc71 953a 61e4 ca38
00000350: 1b84 953d a676 e13c 267c 7a3d 1f61 0cbd
00000360: 2305 88bc 615c f8bc c675 aebd 76d5 693b
00000370: 0ee2 403d fd22 623d 3086 fbbc 053f ffbb
00000380: 5427 bbbc ae00 b1bc 8ce6 2f3d a270 023c
00000390: b15c 68bd 7d85 6fbd e874 4f3d 782d c73d
000003a0: 755f 88bd edad 133d 3148 85bc 7db9 efbc
000003b0: 62af 7dbd 47b5 c4bc 1e32 283d 0ec6 7b3d
000003c0: 0a08 8d3d 8647 7abd 2c86 56bd 99f4 9ebd
000003d0: 71f3 9fbd e21d 9bbd 5a0e a0bd 290d d23c
000003e0: e1fb 80bd aafa 8abd 0cbb 343d da33 67bb
000003f0: b671 6c3d 56f9 6cbd 305e 35bd c203 df3c

actor.linear1.bias f4 [128]
0.078168586 0.01757965 0.015285945 0.04965736 -0.084681876 -0.0030705924 0.034033 0.07313466
0.083250016 0.036442153 -0.04658517 0.04438962 0.08693926 -0.041542105 -0.015878819 0.03450766
0.004953488 -0.081895135 -0.0405093 -0.033937495 -0.06549842 0.06149732 -0.09064273 0.0007152906
0.05290509 -0.0033398583 0.006795791 0.04341539 0.093645155 -0.0006565818 0.00025203236 0.062922664
0.05389801 0.056865085 0.036968052 0.059410516 0.09625977 -0.055485405 -0.008831097 0.030407423
0.0009782208 0.052826315 -0.030874837 0.03572059 0.024399871 -0.040910304 0.06006628 -0.06371375
-0.07671216 0.03957122 0.033162206 0.0546255 -0.037925065 0.08849584 0.006894027 0.036787283
-0.07317795 -0.077494085 0.011121701 -0.0653702 0.070822746 0.0118999025 0.062543824 0.0697335
0.07632468 -0.01872312 -0.00015665726 -0.028851377 -0.08519375 -0.01347795 -0.05654324 -0.07452791
-0.022243839 0.055528857 -0.01175551 0.029731683 0.08688553 0.07476476 0.061690923 -0.027456898
-0.052832007 0.045121465 0.06744441 -0.07523869 -0.061658416 -0.0476184 -0.007261913 -0.06714189
0.031003756 -0.073829055 0.030013865 -0.030005528 -0.075098984 -0.07067439 -0.005229437 0.043003768
-0.065873526 -0.045893952 0.0820697 -0.07015983 0.012780405 -0.039613508 0.029171988 -0.0056737117
-0.07471022 -0.011398033 0.03308681 -0.000923735 -0.046376754 0.007858261 -0.043132704 -0.04086593
-0.010441375 0.0350757 0.006806617 0.069084905 -0.08243243 -0.017186126 0.047772724 -0.027102062
0.074659675 -0.004065511 0.082685 0.059646815 0.010814323 0.02577172 -0.07446864 -0.031017996
00000000: da16 a03d 3303 903c e671 7a3c 8465 4b3d
00000010: b16d adbd fe3b 49bb 3066 0b3d a0c7 953d
00000020: fc7e aa3d 5e44 153d 17d0 3ebd e4d1 353d
00000030: 360d b23d 0e28 2abd 4c14 82bc e757 0d3d
00000040: de50 a23b a3b8 a7bd 14ed 25bd 0b02 0bbd
00000050: 0924 86bd 9de4 7b3d e5a2 b9bd 5782 3b3a
00000060: 02b3 583d 86e1 5abb 3aaf de3b 56d4 313d
00000070: 08c9 bf3d 751e 2cba 3623 8439 99dd 803d
00000080: 29c4 5c3d 5deb 683d d06b 173d 7158 733d
00000090: d823 c53d aa44 63bd 4eb0 10bc fd18 f93c
000000a0: a537 803a 6860 583d 3aed fcbc c14f 123d
000000b0: 3de2 c73c 9091 27bd 0f08 763d 5b7c 82bd
000000c0: 441b 9dbd 6e15 223d 18d5 073d fdbe 5f3d
000000d0: 5057 1bbd 4f3d b53d 4ae7 e13b 43ae 163d
000000e0: 52de 95bd 38b5 9ebd cc37 363c d0e0 85bd
000000f0: 840b 913d cff7 423c fa16 803d 70d0 8e3d
00000100: 1d50 9c3d 3b61 99bc 5d44 24b9 b959 ecbc
00000110: 107a aebd 9fd2 5cbc e299 67bd 17a2 98bd
00000120: b638 b6bc 3a72 633d 2f9a 40bc dc8f f33c
00000130: 0af1 b13d 441e 993d 9faf 7c3d 4aed e0bc
00000140: 6066 58bd 49d1 383d 4b20 8a3d be16 9abd
00000150: 898d 7cbd 830b 43bd 57f5 edbb b081 89bd
00000160: 97fb fd3c b033 97bd a3df f53c 27ce f5bc
00000170: 7fcd 99bd bcbd 90bd b25b abbb b824 303d
00000180: b3e8 86bd 4cfb 3bbd 2914 a83d f5af 8fbd
00000190: e764 513c c641 22bd 18fa ee3c 8bea b9bb
000001a0: ac01 99bd d1be 3abc 0986 073d ce26 72ba
000001b0: 8df5 3dbd efbf 003c ebab 30bd 0963 27bd
000001c0: 4d12 2bbc 8aab 0f3d 0b0a df3b 637c 8d3d
000001d0: 55d2 a8bd ebc9 8cbc 55ad 433d 2505 debc
000001e0: 2ce7 983d fa37 85bb c156 a93d 3850 743d
000001f0: 8f2e 313c 371f d33c 0483 98bd 7419 febc

actor.linear2.weight f4 [128, 128]
-0.08581291 -0.0028322504 -0.03554494 0.07823899 -0.076405354 -0.076496184 0.0063550696 0.027271228
0.016181761 -0.087919936 -0.023112044 -0.078264214 0.06800827 0.01292752 0.050733063 -0.034017116
-0.033657342 -0.06765602 0.027944384 0.0839369 0.05841761 -0.07520898 0.042845823 0.065862164
-0.05631698 -0.07846403 -0.0045266123 0.075393036 0.07049045 -0.041447584 0.009811458 -0.058244083
-0.049144108 -0.050055634 -0.054724097 -0.039442375 0.021363128 -0.03911031 -0.06352218 0.052331094
-0.02804862 0.056640454 0.02684741 0.061209146 0.049093213 -0.0011585542 0.08771081 0.050709486
-0.02971321 -0.04217324 -0.07489957 -0.043210085 0.0020218873 -0.0050289426 -0.021739313 -0.029325744
0.04533385 -0.0070648054 0.035214107 0.037532967 -0.03407407 0.07211142 -0.064656444 -0.0663062
-0.024284624 -0.011567723 0.09121074 0.004361181 0.054311633 0.043488063 -0.07331478 0.07710789
0.07039986 -0.003370043 0.023375442 -0.014636637 0.026864037 -0.030679725 0.056872584 -0.060991284
0.007355259 -0.038118586 -0.00037506397 -0.063195005 -0.05769485 0.035940178 -0.0622001 -0.049125966
0.0036152464 0.010604466 -0.05024259 -0.02140116 -0.034263186 0.04578999 0.035200745 -0.005487382
0.005232515 0.030824143 -0.0775174 -0.016867967 0.07558088 -0.075070195 -0.08377629 0.06252922
-0.056620028 -0.071494274 0.07344793 -0.0049159853 -0.08949272 0.08429442 -0.009671466 0.030400123
-0.023716515 -0.043710582 0.03438012 -0.004395539 0.014633795 -0.08365131 0.075295284 0.05867787
0.082893245 0.07834102 -0.039556682 -0.0066929595 0.0690585 -0.01704959 -0.072546296 -0.0147538595
0.08976157 -0.016772924 -0.06195349 0.016102452 0.056358267 0.054731097 0.014225685 0.04719571
0.016385788 0.04572728 -0.081090294 0.021186179 -0.022887362 0.03051747 -0.036933377 0.03848441
-0.070919126 -0.0954381 0.03445689 -0.027938524 -0.06774228 0.044891603 0.07551441 0.01449816
-0.08021955 -0.024133395 0.07039487 0.052519444 0.04320084 0.021088867 0.06676008 0.07754274
-0.08148865 -0.087879986 -0.023897199 -0.004760679 -0.05250787 0.0018314484 0.07169513 -0.011588351
-0.012163349 0.007421581 0.05141558 -0.0710555 0.008864677 -0.03969875 0.0825505 -0.066449896
-0.023020186 0.06597883 0.06265868 0.04623984 0.058535628 0.008676614 -0.042625684 -0.06816079
0.001953942 -0.056262355 -0.027186323 0.08668599 -0.015109342 0.05525489 0.058330037 -0.003029562
0.04377347 0.043907225 0.052322745 -0.010192044 -0.0030179415 -0.061493993 0.06802602 0.059440486
0.04862486 0.063887686 -0.06760104 -0.06788434 0.08204978 0.013968662 0.03473834 0.009701276
0.050064422 -0.017027209 -0.006702878 0.0757232 -0.025451737 0.07170519 0.045945115 0.007241076
-0.007973207 0.06281755 -0.007422888 -0.027078126 0.09333178 0.09376964 0.08011708 -0.064611286
-0.014470951 0.029549262 -0.013570178 0.026606807 -0.03552486 -0.061572894 0.06427646 0.06974718
0.0726588 -0.06923317 -0.0380518 -0.008268406 0.030590653 -0.0002067246 0.032068595 0.03889395
-0.0789575 0.050635386 -0.016087726 -0.0733324 0.08456927 0.08213706 -0.08800011 0.010346252
-0.07289521 0.046294447 0.053859927 -0.06142322 0.024224037 -0.010264127 0.09055688 0.03228974
00000000: aebe afbd 479d 39bb 9297 11bd c33b a03d
00000010: 697a 9cbd 08aa 9cbd 303e d03b e967 df3c
00000020: 9d8f 843c 5e0f b4bd 7855 bdbc fd48 a0bd
00000030: eb47 8b3d f3cd 533c 79cd 4f3d 8855 0bbd
00000040: 48dc 09bd 3d8f 8abd 9feb e43c 1ce7 ab3d
00000050: 4e47 6f3d 2a07 9abd 1a7f 2f3d bee2 863d
00000060: a2ac 66bd c0b1 a0bd fa53 94bb aa67 9a3d
00000070: 4c5d 903d f1c4 29bd 3dc0 203c 5991 6ebd
00000080: 554b 49bd 2307 4dbd 6026 60bd 548e 21bd
00000090: ba01 af3c 2232 20bd eb17 82bd 2159 563d
000000a0: 38c6 e5bc d2ff 673d 19ef db3c 71b6 7a3d
000000b0: f715 493d a1da 97ba baa1 b33d c0b4 4f3d
000000c0: 1e69 f3bc d9bd 2cbd f264 99bd 0ffd 30bd
000000d0: a481 043b d4c9 a4bb a516 b2bc 8b3c f0bc
000000e0: fdaf 393d e27f e7bb ab3c 103d 2bbc 193d
000000f0: 4191 0bbd 27af 933d 996a 84bd 8ccb 87bd
00000100: 8cf0 c6bc 8c86 3dbc b2cc ba3d 3de8 8e3b
00000110: e075 5e3d 8a20 323d 0f26 96bd beea 9d3d
00000120: cd2d 903d f0db 5cbb db7d bf3c 81ce 6fbc
00000130: f811 dc3c 0c54 fbbc 3af3 683d ffd1 79bd
00000140: 6204 f13b 3c22 1cbd 3ca4 c4b9 626c 81bd
00000150: 6f51 6cbd 0236 133d 88c5 7ebd 4f38 49bd
00000160: c5ed 6c3b 5bbe 2d3c 2dcb 4dbd 7c51 afbc
00000170: 8e57 0cbd 498e 3b3d a82e 103d 7fcf b3bb
00000180: 8475 ab3b ea82 fc3c 71c1 9ebd b12e 8abc
00000190: 26ca 9a3d 67be 99bd e792 abbd 520f 803d
000001a0: 67ea 67bd 976b 92bd de6b 963d 4616 a1bb
000001b0: f647 b7bd 8ea2 ac3d 1275 1ebc ae09 f93c
000001c0: 2349 c2bc de09 33bd 2bd2 0c3d 7408 90bb
000001d0: 96c2 6f3c 6151 abbd 6a34 9a3d 3558 703d
000001e0: efc3 a93d 4271 a03d 3006 22bd 9d50 dbbb
000001f0: 8b6e 8d3d 95ab 8bbc 2793 94bd 2cba 71bc
00000200: ead4 b73d 5f67 89bc f1c2 7dbd 4ae9 833c
00000210: edd7 663d b72d 603d d912 693c 4a50 413d
00000220: 7d3b 863c 874c 3b3d ab12 a6bd a38e ad3c
00000230: 477e bbbc c6ff f93c 7447 17bd d4a1 1d3d
00000240: 0c3e 91bd 0d75 c3bd ab22 0d3d 55df e4bc
00000250: 77bc 8abd 42e0 373d 4da7 9a3d b189 6d3c
00000260: 264a a4bd 66b3 c5bc 302b 903d a11e 573d
00000270: 5df3 303d 8fc2 ac3c 82b9 883d bace 9e3d
00000280: 85e3 a6bd 6cfa b3bd 0fc4 c3bc 78ff 9bbb
00000290: 7e12 57bd 360d f03a e5d4 923d 11dd 3dbc
000002a0: c948 47bc bc30 f33b 2599 523d 8c85 91bd
000002b0: 263d 113c 289b 22bd 3d10 a93d e216 88bd
000002c0: d494 bcbc e91f 873d 3253 803d fd65 3d3d
000002d0: 0ec3 6f3d 5b28 0e3c 4598 2ebd e297 8bbd
000002e0: b50d 003b 5b73 66bd dab5 debc 6d88 b13d
000002f0: 2c8d 77bc f452 623d 7aeb 6e3d 9e8b 46bb
00000300: cf4b 333d 10d8 333d 6050 563d 88fc 26bc
00000310: a8c8 45bb 20e1 7bbd 3a51 8b3d de77 733d
00000320: dc2a 473d 8cd7 823d 6a72 8abd f206 8bbd
00000330: b709 a83d d1dc 643c ca49 0e3d 1af2 1e3c
00000340: 5a10 4d3d a57c 8bbc d1a3 dbbb c414 9b3d
00000350: 2980 d0bc 2cda 923d f230 3c3d 8c46 ed3b
00000360: 0ea2 02bc 7da6 803d b33b f3bb f2d2 ddbc
00000370: bb24 bf3d 4c0a c03d 6c14 a43d ec52 84bd
00000380: 9117 6dbc 4b11 f23c 7455 5ebc 85f6 d93c
00000390: 8482 11bd dc33 7cbd 60a3 833d 9cd7 8e3d
000003a0: 23ce 943d 1fca 8dbd 34dc 1bbd 3578 07bc
000003b0: 4099 fa3c 36c4 58b9 5c5a 033d 434f 1f3d
000003c0: 78b4 a1bd 0d67 4f3d 68ca 83bc 4c2f 96bd
000003d0: a732 ad3d 7a37 a83d 6739 b4bd 5383 293c
000003e0: 154a 95bd 3f9f 3d3d 3a9c 5c3d ea96 7bbd
000003f0: 7d71 c63c de2a 28bc e375 b93d 3f42 043d

actor.linear2.bias f4 [128]
0.04998312 -0.04344354 -0.046572223 -0.042160805 0.004485856 0.00051700656 0.034206524 0.023294251
-0.0788225 -0.009804606 -0.061758675 -0.06534904 -0.07977866 0.033832215 0.03970699 0.08386197
-0.059203 -0.016903695 -0.075778276 0.04580329 0.07555979 0.014807105 -0.07700238 -0.008037763
0.050448142 -0.054661486 -0.03196001 0.06459839 -0.066231444 -0.058554128 0.044906784 0.036885533
0.02758232 0.048644837 -0.06983755 0.012361986 0.04549907 -0.03747355 0.0815314 0.044866037
-0.032039322 0.011703229 -0.008933248 -0.0040160757 -0.063540086 0.0038856822 -0.02959919 0.055937428
0.072761536 -0.06621512 0.050188057 0.02905325 0.08686212 -0.030327339 -0.049589 -0.027525404
0.08745658 0.0061574187 -0.07392798 0.019485723 -0.009263321 -0.061397344 -0.0135909375 0.08012755
-0.066841595 0.06905104 0.047957566 0.08075012 -0.05447376 0.022776539 0.021307942 -0.0059815957
-0.044725414 0.022215482 -0.010447818 0.033856135 -0.00024935868 -0.017503131 -0.08028653 -0.010142298
0.06853748 -0.0040142727 0.0725078 0.011943271 -0.046844948 -0.0024097722 0.011609773 0.037592404
-0.033947382 0.07388982 -0.037069455 0.049337775 -0.024967635 -0.026195949 0.090036646 -0.024667978
0.0395778 0.05307471 -0.027664207 -0.053860217 -0.05382098 0.08032154 0.027975366 0.075786315
0.051853348 -0.042875305 0.02646534 0.06606069 0.065567575 0.002360951 0.06414198 0.06117409
0.07984899 -0.056037523 0.09060113 -0.055959795 -0.045513958 0.005778709 -0.03818511 -0.0002458302
-0.073056154 -0.04933389 -0.056423936 0.030007426 -0.038922492 -0.034605745 0.056844078 0.06311756
00000000: 1abb 4c3d daf1 31bd 84c2 3ebd cfb0 2cbd
00000010: 16fe 923b b987 073a 241c 0c3d 96d3 be3c
00000020: b16d a1bd 80a3 20bc aaf6 7cbd b8d5 85bd
00000030: fe62 a3bd a693 0a3d cca3 223d d3bf ab3d
00000040: d87e 72bd 9e79 8abc a431 9bbd 3b9c 3b3d
00000050: 17bf 9a3d 8099 723c 6cb3 9dbd d2b0 03bc
00000060: b6a2 4e3d b9e4 5fbd 80e8 02bd 294c 843d
00000070: 5aa4 87bd 74d6 6fbd 2df0 373d 4915 173d
00000080: 51f4 e13c cf3f 473d fd06 8fbd ed89 4a3c
00000090: 3c5d 3a3d dd7d 19bd eff9 a63d 73c5 373d
000000a0: aa3b 03bd e6be 3f3c c25c 12bc 4999 83bb
000000b0: 4e21 82bd eea6 7e3b 007a f2bc a51e 653d
000000c0: 0004 953d cb9b 87bd fe91 4d3d 1501 ee3c
000000d0: c4e4 b13d 0a71 f8bc d61d 4bbd f57c e1bc
000000e0: 6f1c b33d 2cc4 c93b 8e67 97bd 86a0 9f3c
000000f0: 2fc5 17bc c87b 7bbd 86ac 5ebc ea19 a43d
00000100: 3fe4 88bd a26a 8d3d 276f 443d 5260 a53d
00000110: e11f 5fbd dd95 ba3c fe8d ae3c 4301 c4bb
00000120: ff31 37bd 3efd b53c 532d 2bbc bbac 0a3d
00000130: 5bbc 82b9 ba62 8fbc 446d a4bd e22b 26bc
00000140: 615d 8c3d 298a 83bb f87e 943d b6ad 433c
00000150: 7de0 3fbd 45ed 1dbb eb36 3e3c 7efa 193d
00000160: 690c 0bbd 8c53 973d 24d6 17bd 6816 4a3d
00000170: ed88 ccbc e398 d6bc 2265 b83d 8014 cabc
00000180: 551c 223d de64 593d 0ca0 e2bc 889c 5cbd
00000190: 6373 5cbd 9f7f a43d 982c e53c db35 9b3d
000001a0: 2d64 543d 049e 2fbd d7cd d83c d44a 873d
000001b0: 4b48 863d 2fba 1a3b df5c 833d af91 7a3d
000001c0: de87 a33d 9a87 65bd 168d b93d 1936 65bd
000001d0: d86c 3abd 535b bd3b fd67 1cbd c5e2 80b9
000001e0: 779e 95bd 5512 4abd c91c 67bd 22d2 f53c
000001f0: 316d 1fbd c1be 0dbd 56d5 683d c843 813d

actor.linear3.weight f4 [128, 128]
-0.084616005 -0.07073811 -0.020268444 -0.03952667 0.013693387 0.053158958 -0.063735865 0.08121783
-0.083447486 0.06446941 0.03954064 -0.055107165 -0.007088138 -0.057080127 -0.08708441 -0.06975938
-0.032530807 0.05197025 0.03202511 -0.015651286 -0.08198949 0.053149436 0.07859171 0.0045689326
0.032939397 -0.036888015 0.029223375 -0.079151206 0.06739826 -0.0017913611 0.023118446 -0.077181
0.008878921 -0.009929161 -0.001906617 0.009090405 0.080414444 -0.03361221 0.059969984 -0.035319258
0.020991802 0.06777726 0.03967203 0.0074258684 0.046288975 0.08766233 0.03975393 0.06599648
-0.05582652 0.036919113 0.09072219 -0.057446375 0.07914834 0.035848975 0.045939744 0.008549928
-0.08043321 0.0885214 -0.06635689 -0.05668725 -0.037815347 0.061370593 0.044169538 0.05302012
-0.08611329 0.06544823 0.008035996 -0.03293871 -0.052421864 0.008590077 0.005963354 -0.02740404
-0.05321459 0.02380296 -0.042481795 -0.0441153 0.0413269 0.071219906 0.084103234 -0.032846052
-0.0659132 0.054750927 0.053223826 -0.0011685756 -0.07830249 -0.01785098 0.017994288 0.05372341
-0.057478014 0.031439416 -0.00794948 0.06994106 -0.06320196 -0.055892676 0.04997783 -0.0038851954
0.060388777 0.07501089 0.07797029 -0.020809496 -0.042452376 -0.0628924 0.049647916 0.043280285
-0.041122045 0.011874085 -0.049540758 -0.081329025 0.0318678 0.0071703084 -0.018565584 0.091506094
-0.033854548 0.076522 0.029348167 -0.088812925 -0.00081574684 0.0117575675 -0.05045291 0.063608274
0.08835973 0.06931735 0.07637711 0.053510085 -0.040223658 -0.00481412 -0.0431225 0.036036108
0.038792048 0.0067049847 -0.014481887 -0.046815198 -0.074845925 0.07162052 0.051378556 -0.007681796
0.030088346 -0.018604256 0.08921646 0.06233378 -0.08034008 0.09088858 0.06977289 -0.010669378
-0.054306872 -0.0011790592 0.05143098 -0.0737689 -0.0061705406 -0.09010344 0.019011464 -0.04924612
0.03851824 0.049875088 0.06619222 -0.020584041 0.087395445 0.043376252 -0.024604421 0.085623026
0.050509214 0.054487288 -0.03623963 0.049799427 0.013718735 -0.06313146 0.0566953 -0.0749193
-0.053002924 0.0570504 -0.056280922 0.07012885 -0.034682438 0.03431261 -0.019720515 0.025942031
0.032587525 -0.062061235 0.024649419 0.04559253 -0.073849715 0.0023882468 0.015903365 -0.044521738
0.04992481 0.09074654 0.014408599 0.012025402 0.060060464 0.0238788 0.025882592 -0.08258588
0.028057171 -0.08306639 -0.06663318 -0.08261135 -0.041026045 -0.038392674 -0.033417817 -0.06683007
0.009939517 0.06599572 0.0022378194 0.004915193 -0.04878303 0.022870032 0.030255998 -0.07607384
-0.019878248 0.021412686 -0.002464411 0.019759763 0.02571168 -0.02434134 -0.014446986 0.03889312
-0.0752308 0.023389854 0.06707179 0.013249481 0.033701673 0.002099482 -0.014975377 -0.028554166
-0.04430181 0.0846266 -0.01873015 0.07183028 0.015440764 -0.03671611 0.027377708 -0.047200114
0.0872796 0.052206527 0.060554296 0.0145122735 0.045257658 -0.08542293 0.037437443 0.0939968
-0.07612537 0.060051445 0.0088509945 -0.014397076 0.059628446 0.027430404 -0.093551815 -0.08554986
-0.064094365 -0.006189867 -0.0777666 -0.084542446 -0.016438326 -0.0098717185 0.020615568 -0.068489596
00000000: 284b adbd 24df 90bd 020a a6bc b8e6 21bd
00000010: 3a5a 603c 35bd 593d f387 82bd 8955 a63d
00000020: 84e6 aabd 8a08 843d 5ef5 213d 0db8 61bd
00000030: 9c43 e8bb dacc 69bd 5059 b2bd 01de 8ebd
00000040: 063f 05bd c2de 543d c32c 033d 2037 80bc
00000050: 1bea a7bd 39b3 593d b1f4 a03d fcb6 953b
00000060: 76eb 063d e317 17bd dc65 ef3c 071a a2bd
00000070: 1908 8a3d 1bcc eaba e562 bd3c 1211 9ebd
00000080: e578 113c ebad 22bc 73e7 f9ba ecef 143c
00000090: 54b0 a43d f5ac 09bd 16a3 753d edaa 10bd
000000a0: 00f7 ab3c cece 8a3d 237f 223d b354 f33b
000000b0: 8299 3d3d 4f88 b33d 04d5 223d 2a29 873d
000000c0: 59aa 64bd 7f38 173d 8ecc b93d e44c 6bbd
000000d0: 8618 a23d 60d6 123d 502b 3c3d ff14 0c3c
000000e0: 2bba a4bd b54a b53d 1fe6 87bd e430 68bd
000000f0: 44e4 1abd bb5f 7b3d 1eeb 343d a02b 593d
00000100: 2a5c b0bd b909 863d 69a9 033c beea 06bd
00000110: 4fb8 56bd 65bd 0c3c 3d68 c33b 707e e0bc
00000120: 8bf7 59bd 6dfe c23c 6401 2ebd 3fb2 34bd
00000130: 6546 293d bedb 913d 513e ac3d 9589 06bd
00000140: 80fd 86bd 8242 603d 3a01 5a3d e42a 99ba
00000150: 0e5d a0bd 383c 92bc c268 933c 140d 5c3d
00000160: 116e 6bbd 9ec6 003d 893e 02bc 423d 8f3d
00000170: 0770 81bd b8ef 64bd 8eb5 4c3d c39e 7ebb
00000180: 395a 773d 4f9f 993d e3ae 9f3d ad78 aabc
00000190: 8be2 2dbd bbcd 80bd 9d5b 4b3d ab46 313d
000001a0: 976f 28bd 868b 423c 40eb 4abd d58f a6bd
000001b0: cf87 023d e8f4 ea3b da16 98bc 8c67 bb3d
000001c0: 11ab 0abd 91b7 9c3d 916b f03c 8de3 b5bd
000001d0: d8d7 55ba d0a2 403c b6a7 4ebd 0e45 823d
000001e0: f2f5 b43d 41f6 8d3d 9a6b 9c3d 642d 5b3d
000001f0: 90c1 24bd c4bf 9dbb 38a1 30bd 999a 133d
00000200: 69e4 1e3d 7db5 db3b 7045 6dbc 4bc1 3fbd
00000210: d248 99bd c7ad 923d 5272 523d 93b7 fbbb
00000220: d67b f63c f467 98bc 1fb7 b63d b551 7f3d
00000230: 5789 a4bd cb23 ba3d 17e5 8e3d 9dce 2ebc
00000240: e270 5ebd a98a 9aba 4ba9 523d 2614 97bd
00000250: 3f32 cabb 2788 b8bd eebd 9b3c 4db6 49bd
00000260: 4dc5 1d3d d249 4c3d c98f 873d dd9f a8bc
00000270: 62fc b23d 4cab 313d 368f c9bc 205b af3d
00000280: c0e2 4e3d 102e 5f3d 0270 14bd 7cfa 4b3d
00000290: 8cc4 603c 114b 81bd 5539 683d 4a6f 99bd
000002a0: 9819 59bd aead 693d d386 66bd b79f 8f3d
000002b0: 2c0f 0ebd 618b 0c3d eb8c a1bc 6284 d43c
000002c0: 7f7a 053d ec33 7ebd 94ed c93c 3cbf 3a3d
000002d0: 853e 97bd 2284 1c3b c647 823c 6d5c 36bd
000002e0: f57d 4c3d 52d9 b93d 0b12 6c3c 3106 453c
000002f0: f601 763d 799d c33c bb07 d43c c922 a9bd
00000300: 27d8 e53c b61e aabd fa76 88bd 2430 a9bd
00000310: ed0a 28bd a341 1dbd 1fe1 08bd 34de 88bd
00000320: 5bd9 223c c428 873d 61a8 123b a10f a13b
00000330: b7d0 47bd ef59 bb3c 6ddb f73c 9acc 9bbd
00000340: b5d7 a2bc a869 af3c f581 21bb 3adf a13c
00000350: 4da1 d23c 7d67 c7bc 0db3 6cbc 644e 1f3d
00000360: 9b12 9abd 149c bf3c ef5c 893d 5a14 593c
00000370: c40a 0a3d 7797 093b 495b 75bc 6dea e9bc
00000380: d175 35bd b650 ad3d f96f 99bc c11b 933d
00000390: 42fb 7c3c a263 16bd 3747 e03c e854 41bd
000003a0: a6bf b23d 83d6 553d c807 783d e3c4 6d3c
000003b0: 1860 393d 38f2 aebd 0158 193d 6581 c03d
000003c0: 9ee7 9bbd 81f8 753d c303 113c b7e1 6bbc
000003d0: f53c 743d bab5 e03c 1898 bfbd c434 afbd
000003e0: e843 83bd 5ed4 cabb 1844 9fbd 9724 adbd
000003f0: aba9 86bc fdbc 21bc fbe1 a83c 4644 8cbd

actor.linear3.bias f4 [128]
-0.021201244 0.08558896 -0.048055843 -0.08534005 -0.06293239 0.05305724 0.023540312 -0.047941595
-0.01106575 0.077069476 -0.061454676 0.0775903 0.062750526 0.062661976 0.04998969 -0.055606257
0.017655661 0.08367327 0.06027671 0.024815215 0.012293674 -0.0041186474 -0.026945634 -0.028260726
-0.049176194 0.08289218 -0.045564428 0.030826192 -0.062007986 0.036214106 -0.0012296112 0.008738957
0.06709885 -0.042469185 0.047444243 -0.09255435 -0.007914692 -0.08507464 0.023596747 -0.07273927
-0.07155766 0.05869634 0.031203164 0.050858855 -0.06657996 -0.0026101174 0.007854717 0.088688634
-0.010440416 0.018561335 0.06735282 0.019120196 -0.018840915 -0.08828688 -0.0760964 0.054816112
0.024657035 -0.028160606 0.006217403 0.029838162 0.0060307877 -0.010148338 0.05180069 0.014405853
-0.03675041 -0.021077352 0.06152452 -0.077322714 -0.065415725 0.07843994 0.06146906 -0.07280036
0.045320366 -0.07360924 -0.0028047382 0.021067465 -0.010071655 -0.017035628 -0.07265151 0.09151366
0.07949868 -0.08395715 0.0032934796 0.026633598 0.003957722 -0.014787853 0.0035499632 -0.06468208
-0.06944515 -0.02471963 -0.010765401 0.058954522 0.003169599 0.04376411 0.02276304 0.023758305
-0.012374709 0.08501174 0.03745085 -0.046627413 0.005814912 -0.028132519 0.03855559 0.07135831
0.07896083 0.033165436 -0.049341913 -0.03141246 0.09022624 -0.009029978 0.08769214 -0.07387414
0.038215414 0.022358436 -0.07245512 -0.055004552 -0.05569003 -0.058562677 0.061432082 0.0758373
0.051014826 0.0822727 0.06487321 -0.025310937 0.025871027 0.0010096009 0.08730156 -0.07209145
00000000: 3bae adbc 4449 af3d 34d6 44bd c4c6 aebd
00000010: b2e2 80bd 8c52 593d 9dd7 c03c 685e 44bd
00000020: 1f4d 35bc 9ad6 9d3d e6b7 7bbd aae7 9e3d
00000030: 5983 803d ec54 803d fdc1 4c3d 63c3 63bd
00000040: 9ba2 903c e45c ab3d b6e4 763d 4749 cb3c
00000050: 686b 493c b8f5 86bb 17bd dcbc 0a83 e7bc
00000060: fa6c 49bd 60c3 a93d c4a1 3abd 3687 fc3c
00000070: 16fc 7dbd 3e55 143d e82a a1ba d82d 0f3c
00000080: 1f6b 893d 2bf4 2dbd e554 423d 238d bdbd
00000090: a0ac 01bc 9d3b aebd f74d c13c 54f8 94bd
000000a0: d38c 92bd 936b 703d c79d ff3c 6051 503d
000000b0: 135b 88bd 810e 2bbb 12b1 003c 63a2 b53d
000000c0: 470e 2bbc f10d 983c 46f0 893d f5a1 9c3c
000000d0: 4358 9abc c0cf b4bd 6ed8 9bbd dc86 603d
000000e0: 8dfd c93c 12b1 e6bc 5bbb cb3b 296f f43c
000000f0: ea9d c53b 3745 26bc f62c 543d 8706 6c3c
00000100: 9987 16bd 69aa acbc 2301 7c3d 5f5b 9ebd
00000110: aef8 85bd 1fa5 a03d fbc6 7b3d 5b18 95bd
00000120: d9a1 393d 71c0 96bd b3cf 37bb ad95 ac3c
00000130: 9503 25bc 4d8e 8bbc 51ca 94bd 846b bb3d
00000140: 34d0 a23d baf1 abbd 6bd7 573b b42e da3c
00000150: c7af 813b c048 72bc 80a6 683b 0a78 84bd
00000160: 4239 8ebd d280 cabc 5d61 30bc 4c7a 713d
00000170: 0cb9 4f3b ff41 333d 8e79 ba3c c7a0 c23c
00000180: 4bbf 4abc a31a ae3d 1066 193d 63fc 3ebd
00000190: 048b be3b 2b76 e6bc 77ec 1d3d 4e24 923d
000001a0: 37b6 a13d 7bd8 073d bf1a 4abd 5aaa 00bd
000001b0: 89c8 b83d 79f2 13bc f097 b33d 534b 97bd
000001c0: c487 1c3d 0a29 b73c 5a63 94bd 744c 61bd
000001d0: 3b1b 64bd 6bdf 6fbd 35a0 7b3d 9650 9b3d
000001e0: ecf4 503d 977e a83d 3fdc 843d e258 cfbc
000001f0: 7aef d33c 9654 843a 29cb b23d afa4 93bd

actor.linear4.weight f4 [9, 128]
0.040730067 0.027386481 -0.012560807 -0.088916205 -0.051194876 -0.025293404 0.03599627 -0.06474562
0.0555517 -0.020748468 -0.010859357 0.053933997 -0.0062497626 -0.034832228 0.07014507 0.051463354
0.045406748 0.018399984 0.057945304 0.072459966 -0.06321896 -0.058401532 -0.076930486 -0.023181068
-0.07508905 0.0050495784 0.018807916 -0.008383258 -0.07761258 0.08835883 -0.05497061 0.025272496
-0.036684398 -0.064007685 -0.00047639338 -0.05900113 0.024638472 -0.024041262 0.07352643 -0.05557062
-0.04145235 -0.043760844 -0.051294472 -0.046741 0.06643057 0.04819768 -0.043919913 -0.027522264
0.046970624 0.07614653 -0.013158134 -0.056604248 -0.065385565 -0.07565808 0.043698207 -0.08060266
-0.031971358 0.05808113 0.08634605 0.003984803 -0.061086766 -0.064964525 -0.033395715 0.057524912
-0.049593545 0.07745468 0.01882851 0.06901283 -0.017196275 0.08501661 0.04377667 -0.04177001
0.03352279 -0.04050687 -0.015467757 0.07584507 0.07865971 0.022982895 0.07811662 0.08750639
0.045695778 0.036392644 0.018907689 0.0122376755 0.04289644 0.01853824 0.010055381 0.07544511
0.014745825 0.06960833 0.05160013 -0.050081763 0.037338622 -0.011127362 -0.082466744 0.05834569
0.0018592799 -0.02117869 0.08668316 0.043305 -0.09229373 -0.04489844 0.064106025 0.00306498
-0.05859978 0.0731531 -0.07507884 -0.0607643 -0.03180612 -0.0118278405 0.09418456 0.04432537
-0.04733245 -0.0015549628 -0.055537485 0.07178135 0.06843779 0.07544064 -0.04526998 -0.037842885
0.042522054 0.02094459 -0.021983633 -0.06743784 0.007809686 -0.05757725 -0.060955606 -0.062562086
0.06960766 0.05569879 0.08112169 0.05120436 -0.06884084 0.0841029 0.072558045 0.028455144
-0.0011156754 -0.0005231014 0.00241715 0.0567739 0.03862898 -0.012580794 -0.007714138 0.04461932
-0.031002475 0.02616716 0.022984283 0.07636301 -0.06264082 -0.06431377 0.019597026 -0.019223168
0.047333654 0.029767476 0.0586547 0.029466419 -0.06525266 -0.009294264 -0.03339599 0.07938656
-0.014167497 -0.058824614 -0.089592606 0.0765212 -0.05815757 0.018955102 0.009270643 0.08748379
-0.0069778934 -0.07264027 0.018435657 -0.07864586 -0.016978739 -0.06287479 0.0022588614 0.027172972
-0.058170255 -0.086550325 -0.023469048 0.009519451 0.042952094 0.05035723 0.07830883 0.022484563
-0.011790951 0.01173805 0.01639396 0.04694866 0.031935755 0.054709446 0.032455504 -0.05346667
-0.01655667 0.071400955 -0.06791963 -0.08029709 -0.06281633 0.0141346315 0.09404219 0.052168213
0.009618691 -0.017983546 -0.029704262 0.05463559 -0.06487519 0.051423334 0.051117864 0.069000565
0.04495475 0.0671404 0.029050741 -0.07864654 -0.047699384 0.07471231 -0.066693395 -0.088838845
0.0434107 -0.009682212 0.0033862896 -0.082688004 0.042448923 -0.071037315 0.07276601 0.07501623
-0.0832421 -0.038523562 -0.06451467 0.009005424 -0.00046389666 0.047426462 -0.070727326 -0.009739856
-0.009215789 -0.024605064 0.032132868 0.0357989 0.039786324 -0.012939837 0.018928686 -0.08599577
0.0009909803 0.048103306 0.090184316 0.036024436 0.08299989 0.039767817 -0.03165306 0.010603809
0.057584774 -0.091526754 0.052066196 -0.070764355 0.02522031 -0.073872 0.09129746 -0.0021372624
00000000: 92d4 263d 9d59 e03c d8cb 4dbc b319 b6bd
00000010: b8b1 51bd 1d34 cfbc d370 133d 5a99 84bd
00000020: 2e8a 633d b1f8 a9bc 72eb 31bc e5e9 5c3d
00000030: cfca ccbb 3dac 0ebd 38a8 8f3d 3dcb 523d
00000040: 6dfc 393d 90bb 963c 0e58 6d3d e465 943d
00000050: f178 81bd 7236 6fbd bb8d 9dbd 39e6 bdbc
00000060: 4ac8 99bd ef76 a53b 0f13 9a3c ef59 09bc
00000070: 58f3 9ebd 79f5 b43d dd28 61bd 4408 cf3c
00000080: 6142 16bd 7616 83bd 70c4 f9b9 2bab 71bd
00000090: 9fd6 c93c 2ef2 c4bc 0695 963d 059e 63bd
000000a0: f0c9 29bd 923e 33bd 271a 52bd 7e73 3fbd
000000b0: c00c 883d ee6a 453d 5ee5 33bd 5f76 e1bc
000000c0: 4564 403d b6f2 9b3d 3795 57bc dbd9 67bd
000000d0: dee8 85bd a0f2 9abd e4fc 323d 0213 a5bd
000000e0: 66f4 02bd 7be6 6d3d 33d6 b03d f392 823b
000000f0: 1e36 7abd 1f0c 85bd f2c9 08bd 3e9f 6b3d
00000100: 9a22 4bbd 8fa0 9e3d 3f3e 9a3c 9956 8d3d
00000110: 34df 8cbc 301d ae3d 2a4f 333d 0817 2bbd
00000120: 314f 093d 88ea 25bd 7a6c 7dbc a954 9b3d
00000130: 5818 a13d a046 bc3c 9bfb 9f3d 8d36 b33d
00000140: 7f2b 3b3d 7410 153d 4ce4 9a3c 8880 483c
00000150: 2db4 2f3d 82dd 973c 53bf 243c f782 9a3d
00000160: 7998 713c d08e 8e3d a85a 533d 8922 4dbd
00000170: 62f0 183d 8a4f 36bc 53e4 a8bd e4fb 6e3d
00000180: 15b3 f33a ef7e adbc f186 b13d 9560 313d
00000190: 7f04 bdbd 6de7 37bd 054a 833d d5dd 483b
000001a0: 5306 70bd 4bd1 953d efc2 99bd fde3 78bd
000001b0: 2247 02bd 8fc9 41bc d6e3 c03d 858e 353d
000001c0: acdf 41bd e5cf cbba 467b 63bd 1a02 933d
000001d0: 1d29 8c3d 9f80 9a3d 046d 39bd 2401 1bbd
000001e0: 9b2b 2e3d fd93 ab3c 0517 b4bc da1c 8abd
000001f0: 65e8 ff3b 1fd6 6bbd 96ac 79bd 8d20 80bd
00000200: 768e 8e3d 6a24 643d 2123 a63d aabb 513d
00000210: 6dfc 8cbd 243e ac3d 5099 943d c31a e93c
00000220: db3b 92ba be20 09ba 0c69 1e3b c08b 683d
00000230: 6c39 1e3d ad1f 4ebc e1c6 fcbb c0c2 363d
00000240: e7f8 fdbc 835c d63c 8949 bc3c 3664 9c3d
00000250: d549 80bd f0b6 83bd f189 a03c e879 9dbc
00000260: efe0 413d ecda f33c e93f 703d 8f63 f13c
00000270: 30a3 85bd f846 18bc 3cca 08bd 6c95 a23d
00000280: ca1e 68bc 14f2 70bd 547c b7bd 26b7 9c3d
00000290: a236 6ebd bb47 9b3c e5e3 173c b42a b33d
000002a0: d0a6 e4bb 6cc4 94bd 6006 973c 1511 a1bd
000002b0: ff16 8bbc 7fc4 80bd 6809 143b da99 de3c
000002c0: ef43 6ebd 4c41 b1bd 2942 c0bc 79f7 1b3c
000002d0: 89ee 2f3d 6243 4e3d 6160 a03d 8c31 b83c
000002e0: d52e 41bc f350 403c a04c 863c 3d4d 403d
000002f0: 11cf 023d 0317 603d 10f0 043d deff 5abd
00000300: dba1 87bc aa3a 923d 7219 8bbd cd72 a4bd
00000310: d9a5 80bd f194 673c 3199 c03d 56ae 553d
00000320: b797 1d3c 3b52 93bc 5a56 f3bc 92c9 5f3d
00000330: 49dd 84bd 46a1 523d f760 513d 2b50 8d3d
00000340: 7922 383d e880 893d d2fb ed3c 7011 a1bd
00000350: 6e60 43bd c502 993d 8c96 88bd 24f1 b5bd
00000360: 6bcf 313d 24a2 1ebc 83ec 5d3b 5458 a9bd
00000370: ecde 2d3d 037c 91bd 5906 953d 1ca2 993d
00000380: d67a aabd e2ca 1dbd 4420 84bd 7c8b 133c
00000390: 2837 f3b9 4042 423d 7dd9 90bd eb93 1fbc
000003a0: d2fd 16bc 8f90 c9bc c19d 033d dea1 123d
000003b0: fcf6 223d 9c01 54bc 5510 9b3c 8d1e b0bd
000003c0: c8e3 813a f907 453d 8eb2 b83d 5c8e 133d
000003d0: d9fb a93d 94e3 223d a4a6 01bd 99bb 2d3c
000003e0: 03de 6b3d 6172 bbbd 5d43 553d e7ec 90bd
000003f0: d39a ce3c 344a 97bd 2afa ba3d 5011 0cbb

actor.linear4.bias f4 [9]
0.06372029 -0.07592602 0.024540262 0.0858052 0.0046469476 -0.043472085 0.056357983 0.060250904
0.06980041
00000000: c97f 823d 1a7f 9bbd a908 c93c a3ba af3d
00000010: 6c45 983b c90f 32bd a1d7 663d a7c9 763d
00000020: 84f3 8e3d

critic.linear1.weight f4 [128, 120]
0.076109834 0.12102753 0.08806525 0.0097397 -0.035974756 0.06912279 0.021449681 0.036272187
-0.0003727107 0.10929755 0.07047815 -0.069740236 0.051251028 -0.023141686 -0.08540096 -0.020426638
0.06470845 -0.08883331 -0.010453608 0.05155709 0.021519853 0.00096946495 0.03416155 -0.048178744
0.031276632 -0.045018427 0.021715788 0.02594782 -0.037462443 0.04481384 0.06854264 -0.03438907
-0.055973783 0.04067887 0.09738624 0.017836917 0.07173716 0.07719838 -0.09178277 -0.023743447
-0.008326405 0.08521586 -0.079611465 0.10879273 -0.031999715 -0.064763404 -0.07101261 -0.040513184
0.08268674 0.08221973 0.05939771 0.08780369 -0.004385566 -0.0042809914 0.080665275 0.098575
-0.08289844 -0.018711664 -0.08213206 0.056572292 -0.07258408 0.012082622 -0.004930458 -0.08992081
-0.018682921 -0.11567776 0.08955196 -0.03426173 0.08276992 -0.044826206 0.020200407 -0.039671022
-0.072810166 -0.106518276 0.027095769 -0.061530042 -0.03196332 0.08719526 0.01463207 -0.027403247
-0.09838271 -0.089182205 -0.07401813 -0.041689962 0.06815864 -0.020920148 -0.04810199 0.028694777
-0.016565505 -0.07006583 -0.09273355 0.051424876 0.035228968 -0.0037893765 0.030173043 0.06025153
0.04261266 0.044171408 -0.011342621 -0.016837135 -0.058257386 0.059516367 -0.06001937 -0.010383475
-0.011569048 0.072016746 -0.07775971 0.053274322 -0.100911096 0.089153126 0.10497857 -0.016799107
0.08521402 -0.110798806 0.10260303 0.015826378 0.008632632 -0.095493086 0.10780953 0.0929865
-0.038862064 -0.09989972 0.032091334 0.078497365 -0.008207646 -0.07710955 -0.06709381 0.03544515
-0.0047512413 -0.040591978 -0.04163983 0.07246287 -0.004934621 -0.08329296 0.10449678 0.052980013
0.034353375 -0.021246808 -0.08331487 -0.05026663 -0.061174624 0.013692924 0.0955051 -0.04464263
0.05861097 -0.019325342 0.029639265 0.01412978 0.050405163 0.009941415 0.070751004 -0.049625676
-0.06755863 -0.072640724 -0.037093326 0.049279075 -0.031076264 -0.081284486 0.07246445 0.023871582
-0.010322963 0.005197375 0.039804716 0.015793858 -0.047722753 0.049095836 -0.06312334 -0.037025083
-0.09282366 0.060521197 0.012445206 -0.06497977 -0.06348046 -0.092743605 0.08527693 -0.094426885
-0.059819832 0.013837938 0.07636795 -0.075704835 0.054426443 0.028343566 0.046215422 0.002758952
0.08613588 0.029815057 -0.07043232 -0.0679403 0.022638105 -0.095218614 -0.031620547 -0.09627853
-0.034293067 0.074548304 0.078167975 0.006414738 0.034631316 -0.052205764 0.056245957 0.056095827
-0.03387464 -0.051096648 0.08191411 -0.04165867 0.029196389 0.005275268 -0.016608143 -0.11262024
-0.032028854 0.016519763 -0.016885782 0.010331509 0.08280546 -0.08019121 0.0038295174 0.0055900197
0.024464343 -0.03884734 -0.031664286 -0.05128184 -0.07618949 -0.016678838 0.07373845 0.06267148
-0.05399396 0.0011268621 0.0811798 -0.017266236 0.036681134 0.06315839 -0.007398146 0.075659096
0.04663237 0.082965545 -0.07651027 -0.051563848 -0.033894967 0.103638045 0.007653426 -0.0026411244
-0.0030482155 0.07188575 0.0022510353 -0.10760592 -0.087030284 0.019313736 -0.04709899 -0.042973135
0.072708875 0.12061429 0.09394837 -0.046657838 0.026199201 0.034552313 0.004181498 0.0013409363
00000000: 79df 9b3d 48dd f73d 8e5b b43d 4393 1f3c
00000010: 445a 13bd 4090 8d3d 3eb7 af3c 2592 143d
00000020: 6268 c3b9 65d7 df3d d956 903d f8d3 8ebd
00000030: 99ec 513d a293 bdbc b3e6 aebd c455 a7bc
00000040: dd85 843d 3dee b5bd 9c45 2bbc 872d 533d
00000050: 674a b03c b123 7e3a fbec 0b3d 1357 45bd
00000060: ed1b 003d 3e65 38bd 4fe5 b13c 8690 d43c
00000070: 3872 19bd b88e 373d 1560 8c3d 8edb 0cbd
00000080: c444 65bd e39e 263d 7072 c73d ba1e 923c
00000090: efea 923d 2f1a 9e3d 9bf8 bbbd 9e81 c2bc
000000a0: 796b 08bc a785 ae3d 560b a3bd b9ce de3d
000000b0: 2212 03bd ada2 84bd 0f6f 91bd 27f1 25bd
000000c0: aa57 a93d d162 a83d 034b 733d 6cd2 b33d
000000d0: cbb4 8fbb 8f47 8cbb d633 a53d b1e1 c93d
000000e0: a8c6 a9bd 3449 99bc da34 a8bd 59b8 673d
000000f0: f6a6 94bd 31f6 453c ae8f a1bb 6728 b8bd
00000100: ed0c 99bc 76e8 ecbd 0567 b73d 0756 0cbd
00000110: 4783 a93d af9b 37bd 537b a53c 157e 22bd
00000120: 7f1d 95bd 4126 dabd f2f7 dd3c ed06 7cbd
00000130: f8eb 02bd 6e93 b23d 5abb 6f3c c67c e0bc
00000140: e07c c9bd 29a5 b6bd d196 97bd 18c3 2abd
00000150: c296 8b3d bb60 abbc 9806 45bd 4f11 eb3c
00000160: 62b4 87bc ad7e 8fbd 16eb bdbd e4a2 523d
00000170: 404c 103d 3057 78bb 752d f73c 4fca 763d
00000180: 9d8a 2e3d 14ed 343d 67d6 39bc 08ee 89bc
00000190: 4c9f 6ebd 6fc7 733d dfd6 75bd 731f 2abc
000001a0: 1b8c 3dbc 847d 933d 7c40 9fbd 2d36 5a3d
000001b0: 7aaa cebd ea95 b63d 01ff d63d 489e 89bc
000001c0: b084 ae3d 7cea e2bd 8a21 d23d 52a6 813c
000001d0: e26f 0d3c e191 c3bd 3ecb dc3d b56f be3d
000001e0: d42d 1fbd 3998 ccbd 3472 033d 3ac3 a03d
000001f0: 5d79 06bc 9deb 9dbd 7b68 89bd ef2e 113d
00000200: 4db0 9bbb c643 26bd 878e 2abd 6a67 943d
00000210: 9ab2 a1bb 8095 aabd 6802 d63d 9201 593d
00000220: 20b6 0c3d c90d aebc fda0 aabd 62e4 4dbd
00000230: 3e92 7abd 4958 603c 2e98 c33d 31db 36bd
00000240: 0e12 703d 2e50 9ebc 0bce f23c 9880 673c
00000250: a575 4e3d 51e1 223c e7e5 903d 4b44 4bbd
00000260: 2e5c 8abd a9c4 94bd 2cef 17bd dbd8 493d
00000270: a693 febc 7b78 a6bd 3e68 943d 568e c33c
00000280: a521 29bc be4e aa3b 450a 233d 1f62 813c
00000290: ef78 43bd b718 493d cf46 81bd 9da7 17bd
000002a0: 551a bebd 13e5 773d fae6 4b3c 1d14 85bd
000002b0: 0b02 82bd 5cf0 bdbd aca5 ae3d e262 c1bd
000002c0: a405 75bd 85b8 623c cd66 9c3d 230b 9bbd
000002d0: 43ee 5e3d c430 e83c 624c 3d3d 89cf 343b
000002e0: 0268 b03d b53e f43c d23e 90bd 4924 8bbd
000002f0: 8c73 b93c fa01 c3bd 8c84 01bd ae2d c5bd
00000300: e376 0cbd c8ac 983d 8816 a03d b932 d23b
00000310: 91d9 0d3d b6d5 55bd 2962 663d bdc4 653d
00000320: 22c0 0abd b84a 51bd 96c2 a73d 48a2 2abd
00000330: 442d ef3c 28dc ac3b cd0d 88bc 71a5 e6bd
00000340: b030 03bd 7454 873c 0d54 8abc 7d45 293c
00000350: e995 a93d 4a3b a4bd a4f8 7a3b 7c2c b73b
00000360: 7269 c83c 631e 1fbd 69b2 01bd e80c 52bd
00000370: 3c09 9cbd 0fa2 88bc 2f04 973d e859 803d
00000380: c528 5dbd 38b3 933a 9841 a63d ec71 8dbc
00000390: f53e 163d 3059 813d 266c f2bb 28f3 9a3d
000003a0: 9601 3f3d d7e9 a93d 6bb1 9cbd 9d34 53bd
000003b0: 73d5 0abd 2f40 d43d 97c9 fa3b b716 2dbb
000003c0: 92c4 47bb d638 933d 1b86 133b 7e60 dcbd
000003d0: ef3c b2bd d737 9e3c dfea 40bd 9904 30bd
000003e0: 64e8 943d a004 f73d 0168 c03d 4a1c 3fbd
000003f0: b59f d63c ba86 0d3d f304 893b 5bc2 af3a

critic.linear1.bias f4 [128]
-0.00037815623 -0.03267634 0.09856662 -0.044068538 0.08198725 0.113008305 0.06357302 -0.032907322
-0.0027769934 0.0340464 -0.006525517 0.0538928 -0.08849462 0.072745845 0.08454172 0.06454633
-0.05081454 0.12569147 0.11782533 0.016791066 0.09802715 0.06709455 0.020508792 0.015970757
0.050787758 -0.017855523 -0.0586514 -0.017053796 0.042932432 0.073009655 0.04982219 0.10813258
0.09036878 0.02616742 -0.013129194 0.024089044 -0.0064143497 0.10702156 0.08773576 -0.086628206
0.09933653 -0.04599841 0.011446966 0.098989494 0.11795516 0.04142656 0.08012934 -0.04236787
-0.103986345 -0.015144332 0.115604304 0.017940331 -0.102963805 0.054614305 -0.11843431 0.05218686
0.08054258 -0.12129314 0.09675248 -0.101281844 -0.10618506 0.024553524 -0.007022289 -0.06806087
-0.0170357 0.09072949 -0.032879077 0.024435159 0.031382542 0.023431245 0.032489203 -0.049979582
-0.038210116 0.1114092 0.030369814 -0.030136405 0.09961045 -0.005114217 -0.052008897 -0.042063147
-0.019582333 0.07604644 0.092662945 -0.098531716 0.11486561 0.115359 -0.024665762 0.12637077
0.0018788858 -0.08871802 0.120154336 0.022403607 -0.0067520924 0.053937025 -0.05751531 0.097718894
0.104143135 0.050888546 -0.010978364 -0.04971275 0.08300587 -0.105019756 -0.05181693 -0.03754789
-0.056366503 0.116068125 -0.031569097 0.06329737 0.0672632 -0.039765593 0.078112796 0.05168587
-0.023468433 -0.04949739 0.12214692 -0.05045206 0.041320812 0.11933897 0.019373992 0.12375173
0.09305276 0.025200304 -0.00957154 -0.057129767 -0.073845096 0.052973587 -0.025903298 0.04343772
00000000: 4543 c6b9 a0d7 05bd 4cdd c93d 3681 34bd
00000010: eee8 a73d e670 e73d 9232 823d d4c9 06bd
00000020: 38fe 35bb 3d74 0b3d 01d4 d5bb b2be 5c3d
00000030: ab3c b5bd c6fb 943d 3624 ad3d de30 843d
00000040: e822 50bd 44b5 003e 684e f13d 6b8d 893c
00000050: 75c2 c83d de68 893d 0e02 a83c 1bd5 823c
00000060: d306 503d bf45 92bc 733c 70bd 67b4 8bbc
00000070: ebd9 2f3d 1686 953d 5a12 4c3d 9d74 dd3d
00000080: 4413 b93d 0f5d d63c d51b 57bc 6356 c53c
00000090: 772f d2bb 1f2e db3d ceae b33d 216a b1bd
000000a0: f370 cb3d d468 3cbd 0e8c 3b3c 01bb ca3d
000000b0: 7a92 f13d e6ae 293d da1a a43d ef89 2dbd
000000c0: cbf6 d4bd ef1f 78bc f3c1 ec3d 9af7 923c
000000d0: b0de d2bd 40b3 5f3d b08d f2bd e4c1 553d
000000e0: 82f3 a43d 8a68 f8bd 2a26 c63d db6c cfbd
000000f0: 8e77 d9bd 7924 c93c 3b1b e6bb 7f63 8bbd
00000100: 748e 8bbc 62d0 b93d 36ac 06bd 3e2c c83c
00000110: fb8a 003d e2f2 bf3c 6613 053d 64b7 4cbd
00000120: 3682 1cbd 822a e43d 1eca f83c 9fe0 f6bc
00000130: 9000 cc3d 2995 a7bb 4807 55bd 684a 2cbd
00000140: 216b a0bc 3cbe 9b3d 12c6 bd3d ffca c9bd
00000150: a93e eb3d 5741 ec3d da0f cabc 5767 013e
00000160: f244 f63a cbb1 b5bd 7a13 f63d c587 b73c
00000170: a840 ddbb 12ed 5c3d 2c95 6bbd d820 c83d
00000180: ff48 d53d 8270 503d 99de 33bc 999f 4bbd
00000190: fbfe a93d 9914 d7bd fd3d 54bd d1cb 19bd
000001a0: 90e0 66bd 20b5 ed3d 994e 01bd 0da2 813d
000001b0: 4ac1 893d 3fe1 22bd 9af9 9f3d 90b4 533d
000001c0: df40 c0bc c6bd 4abd 2a28 fa3d d2a6 4ebd
000001d0: 0340 293d fd67 f43d 35b6 9e3c 8c71 fd3d
000001e0: 7292 be3d de70 ce3c f3d1 1cbc e700 6abd
000001f0: 193c 97bd d5fa 583d 2733 d4bc c0eb 313d
