landing_falcon_raw_ckpt/ckpt_00008701.pt (torch, 866039 bytes, 15 tensors)

actor.linear1.weight f4 [128, 120]
-0.05350249 -0.06293598 -0.075835936 0.046991322 -0.033988144 0.051477827 0.031971745 -0.11600433
0.04508678 0.074316524 -0.04327559 0.054873962 0.12049618 -0.028170006 0.06776713 0.026534569
0.054152306 0.008266072 -0.052626703 0.06597078 0.084184185 0.015655674 0.025491271 0.076745175
-0.072424695 -0.027140703 -0.032336857 -0.07931159 -0.05284008 0.07170395 -0.05490332 -0.09033696
-0.039134737 0.019116925 -0.023938997 -0.011427864 0.009156725 0.04475028 0.085939 0.077871986
0.07345456 -0.04624096 0.0817294 -0.060570296 0.105179794 -0.0029025157 -0.019970778 -0.1269396
0.07647024 -0.023400817 -0.05688758 -0.033888828 -0.07605526 -0.029233037 -0.025369683 -0.014137282
-0.048417285 0.0090335235 -0.062441837 -0.042167295 0.040712778 0.13133848 0.030073654 -0.036100067
0.073864155 0.0070294356 0.049859818 -0.08188644 0.030035982 0.07912579 0.05899355 -0.009571177
0.011698481 -0.07424371 0.01769149 0.061748087 0.021665653 0.10678944 0.0023537988 -0.12707771
0.055044744 0.023971504 -0.070323996 0.06054879 -0.0870442 -0.0015144474 0.008932551 0.05483318
0.0013363351 0.04191519 -0.0036849754 0.04524181 0.07031735 0.12661009 0.009905386 -0.1454955
-0.036484994 0.0064452845 0.071078986 0.08391017 -0.006270099 -0.058738675 0.019129934 0.004324418
-0.066381365 -0.040471915 -0.040685676 -0.08551468 -0.023318917 0.09374767 0.04697239 -0.09458498
-0.06430943 -0.0008673369 0.04594681 -0.035528712 0.05612299 -0.0144072315 -0.035924394 0.08250035
0.09834232 0.102619365 0.06531573 0.062199604 -0.06929409 -0.113405935 0.057336148 0.10530769
-0.051016044 -0.04730557 0.06380746 0.046222627 -0.040267065 -0.04183515 -0.058607657 0.0027402507
0.027781008 -0.08383843 0.005865973 -0.052439917 0.077127956 -0.0316369 -0.007518646 0.09671069
0.039889876 -0.062877856 0.06950044 0.08197424 -0.010106009 -0.05328985 0.00032658086 0.083449855
0.0498086 0.081749454 -0.056598436 0.060300298 0.10104975 -0.044994175 -0.04918031 -0.030183755
0.014487048 -0.056753512 -0.08222763 0.016610624 -0.005143766 0.0014229061 -0.07072006 0.049271997
0.032827843 -0.059311643 0.020829417 0.08489135 -0.07002561 0.075111575 -0.045464907 -0.072256185
0.07577646 0.011235049 0.03410854 0.07707571 -0.0067954264 -0.12279824 0.076438926 0.06320402
0.05312174 0.06905125 0.067316495 -0.031519767 0.09919301 0.037084404 -0.056115553 0.10875409
0.032825526 -0.010955108 -0.040113658 0.030925896 0.053913444 -0.0006332855 -0.055258095 0.08471133
0.047909446 -0.05507446 0.03455824 -0.037220575 0.06684448 0.012204039 0.056246728 -0.00596826
-0.057265736 -0.051525325 0.0011349139 -0.00368054 0.048002325 -0.017533744 0.054862496 -0.0023141743
-0.02156469 -0.02749436 -0.083544865 0.004424438 0.053763118 0.06451193 -0.02799238 0.0010101103
-0.030620065 -0.029975193 0.047788378 0.012862462 -0.08668278 -0.104138374 0.044553377 0.12924731
-0.066335045 0.037758052 -0.022334784 -0.032389678 -0.06386371 -0.016361933 0.03575233 0.07001328
0.06517919 -0.049858093 -0.06463585 -0.08438699 -0.06536615 -0.053032115 -0.07285291 -0.0019120468
-0.0723506 -0.076142296 0.03162681 -0.010488706 0.07048596 -0.035144765 -0.043821584 -0.00033054754
00000000: 6d25 5bbd 94e4 80bd df4f 9bbd f979 403d
00000010: 2737 0bbd 6ada 523d cef4 023d ae93 edbd
00000020: eaac 383d 4333 983d bf41 31bd 85c3 603d
00000030: b4c6 f63d c9c4 e6bc 7ec9 8a3d 065f d93c
00000040: cfce 5d3d 6b6e 073c 198f 57bd b01b 873d
00000050: c268 ac3d 5440 803c 12d3 d03c 932c 9d3d
00000060: 6653 94bd 2e56 debc a773 04bd 1d6e a2bd
00000070: d76e 58bd 85d9 923d 4ee2 60bd 9602 b9bd
00000080: bf4b 20bd 199b 9c3c b71b c4bc f03b 3bbc
00000090: 1706 163c 124c 373d c900 b03d 597b 9f3d
000000a0: 586f 963d 2967 3dbd be61 a73d 8f18 78bd
000000b0: 8168 d73d 2238 3ebb c299 a3bc 74fc 01be
000000c0: 6e9c 9c3d 12b3 bfbc f302 69bd 03cf 0abd
000000d0: dcc2 9bbd 1f7a efbc 15d4 cfbc 0fa0 67bc
000000e0: 3451 46bd 5801 143c 03c3 7fbd 9db7 2cbd
000000f0: 71c2 263d 987d 063e 065d f63c aadd 13bd
00000100: 1746 973d 2e57 e63b cf39 4c3d 14b4 a7bd
00000110: 050e f63c b40c a23d 38a3 713d 6dd0 1cbc
00000120: fcaa 3f3c 160d 98bd beed 903c 90eb 7c3d
00000130: 2b7c b13c 6cb4 da3d 3142 1a3b a920 02be
00000140: 9976 613d e35f c43c 0706 90bd 0202 783d
00000150: 3b44 b2bd 6c80 c6ba d659 123c c298 603d
00000160: f727 af3a 43af 2b3d a17f 71bb 7a4f 393d
00000170: 8b02 903d 13a6 013e 334a 223c c6fc 14be
00000180: 4a71 15bd f732 d33b dc91 913d 18d9 ab3d
00000190: 6775 cdbb f797 70bd 61b6 9c3c d9b3 8d3b
000001a0: f4f2 87bd e1c5 25bd 06a6 26bd 5222 afbd
000001b0: 5007 bfbc c7fe bf3d 1f66 403d c5b5 c1bd
000001c0: aab4 83bd fe5d 63ba b932 3c3d 8e86 11bd
000001d0: 38e1 653d 4f0c 6cbc 7525 13bd f2f5 a83d
000001e0: b367 c93d 1a2a d23d 41c4 853d 03c5 7e3d
000001f0: 0fea 8dbd 5f41 e8bd 4fd9 6a3d 8fab d73d
00000200: 33f6 50bd 7cc3 41bd 7cad 823d f053 3d3d
00000210: 14ef 24bd 565b 2bbd 950e 70bd c795 333b
00000220: ff94 e33c 7cb3 abbd 5937 c03b 3dcb 56bd
00000230: 43f5 9d3d b295 01bd f95e f6bb 4110 c63d
00000240: 9163 233d 1bc6 80bd 3f56 8e3d 1ce2 a73d
00000250: ad93 25bc 7546 5abd f138 ab39 c2e7 aa3d
00000260: 1a04 4c3d 426c a73d c3d3 67bd 72fd 763d
00000270: 2cf3 ce3d d04b 38bd 4b71 49bd ec43 f7bc
00000280: 155b 6d3c 5f76 68bd f666 a8bd 0113 883c
00000290: 098d a8bb ce80 ba3a aed5 90bd 6fd1 493d
000002a0: 7d76 063d c4f0 72bd 74a2 aa3c 84db ad3d
000002b0: 9669 8fbd 19d4 993d 6939 3abd 0dfb 93bd
000002c0: b030 9b3d 3613 383c 65b5 0b3d dfd9 9d3d
000002d0: 2bac debb a57d fbbd 038c 9c3d 1c71 813d
000002e0: 2f96 593d be6a 8d3d 3bdd 893d df1a 01bd
000002f0: b425 cb3d d1e5 173d 6cd9 65bd 77ba de3d
00000300: 0f74 063d 0e7d 33bc 384e 24bd 4e58 fd3c
00000310: 58d4 5c3d 1203 26ba 5056 62bd 227d ad3d
00000320: b23c 443d c295 61bd f18c 0d3d 9a74 18bd
00000330: c2e5 883d 73f3 473c f862 663d 6591 c3bb
00000340: 7a8f 6abd 380c 53bd 64c1 943a 3735 71bb
00000350: 169e 443d eda2 8fbc 7fb7 603d 67a9 17bb
00000360: 6fa8 b0bc da3b e1bc 9219 abbd e0fa 903b
00000370: b736 5c3d d51e 843d 4750 e5bc ad65 843a
00000380: eed6 fabc 898e f5bc bfbd 433d 13bd 523c
00000390: be86 b1bd 8046 d5bd 9a7d 363d 6859 043e
000003a0: abda 87bd 30a8 1a3d 70f7 b6bc 0aab 04bd
000003b0: faca 82bd 7609 86bc 0971 123d 1f63 8f3d
000003c0: ab7c 853d 0038 4cbd cd5f 84bd 16d3 acbd
000003d0: b0de 85bd 3438 59bd e833 95bd a59d faba
000003e0: 8d2c 94bd 7ef0 9bbd 1d8b 013d d2d8 2bbc
000003f0: f15a 903d f5f3 0fbd 437e 33bd 574d adb9

actor.linear1.bias f4 [128]
0.084716655 0.026459796 0.023104792 0.042044923 -0.0795436 0.008406628 0.03764236 0.07856185
0.08787166 0.04029591 -0.035620507 0.048712976 0.10027216 -0.04026434 -0.008728762 0.040871885
0.016272465 -0.07606661 -0.031682797 -0.019749302 -0.058777038 0.07554162 -0.07873233 0.010526561
0.05234617 0.0037437128 0.012208502 0.050612427 0.09952415 -0.009915537 0.0063925986 0.06431997
0.06147868 0.043523215 0.036578 0.06749324 0.10703582 -0.057639517 -0.0012127224 0.029812045
0.005863469 0.063536756 -0.025035044 0.040650856 0.026401589 -0.03538787 0.059402917 -0.058212414
-0.08178839 0.037873928 0.038178597 0.054057553 -0.03260358 0.0937087 0.01333418 0.034751803
-0.06407683 -0.0707176 0.016991595 -0.0629807 0.0737151 0.0058194567 0.078881375 0.08007726
0.084860764 -0.01693841 0.0077615813 -0.021402862 -0.077781774 -0.001958671 -0.048239287 -0.07448381
-0.012245431 0.0549765 -0.00511578 0.035971165 0.09029997 0.074154474 0.07098051 -0.011947561
-0.06049633 0.056607112 0.08132741 -0.06565952 -0.05802608 -0.04774302 -0.012991459 -0.06432231
0.034749515 -0.07466507 0.025853086 -0.015306499 -0.0660945 -0.066234514 -0.0016614073 0.034388125
-0.06003019 -0.03879873 0.100125514 -0.063312046 0.016028224 -0.043088492 0.030870713 -0.0052242232
-0.074827075 -0.019528268 0.034395825 0.0019986688 -0.04312912 0.0100460965 -0.038120087 -0.036221255
-0.012381298 0.03827958 0.002007755 0.06963941 -0.07312903 -0.009855727 0.051214807 -0.030612294
0.08227972 -0.0019852358 0.08906372 0.0648204 0.0051571685 0.032145888 -0.07259894 -0.030157855
00000000: ed7f ad3d 37c2 d83c 4346 bd3c 4c37 2c3d
00000010: c1e7 a2bd f4bb 093c e02e 1a3d 09e5 a03d
00000020: 0ff6 b33d 530d 253d cfe6 11bd 4287 473d
00000030: 7d5b cd3d 38ec 24bd 1503 0fbc 4769 273d
00000040: d54d 853c d0c8 9bbd d2c5 01bd 4ac9 a1bc
00000050: 31c0 70bd 91b5 9a3d 6a3e a1bd 9977 2c3c
00000060: f068 563d 1459 753b 2b06 483c fa4e 4f3d
00000070: 51d3 cb3d c774 22bc 0179 d13b 30ba 833d
00000080: 12d1 7b3d 6645 323d d0d2 153d e539 8a3d
00000090: 9935 db3d 6a17 6cbd 36f4 9eba 6438 f43c
000000a0: 5822 c03b 8f1f 823d 4b16 cdbc 8381 263d
000000b0: 2548 d83c dff2 10bd 7950 733d 2470 6ebd
000000c0: ac80 a7bd b121 1b3d 2961 1c3d 746b 5d3d
000000d0: 558b 05bd 59ea bf3d 9b77 5a3c e857 0e3d
000000e0: b73a 83bd 64d4 90bd f531 8b3c 06fc 80bd
000000f0: f1f7 963d 24b1 be3b 8f8c a13d 8cff a33d
00000100: 7bcb ad3d 6cc2 8abc dd54 fe3b 0e55 afbc
00000110: 0d4c 9fbd 0c5d 00bb 8f96 45bd f88a 98bd
00000120: 0fa1 48bc 0a2f 613d 46a2 a7bb 8056 133d
00000130: 31ef b83d 4dde 973d 3b5e 913d b4bf 43bc
00000140: 00cb 77bd dcdc 673d fc8e a63d 8078 86bd
00000150: c1ac 6dbd 2f8e 43bd 21da 54bc 6abb 83bd
00000160: 8255 0e3d 00ea 98bd dac9 d33c 1cc8 7abc
00000170: 8e5c 87bd f6a5 87bd 94c3 d9ba 90da 0c3d
00000180: 37e2 75bd 6beb 1ebd 9b0e cd3d bfa9 81bd
00000190: 9f4d 833c 8f7d 30bd 94e4 fc3c f62f abbb
000001a0: f03e 99bd bff9 9fbc a3e2 0c3d 19fc 023b
000001b0: 29a8 30bd 6298 243c cf23 1cbd bd5c 14bd
000001c0: edda 4abc 0dcb 1c3d 8a94 033b 1b9f 8e3d
000001d0: acc4 95bd ea79 21bc 9ec6 513d a2c6 fabc
000001e0: 4582 a83d bb1a 02bb 0a67 b63d 8fc0 843d
000001f0: 77fd a83b 68ab 033d c1ae 94bd 9b0d f7bc

actor.linear2.weight f4 [128, 128]
-0.08868321 0.009163211 -0.035522997 0.06944719 -0.0850347 -0.08610543 0.021302123 0.03768369
0.0214091 -0.0839427 -0.029988283 -0.06424659 0.081055164 0.01993869 0.052574057 -0.043172583
-0.01713578 -0.05131344 0.013249547 0.10141422 0.071346864 -0.06722586 0.035648398 0.0825728
-0.05641279 -0.06082943 0.006620969 0.08378616 0.06723693 -0.048899412 0.01688645 -0.05431173
-0.04036595 -0.049815882 -0.058936786 -0.042909116 0.03960199 -0.04617971 -0.07022708 0.053553987
-0.037247133 0.06392905 0.02847156 0.0748443 0.049257644 -0.004992191 0.09351638 0.06453053
-0.02881009 -0.04357338 -0.06012302 -0.033154014 0.017956916 -0.008577365 -0.0064136037 -0.024669223
0.050811242 -0.0075113317 0.03479904 0.033386234 -0.024884043 0.062895544 -0.061151307 -0.064898886
-0.036262576 -0.00061195885 0.09855334 0.011161361 0.06146384 0.03981209 -0.06966398 0.07621124
0.074801415 0.0062580574 0.03392734 -0.00054911454 0.031883597 -0.029408487 0.07360874 -0.071847945
0.004629122 -0.036473904 0.018529344 -0.048658192 -0.057284564 0.03652866 -0.06284306 -0.034328055
0.0011326214 0.009514441 -0.056056783 -0.016130794 -0.044771146 0.048178867 0.028623167 0.004813034
0.01809163 0.043361004 -0.07456587 -0.005392166 0.08112358 -0.065799765 -0.08633975 0.06843232
-0.06009334 -0.063723445 0.068853416 0.005306956 -0.09756209 0.078983486 -0.008449861 0.04302043
-0.029709887 -0.040876813 0.03291197 -0.0073306845 0.015834967 -0.07197039 0.08765698 0.06861607
0.08309802 0.08354093 -0.02941183 0.00030614994 0.06304185 -0.007983932 -0.07112942 -0.015099043
0.10100008 -0.021635653 -0.059077173 0.015553264 0.07566493 0.06572015 0.00478864 0.03532284
0.020799443 0.042704176 -0.06316521 0.013617076 -0.030401861 0.025407104 -0.0314128 0.052275684
-0.08562951 -0.10561294 0.050662458 -0.04741368 -0.07588298 0.04500163 0.090655826 -0.000100869656
-0.07027034 -0.03967716 0.058409303 0.05179493 0.0597584 0.02422316 0.067594066 0.08179695
-0.08365179 -0.089694165 -0.018522058 0.002813313 -0.068700805 0.0077444236 0.08092924 -0.006829009
-4.3792228e-05 -0.0030453599 0.060084037 -0.080327794 0.0167493 -0.035931446 0.07804016 -0.074758396
-0.015197629 0.06948116 0.052352063 0.044114422 0.042510457 0.020516396 -0.053797573 -0.07735358
0.008617806 -0.04568121 -0.021355558 0.09111225 -0.029375209 0.055773675 0.054117374 0.004682745
0.061056934 0.0392607 0.045955453 -0.007068031 -0.009008867 -0.044601683 0.06928088 0.056843776
0.050347477 0.060937364 -0.07186051 -0.079600684 0.08646667 0.017695323 0.019126166 0.031086775
0.0455946 -0.010815981 -0.020557683 0.060584065 -0.018248742 0.07689235 0.03772178 0.0020596888
-8.749412e-05 0.061317317 -0.011123129 -0.020082869 0.10193165 0.102866225 0.08512097 -0.06805272
-0.020175682 0.018659536 -0.012238658 0.018427948 -0.03271883 -0.06447287 0.06621246 0.06947836
0.06872073 -0.07469876 -0.02156434 -0.01760262 0.043645017 0.008718902 0.043870118 0.029522752
-0.07973914 0.055930976 -0.012480022 -0.0650179 0.0923961 0.07761779 -0.09651036 0.005418127
-0.060039464 0.038020566 0.048933297 -0.059212383 0.028686838 -0.013567986 0.09945014 0.041404456
00000000: 8b9f b5bd 4b21 163c 9080 11bd 543a 8e3d
00000010: ac26 aebd 0b58 b0bd ca81 ae3c 375a 1a3d
00000020: 2362 af3c 26ea abbd fda9 f5bc b793 83bd
00000030: 4000 a63d 7756 a33c e557 573d bcd5 30bd
00000040: 5660 8cbc 0b2e 52bd a114 593c 42b2 cf3d
00000050: 4e1e 923d b6ad 89bd 0e04 123d ee1b a93d
00000060: 1911 67bd 4828 79bd b7f4 d83b 1498 ab3d
00000070: 84b3 893d c04a 48bd 7455 8a3c fa75 5ebd
00000080: c456 25bd bd0b 4cbd b367 71bd 78c1 2fbd
00000090: b235 223d f026 3dbd 37d3 8fbd 6d5b 5b3d
000000a0: 7390 18bd 3ced 823d 303d e93c f847 993d
000000b0: 62c2 493d 8995 a3bb 8485 bf3d 9528 843d
000000c0: 2303 ecbc 007a 32bd 8e43 76bd 81cc 07bd
000000d0: 621a 933c 1488 0cbc 3529 d2bb 1c17 cabc
000000e0: 731f 503d 9e21 f6bb 7089 0e3d 01c0 083d
000000f0: 9fd9 cbbc 61cf 803d cb79 7abd b5e9 84bd
00000100: 1188 14bd dd6b 20ba 55d6 c93d 24de 363c
00000110: 82c1 7b3d 0112 233d fdab 8ebd a314 9c3d
00000120: 7c31 993d 6410 cd3b 65f7 0a3d 74f2 0fba
00000130: 6098 023d 11ea f0bc 2ec0 963d 0425 93bd
00000140: e4af 973b a965 15bd daca 973c d04d 47bd
00000150: 38a3 6abd 149f 153d ddb3 80bd 939b 0cbd
00000160: 7874 943a 75e2 1b3c cc9b 65bd ba24 84bc
00000170: f361 37bd 3457 453d 227b ea3c a8b6 9d3b
00000180: e634 943c 4f9b 313d feb5 98bd c4b0 b0bb
00000190: 1f24 a63d 07c2 86bd e5d2 b0bd 3f26 8c3d
000001a0: 6f24 76bd 7081 82bd 0503 8d3d f9e5 ad3b
000001b0: a2ce c7bd 18c2 a13d 4971 0abc 3136 303d
000001c0: 2662 f3bc 726e 27bd b4ce 063d 3d36 f0bb
000001d0: 55b8 813c 3665 93bd 8185 b33d 9586 8c3d
000001e0: 4b2f aa3d 8217 ab3d 14f1 f0bc c082 a039
000001f0: 161c 813d 0acf 02bc 4dac 91bd fa61 77bc
00000200: 21d9 ce3d 413d b1bc e8fa 71bd 1ed3 7e3c
00000210: 37f6 9a3d 4998 863d 06ea 9c3b afae 103d
00000220: 9863 aa3c 93ea 2e3d c35c 81bd 281a 5f3c
00000230: 530d f9bc 8f22 d03c b5aa 00bd 071f 563d
00000240: 865e afbd 994b d8bd 7083 4f3d d934 42bd
00000250: 8968 9bbd a153 383d c3a9 b93d fc89 d3b8
00000260: e5e9 8fbd 8584 22bd 983e 6f3d ec26 543d
00000270: 39c5 743d a66f c63c c26e 8a3d 2985 a73d
00000280: a151 abbd 93b1 b7bd 92bb 97bc 8f5f 383b
00000290: 02b3 8cbd efc4 fd3b 3bbe a53d e1c5 dfbb
000002a0: 8cad 37b8 a994 47bb ae1a 763d e682 a4bd
000002b0: d435 893c da2c 13bd 85d3 9f3d ee1a 99bd
000002c0: 7aff 78bc 234c 8e3d 1e6f 563d 53b1 343d
000002d0: 721f 2e3d 0012 a83c d85a 5cbd 8e6b 9ebd
000002e0: b331 0d3c 381c 3bbd daf1 aebc 0f99 ba3d
000002f0: 47a4 f0bc f072 643d 2eaa 5d3d b671 993b
00000300: d616 7a3d d4cf 203d c93b 3c3d f19a e7bb
00000310: ed99 13bc 41b0 36bd 22e3 8d3d 05d5 683d
00000320: 2839 4e3d 7599 793d 9a2b 93bd af05 a3bd
00000330: 7015 b13d c8f5 903c 7aae 9c3c b1a9 fe3c
00000340: 67c1 3a3d 8335 31bc 9668 a8bc ff26 783d
00000350: 637e 95bc bd79 9d3d 2782 1a3d d8fb 063b
00000360: 0c7d b7b8 de27 7b3d c93d 36bc d484 a4bc
00000370: 8ac1 d03d 87ab d23d e753 ae3d 395f 8bbd
00000380: 7947 a5bc e2db 983c a784 48bc 35f6 963c
00000390: 2e04 06bd 5a0a 84bd 669a 873d ac4a 8e3d
000003a0: 74bd 8c3d aafb 98bd b3a7 b0bc 5f33 90bc
000003b0: 1ec5 323d bad9 0e3c 27b1 333d b3d9 f13c
000003c0: 464e a3bd e117 653d 0279 4cbc 1b28 85bd
000003d0: 2b3a bd3d 13f6 9e3d 39a7 c5bd 8b8a b13b
000003e0: f1eb 75bd 74bb 1b3d 486e 483d af88 72bd
000003f0: a900 eb3c 424c 5ebc 84ac cb3d b897 293d

actor.linear2.bias f4 [128]
0.058325343 -0.042960674 -0.042988155 -0.03360903 0.010072407 -0.0017946858 0.03921911 0.021571578
-0.08059076 -0.0041990844 -0.06795484 -0.06594019 -0.07660287 0.038538497 0.04575137 0.08808482
-0.05076057 -0.012943413 -0.06033989 0.042442504 0.082534775 0.018156346 -0.07274349 -0.0036299957
0.058521193 -0.05168835 -0.025710316 0.06550208 -0.05721388 -0.050975844 0.054395102 0.05084364
0.032748293 0.05285686 -0.058453683 0.014389622 0.052965723 -0.035710577 0.08437092 0.04495863
-0.021518072 0.014501506 0.00010147418 -0.0007129973 -0.056925874 0.007936174 -0.023353972 0.06187688
0.08247126 -0.07110774 0.059462026 0.034606256 0.09313999 -0.023776855 -0.050549272 -0.037664898
0.07250902 0.009154805 -0.078456536 0.024801107 -0.009995856 -0.057276394 -0.005558571 0.07967916
-0.06270561 0.08599231 0.041278504 0.081026025 -0.047048476 0.016296737 0.017843237 -0.00868004
-0.039409213 0.029873243 -0.012303328 0.03639445 0.0064661405 -0.009185082 -0.06644962 -0.007671353
0.06798243 -0.0024406484 0.08376494 0.016007038 -0.048992112 0.0038099336 0.009882047 0.046323612
-0.029548543 0.075289495 -0.032626744 0.049237497 -0.0133910375 -0.014346944 0.09429366 -0.02836218
0.025031814 0.06481721 -0.026477398 -0.047438983 -0.048957095 0.08423836 0.030846348 0.08257719
0.059223756 -0.02883605 0.03745359 0.06529859 0.057551965 0.0013877677 0.06767893 0.06948309
0.08592669 -0.044682823 0.09675415 -0.047031134 -0.043920953 0.014672908 -0.031591274 0.003969566
-0.067572534 -0.042978 -0.055393618 0.037684914 -0.030168189 -0.033622194 0.050591346 0.06958556
00000000: 8ee6 6e3d 88f7 2fbd 5914 30bd 9fa9 09bd
00000010: bd06 253c aa3b ebba 38a4 203d e1b6 b03c
00000020: c50c a5bd 7998 89bb e82b 8bbd a60b 87bd
00000030: f7e1 9cbd 8bda 1d3d ca65 3b3d d065 b43d
00000040: 51ea 4fbd 9c10 54bc f626 77bd 31d8 2d3d
00000050: fe07 a93d 9ebc 943c 8afa 94bd 39e5 6dbb
00000060: ebb3 6f3d 2ab7 53bd 719e d2bc f425 863d
00000070: 1a59 6abd 0ccc 50bd 66cd 5e3d 6c41 503d
00000080: 1323 063d 6f80 583d 216d 6fbd 73c2 6b3c
00000090: 96f2 583d 4145 12bd a9ca ac3d 8a26 383d
000000a0: ab46 b0bc ba97 6d3c 89ce d438 70e8 3aba
000000b0: 1b2b 69bd ba06 023c d450 bfbc 9c72 7d3d
000000c0: b1e6 a83d efa0 91bd 748e 733d 4abf 0d3d
000000d0: 2ec0 be3d aec7 c2bc c10c 4fbd 8246 1abd
000000e0: 9c7f 943d 09fe 153c d2ad a0bd b12b cb3c
000000f0: a9c5 23bc a79a 6abd ac24 b6bb d42e a33d
00000100: cd6b 80bd bc1c b03d a613 293d f9f0 a53d
00000110: e7b5 40bd bc80 853c fb2b 923c ba36 0ebc
00000120: 8e6b 21bd bbb8 f43c e693 49bc 5912 153d
00000130: ebe1 d33b 077d 16bc bd16 88bd f95f fbbb
00000140: 5f3a 8b3d 49f3 1fbb f48c ab3d 3121 833c
00000150: f4ab 48bd 14b0 793b 4fe8 213c d4bd 3d3d
00000160: c90f f2bc 6131 9a3d 9fa3 05bd 42ad 493d
00000170: 1566 5bbc 720f 6bbc 091d c13d cd57 e8bc
00000180: 850f cd3c e3be 843d 21e7 d8bc 614f 42bd
00000190: 3c87 48bd 2985 ac3d 7bb1 fc3c 3b1e a93d
000001a0: 9c94 723d 9439 ecbc f068 193d 44bb 853d
000001b0: 9cbb 6b3d c2e5 b53a 409b 8a3d 264d 8e3d
000001c0: 55fa af3d 5605 37bd 0a27 c63d b8a3 40bd
000001d0: 75e6 33bd a366 703c da65 01bd 2213 823b
000001e0: 7863 8abd b309 30bd 6be4 62bd 7f5b 1a3d
000001f0: 4723 f7bc 6db7 09bd df38 4f3d e082 8e3d

actor.linear3.weight f4 [128, 128]
-0.07288695 -0.07430675 -0.0125054 -0.028088668 0.013347866 0.04352942 -0.04910371 0.08735906
-0.06986178 0.07596186 0.035659425 -0.046407074 -0.011998152 -0.055519987 -0.09269879 -0.0764803
-0.038197458 0.064407036 0.044472214 -0.019059235 -0.07894993 0.03712428 0.08816863 0.017306313
0.04742836 -0.05013006 0.04375834 -0.07325536 0.057577536 -0.0026520512 0.040933684 -0.07348314
0.025766952 0.0026966569 -0.001791855 0.01598379 0.07793844 -0.034261413 0.07019716 -0.02247516
0.03414622 0.0651282 0.039282445 0.015886663 0.0446649 0.08271029 0.0485508 0.08402119
-0.06593378 0.028802728 0.110349804 -0.044772148 0.07072494 0.03493158 0.0553228 -0.0021317403
-0.08768421 0.10938568 -0.0715884 -0.06393626 -0.02558073 0.07322041 0.06499496 0.050474547
-0.08660714 0.07757714 0.0010399732 -0.03041653 -0.05638891 0.016690422 -0.00719321 -0.017946523
-0.057189688 0.039898787 -0.046937473 -0.03672095 0.036106125 0.06648905 0.10579055 -0.023708355
-0.05654394 0.06764444 0.066203505 -0.0038824703 -0.08012571 -0.032349303 0.020543 0.061080977
-0.06006795 0.03620276 -0.01985486 0.057350427 -0.07547779 -0.0372017 0.04724316 -0.014132863
0.051377088 0.079768 0.060754977 -0.007120289 -0.03881914 -0.060018506 0.05018729 0.05827508
-0.022994298 0.013843367 -0.03548765 -0.089180335 0.026130771 -0.00042214827 -0.00416143 0.10294218
-0.02347244 0.094277814 0.030614365 -0.09399883 0.015385517 0.012331983 -0.06327405 0.06248351
0.099588685 0.081127875 0.0692394 0.048765186 -0.028226962 0.00039498773 -0.039343372 0.035234857
0.053661846 -0.00067201926 -0.0069575747 -0.032044347 -0.07431351 0.059757236 0.06404864 0.0001945311
0.043882325 -0.0017698241 0.08631591 0.074983284 -0.089803465 0.094888896 0.063378185 -0.021951739
-0.064387135 0.01431418 0.068589084 -0.079638176 0.0017774446 -0.10936208 0.026157133 -0.0313082
0.055263307 0.034852643 0.08584429 -0.010998263 0.079703696 0.039566718 -0.00026967592 0.09004768
0.07363525 0.073231876 -0.042172268 0.05824961 0.0066044973 -0.06433257 0.06854773 -0.057921838
-0.03418047 0.0502255 -0.04958029 0.08426122 -0.039967064 0.03201112 -0.005039651 0.052173525
0.015532598 -0.07099847 0.04915895 0.058251455 -0.08645785 -0.0012022296 0.032279048 -0.05710911
0.041847765 0.11731269 0.009114463 0.0027595928 0.07625409 0.040143017 0.054840375 -0.08901696
0.024123289 -0.06905634 -0.07488838 -0.081945665 -0.04342159 -0.027013427 -0.050376043 -0.056699533
0.0021504795 0.08751217 -0.0020540026 0.01511689 -0.056040183 0.010542548 0.056428626 -0.07009098
-0.010111851 0.04007318 0.017325282 0.013562497 0.025105473 -0.04262661 -0.012967431 0.04427019
-0.07743665 0.030345172 0.05056465 -4.868978e-05 0.016499901 0.026335064 -0.018835722 -0.040581357
-0.05467488 0.08996704 -0.03288855 0.08946022 0.019484077 -0.038747977 0.028492015 -0.026685206
0.11416408 0.05598186 0.07930274 0.004902997 0.03988608 -0.09496644 0.05634804 0.109891124
-0.06811153 0.082635365 0.007952036 -0.019419672 0.078976326 0.024248645 -0.11153225 -0.08976428
-0.050163154 0.010080582 -0.088675976 -0.089913905 0.0027134155 -0.0029717477 0.025208596 -0.07130638
00000000: c145 95bd 232e 98bd 73e3 4cbc 351a e6bc
00000010: 02b1 5a3c e84b 323d f920 49bd 4fe9 b23d
00000020: b113 8fbd e491 9b3d 9e0f 123d 5815 3ebd
00000030: e693 44bc ed68 63bd ddd8 bdbd b4a1 9cbd
00000040: f074 1cbd d6e7 833d 7f28 363d 1d22 9cbc
00000050: 80b0 a1bd a10f 183d c191 b43d f8c5 8d3c
00000060: 3d44 423d 2e55 4dbd f23b 333d e806 96bd
00000070: 6cd6 6b3d 09ce 2dbb 14aa 273d 547e 96bd
00000080: 3715 d33c 65ba 303b addc eaba 70f0 823c
00000090: 309e 9f3d b255 0cbd 87c3 8f3d d41d b8bc
000000a0: e8dc 0b3d ef61 853d a1e6 203d bf24 823c
000000b0: 8bf2 363d 0364 a93d 34dd 463d 4d13 ac3d
000000c0: 4a08 87bd b3f3 eb3c 14ff e13d 0063 37bd
000000d0: 3dd8 903d 6b14 0f3d 299a 623d abb4 0bbb
000000e0: c793 b3bd 9905 e03d f09c 92bd 04f1 82bd
000000f0: ae8e d1bc 95f4 953d 141c 853d 66be 4e3d
00000100: 165f b1bd c3e0 9e3d b64f 883a 162c f9bc
00000110: 0ff8 66bd 5aba 883c 05b5 ebbb 9604 93bc
00000120: bc3f 6abd e96c 233d 8241 40bd b568 16bd
00000130: 04e4 133d 692b 883d b7a8 d83d 0638 c2bc
00000140: 9e9a 67bd 2b89 8a3d b495 873d 0b71 7ebb
00000150: f318 a4bd b480 04bd cb49 a83c 0c30 7a3d
00000160: d009 76bd 5849 143d a9a6 a2bc 48e8 6a3d
00000170: 1994 9abd cf60 18bd 0b82 413d 868d 67bc
00000180: c870 523d 685d a33d 36da 783d 5051 e9bb
00000190: d200 1fbd f7d5 75bd 3091 4d3d dab1 6e3d
000001a0: 8a5e bcbc 4acf 623c 805b 11bd 2ea4 b6bd
000001b0: 3310 d63c c853 ddb9 9b5c 88bb 5ad3 d23d
000001c0: 4649 c0bc ba14 c13d faca fa3c 7582 c0bd
000001d0: 8913 7c3c 160c 4a3c d395 81bd b5ee 7f3d
000001e0: 27f5 cb3d 5f26 a63d 63cd 8d3d 01be 473d
000001f0: 3b3c e7bc 5b16 cf39 8426 21bd 6d52 103d
00000200: 86cc 5b3d 732a 30ba 5efc e3bb ef40 03bd
00000210: ae31 98bd 01c4 743d ef2b 833d 0bfb 4b39
00000220: f4bd 333d 71f9 e7ba 65c6 b03d d690 993d
00000230: e1ea b7bd 1c55 c23d 6ccc 813d 22d4 b3bc
00000240: 67dd 83bd 0686 6a3c 6f78 8c3d 5719 a3bd
00000250: 25f9 e83a 3af9 dfbd 7c47 d63c 073d 00bd
00000260: c75b 623d a5c1 0e3d 22cf af3d 0f32 34bc
00000270: b13b a33d b610 223d 4a63 8db9 eb6a b83d
00000280: 14ce 963d 98fa 953d d4bc 2cbd 2597 6e3d
00000290: 8a6a d83b cbc0 83bd c162 8c3d 733f 6dbd
000002a0: d200 0cbd 41b9 4d3d b414 4bbd 2691 ac3d
000002b0: 81b4 23bd 181e 033d a823 a5bb e8b3 553d
000002c0: 707c 7e3c a567 91bd e55a 493d 1499 6e3d
000002d0: d010 b1bd 2294 9dba 0937 043d 3eeb 69bd
000002e0: 9068 2b3d a341 f03d d454 153c 49da 343b
000002f0: 1b2b 9c3d 016d 243d 4da0 603d 864e b6bd
00000300: 349e c53c 696d 8dbd 145f 99bd 21d3 a7bd
00000310: d6da 31bd 434b ddbc 1c57 4ebd c53d 68bd
00000320: 0fef 0c3b 9539 b33d 729c 06bb d5ac 773c
00000330: 648a 65bd a7ba 2c3c b421 673d dc8b 8fbd
00000340: 2dac 25bc c623 243d c0ed 8d3c 3c35 5e3c
00000350: fea9 cd3c 3d99 2ebd 5975 54bc a954 353d
00000360: 1b97 9ebd 7096 f83c e11c 4f3d 4138 4cb8
00000370: cd2a 873c a2bc d73c 5f4d 9abc a338 26bd
00000380: c4f2 5fbd a440 b83d 25b6 06bd eb36 b73d
00000390: 129d 9f3c 33b6 1ebd 1668 e93c ef9a dabc
000003a0: dbce e93d 3c4d 653d 7a69 a23d 52a9 a03b
000003b0: 965f 233d c47d c2bd 34cd 663d 990e e13d
000003c0: 0f7e 8bbd bb3c a93d 4249 023c 0116 9fbc
000003d0: 57be a13d 18a5 c63c 056b e4bd 56d6 b7bd
000003e0: e177 4dbd 0729 253c c09b b5bd c824 b8bd
000003f0: 8fd3 313b a7c1 42bb 4282 ce3c 1409 92bd

actor.linear3.bias f4 [128]
-0.014565696 0.09427555 -0.04321005 -0.07414582 -0.056335267 0.063607074 0.029666353 -0.047335796
-0.008335457 0.085236005 -0.061867386 0.07777563 0.06459989 0.07235628 0.048254706 -0.056625206
0.024062222 0.090659365 0.05952096 0.027810156 0.014145675 0.0002686388 -0.016138813 -0.020011555
-0.040635373 0.09155467 -0.04129891 0.030936927 -0.053421177 0.035143297 0.008004046 0.014851033
0.07818855 -0.0361774 0.054127797 -0.08813472 -0.0069605634 -0.08001314 0.027879493 -0.064716384
-0.05891935 0.059635013 0.031495877 0.048780452 -0.060782734 -0.00016802886 0.016198607 0.096536174
-0.0041359584 0.0162357 0.066966966 0.028281555 -0.010998136 -0.08252386 -0.07018065 0.061914224
0.031238751 -0.023117846 0.003037578 0.030935891 0.009976261 -0.004142624 0.05861518 0.007943966
-0.032077983 -0.021842852 0.05917511 -0.087946944 -0.056025896 0.07509363 0.06819511 -0.06786176
0.05131105 -0.06382928 0.00038970317 0.021358678 -0.010255483 -0.017326651 -0.07559908 0.09429467
0.08244543 -0.079054885 0.004083605 0.029793946 0.0035934593 -0.010347592 0.007401521 -0.06886629
-0.061791062 -0.0328519 -0.005929306 0.054844685 0.0026709856 0.042681266 0.030245693 0.02707393
-0.011198713 0.08619148 0.03424236 -0.042037312 0.01567456 -0.018839993 0.02881848 0.07531292
0.075463496 0.037002575 -0.047693953 -0.028423665 0.09832327 0.00095257134 0.08743217 -0.069028616
0.03821287 0.030156853 -0.071814045 -0.049200244 -0.051765684 -0.06262734 0.063583545 0.08290927
0.05570543 0.08857261 0.070830785 -0.014266809 0.031088263 0.0016873787 0.09139974 -0.06333285
00000000: f5a4 6ebc 8a13 c13d 05fd 30bd c4d9 97bd
00000010: cfbf 66bd 6d44 823d da06 f33c 2ee3 41bd
00000020: 7191 08bc 3790 ae3d a868 7dbd d448 9f3d
00000030: f24c 843d 882f 943d baa6 453d d5ef 67bd
00000040: 231e c53c 9eab b93d 40cc 733d 20d2 e33c
00000050: 43c3 673c 17d8 8c39 8b35 84bc 46ef a3bc
00000060: 4771 26bd 0481 bb3d 0c29 29bd 706f fd3c
00000070: 2ad0 5abd 6bf2 0f3d 6723 033c bf51 733c
00000080: 5221 a03d c12e 14bd 1cb5 5d3d fa7f b4bd
00000090: 7015 e4bb eedd a3bd 8963 e43c 068a 84bd
000000a0: 6b55 71bd d843 743d d201 013d 03ce 473d
000000b0: 51f7 78bd e730 30b9 f1b2 843c c2b4 c53d
000000c0: ef86 87bb bb00 853c fa25 893d b8ae e73c
000000d0: 8731 34bc 4502 a9bd dfba 8fbd c599 7d3d
000000e0: 69e8 ff3c a361 bdbc 1a12 473b 446d fd3c
000000f0: 7973 233c d9be 87bb 7916 703d 6927 023c
00000100: 3464 03bd c8ef b2bc 9a61 723d 871d b4bd
00000110: 697b 65bd b0ca 993d e1a9 8b3d 1bfb 8abd
00000120: 892b 523d edb8 82bd 1351 cc39 65f8 ae3c
00000130: 9d06 28bc 9ff0 8dbc b1d3 9abd 901d c13d
00000140: 26d9 a83d 87e7 a1bd c3cf 853b 6f12 f43c
00000150: 3e80 6b3b f288 29bc 7588 f23b c509 8dbd
00000160: a018 7dbd b78f 06bd a04a c2bb d2a4 603d
00000170: b40b 2f3b 8dd2 2e3d d1c5 f73c 25ca dd3c
00000180: cf7a 37bc 2985 b03d b841 0c3d 512f 2cbd
00000190: ef67 803c 5456 9abc bc14 ec3c a93d 9a3d
000001a0: 9b8c 9a3d 0390 173d bc5a 43bd bfd8 e8bc
000001b0: b65d c93d fbb5 793a a30f b33d e05e 8dbd
000001c0: 1985 1c3d 810b f73c 3e13 93bd 3286 49bd
000001d0: 4108 54bd c342 80bd 1738 823d 56cc a93d
000001e0: 612b 643d 8e65 b53d bb0f 913d 56bf 69bc
000001f0: d0ac fe3c 092b dd3a c92f bb3d a7b4 81bd

actor.linear4.weight f4 [9, 128]
0.03581379 0.022853972 -0.013657529 -0.08541204 -0.054382473 -0.028392578 0.03112078 -0.06765043
0.05012351 -0.023048222 -0.011540005 0.04880975 -0.010851746 -0.042388953 0.06569698 0.048426494
0.043890573 0.015696995 0.052725177 0.066641636 -0.06754656 -0.06242696 -0.07035465 -0.025843054
-0.082268104 -0.0020664188 0.014568425 -0.011126355 -0.0823246 0.08663992 -0.057009585 0.020311892
-0.039650142 -0.06953194 -0.0047949417 -0.053772323 0.018898675 -0.020557357 0.06745512 -0.060322575
-0.046380702 -0.047640506 -0.053858735 -0.046891514 0.062373977 0.047368694 -0.04808146 -0.029192317
0.041403756 0.066953816 -0.014633868 -0.06267032 -0.07379248 -0.0787372 0.041835144 -0.08578512
-0.028755378 0.051803317 0.08536283 0.005658634 -0.05561455 -0.0726908 -0.037214253 0.058121666
-0.052375756 0.0705292 0.008927464 0.07388687 -0.023098473 0.082252964 0.0395531 -0.04245452
0.028378861 -0.04325941 -0.019602612 0.08112569 0.07150459 0.018691536 0.074184075 0.08380316
0.040407248 0.02586751 0.009947666 0.009385774 0.040635016 0.01743209 0.0027498156 0.080093935
0.014488959 0.07565274 0.048872553 -0.054923207 0.040488217 -0.004096074 -0.08756607 0.05784911
0.002681994 -0.027222555 0.08076849 0.038629193 -0.09009182 -0.053326398 0.0651339 -0.0009839862
-0.052077327 0.06914509 -0.08044882 -0.06061403 -0.038804296 -0.013874955 0.090663 0.041546293
-0.042271573 -0.004549612 -0.06046065 0.07081799 0.07019747 0.08013926 -0.049344506 -0.038057122
0.03803034 0.02118101 -0.0260895 -0.07059525 0.0025528239 -0.05692919 -0.06636778 -0.059968058
0.0688572 0.04220673 0.10022253 0.048204817 -0.08283827 0.11348741 0.094702095 0.04934508
0.010685574 -0.013128633 0.015817646 0.07647705 0.056094304 0.0140373325 -0.0055083036 0.060227733
-0.050236706 0.046326477 0.035159957 0.09908552 -0.070716046 -0.065994285 0.0065933103 -0.016737742
0.039615225 0.03985035 0.06422309 0.038805656 -0.042271595 -0.019894721 -0.03926879 0.10504447
-0.030816574 -0.045312356 -0.10769561 0.07809654 -0.037994217 0.014650585 0.010214699 0.114290625
0.017433364 -0.07740397 0.015535429 -0.087352745 -0.031223804 -0.072571784 -0.010353629 0.011850378
-0.085033245 -0.07468406 -0.0027068818 0.0004655763 0.067837685 0.05637139 0.09675045 0.04306651
-0.02497798 -0.0077034673 0.038617894 0.058373 0.020896273 0.068056844 0.03727176 -0.044609837
-0.03537248 0.092664264 -0.06076022 -0.085404806 -0.07690414 0.027377179 0.114997186 0.050041042
0.035154313 -0.033789694 -0.04997982 0.05430786 -0.05994067 0.07056322 0.06553927 0.06807609
0.053922582 0.076344475 0.023883346 -0.079918355 -0.0233472 0.09109652 -0.040460926 -0.091424614
0.06459308 -0.0037813887 -0.008901036 -0.06382222 0.023995934 -0.08107801 0.092458084 0.060877915
-0.0868816 -0.019478936 -0.07657631 0.0404483 -0.00042715768 0.05991015 -0.071220435 -0.0019004073
-0.013587331 -0.038108382 0.05240288 0.03987956 0.06272529 -0.024184125 0.013767762 -0.09939283
-0.001909436 0.044916734 0.10664088 0.06012034 0.078664154 0.03175123 -0.009329144 0.00798583
0.06577531 -0.11013912 0.058120087 -0.09114133 -0.0019278711 -0.08847028 0.10620809 -0.022759292
00000000: 7bb1 123d 4138 bb3c d4c3 5fbc 82ec aebd
00000010: 28c0 5ebd 8d97 e8bc 02f1 fe3c 4f8c 8abd
00000020: 4f4e 4d3d a0cf bcbc 4a12 3dbc bbec 473d
00000030: 86cb 31bc 0aa0 2dbd 238c 863d dc5a 463d
00000040: 9ac6 333d fc96 803c 5bf6 573d 697b 883d
00000050: da55 8abd 69b3 7fbd 1916 90bd d0b4 d3bc
00000060: 2e7c a8bd c16c 07bb 67b0 6e3c 514b 36bc
00000070: cd99 a8bd 4570 b13d e282 69bd 2065 a63c
00000080: 3068 22bd c366 8ebd e31e 9dbb 5e40 5cbd
00000090: 65d1 9a3c e767 a8bc e925 8a3d ce14 77bd
000000a0: b1f9 3dbd b122 43bd fa9a 5cbd 5111 40bd
000000b0: db7b 7f3d ad05 423d 11f1 44bd ba24 efbc
000000c0: fc96 293d 151f 893d e4c2 6fbc 4c59 80bd
000000d0: 8320 97bd f840 a1bd 545b 2b3d 1cb0 afbd
000000e0: 6690 ebbc b72f 543d b5d2 ae3d 106c b93b
000000f0: 15cc 63bd eade 94bd f96d 18bd fc10 6e3d
00000100: f687 56bd 9d71 903d 7f44 123c 0052 973d
00000110: 0239 bdbc 3e74 a83d 6e02 223d cae4 2dbd
00000120: c97a e83c c730 31bd a895 a0bc 3a25 a63d
00000130: 0071 923d fe1e 993c d2ed 973d fea0 ab3d
00000140: 1282 253d 1ae8 d33c 89fb 223c cac6 193c
00000150: e770 263d becd 8e3c 4036 343b 4a08 a43d
00000160: 1963 6d3c d3ef 9a3d 962e 483d 28f7 60bd
00000170: f9d6 253d 5c38 86bb d755 b3bd 30f3 6c3d
00000180: 65c4 2f3b d601 dfbc f369 a53d a539 1e3d
00000190: 0f82 b8bd c86c 5abd ec64 853d 19f9 80ba
000001a0: 094f 55bd f19b 8d3d 5ac2 a4bd 6b46 78bd
000001b0: 41f1 1ebd c753 63bc 86ad b93d 722c 2a3d
000001c0: f524 2dbd e914 95bb 96a5 77bd 0609 913d
000001d0: b1c3 8f3d 0d20 a43d 771d 4abd c9e1 1bbd
000001e0: b4c5 1b3d cc83 ad3c a6b9 d5bc 3e94 90bd
000001f0: 474d 273b 952e 69bd d5eb 87bd 11a1 75bd
00000200: 0105 8d3d f7e0 2c3d 7841 cd3d 6a72 453d
00000210: 1ca7 a9bd 166c e83d 2cf3 c13d 111e 4a3d
00000220: 8c12 2f3c 7a19 57bc 0294 813c 00a0 9c3d
00000230: 24c3 653d d7fc 653c 007f b4bb 5bb1 763d
00000240: 01c5 4dbd d5c0 3d3d e303 103d 59ed ca3d
00000250: 93d3 90bd 0328 87bd b20c d83b 971d 89bc
00000260: 9343 223d 1f3a 233d 6587 833d aef2 1e3d
00000270: fb24 2dbd 41fa a2bc 50d8 20bd 8e21 d73d
00000280: 0a73 fcbc 7399 39bd 848f dcbd 14f1 9f3d
00000290: d39f 1bbd 0209 703c 8e5b 273c 3411 ea3d
000002a0: 6ad0 8e3c f985 9ebd 5088 7e3c ffe5 b2bd
000002b0: 10c9 ffbc 84a0 94bd 44a2 29bc 1628 423c
000002c0: e925 aebd f5f3 98bd f165 31bb 9818 f439
000002d0: 7cee 8a3d b0e5 663d 1a25 c63d 8266 303d
000002e0: 9f9e ccbc 5e6d fcbb cc2d 1e3d 8718 6f3d
000002f0: a92e ab3c 6361 8b3d 46aa 183d ceb8 36bd
00000300: bce2 10bd c3c6 bd3d b5df 78bd b7e8 aebd
00000310: eb7f 9dbd 1b46 e03c a583 eb3d d6f7 4c3d
00000320: f8fd 0f3d 1067 0abd a4b7 4cbd eb71 5e3d
00000330: 5984 75bd 7383 903d 7439 863d 7a6b 8b3d
00000340: eddd 5c3d 7e5a 9c3d 02a7 c33c 3cac a3bd
00000350: a142 bfbc d090 ba3d 5bba 25bd d43c bbbd
00000360: 6049 843d 2dd1 77bb a7d5 11bc 39b5 82bd
00000370: 1f93 c43c 3a0c a6bd aa5a bd3d 1f5b 793d
00000380: fbee b1bd 4a92 9fbc 0ad4 9cbd 1ead 253d
00000390: 22f4 dfb9 5864 753d 05dc 91bd 1617 f9ba
000003a0: 669d 5ebc 8917 1cbd 67a4 563d c058 233d
000003b0: 1e76 803d c91d c6bc 2e92 613c 788e cbbd
000003c0: 0a46 faba 9cfa 373d 8966 da3d bf40 763d
000003d0: ac1a a13d 940d 023d 44d9 18bc 00d7 023c
000003e0: 35b5 863d 9e90 e1bd 540f 6e3d 4ea8 babd
000003f0: 9fb0 fcba e82f b5bd a183 d93d b271 babc

actor.linear4.bias f4 [9]
0.05792248 -0.071693026 0.032919493 0.080115676 0.0059669157 -0.045443937 0.051939465 0.056928627
0.07457589
00000000: 1f40 6d3d cbd3 92bd 97d6 063d b013 a43d
00000010: 1e86 c33b 6c23 3abd 7abe 543d fe2d 693d
00000020: 3fbb 983d

critic.linear1.weight f4 [128, 120]
0.07405729 0.16567846 0.085577 -0.036468495 -0.031594906 0.06965002 0.062823854 0.029759921
0.0058655357 0.13559093 0.06830894 -0.11674576 0.05562866 -0.02261478 -0.0930524 -0.026938858
0.08282396 -0.09482967 0.037000995 0.099266164 0.06766551 0.04716534 0.004769454 -0.0019783746
0.030366817 -0.021172162 0.020636428 -0.026160702 -0.033090908 0.045338564 0.041504927 -0.040901206
-0.061587688 0.007926987 0.15150142 -0.0005309028 0.117722064 0.12337999 -0.118335895 0.02245702
-0.01282779 0.07758624 -0.0729831 0.08832461 -0.0276596 -0.06424721 -0.09772018 -0.04702499
0.079973504 0.05692223 0.07058575 0.072034806 0.041004878 0.04184516 0.09121318 0.14477529
-0.080380194 -0.024461469 -0.08583678 0.07935383 -0.0684598 0.012565154 -0.015905447 -0.09643089
-0.011448236 -0.12183501 0.11916588 -0.039780725 0.12648545 0.0010801324 0.017869888 0.006528984
-0.077272534 -0.1026262 0.027898291 -0.044105444 -0.028714154 0.08753828 0.02499506 -0.03390762
-0.09444701 -0.088486575 -0.067554295 -0.029187093 0.110973164 0.02415726 -0.05388663 0.07489339
-0.014817609 -0.06695328 -0.09094154 0.047234368 0.03753421 -0.0040519508 0.038558632 0.053771283
0.042264856 0.053297598 -0.020262532 -0.006388468 -0.006711162 0.10209796 -0.061379593 0.035808835
-0.002659817 0.07497535 -0.07979109 0.05457129 -0.10913627 0.08695335 0.10332242 -0.023174208
0.086128324 -0.11546533 0.10789114 0.031918623 0.074457794 -0.055590082 0.10610183 0.13914987
-0.040957857 -0.0010495769 0.020919023 -0.022177057 0.007264799 -0.08635733 0.025509981 0.051091764
-0.00077018165 0.031228833 -0.052523512 -0.028444044 0.010557922 -0.09254089 0.141657 0.06862673
0.049483296 -0.07935615 0.013668641 0.038849853 0.038309943 0.1131227 0.108292446 0.054782424
0.065154016 -0.032160807 0.019849265 -0.07989861 0.06595733 0.00069271 0.09695703 -0.033978853
-0.07509018 -0.1427074 0.040967043 -0.018780237 0.06858392 0.018159576 0.07329108 0.12329681
-0.018654684 -0.028995555 0.04089704 0.010669283 -0.03194008 0.039844308 -0.06479237 -0.021377638
-0.11072434 0.08742165 -0.025134554 -0.059761263 0.036825467 0.006757919 0.13534114 0.004999792
-0.079736 0.06450718 0.08281386 -0.036975086 0.07098332 0.019081045 0.08494196 0.018408904
0.11950644 0.07807232 -0.037684057 -0.024427958 0.1247599 0.0045091966 -0.056266677 0.0031544827
-0.055180352 0.13532935 0.090719976 0.05661584 0.052174646 -0.061508123 0.11428641 0.07175532
-0.044378825 -0.109799854 0.09711817 0.010547525 0.13254404 0.1058514 -0.029162768 -0.013162846
-0.036530424 0.06565527 -0.010000012 0.050322153 0.09899002 -0.0895892 0.03419781 0.021288237
0.03278183 -0.09703824 -0.04869764 -0.01602249 0.016992033 0.08641642 0.14494923 0.16222632
-0.07752818 -0.032445207 0.11005329 0.01640532 0.039129935 0.054086156 -0.02392538 0.091515854
0.081046715 0.14900061 -0.09284116 -0.060091462 -0.016685016 0.2093184 0.044557698 0.0972929
-0.006507071 -0.016590651 -0.004714221 -0.018653128 -0.08236855 0.013410126 -0.13058534 -0.032273084
0.063408166 0.05427018 0.087088324 0.043037154 0.030857973 0.028647868 -0.030205956 0.0120409615
00000000: 59ab 973d 9da7 293e ff42 af3d fd5f 15bd
00000010: a969 01bd aba4 8e3d cba9 803d 14cb f33c
00000020: ae33 c03b 59d8 0a3e 8fe5 8b3d 6718 efbd
00000030: e1da 633d a242 b9bc 4292 bebd e1ae dcbc
00000040: 9c9f a93d 0f36 c2bd 5b8e 173d 0f4c cb3d
00000050: 3794 8a3d 7230 413d 1449 9c3b 9ea7 01bb
00000060: d5c3 f83c 3e71 adbc ba0d a93c f84e d6bc
00000070: 558a 07bd eeb4 393d 1201 2a3d 0688 27bd
00000080: 5f43 7cbd 31e0 013c 3023 1b3e 492c 0bba
00000090: 4418 f13d a6ae fc3d 175a f2bd c9f7 b73c
000000a0: a72b 52bc 89e5 9e3d 2a78 95bd 88e3 b43d
000000b0: 6396 e2bc 0b94 83bd 8521 c8bd 479d 40bd
000000c0: 26c9 a33d 4927 693d 438f 903d fc86 933d
000000d0: bbf4 273d d565 2b3d facd ba3d f93f 143e
000000e0: 5f9e a4bd 6b63 c8bc 32cb afbd 4384 a23d
000000f0: a734 8cbd 13de 4d3c 244c 82bc 8f7d c5bd
00000100: 6291 3bbc a284 f9bd 3e0d f43d 1df1 22bd
00000110: 6785 013e 3b93 8d3a df63 923c 16f1 d53b
00000120: 1041 9ebd af2d d2bd f58a e43c e9a7 34bd
00000130: f239 ebbc 4547 b33d 71c2 cc3c b7e2 0abd
00000140: 6f6d c1bd 7338 b5bd e859 8abd c519 efbc
00000150: e645 e33d 72e5 c53c 3ab8 5cbd b561 993d
00000160: 8fc5 72bc cd1e 89bd 8f3f babd d378 413d
00000170: 79bd 193d 3ac6 84bb a8ef 1d3d 473f 5c3d
00000180: ea1d 2d3d 954e 5a3d 9cfd a5bc 5b56 d1bb
00000190: 4fe9 dbbb bc18 d13d 2b69 7bbd 49ac 123d
000001a0: 5350 2ebb ad8c 993d 8369 a3bd 2586 5f3d
000001b0: d682 dfbd 9914 b23d b49a d33d d6d7 bdbc
000001c0: 0c64 b03d 1679 ecbd 08f6 dc3d 1abd 023d
000001d0: 547d 983d 6db2 63bd eb4b d93d 4e7d 0e3e
000001e0: 6dc3 27bd f591 89ba 5f5e ab3c a9ac b5bc
000001f0: 8d0d ee3b 1ddc b0bd 4ffa d03c 9945 513d
00000200: 04e6 49ba 9cd3 ff3c e522 57bd 7c03 e9bc
00000210: 22fb 2c3c 1486 bdbd 880e 113e 2c8c 8c3d
00000220: ffae 4a3d 7a85 a2bd 70f2 5f3c 0621 1f3d
00000230: e3ea 1c3d e0ac e73d 6ec8 dd3d 8963 603d
00000240: 786f 853d 0dbb 03bd ed9a a23c e2a1 a3bd
00000250: a314 873d fb96 353a 6891 c63d 692d 0bbd
00000260: e1c8 99bd e321 12be 0fcd 273d 03d9 99bc
00000270: ba75 8c3d 64c3 943c a219 963d 0a83 fc3d
00000280: b5d1 98bc 1688 edbc a883 273d 37ce 2e3c
00000290: 9ad3 02bd c933 233d ddb1 84bd 2820 afbc
000002a0: 71c3 e2bd 1f0a b33d fbe6 cdbc 3ac8 74bd
000002b0: 4dd6 163d 8971 dd3b de96 0a3e 4cd5 a33b
000002c0: a14c a3bd 571c 843d 509a a93d 3073 17bd
000002d0: b45f 913d da4f 9c3c 0df6 ad3d 45ce 963c
000002e0: cbbf f43d 61e4 9f3d 995a 1abd 241d c8bc
000002f0: 1e82 ff3d e2c1 933b e377 66bd 70bb 4e3b
00000300: cb04 62bd c793 0a3e 65cb b93d 03e6 673d
00000310: 15b5 553d f1ef 7bbd fe0e ea3d 74f4 923d
00000320: 92c6 35bd bfde e0bd e4e5 c63d 87cf 2c3c
00000330: a0b9 073e 9ec8 d83d c2e6 eebc faa8 57bc
00000340: eda0 15bd 4576 863d 17d7 23bc 9a1e 4e3d
00000350: 48bb ca3d 8b7a b7bd 0113 0c3d ab64 ae3c
00000360: 3d46 063d fcbb c6bd 2d77 47bd 9941 83bc
00000370: e032 8b3c 18fb b03d 926d 143e a81e 263e
00000380: 18c7 9ebd 44e5 04bd 9f63 e13d 7364 863c
00000390: b646 203d 7289 5d3d 29ff c3bc aa6c bb3d
000003a0: d2fb a53d 9e93 183e 8223 bebd 7722 76bd
000003b0: 04af 88bc 9057 563e 2282 363d 8041 c73d
000003c0: 4539 d5bb 1ee9 87bc c179 9abb 72ce 98bc
000003d0: d8b0 a8bd 25b6 5b3c 2ab8 05be c830 04bd
000003e0: 24dc 813d 694a 5e3d 5d5b b23d ba47 303d
000003f0: dcc9 fc3c efae ea3c 7b72 f7bc 7447 453c

critic.linear1.bias f4 [128]
0.045822404 0.06674857 0.009075817 -0.13171121 0.12338754 0.02161476 0.08696243 -0.122659884
0.093931995 -0.053843193 0.02945603 0.10749941 0.012282021 -0.019577894 0.13089035 0.11197233
-0.026458021 0.16149928 0.027983231 -0.02111888 0.13475934 -0.024273202 0.12025447 -0.070372894
-0.020829555 -0.06185616 -0.01225189 -0.10839074 -0.0005021292 0.120423794 -0.03826563 0.016868357
-0.001737342 -0.06577336 -0.1029474 -0.06388566 0.036764704 0.016799979 0.14234495 -0.14359668
0.0152169075 -0.13764305 -0.07944807 0.008185575 0.0270172 -0.048258558 0.12286129 -0.0003949573
-0.12780373 0.025451032 0.025557827 0.052433036 -0.0019726276 0.06886412 -0.018242026 -0.037372947
0.11302474 -0.021785565 0.12234017 0.0002279967 -0.004074447 0.044129927 -0.09943622 0.032048788
0.02256572 0.13937314 -0.12284242 -0.06464445 0.13387452 0.124103956 0.07261173 0.05166366
-0.12446271 0.022613756 -0.0007217275 0.01361781 0.13265052 0.04242464 0.05037527 -0.12999704
-0.111036666 0.11481612 0.13311462 -0.15789278 0.026645353 0.15404418 -0.080309294 0.037688848
-0.08996279 0.012318744 0.16296136 0.07317098 -0.09612507 0.15342335 -0.0151643045 0.13872841
0.15315568 -0.038697995 -0.100952305 -0.13634264 0.104177065 -0.1471214 0.042906035 0.00038966927
-0.0021408312 0.1771279 -0.080061205 0.099473454 -0.020209165 0.0010070484 0.11587324 -0.038982026
0.014807131 -0.0040104343 0.0336992 -0.026742922 0.14181337 0.15781012 0.120180406 0.1610189
0.0035598485 0.069805026 -0.102464825 -0.03181244 -0.02018381 -0.03901334 0.07621874 0.1451045
00000000: 46b0 3b3d 79b3 883d bcb2 143c 4edf 06be
00000010: 9bb2 fc3d 7011 b13c 5c19 b23d 1b35 fbbd
00000020: 6b5f c03d ae8a 5cbd c64d f13c a728 dc3d
00000030: 883a 493c d261 a0bc 1f08 063e c051 e53d
00000040: 7ebe d8bc 1160 253e 173d e53c 8001 adbc
00000050: 5afe 093e 98d8 c6bc fa47 f63d aa1f 90bd
00000060: bea2 aabc e35c 7dbd 27bc 48bc f7fb ddbd
00000070: 52a1 03ba c0a0 f63d 6cbc 1cbd 822f 8a3c
00000080: 86b7 e3ba 2fb4 86bd 16d6 d2bd 7cd6 82bd
00000090: 9696 163d 1ca0 893c e0c2 113e 020b 13be
000000a0: 5650 793c 4df2 0cbe abb5 a2bd ca1c 063c
000000b0: 2d53 dd3c c4aa 45bd b39e fb3d 4512 cfb9
000000c0: fbde 02be af7e d03c a65e d13c 06c4 563d
000000d0: 3347 01bb a208 8d3d 4d70 95bc 6014 19bd
000000e0: 8479 e73d a477 b2bc 7c8d fa3d 6612 6f39
000000f0: f082 85bb 95c1 343d 38a5 cbbd 9745 033d
00000100: bfdb b83c d5b7 0e3e cf94 fbbd 4f64 84bd
00000110: 6716 093e 372a fe3d 75b5 943d 469d 533d
00000120: 4ee6 febd 7c40 b93c 5032 3dba 3c1d 5f3c
00000130: 8ad5 073e 76c5 2d3d 4d56 4e3d f21d 05be
00000140: 3167 e3bd b724 eb3d 334f 083e a5ae 21be
00000150: 5b47 da3c c2bd 1d3e 3379 a4bd 9f5f 1a3d
00000160: 693e b8bd 8fd4 493c 58df 263e abda 953d
00000170: 38dd c4bd 031b 1d3e b473 78bc d20e 0e3e
00000180: d8d4 1c3e ca81 1ebd 15c0 cebd 689d 0bbe
00000190: c95a d53d fea6 16be 3dbe 2f3d 864c cc39
000001a0: 304d 0cbb 0461 353e 21f7 a3bd bdb8 cb3d
000001b0: b18d a5bc f0fe 833a f34e ed3d 9eab 1fbd
000001c0: 9c99 723c f669 83bb 2c08 0a3d f913 dbbc
000001d0: 8637 113e fa98 213e 2521 f63d 23e2 243e
000001e0: 594c 693b f0f5 8e3d 14d9 d1bd c34d 02bd
000001f0: 8458 a5bc 74cc 1fbd 9218 9c3d 4696 143e
