landing_falcon_raw_ckpt/ckpt_00000501.pt (torch, 426679 bytes, 15 tensors)

actor.linear1.weight f4 [128, 120]
-0.043846518 -0.06973993 -0.05942417 0.056413665 -0.065209985 -0.0073624584 0.025361704 -0.055695154
0.05363837 0.07360499 -0.027392143 0.06410645 0.089155816 -0.08701798 0.070290744 0.08684545
0.05401529 0.009394609 -0.06090838 0.06615395 0.07510225 0.006556985 0.034936465 0.06764485
-0.070891894 -0.03100475 -0.018655935 -0.078318946 -0.0845426 0.012834367 -0.05291768 -0.03002532
-0.039041173 0.020839747 -0.02687553 -0.003997023 0.00013407234 0.035655838 0.088417485 0.0687722
0.076125845 -0.050829995 0.08112156 -0.058032926 0.07194495 -0.061858788 -0.024985477 -0.06662661
0.07505512 -0.015573028 -0.05476115 -0.039191887 -0.08478486 -0.038309503 -0.020452237 -0.02323812
-0.049198955 0.009797177 -0.06247958 -0.0388588 0.0015708167 0.07203148 0.03081848 0.024218129
0.0709361 0.0045235734 0.048337966 -0.07852481 0.022688558 0.070129216 0.05725827 -0.018674236
0.009291369 -0.073945865 0.014222501 0.054288033 -0.020926733 0.04603086 -0.002242269 -0.06673945
0.059310205 0.02644959 -0.07827483 0.059620764 -0.09079967 -0.010078948 0.011003438 0.045721255
9.712554e-06 0.037937116 0.0005164292 0.038396697 0.028268052 0.06034239 0.0025645634 -0.085076205
-0.033095557 0.012056095 0.07060256 0.08300468 -0.0032469174 -0.065576136 0.016029691 -0.004821668
-0.07062658 -0.046053976 -0.027148914 -0.076334216 -0.05641655 0.020964833 0.044554923 -0.03384445
-0.069124244 0.0041746423 0.03368702 -0.034013186 0.05607787 -0.017446872 -0.03834836 0.073238075
0.09127728 0.07525888 0.057449646 0.08298356 -0.04277496 -0.06106602 0.052966505 0.06298333
-0.061195724 -0.025464516 0.05623544 0.066969074 -0.013658615 0.010510503 -0.060678437 -0.039585076
0.023288412 -0.077954456 -0.008634143 -0.058112293 0.059877865 -0.048754618 -0.008078998 0.07960023
0.045926142 -0.05642361 0.06316894 0.09143103 0.016765475 -0.00092795317 0.0044862875 0.041124098
0.04486207 0.07118984 -0.057894424 0.08148138 0.08340674 -0.06213427 -0.053081788 -0.047293764
0.008381557 -0.054988835 -0.08020984 -0.0020784657 0.022704666 0.053848978 -0.06828262 0.0069458648
0.029499108 -0.06583869 0.038141776 0.0754103 -0.08885681 0.05788427 -0.050777588 -0.089365564
0.07793222 0.016817441 0.033417888 0.07122665 0.023426618 -0.070115805 0.07996087 0.020876048
0.051751323 0.073186405 0.06028074 -0.0505209 0.07969654 0.019519862 -0.05355747 0.09164842
0.031220797 -0.012996318 -0.039641667 0.034704536 0.08286465 0.053051177 -0.050999008 0.042376768
0.047054123 -0.05078902 0.03288853 -0.046244413 0.051693875 -0.0064263386 0.060617324 -0.023060018
-0.057950992 -0.046629705 -0.0030128113 -0.0025632724 0.07357344 0.039395504 0.060193505 -0.044675045
-0.020445205 -0.031109767 -0.083132654 -0.0009118056 0.043740697 0.046038143 -0.025031695 -0.016024075
-0.020809028 -0.021242887 0.043134548 0.005162801 -0.062619835 -0.047718324 0.052898165 0.08678699
-0.06328768 0.03718716 -0.016079778 -0.029685775 -0.05670751 -0.027565893 0.04430303 0.05323604
0.06644604 -0.07078842 -0.05494436 -0.06931761 -0.077703565 -0.0767582 -0.082702436 0.029589016
-0.060788475 -0.06728774 0.041590706 0.0044771708 0.05812219 -0.05887321 -0.04095585 0.031171646
00000000: 6898 33bd cfd3 8ebd c266 73bd 0412 673d
00000010: d08c 85bd c740 f1bb 59c3 cf3c 9a20 64bd
00000020: e8b3 5b3d 37be 963d 7d65 e0bc 3e4a 833d
00000030: 5397 b63d 7c36 b2bd 98f4 8f3d 07dc b13d
00000040: 233f 5d3d d9eb 193c 117b 79bd b97b 873d
00000050: 35cf 993d fadb d63b 8a19 0f3d 6289 8a3d
00000060: c52f 91bd acfd fdbc 55d4 98bc af65 a0bd
00000070: ac24 adbd 3d47 523c 36c0 58bd a9f7 f5bc
00000080: a3e9 1fbd 1eb8 aa3c 122a dcbc 76f9 82bb
00000090: c595 0c39 db0b 123d 3a14 b53d 70d8 8c3d
000000a0: dee7 9b3d 1d33 50bd 0f23 a63d efb3 6dbd
000000b0: e057 933d a45f 7dbd 58ae ccbc 8873 88bd
000000c0: 80b6 993d 0326 7fbc 3a4d 60bd ac87 20bd
000000d0: afa3 adbd 6dea 1cbd 738b a7bc df5d bebc
000000e0: d884 49bd 5784 203c 97ea 7fbd 682a 1fbd
000000f0: dde3 cd3a 3e85 933d 0977 fc3c 1965 c63c
00000100: f246 913d 7c3a 943b 08fe 453d 9ed1 a0bd
00000110: 5bdd b93c e89f 8f3d a687 6a3d b6fa 98bc
00000120: d33a 183c ee70 97bd 7e05 693c 215d 5e3d
00000130: 8a6e abbc db8a 3c3d 08f3 12bb b1ae 88bd
00000140: 42ef 723d d0ac d83c 8e4e a0bd e734 743d
00000150: 2df5 b9bd 2c22 25bc c447 343c 3646 3b3d
00000160: 1af3 2237 f363 1b3d fa60 073a db45 1d3d
00000170: 6792 e73c 9529 773d 3c12 283b 6f3c aebd
00000180: 358f 07bd ed86 453c 1398 903d 5cfe a93d
00000190: 3cca 54bb c84c 86bd b350 833c 15ff 9dbb
000001a0: aba4 90bd 18a3 3cbd 6667 debc 1d55 9cbd
000001b0: 0a15 67bd 71be ab3c 397f 363d 7aa0 0abd
000001c0: 0391 8dbd 70cb 883b 67fb 093d 6951 0bbd
000001d0: e9b1 653d beec 8ebc 2c13 1dbd d8fd 953d
000001e0: 95ef ba3d 5421 9a3d 5250 6b3d 49f3 a93d
000001f0: cc34 2fbd 5d20 7abd 68f3 583d 67fd 803d
00000200: 5ea8 7abd f69a d0bc 2257 663d 1527 893d
00000210: 62c8 5fbc 3f34 2c3c f489 78bd f623 22bd
00000220: 57c7 be3c 96a6 9fbd 3876 0dbc 2807 6ebd
00000230: 7e42 753d ecb2 47bd c65d 04bc 7205 a33d
00000240: 0d1d 3c3d 711c 67bd b85e 813d 3140 bb3d
00000250: c057 893c e241 73ba b501 933b be71 283d
00000260: 4ac1 373d fbcb 913d b422 6dbd b6df a63d
00000270: 27d1 aa3d 8180 7ebd 4a6c 59bd 1bb7 41bd
00000280: cc52 093c f93b 61bd 0e45 a4bd de36 08bb
00000290: 23ff b93c bf90 5c3d c2d7 8bbd 239a e33b
000002a0: 1da8 f13c 6fd6 86bd 8d3a 1c3d b770 9a3d
000002b0: 8ffa b5bd 0e18 6d3d 29fc 4fbd 4b05 b7bd
000002c0: ee9a 9f3d bbc4 893c 32e1 083d 47df 913d
000002d0: 2ee9 bf3c e098 8fbd 86c2 a33d 3f04 ab3c
000002e0: 32f9 533d c1e2 953d f0e8 763d 01ef 4ebd
000002f0: f137 a33d 1ee8 9f3c 145f 5bbd 2bb2 bb3d
00000300: c2c2 ff3c 82ee 54bc 4d5f 22bd 5826 0e3d
00000310: f1b4 a93d 314c 593d 56e4 50bd 4393 2d3d
00000320: d3bb 403d 2608 50bd 20b6 063d c86a 3dbd
00000330: f5bc 533d 0994 d2bb df49 783d 5de8 bcbc
00000340: 055e 6dbd cafe 3ebd 9672 45bb 93fc 27bb
00000350: acad 963d 2e5d 213d 778d 763d 2efd 36bd
00000360: b47c a7bc e9d9 febc 7441 aabd 3d06 6fba
00000370: 7229 333d 7e92 3c3d 450f cdbc ec44 83bc
00000380: b277 aabc 9005 aebc daad 303d b72c a93b
00000390: d43e 80bd 4a74 43bd bfab 583d 61bd b13d
000003a0: f99c 81bd 9051 183d bdb9 83bc 952f f3bc
000003b0: 2246 68bd ded1 e1bc 1877 353d 090e 5a3d
000003c0: dd14 883d 85f9 90bd 560d 61bd 64f6 8dbd
000003d0: 0c23 9fbd 6733 9dbd e55f a9bd aa64 f23c
000003e0: 56fd 78bd 28ce 89bd 045b 2a3d 3bb5 923b
000003f0: 8911 6e3d 0925 71bd 52c1 27bd ae5b ff3c

actor.linear1.bias f4 [128]
0.07561638 0.009349431 0.007652343 0.05319681 -0.08781809 0.0007875324 0.029038887 0.07337953
0.07644489 0.04011925 -0.05198681 0.041936614 0.08555352 -0.038881615 -0.015415157 0.030384807
0.003348806 -0.08505902 -0.04625218 -0.03561149 -0.06661682 0.05642192 -0.09257904 -0.006883895
0.058742102 0.0011646464 0.010396159 0.039819986 0.08726398 0.0044758096 -0.0018880725 0.06290992
0.050801776 0.053676642 0.0392879 0.054238345 0.09118513 -0.054185294 -0.01008703 0.027932229
-0.0010777228 0.05122213 -0.030868417 0.039287165 0.020501416 -0.040589064 0.055907637 -0.069717236
-0.0769096 0.043171927 0.029679127 0.05415094 -0.040860746 0.0814206 0.005061379 0.03816162
-0.07956431 -0.0804139 0.004370323 -0.06986325 0.06898713 0.010760248 0.062157173 0.064989485
0.07157861 -0.019872442 0.0017776066 -0.032990996 -0.08598918 -0.013167426 -0.058520533 -0.078501664
-0.028444493 0.051928677 -0.015243242 0.026925782 0.08020794 0.07373237 0.061066292 -0.030033164
-0.053159084 0.044466227 0.061752405 -0.076973885 -0.06750436 -0.047609936 -0.008389441 -0.068005316
0.030954406 -0.07488545 0.034829438 -0.0360594 -0.07838792 -0.07915908 -0.0049994835 0.04751353
-0.06513728 -0.052708086 0.07799201 -0.07205185 0.008455804 -0.038499992 0.025449265 -0.0054427143
-0.066135265 -0.009787006 0.032824066 0.0022790327 -0.049310856 0.010997331 -0.046537135 -0.044014923
-0.011182569 0.031173807 0.009043349 0.069254 -0.08644107 -0.018354362 0.043770242 -0.022364512
0.0679543 -0.0037746597 0.08414504 0.05626587 0.012987128 0.02150819 -0.07605592 -0.032070145
00000000: c3dc 9a3d 5b2e 193c 81c0 fa3b e6e4 593d
00000010: f9d9 b3bd 6872 4e3a f6e2 ed3c 0248 963d
00000020: 238f 9c3d 1554 243d 1ff0 54bd bac5 2b3d
00000030: af36 af3d 5442 1fbd db8f 7cbc 8fe9 f83c
00000040: a477 5b3b 6c33 aebd ed72 3dbd 5bdd 11bd
00000050: 666e 88bd ac1a 673d 149a bdbd 4c92 e1bb
00000060: 8f9b 703d 0ca7 983a a754 2a3c 481a 233d
00000070: 75b7 b23d d0a9 923b 3379 f7ba ebd6 803d
00000080: 8615 503d 0adc 5b3d 59ec 203d 0729 5e3d
00000090: 45bf ba3d 66f1 5dbd 1244 25bc 21d2 e43c
000000a0: 6042 8dba 4cce 513d c3df fcbc 94eb 203d
000000b0: 96f2 a73c b840 26bd 68ff 643d e9c7 8ebd
000000c0: c882 9dbd 0cd5 303d a421 f33c 60cd 5d3d
000000d0: 995d 27bd d8bf a63d edd9 a53b 5c4f 1c3d
000000e0: 9df2 a2bd 0bb0 a4bd ed34 8f3b 7714 8fbd
000000f0: 2049 8d3d c04b 303c 8598 7e3d 3519 853d
00000100: ce97 923d 88cb a2bc 94fe e83a 9121 07bd
00000110: 181b b0bd 30bc 57bc 3ab3 6fbd 7bc5 a0bd
00000120: 6d04 e9bc 2ab3 543d cabe 79bc 7593 dc3c
00000130: 0f44 a43d ff00 973d a620 7a3d 1c08 f6bc
00000140: 57bd 59bd 3822 363d 17f0 7c3d 7ca4 9dbd
00000150: ba3f 8abd a302 43bd de73 09bc 5f46 8bbd
00000160: 1894 fd3c 8b5d 99bd 50a9 0e3d 05b3 13bd
00000170: d989 a0bd 281e a2bd b5d2 a3bb 8c9d 423d
00000180: b266 85bd 6fe4 57bd 46ba 9f3d ec8f 93bd
00000190: 368a 0a3c 2bb2 1dbd fa7a d03c cc58 b2bb
000001a0: ed71 87bd ae59 20bc 8772 063d d35b 153b
000001b0: 2efa 49bd 262e 343c b99d 3ebd fe48 34bd
000001c0: 1837 37bc 3660 ff3c 8e2a 143c 0bd5 8d3d
000001d0: 0408 b1bd e35b 96bc 6d48 333d c835 b7bc
000001e0: a02b 8b3d 4860 77bb 3c54 ac3d 0a77 663d
000001f0: f7c7 543c f231 b03c 35c3 9bbd fc5b 03bd

actor.linear2.weight f4 [128, 128]
-0.079405315 -0.0052737664 -0.031877603 0.07834604 -0.067235015 -0.07318526 -4.3713022e-05 0.02397199
0.018275915 -0.08625745 -0.018749231 -0.08118034 0.06315414 0.007555632 0.051012974 -0.030308986
-0.03692198 -0.0770311 0.03840145 0.083602436 0.051621687 -0.076326594 0.046807744 0.05992804
-0.05795034 -0.081974305 -0.010510632 0.071096316 0.075682946 -0.040155265 0.0058155954 -0.05757586
-0.052901894 -0.048030596 -0.057358637 -0.03722845 0.009012488 -0.038361628 -0.062640525 0.048927285
-0.024520997 0.05311737 0.028528372 0.058106646 0.04877842 -0.0009870331 0.08351145 0.046757203
-0.030867858 -0.038024165 -0.08106581 -0.04568253 -0.0051262677 0.002243297 -0.030219926 -0.029122863
0.046253838 -0.0051380387 0.03499072 0.04131345 -0.038390778 0.07765593 -0.060118463 -0.06782303
-0.01309901 -0.019602273 0.0882499 0.00060103694 0.054566298 0.048366934 -0.07369696 0.07519635
0.071561605 -0.005465809 0.020960884 -0.021385364 0.02783538 -0.029888202 0.046968378 -0.053222872
0.008007262 -0.040498435 -0.011948806 -0.06316298 -0.055075023 0.03412038 -0.06012641 -0.0545948
0.0052994736 0.014454934 -0.046594765 -0.021895032 -0.02860454 0.049939 0.04069123 -0.0069432333
0.00053352566 0.021473657 -0.07945708 -0.01932014 0.072986156 -0.07683966 -0.07526185 0.06259331
-0.05506742 -0.07199501 0.074306324 -0.0085398145 -0.08612222 0.088097826 -0.009214327 0.02447653
-0.02197602 -0.04407234 0.037866514 0.0016651392 0.015663331 -0.08876292 0.07118174 0.05232277
0.082127616 0.07353735 -0.03949488 -0.013391636 0.07269652 -0.021754242 -0.06947612 -0.014554482
0.08481426 -0.016164126 -0.067531765 0.012658817 0.0502533 0.050011955 0.018525317 0.050122708
0.014793088 0.045825284 -0.08130686 0.029573312 -0.020101918 0.037646595 -0.037058175 0.03423176
-0.066321604 -0.08851646 0.021194154 -0.022992365 -0.058585383 0.044462714 0.073955916 0.020136656
-0.08099103 -0.024682637 0.07359629 0.052983526 0.03558893 0.02355313 0.068950444 0.07887193
-0.07891126 -0.08830416 -0.02340118 -0.0037348466 -0.045624625 0.0027472083 0.07312479 -0.009662341
-0.013732865 0.008000624 0.048947297 -0.0694019 0.0071856854 -0.03932612 0.08638381 -0.06707383
-0.024706835 0.06402335 0.06420724 0.045996755 0.06394591 0.0019065606 -0.03370787 -0.070251785
-0.0007969805 -0.059825316 -0.029326262 0.08333646 -0.012769055 0.055208914 0.060523525 -0.003689736
0.03723473 0.05160038 0.053255312 -0.0067453897 -0.0051721786 -0.06618564 0.066403106 0.059808165
0.043463014 0.06595127 -0.06702602 -0.0621206 0.080488145 0.0118682105 0.03866074 -0.0036414035
0.04887372 -0.015715208 0.0032292514 0.07894061 -0.031356446 0.07105828 0.04991697 0.011149297
-0.012668619 0.05791001 -0.008455244 -0.027446253 0.085511334 0.08719299 0.076808885 -0.06617874
-0.010044248 0.03947489 -0.013595255 0.028343735 -0.034989465 -0.06118699 0.056762364 0.07154495
0.07164681 -0.06905532 -0.04283107 -0.004034647 0.024530664 -0.004812222 0.0278622 0.04347445
-0.08243272 0.050515227 -0.020386895 -0.07809562 0.078717746 0.08294819 -0.08726564 0.015062838
-0.07748873 0.05333389 0.05523095 -0.057645794 0.022602221 -0.008283825 0.08658432 0.030530559
00000000: 419f a2bd 8fcf acbb 1792 02bd e373 a03d
00000010: 83b2 89bd 27e2 95bd 8058 37b8 e860 c43c
00000020: 5fb7 953c bfa7 b0bd fd97 99bc e141 a6bd
00000030: f556 813d 3c95 f73b fbf2 503d 8d4a f8bc
00000040: 813b 17bd 7bc2 9dbd d74a 1d3d c137 ab3d
00000050: 4371 533d 1e51 9cbd 7ab9 3f3d 1b77 753d
00000060: 565d 6dbd 25e2 a7bd c934 2cbc f29a 913d
00000070: a9ff 9a3d d979 24bd c090 be3b aad4 6bbd
00000080: a8af 58bd bbbb 44bd e4f0 6abd dc7c 18bd
00000090: 1da9 133c 1521 1dbd ad49 80bd fa67 483d
000000a0: 42e0 c8bc 9991 593d 55b4 e93c 3c01 6e3d
000000b0: e1cb 473d 565f 81ba 0d08 ab3d 7b84 3f3d
000000c0: 97de fcbc 3abf 1bbd d505 a6bd 9b1d 3bbd
000000d0: 40fa a7bb 4704 133b c78f f7bc 1293 eebc
000000e0: aa74 3d3d fe5c a8bb 6e52 0f3d 4b38 293d
000000f0: a63f 1dbd 120a 9f3d c73e 76bd cde6 8abd
00000100: 3b9d 56bc f294 a0bc 5dbc b43d e88e 1d3a
00000110: e980 5f3d 681c 463d 6fee 96bd 8b00 9a3d
00000120: e48e 923d 871a b3bb 29b6 ab3c 5c30 afbc
00000130: 0607 e43c 1ad8 f4bc ea61 403d 3a00 5abd
00000140: e430 033c b0e1 25bd edc4 43bc 985b 81bd
00000150: 5996 61bd d0c1 0b3d 1c47 76bd cc9e 5fbd
00000160: 35a7 ad3b 63d4 6c3c 27da 3ebd 365d b3bc
00000170: 1154 eabc d68c 4c3d d9ab 263d 1084 e3bb
00000180: 4ddc 0b3a 86e9 af3c 65ba a2bd 4545 9ebc
00000190: c479 953d 1d5e 9dbd e322 9abd ec30 803d
000001a0: 608e 61bd 1f72 93bd ea2d 983d 94ea 0bbc
000001b0: d960 b0bd a26c b43d b0f7 16bc 0183 c83c
000001c0: 0e07 b4bc 3385 34bd eb19 1b3d cd40 da3a
000001d0: 6350 803c 55c9 b5bd bbc7 913d 6750 563d
000001e0: 8632 a83d c09a 963d 62c5 21bd 9868 5bbc
000001f0: eae1 943d f435 b2bc 7f49 8ebd ec75 6ebc
00000200: 19b3 ad3d a16a 84bc 184e 8abd ed66 4f3c
00000210: 68d6 4d3d 56d9 4c3d 68c2 973c 784d 4d3d
00000220: b55e 723c 4bb3 3b3d 3684 a6bd bb43 f23c
00000230: c7ac a4bc 5133 1a3d 50ca 17bd 9a36 0c3d
00000240: 9fd3 87bd 1e48 b5bd 5d9f ad3c 7c5a bcbc
00000250: 3af7 6fbd 891e 363d 3376 973d a1f5 a43c
00000260: a0de a5bd 3e33 cabc a7b9 963d 4105 593d
00000270: b3c5 113d 7ef2 c03c e435 8d3d 9b87 a13d
00000280: 3a9c a1bd d0d8 b4bd d5b3 bfbc 54c4 74bb
00000290: e3e0 3abd 820a 343b 73c2 953d cc4e 1ebc
000002a0: d0ff 60bc 0d15 033c f67c 483d 9522 8ebd
000002b0: e675 eb3b 6d14 21bd ffe9 b03d 015e 89bd
000002c0: fd65 cabc ad1e 833d 167f 833d 1867 3c3d
000002d0: 13f6 823d 8fe5 f93a 4311 0abd 2be0 8fbd
000002e0: 75ec 50ba 640b 75bd a13d f0bc 4eac aa3d
000002f0: 4c35 51bc be22 623d 84e7 773d 7fcf 71bb
00000300: 7283 183d ec5a 533d 3e22 5a3d 6e08 ddbb
00000310: 617b a9bb 568c 87bd 5afe 873d 68f9 743d
00000320: 4606 323d 7611 873d f044 89bd 2c72 7ebd
00000330: f8d6 a43d e272 423c b95a 1e3d 9da4 6ebb
00000340: cf2f 483d 2ebd 80bc d9a1 533b 9dab a13d
00000350: 9e6f 00bd 0187 913d bd75 4c3d 8aab 363c
00000360: 0a90 4fbc 0c33 6d3d dd87 0abc f7d6 e0bc
00000370: 9120 af3d 3d92 b23d fa4d 9d3d b888 87bd
00000380: a190 24bc 6cb0 213d a2be 5ebc 1f31 e83c
00000390: 1d51 0fbd 369f 7abd a77f 683d 2986 923d
000003a0: 90bb 923d e06c 8dbd a26f 2fbd 1235 84bb
000003b0: 88f4 c83c d8af 9dbb 453f e43c 4412 323d
000003c0: 7cd2 a8bd 0ee9 4e3d 6b02 a7bc 99f0 9fbd
000003d0: c536 a13d bee0 a93d 54b8 b2bd 1fca 763c
000003e0: 69b2 9ebd a374 5a3d d939 623d ff1d 6cbd
000003f0: 4b28 b93c e1b8 07bc 1f53 b13d 391b fa3c

actor.linear2.bias f4 [128]
0.04690429 -0.043171655 -0.046855725 -0.046858773 -0.0018239463 0.0008217229 0.03437611 0.018167187
-0.0800209 -0.011437151 -0.060891785 -0.06998967 -0.07784063 0.03781821 0.04277793 0.078818634
-0.057476245 -0.020246658 -0.077713385 0.044851173 0.07993613 0.016764482 -0.07957069 -0.009211079
0.047737546 -0.05642501 -0.036599156 0.06291697 -0.06307165 -0.066117376 0.041383598 0.03751463
0.02236424 0.04581883 -0.06983946 0.005743156 0.038685735 -0.03784533 0.080536716 0.049773164
-0.036398254 0.006179383 -0.008859086 -0.0059622433 -0.06089963 0.004391722 -0.025053125 0.05165402
0.07031264 -0.05816472 0.050388098 0.026309721 0.08105202 -0.039334554 -0.050985333 -0.023614723
0.089194365 0.003625675 -0.070760995 0.016552173 -0.012890241 -0.06157709 -0.020907851 0.076938376
-0.072564974 0.06626301 0.048892282 0.07906844 -0.053014025 0.02222998 0.020981824 -0.008534365
-0.046075333 0.01967462 -0.00830837 0.02847666 -0.0069909086 -0.019378433 -0.08163156 -0.015801271
0.07240933 -0.006001162 0.071597636 0.00821067 -0.047862276 -0.004959836 0.011539177 0.035316266
-0.03480647 0.07119101 -0.038120624 0.051732 -0.023471678 -0.026687585 0.08899404 -0.02053298
0.044007577 0.04941214 -0.024709888 -0.059047066 -0.056251146 0.077090986 0.024852654 0.07441964
0.045904033 -0.04048939 0.02670295 0.062448166 0.07077528 0.0032072826 0.0677106 0.052738767
0.07858649 -0.06169991 0.08871431 -0.054409586 -0.052227084 -0.00038327527 -0.0412518 -0.003462049
-0.0764822 -0.04830697 -0.057071663 0.030364677 -0.03932411 -0.0383005 0.06297368 0.057874408
00000000: b61e 403d c3d4 30bd caeb 3fbd fcee 3fbd
00000010: 7b11 efba e468 573a f7cd 0c3d 5ad3 943c
00000020: ffe1 a3bd e362 3bbc aa69 79bd be56 8fbd
00000030: e96a 9fbd 44e7 1a3d e937 2f3d aa6b a13d
00000040: 366c 6bbd 52dc a5bc 3228 9fbd ddb5 373d
00000050: 8eb5 a33d ab55 893c f5f5 a2bd 11ea 16bc
00000060: 7288 433d e91d 67bd ffe8 15bd 9dda 803d
00000070: b62b 81bd 8c68 87bd d981 293d f1a8 193d
00000080: 3635 b73c 87ac 3b3d fe07 8fbd 1631 bc3b
00000090: ef74 1e3d b403 1bbd 6ff0 a43d f2de 4b3d
000000a0: 5616 15bd 6c7c ca3b b325 11bc ec5e c3bb
000000b0: e471 79bd 6fe8 8f3b 363c cdbc 2a93 533d
000000c0: 1300 903d 213e 6ebd c063 4e3d 7c87 d73c
000000d0: 9afe a53d 451d 21bd ffd5 50bd aa73 c1bc
000000e0: 89ab b63d bc9c 6d3b 24eb 90bd 6c98 873c
000000f0: 9731 53bc 4238 7cbd f146 abbc de91 9d3d
00000100: f29c 94bd e7b4 873d 4643 483d a2ee a13d
00000110: 3c25 59bd a61b b63c 13e2 ab3c b9d3 0bbc
00000120: 7db9 3cbd ab2c a13c d41f 08bc e247 e93c
00000130: fe13 e5bb 85bf 9ebc 732e a7bd ab71 81bc
00000140: 584b 943d 65a5 c4bb c8a1 923d 0c86 063c
00000150: 3c0b 44bd 1f86 a2bb d10e 3d3c caa7 103d
00000160: 3b91 0ebd 98cc 913d 5f24 1cbd efe4 533d
00000170: ad47 c0bc ec9f dabc 8242 b63d c834 a8bc
00000180: 4a41 343d 6264 4a3d 646c cabc 56db 71bd
00000190: 9a67 66bd e1e1 9d3d cb97 cb3c 5369 983d
000001a0: de05 3c3d 34d8 25bd 25c0 da3c a6c9 7f3d
000001b0: a1f2 903d 4631 523b dbab 8a3d 9b04 583d
000001c0: f4f1 a03d 0bb9 7cbd d9af b53d 96dc 5ebd
000001d0: 11ec 55bd 56f2 c8b9 a6f7 28bd 8be3 62bb
000001e0: b3a2 9cbd 88dd 45bd fac3 69bd 58bf f83c
000001f0: 5112 21bd fce0 1cbd 58f8 803d b70d 6d3d

actor.linear3.weight f4 [128, 128]
-0.08586885 -0.06715389 -0.02724884 -0.046087325 0.009982927 0.058616143 -0.06599706 0.078425884
-0.08613914 0.054157246 0.034840833 -0.06281261 -0.0056995717 -0.061781514 -0.08572817 -0.06271225
-0.025188973 0.04699703 0.03159005 -0.015294768 -0.08841917 0.056205813 0.07987093 -0.007015205
0.029417882 -0.03157372 0.021861164 -0.08762557 0.070070796 0.0034403433 0.011489187 -0.0808988
-0.0051036854 -0.014086815 0.006781199 0.004468981 0.08242495 -0.036330774 0.054576907 -0.04336974
0.015228824 0.0723821 0.037057262 -0.00017310718 0.048649535 0.085995704 0.03583307 0.051375072
-0.05038912 0.04159567 0.0805839 -0.060653955 0.08630534 0.039687656 0.042129386 0.009005408
-0.07823931 0.07826631 -0.06671723 -0.04802514 -0.04397965 0.054279737 0.03084951 0.05213934
-0.08202795 0.06459057 0.008228122 -0.03343217 -0.051375248 0.0069457986 0.012463843 -0.028813738
-0.047440995 0.01538471 -0.042967707 -0.04884532 0.046993073 0.08442219 0.07736806 -0.032025523
-0.070148446 0.050237272 0.04361816 -0.00079664 -0.08181453 -0.008957698 0.014432051 0.051373623
-0.05432518 0.02609705 -0.0054657687 0.0757937 -0.054658573 -0.06512004 0.0474401 0.0019451766
0.055927385 0.07359666 0.07621538 -0.028845599 -0.046779886 -0.06374812 0.049582884 0.036843043
-0.053935546 0.010811789 -0.05500255 -0.08274397 0.031024113 0.009460452 -0.026857693 0.08034931
-0.037159514 0.07192757 0.031881336 -0.0841434 -0.007254798 0.017439153 -0.043394737 0.06574182
0.08110858 0.0626793 0.080516405 0.056514822 -0.04300791 -0.008468983 -0.047478426 0.041250277
0.038455836 0.012003235 -0.022519805 -0.05221461 -0.07626361 0.07621365 0.050246257 -0.009945456
0.027707964 -0.030340519 0.08277708 0.054935064 -0.07603955 0.08655802 0.07114751 0.0024735364
-0.04505023 -0.0049655456 0.04971211 -0.072405055 -0.01248899 -0.087049976 0.022004645 -0.061975986
0.036217604 0.054632187 0.058858644 -0.028905364 0.0879285 0.050594505 -0.03710909 0.08238964
0.033739228 0.050138153 -0.027481183 0.046090506 0.018282209 -0.06475599 0.051853195 -0.08362779
-0.06042937 0.06318638 -0.06078882 0.061457753 -0.030169064 0.03564144 -0.024101334 0.009558285
0.040294297 -0.0588429 0.013786733 0.042041883 -0.062330462 0.010261258 0.0137158865 -0.04605713
0.050496303 0.07982672 0.0126775885 0.024745785 0.053648837 0.017017363 0.009060999 -0.08289054
0.036021154 -0.08457057 -0.06717274 -0.08194009 -0.03976679 -0.038369276 -0.026265243 -0.06767791
0.016732074 0.055292033 7.367344e-05 -0.0009558821 -0.040612314 0.03673524 0.02069209 -0.07177822
-0.025790107 0.017524319 -0.015381394 0.022041013 0.021595247 -0.009879744 -0.016143313 0.03773456
-0.06861185 0.018542377 0.07157608 0.021272434 0.041398317 -0.0109762065 -0.01627532 -0.023457998
-0.04823552 0.08494904 -0.019186784 0.06234518 0.011303831 -0.036034558 0.02831534 -0.054680075
0.07071025 0.051729355 0.053825084 0.015402753 0.042385057 -0.08131159 0.027605403 0.0821413
-0.079916745 0.05629229 0.012317565 -0.0077899233 0.053653486 0.03649521 -0.084837556 -0.07946934
-0.07136779 -0.013426528 -0.0717062 -0.08253844 -0.02244813 -0.012814368 0.015842069 -0.060121413
00000000: 02dc afbd fb87 89bd f638 dfbc 10c6 3cbd
00000010: 6e8f 233c 7b17 703d 7729 87bd c09d a03d
00000020: b869 b0bd fdd3 5d3d 43b5 0e3d e6a3 80bd
00000030: 79c3 babb 9d0e 7dbd 4092 afbd 486f 80bd
00000040: 1b59 cebc f57f 403d 9164 013d e896 7abc
00000050: 1c15 b5bd 1138 663d 5f93 a33d cedf e5bb
00000060: c5fd f03c 7253 01bd 2f16 b33c 0975 b3bd
00000070: 4781 8f3d 6277 613b 253d 3c3c 45ae a5bd
00000080: d13c a7bb 62cc 66bc d234 de3b 8870 923b
00000090: 6ace a83d 94cf 14bd 098c 5f3d 78a4 31bd
000000a0: 5182 793c 113d 943d 5bc9 173d 1b84 35b9
000000b0: bc44 473d 841e b03d b2c5 123d ab6e 523d
000000c0: d264 4ebd 3960 2a3d 2c09 a53d 4870 78bd
000000d0: dbc0 b03d 868f 223d dd8f 2c3d 6b8b 133c
000000e0: ee3b a0bd 164a a03d 0ba3 88bd 02b6 44bd
000000f0: 0124 34bd 6e54 5e3d 1db8 fc3c 1090 553d
00000100: 45fe a7bd 1048 843d 3fcf 063c 2cf0 08bd
00000110: da6e 52bd 9599 e33b 2635 4c3c ca0a ecbc
00000120: 7d51 42bd 2710 7c3c e8fe 2fbd 0812 48bd
00000130: cf7b 403d 8be5 ac3d 2573 9e3d 322d 03bd
00000140: fda9 8fbd 99c5 4d3d f5a8 323d 9bd5 50ba
00000150: 608e a7bd 4fc3 12bc 6974 6c3c 266d 523d
00000160: 1484 5ebd 7bc9 d53c 311a b3bb ba39 9b3d
00000170: abe1 5fbd a85d 85bd 8d50 423d 4cf5 fe3a
00000180: 1d14 653d d8b9 963d cf16 9c3d 9b4d ecbc
00000190: 449c 3fbd 608e 82bd 6c17 4b3d bbe8 163d
000001a0: 85eb 5cbd ee23 313c 5b4a 61bd ac75 a9bd
000001b0: 4826 fe3c 0300 1b3c aa04 dcbc 2e8e a43d
000001c0: 9334 18bd c34e 933d 0196 023d 6053 acbd
000001d0: a8b9 edbb 8edc 8e3c aebe 31bd a6a3 863d
000001e0: 411c a63d 015e 803d c9e5 a43d 167c 673d
000001f0: 1029 30bd 7dc1 0abc bd78 42bd 0df6 283d
00000200: de83 1d3d 37a9 443c 747b b8bc fdde 55bd
00000210: 1830 9cbd e715 9c3d 05cf 4d3d 44f2 22bc
00000220: d0fb e23c ae8c f8bc 0887 a93d 9703 613d
00000230: a0ba 9bbd 5545 b13d c9b5 913d 0e1b 223b
00000240: 9786 38bd 04b6 a2bb ed9e 4b3d 1a49 94bd
00000250: 9f9e 4cbc 4247 b2bd 1643 b43c 88da 7dbd
00000260: e958 143d 00c6 5f3d c315 713d f1ca ecbc
00000270: db13 b43d 2f3c 4f3d b3ff 17bd e6bb a83d
00000280: 2532 0a3d aa5d 4d3d 3820 e1bc 66c9 3c3d
00000290: 92c4 953c ca9e 84bd 0464 543d 0c45 abbd
000002a0: c984 77bd dc67 813d b3fd 78bd 20bb 7b3d
000002b0: 1d25 f7bc c2fc 113d 2970 c5bc 5a9a 1c3c
000002c0: a20b 253d 4105 71bd c0e1 613c 1c34 2c3d
000002d0: 3a4e 7fbd d61e 283c 99b8 603c 67a6 3cbd
000002e0: 36d5 4e3d 317c a33d a9b5 4f3c acb7 ca3c
000002f0: e2be 5b3d ff67 8b3c 9674 143c 84c2 a9bd
00000300: eb8a 133d 5633 adbd dd91 89bd 35d0 a7bd
00000310: 80e2 22bd 1a29 1dbd 352a d7bc b79a 8abd
00000320: b411 893c e679 623d 2081 9a38 2994 7aba
00000330: 1959 26bd b177 163d 7582 a93c 7600 93bd
00000340: c645 d3bc 298f 8f3c 3e02 7cbc 5b8f b43c
00000350: 84e8 b03c a6de 21bc fb3e 84bc 8e8f 1a3d
00000360: 5f84 8cbd 2fe6 973c 7b96 923d 8743 ae3c
00000370: 4891 293d 8cd5 33bc d253 85bc fd2a c0bc
00000380: 9c92 45bd c3f9 ad3d 9a2d 9dbc a95d 7f3d
00000390: b433 393c f998 13bd 92f5 e73c 37f8 5fbd
000003a0: 89d0 903d 29e2 533d b177 5c3d d45b 7c3c
000003b0: f49b 2d3d b186 a6bd ba24 e23c b339 a83d
000003c0: 64ab a3bd bf92 663d 9dcf 493c 9d42 ffbb
000003d0: c2c3 5b3d 007c 153d 50bf adbd d2c0 a2bd
000003e0: 4729 92bd f1fa 5bbc b3da 92bd ea09 a9bd
000003f0: 24e5 b7bc 5bf3 51bc 3ac7 813c df41 76bd

actor.linear3.bias f4 [128]
-0.026484145 0.08091449 -0.050051972 -0.08975329 -0.060376287 0.0470861 0.018420206 -0.047193203
-0.013679558 0.07600403 -0.06547669 0.07472788 0.065574355 0.064499214 0.05233662 -0.06025608
0.017066801 0.08256623 0.057426378 0.020089464 0.011078388 -0.0025448897 -0.025757896 -0.03320004
-0.049687468 0.08169694 -0.04817138 0.027853176 -0.057046212 0.03652549 0.00606885 0.0038917924
0.06698203 -0.039183322 0.043648116 -0.08811161 -0.0044061597 -0.08219869 0.02023156 -0.07919271
-0.065918535 0.06168984 0.03044722 0.053446446 -0.06878165 -0.004916528 0.002639328 0.08305855
-0.011207064 0.019150715 0.07023549 0.020232627 -0.017741634 -0.083909236 -0.079757705 0.053987414
0.02895797 -0.030501544 0.0029322496 0.030010382 0.0064595104 -0.009475653 0.050606485 0.015866496
-0.03311315 -0.026728045 0.063021936 -0.07578506 -0.072517745 0.08012744 0.055329993 -0.06836415
0.043964617 -0.075958766 -0.00432452 0.020029167 -0.011974137 -0.020192226 -0.07484743 0.084762946
0.07937 -0.08118183 0.0035446428 0.022226606 0.0045198887 -0.01118382 0.0025159589 -0.06552917
-0.07366945 -0.025153091 -0.014679609 0.06427618 0.003972094 0.044534698 0.020744933 0.022946501
-0.012523649 0.08499354 0.03326806 -0.05053138 0.010025044 -0.026310822 0.04214682 0.06572663
0.08001389 0.02856071 -0.04942219 -0.02908963 0.08749421 -0.008346453 0.08163622 -0.07942712
0.037597112 0.018369187 -0.069862545 -0.058224585 -0.05712158 -0.05693616 0.05993647 0.080414385
0.044290744 0.07843638 0.061747167 -0.021023277 0.025307857 0.0029305134 0.08738855 -0.07274639
00000000: 47f5 d8bc 7fb6 a53d 4c03 4dbd 93d0 b7bd
00000010: 204d 77bd 5bdd 403d f9e5 963c a94d 41bd
00000020: 3a20 60bc 00a8 9b3d a518 86bd ee0a 993d
00000030: d94b 863d 2a18 843d ec5e 563d 14cf 76bd
00000040: adcf 8b3c 7c18 a93d ec37 6b3d a992 a43c
00000050: 2182 353c 2ac8 26bb 3902 d3bc c4fc 07bd
00000060: 1685 4bbd ba50 a73d 5a4f 45bd 582c e43c
00000070: 4aa9 69bd c19b 153d 34dd c63b 710d 7f3b
00000080: e02d 893d b17e 20bd 5ec8 323d dc73 b4bd
00000090: 8c61 90bb c957 a8bd a8bc a53c ca2f a2bd
000000a0: 4c00 87bd 7cae 7c3d 736c f93c a9ea 5a3d
000000b0: 65dd 8cbd d31a a1bb 93f8 2c3b 9a1a aa3d
000000c0: d59d 37bc f6e1 9c3c a0d7 8f3d e5be a53c
000000d0: e756 91bc 9bd8 abbd 0258 a3bd e821 5d3d
000000e0: 4439 ed3c 60de f9bc fc2a 403b 55d8 f53c
000000f0: 4daa d33b c53f 1bbc bf48 4f3d 74fa 813c
00000100: a8a1 07bd c6f4 dabc a511 813d 3335 9bbd
00000110: 2f84 94bd db19 a43d b4a1 623d 8102 8cbd
00000120: 3e14 343d 4590 9bbd b4b4 8dbb 3514 a43c
00000130: 2c2f 44bc 2b6a a5bc 9c49 99bd 3298 ad3d
00000140: bd8c a23d a942 a6bd 3d4d 683b 9214 b63c
00000150: 931b 943b 573c 37bc c9e2 243b 2834 86bd
00000160: 02e0 96bd db0d cebc be82 70bc 3ba3 833d
00000170: 5728 823b 046a 363d 47f1 a93c 4dfa bb3c
00000180: fe2f 4dbc 1811 ae3d 1744 083d fef9 4ebd
00000190: 1540 243c cb89 d7bc 25a2 2c3d af9b 863d
000001a0: 53de a33d 26f8 e93c ec6e 4abd 604d eebc
000001b0: 2a30 b33d 90bf 08bc e430 a73d b0aa a2bd
000001c0: 6eff 193d fa7a 963c 1814 8fbd e77c 6ebd
000001d0: 51f8 69bd e435 69bd f27f 753d 4cb0 a43d
000001e0: 366a 353d 41a3 a03d 99ea 7c3d 0239 acbc
000001f0: 6c52 cf3c db0d 403b c5f8 b23d 0ffc 94bd

actor.linear4.weight f4 [9, 128]
0.037999764 0.02081974 -0.009702865 -0.08199706 -0.05895543 -0.019908497 0.03238016 -0.06772038
0.055018432 -0.021621635 -0.011974109 0.047384653 -0.0109685315 -0.036392756 0.06583855 0.046523564
0.046365105 0.023287335 0.052563194 0.06873765 -0.066951886 -0.058131106 -0.07308131 -0.029689396
-0.07074663 0.0021384566 0.02504194 -0.014152698 -0.07305787 0.08474856 -0.055947755 0.02135264
-0.042630047 -0.06409211 -0.008352768 -0.054550905 0.02679096 -0.019329634 0.07129253 -0.04917983
-0.036145136 -0.05039909 -0.05597924 -0.050984535 0.07140024 0.043948267 -0.050835937 -0.031523325
0.047832865 0.07357107 -0.016927766 -0.06142673 -0.061970502 -0.071030855 0.042722493 -0.07494239
-0.030831445 0.053788457 0.083421126 0.0032394908 -0.05881215 -0.06559062 -0.03994042 0.051469456
-0.054087587 0.0751605 0.015770515 0.073640555 -0.019403692 0.07937874 0.04097055 -0.045131575
0.027737303 -0.04584115 -0.01996916 0.08201596 0.07454215 0.022126772 0.07539331 0.08198786
0.04019747 0.039723236 0.01366834 0.007919054 0.039129205 0.018316595 0.01346404 0.08073025
0.014753578 0.06899806 0.049560003 -0.054462705 0.04336475 -0.015740508 -0.083197296 0.05418177
0.009335333 -0.025683885 0.0805804 0.047535855 -0.086973645 -0.045732234 0.05999587 -0.0027347698
-0.06382242 0.06749439 -0.07728953 -0.0603274 -0.035241764 -0.01877133 0.087518625 0.038467266
-0.04381119 -0.004439172 -0.06096432 0.07147572 0.07105542 0.081496246 -0.05052006 -0.039350763
0.037703563 0.017617162 -0.025623387 -0.06410661 0.0098992 -0.05374441 -0.066048466 -0.06676789
0.06538091 0.057574373 0.07384465 0.052483615 -0.06580838 0.079138644 0.063460216 0.02256726
-0.0050139436 0.0022621108 -0.00017445901 0.052066125 0.033274706 -0.01811623 -0.010648782 0.040152878
-0.027388891 0.02544851 0.019955304 0.068725735 -0.062262997 -0.06532196 0.023813494 -0.021877142
0.04778663 0.027051259 0.057710774 0.027835382 -0.06668648 -0.01148 -0.034117233 0.06922297
-0.008927751 -0.062317897 -0.082608335 0.07816277 -0.06388878 0.017913802 0.010958639 0.07833979
-0.009485733 -0.07250785 0.021078868 -0.077284805 -0.015996194 -0.06398288 0.006649311 0.031204
-0.052110918 -0.08976839 -0.02919986 0.009455688 0.038344033 0.05244187 0.07741501 0.020132108
-0.009345416 0.015955469 0.008722123 0.04509134 0.036453873 0.047433205 0.031052915 -0.055797465
-0.014342171 0.06232561 -0.074180916 -0.080611184 -0.058429714 0.011570591 0.087205544 0.054098435
5.963529e-05 -0.013003996 -0.022724105 0.05526436 -0.066740155 0.043357506 0.046546068 0.06852424
0.04133673 0.066088594 0.026559465 -0.082559906 -0.055549048 0.07533988 -0.07517166 -0.086134285
0.038552493 -0.01058087 0.007699915 -0.08715224 0.047005482 -0.066397935 0.064928055 0.0777086
-0.08430541 -0.043942697 -0.06313706 0.0061897123 0.0005664447 0.043895733 -0.07398095 -0.0129777305
-0.008076043 -0.020636888 0.02505737 0.03878349 0.034074724 -0.011131679 0.019080326 -0.081150696
0.0015960443 0.04796092 0.0840648 0.030204108 0.08482888 0.04357431 -0.035736088 0.014440832
0.0532316 -0.08755037 0.051347423 -0.06694382 0.03019393 -0.06940589 0.08639073 0.005695682
00000000: a4a5 1b3d 298e aa3c c4f8 1ebc 13ee a7bd
00000010: 407b 71bd 2517 a3bc 0fa1 043d fcb0 8abd
00000020: 025b 613d db1f b1bc 0e2f 44bc 6916 423d
00000030: 5bb5 33bc 9210 15bd 5dd6 863d 7e8f 3e3d
00000040: 56e9 3d3d 15c5 be3c 814c 573d 53c6 8c3d
00000050: 121e 89bd e21a 6ebd a7ab 95bd 2d37 f3bc
00000060: 9ce3 90bd 5925 0c3b c124 cd3c b8e0 67bc
00000070: 5d9f 95bd a790 ad3d 7929 65bd bbeb ae3c
00000080: d89c 2ebd b942 83bd 0cda 08bc c570 5fbd
00000090: b778 db3c 2e59 9ebc d101 923d ca70 49bd
000000a0: ec0c 14bd 476f 4ebd 7d4a 65bd 29d5 50bd
000000b0: 4a3a 923d 1903 343d 5839 50bd 9a1e 01bd
000000c0: 65ec 433d 6eac 963d 19ac 8abc 989a 7bbd
000000d0: c8d4 7dbd a078 91bd c8fd 2e3d 657b 99bd
000000e0: 3a92 fcbc 4951 5c3d b2d8 aa3d a34d 543b
000000f0: 02e5 70bd 6054 86bd 9198 23bd a3d1 523d
00000100: f28a 5dbd c0ed 993d 2b31 813c dcd0 963d
00000110: 7ef4 9ebc 5291 a23d bcd0 273d e3db 38bd
00000120: 5739 e33c eec3 3bbd 5d96 a3bc fcf7 a73d
00000130: 8ea9 983d 3443 b53c cf67 9a3d 40e9 a73d
00000140: 1aa6 243d d5b4 223d 2cf1 5f3c ebbe 013c
00000150: f245 203d af0c 963c 4798 5c3c e755 a53d
00000160: feb8 713c db4e 8d3d 6eff 4a3d 4914 5fbd
00000170: 3c9f 313d 3df2 80bc 5863 aabd b4ed 5d3d
00000180: 39f3 183c 0367 d2bc 5607 a53d f5b4 423d
00000190: 3d1f b2bd b951 3bbd 3bbe 753d d339 33bb
000001a0: 54b5 82bd 803a 8a3d f949 9ebd dd19 77bd
000001b0: ab59 10bd 55c6 99bc f73c b33d da8f 1d3d
000001c0: 5d73 33bd 7976 91bb b9b5 79bd dd61 923d
000001d0: 8185 913d 81e7 a63d 1fee 4ebd 442e 21bd
000001e0: 0d6f 1a3d de51 903c 23e8 d1bc 544a 83bd
000001f0: 4130 223c 1923 5cbd 6b44 87bd 9abd 88bd
00000200: 6de6 853d 1bd3 6b3d dd3b 973d 0ff9 563d
00000210: 8bc6 86bd 7113 a23d 6ef7 813d f9de b83c
00000220: 024c a4bb ec3f 143b fcee 36b9 4a43 553d
00000230: 0f4b 083d 7d68 94bc 3b78 2ebc 5877 243d
00000240: ab5e e0bc 6579 d03c 4e79 a33c 14c0 8c3d
00000250: 7c07 7fbd 85c7 85bd 8414 c33c b137 b3bc
00000260: eabb 433d 9a9a dd3c 2262 6c3d 0707 e43c
00000270: ec92 88bd 9c16 3cbc 83be 0bbd c6c4 8d3d
00000280: b445 12bc 0d41 7fbd 8f2e a9bd cd13 a03d
00000290: 1fd8 82bd f7bf 923c dd8b 333c 9d70 a03d
000002a0: 0c6a 1bbc ff7e 94bd 97ad ac3c 7f47 9ebd
000002b0: 730a 83bc 7509 83bd 77e2 d93b 889f ff3c
000002c0: 4272 55bd 7dd8 b7bd 8b34 efbc 08ec 1a3c
000002d0: a20e 1d3d 49cd 563d c38b 9e3d 17ec a43c
000002e0: 841d 19bc 0bb5 823c 3ce7 0e3c b2b1 383d
000002f0: a850 153d 5249 423d af62 fe3c e28b 64bd
00000300: 6dfb 6abc 2449 7f3d 2aec 97bd 7a17 a5bd
00000310: ff53 6fbd 9392 3d3c d298 b23d 5296 5d3d
00000320: e820 7a38 b60e 55bc e727 babc e25c 623d
00000330: 10af 88bd a497 313d 17a7 3e3d 7056 8c3d
00000340: b450 293d 7559 873d 3c93 d93c 2b15 a9bd
00000350: 6687 63bd cc4b 9a3d 99f3 99bd 2c67 b0bd
00000360: 38e9 1d3d 635b 2dbc 924f fc3b e07c b2bd
00000370: d288 403d a4fb 87bd 00f9 843d b025 9f3d
00000380: 51a8 acbd 42fd 33bd 014e 81bd 12d3 ca3b
00000390: 767d 143a 03cc 333d 5383 97bd 8ca0 54bc
000003a0: 6151 04bc b10e a9bc 1d45 cd3c 70db 1e3d
000003b0: f091 0b3d a561 36bc 584e 9c3c 5632 a6bd
000003c0: 5c32 d13a ab72 443d 2a2a ac3d 9b6e f73c
000003d0: c4ba ad3d fa7a 323d 0160 12bd 3d99 6c3c
000003e0: 6109 5a3d 9c4d b3bd ad51 523d d719 89bd
000003f0: 4359 f73c ad24 8ebd a0ed b03d d8a2 ba3b

actor.linear4.bias f4 [9]
0.05855366 -0.07815419 0.019381102 0.088091195 0.005266227 -0.04508394 0.060739905 0.06377403
0.07292626
00000000: f6d5 6f3d 4e0f a0bd 1ec5 9e3c 2869 b43d
00000010: 5090 ac3b f0a9 38bd 68ca 783d f59b 823d
00000020: 5d5a 953d

critic.linear1.weight f4 [128, 120]
0.07591254 0.11278073 0.08221248 0.02160007 -0.032849174 0.06991873 0.011032843 0.035447896
0.002158291 0.10440627 0.064418614 -0.058433603 0.054404132 -0.022345118 -0.046902902 -0.021250945
0.058323983 -0.084869556 -0.02585201 0.05375664 0.011865842 -0.008991751 0.046198346 -0.05816769
0.032443978 -0.049162317 0.015097044 0.026473366 -0.03422644 0.04561192 0.0772516 -0.035213348
-0.060938332 0.03873344 0.06242596 0.03224125 0.063097596 0.06732203 -0.09275659 -0.033730637
-0.008650084 0.07120989 -0.08583235 0.09653061 -0.028432071 -0.0639593 -0.069252454 -0.04133751
0.08007521 0.08956824 0.040469576 0.0748698 -0.00891129 -0.013816189 0.08012267 0.0885946
-0.08246588 -0.0068544955 -0.088461 0.049406063 -0.067855775 0.012910316 0.00059939886 -0.09074485
-0.017831838 -0.10414863 0.071527965 -0.025423434 0.09253657 -0.052966572 0.020250946 -0.04962425
-0.07160775 -0.10112411 0.028105663 -0.06515995 -0.027011558 0.088112734 0.019386007 -0.028227106
-0.09856866 -0.08693702 -0.07521209 -0.03787973 0.08856078 -0.023060188 -0.040265642 0.018850373
-0.01783554 -0.06228963 -0.09255603 0.060105354 0.04117873 -0.0026601623 0.030497322 0.059428956
0.03826662 0.036339212 -0.014562772 -0.012514772 -0.05016181 0.08254489 -0.04657138 -0.019787263
-0.010575739 0.07379769 -0.076418325 0.055990297 -0.09686703 0.0863431 0.100919515 -0.017616402
0.08486993 -0.103966616 0.09917917 -0.0054333527 -0.009428197 -0.05054909 0.103736185 0.085428186
-0.03664912 -0.091747954 0.03919806 0.06681866 -0.010965022 -0.0771804 -0.057263575 0.035587966
-0.007141145 -0.03538799 -0.03445952 0.06139164 -0.007715413 -0.0833643 0.059032634 0.053122852
0.03986227 -0.0235036 -0.067912355 -0.05370008 -0.05184753 0.023338463 0.0848552 -0.034968752
0.05722816 -0.008694404 0.036903754 0.01500166 0.04755364 0.009869354 0.060905732 -0.049482796
-0.06254104 -0.078535624 -0.00090503984 0.034831733 -0.022800261 -0.07172563 0.07401394 0.033543777
-0.010084065 0.011278889 0.04457603 0.02700202 -0.0508632 0.049020853 -0.063499995 -0.036882337
-0.09089289 0.04323293 0.03234497 -0.051324684 -0.05947847 -0.08353366 0.07600428 -0.084761456
-0.059098262 0.0081954915 0.083543725 -0.068364784 0.050131433 0.028257445 0.041921884 0.0029016316
0.08590531 0.022712946 -0.053357504 -0.07694699 0.011694797 -0.08743606 -0.025273627 -0.086640425
-0.03396899 0.077932894 0.07601244 0.010059296 0.028939923 -0.0523315 0.049455233 0.056237914
-0.03234419 -0.03259489 0.08309078 -0.045586675 0.007337601 0.0069032656 -0.026926616 -0.1030904
-0.029338622 0.01644868 -0.016051471 0.0009982348 0.075696945 -0.08033576 7.44452e-05 0.005729559
0.028572164 -0.034237906 -0.028033089 -0.05575295 -0.083890855 -0.041194573 0.05672822 0.07176235
-0.05393184 -0.002802185 0.0810766 -0.020756837 0.03360335 0.066767395 -0.0045823227 0.07578841
0.044315036 0.07903807 -0.07438994 -0.030816874 -0.015631568 0.057735864 0.0017759918 0.0046106935
-0.00508675 0.06400288 -0.004558282 -0.09618521 -0.08540593 0.018486438 -0.05678344 -0.042594627
0.07474781 0.11559583 0.08700081 -0.035814196 0.027840434 0.03372527 0.04310041 0.0017195576
00000000: 0978 9b3d 95f9 e63d 045f a83d a1f2 b03c
00000010: db8c 06bd 8d31 8f3d 19c3 343c d031 113d
00000020: 1d72 0d3b f4d2 d53d e8ed 833d 1358 6fbd
00000030: ded6 5e3d 1c0d b7bc 421d 40bd 7616 aebc
00000040: 21e5 6e3d 17d0 adbd 98c7 d3bc ec2f 5c3d
00000050: f368 423c 2352 13bc 7a3a 3d3d 3e41 6ebd
00000060: fae3 043d 6d5e 49bd 9859 773c acde d83c
00000070: 0631 0cbd 91d3 3a3d 1636 9e3d df3b 10bd
00000080: 799a 79bd f5a6 1e3d 5db2 7f3d 670f 043d
00000090: 5039 813d 22e0 893d 2bf7 bdbd 2329 0abd
000000a0: 15b9 0dbc 7ed6 913d dfc8 afbd d7b1 c53d
000000b0: 60ea e8bc 18fd 82bd 3bd4 8dbd 8551 29bd
000000c0: 79fe a33d 8e6f b73d 6dc3 253d 5655 993d
000000d0: a900 12bc 4c5d 62bc 5b17 a43d 1671 b53d
000000e0: dfe3 a8bd ad9b e0bb 0a2b b5bd 035e 4a3d
000000f0: f8f7 8abd ca85 533c fa20 1d3a 70d8 b9bd
00000100: 1314 92bc e04b d5bd 417d 923d ce44 d0bc
00000110: d083 bd3d 7af3 58bd 50e5 a53c cc42 4bbd
00000120: 16a7 92bd 281a cfbd d93d e63c 9472 85bd
00000130: 5847 ddbc 7374 b43d 67cf 9e3c 883c e7bc
00000140: 5ede c9bd 090c b2bd cc08 9abd c727 1bbd
00000150: 5b5f b53d b8e8 bcbc 96ed 24bd 196c 9a3c
00000160: d71b 92bc 6923 7fbd 048e bdbd 0831 763d
00000170: 07ab 283d 1e56 2ebb 85d5 f93c c76b 733d
00000180: 76bd 1c3d 6dd8 143d b198 6ebc c20a 4dbc
00000190: 7876 4dbd 4c0d a93d a2c1 3ebd e618 a2bc
000001a0: dd45 2dbc 3e23 973d 3681 9cbd 1556 653d
000001b0: 3962 c6bd a7d4 b03d e4ae ce3d 4650 90bc
000001c0: 49d0 ad3d 73ec d4bd 731e cb3d 440a b2bb
000001d0: b978 1abc 900c 4fbd a373 d43d f9f4 ae3d
000001e0: 631d 16bd 5ae6 bbbd 258e 203d 39d8 883d
000001f0: a3a6 33bc c210 9ebd 368d 6abd b0c4 113d
00000200: 4400 eabb fff2 10bd 6d25 0dbd cd75 7b3d
00000210: 93d1 fcbb e7ba aabd 34cc 713d 5997 593d
00000220: 9f46 233d 9f8a c0bc a215 8bbd 9df4 5bbd
00000230: 135e 54bd 4e30 bf3c 90c8 ad3d 653b 0fbd
00000240: 1368 6a3d f972 0ebc 6428 173d 86c9 753c
00000250: 9bc7 423d 12b3 213c 4a78 793d 79ae 4abd
00000260: 8415 80bd 49d7 a0bd 3240 6dba b8ab 0e3d
00000270: 9dc7 babc e3e4 92bd 9f94 973d 3365 093d
00000280: a237 25bc 17cb 383c 5b95 363d 5733 dd3c
00000290: ee55 50bd 17ca 483d 490c 82bd ef11 17bd
000002a0: 0d26 babd 0315 313d 297c 043d d539 52bd
000002b0: b29f 73bd b213 abbd 22a8 9b3d 6a97 adbd
000002c0: 0511 72bd 6246 063c f918 ab3d d602 8cbd
000002d0: 9e56 4d3d 287c e73c 48b6 2b3d 4d29 3e3b
000002e0: 20ef af3d 8010 ba3c 668d 5abd 6296 9dbd
000002f0: 899b 3f3c ad11 b3bd a30a cfbc 8970 b1bd
00000300: 1123 0bbd 489b 9f3d 69ac 9b3d bfcf 243c
00000310: 6b13 ed3c 8e59 56bd 9291 4a3d ba59 663d
00000320: 577b 04bd 3882 05bd 802b aa3d 18b9 3abd
00000330: 4270 f03b ca34 e23b 3595 dcbc 0f21 d3bd
00000340: 8d57 f0bc 62bf 863c 607e 83bc 34d7 823a
00000350: 0007 9b3d 1387 a4bd 761f 9c38 06bf bb3b
00000360: 2c10 ea3c 0c3d 0cbd a6a5 e5bc 355d 64bd
00000370: f8ce abbd a4bb 28bd da5b 683d 24f8 923d
00000380: a2e7 5cbd dda4 37bb 7d0b a63d 3e0a aabc
00000390: aba3 093d 58bd 883d 4f27 96bb f436 9b3d
000003a0: af83 353d b6de a13d c159 98bd ab73 fcbc
000003b0: c60d 80bc 717c 6c3d 65c8 e83a 4d15 973b
000003c0: c0ae a6bb f113 833d a45d 95bb c0fc c4bd
000003d0: 4ee9 aebd df70 973c c195 68bd b477 2ebd
000003e0: 6115 993d 82bd ec3d 7b2d b23d e8b1 12bd
000003f0: 9f11 e43c 8223 0a3d 0e8a 303d c762 e13a

critic.linear1.bias f4 [128]
-0.0103675965 -0.023001853 0.08910072 -0.053742833 0.07286174 0.10337555 0.054209106 -0.0425611
0.006799077 0.024478607 -0.015753327 0.04419238 -0.07910548 0.062996805 0.07501028 0.05495148
-0.060165524 0.11632895 0.107995264 0.026154267 0.08843353 0.058071285 0.030126313 0.0065076966
0.061303586 -0.008524191 -0.068134576 -0.026344776 0.052451912 0.06344739 0.040349696 0.09859777
0.07831421 0.015824461 -0.02252006 0.0148921 -0.015687209 0.09732728 0.07804868 -0.07663006
0.08975424 -0.055655703 0.0021758087 0.08864082 0.10850298 0.0320938 0.070738405 -0.051678643
-0.09459524 -0.024488922 0.10527476 0.008434739 -0.09353853 0.04493343 -0.10914364 0.04294238
0.07137154 -0.111962624 0.08745244 -0.09227522 -0.09640506 0.015188067 -0.020498905 -0.058786448
-0.026441218 0.081344746 -0.042927686 0.015414874 0.03983256 0.03277539 0.02308231 -0.039519433
-0.047340214 0.10190231 0.039755523 -0.039889056 0.09008014 -0.014727374 -0.043177493 -0.05229658
-0.029793995 0.06646677 0.08349567 -0.08886861 0.10515221 0.10577505 -0.014773504 0.11654318
-0.008300495 -0.079874255 0.11067055 0.012719477 -0.016409315 0.06340798 -0.06753657 0.0883079
0.09435615 0.040102553 -0.02039543 -0.059450828 0.07353375 -0.095858075 -0.04240845 -0.04670297
-0.065915905 0.10686548 -0.021976054 0.05387271 0.057716876 -0.04899351 0.06860062 0.042051602
-0.032886192 -0.058775857 0.112589724 -0.05974877 0.05056233 0.11003062 0.028801033 0.11409934
0.082385495 0.01552938 -0.019555341 -0.0663175 -0.08352431 0.04536214 -0.01659744 0.052799754
00000000: dadc 29bc 626e bcbc 707a b63d 7221 5cbd
00000010: 8938 953d 8fb6 d33d 5e0a 5e3d 8c54 2ebd
00000020: cbca de3b 5c87 c83c 1f0d 81bc 1203 353d
00000030: 0e02 a2bd 7804 813d fd9e 993d ce14 613d
00000040: 2070 76bd df3d ee3d 9f2c dd3d 7941 d63c
00000050: a31c b53d 28dc 6d3d 75cb f63c 843e d53b
00000060: 7819 7b3d 0ca9 0bbc 248a 8bbd 00d1 d7bc
00000070: d1d7 563d b5f0 813d b945 253d a1ed c93d
00000080: 3363 a03d 4da2 813c fd7b b8bc fffd 733c
00000090: 7682 80bc 8653 c73d fdd7 9f3d 39f0 9cbd
000000a0: 12d1 b73d 3cf7 63bd 0398 0e3b 5189 b53d
000000b0: cf36 de3d ca74 033d 4cdf 903d fcac 53bd
000000c0: 26bb c1bd fe9c c8bc 4b9a d73d dc31 0a3c
000000d0: 2191 bfbd 1e0c 383d b386 dfbd 59e4 2f3d
000000e0: 3e2b 923d a94c e5bd 441a b33d cafa bcbd
000000f0: 0470 c5bd 5fd7 783c 52ed a7bc 0fca 70bd
00000100: 419b d8bc 1398 a63d f1d4 2fbd ab8e 7c3c
00000110: 7727 233d 7d3f 063d 1d17 bd3c 21df 21bd
00000120: d0e7 41bd 29b2 d03d b0d6 223d b562 23bd
00000130: f07b b83d 154b 71bc e2da 30bd f034 56bd
00000140: 8912 f4bc bb1f 883d c7ff aa3d bf00 b6bd
00000150: 0b5a d73d 97a0 d83d 910c 72bc 31ae ee3d
00000160: cdfe 07bc 1d95 a3bd 3ea7 e23d 5a65 503c
00000170: d46c 86bc 0bdc 813d 9d50 8abd c6da b43d
00000180: cc3d c13d 9342 243d 5114 a7bc b682 73bd
00000190: dd98 963d 3d51 c4bd 7cb4 2dbd 9d4b 3fbd
000001a0: ebfe 86bd 4adc da3d 2007 b4bc a1a9 5c3d
000001b0: 8868 6c3d 6bad 48bd 7b7e 8c3d 4d3e 2c3d
000001c0: acb3 06bd f4be 70bd 7195 e63d 20bb 74bd
000001d0: 721a 4f3d bc57 e13d 25f0 eb3c eaac e93d
000001e0: bab9 a83d f16e 7e3c 8632 a0bc 78d1 87bd
000001f0: cb0e abbd a7cd 393d 5bf7 87bc 8e44 583d
