landing_falcon_raw_ckpt/ckpt_00009901.pt (torch, 930807 bytes, 15 tensors)

actor.linear1.weight f4 [128, 120]
0	0xbd63441d	-0.05548488
1	0xbd7cedd5	-0.06175025
2	0xbda0f368	-0.07858926
3	0x3d3a5d26	0.04549899
4	0xbcf99e42	-0.030470971
5	0x3d61b6d2	0.05510599
6	0x3d06cc20	0.032909513
7	0xbdf2854d	-0.11841831
8	0x3d3c99a0	0.046044946
9	0x3d9ad9b3	0.07561054
10	0xbd3cb36d	-0.04606955
11	0x3d5ab1cf	0.053392228
12	0x3dfdfb1f	0.12401413
13	0xbcc90bd2	-0.02454177
14	0x3d8c6d40	0.06856775
15	0x3cc59878	0.024120554
16	0x3d5c626c	0.0538048
17	0x3bbd5bb5	0.0057787546
18	0xbd53bdf7	-0.051694836
19	0x3d882d1e	0.066492304
20	0x3dae4546	0.085093066
21	0x3c87b324	0.016564913
22	0x3ce1cea0	0.027564347
23	0x3d9f094b	0.07765444
24	0xbd9540c5	-0.072877444
25	0xbcdf82cf	-0.027284054
26	0xbd106872	-0.035255857
27	0xbda4db46	-0.080496356
28	0xbd4a03cd	-0.04932003
29	0x3d9a47e1	0.07533241
30	0xbd65351f	-0.055958863
31	0xbdbdf43f	-0.09275102
32	0xbd291811	-0.041282717
33	0x3ca2fabc	0.01989495
34	0xbcbc05b6	-0.022951942
35	0xbc47a278	-0.012184732
36	0x3c24e49b	0.010064269
37	0x3d3b058a	0.04565958
38	0x3dafc2db	0.085820876
39	0x3da15803	0.07878115
40	0x3d9c53c3	0.07633164
41	0xbd43ab0e	-0.047770552
42	0x3da07b76	0.07836048
43	0xbd783033	-0.06059284
44	0x3ddea2ba	0.108708814
45	0x3a3e8036	0.000726703
46	0xbcaadc76	-0.020857077
47	0xbe04753c	-0.12935346
48	0x3d9e7a19	0.07738132
49	0xbca5edcb	-0.02025499
50	0xbd652d8e	-0.055951647
51	0xbd0fd026	-0.035110615
52	0xbd99e9a2	-0.07515265
53	0xbce80700	-0.02832365
54	0xbcc8f699	-0.02453165
55	0xbc58bb51	-0.013228253
56	0xbd4b3b4f	-0.049617108
57	0x3c314953	0.0108207045
58	0xbd843d5b	-0.06457015
59	0xbd23986a	-0.039940275
60	0x3d355b8c	0.04427676
61	0x3e0a35c4	0.13497072
62	0x3d093120	0.033494115
63	0xbd1dc0e9	-0.03851405
64	0x3d9a00ae	0.07519661
65	0x3c111e61	0.008857341
66	0x3d4b3c2a	0.049617924
67	0xbda8963b	-0.08231779
68	0x3cfd485b	0.03091829
69	0x3da3e9ab	0.08003553
70	0x3d76a4c7	0.060215738
71	0xbc0dee9b	-0.008662845
72	0x3c3d1a07	0.01154185
73	0xbd98f6a3	-0.07468917
74	0x3c9a93eb	0.01886936
75	0x3d804e58	0.06264943
76	0x3ccfd9e0	0.025372446
77	0x3de22b25	0.110433854
78	0x3b8d29b2	0.004307949
79	0xbe049978	-0.12949169
80	0x3d5c3308	0.053759605
81	0x3cd813f6	0.026376706
82	0xbd902738	-0.070387304
83	0x3d7b58a4	0.06136383
84	0xbdb09f48	-0.086241305
85	0xba1e00c4	-0.0006027336
86	0x3c2a4565	0.0103925215
87	0x3d644e5e	0.0557388
88	0xb9285df0	-0.00016056723
89	0x3d268b03	0.040659916
90	0xbb9e93e5	-0.0048394077
91	0x3d397f33	0.045287322
92	0x3d98d2ae	0.07462059
93	0x3e056e25	0.13030298
94	0x3c5c93cd	0.013462973
95	0xbe177587	-0.14790927
96	0xbd0d21e7	-0.03445616
97	0x3be372cd	0.0069411756
98	0x3d9076a2	0.070538774
99	0x3db16045	0.0866094
100	0xbbbcac91	-0.005757876
101	0xbd6cd470	-0.057819784
102	0x3caf1465	0.02137203
103	0x3bab050f	0.005219109
104	0xbd8bc421	-0.06824518
105	0xbd16e80f	-0.036842402
106	0xbd314ce8	-0.043286234
107	0xbdad83d5	-0.084724106
108	0xbc8a870a	-0.016910095
109	0x3dc7f49b	0.09763452
110	0x3d4a8ed7	0.04945263
111	0xbdc6a6ee	-0.09699808
112	0xbd83e79c	-0.0644066
113	0xbb45af52	-0.0030164314
114	0x3d468960	0.048470855
115	0xbd12144e	-0.035663895
116	0x3d65601a	0.055999853
117	0xbc5c93c5	-0.013462965
118	0xbd1886fc	-0.037238106
119	0x3daab3a9	0.08335049
120	0x3dd0c24c	0.10193309
121	0x3dd71652	0.10502304
122	0x3d8a981c	0.06767294
123	0x3d7aa272	0.061190076
124	0xbd90b86e	-0.07066427
125	0xbded4766	-0.11585884
126	0x3d645eee	0.055754595
127	0x3dde00a7	0.10839968
128	0xbd53028c	-0.0515161
129	0xbd50f693	-0.0510164
130	0x3d87a5bc	0.06623408
131	0x3d3a750e	0.04552179
132	0xbd2a8c59	-0.041637752
133	0xbd356768	-0.04428807
134	0xbd6efab4	-0.058344558
135	0x3bbf1d31	0.0058323373
136	0x3cf25102	0.029579643
137	0xbda8d657	-0.08244007
138	0x3bc1b8c7	0.0059119198
139	0xbd593181	-0.053025726
140	0x3d9e6537	0.07734149
141	0xbd00b5d0	-0.03142339
142	0xbc233d5e	-0.009963362
143	0x3dc6802a	0.09692414
144	0x3d24d549	0.040242467
145	0xbd89b9f9	-0.067249246
146	0x3d93c27b	0.072148286
147	0x3da9698c	0.082720846
148	0xbc3c0d0d	-0.011477721
149	0xbd6452a6	-0.055742882
150	0x39364594	0.00017382792
151	0x3db13ce6	0.086541936
152	0x3d5a892b	0.05335347
153	0x3da877a0	0.08225942
154	0xbd69c71e	-0.05707466
155	0x3d71c1c4	0.05902268
156	0x3dcf630a	0.10126312
157	0xbd376c29	-0.044780884
158	0xbd4cd256	-0.05000528
159	0xbcf58418	-0.029970214
160	0x3c4e9974	0.012609828
161	0xbd610814	-0.054939345
162	0xbda0e6d6	-0.078565285
163	0x3c9595b1	0.018259855
164	0xbbd5a299	-0.0065196273
165	0xba871205	-0.0010305053
166	0xbd8ab421	-0.06772638
167	0x3d567bc4	0.052364126
168	0x3cf80629	0.030276375
169	0xbd7a5bce	-0.061122708
170	0x3c9993bf	0.018747209
171	0x3db1b437	0.086769514
172	0xbd8efa1b	-0.069812976
173	0x3d9a4397	0.07532423
174	0xbd396b25	-0.045268197
175	0xbd938b21	-0.07204271
176	0x3d9d648f	0.07685196
177	0x3c184f03	0.009296182
178	0x3d1ac6e4	0.037787333
179	0x3d993876	0.07481472
180	0xbc0626f7	-0.008188001
181	0xbe004263	-0.12525325
182	0x3d9413df	0.072303526
183	0x3d87c67f	0.06629657
184	0x3d566602	0.052343376
185	0x3d88a80b	0.06672677
186	0x3d868ba6	0.065696046
187	0xbced45a8	-0.028963879
188	0x3dcb93f5	0.0994033
189	0x3d18c1bc	0.037294134
190	0xbd6c42e5	-0.057680983
191	0x3ddf2a5a	0.1089675
192	0x3d0cca9a	0.034372903
193	0xbc21a6d9	-0.00986644
194	0xbd2612d6	-0.040545307
195	0x3cf20d93	0.029547488
196	0x3d56d771	0.052451555
197	0xbb4ad284	-0.003094823
198	0xbd6c7bd7	-0.05773529
199	0x3db3d324	0.08780506
200	0x3d467b5b	0.048457485
201	0xbd6ac0d6	-0.05731281
202	0x3d0de63e	0.034643404
203	0xbd18a77c	-0.0372691
204	0x3d894ea8	0.067044556
205	0x3c4b33ec	0.012402516
206	0x3d5f35d6	0.0544947
207	0xbbbc9754	-0.0057553444
208	0xbd6738b8	-0.056450576
209	0xbd553a32	-0.052057452
210	0x3ad98347	0.001659491
211	0xbb935652	-0.004496374
212	0x3d3d53c0	0.04622245
213	0xbca403f7	-0.020021422
214	0x3d5576d7	0.052115288
215	0x3a4da1b8	0.00078442274
216	0xbcbf0295	-0.02331666
217	0xbced872a	-0.028995115
218	0xbda911c9	-0.082553454
219	0x3b05476f	0.0020336767
220	0x3d5cdb7f	0.053920265
221	0x3d846f15	0.064665
222	0xbcf43dc8	-0.029814616
223	0x3aa00d8e	0.0012211071
224	0xbcf3be9f	-0.029753981
225	0xbd0f5e32	-0.03500194
226	0x3d4cf732	0.05004043
227	0x3c493dcb	0.012282799
228	0xbdb8e8e5	-0.09028796
229	0xbdda9645	-0.10673193
230	0x3d29389b	0.04131375
231	0x3e078ac1	0.13236524
232	0xbd865e09	-0.065609045
233	0x3d1b568b	0.03792433
234	0xbccd84d3	-0.02508775
235	0xbd0156e8	-0.03157702
236	0xbd82d6f0	-0.06388652
237	0xbc864c63	-0.016393846
238	0x3d17f250	0.03709632
239	0x3d8fcdc4	0.070216686
240	0x3d83e18b	0.06439503
241	0xbd41ce01	-0.0473156
242	0xbd85fb21	-0.0654204
243	0xbdaecfc7	-0.08535724
244	0xbd83b4ce	-0.0643097
245	0xbd4a8d8a	-0.04945139
246	0xbd97a119	-0.07403774
247	0xbb66f286	-0.003523977
248	0xbd8f74de	-0.070047125
249	0xbda25664	-0.07926634
250	0x3cfca545	0.030840525
251	0xbc37b72b	-0.011213104
252	0x3d928517	0.07154291
253	0xbd01492a	-0.031563915
254	0xbd2cb3b9	-0.042163584
255	0xbafe9b7f	-0.0019425004

actor.linear1.bias f4 [128]
0	0x3daf5cae	0.08562599
1	0x3cda8222	0.02667338
2	0x3cbdc886	0.023166906
3	0x3d2759e1	0.0408572
4	0xbda139e5	-0.07872371
5	0x3c074acf	0.008257582
6	0x3d18ad7d	0.037274826
7	0x3da1eb65	0.07906226
8	0x3db58f8c	0.0886527
9	0x3d25707d	0.04039048
10	0xbd11b44c	-0.035572335
11	0x3d49f0a5	0.049301762
12	0x3dccf7e6	0.100082204
13	0xbd1f6598	-0.038915247
14	0xbc0684a6	-0.008210337
15	0x3d2955ce	0.041341595
16	0x3c81b8d7	0.015835209
17	0xbd9cb5e0	-0.076518774
18	0xbcf756f8	-0.030192837
19	0xbca824e4	-0.020525403
20	0xbd7124b4	-0.058872893
21	0x3d99b02e	0.07504307
22	0xbd9f736b	-0.07785686
23	0x3c2a8575	0.010407795
24	0x3d57ee4f	0.052717503
25	0x3b607ac5	0.0034252864
26	0x3c42d44f	0.011891439
27	0x3d4ff726	0.05077281
28	0x3dcc0efd	0.09963796
29	0xbc0baf8a	-0.0085257385
30	0x3b8d19cd	0.004306054
31	0x3d84127e	0.064488396
32	0x3d7c3bdc	0.061580524
33	0x3d2c58d8	0.042076916
34	0x3d1c87b2	0.038215347
35	0x3d8b75a4	0.068095475
36	0x3ddbf47e	0.107399926
37	0xbd6755b7	-0.05647823
38	0xb80634d5	-3.1997293e-05
39	0x3cf78b75	0.030217865
40	0x3c028522	0.007966312
41	0x3d842ab2	0.06453456
42	0xbccc1051	-0.024910124
43	0x3d28fd9a	0.04125748
44	0x3cdafae4	0.026730962
45	0xbd118dd8	-0.035535663
46	0x3d6c760a	0.05772976
47	0xbd72d28f	-0.059282836
48	0xbda60490	-0.08106339
49	0x3d231da8	0.039823204
50	0x3d1bab6c	0.038005278
51	0x3d5d682e	0.05405443
52	0xbd061cb7	-0.03274223
53	0x3dbf5994	0.093432575
54	0x3c53669b	0.012902881
55	0x3d0e6698	0.03476581
56	0xbd815e30	-0.06316793
57	0xbd902964	-0.07039145
58	0x3c95215e	0.018204387
59	0xbd81669f	-0.063184015
60	0x3d9a1b28	0.07524711
61	0x3bd7e7f9	0.0065889326
62	0x3da0e71e	0.07856582
63	0x3da4a7e0	0.08039832
64	0x3db1d779	0.08683676
65	0xbc9378d2	-0.018001948
66	0x3c0a31e8	0.00843475
67	0xbcadc0d2	-0.021210108
68	0xbd9e79eb	-0.07738098
69	0xba303566	-0.0006721824
70	0xbd4518ed	-0.048119474
71	0xbd97e043	-0.074158214
72	0xbc392164	-0.011299465
73	0x3d607a89	0.05480436
74	0xbb8e32c9	-0.00433955
75	0x3d114ed7	0.03547558
76	0x3dbb3d16	0.091425106
77	0x3d99f470	0.07517326
78	0x3d905d5b	0.07049056
79	0xbc33743a	-0.010953004
80	0xbd7c2bb4	-0.061565116
81	0x3d6bd23d	0.057573546
82	0x3da647bc	0.08119151
83	0xbd851683	-0.064984344
84	0xbd6b47db	-0.057441574
85	0xbd4662df	-0.048434135
86	0xbc573ac8	-0.013136573
87	0xbd841df5	-0.06451026
88	0x3d0f9de0	0.03506267
89	0xbd97a967	-0.07405358
90	0x3ccdfd2c	0.025145136
91	0xbc735ecd	-0.014854145
92	0xbd87fb9a	-0.06639786
93	0xbd8607f2	-0.06544484
94	0xbb32544a	-0.0027210885
95	0x3d072c56	0.033001266
96	0xbd76e6e3	-0.060278784
97	0xbd1a3151	-0.037644688
98	0x3dd2827a	0.10278793
99	0xbd81cbb6	-0.06337683
100	0x3c8d7a61	0.017270269
101	0xbd30220c	-0.04300122
102	0x3cf95f59	0.030440973
103	0xbbae96fd	-0.005328058
104	0xbd97bb37	-0.07408755
105	0xbca4db14	-0.020123996
106	0x3d0e408c	0.034729525
107	0x3b04b1bc	0.002024754
108	0xbd2cbe5f	-0.04217374
109	0x3c2cadb2	0.010539459
110	0xbd1be7d8	-0.0380629
111	0xbd0db447	-0.034595754
112	0xbc463ea6	-0.0120998975
113	0x3d1cc225	0.03827109
114	0x3b26a604	0.0025428543
115	0x3d8d6a8a	0.06905086
116	0xbd92190e	-0.07133685
117	0xbc191c27	-0.009345091
118	0x3d4feb09	0.050761256
119	0xbcf40a19	-0.029789971
120	0x3da972f4	0.08273879
121	0xbb1b94f5	-0.0023739908
122	0x3db6db88	0.08928591
123	0x3d859898	0.065232456
124	0x3bb3ea97	0.005490612
125	0x3d057fac	0.03259246
126	0xbd9543ed	-0.072883464
127	0xbce45de3	-0.0278768

actor.linear2.weight f4 [128, 128]
0	0xbdb6f815	-0.08934037
1	0x3c1d4251	0.009598331
2	0xbd158e1a	-0.03651247
3	0x3d8cd955	0.0687739
4	0xbdb1e903	-0.086870216
5	0xbdb161d3	-0.086612366
6	0x3cbd3fd9	0.023101734
7	0x3d1574ab	0.036488216
8	0x3caf4f75	0.021400193
9	0xbda82a76	-0.08211224
10	0xbcf362c9	-0.02971019
11	0xbd81e48d	-0.06342421
12	0x3da81094	0.08206287
13	0x3ca837dd	0.02053445
14	0x3d575ca3	0.05257858
15	0xbd2ff92b	-0.042962234
16	0xbc8a487f	-0.016880272
17	0xbd4749b9	-0.04865429
18	0x3c746a20	0.01491788
19	0x3dd1c412	0.102424756
20	0x3d93e793	0.07221904
21	0xbd8893ef	-0.06668841
22	0x3d140e97	0.036146726
23	0x3dabe2fe	0.08392905
24	0xbd6d9d2c	-0.05801122
25	0xbd737ef2	-0.059447236
26	0x3c0ba597	0.008523366
27	0x3dac9fbb	0.08428904
28	0x3d88b923	0.06675937
29	0xbd49372d	-0.049124885
30	0x3c93b8a5	0.018032381
31	0xbd5ce573	-0.053929757
32	0xbd249b23	-0.040187012
33	0xbd4ef036	-0.05052205
34	0xbd78c1f2	-0.060731836
35	0xbd3228d1	-0.043495957
36	0x3d2c2c33	0.04203434
37	0xbd3e1bd7	-0.04641327
38	0xbd8c1bb1	-0.06841219
39	0x3d5f7667	0.054556277
40	0xbd176a36	-0.036966525
41	0x3d851907	0.06498914
42	0x3ce7f796	0.0283163
43	0x3d98e1c0	0.074649334
44	0x3d4b3e3b	0.049619894
45	0xbbd4994e	-0.006488002
46	0x3dc14c57	0.09438389
47	0x3d8649ae	0.06557022
48	0xbcfef455	-0.031122366
49	0xbd31a724	-0.04337229
50	0xbd758ce8	-0.05994883
51	0xbd00d4c1	-0.031452898
52	0x3c9a6dec	0.018851243
53	0xbbff45e4	-0.007790314
54	0xbb9b8c13	-0.0047469228
55	0xbcca71f0	-0.024712533
56	0x3d53d64c	0.05171804
57	0xbbdf3328	-0.006811518
58	0x3d0a5df1	0.033780996
59	0x3d11e386	0.035617374
60	0xbcc5f584	-0.024164923
61	0x3d7f64b1	0.062351886
62	0xbd7d216f	-0.061799463
63	0xbd85bc60	-0.0653007
64	0xbd1a7436	-0.037708484
65	0xbafefa2c	-0.0019453219
66	0x3dcd207a	0.1001596
67	0x3c407ceb	0.011748533
68	0x3d7e36bd	0.06206392
69	0x3d227b51	0.039668385
70	0xbd89f670	-0.06736457
71	0x3d9a6df6	0.07540505
72	0x3d97bb45	0.07408766
73	0x3c0b3d4a	0.008498499
74	0x3d12c391	0.035831038
75	0x39814533	0.00024656355
76	0x3d02a8e6	0.031899355
77	0xbcf297dc	-0.029613428
78	0x3d98dc8b	0.0746394
79	0xbd90e034	-0.07074013
80	0x3bc8fb62	0.006133483
81	0xbd190aa7	-0.037363674
82	0x3c9a886e	0.018863883
83	0xbd43aa61	-0.047769908
84	0xbd712edb	-0.058882575
85	0x3d16e16b	0.03683607
86	0xbd7b367f	-0.06133127
87	0xbd113dec	-0.035459444
88	0x3a799c50	0.00095218886
89	0x3c21204f	0.009834363
90	0xbd68d9cc	-0.056848332
91	0xbc851031	-0.016243072
92	0xbd349990	-0.04409176
93	0x3d3f1db9	0.046659205
94	0x3ced8222	0.028992716
95	0x3ba479bc	0.0050193947
96	0x3c9ab7b1	0.018886419
97	0x3d3361d0	0.043794453
98	0xbd98447a	-0.07434936
99	0xbba998ea	-0.0051756995
100	0x3da439ee	0.08018862
101	0xbd821b63	-0.0635288
102	0xbdae4459	-0.0850913
103	0x3d90b32f	0.070654266
104	0xbd7505ea	-0.059820093
105	0xbd83ffa1	-0.06445242
106	0x3d8d571e	0.06901382
107	0x3bc18683	0.0059059276
108	0xbdcb9f1f	-0.09942459
109	0x3d9f1d43	0.07769253
110	0xbc0b43dd	-0.008500067
111	0x3d39b761	0.0453409
112	0xbcf2f9f2	-0.029660199
113	0xbd2458c4	-0.040123716
114	0x3cfaa2a8	0.030595139
115	0xbbd77546	-0.0065752594
116	0x3c879e39	0.016554939
117	0xbd917d30	-0.07103956
118	0x3db55e37	0.08855861
119	0x3d8b5201	0.068027504
120	0x3dabf424	0.083961755
121	0x3daca88b	0.084305845
122	0xbcec44e4	-0.028841443
123	0x3a199c1d	0.00058597495
124	0x3d7c40e6	0.06158533
125	0xbbfde014	-0.0077476595
126	0xbd91ce41	-0.07119418
127	0xbc86cc43	-0.016454821
128	0x3dd60e6e	0.10451971
129	0xbcafaf5c	-0.021445923
130	0xbd6d7389	-0.05797151
131	0x3c6cc2bc	0.014450725
132	0x3d9ffdab	0.07812055
133	0x3d874aa4	0.066060334
134	0x3b91efaa	0.004453619
135	0x3d134449	0.035953794
136	0x3cb18373	0.021669125
137	0x3d2aa632	0.041662402
138	0xbd818e61	-0.06325985
139	0x3c5f4c8c	0.01362909
140	0xbcf3d5b9	-0.029764997
141	0x3ccd7cf8	0.025084004
142	0xbcfb238b	-0.030656597
143	0x3d58d473	0.052936982
144	0xbdb052d1	-0.08609546
145	0xbdd83084	-0.105561286
146	0x3d50a720	0.050940633
147	0xbd42b803	-0.04753877
148	0xbd983aed	-0.07433114
149	0x3d3a86df	0.04553878
150	0x3dbc8dd9	0.09206743
151	0xba167f11	-0.000574098
152	0xbd8d36fa	-0.068952516
153	0xbd2688a4	-0.040657654
154	0x3d6f43b3	0.058414172
155	0x3d550ca6	0.052014016
156	0x3d7bdcca	0.061489858
157	0x3cc34665	0.023837278
158	0x3d8ca91a	0.06868191
159	0x3da9fdee	0.08300386
160	0xbdaab42c	-0.08335146
161	0xbdb6e200	-0.08929825
162	0xbc8c43f2	-0.017122243
163	0x3bb25764	0.0054425467
164	0xbd910eab	-0.07082876
165	0x3c017ba3	0.007903012
166	0x3da5512c	0.08072123
167	0xbbf77037	-0.007551219
168	0x39e65001	0.00043928626
169	0xbb49f1c3	-0.0030814267
170	0x3d7e8588	0.062139064
171	0xbda540bf	-0.0806899
172	0x3c8e616c	0.017380439
173	0xbd094e22	-0.03352178
174	0x3d9f5ca5	0.077813424
175	0xbd96d5b0	-0.073649764
176	0xbc7324e7	-0.014840341
177	0x3d91d785	0.07121185
178	0x3d57bfb1	0.052673046
179	0x3d35c417	0.04437646
180	0x3d2fa1bf	0.042878862
181	0x3cafff68	0.021484092
182	0xbd622d2f	-0.05521887
183	0xbd9e1b9d	-0.077201106
184	0x3c08bc0d	0.008345616
185	0xbd361ac1	-0.04445911
186	0xbca14dca	-0.019690413
187	0x3db8f3ab	0.09030851
188	0xbd00297f	-0.031289574
189	0x3d613979	0.05498645
190	0x3d6301d4	0.055421665
191	0x3ba8aee1	0.0051478003
192	0x3d81fdff	0.06347274
193	0x3d254104	0.040345207
194	0x3d383a63	0.044977557
195	0xbbf438e5	-0.0074530714
196	0xbc2b393a	-0.010450656
197	0xbd2bc227	-0.041933205
198	0x3d8e96d5	0.06962363
199	0x3d6585af	0.056035694
200	0x3d52cdaa	0.051465668
201	0x3d704774	0.058661893
202	0xbd96397c	-0.07335183
203	0xbda3ab31	-0.079916365
204	0x3db1f8fd	0.08690069
205	0x3ca2def3	0.019881701
206	0x3ca76ceb	0.020437678
207	0x3cfe8722	0.031070296
208	0x3d356481	0.0442853
209	0xbc1aba36	-0.00944381
210	0xbca5d5a8	-0.02024348
211	0x3d78b97f	0.060723778
212	0xbc805c3a	-0.015668977
213	0x3d9ecf83	0.077544235
214	0x3d134921	0.035958413
215	0x3b197bc8	0.0023419727
216	0x3b0af821	0.0021205025
217	0x3d7641b6	0.06012126
218	0xbc493216	-0.012280008
219	0xbca1db21	-0.01975781
220	0x3dd37c4c	0.10326442
221	0x3dd6a56b	0.1048077
222	0x3dab5f96	0.08367841
223	0xbd8853ab	-0.066565834
224	0xbc9c35fb	-0.019068709
225	0x3c8d8d99	0.017279433
226	0xbc428942	-0.011873545
227	0x3c9c6066	0.019088935
228	0xbd014c4a	-0.031566896
229	0xbd8694cf	-0.06571352
230	0x3d871e91	0.06597627
231	0x3d8accb9	0.06777329
232	0x3d9030c8	0.07040554
233	0xbd9976c7	-0.07493358
234	0xbcaa47da	-0.020786215
235	0xbc8d69d4	-0.017262377
236	0x3d3bf64b	0.04588918
237	0x3c1ac3c1	0.009446085
238	0x3d382aed	0.044962812
239	0x3ce1a745	0.02754558
240	0xbda600a2	-0.081055894
241	0x3d65c107	0.05609229
242	0xbc3f691c	-0.011682775
243	0xbd81a6f4	-0.06330672
244	0x3dbe970a	0.09306152
245	0x3d9fad18	0.07796687
246	0xbdc3e8ea	-0.09565909
247	0x3be040ff	0.0068436856
248	0xbd7602c7	-0.060061242
249	0x3d22b682	0.039724834
250	0x3d4b3270	0.049608648
251	0xbd6f625c	-0.058443412
252	0x3ceebed6	0.029143732
253	0xbc5bc05f	-0.013412564
254	0x3dcf2643	0.1011472
255	0x3d2f0d58	0.042737335

actor.linear2.bias f4 [128]
0	0x3d70dcdb	0.058804374
1	0xbd2d188e	-0.042259745
2	0xbd281a85	-0.041040916
3	0xbd08e192	-0.033418246
4	0x3c2ea83c	0.010660227
5	0xbb1a961f	-0.0023588014
6	0x3d235066	0.039871596
7	0x3cba39f4	0.022732712
8	0xbda22f6a	-0.079192
9	0xbb851df9	-0.004062411
10	0xbd913db5	-0.07091848
11	0xbd86febe	-0.06591557
12	0xbd9c152d	-0.076212265
13	0x3d2a6112	0.04159648
14	0x3d43de39	0.04781935
15	0x3db5903f	0.088654034
16	0xbd4f5bd1	-0.050624672
17	0xbc4206e8	-0.011842467
18	0xbd791b37	-0.06081697
19	0x3d3780ac	0.044800445
20	0x3da7cf54	0.081938416
21	0x3ca24a1a	0.019810725
22	0xbd8fc8d7	-0.07020729
23	0xbb3d17f8	-0.0028853398
24	0x3d721d1f	0.059109803
25	0xbd496b66	-0.04917469
26	0xbcd5f8e5	-0.026119659
27	0x3d8c2595	0.06843106
28	0xbd69d81b	-0.05709086
29	0xbd4f8416	-0.050663076
30	0x3d60c838	0.054878443
31	0x3d51133f	0.051043745
32	0x3d06274b	0.032752316
33	0x3d57a998	0.05265197
34	0xbd6ce00e	-0.057830863
35	0x3c8388e9	0.016056495
36	0x3d5aa0db	0.05337606
37	0xbd121156	-0.035661064
38	0x3dae57a5	0.085128106
39	0x3d3439ae	0.04400032
40	0xbcb3f342	-0.02196658
41	0x3c72d159	0.01482042
42	0xba2875e9	-0.00064262614
43	0xb9fa0862	-0.00047689962
44	0xbd6d3902	-0.057915695
45	0x3c196714	0.009362955
46	0xbcbdaf34	-0.023154832
47	0x3d7e0d86	0.062024616
48	0x3daa7e65	0.08324889
49	0xbd944692	-0.07240023
50	0x3d72a857	0.059242573
51	0x3d0ec66f	0.03485721
52	0x3dbe6366	0.092963025
53	0xbcbf31ee	-0.023339238
54	0xbd4b491e	-0.049630277
55	0xbd1b8823	-0.037971627
56	0x3d942acb	0.072347246
57	0x3c151349	0.009098836
58	0xbda0c570	-0.07850158
59	0x3ccbe4d0	0.02488938
60	0xbc2fe5bc	-0.010735925
61	0xbd6a94d2	-0.057270832
62	0xbbcd74dd	-0.0062700347
63	0x3da3bf32	0.07995452
64	0xbd7f920a	-0.062395133
65	0x3db0da3b	0.08635374
66	0x3d308613	0.043096613
67	0x3daafcec	0.08349022
68	0xbd3b3cf1	-0.045712415
69	0x3c82fce5	0.01598973
70	0x3ca0dfdd	0.019637996
71	0xbc01c904	-0.007921461
72	0xbd204f1d	-0.03913795
73	0x3ce935d1	0.028468044
74	0xbc541b39	-0.0129459435
75	0x3d141e3b	0.036161643
76	0x3bdfe312	0.006832489
77	0xbc185e99	-0.009299898
78	0xbd885564	-0.06656912
79	0xbc081df3	-0.008307922
80	0x3d8b90c4	0.06814721
81	0xbb0f35dc	-0.002185217
82	0x3da8b806	0.08238225
83	0x3c88aaa8	0.016682938
84	0xbd4ca643	-0.049963247
85	0x3b6a7be5	0.0035779413
86	0x3c30ee07	0.010798938
87	0x3d3f2ab9	0.046671603
88	0xbcea1bdc	-0.028577738
89	0x3d97f52b	0.07419809
90	0xbd04964c	-0.032369897
91	0x3d498e17	0.049207773
92	0xbc521b24	-0.012823854
93	0xbc667108	-0.014065035
94	0x3dc1491e	0.09437774
95	0xbcecf36b	-0.028924664
96	0x3ccd64b7	0.025072439
97	0x3d85c38e	0.0653144
98	0xbccb1129	-0.024788456
99	0xbd427476	-0.047474347
100	0xbd4197b4	-0.047263816
101	0x3dadccaa	0.08486302
102	0x3cf7e792	0.030261789
103	0x3daa3f81	0.08312894
104	0x3d6fd47a	0.058552243
105	0xbcf06a46	-0.02934755
106	0x3d1ada1f	0.037805673
107	0x3d89b7fe	0.06724547
108	0x3d6a4984	0.057199016
109	0x3b25783f	0.0025248674
110	0x3d88fe72	0.066891566
111	0x3d8d4428	0.068977654
112	0x3db7e764	0.08979681
113	0xbd35171e	-0.0442115
114	0x3dc5c293	0.09656253
115	0xbd3cb866	-0.046074294
116	0xbd34e919	-0.04416761
117	0x3c753070	0.014965162
118	0xbd00bdb5	-0.03143092
119	0x3b8d4751	0.00431148
120	0xbd88825b	-0.06665488
121	0xbd3262bf	-0.043551203
122	0xbd629d6b	-0.055325907
123	0x3d1eae21	0.03874028
124	0xbcfc4cf7	-0.030798418
125	0xbcfa0ff0	-0.030525178
126	0x3d4e80ba	0.050415732
127	0x3d8f4a25	0.06996564

actor.linear3.weight f4 [128, 128]
0	0xbd90df91	-0.07073892
1	0xbd9ec134	-0.07751694
2	0xbc2dee06	-0.010615831
3	0xbcea87ad	-0.028629148
4	0x3c361b9f	0.011114984
5	0x3d3470c4	0.044052854
6	0xbd42a328	-0.04751888
7	0x3db82608	0.08991629
8	0xbd9388b4	-0.072038084
9	0x3d995403	0.07486727
10	0x3d1ebe4e	0.038755707
11	0xbd43ea84	-0.047831073
12	0xbc4422a7	-0.011971152
13	0xbd6cc1b4	-0.057801917
14	0xbdc46e95	-0.09591404
15	0xbda092e0	-0.07840514
16	0xbd29a55d	-0.04141747
17	0x3d81eb43	0.06343701
18	0x3d2fddbf	0.042936083
19	0xbcac063c	-0.020999067
20	0xbda19e1d	-0.07891486
21	0x3d0be969	0.034158144
22	0x3db9549e	0.090493426
23	0x3c89bd27	0.016813828
24	0x3d4875e9	0.048940573
25	0xbd565ec0	-0.052336454
26	0x3d2edd58	0.04269156
27	0xbd986eac	-0.07442984
28	0x3d61505b	0.055008274
29	0xbb66f60b	-0.0035241868
30	0x3d2c267a	0.04202888
31	0xbd9b2e84	-0.075772315
32	0x3ccc0c91	0.024908336
33	0x3979afbf	0.00023811961
34	0xbaf59073	-0.0018735066
35	0x3c6d4405	0.014481549
36	0x3d9c3060	0.07626414
37	0xbd185ea0	-0.037199616
38	0x3d8fe27b	0.070256196
39	0xbccf2241	-0.025284888
40	0x3d057244	0.032579675
41	0x3d7e1384	0.06203033
42	0x3d17a8ea	0.037026323
43	0x3c5c355f	0.013440459
44	0x3d2ac44f	0.04169112
45	0x3d9fb498	0.077981174
46	0x3d39b589	0.04533914
47	0x3da90642	0.08253147
48	0xbd8d2cae	-0.068932876
49	0x3cf52319	0.029923962
50	0x3de0a979	0.10969824
51	0xbd372033	-0.044708442
52	0x3d8c2ad0	0.06844103
53	0x3d0adb4d	0.033900548
54	0x3d618f5b	0.055068355
55	0xbae8c874	-0.0017759935
56	0xbdb184d7	-0.08667915
57	0x3ddff6a2	0.10935713
58	0xbd91c2ca	-0.07117231
59	0xbd8b921d	-0.06814978
60	0xbcd3c6e0	-0.025851667
61	0x3d943fc6	0.07238726
62	0x3d84529a	0.064610675
63	0x3d4a975a	0.049460746
64	0xbdb54665	-0.08851317
65	0x3d9c9b32	0.07646789
66	0x3b34453e	0.0027507092
67	0xbd007121	-0.031357888
68	0xbd795bd8	-0.060878605
69	0x3c9d55c6	0.019205939
70	0xbc3462a3	-0.011009845
71	0xbc98a661	-0.018634023
72	0xbd681989	-0.056664977
73	0x3d20d29c	0.039263353
74	0xbd3ccbd2	-0.046092816
75	0xbd154c68	-0.03644982
76	0x3d092299	0.03348026
77	0x3d843c0a	0.06456764
78	0x3dd85f8b	0.105650984
79	0xbcc2d1e8	-0.023781732
80	0xbd7208f1	-0.05909056
81	0x3d89f171	0.067355044
82	0x3d88f9e1	0.066882856
83	0xbba81a3a	-0.0051300796
84	0xbda14388	-0.07874209
85	0xbd1362e6	-0.03598299
86	0x3ca575f0	0.020197839
87	0x3d7a79c2	0.061151274
88	0xbd805129	-0.0626548
89	0x3d0b7449	0.034046445
90	0xbcb96a73	-0.022633767
91	0x3d71c332	0.059024043
92	0xbda2e831	-0.07954443
93	0xbd223648	-0.039602548
94	0x3d3b868f	0.045782622
95	0xbc5c7916	-0.0134566035
96	0x3d5565b4	0.052098945
97	0x3da1cc62	0.07900311
98	0x3d671724	0.056418553
99	0xbc016143	-0.007896724
100	0xbd25b2a4	-0.040453568
101	0xbd7c39a9	-0.061578427
102	0x3d42d7bd	0.047569025
103	0x3d6b20db	0.05740438
104	0xbcc12147	-0.023575438
105	0x3c3bb455	0.011456569
106	0xbd16ab26	-0.036784314
107	0xbdbd10cf	-0.092317216
108	0x3cdd9358	0.027047798
109	0xbb90d9fb	-0.0044205165
110	0xbb9fbb0a	-0.0048745917
111	0x3dd1af1c	0.102384776
112	0xbcbefd47	-0.023314131
113	0x3dc09a6f	0.09404456
114	0x3cf47115	0.029839078
115	0xbdc70d01	-0.09719277
116	0x3c86cbef	0.016454665
117	0x3c2ba584	0.010476474
118	0xbd87b516	-0.06626336
119	0x3d79fc09	0.061031375
120	0x3dcb99a1	0.09941412
121	0x3da5e88c	0.081009954
122	0x3d86ad58	0.065760314
123	0x3d3c8a61	0.046030406
124	0xbd028fb6	-0.031875335
125	0xbaa18b2a	-0.0012324799
126	0xbd1c488b	-0.03815512
127	0x3d0a25e0	0.033727527
128	0x3d66e336	0.05636903
129	0xbb7ac16c	-0.003826226
130	0xbba5938c	-0.0050529893
131	0xbd02d48f	-0.031940993
132	0xbd9b72f9	-0.07590289
133	0x3d746be9	0.059673224
134	0x3d85edb8	0.06539482
135	0x3b6226ca	0.0034507983
136	0x3d2d5c42	0.042324312
137	0xbb15bee9	-0.0022849387
138	0x3db66bc3	0.08907273
139	0x3d97987d	0.07402132
140	0xbdb94bed	-0.09047685
141	0x3dbe9c2a	0.0930713
142	0x3d79af3d	0.060958136
143	0xbcc597a0	-0.024120152
144	0xbd89f8eb	-0.067369305
145	0x3c60ecf5	0.01372837
146	0x3d8b3b04	0.06798366
147	0xbda7d22a	-0.081943825
148	0x3b1f2c71	0.0024287964
149	0xbde91001	-0.11380006
150	0x3ce8155e	0.028330501
151	0xbd002726	-0.031287335
152	0x3d6b44b4	0.057438567
153	0x3d02f218	0.03196916
154	0x3dae47df	0.08509802
155	0xbc41dd3e	-0.011832533
156	0x3d9e983f	0.077438824
157	0x3d1f3f79	0.03887889
158	0x3abb1357	0.0014272731
159	0x3db4794c	0.08812198
160	0x3d96d6ec	0.07365212
161	0x3d92bc5d	0.07164834
162	0xbd2a15b0	-0.04152459
163	0x3d6a6db2	0.05723352
164	0x3ba2c289	0.004967038
165	0xbd895022	-0.06704737
166	0x3d8d3269	0.068943806
167	0xbd745d77	-0.059659448
168	0xbd105949	-0.0352414
169	0x3d41718d	0.04722743
170	0xbd5392ee	-0.051653795
171	0x3da9dc69	0.08293993
172	0xbd2e9b3a	-0.042628504
173	0x3ce56ec6	0.028006922
174	0xbbfc649a	-0.0077024223
175	0x3d52ef94	0.05149801
176	0x3c4f76eb	0.01266263
177	0xbd901650	-0.07035506
178	0x3d497a80	0.04918909
179	0x3d705876	0.058678113
180	0xbdb63e5f	-0.08898615
181	0xbb1e026e	-0.0024110335
182	0x3d08636b	0.033297937
183	0xbd6a5fec	-0.057220384
184	0x3d2e01ee	0.04248231
185	0x3df2bd41	0.118525036
186	0x3c1a4c96	0.009417674
187	0xba87eb3d	-0.0010369789
188	0x3d9cb404	0.07651523
189	0x3d24772a	0.040152706
190	0x3d638a85	0.055552024
191	0xbdb8f8f1	-0.09031857
192	0x3cb6967a	0.02228855
193	0xbd8e71e0	-0.06955314
194	0xbd97c8d7	-0.07411354
195	0xbda8e3d8	-0.08246583
196	0xbd417fd7	-0.04724106
197	0xbccb1208	-0.024788871
198	0xbd60411e	-0.0547496
199	0xbd69eb2d	-0.057109047
200	0x3b15c0a1	0.0022850411
201	0x3db2ba63	0.08726957
202	0xba768d83	-0.0009405242
203	0x3c815055	0.015785376
204	0xbd6f5f02	-0.058440216
205	0x3c0daa1b	0.008646513
206	0x3d6907d0	0.056892216
207	0xbd8fc651	-0.07020248
208	0xbc41f293	-0.011837619
209	0x3d264021	0.0405885
210	0x3c97fb98	0.018552586
211	0x3c46f267	0.012142754
212	0x3ccc4f6a	0.024940211
213	0xbd405024	-0.046951428
214	0xbc5561c8	-0.013023801
215	0x3d372203	0.04471017
216	0xbda3de72	-0.080014125
217	0x3cebc5cd	0.028780842
218	0x3d43e48a	0.047825374
219	0x3a72321d	0.0009239035
220	0x3c475200	0.012165546
221	0x3cd062d6	0.025437754
222	0xbca39731	-0.019969555
223	0xbd248558	-0.04016623
224	0xbd5ddd3c	-0.054166064
225	0x3db75767	0.089522175
226	0xbd182aca	-0.03715018
227	0x3db72ed0	0.08944476
228	0x3c93f04d	0.01805892
229	0xbd255933	-0.04036827
230	0x3cd4b256	0.025963943
231	0xbcd9f12c	-0.026604258
232	0x3deb0bee	0.11476885
233	0x3d5e0e24	0.054212704
234	0x3da1b790	0.0789634
235	0x3a5b5933	0.0008367479
236	0x3d25bde7	0.040464308
237	0xbdc9ea02	-0.098590866
238	0x3d676364	0.05649127
239	0x3de0f775	0.10984699
240	0xbd8b0c2e	-0.067894325
241	0x3daa17a4	0.0830529
242	0x3beb7062	0.007185028
243	0xbcbc94c8	-0.023020163
244	0x3da503ed	0.080573894
245	0x3cb77920	0.022396624
246	0xbdea2fb4	-0.1143488
247	0xbdba740c	-0.091041654
248	0xbd4cf5a1	-0.050038937
249	0x3c2b9131	0.010471628
250	0xbdbd9c15	-0.09258286
251	0xbdbe6fae	-0.09298645
252	0xb98cbb7b	-0.00026842565
253	0xbb9cf586	-0.004790011
254	0x3cd421d6	0.02589504
255	0xbd947960	-0.07249713

actor.linear3.bias f4 [128]
0	0xbc84f23f	-0.016228793
1	0x3dbe7eac	0.093015045
2	0xbd364db9	-0.044507716
3	0xbd99cb9c	-0.075095385
4	0xbd66773f	-0.056266066
5	0x3d8156ab	0.06315359
6	0x3cfc418b	0.030792972
7	0xbd411196	-0.047135912
8	0xbbc5c3a9	-0.0060352874
9	0x3dadb362	0.0848148
10	0xbd7a8458	-0.06116137
11	0x3da1aeb6	0.078946516
12	0x3d822f9e	0.063567385
13	0x3d9777db	0.073959075
14	0x3d4cc3ed	0.049991537
15	0xbd698be5	-0.05701818
16	0x3cc3fe48	0.023924962
17	0x3db9907a	0.0906076
18	0x3d79f8ea	0.0610284
19	0x3ce743af	0.028230516
20	0x3c6acaff	0.014330625
21	0x3a6d64b7	0.000905584
22	0xbc72542b	-0.014790575
23	0xbc9a5606	-0.018839847
24	0xbd2d1bdd	-0.0422629
25	0x3dc0f844	0.09422353
26	0xbd2c2e8d	-0.04203658
27	0x3d008421	0.031376008
28	0xbd56f54d	-0.05248003
29	0x3d10af65	0.03532352
30	0x3c072481	0.008248449
31	0x3c75fb45	0.015013521
32	0x3da31a8b	0.07964047
33	0xbd0cdfe3	-0.034393203
34	0x3d5fb60d	0.054616977
35	0xbdb60b06	-0.08888821
36	0xbbdd22d2	-0.0067485357
37	0xbda2ecf3	-0.07955351
38	0x3ced68f5	0.028980711
39	0xbd8431ad	-0.064547874
40	0xbd701079	-0.05860946
41	0x3d7a414b	0.061097424
42	0x3cfca2b9	0.030839311
43	0x3d4b6c53	0.049663853
44	0xbd7c1cbe	-0.06155085
45	0x3a22f7cc	0.0006216734
46	0x3c7cf0d5	0.015438278
47	0x3dc5dfad	0.096618034
48	0xbb851f33	-0.004062557
49	0x3ca42bb1	0.020040365
50	0x3d8b24e3	0.06794145
51	0x3ce3f7bc	0.02782809
52	0xbc57723b	-0.013149793
53	0xbda9777a	-0.082747415
54	0xbd8f5066	-0.06997757
55	0x3d78d63d	0.06075119
56	0x3d09046b	0.03345148
57	0xbcb0ef0c	-0.021598361
58	0x3b8d0d70	0.0043045804
59	0x3cf61011	0.030036958
60	0x3bfe0781	0.0077523594
61	0xbb91f38e	-0.004454083
62	0x3d6c1bb3	0.057643604
63	0x3c1ef782	0.009702565
64	0xbd02dcc1	-0.03194881
65	0xbcb90e9a	-0.02258997
66	0x3d7c3b93	0.061580252
67	0xbdb49bbe	-0.08818768
68	0xbd62aa33	-0.055338096
69	0x3d9897e5	0.074508466
70	0x3d8d02f0	0.06885326
71	0xbd90a8ba	-0.07063432
72	0x3d56eeaf	0.05247372
73	0xbd82aeef	-0.06381022
74	0xba487730	-0.0007647155
75	0x3c9dcca1	0.019262614
76	0xbbe664c4	-0.007031055
77	0xbc83f271	-0.016106816
78	0xbd972a21	-0.07381082
79	0x3dbe79c6	0.0930057
80	0x3daf8a3a	0.085712865
81	0xbda76ff2	-0.08175649
82	0x3b009a62	0.001962327
83	0x3d01f670	0.03172916
84	0x3bdb2629	0.0066878987
85	0xbc352f02	-0.011058571
86	0x3c1e89c7	0.009676403
87	0xbd889ff9	-0.06671137
88	0xbd7acfcf	-0.061233338
89	0xbd04bbea	-0.03240577
90	0xbbd0a7ed	-0.0063676746
91	0x3d66e0ae	0.056366615
92	0x3acb3428	0.0015503215
93	0x3d2e1513	0.042500567
94	0x3cf1e2ca	0.029527087
95	0x3cc9671a	0.024585295
96	0xbc1cfd1d	-0.009581831
97	0x3db2bb77	0.08727162
98	0x3d15f122	0.036606915
99	0xbd2dbf33	-0.04241867
100	0x3c6cd6ed	0.014455539
101	0xbc9e8886	-0.019352209
102	0x3cf49172	0.02985451
103	0x3d9d3229	0.07675583
104	0x3d945637	0.07243007
105	0x3d1c11dc	0.03810297
106	0xbd4b2f41	-0.04960561
107	0xbce6c10a	-0.02816822
108	0x3dcb334b	0.09921893
109	0x3a9e50ff	0.0012078582
110	0x3db1f9a4	0.08690193
111	0xbd8a5ce0	-0.06755996
112	0x3d1c65ce	0.038183026
113	0x3cfaaea6	0.030600857
114	0xbd97fef4	-0.07421675
115	0xbd3c8ec4	-0.04603459
116	0xbd550db9	-0.05201504
117	0xbd830d4b	-0.0639902
118	0x3d857c40	0.065178394
119	0x3daa057d	0.08301828
120	0x3d63a159	0.055573795
121	0x3db79691	0.08964265
122	0x3d8ea77d	0.069655396
123	0xbc5c0c1c	-0.0134306215
124	0x3cee6aa5	0.029103586
125	0x3a0fbe99	0.00054834184
126	0x3db9e0ad	0.09076057
127	0xbd821f37	-0.0635361

actor.linear4.weight f4 [9, 128]
0	0x3d16240c	0.03665547
1	0x3cc170cf	0.023613362
2	0xbc59c3ad	-0.013291282
3	0xbdaf41af	-0.0855745
4	0xbd5c7886	-0.053825878
5	0xbce00688	-0.027346864
6	0x3d0256cc	0.031821057
7	0xbd89e5bf	-0.06733274
8	0x3d4ef1ca	0.050523557
9	0xbcba937a	-0.0227754
10	0xbc35c3b1	-0.01109402
11	0x3d4d9def	0.050199445
12	0xbc1c31a8	-0.009533323
13	0xbd283b35	-0.04107209
14	0x3d8b1884	0.06791785
15	0x3d49831f	0.049197312
16	0x3d384cd9	0.044995163
17	0x3c8f4365	0.01748819
18	0x3d5b8d0b	0.053601306
19	0x3d8adee7	0.067807965
20	0xbd87fc05	-0.06639866
21	0xbd7b530c	-0.061358497
22	0xbd8f2dbc	-0.06991145
23	0xbcd1cf92	-0.025611673
24	0xbda6fc69	-0.08153612
25	0xbacf85db	-0.0015832739
26	0x3c6ee551	0.0145810405
27	0xbc31136e	-0.010807855
28	0xbda7f9ef	-0.08201968
29	0x3db5b175	0.08871738
30	0xbd670a77	-0.056406464
31	0x3cae860d	0.021304155
32	0xbd1f2b7c	-0.03885983
33	0xbd8c45e9	-0.06849272
34	0xbb803ee8	-0.003913749
35	0xbd5bc145	-0.053651113
36	0x3c9fe207	0.019516958
37	0xbca4ce71	-0.02011797
38	0x3d8c8858	0.06861943
39	0xbd7695ba	-0.060201384
40	0xbd3991df	-0.04530513
41	0xbd3e6665	-0.04648437
42	0xbd5adf04	-0.05343534
43	0xbd43626e	-0.04770129
44	0x3d833df4	0.06408301
45	0x3d436f17	0.047713365
46	0xbd413e1c	-0.047178373
47	0xbce61f72	-0.028091166
48	0x3d30d784	0.04317428
49	0x3d8afbac	0.06786284
50	0xbc600d70	-0.013675079
51	0xbd7d6e2f	-0.061872657
52	0xbd95a222	-0.07306315
53	0xbd9d01c8	-0.07666355
54	0x3d2ed180	0.042680264
55	0xbdae5b8b	-0.08513554
56	0xbcf4539f	-0.02982503
57	0x3d55b6da	0.052176334
58	0x3db20c2f	0.0869373
59	0x3bab9118	0.0052358024
60	0xbd64cb0f	-0.055857714
61	0xbd92ff72	-0.071776286
62	0xbd16278b	-0.036658805
63	0x3d6cda07	0.057825115
64	0xbd55b708	-0.052176505
65	0x3d923126	0.071382806
66	0x3c03a461	0.008034796
67	0x3d9555e3	0.07291772
68	0xbcb8c5dc	-0.022555284
69	0x3da8939c	0.08231279
70	0x3d25e6a4	0.04050316
71	0xbd2e910c	-0.042618796
72	0x3cf02a45	0.02931703
73	0xbd300b00	-0.04297924
74	0xbc92dc5a	-0.017927337
75	0x3da32e06	0.07967763
76	0x3d9432fe	0.072362885
77	0x3c9bacd2	0.019003306
78	0x3d9603b5	0.07324926
79	0x3daba5ae	0.0838121
80	0x3d28ceae	0.04121273
81	0x3cdeb30b	0.027184984
82	0x3c2ec82d	0.010667843
83	0x3c111823	0.008855852
84	0x3d2a9606	0.04164698
85	0x3ca0198f	0.019543437
86	0x3b71dbbb	0.0036904651
87	0x3da244ca	0.07923277
88	0x3c784f13	0.0151555715
89	0x3d99c192	0.07507624
90	0x3d48a3d0	0.04898435
91	0xbd5bea0a	-0.053689994
92	0x3d222309	0.039584193
93	0xbb838814	-0.0040140245
94	0xbdb2a2d0	-0.0872246
95	0x3d6dd609	0.058065448
96	0x3b8985b5	0.0041968473
97	0xbcd7c388	-0.026338354
98	0x3da7adaa	0.08187421
99	0x3d235b45	0.039881963
100	0xbdb41c3e	-0.08794449
101	0xbd577b6a	-0.05260793
102	0x3d845bdb	0.064628325
103	0xb9db11e2	-0.0004178426
104	0xbd56116e	-0.052262716
105	0x3d8f2048	0.06988579
106	0xbda1fb38	-0.07909244
107	0xbd71db50	-0.059047043
108	0xbd1c620c	-0.038179442
109	0xbc56a6f2	-0.013101326
110	0x3dba90f0	0.09109676
111	0x3d2a5733	0.041587066
112	0xbd2b72ad	-0.04185741
113	0xbb852ec8	-0.0040644147
114	0xbd75bfce	-0.059997372
115	0x3d91b032	0.07113685
116	0x3d915bd7	0.07097595
117	0x3da258c4	0.07927087
118	0xbd452520	-0.04813111
119	0xbd15213a	-0.03640864
120	0x3d1e9f91	0.038726393
121	0x3cad3bef	0.021146743
122	0xbcd4a195	-0.025955955
123	0xbd8e987f	-0.0696268
124	0x3b6fcda9	0.003659109
125	0xbd63e85e	-0.055641524
126	0xbd861cea	-0.06548484
127	0xbd7386eb	-0.05945484
128	0x3d89d8d0	0.06730807
129	0x3d23c4e0	0.039982677
130	0x3dce36f7	0.100690775
131	0x3d40fe35	0.04711743
132	0xbdad7198	-0.08468932
133	0x3de8f6b4	0.1137518
134	0x3dc1a136	0.09454577
135	0x3d498451	0.049198452
136	0x3c0f66d5	0.008752544
137	0xbc80572c	-0.015666567
138	0x3c7d6a0c	0.015467178
139	0x3d9aa41a	0.07550831
140	0x3d600ec9	0.0547016
141	0x3c566ef6	0.013087979
142	0xbc0d0213	-0.008606452
143	0x3d78e8a1	0.060768727
144	0xbd5e9e1a	-0.054349996
145	0x3d34783a	0.04405997
146	0x3d0e15bb	0.034688693
147	0x3dcafd4c	0.09911594
148	0xbd96a857	-0.07356327
149	0xbd8d5fd9	-0.06903047
150	0x3b8bda52	0.004267969
151	0xbc8da42f	-0.017290203
152	0x3d1866a9	0.03720728
153	0x3d1d6064	0.038422003
154	0x3d823566	0.06357841
155	0x3d1f36a3	0.038870465
156	0xbd32ebf6	-0.04368206
157	0xbcca1d11	-0.024672063
158	0xbd29543e	-0.041340105
159	0x3dd6bed3	0.104856156
160	0xbd07ea34	-0.033182338
161	0xbd444f04	-0.047926918
162	0xbde31d5d	-0.11089585
163	0x3d9f4468	0.07776719
164	0xbd1ea2e0	-0.03872955
165	0x3c591971	0.013250695
166	0x3bfc57dc	0.0077009033
167	0x3de9fa84	0.11424735
168	0x3c899e5c	0.016799144
169	0xbda36263	-0.0797775
170	0x3c75b5e6	0.014996981
171	0xbdb91102	-0.09036447
172	0xbd10315c	-0.035203323
173	0xbd959bcc	-0.073051065
174	0xbc4c23da	-0.01245972
175	0x3c2bbecc	0.010482501
176	0xbdb76aed	-0.08955941
177	0xbd9d6150	-0.076845765
178	0xbaf7040a	-0.0018845808
179	0xbb0445e3	-0.0020183257
180	0x3d892ca3	0.06697967
181	0x3d5be3d6	0.05368408
182	0x3dc59652	0.09647812
183	0x3d2b07d5	0.041755516
184	0xbcee2a99	-0.029073047
185	0xbc2c1e1b	-0.010505225
186	0x3d22b3d1	0.039722268
187	0x3d7c16c1	0.061545137
188	0x3cb4ca42	0.0220691
189	0x3d887c8a	0.06664379
190	0x3d128d64	0.03577937
191	0xbd2c89f7	-0.04212376
192	0xbd1bd07f	-0.038040634
193	0x3dbdfa93	0.09276309
194	0xbd854398	-0.06507033
195	0xbdac2389	-0.08405215
196	0xbda2449e	-0.07923244
197	0x3ccfbe11	0.025359185
198	0x3dea4f74	0.11440936
199	0x3d4255d7	0.047445145
200	0x3d0e1178	0.03468463
201	0xbd11ef57	-0.035628643
202	0xbd5d1c19	-0.053981874
203	0x3d65637d	0.056003083
204	0xbd7bfc9b	-0.0615202
205	0x3d921f85	0.07134918
206	0x3d851a47	0.06499153
207	0x3d8861a7	0.06659251
208	0x3d578b44	0.05262305
209	0x3d968078	0.07348722
210	0x3cae4a8d	0.021275783
211	0xbda5f575	-0.08103458
212	0xbcba5e73	-0.022750115
213	0x3db62024	0.08892849
214	0xbd28a1ad	-0.04116981
215	0xbdb77bee	-0.089591846
216	0x3d848a70	0.06471717
217	0xbaeb61bf	-0.0017958208
218	0xbc35745e	-0.011075107
219	0xbd844f76	-0.064604685
220	0x3cc3598c	0.02384641
221	0xbda51707	-0.08061033
222	0x3dbba31a	0.091619685
223	0x3d774eef	0.06037801
224	0xbdb101ec	-0.08642945
225	0xbcab236b	-0.020890912
226	0xbda0f206	-0.07858662
227	0x3d20925a	0.03920207
228	0xbb3345fd	-0.0027354949
229	0x3d6f4c3b	0.05842231
230	0xbd8c6a42	-0.068562046
231	0xbb407d4c	-0.0029371558
232	0xbc42a48b	-0.01188005
233	0xbd2682e7	-0.040652182
234	0x3d556c1f	0.052105065
235	0x3d16580a	0.036705054
236	0x3d7f9870	0.062401235
237	0xbcd42907	-0.02589847
238	0x3c4b291d	0.012399939
239	0xbdd1ec2e	-0.10250126
240	0xbac8a02b	-0.0015306523
241	0x3d30606c	0.043060705
242	0x3dd8eb1d	0.10591719
243	0x3d743a26	0.059625767
244	0x3d9ec414	0.07752243
245	0x3d08d35f	0.033404704
246	0xbc22366f	-0.009900673
247	0x3b859106	0.004076126
248	0x3d850331	0.06494749
249	0xbdebcf1b	-0.115141116
250	0x3d6ac75f	0.05731904
251	0xbdc3d14f	-0.09561407
252	0xbc081785	-0.008306389
253	0xbdb4d6a9	-0.08830006
254	0x3dda11bd	0.106479146
255	0xbccb8c81	-0.02484727

actor.linear4.bias f4 [9]
0	0x3d720d0c	0.059094474
1	0xbd971d49	-0.073786326
2	0x3d098008	0.033569366
3	0x3da6b663	0.08140256
4	0x3c0a6588	0.0084470585
5	0xbd4116e8	-0.047140986
6	0x3d493d8f	0.049130972
7	0x3d6a3409	0.05717853
8	0x3d99367b	0.074810944

critic.linear1.weight f4 [128, 120]
0	0x3dab6c0e	0.08370219
1	0x3e2dec92	0.16984776
2	0x3db6fde0	0.089351416
3	0xbd28044e	-0.04101973
4	0xbd0ec83d	-0.03485893
5	0x3d8f24bf	0.06989431
6	0x3d75e482	0.060032375
7	0x3ceb1f00	0.028701305
8	0x3c13e29f	0.009026199
9	0x3e062512	0.13100079
10	0x3d93a7fb	0.07209774
11	0xbdf80367	-0.12110024
12	0x3d567bc6	0.052364133
13	0xbcb7424b	-0.022370478
14	0xbdcbd86f	-0.09953391
15	0xbce55af4	-0.027997471
16	0x3db43e8b	0.088009916
17	0xbdba0fb8	-0.09085029
18	0x3d1f2fab	0.03886382
19	0x3dcbab1b	0.09944745
20	0x3d8e7bda	0.069572166
21	0x3d490033	0.049072456
22	0x3afcd66e	0.0019289979
23	0xb89566c2	-7.124014e-05
24	0x3cf6a650	0.0301086
25	0xbcb93af8	-0.022611126
26	0x3cc87c17	0.024473233
27	0xbcf2b3d1	-0.029626759
28	0xbd14eb53	-0.036357235
29	0x3d3ab528	0.04558292
30	0x3d3139ae	0.0432679
31	0xbd2bde10	-0.041959822
32	0xbd81f3d1	-0.063453324
33	0x3c6bc1a7	0.014389432
34	0x3e1ce561	0.15321876
35	0xbc15fdb5	-0.009154727
36	0x3df4ff58	0.119627655
37	0x3e004b41	0.12528707
38	0xbdf7aa7c	-0.12093064
39	0x3cc79771	0.024364205
40	0xbc81f1c1	-0.015862348
41	0x3dac3853	0.084091805
42	0xbd8d0fc6	-0.06887774
43	0x3db01a2f	0.08598744
44	0xbcfd6704	-0.03093291
45	0xbd8313ce	-0.06400262
46	0xbdca30a3	-0.09872558
47	0xbd44f375	-0.04808374
48	0x3da3bddd	0.07995198
49	0x3d65b544	0.05608107
50	0x3d928a4e	0.07155286
51	0x3d8b28d9	0.067949004
52	0x3d2fbdff	0.042905804
53	0x3d333536	0.043751918
54	0x3db8ef42	0.0903001
55	0x3e1633f7	0.1466826
56	0xbdad3f36	-0.08459322
57	0xbcde48be	-0.027134296
58	0xbda74d85	-0.081690826
59	0x3da6fba5	0.08153466
60	0xbd92f78b	-0.07176121
61	0x3c51e3fa	0.0128107015
62	0xbc87a3d2	-0.016557608
63	0xbdc7a8ea	-0.09749015
64	0xbc38b952	-0.011274653
65	0xbdf422d2	-0.11920704
66	0x3df5c620	0.1200068
67	0xbd44771c	-0.047965154
68	0x3e0372e2	0.12836793
69	0x3b43b0fd	0.0029860132
70	0x3c98c1bd	0.01864707
71	0x3c0a39e6	0.008436656
72	0xbda38be9	-0.0798567
73	0xbdd3c1b8	-0.10339683
74	0x3cea4d05	0.028601179
75	0xbd2a6d3f	-0.04160809
76	0xbd039d1c	-0.032132253
77	0x3db3ca20	0.08778787
78	0x3ccc9ef0	0.024978131
79	0xbd0f3b2e	-0.034968548
80	0xbdc1d3ad	-0.09464202
81	0xbdb312d5	-0.08743826
82	0xbd84f004	-0.06491092
83	0xbd0bef5e	-0.034163825
84	0x3de6f9c0	0.11278105
85	0x3cd57a7b	0.02605938
86	0xbd5d92ac	-0.054094955
87	0x3d9d4ac5	0.07680277
88	0xbc6fcc3e	-0.0146360975
89	0xbd87dd92	-0.06634058
90	0xbdbb277d	-0.09138391
91	0x3d2e2923	0.0425197
92	0x3d098d3c	0.033581957
93	0xbb782a10	-0.0037866868
94	0x3d1ec8eb	0.03876583
95	0x3d57df9b	0.05270348
96	0x3d2761e6	0.040864848
97	0x3d5fbba7	0.05462232
98	0xbcb5be3e	-0.022185441
99	0xbbedd624	-0.0072581936
100	0xbbaa4d09	-0.0051971716
101	0x3dd4f610	0.10398495
102	0xbd795084	-0.0608678
103	0x3d1a8542	0.03772474
104	0xbbaea2ef	-0.005329482
105	0x3d9a2f18	0.07528514
106	0xbda46dc9	-0.08028752
107	0x3d4a893b	0.04944728
108	0xbdec8977	-0.11549657
109	0x3db2c10f	0.08728229
110	0x3dd454eb	0.10367759
111	0xbcc6d104	-0.024269588
112	0x3db12d44	0.08651212
113	0xbdea94ab	-0.114541374
114	0x3ddca715	0.10774056
115	0x3d0a299b	0.033731084
116	0x3d99df71	0.07513321
117	0xbd5c3b84	-0.053767696
118	0x3dd9ec8a	0.10640819
119	0x3e107a76	0.14109215
120	0xbd00453a	-0.03131602
121	0x3b4c6ad9	0.0031191616
122	0x3cca472f	0.024692146
123	0xbcdaf37e	-0.026727434
124	0x3b8320ca	0.0040017115
125	0xbdb05bfe	-0.08611296
126	0x3cba20c2	0.022720698
127	0x3d4cf193	0.05003507
128	0x3b1c9e8f	0.002389822
129	0x3cda41bf	0.026642678
130	0xbd479f4a	-0.048735894
131	0xbd0656d8	-0.032797664
132	0x3bef0476	0.007294233
133	0xbdbd05e1	-0.09229637
134	0x3e0a6bc9	0.1351768
135	0x3d8a6224	0.06757
136	0x3d5fed4d	0.054669667
137	0xbd9a5fab	-0.075377785
138	0x3c7e791d	0.015531805
139	0x3d1fe028	0.03903213
140	0x3d24ba90	0.040216982
141	0x3deb94e5	0.11503009
142	0x3dd7f87f	0.10545444
143	0x3d683399	0.056689832
144	0x3d84e90c	0.06489763
145	0xbd09a08b	-0.03360037
146	0x3cc206bb	0.02368485
147	0xbdaabad1	-0.08336414
148	0x3d806498	0.06269187
149	0x3a75b3cb	0.00093727995
150	0x3dca3077	0.09872525
151	0xbd0f817a	-0.035035588
152	0xbd9d9b43	-0.076956294
153	0xbe0b845f	-0.13624714
154	0x3d2ed672	0.04268498
155	0xbce076af	-0.027400343
156	0x3d905cdf	0.07048964
157	0x3ca4637b	0.020066967
158	0x3d90cbd5	0.07070128
159	0x3e003585	0.12520416
160	0xbcb1aea2	-0.021689717
161	0xbcb83cfd	-0.022490019
162	0x3d385352	0.045001335
163	0x3c08852e	0.008332534
164	0xbd103aee	-0.03521245
165	0x3d24347a	0.040089108
166	0xbd86c3d2	-0.065803185
167	0xbcb7c88a	-0.022434492
168	0xbde2cefe	-0.11074637
169	0x3db15172	0.086581126
170	0xbcc5f840	-0.024166226
171	0xbd82c173	-0.06384554
172	0x3d1e9fe0	0.038726687
173	0x3c0df7dc	0.008665051
174	0x3e09ab8a	0.13444343
175	0x3be25730	0.006907366
176	0xbdabed98	-0.08394927
177	0x3d7d461a	0.061834432
178	0x3db21814	0.08695999
179	0xbd0e8744	-0.034796968
180	0x3d8a9d43	0.067682765
181	0x3c9e534a	0.019326825
182	0x3dacac07	0.08431249
183	0x3c8e24f0	0.017351598
184	0x3df51b5b	0.11968108
185	0x3da548d1	0.08070529
186	0xbd16e9ec	-0.03684418
187	0xbd058f9d	-0.032607663
188	0x3e01ae9a	0.12664261
189	0x3bd23849	0.006415401
190	0xbd636268	-0.05551377
191	0x3ba5e31e	0.005062475
192	0xbd6c9679	-0.05776069
193	0x3e09cb25	0.134564
194	0x3dbb3c94	0.09142414
195	0x3d721ea3	0.05911125
196	0x3d47b607	0.04875758
197	0xbd7ae9f7	-0.061258283
198	0x3dea1faa	0.11431821
199	0x3d90c931	0.07069624
200	0xbd369216	-0.044572912
201	0xbddebcb7	-0.10875838
202	0x3dcc5083	0.09976294
203	0x3bb6b29d	0.0055754916
204	0x3e0993a5	0.13435228
205	0x3ddcae10	0.10775387
206	0xbcf0772c	-0.0293537
207	0xbc385f72	-0.011253225
208	0xbd14e2af	-0.036348995
209	0x3d87bec3	0.06628182
210	0xbc2b14aa	-0.010441938
211	0x3d3ad370	0.0456118
212	0x3dc2a400	0.09503937
213	0xbdb6ef53	-0.08932366
214	0x3d0caebf	0.03434634
215	0x3ca5a94c	0.020222329
216	0x3d008970	0.03138107
217	0xbdc405e8	-0.09571439
218	0xbd4f5778	-0.050620526
219	0xbc8a6499	-0.016893672
220	0x3c979ad4	0.018506445
221	0x3db4d892	0.0883037
222	0x3e150682	0.14553264
223	0x3e281504	0.16414267
224	0xbda44077	-0.08020108
225	0xbd03a017	-0.032135095
226	0x3de0616b	0.10956081
227	0x3c38e913	0.011286038
228	0x3d063e10	0.03277403
229	0x3d5ee2d7	0.05441555
230	0xbcbff8f0	-0.023434132
231	0x3db92f5d	0.09042237
232	0x3da6c701	0.08143426
233	0x3e198a74	0.14994222
234	0xbdbe734a	-0.092993334
235	0xbd6eb91e	-0.05828201
236	0xbc8324f5	-0.016008833
237	0x3e583579	0.21114148
238	0x3d37fe58	0.044920295
239	0x3dcb3bd9	0.099235244
240	0xbc8442ce	-0.016145136
241	0xbcaa164f	-0.02076259
242	0xbc0b0fa0	-0.008487612
243	0xbc67017c	-0.014099475
244	0xbda2021d	-0.07910559
245	0x3c579dae	0.013160152
246	0xbe02ddc4	-0.1277991
247	0xbcffc120	-0.031220019
248	0x3d76c70c	0.06024842
249	0x3d711186	0.058854602
250	0x3daa9982	0.083300605
251	0x3d422029	0.04739395
252	0x3d0bc315	0.03412159
253	0x3ce8a2a7	0.028397871
254	0xbcc26a7e	-0.02373242
255	0x3c568864	0.0130940415

critic.linear1.bias f4 [128]
0	0x3d438004	0.047729507
1	0x3d8c9b82	0.06865598
2	0x3beacbab	0.0071653924
3	0xbe08d438	-0.13362205
4	0x3e004cdf	0.12529324
5	0x3ca17911	0.01971105
6	0x3db603d1	0.08887447
7	0xbdff1b79	-0.12456412
8	0x3dc4467c	0.09583756
9	0xbd6460f3	-0.05575652
10	0x3d007a9c	0.03136693
11	0x3de00f23	0.10940387
12	0x3c68667f	0.014184593
13	0xbcaffab1	-0.021481844
14	0x3e07fbc6	0.13279638
15	0x3de93837	0.11387675
16	0xbcc90fab	-0.024543604
17	0x3e2754e9	0.16340984
18	0x3cd59c85	0.02607561
19	0xbcbca3e1	-0.023027362
20	0x3e0bf30f	0.13666938
21	0xbcd66f6f	-0.026176183
22	0x3dfa2f49	0.1221605
23	0xbd940746	-0.0722795
24	0xbcba40ed	-0.022736037
25	0xbd8294e7	-0.06376057
26	0xbc2982eb	-0.010346155
27	0xbde1e432	-0.11029853
28	0xbb1dd144	-0.002408103
29	0x3dfa87ae	0.1223291
30	0xbd24920c	-0.040178344
31	0x3c752511	0.014962451
32	0xbb6e62cc	-0.0036374805
33	0xbd8a9801	-0.06767274
34	0xbdd6bee9	-0.10485632
35	0xbd86c1f2	-0.06579961
36	0x3d1e63d0	0.038669407
37	0x3c73ffa9	0.014892497
38	0x3e13b707	0.14425288
39	0xbe14fdea	-0.14549986
40	0x3c59eec7	0.013301558
41	0xbe0ee651	-0.13955046
42	0xbda69da6	-0.08135538
43	0x3bcdf8e8	0.0062857755
44	0x3ccdbcd3	0.025114452
45	0xbd4d7eee	-0.050169878
46	0x3dff8627	0.124767594
47	0x3ac6424e	0.0015125962
48	0xbe04d48f	-0.1297171
49	0x3ce01f0a	0.02735855
50	0x3cc1c5b1	0.023653837
51	0x3d5e94d5	0.054341156
52	0xb8973f40	-7.212022e-05
53	0x3d90f634	0.070782095
54	0xbc85d442	-0.016336564
55	0xbd20e528	-0.03928104
56	0x3deb62a5	0.11493424
57	0xbca2e11a	-0.019882727
58	0x3dfe7851	0.12425292
59	0x3b0b68d3	0.0021272197
60	0xbb0e6967	-0.0021730305
61	0x3d3c99d6	0.046045147
62	0xbdcf898c	-0.10133657
63	0x3d0b13f0	0.03395456
64	0x3cc87bc3	0.024473077
65	0x3e10ab91	0.14127947
66	0xbdff7cba	-0.124749616
67	0xbd884d4f	-0.066553704
68	0x3e0b08a4	0.13577515
69	0x3e01076b	0.12600486
70	0x3d989d7a	0.07451911
71	0x3d5b694a	0.05356721
72	0xbe016812	-0.12637356
73	0x3ca9a116	0.020706695
74	0xbb2c8360	-0.0026323423
75	0x3c7e5d7f	0.015525221
76	0x3e09ca48	0.1345607
77	0x3d3593af	0.044330295
78	0x3d561e0f	0.05227476
79	0xbe0712ff	-0.1319084
80	0xbde74c7b	-0.11293884
81	0x3def0d8b	0.11672505
82	0x3e0a439c	0.13502353
83	0xbe23a179	-0.15979566
84	0x3ccaa408	0.02473642
85	0x3e1fb2b8	0.1559552
86	0xbda85f08	-0.08221251
87	0x3d128d73	0.035779428
88	0xbdbc2500	-0.09186745
89	0x3c68f722	0.014219077
90	0x3e28d370	0.16486907
91	0x3d99c1ff	0.07507705
92	0xbdc8c6df	-0.09803557
93	0x3e1f0dff	0.15532683
94	0xbc592a50	-0.013254717
95	0x3e100339	0.1406373
96	0x3e1ec81f	0.15506028
97	0xbd264bd9	-0.040599678
98	0xbdd2a703	-0.10285761
99	0xbe0d927d	-0.13825412
100	0x3dd945bf	0.10609006
101	0xbe189a62	-0.14902642
102	0x3d379614	0.04482086
103	0x3b16b56b	0.0022996317
104	0xb978c8e2	-0.00023725958
105	0x3e3753f8	0.17903125
106	0xbda7dccd	-0.08196411
107	0x3dcfa206	0.101383254
108	0xbcb53b2c	-0.022122942
109	0x3b3f2a4b	0.0029169496
110	0x3df136e8	0.11778051
111	0xbd277d26	-0.040890835
112	0x3c88ef6f	0.016715733
113	0xbb09dadb	-0.002103499
114	0x3d023599	0.031789396
115	0xbccb6b59	-0.02483146
116	0x3e1329d0	0.14371419
117	0x3e238d09	0.1597177
118	0x3dfa0770	0.1220845
119	0x3e26d627	0.1629263
120	0x3ad90db4	0.001655987
121	0x3d92ddca	0.07171209
122	0xbdd5be58	-0.10436696
123	0xbcf4ecd6	-0.029898088
124	0xbc95bda1	-0.018278899
125	0xbd279873	-0.04091687
126	0x3d9ffc7e	0.07811831
127	0x3e16894e	0.14700815
