landing_falcon_raw_ckpt/ckpt_00009401.pt (torch, 903799 bytes, 15 tensors)

actor.linear1.weight f4 [128, 120]
0	0xbd5db780	-0.054130077
1	0xbd8215f1	-0.06351841
2	0xbd9ff8e6	-0.078111455
3	0x3d415fbe	0.047210447
4	0xbd00e86c	-0.031471655
5	0x3d57c303	0.052676212
6	0x3d020e31	0.031751815
7	0xbdf0e88e	-0.11763106
8	0x3d3b5c2b	0.045742195
9	0x3d9778b8	0.07396072
10	0xbd3abb30	-0.045588672
11	0x3d616295	0.055025656
12	0x3dfbee54	0.12301317
13	0xbcdcf381	-0.02697158
14	0x3d8c5ba1	0.06853414
15	0x3ccc0b64	0.024907775
16	0x3d5cb6cc	0.053885266
17	0x3bdfd3da	0.0068306746
18	0xbd593e57	-0.053037968
19	0x3d866b24	0.06563404
20	0x3dab820e	0.08374415
21	0x3c794b4b	0.015215705
22	0x3ce1efba	0.02758013
23	0x3d9c45f0	0.07630527
24	0xbd97695d	-0.07393143
25	0xbce22cad	-0.027609194
26	0xbd0e6515	-0.034764368
27	0xbda2c908	-0.079485
28	0xbd4e1e19	-0.050321672
29	0x3d954de1	0.07290245
30	0xbd650f31	-0.05592269
31	0xbdbc577b	-0.09196373
32	0xbd2435d6	-0.040090404
33	0x3c9e4877	0.019321663
34	0xbcc6b714	-0.02425722
35	0xbc3e9614	-0.011632461
36	0x3c0ecf05	0.0087163495
37	0x3d357ec0	0.04431033
38	0x3dafda86	0.08586602
39	0x3d9e94a9	0.077431984
40	0x3d987377	0.07443898
41	0xbd431aea	-0.04763309
42	0x3da19351	0.078894265
43	0xbd7b2f06	-0.061324142
44	0x3ddc93f9	0.10770411
45	0xbadf530d	-0.0017038301
46	0xbc9d9f98	-0.01924114
47	0xbe03a6e8	-0.12856638
48	0x3d9db5eb	0.07700714
49	0xbcabf072	-0.020988677
50	0xbd694f7b	-0.056960564
51	0xbd110af2	-0.03541083
52	0xbd9caa5d	-0.07649682
53	0xbcf31504	-0.029673107
54	0xbccd77a0	-0.025081456
55	0xbc6ed609	-0.014577397
56	0xbd4754ef	-0.048664983
57	0x3c0182de	0.007904736
58	0xbd82c9bf	-0.06386136
59	0xbd219169	-0.039445315
60	0x3d3131e6	0.043260477
61	0x3e07b7f7	0.13253771
62	0x3cfaa26f	0.030595032
63	0xbd1a878a	-0.037726916
64	0x3d9794e9	0.07401449
65	0x3c089870	0.008337125
66	0x3d48ac06	0.04899218
67	0xbda8f854	-0.0825049
68	0x3cf26542	0.0295893
69	0x3da125c5	0.07868532
70	0x3d70e02a	0.05880753
71	0xbc2408a1	-0.010011823
72	0x3c4dd442	0.012562813
73	0xbd9798d1	-0.07402194
74	0x3c9ff9ed	0.019528354
75	0x3d812f31	0.06307829
76	0x3cc722a4	0.02430851
77	0x3ddd2ae7	0.107991986
78	0x3b47e1a9	0.0030499494
79	0xbe03cb33	-0.12870483
80	0x3d5f9c4d	0.05459242
81	0x3cd07af2	0.02544925
82	0xbd92189f	-0.07133602
83	0x3d740b01	0.059580807
84	0xbdb338ab	-0.08751043
85	0xbb0033a4	-0.001956203
86	0x3c17411d	0.009231833
87	0x3d5ec882	0.054390438
88	0xba2c33d1	-0.00065690005
89	0x3d28cb98	0.041209787
90	0xbba0149c	-0.0048852693
91	0x3d37c097	0.044861402
92	0x3d9639ca	0.07335241
93	0x3e02e484	0.12782484
94	0x3c5b6c02	0.01339245
95	0xbe16a781	-0.14712335
96	0xbd1107ce	-0.035407834
97	0x3beba4ae	0.007191262
98	0x3d8fb34f	0.07016622
99	0x3daee073	0.08538904
100	0xbbdefe72	-0.0068052346
101	0xbd726c9c	-0.05918561
102	0x3c9eb07f	0.01937127
103	0x3b7dd7f4	0.0038733454
104	0xbd88da2f	-0.0668224
105	0xbd1b5348	-0.03792122
106	0xbd2c1603	-0.04201318
107	0xbdb0a818	-0.08625811
108	0xbc9b809a	-0.01898222
109	0x3dc295d6	0.09501235
110	0x3d3d4567	0.046208765
111	0xbdc50cbe	-0.09621571
112	0xbd82c963	-0.06386068
113	0xbb1b7e6c	-0.0023726476
114	0x3d421e39	0.047392104
115	0xbd132332	-0.035922237
116	0x3d62e56a	0.055394568
117	0xbc73a333	-0.014870453
118	0xbd14a27e	-0.036287777
119	0x3da7f7f8	0.08201593
120	0x3dcc7747	0.09983688
121	0x3dd6b1ab	0.10483106
122	0x3d8a0c1c	0.06740591
123	0x3d7a0175	0.061036546
124	0xbd9222ef	-0.07135569
125	0xbde89510	-0.113565564
126	0x3d680d21	0.056653146
127	0x3dda3ab2	0.106557265
128	0xbd521b4c	-0.051295564
129	0xbd494621	-0.049139146
130	0x3d870d8a	0.06594379
131	0x3d398f54	0.045302704
132	0xbd2d6128	-0.042328984
133	0xbd2c02ae	-0.041994743
134	0xbd6eacde	-0.058270328
135	0x3b82bd72	0.003989869
136	0x3ceb089b	0.028690627
137	0xbdaa7108	-0.0832234
138	0x3bcd73b1	0.006269895
139	0xbd57acc2	-0.05265499
140	0x3d9f0fb7	0.07766669
141	0xbcfec16a	-0.031098086
142	0xbc1c03b5	-0.009522368
143	0x3dc72ab6	0.09724943
144	0x3d28003e	0.041015856
145	0xbd86327c	-0.06552598
146	0x3d9302ff	0.07178306
147	0x3da8b670	0.08237922
148	0xbc475ea2	-0.012168558
149	0xbd5aedd7	-0.053449478
150	0x394aef35	0.00019353333
151	0x3dad76ee	0.0846995
152	0x3d51dcd3	0.051235985
153	0x3da948bf	0.08265828
154	0xbd67e7dd	-0.056617606
155	0x3d723af5	0.059138257
156	0x3dd00d7c	0.10158822
157	0xbd3616f5	-0.044455487
158	0xbd4c2a4a	-0.049845017
159	0xbcf2d9dc	-0.0296449
160	0x3c6c604d	0.014427257
161	0xbd617d2e	-0.05505102
162	0xbda263f1	-0.079292186
163	0x3c99d066	0.01877613
164	0xbbec38b6	-0.007208909
165	0x3aa590e4	0.0012631682
166	0xbd8f2c85	-0.06990913
167	0x3d4eefd4	0.050521687
168	0x3cf70a18	0.03015618
169	0xbd77f006	-0.06053164
170	0x3c9ff064	0.019523807
171	0x3db1827d	0.08667467
172	0xbd8e4fe1	-0.069488294
173	0x3d9aee56	0.0756499
174	0xbd392919	-0.04520521
175	0xbd92e087	-0.071717314
176	0x3d9caa37	0.076496534
177	0x3c474534	0.012162495
178	0x3d1437be	0.036185972
179	0x3d9813f3	0.0742568
180	0xbc115779	-0.008870953
181	0xbdfbd1ac	-0.12295851
182	0x3d9b1dda	0.07574053
183	0x3d840073	0.06445398
184	0x3d5a3c37	0.05328008
185	0x3d89f712	0.06736578
186	0x3d887693	0.06663241
187	0xbcf1f385	-0.029535064
188	0x3dcc3cff	0.099725716
189	0x3d1a18bd	0.03762125
190	0xbd64a0f6	-0.055817567
191	0x3ddfd528	0.10929328
192	0x3d07c164	0.033143416
193	0xbc4184f5	-0.011811485
194	0xbd27a09b	-0.04092465
195	0x3cebb5b7	0.028773172
196	0x3d542755	0.051795322
197	0xba508cdd	-0.00079555606
198	0xbd6697f0	-0.056297243
199	0x3db00d10	0.085962415
200	0x3d44f2cf	0.048083123
201	0xbd68b0d3	-0.056809258
202	0x3d10b71d	0.03533088
203	0xbd147bcf	-0.036250886
204	0x3d89f334	0.067358404
205	0x3c50a635	0.012734939
206	0x3d673e83	0.0564561
207	0xbbb1ddac	-0.0054280367
208	0xbd65a947	-0.05606964
209	0xbd531581	-0.05153418
210	0x3b31b2bf	0.0027114598
211	0xbb4e961f	-0.0031522585
212	0x3d3b2e16	0.045698248
213	0xbc9108b4	-0.017704345
214	0x3d54882f	0.051887687
215	0xba8ac7fa	-0.0010588162
216	0xbcba6ef0	-0.022757977
217	0xbce48e50	-0.027899891
218	0xbda85642	-0.08219577
219	0x3b463e3b	0.0030249495
220	0x3d5e0149	0.054200444
221	0x3d852881	0.06501866
222	0xbce3e44e	-0.027818825
223	0x3acbbfbe	0.0015544815
224	0xbcfca60b	-0.030840894
225	0xbd0d27e3	-0.034461867
226	0x3d49b8ab	0.04924838
227	0x3c59163c	0.01324993
228	0xbdb7f6af	-0.08982598
229	0xbdd5b2ff	-0.104345314
230	0x3d36d1c3	0.044633638
231	0x3e05a6fb	0.13051979
232	0xbd87c659	-0.06629629
233	0x3d1af1b1	0.03782815
234	0xbcc57f27	-0.024108483
235	0xbd045822	-0.032310612
236	0xbd82522a	-0.06363328
237	0xbc82b94d	-0.015957499
238	0x3d12e990	0.035867274
239	0x3d908929	0.07057411
240	0x3d871074	0.06594935
241	0xbd436ad9	-0.04770932
242	0xbd8689ab	-0.06569227
243	0xbdaf09bc	-0.085467786
244	0xbd812d3a	-0.063074544
245	0xbd53577b	-0.0515971
246	0xbd99a652	-0.07502426
247	0xbb397836	-0.002830041
248	0xbd912476	-0.070870325
249	0xbda1df5a	-0.07903929
250	0x3cfa6fe1	0.030570926
251	0xbc36f459	-0.011166655
252	0x3d950c8c	0.07277784
253	0xbd0a1334	-0.03370972
254	0xbd289ad9	-0.0411633
255	0xbaa3a69d	-0.0012485568

actor.linear1.bias f4 [128]
0	0x3dac9952	0.08427681
1	0x3cdd2c43	0.026998645
2	0x3cb8290e	0.022480514
3	0x3d29d5aa	0.04146353
4	0xbda25615	-0.07926575
5	0x3bf95817	0.007609378
6	0x3d1b4ad3	0.037913155
7	0x3da1dfd6	0.079040214
8	0x3db38069	0.08764727
9	0x3d281444	0.04103495
10	0xbd1297fa	-0.035789467
11	0x3d4b86b5	0.049689014
12	0x3dcdece3	0.10054948
13	0xbd2061fc	-0.039155945
14	0xbc0d92c1	-0.008640946
15	0x3d27fc3e	0.04101204
16	0x3c865688	0.016398683
17	0xbd9c3dcc	-0.07628974
18	0xbcff6a72	-0.031178687
19	0xbca78552	-0.020449314
20	0xbd7266f0	-0.0591802
21	0x3d9a4a9d	0.075337626
22	0xbda1084f	-0.07862913
23	0x3c33c45b	0.010972108
24	0x3d577cc2	0.052609213
25	0x3b835685	0.0040081167
26	0x3c4f3dba	0.012648994
27	0x3d50f435	0.051014144
28	0x3dcaf539	0.09910054
29	0xbc163c4c	-0.009169649
30	0x3bb0442e	0.0053792214
31	0x3d82d9e8	0.063892186
32	0x3d7d7d0b	0.06188683
33	0x3d2e598c	0.042565867
34	0x3d18764a	0.037222184
35	0x3d8b9180	0.06814861
36	0x3ddcad66	0.107752606
37	0xbd6c15e4	-0.057638064
38	0xbab07775	-0.0013463335
39	0x3cf2142e	0.029550638
40	0x3bf72cd5	0.007543186
41	0x3d83d528	0.06437141
42	0xbcd09295	-0.02546052
43	0x3d2a2138	0.041535586
44	0x3cd700e9	0.026245551
45	0xbd129fda	-0.035796978
46	0x3d6d57a6	0.057944916
47	0xbd6fb54e	-0.058522515
48	0xbda76919	-0.08174343
49	0x3d1eeb68	0.03879872
50	0x3d1d7776	0.038444005
51	0x3d6007fa	0.054695107
52	0xbd030b86	-0.03199341
53	0x3dbe683f	0.09297227
54	0x3c5a4e23	0.013324293
55	0x3d12bd0a	0.035824813
56	0xbd836a8f	-0.06416809
57	0xbd91324c	-0.070896715
58	0x3c8e4d88	0.017370954
59	0xbd8256a1	-0.063641794
60	0x3d995bae	0.0748819
61	0x3be5c3d2	0.007011869
62	0x3da1728c	0.07883176
63	0x3da39554	0.079874665
64	0x3db06f29	0.08614952
65	0xbc90160b	-0.017588636
66	0x3c10a55a	0.008828485
67	0xbcb306d0	-0.021853834
68	0xbd9e10f1	-0.07718075
69	0xbacf12d7	-0.0015798461
70	0xbd4a1534	-0.049336627
71	0xbd990377	-0.07471364
72	0xbc49dfa6	-0.012321388
73	0x3d616f39	0.05503771
74	0xbb8f5091	-0.004373618
75	0x3d138bbb	0.03602193
76	0x3db8b2ec	0.09018502
77	0x3d975de3	0.07390954
78	0x3d9195e8	0.071086705
79	0xbc424752	-0.011857824
80	0xbd7c76e1	-0.06163681
81	0x3d676faa	0.056502976
82	0x3da74445	0.08167318
83	0xbd85f12e	-0.06540142
84	0xbd6ef532	-0.058339305
85	0xbd475131	-0.048661415
86	0xbc5361c7	-0.01290173
87	0xbd82e15f	-0.063906424
88	0x3d0cd79d	0.034385312
89	0xbd9626ee	-0.07331644
90	0x3cd8ee78	0.026480898
91	0xbc80e215	-0.015732804
92	0xbd889718	-0.06669444
93	0xbd876fd5	-0.06613127
94	0xbb34e3bf	-0.0027601568
95	0x3d06cd68	0.032910734
96	0xbd7545a2	-0.05988086
97	0xbd1ac8cd	-0.037789155
98	0x3dceb9e5	0.1009405
99	0xbd80fd90	-0.06298363
100	0x3c835f1d	0.016036564
101	0xbd2c83b7	-0.0421178
102	0x3cf5b656	0.029994171
103	0xbbb9db0b	-0.005671864
104	0xbd9667fe	-0.07344054
105	0xbca3109f	-0.019905386
106	0x3d0c30a6	0.034226082
107	0x3b0e4fa1	0.0021714943
108	0xbd2fe67b	-0.042944413
109	0x3c2a7160	0.010403007
110	0xbd1d6eb6	-0.03843566
111	0xbd0e2cdd	-0.034710754
112	0xbc51cf51	-0.012805776
113	0x3d1c2957	0.038125362
114	0x3b0d184c	0.0021529375
115	0x3d8d138d	0.06888495
116	0xbd93a57c	-0.07209298
117	0xbc194b93	-0.009356397
118	0x3d526037	0.05136129
119	0xbcf36bbb	-0.029714456
120	0x3da7cdf8	0.08193582
121	0xbaee4995	-0.0018179888
122	0x3db73da9	0.089473076
123	0x3d862af8	0.065511644
124	0x3b9a2f8d	0.0047053755
125	0x3d05f051	0.032699887
126	0xbd963015	-0.0733339
127	0xbcee70d1	-0.02910653

actor.linear2.weight f4 [128, 128]
0	0xbdb49ad5	-0.08818594
1	0x3c1e4255	0.0096593695
2	0xbd125865	-0.03572883
3	0x3d8d103f	0.06887864
4	0xbdb18d71	-0.08669556
5	0xbdaf538c	-0.08560857
6	0x3cbb8bbb	0.022893777
7	0x3d13f17b	0.036118966
8	0x3caca9da	0.021077085
9	0xbdaae7d3	-0.08344998
10	0xbcf61acf	-0.03004208
11	0xbd81967c	-0.06327531
12	0x3da861aa	0.08221753
13	0x3c9e225e	0.019303497
14	0x3d552173	0.052033853
15	0xbd2eb502	-0.04265309
16	0xbc8b4790	-0.017001897
17	0xbd4ba9c7	-0.04972246
18	0x3c754777	0.014970652
19	0x3dd0d399	0.10196609
20	0x3d92b096	0.07162587
21	0xbd887535	-0.066629805
22	0x3d1315aa	0.035909332
23	0x3dac3fc3	0.08410599
24	0xbd69db0a	-0.057093658
25	0xbd74dab1	-0.059778873
26	0x3c0d1bb6	0.008612564
27	0x3dad1ccb	0.084527574
28	0x3d895681	0.067059524
29	0xbd4a0516	-0.049321257
30	0x3c8ad204	0.016945846
31	0xbd5af8a3	-0.053459775
32	0xbd21f6fa	-0.039542176
33	0xbd4f43b5	-0.05060168
34	0xbd7914a7	-0.06081071
35	0xbd324dca	-0.043531217
36	0x3d2acc12	0.041698523
37	0xbd3bc9d4	-0.045846775
38	0xbd8bdf0a	-0.06829651
39	0x3d601c91	0.054714743
40	0xbd194a91	-0.037424628
41	0x3d851b7b	0.06499382
42	0x3cea1216	0.028573077
43	0x3d98023e	0.07422303
44	0x3d4b96e8	0.049704462
45	0xbbccabb1	-0.006246053
46	0x3dc002fa	0.09375568
47	0x3d864ce3	0.06557634
48	0xbcf1d4dd	-0.029520446
49	0xbd3085cb	-0.043096345
50	0xbd71c24b	-0.059023183
51	0xbd00cd69	-0.031445894
52	0x3c9d3c78	0.019193873
53	0xbc04efa1	-0.008113773
54	0xbbb159d5	-0.00541232
55	0xbcc4edb2	-0.024039123
56	0x3d52b32f	0.051440414
57	0xbbca30f0	-0.0061703846
58	0x3d0eed7f	0.034894463
59	0x3d0eba62	0.034845717
60	0xbcc92e98	-0.02455835
61	0x3d7d79dc	0.061883792
62	0xbd7de75c	-0.06198822
63	0xbd8561f6	-0.06512825
64	0xbd1a02a7	-0.037600186
65	0xba8fbb50	-0.0010965858
66	0x3dcc67bc	0.09980723
67	0x3c4c7047	0.012477941
68	0x3d7ac70b	0.06122498
69	0x3d245574	0.040120557
70	0xbd8a69cc	-0.067584604
71	0x3d9d0a53	0.07667985
72	0x3d99e831	0.0751499
73	0x3bea7a92	0.007155725
74	0x3d10c162	0.035340674
75	0x385fad82	5.3328935e-05
76	0x3d0381b7	0.032106128
77	0xbcdf5c2f	-0.027265636
78	0x3d984d80	0.07436657
79	0xbd8fdd66	-0.0702465
80	0x3bbe1a32	0.0058014626
81	0xbd1899a0	-0.037255883
82	0x3c9bb3ef	0.019006697
83	0xbd45a0fd	-0.048249234
84	0xbd6c2683	-0.057653915
85	0x3d1a80a5	0.03772034
86	0xbd7e3dc2	-0.062070616
87	0xbd10ac03	-0.035320293
88	0x3ac042f7	0.0014668395
89	0x3c282749	0.010263273
90	0xbd683b95	-0.056697447
91	0xbc883843	-0.01662839
92	0xbd2e9ee5	-0.042632002
93	0x3d4315af	0.0476281
94	0x3cef0998	0.02917938
95	0x3ba2a720	0.0049637705
96	0x3c994384	0.018708952
97	0x3d2ff243	0.04295565
98	0xbd989977	-0.07451146
99	0xbb97b83b	-0.0046301163
100	0x3da488d9	0.08033914
101	0xbd841be3	-0.064506315
102	0xbdad950d	-0.08475695
103	0x3d8f4c99	0.06997032
104	0xbd6ea666	-0.05826416
105	0xbd84f226	-0.06491499
106	0x3d8e19cf	0.06938516
107	0x3ba9d4e1	0.005182848
108	0xbdc9d41d	-0.098549105
109	0x3da05b10	0.07829869
110	0xbc0148b4	-0.007890869
111	0x3d38f336	0.04515382
112	0xbcf6fa42	-0.03014863
113	0xbd24ac79	-0.040203545
114	0x3d018e0a	0.0316296
115	0xbbf0617e	-0.0073358407
116	0x3c892050	0.01673904
117	0xbd90b827	-0.07066374
118	0x3db550bb	0.08853289
119	0x3d8d17a7	0.06889277
120	0x3dac0cb7	0.08400863
121	0x3dacc29b	0.084355555
122	0xbcefb7d8	-0.029262468
123	0x39b81f94	0.00035118742
124	0x3d808a44	0.06276372
125	0xbbf81b0f	-0.007571585
126	0xbd90a850	-0.07063353
127	0xbc7e7aba	-0.01553219
128	0x3dd13631	0.10215414
129	0xbcb367aa	-0.021900017
130	0xbd71e480	-0.059055805
131	0x3c7bec13	0.015376109
132	0x3d9e701d	0.07736228
133	0x3d85b7c9	0.06529195
134	0x3b874222	0.0041277567
135	0x3d119bef	0.0355491
136	0x3cabf89b	0.020992568
137	0x3d2a41f5	0.041566808
138	0xbd81f51f	-0.06345581
139	0x3c53e536	0.012933066
140	0xbcfb1efc	-0.030654423
141	0x3ccf867b	0.02533268
142	0xbcfdd617	-0.030985875
143	0x3d543603	0.051809322
144	0xbdb21d76	-0.086970255
145	0xbdd7db59	-0.10539884
146	0x3d5070f0	0.050888956
147	0xbd43f852	-0.04784424
148	0xbd989d16	-0.07451837
149	0x3d3776dc	0.044791088
150	0x3dbad601	0.09122849
151	0xba829842	-0.0009963589
152	0xbd8e9756	-0.06962459
153	0xbd27a510	-0.0409289
154	0x3d6a79b2	0.057244964
155	0x3d525f09	0.051360164
156	0x3d7729a9	0.060342465
157	0x3ccbc39c	0.024873547
158	0x3d8d4149	0.06897218
159	0x3da75fe6	0.08172588
160	0xbdad6dcb	-0.08468207
161	0xbdb7f88a	-0.08982952
162	0xbc8d49f1	-0.017247172
163	0x3b9b28ea	0.004735102
164	0xbd9115b5	-0.070842184
165	0x3bed083e	0.0072336486
166	0x3da2b86d	0.07945333
167	0xbc040988	-0.008058913
168	0x3a6feddf	0.0009152572
169	0xbb79a17f	-0.0038090644
170	0x3d78baa3	0.060724866
171	0xbda5743a	-0.08078809
172	0x3c85e643	0.016345149
173	0xbd0f1c7c	-0.034939274
174	0x3d9e3f36	0.077269
175	0xbd98be02	-0.07458116
176	0xbc7c8158	-0.015411697
177	0x3d8e2c1c	0.06942007
178	0x3d525c8e	0.0513578
179	0x3d331080	0.043716908
180	0x3d2bbdce	0.04192906
181	0x3cabf819	0.020992326
182	0xbd607636	-0.054800235
183	0xbd9fb05d	-0.077973105
184	0x3c02510d	0.007953894
185	0xbd3ad85b	-0.04561649
186	0xbcaefc2f	-0.021360485
187	0x3db7ba92	0.08971132
188	0xbcfedcce	-0.031111147
189	0x3d64954d	0.055806447
190	0x3d6200e8	0.055176646
191	0x3b8d18d3	0.004305938
192	0x3d7cb858	0.06169924
193	0x3d2281c9	0.039674554
194	0x3d382361	0.044955615
195	0xbbff9a70	-0.007800393
196	0xbc13fa2e	-0.009031815
197	0xbd33a3eb	-0.043857496
198	0x3d8c5e10	0.068538785
199	0x3d660519	0.056157205
200	0x3d4d1f61	0.050078753
201	0x3d75a103	0.059968006
202	0xbd960a05	-0.0732613
203	0xbda45afa	-0.08025165
204	0x3daf9677	0.08573621
205	0x3c86d1a4	0.016457386
206	0x3c9dd515	0.019266644
207	0x3cf7ac32	0.030233476
208	0x3d37d4b0	0.04488057
209	0xbc2a7bb7	-0.0104054725
210	0xbca936b9	-0.020655977
211	0x3d785a85	0.0606332
212	0xbc8f35be	-0.017481681
213	0x3d9dcb69	0.07704813
214	0x3d19d0a9	0.03755251
215	0x3abccdba	0.0014404573
216	0x3a32fb58	0.0006827614
217	0x3d7a469f	0.061102506
218	0xbc41d177	-0.0118297255
219	0xbca30ded	-0.019904101
220	0x3dd0b9cd	0.10191689
221	0x3dd39e13	0.10332885
222	0x3dab8c8a	0.08376415
223	0xbd8a530d	-0.06754122
224	0xbca467c3	-0.020069009
225	0x3c8e7c57	0.017393274
226	0xbc46b359	-0.012127721
227	0x3c93fc62	0.018064681
228	0xbd040dd0	-0.032239735
229	0xbd852774	-0.06501666
230	0x3d84d3dc	0.064857215
231	0x3d8c3d79	0.068476625
232	0x3d8c2ea4	0.068448335
233	0xbd991670	-0.07474983
234	0xbcaef949	-0.021359103
235	0xbc93759c	-0.018000416
236	0x3d3663de	0.044528835
237	0x3c192d0c	0.009349119
238	0x3d3348a6	0.043770455
239	0x3ce60f20	0.028083384
240	0xbda3ab39	-0.079916425
241	0x3d63a7fb	0.05558012
242	0xbc484479	-0.012223356
243	0xbd8381c9	-0.06421239
244	0x3dbd1bd9	0.09233827
245	0x3d9ddf01	0.0770855
246	0xbdc568ac	-0.09639105
247	0x3babfa09	0.0052483124
248	0xbd78157d	-0.060567368
249	0x3d1ebb21	0.03875268
250	0x3d498413	0.04919822
251	0xbd705b9a	-0.058681108
252	0x3ceebdcd	0.029143238
253	0xbc5d59dc	-0.013510194
254	0x3dcbe6ac	0.099561065
255	0x3d2ac5ff	0.04169273

actor.linear2.bias f4 [128]
0	0x3d7173ed	0.058948446
1	0xbd30cf8a	-0.043166675
2	0xbd2b1455	-0.041767437
3	0xbd082d7e	-0.03324651
4	0x3c1f0823	0.00970653
5	0xbb126ce3	-0.0022342734
6	0x3d2427f0	0.04007715
7	0x3cb87d79	0.022520768
8	0xbda29545	-0.07938627
9	0xbb825b3b	-0.0039781607
10	0xbd8dac6b	-0.06917652
11	0xbd8554e3	-0.065103315
12	0xbd9dc737	-0.07704013
13	0x3d22f17f	0.03978109
14	0x3d3fe880	0.04685259
15	0x3db3f6d3	0.08787312
16	0xbd51997d	-0.05117177
17	0xbc4d5c31	-0.012534187
18	0xbd7735c8	-0.060354024
19	0x3d32c597	0.043645468
20	0x3daa4d53	0.0831553
21	0x3c9e34f4	0.01931236
22	0xbd9189f6	-0.07106392
23	0xbb3eac19	-0.0029094277
24	0x3d721d6f	0.0591101
25	0xbd4d5419	-0.05012903
26	0xbcd15978	-0.025555357
27	0x3d886954	0.06660715
28	0xbd69d4b6	-0.057087623
29	0xbd51af85	-0.05119278
30	0x3d60e9b4	0.054910377
31	0x3d4e0e06	0.050306343
32	0x3d084c33	0.033275794
33	0x3d5a75c2	0.05333496
34	0xbd6ebe8b	-0.058287185
35	0x3c740e71	0.014896021
36	0x3d574b70	0.052562177
37	0xbd14dc28	-0.03634277
38	0x3dad8f8b	0.08474644
39	0x3d3aa567	0.045567896
40	0xbcad94b1	-0.021189066
41	0x3c65ffdc	0.014038052
42	0xb9e0ce0f	-0.00042878135
43	0xb9719abf	-0.00023041198
44	0xbd6c13ef	-0.057636198
45	0x3c1253db	0.0089311255
46	0xbcb9ad09	-0.022665517
47	0x3d80402e	0.06262241
48	0x3da9175b	0.08256408
49	0xbd9251e8	-0.071445286
50	0x3d7450e6	0.059647463
51	0x3d0ce1bc	0.034394965
52	0x3dbd75fd	0.0925102
53	0xbcc459e8	-0.023968652
54	0xbd4d2512	-0.05008418
55	0xbd1aa1f7	-0.037752118
56	0x3d954e8d	0.07290373
57	0x3c1de929	0.009638109
58	0xbda079ad	-0.07835708
59	0x3ccca218	0.024979636
60	0xbc24e1cc	-0.0100636
61	0xbd69d76d	-0.05709021
62	0xbbb35fd3	-0.0054740696
63	0x3da3123d	0.07962463
64	0xbd812c69	-0.06307299
65	0x3db054e7	0.08609944
66	0x3d2c6fc7	0.042098787
67	0x3da82314	0.082098156
68	0xbd3ea369	-0.04654256
69	0x3c876893	0.016529357
70	0x3c9bc304	0.01901389
71	0xbc11374c	-0.008863281
72	0xbd218bad	-0.039439846
73	0x3ceeaeb2	0.029136036
74	0xbc4a97eb	-0.012365322
75	0x3d13f188	0.036119014
76	0x3bcf1c84	0.006320538
77	0xbc21d903	-0.0098784
78	0xbd870662	-0.06593014
79	0xbc0a7762	-0.008451315
80	0x3d89a9ce	0.06721841
81	0xbb0cfb24	-0.0021511996
82	0x3daa91fd	0.08328626
83	0x3c8220f7	0.01588486
84	0xbd4c089c	-0.049812898
85	0x3b51d26c	0.003201629
86	0x3c22253c	0.009896573
87	0x3d3db0ce	0.046311192
88	0xbcf1df00	-0.02952528
89	0x3d981f35	0.07427827
90	0xbd067e17	-0.032835092
91	0x3d48ffe9	0.04907218
92	0xbc59d777	-0.013296
93	0xbc60e219	-0.013725781
94	0x3dc0b8b9	0.09410233
95	0xbce5fff9	-0.028076159
96	0x3cccd1c0	0.02500236
97	0x3d84b301	0.06479455
98	0xbcd01567	-0.02540083
99	0xbd3fc559	-0.046819065
100	0xbd48317d	-0.04887532
101	0x3dac9331	0.08426512
102	0x3cf4d90b	0.02988865
103	0x3daa7e4a	0.08324869
104	0x3d72ceaa	0.05927912
105	0xbcf008d7	-0.02930109
106	0x3d1b6271	0.037935678
107	0x3d85956b	0.0652264
108	0x3d6df68e	0.05809646
109	0x3af6d87b	0.0018832827
110	0x3d8a06c6	0.06739573
111	0x3d8ea234	0.069645315
112	0x3db3c26d	0.08777318
113	0xbd36224d	-0.044466306
114	0x3dc50456	0.09619968
115	0xbd3fc776	-0.04682108
116	0xbd33fdbc	-0.04394315
117	0x3c69d362	0.014271589
118	0xbd017c5d	-0.031612743
119	0x3b70cfd0	0.003674496
120	0xbd892345	-0.0669618
121	0xbd31185a	-0.043236114
122	0xbd63f672	-0.05565495
123	0x3d1d3981	0.038384918
124	0xbcf564cc	-0.02995529
125	0xbd0699d8	-0.03286156
126	0x3d511e28	0.05105415
127	0x3d8dd997	0.069262676

actor.linear3.weight f4 [128, 128]
0	0xbd909066	-0.07058792
1	0xbd996aea	-0.07491095
2	0xbc2c1514	-0.010503072
3	0xbce3e8a7	-0.027820898
4	0x3c4eb973	0.012617457
5	0x3d3044c8	0.043034345
6	0xbd417458	-0.047230095
7	0x3db8ee2e	0.09029804
8	0xbd9101fd	-0.07080457
9	0x3d9add58	0.07561749
10	0x3d15eae9	0.03660098
11	0xbd3ec5fe	-0.04657554
12	0xbc3f43ce	-0.011673881
13	0xbd6981e4	-0.05700864
14	0xbdc1f7f7	-0.09471124
15	0xbd9e0ef5	-0.077176966
16	0xbd21d4f5	-0.039509732
17	0x3d83eb51	0.064413674
18	0x3d350d94	0.044202402
19	0xbca3b6f0	-0.019984692
20	0xbda21f40	-0.07916117
21	0x3d119584	0.03554298
22	0x3db95341	0.090490825
23	0x3c8e5c51	0.017378004
24	0x3d4937fc	0.049125656
25	0xbd5449aa	-0.051828064
26	0x3d32c1a7	0.043641713
27	0xbd9688ec	-0.073503345
28	0x3d639698	0.05556354
29	0xbb11ded9	-0.0022258072
30	0x3d2ddd88	0.042447597
31	0xbd97c8ab	-0.07411321
32	0x3cd35442	0.025797013
33	0x3afed5a7	0.0019442335
34	0xba56409b	-0.0008173079
35	0x3c806b3c	0.015676133
36	0x3d9eb70b	0.077497564
37	0xbd125f47	-0.035735395
38	0x3d9128ee	0.07087885
39	0xbccaec73	-0.02477095
40	0x3d0a1bb6	0.033717833
41	0x3d837eed	0.064206935
42	0x3d1a54b0	0.03767842
43	0x3c756e94	0.014979977
44	0x3d336f8e	0.04380756
45	0x3da2a764	0.079420835
46	0x3d40538d	0.04695468
47	0x3daad387	0.08341127
48	0xbd89104d	-0.06692562
49	0x3ceb0946	0.028690945
50	0x3de1a739	0.11018223
51	0xbd332a41	-0.04374147
52	0x3d8e6ff6	0.069549486
53	0x3d0f52cd	0.034991074
54	0x3d5fffc2	0.05468727
55	0xbb299b87	-0.0025880055
56	0xbdb3cda0	-0.08779454
57	0x3de124f7	0.109933786
58	0xbd934838	-0.07191509
59	0xbd888a8d	-0.066670515
60	0xbccc632d	-0.024949634
61	0x3d95df16	0.07317941
62	0x3d85cba2	0.065329805
63	0x3d4fb62d	0.050710846
64	0xbdb24008	-0.08703619
65	0x3d9f0998	0.07765502
66	0x3ac572a5	0.0015064074
67	0xbcfb57af	-0.03068146
68	0xbd7213f9	-0.05910108
69	0x3c992972	0.01869652
70	0xbc13d972	-0.009024011
71	0xbc901b7a	-0.017591227
72	0xbd65cf5b	-0.056105953
73	0x3d232bee	0.039836816
74	0xbd41fda2	-0.047361024
75	0xbd122d62	-0.03568781
76	0x3d0f4dd1	0.03498632
77	0x3d875e63	0.066098
78	0x3dda1cb0	0.10650003
79	0xbcba322d	-0.022729004
80	0xbd6aa28c	-0.057283923
81	0x3d8b7d0f	0.068109624
82	0x3d892711	0.066969045
83	0xbb76e813	-0.0037674948
84	0xbda2f2ef	-0.07956492
85	0xbd0c354c	-0.034230515
86	0x3ca90ed7	0.020636959
87	0x3d7f396a	0.062310614
88	0xbd7baf37	-0.061446395
89	0x3d1184b3	0.035526942
90	0xbcae368b	-0.021266242
91	0x3d6b873d	0.05750202
92	0xbd9f7f67	-0.07787972
93	0xbd1cc657	-0.03827509
94	0x3d3fc8f3	0.0468225
95	0xbc6cdbca	-0.014456699
96	0x3d51a4fa	0.051182725
97	0x3da3ab94	0.0799171
98	0x3d6d3627	0.05791297
99	0xbbdd8f7e	-0.0067614904
100	0xbd1fa930	-0.03897971
101	0xbd74ba85	-0.05974819
102	0x3d493d58	0.049130768
103	0x3d6feedd	0.058577407
104	0xbcba1ca1	-0.02271873
105	0x3c5296fd	0.012853381
106	0xbd14b79d	-0.03630792
107	0xbdba0d14	-0.09084526
108	0x3cd4fb1e	0.025998648
109	0xbae3c664	-0.0017377851
110	0xbb81c215	-0.003959904
111	0x3dd36ab8	0.10323089
112	0xbcb8a199	-0.022537993
113	0x3dc1c544	0.094614536
114	0x3cfe70c0	0.031059623
115	0xbdc400c9	-0.09570462
116	0x3c89065d	0.016726667
117	0x3c462327	0.012093342
118	0xbd82ce2f	-0.06386983
119	0x3d7ebea1	0.062193517
120	0x3dcd2c8b	0.100182615
121	0x3da6dfe7	0.08148175
122	0x3d8abf71	0.06774796
123	0x3d429550	0.047505677
124	0xbcf54eae	-0.029944744
125	0xb8958292	-7.129194e-05
126	0xbd20fbc1	-0.03930259
127	0x3d0fa930	0.03507346
128	0x3d65b4a2	0.056080468
129	0xba9840ce	-0.0011615993
130	0xbba4b6c2	-0.0050266692
131	0xbd00d0bf	-0.031449076
132	0xbd98d6df	-0.074628584
133	0x3d7199a4	0.058984414
134	0x3d86ec1b	0.06588002
135	0x3b60a9ee	0.0034280973
136	0x3d32ab57	0.043620434
137	0xbaf55a62	-0.0018718953
138	0x3db2124b	0.08694895
139	0x3d9994de	0.07499097
140	0xbdb7fe0c	-0.089840025
141	0x3dbfb2e3	0.09360292
142	0x3d7c8b4d	0.061656285
143	0xbcb8f527	-0.022577835
144	0xbd85e8fe	-0.0653858
145	0x3c6bacd4	0.014384467
146	0x3d8cd6ac	0.06876883
147	0xbda5749a	-0.080788806
148	0x3b05cf0d	0.0020417601
149	0xbde58292	-0.11206545
150	0x3cea3aa9	0.028592424
151	0xbcfd22b5	-0.030900339
152	0x3d6a967a	0.057272412
153	0x3d0701f4	0.032960847
154	0x3dafd4e5	0.08585528
155	0xbc369343	-0.011143508
156	0x3d9f4c19	0.07778186
157	0x3d2423f9	0.04007337
158	0x3abe4a51	0.0014517998
159	0x3db7747e	0.08957766
160	0x3d97817b	0.07397743
161	0x3d95a430	0.07306707
162	0xbd27a6aa	-0.040930428
163	0x3d6f03d7	0.05835327
164	0x3bcf1485	0.006319585
165	0xbd865f20	-0.065611124
166	0x3d8dfc1d	0.069328524
167	0xbd72ae6c	-0.059248373
168	0xbd0c8811	-0.03430945
169	0x3d4a75ae	0.049428634
170	0xbd512984	-0.051064983
171	0x3dab7bbd	0.083732106
172	0xbd263708	-0.040579826
173	0x3cf033a3	0.029321497
174	0xbbd4ec80	-0.0064979196
175	0x3d54dc92	0.051968165
176	0x3c71018b	0.0147098405
177	0xbd923f85	-0.07141022
178	0x3d4ab015	0.04948433
179	0x3d7423a4	0.059604302
180	0xbdb3ad17	-0.08773249
181	0xbaa70fb3	-0.0012745768
182	0x3d057d4f	0.032590207
183	0xbd6cb742	-0.057791956
184	0x3d2a8f92	0.041640826
185	0x3df2a21f	0.118473284
186	0x3c0f8419	0.008759522
187	0x3a1923b8	0.00058418093
188	0x3d9dda67	0.077076726
189	0x3d26337c	0.040576443
190	0x3d645c44	0.055752054
191	0xbdb60916	-0.08888452
192	0x3cc1b813	0.023647344
193	0xbd8c728a	-0.06857784
194	0xbd999138	-0.074984014
195	0xbda77a9c	-0.08177683
196	0xbd3ae8e7	-0.04563227
197	0xbcd109e3	-0.02551741
198	0xbd5718fc	-0.05251406
199	0xbd668d0d	-0.05628686
200	0x3b432697	0.002977764
201	0x3db2ff8c	0.08740148
202	0xbb1ba831	-0.0023751373
203	0x3c841130	0.016121477
204	0xbd6991c8	-0.057023793
205	0x3c27cfcb	0.010242413
206	0x3d6aa58d	0.057286788
207	0xbd8d3740	-0.06895304
208	0xbc260faa	-0.010135571
209	0x3d27abac	0.040935203
210	0x3c94227c	0.01808285
211	0x3c5eabc8	0.0135907605
212	0x3cc95075	0.024574498
213	0xbd37e521	-0.04489625
214	0xbc501116	-0.012699386
215	0x3d3ad053	0.04560883
216	0xbda1d211	-0.07901395
217	0x3cf5ae7a	0.029990423
218	0x3d492b16	0.049113356
219	0xb9c31166	-0.0003720626
220	0x3c646607	0.013940341
221	0x3cd55d9e	0.026045617
222	0xbc9b5c09	-0.018964784
223	0xbd27d066	-0.04097023
224	0xbd60f634	-0.054922298
225	0x3db8a9d2	0.09016766
226	0xbd12220a	-0.035676993
227	0x3db88737	0.09010165
228	0x3c9f138f	0.019418506
229	0xbd1d4967	-0.03840008
230	0x3ce17c51	0.027525099
231	0xbcd36ca3	-0.025808638
232	0x3deb934b	0.11502703
233	0x3d61d9fa	0.05513952
234	0x3da197cc	0.07890281
235	0x3b48b5e9	0.0030626005
236	0x3d224c70	0.039623678
237	0xbdc4ed77	-0.09615605
238	0x3d68f781	0.056876663
239	0x3de210ad	0.11038337
240	0xbd894686	-0.067029044
241	0x3daabb40	0.08336496
242	0x3c06498c	0.008196246
243	0xbcafaade	-0.02144378
244	0x3da4e85e	0.08052133
245	0x3cc5642a	0.024095614
246	0xbde597d3	-0.11210599
247	0xbdb7fd18	-0.08983821
248	0xbd4aa607	-0.049474742
249	0x3c2e5509	0.010640391
250	0xbdb97061	-0.09054638
251	0xbdbb483b	-0.09144636
252	0x3a9ae567	0.0011817635
253	0xbb71ccdf	-0.0036895794
254	0x3cccfc21	0.025022568
255	0xbd922588	-0.07136065

actor.linear3.bias f4 [128]
0	0xbc750d61	-0.014956803
1	0x3dc0b359	0.09409208
2	0xbd32bf47	-0.043639448
3	0xbd98f5a0	-0.07468724
4	0xbd653510	-0.055958807
5	0x3d803431	0.06259955
6	0x3cf66ea1	0.030082049
7	0xbd4468f3	-0.04795165
8	0xbbe54b9a	-0.006997538
9	0x3dae7cfa	0.08519931
10	0xbd7ca9e4	-0.061685458
11	0x3d9ffb52	0.078116074
12	0x3d81c3d8	0.06336182
13	0x3d93ed08	0.072229445
14	0x3d4ad590	0.049520075
15	0xbd69506b	-0.05696146
16	0x3ccf7602	0.025324825
17	0x3db9b9bb	0.090686284
18	0x3d75fcde	0.060055606
19	0x3ce46fc9	0.027885335
20	0x3c647f35	0.013946344
21	0x39d04734	0.00039725902
22	0xbc790362	-0.01519856
23	0xbc9e2635	-0.019305328
24	0xbd2d184f	-0.04225951
25	0x3dbda30d	0.09259615
26	0xbd2a3628	-0.041555554
27	0x3cf8024e	0.030274536
28	0xbd59287b	-0.05301712
29	0x3d12e538	0.03586313
30	0x3c0611ef	0.008182987
31	0x3c6b1bf3	0.014349925
32	0x3da0dea1	0.07854963
33	0xbd1302cf	-0.03589135
34	0x3d602f50	0.05473262
35	0xbdb52af3	-0.088460825
36	0xbbccf3de	-0.006254657
37	0xbda3d624	-0.079998285
38	0x3ceb2780	0.028705359
39	0xbd855ea1	-0.0651219
40	0xbd7074dc	-0.058705196
41	0x3d784850	0.060615838
42	0x3cfe3c91	0.03103474
43	0x3d4a644c	0.049412057
44	0xbd7717d7	-0.06032547
45	0x3a453b95	0.0007523832
46	0x3c815c53	0.015791094
47	0x3dc570b7	0.09640639
48	0xbb5add96	-0.0033396236
49	0x3c947711	0.018123182
50	0x3d8a1904	0.067430526
51	0x3ce51016	0.027961772
52	0xbc45b8dc	-0.012068
53	0xbdaa2c04	-0.083091766
54	0xbd90a267	-0.07062226
55	0x3d7abfb0	0.061217964
56	0x3d05fb4e	0.032710366
57	0xbcb60f8f	-0.022224216
58	0x3b6247d1	0.003452767
59	0x3cfab213	0.03060249
60	0x3c11f1e7	0.008907772
61	0xbba10145	-0.0049134814
62	0x3d6a725f	0.05723798
63	0x3c147fd1	0.009063677
64	0xbd0394b0	-0.03212422
65	0xbcb6d283	-0.022317177
66	0x3d76c7ce	0.060249142
67	0xbdb2c8c2	-0.08729698
68	0xbd626ee8	-0.05528155
69	0x3d997007	0.07492071
70	0x3d8c5c4d	0.068535425
71	0xbd8dd8d3	-0.069261216
72	0x3d52a76b	0.051429193
73	0xbd81b8b0	-0.063340545
74	0xb915d90d	-0.00014290605
75	0x3cadde0b	0.021224042
76	0xbc0e61b6	-0.008690288
77	0xbc8f0059	-0.01745622
78	0xbd9a2449	-0.07526452
79	0x3dc04303	0.093877815
80	0x3daaeb7a	0.08345695
81	0xbda3cc5c	-0.07997963
82	0x3b5f73a6	0.0034096031
83	0x3cfb3129	0.03066309
84	0x3ba40eda	0.0050066533
85	0xbc2ff28d	-0.010738981
86	0x3c06621e	0.008202104
87	0xbd898a26	-0.06715803
88	0xbd7aee3c	-0.061262354
89	0xbd0697c0	-0.032859564
90	0xbbb033a2	-0.005377249
91	0x3d62299e	0.05521547
92	0x3b2d1d2a	0.0026415088
93	0x3d2ed435	0.042682845
94	0x3cef6017	0.029220624
95	0x3cd36af1	0.02580783
96	0xbc2387bd	-0.009981093
97	0x3db15bdd	0.086601
98	0x3d11cd93	0.03559644
99	0xbd2a0e2d	-0.041517425
100	0x3c62ea32	0.013849782
101	0xbc9f8084	-0.01947046
102	0x3cf302a1	0.02966434
103	0x3d9ab928	0.07554847
104	0x3d964e70	0.073391795
105	0x3d1d5559	0.038411472
106	0xbd4a3c50	-0.049373925
107	0xbce8ff4b	-0.028442046
108	0x3dc97132	0.098360434
109	0x3acdb724	0.0015694839
110	0x3db35af2	0.08757581
111	0xbd8bba4e	-0.06822644
112	0x3d186417	0.037204828
113	0x3cf60f25	0.030036518
114	0xbd96e1e7	-0.07367306
115	0xbd428537	-0.047490325
116	0xbd5341d8	-0.051576465
117	0xbd7fb9e4	-0.06243314
118	0x3d8315c6	0.06400637
119	0x3daa30ed	0.08310113
120	0x3d640e43	0.055677664
121	0x3db8030c	0.08984956
122	0x3d8fbdf8	0.070186555
123	0xbc644f5e	-0.013934938
124	0x3cf90e74	0.0304024
125	0x3a8a0395	0.0010529632
126	0x3db9344d	0.09043179
127	0xbd82ce54	-0.0638701

actor.linear4.weight f4 [9, 128]
0	0x3d171151	0.03688175
1	0x3cc41dd8	0.023940012
2	0xbc548d7c	-0.012973186
3	0xbdaf69db	-0.08565112
4	0xbd5bc0c3	-0.05365063
5	0xbcde22ba	-0.027116168
6	0x3d03ecdd	0.032208312
7	0xbd892068	-0.06695634
8	0x3d5137eb	0.05107872
9	0xbcb574fb	-0.022150507
10	0xbc2b239d	-0.010445503
11	0x3d4eea7c	0.05051659
12	0xbc196826	-0.00936321
13	0xbd26f877	-0.0407643
14	0x3d8b0d64	0.067896634
15	0x3d4b41db	0.04962335
16	0x3d3c6bb8	0.046001166
17	0x3c9113e4	0.01770968
18	0x3d5d17c3	0.05397774
19	0x3d8b6f6c	0.068083614
20	0xbd87bd0b	-0.06627854
21	0xbd7980c6	-0.060913824
22	0xbd922a6e	-0.07136999
23	0xbcce6df0	-0.025198907
24	0xbda66f06	-0.08126645
25	0xba86d841	-0.0010287837
26	0x3c7479a9	0.014921584
27	0xbc2e3766	-0.010633325
28	0xbda6fb6c	-0.08153424
29	0x3db51d7d	0.08843515
30	0xbd62ff7d	-0.055419434
31	0x3cb2c631	0.02182302
32	0xbd1e5cb5	-0.03866263
33	0xbd8b8d42	-0.06814052
34	0xbb6cde5d	-0.003614328
35	0xbd5b45a6	-0.05353322
36	0x3ca4e78b	0.02012994
37	0xbc9b10ac	-0.018928848
38	0x3d8d2960	0.06892657
39	0xbd74fbd8	-0.05981049
40	0xbd391f7b	-0.045196038
41	0xbd3e40a1	-0.046448354
42	0xbd58f0e0	-0.05296409
43	0xbd3d640a	-0.046237983
44	0x3d83a92c	0.06428751
45	0x3d44c431	0.048038665
46	0xbd409de0	-0.04702556
47	0xbce52e4e	-0.027976181
48	0x3d31b872	0.04338879
49	0x3d8ac20d	0.067752935
50	0xbc5e087b	-0.013551827
51	0xbd7bf3cf	-0.06151181
52	0xbd94eb4e	-0.07271443
53	0xbd9c86d8	-0.07642907
54	0x3d318204	0.043336883
55	0xbdad93f7	-0.08475488
56	0xbcf04139	-0.029327976
57	0x3d57ba70	0.052668035
58	0x3db16785	0.08662323
59	0x3b967bc3	0.0045923903
60	0xbd671264	-0.056414023
61	0xbd920f75	-0.071318544
62	0xbd146f30	-0.03623885
63	0x3d6a3b50	0.05718547
64	0xbd546a5b	-0.05185924
65	0x3d925d12	0.07146658
66	0x3c11c620	0.008897334
67	0x3d94a653	0.07258286
68	0xbcb5fdc2	-0.022215728
69	0x3da9a391	0.08283151
70	0x3d278d98	0.04090652
71	0xbd2bd004	-0.041946426
72	0x3cf470ff	0.029839037
73	0xbd2e344b	-0.04253034
74	0xbc934e53	-0.017981684
75	0x3da28624	0.079357415
76	0x3d95038b	0.072760664
77	0x3c9fbe85	0.019500026
78	0x3d97ff42	0.074217334
79	0x3dacf4ff	0.08445167
80	0x3d2a9a27	0.041650917
81	0x3ce1c853	0.027561342
82	0x3c33fd01	0.010985614
83	0x3c177b57	0.009245715
84	0x3d2c3b7b	0.042048912
85	0x3ca214d2	0.019785319
86	0x3b7852a2	0.003789105
87	0x3da1ae14	0.07894531
88	0x3c81ce36	0.0158454
89	0x3d992d04	0.07479289
90	0x3d4a7c08	0.04943469
91	0xbd5a3cde	-0.053280704
92	0x3d2130f2	0.03935332
93	0xbb9ea9a8	-0.004842002
94	0xbdb1514a	-0.08658083
95	0x3d6ed682	0.05831004
96	0x3b6ecf8d	0.0036439628
97	0xbcd47e34	-0.025939085
98	0x3da72b99	0.081626125
99	0x3d24e9bf	0.04026198
100	0xbdb3c337	-0.08777469
101	0xbd54d251	-0.051958386
102	0x3d83172d	0.06400905
103	0x3883a209	6.276748e-05
104	0xbd585f4b	-0.052825253
105	0x3d902cd5	0.07039801
106	0xbda1ece5	-0.07906512
107	0xbd712064	-0.05886878
108	0xbd1bc62f	-0.0380308
109	0xbc51a5c1	-0.0127958665
110	0x3dbba733	0.0916275
111	0x3d2cdfac	0.042205498
112	0xbd2f5911	-0.04280955
113	0xbb6f6cd3	-0.003653337
114	0xbd73a61c	-0.059484586
115	0x3d9315bc	0.0718188
116	0x3d92550f	0.0714513
117	0x3da14a15	0.07875458
118	0xbd42c9b5	-0.047555644
119	0xbd121daf	-0.03567284
120	0x3d202c08	0.03910449
121	0x3caee3e3	0.0213489
122	0xbccf79ef	-0.025326697
123	0xbd8dcfcf	-0.06924402
124	0x3b62da16	0.0034614853
125	0xbd66ad6b	-0.056317728
126	0xbd855dac	-0.06512007
127	0xbd725ab1	-0.05916852
128	0x3d8b21ca	0.06793554
129	0x3d27eed1	0.040999237
130	0x3dce4d09	0.10073287
131	0x3d44d452	0.048054047
132	0xbdabc245	-0.08386663
133	0x3de8cab0	0.113667846
134	0x3dc1d939	0.0946526
135	0x3d4a6bef	0.04941934
136	0x3c1d1427	0.009587324
137	0xbc6deb9d	-0.014521507
138	0x3c8056e8	0.01566644
139	0x3d9b5c69	0.07585985
140	0x3d632199	0.055451963
141	0x3c5e2240	0.0135579705
142	0xbc05332f	-0.008129879
143	0x3d78454e	0.06061297
144	0xbd599901	-0.05312443
145	0x3d37fad4	0.044916943
146	0x3d0f3c27	0.034969475
147	0x3dcaeb3f	0.09908151
148	0xbd942d1a	-0.07235165
149	0xbd8b3fd8	-0.067992866
150	0x3bb31c6a	0.0054660337
151	0xbc89af03	-0.016807085
152	0x3d1ce782	0.03830672
153	0x3d2075e0	0.039174914
154	0x3d833cf2	0.06408109
155	0x3d1f95b1	0.038961116
156	0xbd2ff930	-0.042962253
157	0xbcbe0500	-0.023195744
158	0xbd26cfaa	-0.040725388
159	0x3dd6bd62	0.10485341
160	0xbd0366b3	-0.032080363
161	0xbd40a956	-0.04703649
162	0xbde07483	-0.10959723
163	0x3da01441	0.07816363
164	0xbd1e9666	-0.03871765
165	0x3c614b10	0.013750806
166	0x3c0f993f	0.008764564
167	0x3dead05f	0.11465525
168	0x3c8af6f7	0.016963465
169	0xbda1c5b9	-0.07899041
170	0x3c769feb	0.015052776
171	0xbdb6f32c	-0.089331
172	0xbd0a9a7a	-0.033838727
173	0xbd94d103	-0.07266428
174	0xbc3c4951	-0.011492089
175	0x3c35b569	0.011090615
176	0xbdb4561a	-0.08805485
177	0xbd9c4a31	-0.076313384
178	0xbb0311b8	-0.0019999575
179	0xba8f6048	-0.0010938728
180	0x3d89c870	0.067276835
181	0x3d60a800	0.054847717
182	0x3dc5aedd	0.09652493
183	0x3d2c5d33	0.04208107
184	0xbcd79ba6	-0.026319336
185	0xbc18c956	-0.009325346
186	0x3d2189b1	0.039437953
187	0x3d77bb04	0.060481086
188	0x3cafb191	0.021446975
189	0x3d89e69b	0.06733438
190	0x3d151ec0	0.03640628
191	0xbd304fe9	-0.04304496
192	0xbd172a9c	-0.03690587
193	0x3dbe28c8	0.09285122
194	0xbd81a379	-0.06330008
195	0xbdad2f99	-0.08456344
196	0xbda04905	-0.07826427
197	0x3cd3c5f3	0.025851225
198	0x3deaecd7	0.11470955
199	0x3d43c133	0.04779167
200	0x3d0ed874	0.034874395
201	0xbd0eeb22	-0.03489221
202	0xbd55e90b	-0.0522242
203	0x3d6258cc	0.055260465
204	0xbd7a0697	-0.06104144
205	0x3d91cf8f	0.07119667
206	0x3d85f736	0.06541292
207	0x3d89b7b0	0.06724489
208	0x3d59eaa2	0.05320228
209	0x3d985708	0.07438475
210	0x3cb5127e	0.022103544
211	0xbda4e50f	-0.08051502
212	0xbcb957c2	-0.022624854
213	0x3db70aa8	0.089375794
214	0xbd26c578	-0.040715665
215	0xbdb930c6	-0.09042506
216	0x3d848054	0.06469789
217	0xbb2766ec	-0.0025543524
218	0xbc286432	-0.010277795
219	0xbd84325d	-0.064549185
220	0x3cc39dcd	0.023878956
221	0xbda5ca63	-0.08095243
222	0x3dbc2910	0.091875196
223	0x3d738596	0.05945357
224	0xbdb0be95	-0.08630101
225	0xbca717f6	-0.020397168
226	0xbd9f44af	-0.07776772
227	0x3d22315b	0.03959785
228	0xbb11790c	-0.0022197394
229	0x3d721bad	0.059108425
230	0xbd8eb08f	-0.0696727
231	0xbb1f04bb	-0.0024264294
232	0xbc4e9ab8	-0.01261013
233	0xbd228e5e	-0.039686553
234	0x3d566397	0.05234107
235	0x3d18f4a7	0.037342694
236	0x3d80a00c	0.062805265
237	0xbcce5cc2	-0.025190715
238	0x3c53f30f	0.012936368
239	0xbdcf2b19	-0.10115642
240	0xbad761be	-0.0016432328
241	0x3d32e53f	0.043675657
242	0x3dd98ffb	0.10623165
243	0x3d758cdc	0.059948787
244	0x3da08c6e	0.07839285
245	0x3d0563ca	0.03256587
246	0xbc1d4613	-0.0095992265
247	0x3baa00ca	0.0051880823
248	0x3d85f84b	0.06541499
249	0xbde84385	-0.11341003
250	0x3d6c2840	0.057655573
251	0xbdc0b575	-0.0940961
252	0xbbcafa8b	-0.006194418
253	0xbdb5f48c	-0.08884534
254	0x3dd9eca6	0.1064084
255	0xbcc5434d	-0.024079943

actor.linear4.bias f4 [9]
0	0x3d73c877	0.05951735
1	0xbd957d32	-0.0729927
2	0x3d09a89a	0.033608057
3	0x3da4bee3	0.08044221
4	0x3bdbc1cb	0.0067064515
5	0xbd3fde30	-0.046842754
6	0x3d51a706	0.051184677
7	0x3d692ccc	0.056927487
8	0x3d993c54	0.0748221

critic.linear1.weight f4 [128, 120]
0	0x3da65011	0.0812074
1	0x3e2c8170	0.16846251
2	0x3db2fefd	0.087400414
3	0xbd21be1b	-0.03948794
4	0xbd08481a	-0.033271886
5	0x3d8c9138	0.06863636
6	0x3d7bdb1e	0.061488263
7	0x3ce48182	0.027893785
8	0x3c0517c6	0.008123344
9	0x3e084ee9	0.13311352
10	0x3d8f9f56	0.07012813
11	0xbdf51eba	-0.11968751
12	0x3d5cfbfe	0.053951256
13	0xbcc1906e	-0.02362844
14	0xbdc73fdc	-0.09728977
15	0xbcebf87b	-0.028805008
16	0x3db00e6c	0.08596501
17	0xbdbe43a0	-0.09290242
18	0x3d1dd0e1	0.03852928
19	0x3dcc7a34	0.09984246
20	0x3d8db551	0.06919349
21	0x3d4772cc	0.048693463
22	0x3b4e7bef	0.0031506976
23	0xb9ec0c74	-0.00045022706
24	0x3cf409a0	0.029789746
25	0xbcb16a3c	-0.021657102
26	0x3cb7dddb	0.022444656
27	0xbceb7d08	-0.028746143
28	0xbd0e6a95	-0.034769613
29	0x3d358e09	0.04432491
30	0x3d2f1d14	0.04275234
31	0xbd2f2ce0	-0.042767406
32	0xbd80c238	-0.06287044
33	0x3c3b1783	0.01141918
34	0x3e1cb276	0.15302452
35	0xbbad83fb	-0.0052952743
36	0x3df43928	0.11924964
37	0x3dffcfdb	0.12490817
38	0xbdf942d7	-0.12170952
39	0x3cc47c9b	0.023985198
40	0xbc5017fa	-0.012701029
41	0x3da5ef01	0.08102227
42	0xbd91cf9d	-0.07119677
43	0x3db11ab8	0.08647674
44	0xbcf0619f	-0.029343424
45	0xbd85a75f	-0.06526064
46	0xbdc6691b	-0.09688016
47	0xbd484272	-0.048891492
48	0x3da2fe0d	0.079586126
49	0x3d642734	0.05570145
50	0x3d9376ca	0.072003916
51	0x3d8e05f4	0.06934729
52	0x3d2e34a8	0.042530686
53	0x3d31a801	0.04337311
54	0x3db9abc0	0.09065962
55	0x3e15d09b	0.14630358
56	0xbdac15a5	-0.08402566
57	0xbcd3209c	-0.025772385
58	0xbdac6ee4	-0.08419588
59	0x3da4394e	0.080187425
60	0xbd8fb24e	-0.07016431
61	0x3c3d4618	0.011552356
62	0xbc7f7bf2	-0.015593516
63	0xbdc950b6	-0.098298475
64	0xbc313d36	-0.0108178165
65	0xbdf64752	-0.12025322
66	0x3df73a62	0.120716825
67	0xbd39448f	-0.0452314
68	0x3e031392	0.12800434
69	0x3b2ae491	0.0026076178
70	0x3c9fcce9	0.019506888
71	0x3c040351	0.008057431
72	0xbda3a925	-0.07991246
73	0xbdd3e0d7	-0.10345619
74	0x3cdc0ffa	0.026863087
75	0xbd321146	-0.043473504
76	0xbcf9e461	-0.030504407
77	0x3db135b4	0.08652821
78	0x3ccd207c	0.025039904
79	0xbd128d4a	-0.035779275
80	0xbdc42277	-0.09576886
81	0xbdb438a6	-0.08799867
82	0xbd861ad9	-0.065480895
83	0xbd0389dc	-0.032113895
84	0x3de653ab	0.11246427
85	0x3cd2649d	0.025682742
86	0xbd5b0dd1	-0.053479973
87	0x3d9c838d	0.07642279
88	0xbc6b8ef1	-0.014377342
89	0xbd87957c	-0.06620309
90	0xbdba7164	-0.09103659
91	0x3d3aa2ae	0.0455653
92	0x3d10cf4d	0.035353947
93	0xbba58684	-0.005051436
94	0x3d20c7ed	0.039253164
95	0x3d548366	0.051883124
96	0x3d24ee35	0.040266234
97	0x3d5c17ed	0.053733755
98	0xbcb0733b	-0.021539321
99	0xbbe289c4	-0.0069133956
100	0xbbae9abb	-0.005328504
101	0x3dd4344e	0.10361539
102	0xbd78c666	-0.060736082
103	0x3d18f3bd	0.037341822
104	0xbb4e0f54	-0.0031442242
105	0x3d99221c	0.07477209
106	0xbda3db2a	-0.080007866
107	0x3d56025b	0.05224834
108	0xbde7fe93	-0.11327853
109	0x3db01f3c	0.085997075
110	0x3dd35676	0.103192255
111	0xbccdd8be	-0.025127765
112	0x3db01c9d	0.085992076
113	0xbdecf37b	-0.11569878
114	0x3ddba4ff	0.1072483
115	0x3d06cdbc	0.032911047
116	0x3d9ac2f9	0.07556719
117	0xbd5da04e	-0.054107957
118	0x3dd9fb77	0.10643666
119	0x3e1012fb	0.1406974
120	0xbd0a7c6d	-0.033810068
121	0x3ae35b1e	0.0017345881
122	0x3cba4d2f	0.022741882
123	0xbcce68c4	-0.02519644
124	0x3bb71c23	0.005588071
125	0xbdb2ef2a	-0.08737023
126	0x3cc60d5c	0.024176292
127	0x3d49a11d	0.049225915
128	0x3ac2fbeb	0.0014876103
129	0x3ceb8ea7	0.028754545
130	0xbd4fafb8	-0.050704688
131	0xbd008e52	-0.031385727
132	0x3c118094	0.008880753
133	0xbdbf9915	-0.0935537
134	0x3e0cb819	0.13742103
135	0x3d88b9ea	0.06676085
136	0x3d578d70	0.05262512
137	0xbd9e92dd	-0.07742856
138	0x3c78ff81	0.015197636
139	0x3d217e69	0.039427195
140	0x3d232dd8	0.039838642
141	0x3deace6f	0.11465155
142	0x3dda7856	0.106674835
143	0x3d66a699	0.056311224
144	0x3d8441d4	0.06457868
145	0xbd05b98a	-0.032647647
146	0x3cb16a14	0.021657027
147	0xbda8ed64	-0.08248404
148	0x3d83a4a8	0.0642789
149	0xb9a7cbf3	-0.00032004676
150	0x3dc921cd	0.098209
151	0xbd12d1fc	-0.035844788
152	0xbd9c69fb	-0.07637402
153	0xbe0e8eec	-0.13921708
154	0x3d2e0b0e	0.04249101
155	0xbcc0dc9c	-0.023542695
156	0x3d8f96ef	0.0701121
157	0x3ca1498a	0.019688386
158	0x3d8f3213	0.06991973
159	0x3dffa495	0.124825634
160	0xbc97cb4e	-0.01852956
161	0xbcd15cb3	-0.025556898
162	0x3d2ed46b	0.042683046
163	0x3c1088b0	0.008821651
164	0xbd09b8eb	-0.033623617
165	0x3d1f0e04	0.038831726
166	0xbd82fa33	-0.06395378
167	0xbcbe69e8	-0.02324386
168	0xbde38eb4	-0.11111203
169	0x3db08a87	0.08620172
170	0xbcc246aa	-0.023715336
171	0xbd7fc8c6	-0.06244733
172	0x3d1d16f1	0.038351957
173	0x3c07c467	0.008286572
174	0x3e0a0adc	0.13480705
175	0x3bd5ee9c	0.0065286886
176	0xbdaac3eb	-0.0833815
177	0x3d816d86	0.06319718
178	0x3dacf6d1	0.08445514
179	0xbd140ad8	-0.036143154
180	0x3d8de22f	0.06927907
181	0x3c9405a7	0.018069101
182	0x3daea92d	0.085283615
183	0x3c87824a	0.016541619
184	0x3df60a7e	0.1201372
185	0x3da32335	0.079656996
186	0xbd140148	-0.036134034
187	0xbcf4bae8	-0.02987428
188	0x3e014f6e	0.12627956
189	0x3bc5d516	0.0060373647
190	0xbd5feb5b	-0.05466781
191	0x3b9978f1	0.004683607
192	0xbd6cd142	-0.05781675
193	0x3e09bb2b	0.13450305
194	0x3db7ad5b	0.08968612
195	0x3d6a7c71	0.057247583
196	0x3d4e6038	0.05038473
197	0xbd80091a	-0.06251736
198	0x3dea395b	0.11436721
199	0x3d8f1f4e	0.06988393
200	0xbd3b2e9a	-0.04569874
201	0xbddfe134	-0.10931626
202	0x3dcb25c5	0.09919313
203	0x3bf9dc98	0.007625174
204	0x3e0940b5	0.1340359
205	0x3ddbe8c2	0.107377544
206	0xbceb4f25	-0.028724262
207	0xbc3e9798	-0.011632822
208	0xbd13d248	-0.03608921
209	0x3d8803f9	0.06641383
210	0xbc25627c	-0.010094281
211	0x3d474bc3	0.048656236
212	0x3dc64499	0.09681053
213	0xbdb98615	-0.09058777
214	0x3d0e932c	0.034808323
215	0x3c9eed69	0.019400315
216	0x3cfc2d5e	0.030783352
217	0xbdc5d81a	-0.09660359
218	0xbd4cb125	-0.049973626
219	0xbc879414	-0.016550101
220	0x3c968800	0.018375397
221	0x3db41701	0.0879345
222	0x3e151e9c	0.14562458
223	0x3e27b0bb	0.16376011
224	0xbd9fc65e	-0.078015074
225	0xbd05b6ed	-0.032645155
226	0x3de0f406	0.10984044
227	0x3c66c5ae	0.014085216
228	0x3d0f5262	0.034990676
229	0x3d599fc0	0.053130865
230	0xbcc2fbf1	-0.023801776
231	0x3db76c8a	0.08956249
232	0x3da5b5fd	0.08091352
233	0x3e18595c	0.14877838
234	0xbdbf74b9	-0.09348435
235	0xbd72139f	-0.059100743
236	0xbc7f2dbb	-0.015574868
237	0x3e57dc57	0.21080147
238	0x3d3837bb	0.044975024
239	0x3dca6d1f	0.098840944
240	0xbc5fb173	-0.013653147
241	0xbc9ec1b6	-0.019379478
242	0xbbd638e4	-0.0065375436
243	0xbc800884	-0.01562906
244	0xbda541d3	-0.080691956
245	0x3c6c3a0d	0.014418137
246	0xbe045b89	-0.12925543
247	0xbcf922dc	-0.03041213
248	0x3d7a77c4	0.061149374
249	0x3d686a67	0.0567421
250	0x3daea194	0.08526912
251	0x3d3c5921	0.045983437
252	0x3d054368	0.032534987
253	0x3cf2f0d3	0.02965585
254	0xbcd4c990	-0.025975019
255	0x3c63c509	0.013901957

critic.linear1.bias f4 [128]
0	0x3d41f2a6	0.04735055
1	0x3d8bd506	0.0682774
2	0x3bf72847	0.007542643
3	0xbe08713e	-0.13324448
4	0x3dffd2fb	0.12491413
5	0x3ca49418	0.020090148
6	0x3db53d9d	0.088496424
7	0xbdfe549a	-0.1241848
8	0x3dc38021	0.09545923
9	0xbd62d50a	-0.05537895
10	0x3cfddadf	0.030988155
11	0x3ddf4817	0.10902422
12	0x3c622d57	0.013804755
13	0xbcacddd9	-0.021101879
14	0x3e07989c	0.1324181
15	0x3de8718b	0.113497816
16	0xbccc267f	-0.0249207
17	0x3e26f1c9	0.16303171
18	0x3cd8b7c0	0.026454806
19	0xbcb98a26	-0.022648882
20	0x3e0b8fb3	0.13629036
21	0xbcd353db	-0.025796821
22	0x3df9688b	0.12178143
23	0xbd93405c	-0.0719001
24	0xbcb72648	-0.022357121
25	0xbd81ce34	-0.06338158
26	0xbc2fb7b2	-0.010724949
27	0xbde11e00	-0.1099205
28	0xbb04f800	-0.002028942
29	0x3df9c0bb	0.121949635
30	0xbd230815	-0.03980263
31	0x3c7b596a	0.015341142
32	0xbb557b7e	-0.0032574828
33	0xbd89d0be	-0.067292675
34	0xbdd5f90e	-0.10447894
35	0xbd85fb7d	-0.06542108
36	0x3d1cd6c7	0.038290765
37	0x3c7a365d	0.01527175
38	0x3e1353cd	0.14387436
39	0xbe149a73	-0.14512043
40	0x3c601af8	0.013678305
41	0xbe0e8311	-0.13917185
42	0xbda5d738	-0.0809769
43	0x3bda7010	0.006666191
44	0x3cd0d853	0.025493776
45	0xbd4bf2b9	-0.049792025
46	0x3dfebf98	0.12438887
47	0x3a949e4d	0.0011338681
48	0xbe04719f	-0.12933968
49	0x3cdd0530	0.026980013
50	0x3cc4e183	0.024033314
51	0x3d5d07f8	0.053962678
52	0xb9ecf74e	-0.00045197684
53	0x3d90305c	0.07040474
54	0xbc88ef7d	-0.01671576
55	0xbd1f57da	-0.03890214
56	0x3dea9c7e	0.1145563
57	0xbca5fcbd	-0.020262117
58	0x3dfdb212	0.1238748
59	0x3ae4eefb	0.0017466241
60	0xbb274f03	-0.0025529272
61	0x3d3b0e47	0.045667913
62	0xbdcec215	-0.10095612
63	0x3d098615	0.033575136
64	0x3cc56224	0.024094649
65	0x3e10482a	0.14090028
66	0xbdfeb683	-0.12437155
67	0xbd8786ef	-0.066175334
68	0x3e0aa4e5	0.13539465
69	0x3e00a3e0	0.12562513
70	0x3d97d6eb	0.07414039
71	0x3d59db0f	0.053187426
72	0xbe010550	-0.12599683
73	0x3cacbb3a	0.02108537
74	0xbb13c0f6	-0.0022545434
75	0x3c7826ee	0.015146
76	0x3e096730	0.13418269
77	0x3d3405f6	0.043950997
78	0x3d548f0e	0.05189424
79	0xbe06afd3	-0.13153009
80	0xbde6857e	-0.1125593
81	0x3dee4773	0.116347216
82	0x3e09e04c	0.13464469
83	0xbe233e0a	-0.15941635
84	0x3ccdbda7	0.025114847
85	0x3e1f4fa9	0.15557732
86	0xbda79863	-0.08183362
87	0x3d141951	0.036156956
88	0xbdbb5e60	-0.0914886
89	0x3c62bbae	0.013838692
90	0x3e28702f	0.16449045
91	0x3d98fb3d	0.07469795
92	0xbdc800c7	-0.09765773
93	0x3e1eaa9b	0.15494768
94	0xbc5f5d3c	-0.013633069
95	0x3e0fa002	0.14025882
96	0x3e1e64ae	0.15468094
97	0xbd24bce5	-0.040219206
98	0xbdd1e048	-0.102478564
99	0xbe0d2f7a	-0.13787642
100	0x3dd8804a	0.10571344
101	0xbe1836fc	-0.14864725
102	0x3d360a1e	0.044443242
103	0x3afbcc7b	0.001921072
104	0xba21ac1b	-0.00061673083
105	0x3e36f079	0.1786517
106	0xbda715f8	-0.08158487
107	0x3dcedbea	0.10100539
108	0xbcb225bf	-0.021746514
109	0x3b265854	0.0025382238
110	0x3df070b4	0.117402464
111	0xbd25efe1	-0.04051197
112	0x3c85d655	0.016337553
113	0xbb22ab89	-0.0024821481
114	0x3d03c2a1	0.032168034
115	0xbcce82cb	-0.025208851
116	0x3e12c628	0.14333403
117	0x3e2329c5	0.15933903
118	0x3df9406d	0.12170491
119	0x3e26730a	0.16254821
120	0x3b056269	0.0020352846
121	0x3d921720	0.07133317
122	0xbdd4f764	-0.103987485
123	0xbcf805c9	-0.030276196
124	0xbc98d88f	-0.01865795
125	0xbd260ae4	-0.04053773
126	0x3d9f3543	0.07773831
127	0x3e1625e9	0.14662899
