landing_falcon_raw_ckpt/ckpt_00011001.pt (torch, 990135 bytes, 15 tensors)

actor.linear1.weight f4 [128, 120]
-0.058799457 -0.06170506 -0.080665804 0.045371022 -0.027308429 0.057403438 0.033246692 -0.12072933
0.045038294 0.07610036 -0.048128154 0.05338098 0.12717709 -0.022244321 0.06576965 0.021809414
0.05267879 0.0062215175 -0.051610902 0.06615033 0.085100286 0.016572256 0.028483093 0.07766191
-0.07105571 -0.02488026 -0.03725334 -0.08000497 -0.046156242 0.0776301 -0.053987153 -0.095062084
-0.040115833 0.02187623 -0.022663696 -0.013055611 0.0100708045 0.045666922 0.08686731 0.078788586
0.07637828 -0.05189899 0.07674036 -0.05940649 0.11187626 0.003025026 -0.018613843 -0.1316648
0.075355254 -0.020828161 -0.05532949 -0.0340392 -0.07514866 -0.028316513 -0.020942764 -0.013221095
-0.048562527 0.010479147 -0.06426537 -0.04110841 0.04745883 0.137272 0.03284993 -0.040826015
0.07669768 0.009979951 0.04938939 -0.08172367 0.030912971 0.080041915 0.061554205 -0.008656294
0.01082794 -0.075693 0.017390335 0.06261577 0.028613161 0.11274597 0.002483128 -0.13180634
0.05348813 0.027425472 -0.07006875 0.06231238 -0.08628353 -0.0005990433 0.0144385565 0.055742905
0.0013460604 0.041627057 -0.008472027 0.047036078 0.07809603 0.13265936 0.013528158 -0.15023406
-0.03692363 0.010163061 0.07020128 0.08659404 -0.0059292153 -0.05782743 0.022150492 0.0052135605
-0.067931175 -0.04030133 -0.045423284 -0.0859375 -0.013049824 0.10016781 0.05011147 -0.099363275
-0.064319625 -0.0009901425 0.051574852 -0.035645083 0.055588037 -0.013520707 -0.03810675 0.08330583
0.10532301 0.10750276 0.06886656 0.060201377 -0.07146763 -0.11817499 0.054026973 0.111155406
-0.050973296 -0.052840907 0.067396596 0.044952754 -0.042441413 -0.04660437 -0.05426053 0.008588019
0.03005368 -0.083601795 0.0058547747 -0.053829372 0.07739381 -0.03137014 -0.010090196 0.09697742
0.03910649 -0.07158458 0.073211834 0.083894335 -0.012282225 -0.058059417 -0.00121456 0.0892977
0.0523752 0.081100225 -0.057452347 0.05792834 0.10131313 -0.044727605 -0.051261153 -0.029916978
0.0136235785 -0.0492998 -0.07796728 0.018125566 -0.0073275478 -0.0033476828 -0.07008546 0.05511999
0.03372287 -0.059606176 0.017495211 0.0891372 -0.06977313 0.07537755 -0.04785344 -0.07198939
0.07725622 0.008510187 0.037067268 0.07557239 -0.009009691 -0.12757342 0.07286599 0.06905302
0.05080462 0.06594551 0.0647647 -0.02818291 0.09940376 0.037347924 -0.057770137 0.109020464
0.034169618 -0.009810744 -0.03935014 0.0288536 0.051572613 -0.0054260255 -0.055391945 0.09056335
0.048371576 -0.057386793 0.03468879 -0.035488322 0.066888936 0.012457876 0.050448563 -0.0057032416
-0.058184844 -0.05308454 0.0046726796 -0.0073265466 0.04507911 -0.022397617 0.052286156 0.003550236
-0.02179942 -0.0324912 -0.082307555 0.0026463394 0.053210013 0.06472654 -0.029926294 0.0012698352
-0.0286906 -0.03184701 0.05130722 0.014065455 -0.09267326 -0.1092892 0.040135358 0.13516098
-0.06647745 0.036418717 -0.027739339 -0.029892117 -0.06567851 -0.016311318 0.038727667 0.07025206
0.06171796 -0.046453696 -0.06887214 -0.084963016 -0.061630256 -0.049259506 -0.07485196 -0.0066141053
-0.06973053 -0.081949905 0.027411938 -0.010547556 0.074222624 -0.031371932 -0.043872196 -0.0050326805
00000000: b3d7 70bd 72be 7cbd 1d34 a5bd f7d6 393d
00000010: edb5 dfbc de1f 6b3d af2d 083d f040 f7bd
00000020: 137a 383d 81da 9b3d 0722 45bd 04a6 5a3d
00000030: b63a 023e b939 b6bc 3db2 863d a8a9 b23c
00000040: b7c5 573d dfdd cb3b f465 53bd d379 873d
00000050: 0f49 ae3d 8ac2 873c 6055 e93c 350d 9f3d
00000060: a885 91bd b0d1 cbbc f596 18bd a5d9 a3bd
00000070: 540e 3dbd 88fc 9e3d a221 5dbd e9af c2bd
00000080: 8050 24bd c835 b33c 37a9 b9bc 34e7 55bc
00000090: 0400 253c 3d0d 3b3d 7de7 b13d e95b a13d
000000a0: 376c 9c3d 0994 54bd 0d2a 9d3d 3854 73bd
000000b0: 611f e53d 843f 463b 0f7c 98bc 23d3 06be
000000c0: db53 9a3d d29f aabc 2da1 62bd b06c 0bbd
000000d0: 8ae7 99bd 08f8 e7bc 2990 abbc 4b9d 58bc
000000e0: 80e9 46bd bab0 2b3c 909d 83bd 4b61 28bd
000000f0: 3164 423d 0891 0c3e a68d 063d 2e39 27bd
00000100: ac13 9d3d f382 233c 874c 4a3d bd5e a7bd
00000110: 333d fd3c 04ed a33d 4320 7c3d 21d3 0dbc
00000120: ac67 313c ee04 9bbd 2d76 8e3c b23c 803d
00000130: 2666 ea3c 5ce7 e63d fabb 223b 3ef8 06be
00000140: 5f16 5b3d 62ab e03c 3480 8fbd 443b 7f3d
00000150: 6bb5 b0bd 1e09 1dba b28f 6c3c ac52 643d
00000160: 4b6e b03a 2281 2a3d 42ce 0abc e7a8 403d
00000170: d0f0 9f3d dbd7 073e 35a5 5d3c f5d6 19be
00000180: 3b3d 17bd f882 263c b0c5 8f3d 3758 b13d
00000190: dd49 c2bb 75dc 6cbd f374 b53c 84d6 aa3b
000001a0: 801f 8bbd 0213 25bd c40d 3abd 0000 b0bd
000001b0: eece 55bc c824 cd3d af41 4d3d f97e cbbd
000001c0: 02ba 83bd abc7 81ba 2740 533d 9400 12bd
000001d0: 48b0 633d f585 5dbc d315 1cbd 3f9c aa3d
000001e0: 97b3 d73d 682a dc3d e909 8d3d b895 763d
000001f0: 9f5d 92bd bb05 f2bd 634b 5d3d 72a5 e33d
00000200: 60c9 50bd b56f 58bd 3a07 8a3d 6120 383d
00000210: 0cd7 2dbd 39e4 3ebd 4a40 5ebd c3b4 0c3c
00000220: 2333 f63c 6b37 abbd 69d9 bf3b 307c 5cbd
00000230: a580 9e3d fa7d 00bd 5951 25bc 199c c63d
00000240: 202e 203d f09a 92bd 16f0 953d cbd0 ab3d
00000250: 633b 49bc b6cf 6dbd df31 9fba b6e1 b63d
00000260: 6187 563d e017 a63d 2753 6bbd 4446 6d3d
00000270: 427d cf3d 4b34 37bd 37f7 51bd 7314 f5bc
00000280: 6e35 5f3c 96ee 49bd 4fad 9fbd 117c 943c
00000290: ed1b f0bb cc64 5bbb f788 8fbd 80c5 613d
000002a0: fe20 0a3d 9b25 74bd 1e52 8f3c 908d b63d
000002b0: 37e5 8ebd 8c5f 9a3d f801 44bd 2c6f 93bd
000002c0: 8238 9e3d 506e 0b3c d9d3 173d b2c5 9a3d
000002d0: 629d 13bc 9ba2 02be c43a 953d ab6b 8d3d
000002e0: 8118 503d 710e 873d 5ba3 843d d9df e6bc
000002f0: 3394 cb3d 23fa 183d 61a0 6cbd 1f46 df3d
00000300: 71f5 0b3d 3ebd 20bc 9d2d 21bd 635e ec3c
00000310: ce3d 533d cdcc b1bb aae2 62bd 4779 b93d
00000320: 4621 463d 6a0e 6bbd d515 0e3d 345c 11bd
00000330: 11fd 883d 1e1c 4c3c 27a3 4e3d 42e2 babb
00000340: 3b53 6ebd 2d6f 59bd 471d 993b 8713 f0bb
00000350: dfa4 383d 357b b7bc 022a 563d 14ab 683b
00000360: b294 b2bc 7e15 05bd dd90 a8bd 356e 2d3b
00000370: bef2 593d 598f 843d fd27 f5bc 9970 a63a
00000380: 8d08 ebbc 0372 02bd 8527 523d cb72 663c
00000390: 7acb bdbd 04d3 dfbd f964 243d a467 0a3e
000003a0: 5425 88bd cb2b 153d 9c3d e3bc 50e0 f4bc
000003b0: 7482 86bd 509f 85bc e7a0 1e3d 50e0 8f3d
000003c0: f9cb 7c3d 3b46 3ebd d60c 8dbd 1701 aebd
000003d0: 0270 7cbd 56c4 49bd fc4b 99bd 23bb d8bb
000003e0: e1ce 8ebd 5ad5 a7bd 008f e03c a8cf 2cbc
000003f0: 0802 983d db7f 00bd 55b3 33bd 2fe9 a4bb

actor.linear1.bias f4 [128]
0.085633524 0.02672664 0.022607129 0.041615155 -0.078909226 0.008695976 0.037599083 0.079314515
0.08840959 0.041013736 -0.035728324 0.04960564 0.09995214 -0.038404305 -0.008339534 0.041931424
0.016280897 -0.07631553 -0.030365914 -0.019376114 -0.058136262 0.073565766 -0.07709313 0.010607694
0.053081524 0.0035056926 0.011772974 0.05071487 0.099515885 -0.008897154 0.0039504357 0.064497314
0.061054837 0.041576426 0.03782409 0.065317065 0.10656219 -0.055585362 0.00014949853 0.031673506
0.009169907 0.06546354 -0.025207177 0.0417202 0.026849108 -0.031709656 0.057881206 -0.058914978
-0.08022416 0.04111423 0.03810471 0.054445934 -0.031725418 0.092543535 0.013246184 0.03710808
-0.063746795 -0.07089742 0.018350262 -0.063534066 0.074446745 0.0072605405 0.079808824 0.0800202
0.08657021 -0.017923953 0.009478856 -0.020387828 -0.07809094 -0.0008376877 -0.048491098 -0.07313369
-0.011078949 0.05457429 -0.0035867305 0.036134794 0.091018915 0.07636583 0.07041723 -0.009847693
-0.05999895 0.057385474 0.08103938 -0.064826965 -0.0579608 -0.046816982 -0.014206449 -0.06476154
0.034921706 -0.07294946 0.026278201 -0.015262163 -0.066700645 -0.065321475 -0.00238713 0.031549465
-0.06028532 -0.037887488 0.10232863 -0.06397417 0.016842771 -0.04227745 0.030917926 -0.0053201756
-0.07009776 -0.02042124 0.03515425 0.0030776341 -0.04215006 0.01068031 -0.037832364 -0.033473868
-0.012562364 0.038063668 0.0012394687 0.06849084 -0.07075917 -0.009440746 0.050959665 -0.029709805
0.08311757 -0.0027722362 0.089399345 0.06454243 0.0064937207 0.032351922 -0.07289976 -0.027168691
00000000: a160 af3d d4f1 da3c 9632 b93c a774 2a3d
00000010: 299b a1bd 9179 0e3c 7f01 1a3d a66f a23d
00000020: 1610 b53d 05fe 273d dd57 12bd 492f 4b3d
00000030: b5b3 cc3d d54d 1dbd 8aa2 08bc 49c0 2b3d
00000040: 845f 853c 514b 9cbd f0c1 f8bc a8ba 9ebc
00000050: 4a20 6ebd a6a9 963d 01e3 9dbd e5cb 2d3c
00000060: 036c 593d c3bf 653b 6fe3 403c 65ba 4f3d
00000070: fcce cb3d 5ec5 11bc a872 813b 2b17 843d
00000080: a314 7a3d 0b4c 2a3d 6fed 1a3d f4c4 853d
00000090: 473d da3d 7aad 63bd b5c2 1c39 14bc 013d
000000a0: 613d 163c c011 863d 487f cebc cde2 2a3d
000000b0: a9f2 db3c fce1 01bd d814 6d3d d550 71bd
000000c0: 904c a4bd 6567 283d af13 1c3d b302 5f3d
000000d0: 83f2 01bd 7787 bd3d 8606 593c a4fe 173d
000000e0: ae8d 82bd ab32 91bd 4a53 963c 261e 82bd
000000f0: 8977 983d d4e9 ed3b cf72 a33d a1e1 a33d
00000100: b94b b13d 41d5 92bc 344d 1b3c 6004 a7bc
00000110: 25ee 9fbd 4598 5bba 9a9e 46bd 1ec7 95bd
00000120: 7b84 35bc 4a89 5f3d 5a0f 6bbb 1402 143d
00000130: 2068 ba3d b065 9c3d e936 903d 3858 21bc
00000140: 76c1 75bd 080d 6b3d f9f7 a53d 00c4 84bd
00000150: 4e68 6dbd 2ac3 3fbd 2ac2 68bc b3a1 84bd
00000160: 100a 0f3d 8766 95bd 6245 d73c 270e 7abc
00000170: 599a 88bd 44c7 85bd 6571 1cbb 033a 013d
00000180: bded 76bd e92f 1bbd ac91 d13d e404 83bd
00000190: daf9 893c 1f2b 2dbd 9747 fd3c de54 aebb
000001a0: 6a8f 8fbd 724a a7bc e7fd 0f3d 22b2 493b
000001b0: 8ba5 2cbd 78fc 2e3c 1cf6 1abd e51b 09bd
000001c0: 60d2 4dbc a6e8 1b3d ab75 a23a ed44 8c3d
000001d0: 2fea 90bd 5cad 1abc 15bb 503d fa61 f3bc
000001e0: 8b39 aa3d 68ae 35bb 0117 b73d d22e 843d
000001f0: 47c9 d43b 7383 043d 784c 95bd e090 debc

actor.linear2.weight f4 [128, 128]
-0.08964742 0.0105612995 -0.035576917 0.067169726 -0.08688817 -0.087784626 0.024045402 0.038408816
0.022957107 -0.08255613 -0.029731695 -0.062258057 0.08157545 0.01935792 0.052964605 -0.043479692
-0.0144025115 -0.04796968 0.01460795 0.10728398 0.07175834 -0.06519445 0.03689089 0.085144944
-0.058276124 -0.057239488 0.011656773 0.0850786 0.06606635 -0.0495056 0.016751595 -0.05334793
-0.03906945 -0.051892623 -0.058218453 -0.040100984 0.040934037 -0.044911496 -0.06837637 0.056123924
-0.03851736 0.06665677 0.02942816 0.075294346 0.04967352 -0.0071198284 0.09740614 0.06610949
-0.031072343 -0.042207114 -0.058769546 -0.030816015 0.021503774 -0.0065548285 -0.0024046737 -0.022043698
0.052229 -0.0061083287 0.035422135 0.038383085 -0.023068503 0.062263668 -0.06134702 -0.064183965
-0.036261257 -0.0021670044 0.102542 0.012579851 0.060777966 0.03961682 -0.065837115 0.07396855
0.07390416 0.009938174 0.03613555 0.0022123863 0.03335348 -0.029047018 0.07600336 -0.071184084
0.00559375 -0.03602103 0.018986998 -0.04510221 -0.058558498 0.035047885 -0.061479114 -0.035959013
0.00058150734 0.010541514 -0.056567013 -0.015773134 -0.041767534 0.04655376 0.030205745 0.0048370273
0.020792292 0.045132454 -0.073060565 -0.0023155098 0.08093762 -0.06215197 -0.08534553 0.071801804
-0.058478236 -0.0621319 0.06947271 0.0077858376 -0.09980434 0.077725835 -0.007963775 0.04531519
-0.02938673 -0.041313477 0.0313202 -0.0053605223 0.016555905 -0.07001343 0.09014587 0.06664819
0.083642125 0.0827534 -0.02664708 0.0012368156 0.061001595 -0.0068317396 -0.07040042 -0.014574441
0.10499707 -0.021714501 -0.059360754 0.015287643 0.078980416 0.068920515 0.0045110728 0.035385884
0.022125896 0.042915277 -0.061635558 0.01212519 -0.028258307 0.025820473 -0.029681992 0.056037504
-0.086475424 -0.10642973 0.051111657 -0.05127115 -0.07426724 0.04537881 0.09304882 -0.0013377112
-0.06759621 -0.041685507 0.057063743 0.052090876 0.06270963 0.023723466 0.069750786 0.08307094
-0.08305515 -0.090062454 -0.019057693 0.0012214984 -0.06837942 0.008128623 0.081852086 -0.0068482882
0.001310517 -0.004292915 0.061794065 -0.08037046 0.019420367 -0.031495307 0.07659699 -0.074399166
-0.014341102 0.07169726 0.051921472 0.044409964 0.041092105 0.02036372 -0.056477066 -0.080776796
0.009276535 -0.044059932 -0.020190526 0.0890686 -0.03074313 0.0536765 0.055140745 0.005196966
0.06334225 0.0399874 0.04234241 -0.008263176 -0.009824872 -0.041949484 0.069284216 0.058024917
0.05151253 0.058537867 -0.07378669 -0.08086119 0.08666123 0.020350397 0.020744814 0.032294903
0.044118546 -0.009463892 -0.020235881 0.05914105 -0.016388388 0.08017 0.034996603 0.002765984
0.003613028 0.058182556 -0.012573083 -0.019591117 0.101675056 0.10532561 0.08570071 -0.0667678
-0.01929432 0.018058008 -0.012649989 0.018289357 -0.032461762 -0.06817005 0.06877878 0.067850426
0.06812718 -0.07666915 -0.020593224 -0.017484328 0.046999633 0.009199902 0.04496032 0.028644113
-0.08087785 0.057074945 -0.012081286 -0.06353082 0.09369872 0.07724523 -0.09677461 0.009092586
-0.058987938 0.040738784 0.047981586 -0.05896336 0.02940785 -0.013417692 0.10197913 0.0420618
00000000: 1199 b7bd 4d09 2d3c 1ab9 11bd 4890 893d
00000010: 6df2 b1bd 6dc8 b3bd ddfa c43c 9052 1d3d
00000020: 8b10 bc3c 3013 a9bd e28f f3bc 4e02 7fbd
00000030: 0811 a73d 8094 9e3c 6af1 583d c317 32bd
00000040: 83f8 6bbc db7b 44bd 2f56 6f3c b4b7 db3d
00000050: 09f6 923d ab84 85bd e71a 173d 7960 ae3d
00000060: f2b2 6ebd f473 6abd 0dfc 3e3c b03d ae3d
00000070: cb4d 873d 62c6 4abd a43a 893c 5c83 5abd
00000080: 4a07 20bd 5c8d 54bd 7976 6ebd ee40 24bd
00000090: 73aa 273d 1ef5 37bd e908 8cbd 33e2 653d
000000a0: 61c4 1dbd 5883 883d 5313 f13c ec33 9a3d
000000b0: 7676 4b3d 734d e9bb df7c c73d 6a64 873d
000000c0: 6d8b febc 5ee1 2cbd 56b8 70bd de71 fcbc
000000d0: af28 b03c e3c9 d6bb bb97 1dbb fc94 b4bc
000000e0: 13ee 553d 6028 c8bb cd16 113d 9537 1d3d
000000f0: 28fa bcbc 3008 7f3d 0347 7bbd e272 83bd
00000100: af86 14bd 4d04 0ebb 8a01 d23d b81b 4e3c
00000110: 51f2 783d 3f45 223d 9cd5 86bd d37c 973d
00000120: 105b 973d b9d3 223c df02 143d affd 103b
00000130: a99d 083d 03f4 edbc a6a7 9b3d f6c8 91bd
00000140: c74b b73b ca8a 13bd 9f8a 9b3c 18bd 38bd
00000150: 09db 6fbd 5f8e 0f3d 86d1 7bbd c249 13bd
00000160: 4c70 183a 50b6 2c3c d0b2 67bd a936 81bc
00000170: 6f14 2bbd 28af 3e3d 0a72 f73c ed7f 9e3b
00000180: 9954 aa3c cfdc 383d c7a0 95bd cfbf 17bb
00000190: 9fc2 a53d 1093 7ebd a3c9 aebd d30c 933d
000001a0: e086 6fbd 057e 7ebd b547 8e3d 5720 ff3b
000001b0: 3866 ccbd b92e 9f3d 7e7a 02bc 6c9c 393d
000001c0: 71bc f0bc 5238 29bd 9c49 003d 52a7 afbb
000001d0: 40a0 873c 3463 8fbd 669e b83d d97e 883d
000001e0: 904c ab3d 9d7a a93d fa4a dabc a51c a23a
000001f0: cfdc 793d c9dc dfbb 182e 90bd a3c9 6ebc
00000200: b408 d73d 9ce2 b1bc 4324 73bd 0679 7a3c
00000210: 7cc0 a13d 3326 8d3d 9fd1 933b caf0 103d
00000220: 5e41 b53c eec7 2f3d 9175 7cbd bca8 463c
00000230: f77d e7bc 7585 d33c a627 f3bc 9587 653d
00000240: 071a b1bd d5f7 d9bd 755a 513d b301 52bd
00000250: 6c19 98bd 22df 393d 6190 be3d 2456 afba
00000260: e26f 8abd 6cbe 2abd acbb 693d 3e5d 553d
00000270: e86d 803d b757 c23c 80d9 8e3d 1921 aa3d
00000280: d218 aabd aa72 b8bd e11e 9cbc af1a a03a
00000290: 820a 8cbd ea2d 053c 11a2 a73d 9b67 e0bb
000002a0: a7c5 ab3a 95ab 8cbb c61b 7d3d 4599 a4bd
000002b0: 7617 9f3c 3901 01bd e2de 9c3d 975e 98bd
000002c0: f1f6 6abc 03d6 923d 9cab 543d 39e7 353d
000002d0: 3250 283d d1d1 a63c 7f54 67bd 4e6e a5bd
000002e0: 9cfc 173c 3078 34bd 9a66 a5bc 9969 b63d
000002f0: 04d9 fbbc e4db 5b3d 43db 613d 504b aa3b
00000300: 95b9 813d d4c9 233d 3c6f 2d3d 4662 07bc
00000310: 80f8 20bc 39d3 2bbd e2e4 8d3d 89ab 6d3d
00000320: cdfe 523d 67c5 6f3d 7a1d 97bd 8d9a a5bd
00000330: 717b b13d e0b5 a63c 07f1 a93c a947 043d
00000340: a6b5 343d 710e 1bbc b8c5 a5bc e33d 723d
00000350: f140 86bc 2b30 a43d 9958 0f3d 8345 353b
00000360: 8dc8 6c3b d550 6e3d 55ff 4dbc 8d7d a0bc
00000370: 033b d03d f4b4 d73d db83 af3d 8ebd 88bd
00000380: 1f0f 9ebc 63ee 933c e641 4fbc 90d3 953c
00000390: a0f6 04bd bd9c 8bbd e4db 8c3d 2af5 8a3d
000003a0: 4386 8b3d b704 9dbd 1fb3 a8bc 4b3b 8fbc
000003b0: b082 403d 30bb 163c 5028 383d 0fa7 ea3c
000003c0: 49a3 a5bd 6bc7 693d 96f0 45bc 721c 82bd
000003d0: 1de5 bf3d bf32 9e3d c431 c6bd 12f9 143c
000003e0: 569d 71bd b6dd 263d 5788 443d 9083 71bd
000003f0: bbe8 f03c e1d5 5bbc 6fda d03d fe48 2c3d

actor.linear2.bias f4 [128]
0.059747864 -0.042334486 -0.041408017 -0.033695694 0.01018124 -0.0025093665 0.040598318 0.02311469
-0.07964325 -0.0038156735 -0.0716257 -0.06584158 -0.07561694 0.042075608 0.04930471 0.08828121
-0.050432965 -0.011867427 -0.061752893 0.04514123 0.0810558 0.020678999 -0.07115106 -0.0024828215
0.058406156 -0.04500241 -0.026411312 0.06880737 -0.055187672 -0.050993267 0.05460546 0.05066373
0.03252364 0.052841734 -0.056924578 0.016351353 0.053211063 -0.035680674 0.08523435 0.043197922
-0.021889504 0.014092094 -0.0017962146 -0.00026529247 -0.057793077 0.0096298065 -0.022554908 0.062051296
0.08288534 -0.07253247 0.059480164 0.032742716 0.09249672 -0.02336509 -0.04946729 -0.037799936
0.07294971 0.008971751 -0.07825803 0.025729926 -0.011074475 -0.057623856 -0.006498802 0.08001664
-0.062629655 0.08623581 0.04480024 0.08408829 -0.045807805 0.016278263 0.02032734 -0.008110588
-0.03779151 0.029479796 -0.0116593065 0.035636224 0.0053978697 -0.009799895 -0.066415824 -0.007948989
0.06882607 -0.0020993634 0.08206689 0.016365131 -0.049702637 0.0034360818 0.010529523 0.045753706
-0.029079424 0.07267069 -0.03251622 0.050390597 -0.01287303 -0.014105132 0.09476919 -0.02769532
0.025130115 0.06436286 -0.02404564 -0.047344178 -0.04756203 0.08518107 0.029344467 0.08327267
0.05873387 -0.030371914 0.038798295 0.06768827 0.05717185 0.0023918394 0.06704029 0.06863296
0.09022881 -0.043764725 0.09639375 -0.045538392 -0.043450978 0.013963912 -0.030722208 0.0038938033
-0.06664227 -0.044040408 -0.05525292 0.039136507 -0.03049297 -0.03010699 0.051248476 0.06954394
00000000: 2dba 743d ed66 2dbd 749b 29bd 7f04 0abd
00000010: 37cf 263c 2f74 24bb 6c4a 263d 055b bd3c
00000020: 001c a3bd 6110 7abb 7fb0 92bd f3d7 86bd
00000030: 0edd 9abd 7957 2c3d bcf3 493d c7cc b43d
00000040: cc92 4ebd 996f 42bc 9af0 7cbd 03e6 383d
00000050: 9500 a63d 0167 a93c a6b7 91bd d5b6 22bb
00000060: 4b3b 6f3d 7254 38bd 895c d8bc e1ea 8c3d
00000070: 780c 62bd 51de 50bd faa9 5f3d c584 4f3d
00000080: 8237 053d 9370 583d bf29 69bd 46f3 853c
00000090: d8f3 593d e625 12bd 598f ae3d 4ef0 303d
000000a0: 9e51 b3bc 87e2 663c f66e ebba f416 8bb9
000000b0: 6fb8 6cbd 56c6 1d3c 12c5 b8bc 8029 7e3d
000000c0: cabf a93d e78b 94bd 79a1 733d 3a1d 063d
000000d0: ec6e bd3d 2568 bfbc 379e 4abd 1bd4 1abd
000000e0: a866 953d 40fe 123c bf45 a0bd 91c7 d23c
000000f0: b771 35bc fe06 6cbd e7f3 d4bb c4df a33d
00000100: fa43 80bd 669c b03d 7580 373d 7b36 ac3d
00000110: f7a0 3bbd fe59 853c 8685 a63c 46e2 04bc
00000120: 45cb 1abd 9d7f f13c ad06 3fbc 4af7 113d
00000130: 9de0 b03b bd8f 20bc 0505 88bd 7a3c 02bc
00000140: aff4 8c3d 7995 09bb b012 a83d 2b10 863c
00000150: fe94 4bbd e32f 613b 0584 2c3c 3d68 3b3d
00000160: f937 eebc 5fd4 943d ba2f 05bd 5f66 4e3d
00000170: 67e9 52bc 3619 67bc 5916 c23d 4ce1 e2bc
00000180: acdd cd3c add0 833d 5dfb c4bc f8eb 41bd
00000190: 67d0 42bd 6a73 ae3d cf63 f03c dd8a aa3d
000001a0: ed92 703d 85ce f8bc f6ea 1e3d 26a0 8a3d
000001b0: 082d 6a3d 68c0 1c3b 6b4c 893d 708f 8c3d
000001c0: e2c9 b83d a442 33bd 166a c53d 7786 3abd
000001d0: a7f9 31bd e4c8 643c 24ad fbbc 2e2f 7f3b
000001e0: be7b 88bd b763 34bd e350 62bd 9a4d 203d
000001f0: 65cc f9bc efa2 f6bc ece9 513d 0e6d 8e3d

actor.linear3.weight f4 [128, 128]
-0.072320245 -0.07939485 -0.01026949 -0.029200824 0.008491729 0.044970036 -0.046752233 0.091126665
-0.07174641 0.07323723 0.041387573 -0.049754832 -0.012945005 -0.06018854 -0.099261165 -0.07994341
-0.043180842 0.06195682 0.041494418 -0.022837346 -0.07916913 0.03055369 0.09036928 0.016176065
0.04822363 -0.056631647 0.041170444 -0.0758157 0.05244108 -0.0048067668 0.04223358 -0.078377716
0.024787493 -0.000266243 -0.0024332283 0.013075052 0.074775524 -0.03914423 0.070114665 -0.027223675
0.031436082 0.059620883 0.034759723 0.011234008 0.03911068 0.07462492 0.0429818 0.081619754
-0.072285965 0.030821659 0.10917901 -0.044594117 0.06629676 0.032580536 0.054063074 -0.0017587985
-0.085142955 0.108379655 -0.07084269 -0.06853989 -0.026854612 0.071227014 0.064409725 0.047479946
-0.09034718 0.075573936 0.0046027224 -0.0311348 -0.06421605 0.01876621 -0.013728211 -0.019401576
-0.056924693 0.038175285 -0.044963013 -0.037710864 0.031202508 0.0626173 0.10486126 -0.023377398
-0.061209183 0.06831451 0.06674822 -0.005854751 -0.07806243 -0.03932486 0.020091316 0.060378097
-0.064643726 0.03278371 -0.025294077 0.05994183 -0.08312201 -0.04112392 0.043330744 -0.011812796
0.05338469 0.07814705 0.054143403 -0.008850148 -0.041897047 -0.06242223 0.04571661 0.056778148
-0.024485158 0.008667306 -0.03639776 -0.0949561 0.028447235 -0.0066135447 -0.0076402756 0.101537526
-0.023735588 0.093722776 0.028736161 -0.10051457 0.017097203 0.009163532 -0.06979964 0.059697922
0.09903576 0.080636196 0.06356752 0.045350254 -0.03472777 -0.001882744 -0.036512613 0.03223741
0.054796897 -0.0054985583 -0.0047501205 -0.032179825 -0.07765186 0.060518887 0.065802895 0.004285062
0.042382397 -0.0030586014 0.09090536 0.07231588 -0.09235391 0.0916349 0.058521718 -0.025055122
-0.0687955 0.012524429 0.06724586 -0.082078606 0.0026377465 -0.11683469 0.02708103 -0.031636603
0.056381214 0.029044192 0.08384755 -0.012569881 0.07620357 0.037783954 0.0019576892 0.08621966
0.07385192 0.07118833 -0.042497307 0.056150913 0.0036433612 -0.068655625 0.06912717 -0.06105684
-0.035775404 0.044935115 -0.052673858 0.081745796 -0.04465149 0.025901526 -0.0088172145 0.05147309
0.009419376 -0.06959968 0.049559806 0.05886615 -0.09052991 -0.0036051932 0.032755718 -0.057490416
0.043513753 0.11787561 0.009855153 -0.000980772 0.07613333 0.039445285 0.055857792 -0.09210496
0.020340964 -0.07018714 -0.07250319 -0.08271511 -0.04959283 -0.024660807 -0.05627537 -0.057640966
0.0016111779 0.08695744 -0.00015057495 0.014955599 -0.060219344 0.0067942026 0.056485333 -0.07035451
-0.013781972 0.04187129 0.019364553 0.011534781 0.025373215 -0.049480014 -0.013254562 0.043576214
-0.08184683 0.027878173 0.045986068 0.0013127024 0.008685042 0.024702972 -0.022592705 -0.03879123
-0.053356607 0.08902324 -0.03813596 0.08860659 0.017014287 -0.041372977 0.024450118 -0.026593288
0.11454253 0.05231396 0.08007226 -0.00069476396 0.041559894 -0.100346595 0.054781064 0.10953503
-0.06860561 0.0831273 0.0063470067 -0.025133392 0.08133072 0.021078654 -0.11720064 -0.09218415
-0.050049294 0.010673961 -0.094437554 -0.09350251 -0.0020804114 -0.0049334834 0.027742952 -0.073703595
00000000: a31c 94bd c499 a2bd 5d41 28bc 9136 efbc
00000010: e520 0b3c 8032 383d 457f 3fbd 9ea0 ba3d
00000020: c8ef 92bd 67fd 953d 0486 293d b9cb 4bbd
00000030: 4917 54bc 4288 76bd 7049 cbbd 5fb9 a3bd
00000040: 65de 30bd 6fc6 7d3d 0df6 293d 6315 bbbc
00000050: 6d23 a2bd bb4b fa3c 8713 b93d ab83 843c
00000060: 2486 453d 96f6 67bd 57a2 283d 4345 9bbd
00000070: 75cc 563d 1582 9dbb 1efd 2c3d 7f84 a0bd
00000080: 240f cb3c 8896 8bb9 cc76 1fbb be38 563c
00000090: e923 993d b355 20bd 4798 8f3d 2f04 dfbc
000000a0: 1fc3 003d 0735 743d 3660 0e3d d80e 383c
000000b0: 8532 203d f3d4 983d af0d 303d 4228 a73d
000000c0: aa0a 94bd b47d fc3c 3f99 df3d 52a8 36bd
000000d0: 99c6 873d 2b73 053d 3e71 5d3d 7c87 e6ba
000000e0: 6e5f aebd 27f6 dd3d f915 91bd a45e 8cbd
000000f0: 34fe dbbc 78df 913d 3fe9 833d 557a 423d
00000100: f107 b9bd 82c6 9a3d 6fd2 963b 680e ffbc
00000110: b483 83bd 98bb 993c 4aec 60bc 0ef0 9ebc
00000120: de29 69bd b05d 1c3d 232b 38bd b576 1abd
00000130: 679c ff3c 803d 803d 80c1 d63d f581 bfbc
00000140: 7bb6 7abd 7ae8 8b3d 4ab3 883d 36d9 bfbb
00000150: 32df 9fbd 1b13 21bd 8b96 a43c 064f 773d
00000160: ee63 84bd 3648 063d 8635 cfbc 9085 753d
00000170: df3b aabd 8e71 28bd 947b 313d 758a 41bc
00000180: e8a9 5a3d 900b a03d 79c5 5d3d 3600 11bc
00000190: 3d9c 2bbd 74ae 7fbd 5741 3b3d 3490 683d
000001a0: 1995 c8bc 5101 0e3c d115 15bd 5878 c2bd
000001b0: 2d0a e93c 6fb6 d8bb 475b fabb e8f2 cf3d
000001c0: 2371 c2bc baf1 bf3d 1968 eb3c 95da cdbd
000001d0: 6f0f 8c3c a422 163c 1df3 8ebd cf85 743d
000001e0: 43d3 ca3d 9724 a53d b02f 823d 30c1 393d
000001f0: b53e 0ebd 68c6 f6ba 408e 15bd 600b 043d
00000200: b672 603d 402d b4bb e6a6 9bbb fece 03bd
00000210: f007 9fbd a7e2 773d abc3 863d b569 8c3b
00000220: 2a99 2d3d d172 48bb 972c ba3d 591a 943d
00000230: 0c24 bdbd 14ab bb3d 78b4 6f3d 6640 cdbc
00000240: a8e4 8cbd 4333 4d3c 33b8 893d d418 a8bd
00000250: 0bde 2c3b 0747 efbd 09d9 dd3c 6295 01bd
00000260: fdef 663d 16ee ed3c 44b8 ab3d e7f1 4dbc
00000270: 9e10 9c3d 59c3 1a3d 934c 003b ef93 b03d
00000280: ad3f 973d 30cb 913d a811 2ebd 80fe 653d
00000290: 75c5 6e3b 529b 8cbd 8c92 8d3d bd16 7abd
000002a0: 3b89 12bd e20d 383d 8bc0 57bd 576a a73d
000002b0: 7be4 36bd 702f d43c 1476 10bc 72d5 523d
000002c0: ba53 1a3c 478a 8ebd 39ff 4a3d a21d 713d
000002d0: bf67 b9bd 1b45 6cbb dc2a 063d 127b 6bbd
000002e0: 7a3b 323d c568 f13d 8277 213c 3f8d 80ba
000002f0: cbeb 9b3d 6191 213d 24cb 643d 86a1 bcbd
00000300: 18a2 a63c 46be 8fbd 8d7c 94bd 8a66 a9bd
00000310: da21 4bbd 7605 cabc 0181 66bd ef18 6cbd
00000320: 292e d33a be16 b23d a8e3 1db9 5408 753c
00000330: 8fa8 76bd e7a1 de3b 2a5d 673d 0616 90bd
00000340: c8cd 61bc 3b81 2b3d 69a2 9e3c 61fc 3c3c
00000350: 7ddb cf3c 8eab 4abd aa29 59bc f97c 323d
00000360: 509f a7bd c460 e43c e35b 3c3d fc0e ac3a
00000370: b54b 0e3c e35d ca3c 5614 b9bc 8ee3 1ebd
00000380: 758c 5abd d151 b63d 7434 1cbd 5f77 b53d
00000390: 8c61 8b3c b676 29bd 9d4b c83c 2bda d9bc
000003a0: 4695 ea3d 2a47 563d edfc a33d d220 36ba
000003b0: b53a 2a3d 8482 cdbd 1c62 603d e753 e03d
000003c0: 1981 8cbd a53e aa3d 8dfa cf3b 8be4 cdbc
000003d0: b890 a63d 24ad ac3c e406 f0bd 0bcb bcbd
000003e0: 7d00 4dbd d6e1 2e3c 7a68 c1bd 3e7e bfbd
000003f0: 8357 08bb 0fa9 a1bb 3045 e33c e9f1 96bd

actor.linear3.bias f4 [128]
-0.01786883 0.09183958 -0.044005558 -0.07588271 -0.05548527 0.06304834 0.02970542 -0.04592565
-0.006503963 0.083874285 -0.060983483 0.07901223 0.06262508 0.073435135 0.049171057 -0.05750519
0.02533878 0.090381354 0.0606284 0.028119609 0.01409072 0.0006596778 -0.012873271 -0.019075943
-0.04303449 0.094334014 -0.041343126 0.03096801 -0.051107127 0.0363311 0.009515843 0.0151109025
0.07958275 -0.034847885 0.05462785 -0.08787893 -0.006558457 -0.07962567 0.027015213 -0.064095885
-0.057221606 0.06279978 0.032167435 0.049504492 -0.0621921 0.0025113 0.01441579 0.09611489
-0.003307632 0.020383038 0.069201894 0.026406327 -0.014368805 -0.0823294 -0.07186011 0.060434368
0.03495309 -0.02024467 0.0054932917 0.029824428 0.007670508 -0.00498804 0.05568451 0.01179484
-0.031468634 -0.0231057 0.06183661 -0.08695888 -0.05487859 0.073394425 0.06799484 -0.071274854
0.051617265 -0.063665934 0.00086524326 0.017570691 -0.007206847 -0.015556822 -0.07326522 0.09193377
0.08614404 -0.08302647 0.002681282 0.03211054 0.008123821 -0.009543991 0.009551596 -0.066279
-0.060060546 -0.032676693 -0.00667251 0.057477597 0.0026087463 0.04149057 0.02824392 0.022380495
-0.007998642 0.086697124 0.038155984 -0.042381063 0.015407341 -0.020013297 0.030524053 0.07601386
0.07115348 0.037955076 -0.049953394 -0.027762461 0.09911586 0.0009176388 0.08666198 -0.06701163
0.038372792 0.029713728 -0.07543803 -0.045094524 -0.05229711 -0.06451733 0.06682738 0.08442616
0.0543547 0.09149672 0.06868505 -0.013189326 0.030750753 0.0010730723 0.09138545 -0.0626139
00000000: a761 92bc 6416 bc3d 2c3f 34bd 6568 9bbd
00000010: 8644 63bd 7d1f 813d c858 f33c 891c 3cbd
00000020: 321f d5bb 48c6 ab3d d1c9 79bd 2ad1 a13d
00000030: 9441 803d 2965 963d 9767 493d 908a 6bbd
00000040: 4693 cf3c dc19 b93d 7c55 783d 185b e63c
00000050: c3dc 663c 3aee 2c3a 69ea 52bc 2745 9cbc
00000060: ef44 30bd 3132 c13d 6957 29bd a0b0 fd3c
00000070: b555 51bd ebcf 143d 57e8 1b3c b893 773c
00000080: 48fc a23d a8bc 0ebd 74c1 5f3d def9 b3bd
00000090: 53e8 d6bb c912 a3bd 024f dd3c b444 83bd
000000a0: 3461 6abd 2c9d 803d 00c2 033d 39c5 4a3d
000000b0: 25bd 7ebd 9f94 243b 3530 6c3c e2d7 c43d
000000c0: dbc4 58bb 54fa a63c b9b9 8d3d 1552 d83c
000000d0: 236b 6bbc 519c a8bd 652b 93bd 078a 773d
000000e0: f92a 0f3d 26d8 a5bc 1201 b43b 5c52 f43c
000000f0: e358 fb3b b672 a3bb 7115 643d 253f 413c
00000100: 41e5 00bd 2a48 bdbc 6348 7d3d 7f17 b2bd
00000110: 5fc8 60bd d14f 963d e140 8b3d 8df8 91bd
00000120: a06c 533d 4963 82bd 7ed1 623a 69f0 8f3c
00000130: 6a27 ecbb 0ae2 7ebc 130c 96bd c647 bc3d
00000140: 496c b03d c809 aabd 73b8 2f3b 5786 033d
00000150: c619 053c 665e 1cbc 4c7e 1c3c 49bd 87bd
00000160: 0c02 76bd ffd7 05bd 12a5 dabb a16d 6b3d
00000170: 80f7 2a3b 04f2 293d cb5f e73c 4d57 b73c
00000180: bc0c 03bc 438e b13d 7349 1c3d c497 2dbd
00000190: 126f 7c3c edf2 a3bc 940d fa3c 28ad 9b3d
000001a0: eab8 913d c876 1b3d ee9b 4cbd 1a6e e3bc
000001b0: 42fd ca3d b38d 703a d67b b13d 653d 89bd
000001c0: ca2c 1d3d 346a f33c 417f 9abd 09b5 38bd
000001d0: 7f35 56bd a921 84bd cbdc 883d 9fe7 ac3d
000001e0: 09a3 5e3d a262 bb3d bfaa 8c3d 0b18 58bc
000001f0: 01e9 fb3c 55a6 8c3a 4b28 bb3d b73b 80bd

actor.linear4.weight f4 [9, 128]
0.037399936 0.024354007 -0.011711721 -0.0829775 -0.052914836 -0.026991507 0.032384604 -0.06653889
0.05087313 -0.022132587 -0.010429835 0.050456356 -0.010177295 -0.041304424 0.06761528 0.04946022
0.04358005 0.015046502 0.054240722 0.068060555 -0.06599726 -0.06259127 -0.06746394 -0.024395986
-0.081205525 -0.0013132199 0.014883141 -0.009368344 -0.082471415 0.08886783 -0.05848559 0.021162005
-0.03834363 -0.069656596 -0.0036719511 -0.05387008 0.01829545 -0.022473605 0.0687613 -0.059301794
-0.045658477 -0.04571335 -0.052181266 -0.0478365 0.0628494 0.049101062 -0.04650926 -0.026838122
0.041319713 0.0676126 -0.012280223 -0.06173616 -0.07305529 -0.07951693 0.043505013 -0.086232856
-0.030904258 0.052727994 0.0876493 0.0055061243 -0.05598999 -0.0719715 -0.03602604 0.05866478
-0.0520399 0.072031975 0.0064787045 0.07221114 -0.02215101 0.08186544 0.041183934 -0.042953312
0.029171841 -0.04230688 -0.018370612 0.07929678 0.07242777 0.019372277 0.07349454 0.08519452
0.041686114 0.025785571 0.0099050375 0.009921871 0.042213503 0.016702399 0.0035529898 0.0787604
0.015477286 0.07476833 0.049644694 -0.053848084 0.038798224 -0.0041722627 -0.086951904 0.057748552
0.0031893868 -0.026362976 0.082901314 0.03903296 -0.091219515 -0.052203752 0.06465695 0.00028830784
-0.05254483 0.07033299 -0.079457514 -0.0617287 -0.037561357 -0.0124618495 0.091962524 0.042139385
-0.041732058 -0.0035523525 -0.059707448 0.07160597 0.07131684 0.078550965 -0.047976546 -0.038017653
0.039896958 0.021865206 -0.025446573 -0.07044515 0.00069634855 -0.057254303 -0.06484811 -0.059180148
0.06623433 0.037797287 0.101636015 0.047647033 -0.0863777 0.114361666 0.09495588 0.049264602
0.008453672 -0.01742369 0.015940862 0.0761896 0.05463929 0.012569438 -0.009876555 0.060528573
-0.05599212 0.043451536 0.03453541 0.09995126 -0.075190194 -0.07073331 0.002928397 -0.017867904
0.035398178 0.037611224 0.063613735 0.038551718 -0.044590622 -0.027088035 -0.041656803 0.105790354
-0.03528758 -0.048778627 -0.11322457 0.079325475 -0.03849104 0.013136173 0.0062165596 0.11433187
0.017545093 -0.081497446 0.015113865 -0.09114317 -0.035945177 -0.073844455 -0.014228456 0.009669825
-0.09317275 -0.07803218 -0.0003682086 -0.0038395342 0.06690259 0.05213207 0.097791664 0.041583836
-0.033262223 -0.012724243 0.041502375 0.06367602 0.022691987 0.06618237 0.03504214 -0.03995968
-0.04082903 0.09380293 -0.06661035 -0.08330802 -0.08119103 0.024411488 0.114857174 0.046513002
0.035084076 -0.037509456 -0.057009608 0.05776133 -0.06242354 0.0719476 0.06523056 0.06565021
0.051877126 0.07135875 0.018589204 -0.08238044 -0.022190375 0.08933475 -0.041561104 -0.088307545
0.06544618 -0.00010544291 -0.013175754 -0.06464693 0.023758607 -0.0804687 0.09176209 0.06000254
-0.08737664 -0.02104321 -0.080783226 0.039754666 -0.005117464 0.05774427 -0.06715596 -0.0034893297
-0.0108105745 -0.04233579 0.052083593 0.03439825 0.062229373 -0.027282003 0.011317009 -0.10450546
-0.0006080014 0.042057943 0.10582937 0.059935153 0.07675379 0.034153 -0.009255137 0.0029728636
0.06443302 -0.11719096 0.056443278 -0.09883206 -0.014705509 -0.08829993 0.10628829 -0.026101751
00000000: ad30 193d 0e82 c73c 85e2 3fbc 1cf0 a9bd
00000010: 3abd 58bd 4b1d ddbc b8a5 043d 8b45 88bd
00000020: 5860 503d 664f b5bc e6e1 2abc 53ab 4e3d
00000030: abbe 26bc d42e 29bd e179 8a3d cd96 4a3d
00000040: ff80 323d 9b85 763c 852b 5e3d 5563 8b3d
00000050: 9229 87bd da2f 80bd 892a 8abd 17da c7bc
00000060: 154f a6bd 5920 acba 6bd8 733c af7d 19bc
00000070: c6e6 a8bd 5600 b63d 968e 6fbd f15b ad3c
00000080: 360e 1dbd 1ea8 8ebd 1ea5 70bb dfa6 5cbd
00000090: 57e0 953c 911a b8bc b9d2 8c3d 70e6 72bd
000000a0: 6204 3bbd ec3d 3bbd 06bc 55bd 35f0 43bd
000000b0: 30b7 803d 321e 493d 7e80 3ebd 9fdb dbbc
000000c0: dc3e 293d 7a78 8a3d fd32 49bc 0edf 7cbd
000000d0: 039e 95bd c6d9 a2bd 5032 323d da9a b0bd
000000e0: ed2a fdbc 4ff9 573d 7a81 b33d b86c b43b
000000f0: c255 65bd cb65 93bd 0a90 13bd 7b4a 703d
00000100: ca27 55bd 8085 933d 504b d43b 6fe3 933d
00000110: 0976 b5bc 11a9 a73d 7cb0 283d d0ef 2fbd
00000120: c9f9 ee3c fb49 2dbd f77d 96bc 5a66 a23d
00000130: 0355 943d 9cb2 9e3c 4e84 963d 777a ae3d
00000140: 0fbf 2a3d 433c d33c bd48 223c 588f 223c
00000150: 11e8 2c3d 78d3 883c 47d9 683b 224d a13d
00000160: 7194 7d3c 2320 993d 3c58 4b3d cf8f 5cbd
00000170: e3ea 1e3d 7ab7 88bb d713 b2bd bf89 6c3d
00000180: 0805 513b 2bf7 d7bc 2ac8 a93d 06e1 1f3d
00000190: 4cd1 babd 9ad3 55bd dd6a 843d 0628 9739
000001a0: 3f39 57bd be0a 903d 9fba a2bd 3cd7 7cbd
000001b0: f0d9 19bd c92c 4cbc d956 bc3d 599a 2c3d
000001c0: 3cef 2abd 96ce 68bb cc8f 74bd 27a6 923d
000001d0: 900e 923d 54df a03d 0e83 44bd 66b8 1bbd
000001e0: fe6a 233d a91e b33c 5575 d0bc 8c45 90bd
000001f0: 298b 363a 7d83 6abd 16cf 84bd e266 72bd
00000200: dda5 873d 54d1 1a3d 8b26 d03d 8929 433d
00000210: cbe6 b0bd 7336 ea3d 3a78 c23d aec9 493d
00000220: 4581 0a3c 20bc 8ebc 6996 823c 4b09 9c3d
00000230: 73cd 5f3d 0bf0 4d3c 46d1 21bc cfec 773d
00000240: fe57 65bd 3dfa 313d 0175 0d3d 3fb3 cc3d
00000250: 51fd 99bd a0dc 90bd 59ea 3f3b b65f 92bc
00000260: aefd 103d 3a0e 1a3d eb47 823d 68e8 1d3d
00000270: a8a4 36bd bae7 ddbc 53a0 2abd 9da8 d83d
00000280: b689 10bd 19cc 47bd 49e2 e7bd 6575 a23d
00000290: c8a8 1dbd 1a39 573c 48b4 cb3b d426 ea3d
000002a0: baba 8f3c 22e8 a6bd 25a0 773c 45a9 babd
000002b0: 403b 13bd c33b 97bd 781e 69bc 306e 1e3c
000002c0: 5bd1 bebd 56cf 9fbd 1f0c c1b9 b2a0 7bbb
000002d0: 3a04 893d 7088 553d ff46 c83d d053 2a3d
000002e0: f83d 08bd 5879 50bc 65fe 293d 9368 823d
000002f0: 8ce4 b93c 9f8a 873d 5988 0f3d c3ac 23bd
00000300: 573c 27bd c01b c03d 026b 88bd 659d aabd
00000310: 7c47 a6bd 9afa c73c 3d3a eb3d 6b84 3e3d
00000320: 52b4 0f3d 84a3 19bd e882 69bd 2597 6c3d
00000330: d3af 7fbd 4359 933d 9a97 853d 9e73 863d
00000340: 1c7d 543d 8924 923d 6348 983c 13b7 a8bd
00000350: 97c8 b5bc 23f5 b63d fa3b 2abd 96da b4bd
00000360: a608 863d 3b21 ddb8 1edf 57bc 9c65 84bd
00000370: 69a1 c23c c6cc a4bd c3ed bb3d 39c5 753d
00000380: 86f2 b2bd cf62 acbc ad71 a5bd cad5 223d
00000390: 66b0 a7bb 4185 6c3d 1089 89bd 3dad 64bb
000003a0: d61e 31bc 4b68 2dbd 9b55 553d 2ee5 0c3d
000003b0: 3ae4 7e3d 827e dfbc fa6a 393c f506 d6bd
000003c0: 4962 1fba f344 2c3d 12bd d83d 907e 753d
000003d0: 1731 9d3d 04e4 0b3d dca2 17bc 60d4 423b
000003e0: 76f5 833d d001 f0bd 1131 673d 7768 cabd
000003f0: 60ef 70bc 98d6 b4bd adad d93d 57d3 d5bc

actor.linear4.bias f4 [9]
0.059301946 -0.07478644 0.03368707 0.08444342 0.008640782 -0.047639173 0.04921156 0.056944862
0.0741092
00000000: 99e6 723d a229 99bd 74fb 093d acf0 ac3d
00000010: 1192 0d3c 4b21 43bd 1092 493d 043f 693d
00000020: 90c6 973d

critic.linear1.weight f4 [128, 120]
0.08726898 0.1743251 0.088080846 -0.04608359 -0.03277449 0.06838839 0.05752545 0.033692192
0.010212974 0.12727195 0.070841946 -0.12596309 0.054448582 -0.023876552 -0.10331397 -0.023006499
0.093946025 -0.088752985 0.0411354 0.09996409 0.07190992 0.051410697 -0.0027467872 0.0022670196
0.031385876 -0.024147086 0.023267495 -0.033608858 -0.034273 0.044076856 0.045936666 -0.03696885
-0.061772354 0.020040346 0.15527116 -0.018337745 0.12196367 0.1276253 -0.121716835 0.026702458
-0.012241306 0.08812894 -0.06977853 0.08209827 -0.028849276 -0.0655088 -0.096176356 -0.043092456
0.07901865 0.053750034 0.07242284 0.06430768 0.045235157 0.046089754 0.08825977 0.14902098
-0.083166204 -0.028110871 -0.07963836 0.08147505 -0.069680244 0.011304427 -0.016093815 -0.09249803
-0.010759721 -0.11824468 0.116474055 -0.05593404 0.1306705 0.0053225737 0.018953368 0.010775099
-0.076733805 -0.10349765 0.029425481 -0.04049474 -0.030062161 0.08628086 0.024907066 -0.029972795
-0.09445816 -0.08658155 -0.06586132 -0.038580388 0.114977404 0.028390845 -0.054450613 0.079141736
-0.014976231 -0.06583301 -0.091133766 0.039515026 0.03559703 -0.0052962024 0.039323375 0.05771336
0.04063009 0.054008648 -0.023350734 -0.0074080643 -0.0034320871 0.10629595 -0.06075513 0.04006587
-0.0049628946 0.07573451 -0.08125546 0.04671616 -0.11439003 0.08576211 0.10339217 -0.019206583
0.08767855 -0.115074195 0.107167356 0.037512176 0.07545717 -0.05154038 0.106342055 0.14344198
-0.027749538 0.0075971596 0.023421654 -0.031791996 0.006086339 -0.0876189 0.020213304 0.05502724
0.0035768088 0.022913167 -0.04999148 -0.037661135 0.009378809 -0.09380222 0.1313961 0.07256226
0.060606875 -0.07328025 0.017803576 0.039548807 0.042554945 0.11736861 0.10077805 0.05902837
0.06617466 -0.03513607 0.022479188 -0.087346755 0.06477623 -0.00056868827 0.10139224 -0.030043274
-0.07527502 -0.13059579 0.04473765 -0.03658478 0.07282586 0.022405338 0.06991438 0.12754247
-0.018068485 -0.018452331 0.04410064 0.004443279 -0.033128668 0.038583085 -0.06325302 -0.017441966
-0.111678466 0.08424981 -0.023296235 -0.06748692 0.041056335 0.011003142 0.1323982 0.009245926
-0.08252255 0.060858317 0.08901296 -0.034856077 0.06976382 0.017820625 0.084770985 0.022345014
0.12019474 0.08166695 -0.04037755 -0.04057792 0.12894571 0.008752188 -0.055202037 0.007401158
-0.054637082 0.13446283 0.092249066 0.060226068 0.050827894 -0.06276524 0.11423711 0.07569333
-0.04438893 -0.10790022 0.09881273 0.0011582556 0.13654898 0.11008573 -0.029717935 -0.008913997
-0.036689058 0.06678747 -0.0101921195 0.04260566 0.0970547 -0.09083325 0.034922797 0.025233502
0.031146687 -0.096328855 -0.0517856 -0.017043715 0.020271685 0.09061488 0.14562595 0.16648424
-0.07983428 -0.03168468 0.10859175 0.008554055 0.03388049 0.05289553 -0.023766931 0.095486686
0.082599804 0.14940615 -0.09356591 -0.054501228 -0.015685003 0.21336919 0.04484443 0.10158549
-0.01970799 -0.025239972 -0.007218015 -0.009035503 -0.0811896 0.014664854 -0.12529218 -0.03621253
0.059062596 0.06258336 0.0845553 0.05225684 0.03203768 0.029902585 -0.019952051 0.008101475
00000000: 14ba b23d 4782 323e bb63 b43d 25c2 3cbd
00000010: 8b3e 06bd 360f 8c3d ce9f 6b3d d300 0a3d
00000020: 5154 273c 9453 023e 9515 913d 78fc 00be
00000030: 7a05 5f3d c298 c3bc 4696 d3bd 2078 bcbc
00000040: c666 c03d 20c4 b5bd 987d 283d f9b9 cc3d
00000050: 8245 933d 0694 523d 7103 34bb 4792 143b
00000060: 7a8e 003d 1cd0 c5bc 799b be3c 71a9 09bd
00000070: d861 0cbd ef89 343d 1628 3c3d a66c 17bd
00000080: 0205 7dbd a72b a43c 67ff 1e3e 0a39 96bc
00000090: 17c8 f93d 35b0 023e ad46 f9bd 1dbf da3c
000000a0: c28f 48bc f27c b43d 0ce8 8ebd 2323 a83d
000000b0: 5155 ecbc 7a29 86bd 1cf8 c4bd b781 30bd
000000c0: 88d4 a13d ff28 5c3d 6d52 943d bfb3 833d
000000d0: 8048 393d 9cc8 3c3d 8ac1 b43d f598 183e
000000e0: 0b53 aabd c548 e6bc 7019 a3bd 64dc a63d
000000f0: 84b4 8ebd 3436 393c 2dd7 83bc 9b6f bdbd
00000100: 8a49 30bc 442a f2bd f389 ee3d 181b 65bd
00000110: 7dce 053e fc68 ae3b 1844 9b3c 0a8a 303c
00000120: 9d26 9dbd 93f6 d3bd b50d f13c d0dd 25bd
00000130: ec44 f6bc 05b4 b03d e709 cc3c 8289 f5bc
00000140: 4873 c1bd ab51 b1bd 4de2 86bd 7806 1ebd
00000150: 4679 eb3d eb93 e83c 9b07 5fbd 1015 a23d
00000160: de5e 75bc 75d3 86bd 57a4 babd 82da 213d
00000170: 31ce 113d c48b adbb 8c11 213d d864 6c3d
00000180: bd6b 263d 2c38 5d3d 0a4a bfbc 59bf f2bb
00000190: deec 60bb b1b1 d93d 5fda 78bd 1c1c 243d
000001a0: c79f a2bb b21a 9b3d 4369 a6bd 7259 3f3d
000001b0: 5245 eabd 0ca4 af3d 46bf d33d 2057 9dbc
000001c0: d090 b33d 05ac ebbd 8f7a db3d 5ea6 193d
000001d0: 4a89 9a3d 011c 53bd ddc9 d93d 74e2 123e
000001e0: 0053 e3bc 98f1 f83b c5de bf3c 5338 02bd
000001f0: e96f c73b 8a71 b3bd 5f96 a53c 3e64 613d
00000200: e568 6a3b 65b4 bb3c dec3 4cbd 9042 1abd
00000210: 93a9 193c 611b c0bd b38c 063e 869b 943d
00000220: ea3e 783d f513 96bd ced8 913c eefd 213d
00000230: 184e 2e3d f45e f03d b964 ce3d bbc7 713d
00000240: 9586 873d d7ea 0fbd 4626 b83c dbe2 b2bd
00000250: 66a9 843d 0614 15ba bca6 cf3d 501d f6bc
00000260: ca29 9abd e7ba 05be d33e 373d ecd9 15bd
00000270: b925 953d 668b b73c 452f 8f3d 7e9a 023e
00000280: 5c04 94bc 5829 97bc dfa2 343d ed98 913b
00000290: edb1 07bd 4c09 1e3d cd8a 81bd 74e2 8ebc
000002a0: aeb7 e4bd 2a8b ac3d bfd7 bebc 9536 8abd
000002b0: b02a 283d 8646 343c 6593 073e 397c 173c
000002c0: 9501 a9bd 9246 793d 6d4c b63d 3fc5 0ebd
000002d0: 55e0 8e3d 8ffc 913c 699c ad3d e40c b73c
000002e0: a928 f63d 0041 a73d ee62 25bd 0835 26bd
000002f0: 580a 043e 5665 0f3c 881b 62bd 6a85 f23b
00000300: 22cb 5fbd a0b0 093e 14ed bc3d 9caf 763d
00000310: e930 503d 108b 80bd 25f5 e93d 1b05 9b3d
00000320: 2bd1 35bd cafa dcbd 545e ca3d 9cd0 973a
00000330: 7fd3 0b3e a174 e13d 0773 f3bc 030c 12bc
00000340: 4447 16bd dec7 883d d9fc 26bc 4683 2e3d
00000350: 9dc4 c63d c806 babd 350b 0f3d 7db6 ce3c
00000360: 5627 ff3c 1048 c5bd 231d 54bd 439f 8bbc
00000370: ce10 a63c 4b94 b93d f81e 153e d87a 2a3e
00000380: 2880 a3bd ccc7 01bd 5a65 de3d 4f26 0c3c
00000390: 45c6 0a3d fca8 583d deb2 c2bc 868e c33d
000003a0: 162a a93d edfd 183e 7c9f bfbd ae3c 5fbd
000003b0: d67d 80bc 747d 5a3e cbae 373d 0e0c d03d
000003c0: a772 a1bc 0fc4 cebc 1985 ecbb a509 14bc
000003d0: bc46 a6bd db44 703c 984c 00be 9753 14bd
000003e0: 9feb 713d b42b 803d 542b ad3d 450b 563d
000003f0: f139 033d 44f6 f43c 7c72 a3bc 0dbc 043c

critic.linear1.bias f4 [128]
0.050067775 0.07099455 0.004827463 -0.13596006 0.12763044 0.017374769 0.09121469 -0.12690102
0.098173834 -0.05809637 0.033707436 0.111741245 0.016521443 -0.02381978 0.13513331 0.11621371
-0.022202443 0.1657493 0.023736654 -0.025366278 0.13900927 -0.028513111 0.12449741 -0.07461705
-0.025073508 -0.066097185 -0.008009209 -0.11263689 -0.0047455044 0.12466684 -0.04251615 0.012625157
-0.0059727714 -0.07000793 -0.1071934 -0.068141356 0.041006204 0.012553537 0.14659095 -0.14783667
0.010960418 -0.14188887 -0.08369336 0.0039497693 0.02277809 -0.052509394 0.12710488 0.0038517446
-0.13205728 0.02969691 0.021317076 0.056679383 0.0022636976 0.07312461 -0.013999564 -0.041619893
0.11727199 -0.017546633 0.12659405 0.00446284 0.00016282828 0.04838633 -0.10367242 0.036292337
0.026811285 0.14361787 -0.12708712 -0.06889194 0.1381111 0.12834033 0.076857194 0.055904575
-0.12871137 0.018368544 -0.0049719 0.017863113 0.1369009 0.04666788 0.05461055 -0.13424803
-0.11527521 0.11906331 0.13736272 -0.16213241 0.02239752 0.15829442 -0.084548324 0.03344063
-0.09420386 0.01655594 0.16720761 0.07741487 -0.10037477 0.15766339 -0.010915025 0.14297597
0.15739754 -0.04293643 -0.10519494 -0.14059392 0.10842949 -0.1513636 0.047163177 0.0046388656
0.002099432 0.1813689 -0.08430078 0.10372164 -0.024461348 0.005256288 0.12011716 -0.043230027
0.019053653 0.00023394341 0.02944894 -0.022492385 0.14605132 0.1620553 0.12442124 0.1652641
-0.00068053603 0.074050605 -0.106703185 -0.027557485 -0.015941976 -0.0432536 0.08045385 0.14934458
00000000: de13 4d3d 9765 913d b22f 9e3b 1d39 0bbe
00000010: 8eb1 023e 8855 8e3c c4ce ba3d 57f2 01be
00000020: 5d0f c93d 76f6 6dbd cf10 0a3d 98d8 e43d
00000030: fa57 873c b321 c3bc 6360 0a3e 7401 ee3d
00000040: e6e1 b5bc 2fba 293e 5f73 c23c f1cc cfbc
00000050: 7258 0e3e 5494 e9bc 80f8 fe3d d3d0 98bd
00000060: f566 cdbc f65d 87bd 0f39 03bc 2bae e6bd
00000070: 2d80 9bbb 5451 ff3d 6a25 2ebd bfd9 4e3c
00000080: 3db7 c3bb 5160 8fbd 3788 dbbd b28d 8bbd
00000090: 1ff6 273d 5aad 4d3c f01b 163e 7f62 17be
000000a0: 5393 333c 514b 11be 6d67 abbd 116d 813b
000000b0: 1e99 ba3c 1714 57bd c827 023e 8d6d 7c3b
000000c0: 063a 07be ef46 f33c 26a1 ae3c a428 683d
000000d0: 8b5a 143b 5bc2 953d 6d5e 65bc 9f79 2abd
000000e0: 4c2c f03d f5bd 8fbc dfa1 013e 043d 923b
000000f0: e2bc 2a39 bf30 463d 3552 d4bd 46a7 143d
00000100: 57a3 db3c 9010 133e 2023 02be 3817 8dbd
00000110: ff6c 0d3e a66b 033e 4e67 9d3d 32fc 643d
00000120: eacc 03be a179 963c 52eb a2bb aa55 923c
00000130: c02f 0c3e d226 3f3d 50af 5f3d 5178 09be
00000140: 6915 ecbd 77d7 f33d d0a8 0c3e 0a06 26be
00000150: 017b b73c ef17 223e ac27 adbd 0bf9 083d
00000160: f4ed c0bd 53a0 873c 7938 2b3e b08b 9e3d
00000170: 4a91 cdbd 8372 213e efd4 32bc 4b68 123e
00000180: d22c 213e 1cde 2fbd 7270 d7bd daf7 0fbe
00000190: 4810 de3d 0fff 1abe 2d2e 413d a001 983b
000001a0: a096 093b c5b8 393e e3a5 acbd 036c d43d
000001b0: 2a63 c8bc f13c ac3b fcff f53d f811 31bd
000001c0: 6816 9c3c b54e 7539 e73e f13c f341 b8bc
000001d0: 7a8e 153e d3f1 253e 90d0 fe3d fe3a 293e
000001e0: 0066 32ba d8a7 973d 3387 dabd 3cc0 e1bc
000001f0: bf98 82bc b02a 31bd fdc4 a43d c9ed 183e
