landing_falcon_raw_ckpt/ckpt_00008101.pt (torch, 833719 bytes, 15 tensors)

actor.linear1.weight f4 [128, 120]
0	0xbd56d633	-0.05245037
1	0xbd7dbb1b	-0.061946016
2	0xbd98903a	-0.07449384
3	0x3d3dbc17	0.046321955
4	0xbd1192d3	-0.035540413
5	0x3d4adf33	0.049529266
6	0x3d00a683	0.031408798
7	0xbde91fc3	-0.11383011
8	0x3d429da2	0.04751361
9	0x3d955edd	0.07293484
10	0xbd2ba7ac	-0.04190795
11	0x3d5e60d6	0.05429157
12	0x3df39884	0.118943244
13	0xbcf6bb35	-0.030118564
14	0x3d89f61e	0.06736396
15	0x3ceb2ea7	0.028708769
16	0x3d5e801c	0.054321393
17	0x3c07c644	0.008287016
18	0xbd5801e3	-0.052736174
19	0x3d861b11	0.06548131
20	0x3dac5962	0.08415486
21	0x3c800314	0.015626468
22	0x3cc74b68	0.024327949
23	0x3d9d1d45	0.07671598
24	0xbd9186bf	-0.07105779
25	0xbce2212f	-0.027603714
26	0xbcfd1619	-0.030894326
27	0xbda2a4f0	-0.079416156
28	0xbd5ecd07	-0.054394748
29	0x3d8edbf0	0.069755435
30	0xbd5eb400	-0.05437088
31	0xbdb48ea0	-0.08816266
32	0xbd251d70	-0.040311277
33	0x3caaab40	0.020833611
34	0xbcc70442	-0.024294022
35	0xbc51c016	-0.0128021445
36	0x3c158989	0.009127029
37	0x3d372d56	0.04472097
38	0x3db0aef4	0.0862712
39	0x3d9f6c01	0.07784272
40	0x3d9695fd	0.07352827
41	0xbd37b335	-0.04484864
42	0x3daab991	0.08336175
43	0xbd7333ff	-0.05937576
44	0x3dd435b9	0.10361809
45	0xbb9ef424	-0.004850881
46	0xbc97848c	-0.01849582
47	0xbdff84e1	-0.124765165
48	0x3d9b70ad	0.075898506
49	0xbcb56aa8	-0.022145584
50	0xbd6da6e3	-0.058020484
51	0xbd0b58eb	-0.034020346
52	0xbd9bd339	-0.07608647
53	0xbcefb805	-0.029262552
54	0xbcde20da	-0.027115274
55	0xbc681bb5	-0.014166762
56	0xbd484e43	-0.04890276
57	0x3c17bfd7	0.009262047
58	0xbd7c2959	-0.06156287
59	0xbd2f4ec3	-0.042799722
60	0x3d203ecd	0.03912239
61	0x3e047ef5	0.12939055
62	0x3cf38ced	0.029730285
63	0xbd0af57b	-0.033925515
64	0x3d97b81d	0.07408164
65	0x3bd37a65	0.0064537995
66	0x3d4aa773	0.0494761
67	0xbda589f8	-0.08082956
68	0x3cf5bfa0	0.0299986
69	0x3da1fcbf	0.079095356
70	0x3d6eee27	0.05833259
71	0xbc1d4fdc	-0.0096015595
72	0x3c448a3b	0.011995847
73	0xbd99ec2e	-0.07515751
74	0x3c984b8d	0.018590713
75	0x3d7b745d	0.06139027
76	0x3ca37f5f	0.019958196
77	0x3dd6b882	0.10484411
78	0x3b519a42	0.0031982814
79	0xbdffccbc	-0.12490222
80	0x3d64c278	0.055849522
81	0x3cc6c330	0.024262995
82	0xbd92549b	-0.071450435
83	0x3d766899	0.060158346
84	0xbdb26509	-0.08710677
85	0xbacaf912	-0.0015485606
86	0x3c257920	0.010099679
87	0x3d607520	0.0547992
88	0xb77c45d6	-1.503663e-05
89	0x3d2a6db6	0.041608535
90	0xbb5d5dc0	-0.0033777803
91	0x3d347fe2	0.04406727
92	0x3d8b791d	0.0681021
93	0x3dff5531	0.12467421
94	0x3c087581	0.008328796
95	0xbe12c17e	-0.14331624
96	0xbd140d2d	-0.036145378
97	0x3bdb25a6	0.0066878377
98	0x3d91fda4	0.07128456
99	0x3dac28a6	0.084061906
100	0xbbd30101	-0.0064393287
101	0xbd70cb5a	-0.05878768
102	0x3c9eda9b	0.019391349
103	0x3b8c1e2d	0.004276058
104	0xbd8912ba	-0.06693025
105	0xbd2bbde5	-0.041929144
106	0xbd165167	-0.036698725
107	0xbdaf5992	-0.08562006
108	0xbce3c248	-0.027802601
109	0x3dbc1c76	0.09185116
110	0x3d3a89c6	0.045541547
111	0xbdbd3768	-0.092390835
112	0xbd882515	-0.06647698
113	0xba65e458	-0.00087696826
114	0x3d37e021	0.04489148
115	0xbd0ad8f1	-0.033898298
116	0x3d63b497	0.055592146
117	0xbc6dd8d0	-0.014517024
118	0xbd0e8ecf	-0.03480416
119	0x3da8be8a	0.082394674
120	0x3dc8787f	0.09788608
121	0x3dcd0d35	0.10012285
122	0x3d84b400	0.06479645
123	0x3d828339	0.06372685
124	0xbd89b6eb	-0.06724342
125	0xbde48aec	-0.1115931
126	0x3d6ff276	0.05858084
127	0x3dd745df	0.10511374
128	0xbd5733db	-0.052539688
129	0xbd3554c8	-0.044270307
130	0x3d819507	0.06327253
131	0x3d41f862	0.047356017
132	0xbd1c885d	-0.038215984
133	0xbd23ee53	-0.040022206
134	0xbd75d28a	-0.06001524
135	0x3b26e00d	0.0025463135
136	0x3cead8f3	0.028667903
137	0xbdabf7c5	-0.08396868
138	0x3bbf5016	0.0058384044
139	0xbd521759	-0.051291797
140	0x3d9db17a	0.076998666
141	0xbd021df9	-0.031766865
142	0xbbf8267d	-0.0075729475
143	0x3dc5cc23	0.096580766
144	0x3d20a766	0.039222144
145	0xbd7d0935	-0.06177636
146	0x3d8d2450	0.06891692
147	0x3da5f82a	0.08103974
148	0xbc03f4e4	-0.008053992
149	0xbd52d97a	-0.051476933
150	0xb98bed0a	-0.00026688754
151	0x3daa820e	0.08325587
152	0x3d4ec663	0.050482165
153	0x3da184b7	0.078866415
154	0xbd669ae3	-0.056300055
155	0x3d804aa7	0.06264239
156	0x3dceb087	0.10092264
157	0xbd38d40b	-0.045124095
158	0xbd45e60b	-0.04831509
159	0xbcf85472	-0.030313704
160	0x3c6e236b	0.0145348115
161	0xbd6cf0ff	-0.05784702
162	0xbda9fd43	-0.08300259
163	0x3c6efc85	0.014586573
164	0xbb4a5f0b	-0.0030879404
165	0x3b540f2a	0.0032357671
166	0xbd94dd80	-0.0726881
167	0x3d49060a	0.049078025
168	0x3d0b744a	0.03404645
169	0xbd78a360	-0.06070268
170	0x3cb5c169	0.022186952
171	0x3daacb58	0.08339566
172	0xbd8fa7e1	-0.07014442
173	0x3d99903f	0.07498216
174	0xbd38cafb	-0.045115452
175	0xbd943f01	-0.072385795
176	0x3d9bb6b3	0.076032065
177	0x3c329f3c	0.010902222
178	0x3d084eee	0.0332784
179	0x3d9eb76a	0.07749827
180	0xbb9acdf8	-0.0047242604
181	0xbdf7c74c	-0.1209856
182	0x3d9eac14	0.07747665
183	0x3d810b5c	0.06300995
184	0x3d564eb5	0.052321155
185	0x3d8ce165	0.06878928
186	0x3d8bc8f0	0.06825435
187	0xbd0f3875	-0.03496595
188	0x3dcaf924	0.09910801
189	0x3d175fe8	0.036956698
190	0xbd6472f7	-0.0557737
191	0x3dde7701	0.10862542
192	0x3d051b79	0.032496903
193	0xbc302a65	-0.010752295
194	0xbd24ba21	-0.04021657
195	0x3d0126ec	0.03153126
196	0x3d65926b	0.05604784
197	0x3a9a7e41	0.0011786894
198	0xbd631a44	-0.05544497
199	0x3dad1710	0.084516644
200	0x3d473fdc	0.048644885
201	0xbd5e2fe4	-0.05424489
202	0x3d0ff1cb	0.0351427
203	0xbd1ad371	-0.037799302
204	0x3d88fff1	0.06689442
205	0x3c45f946	0.012083357
206	0x3d6188da	0.055062152
207	0xbbc7a6ed	-0.006092897
208	0xbd68a916	-0.056801878
209	0xbd4dd039	-0.050247405
210	0x3a61a500	0.0008607656
211	0xbb0e7589	-0.0021737537
212	0x3d4e84d8	0.05041966
213	0xbc80d136	-0.01572476
214	0x3d66838d	0.0562778
215	0xbb248d1d	-0.0025108524
216	0xbcb18147	-0.02166809
217	0xbcdc63c7	-0.026903046
218	0xbdaca927	-0.08430701
219	0x3b5c068e	0.0033573243
220	0x3d5e8616	0.054327093
221	0x3d83ee5c	0.06441948
222	0xbce6e28b	-0.028184196
223	0x3a6c5b37	0.00090162776
224	0xbcfb1c9d	-0.030653292
225	0xbce60941	-0.028080584
226	0x3d364236	0.044496737
227	0x3c544821	0.01295665
228	0xbda9b3b5	-0.082862295
229	0xbdd19984	-0.10234359
230	0x3d3b6c98	0.04575786
231	0x3e0423b4	0.12904245
232	0xbd85cb94	-0.0653297
233	0x3d1af89b	0.037834745
234	0xbcb138ac	-0.021633469
235	0xbd11d428	-0.03560272
236	0xbd7e9e0e	-0.06216245
237	0xbc85d6d1	-0.016337784
238	0x3d10ce78	0.035353154
239	0x3d8f4c34	0.069969565
240	0x3d86284d	0.065506555
241	0xbd4d69b7	-0.050149646
242	0xbd80ebc2	-0.06294967
243	0xbdaeb930	-0.085314155
244	0xbd87d490	-0.0663234
245	0xbd59f319	-0.05321035
246	0xbd928553	-0.07154336
247	0x3a693c7c	0.00088972575
248	0xbd908e1a	-0.07058354
249	0xbd99750d	-0.07493029
250	0x3d089a60	0.03335035
251	0xbc426cdc	-0.011866774
252	0x3d8e64d8	0.06952828
253	0xbd10aedb	-0.035323005
254	0xbd3a5e46	-0.045500062
255	0x3b21f506	0.0024712696

actor.linear1.bias f4 [128]
0	0x3dad70a2	0.08468749
1	0x3cd7b18e	0.026329782
2	0x3cc79fec	0.024368249
3	0x3d2e5764	0.04256381
4	0xbda1ebc7	-0.07906299
5	0x3c09512d	0.00838117
6	0x3d1ac947	0.03778961
7	0x3da17ec3	0.07885506
8	0x3db42a2e	0.08797108
9	0x3d210281	0.03930903
10	0xbd10f779	-0.03539226
11	0x3d4489a2	0.04798282
12	0x3dcd9764	0.10038641
13	0xbd2642d1	-0.040591065
14	0xbc0eb2c8	-0.008709617
15	0x3d26c2ca	0.04071311
16	0x3c836624	0.016039915
17	0xbd9ca99c	-0.07649538
18	0xbd03e033	-0.032196235
19	0xbca9d97c	-0.020733587
20	0xbd754958	-0.0598844
21	0x3d9d440d	0.07678995
22	0xbda27738	-0.079328954
23	0x3c2b3a15	0.01045086
24	0x3d57b735	0.052664954
25	0x3b673ddb	0.0035284671
26	0x3c3efbc4	0.011656705
27	0x3d4f2547	0.05057266
28	0x3dcba6b2	0.09943904
29	0xbc1bfbd7	-0.0095204925
30	0x3bca69dd	0.0061771707
31	0x3d8424e1	0.064523466
32	0x3d7b0005	0.061279316
33	0x3d361655	0.04445489
34	0x3d17ee28	0.037092358
35	0x3d8a62c9	0.06757123
36	0x3ddad4bd	0.10685108
37	0xbd6ef49d	-0.05833875
38	0xba5c3b80	-0.00084012
39	0x3cfb9dcb	0.03071489
40	0x3bce2d07	0.006291989
41	0x3d7fda69	0.06246415
42	0xbcca5a00	-0.024701118
43	0x3d23a2df	0.039950248
44	0x3cd645ae	0.026156273
45	0xbd173ca2	-0.03692306
46	0x3d6e038b	0.058108848
47	0xbd6fcf49	-0.058547292
48	0xbda7ab8c	-0.08187017
49	0x3d163607	0.03667262
50	0x3d1b9a3e	0.037988894
51	0x3d5e0be9	0.054210577
52	0xbd05f2e8	-0.032702357
53	0x3dc0ba0e	0.09410487
54	0x3c575799	0.0131434435
55	0x3d0dd690	0.03462845
56	0xbd820255	-0.06348101
57	0xbd8fd4dd	-0.07023022
58	0x3c8d00a7	0.017212225
59	0xbd804e4a	-0.062649325
60	0x3d93f3ed	0.072242595
61	0x3ba4d77b	0.00503057
62	0x3da2755f	0.07932543
63	0x3da498e8	0.08036977
64	0x3dad9244	0.084751636
65	0xbc8dc9a3	-0.017308062
66	0x3bc9bcb1	0.006156527
67	0xbca93bb6	-0.020658355
68	0xbda019d0	-0.07817423
69	0xbb5cde07	-0.0033701675
70	0xbd433d44	-0.04766585
71	0xbd9899f1	-0.07451237
72	0xbc43edc2	-0.011958541
73	0x3d62f2ec	0.05540745
74	0xbbba2e4c	-0.0056817885
75	0x3d125802	0.035728462
76	0x3db93864	0.09043959
77	0x3d96f4c4	0.07370904
78	0x3d8fcd2b	0.070215546
79	0xbc410531	-0.011781023
80	0xbd7a0441	-0.061039213
81	0x3d69ebda	0.05710969
82	0x3da61ccf	0.081109636
83	0xbd871968	-0.06596643
84	0xbd6c8d4c	-0.05775194
85	0xbd441220	-0.047868848
86	0xbc5b419e	-0.013382344
87	0xbd83d1bc	-0.06436488
88	0x3d100402	0.035160072
89	0xbd9c0540	-0.07618189
90	0x3cca9e52	0.024733696
91	0xbc778648	-0.015107699
92	0xbd869d5d	-0.065729834
93	0xbd878ed2	-0.06619038
94	0xbaf91625	-0.0019003792
95	0x3d11a1ec	0.03555481
96	0xbd76e5a6	-0.060277604
97	0xbd1ffa5d	-0.039057124
98	0x3dcd2a0a	0.10017784
99	0xbd81ff65	-0.06347541
100	0x3c860e15	0.016364137
101	0xbd2d3196	-0.042283617
102	0x3cfa1f3d	0.030532474
103	0xbb9ffcec	-0.0048824456
104	0xbd9af943	-0.07567074
105	0xbca0f9a0	-0.01965028
106	0x3d0d47c0	0.034492254
107	0x3ad4ea51	0.0016244148
108	0xbd2fa5d3	-0.04288275
109	0x3c2a3f08	0.010391004
110	0xbd1b42ef	-0.03790563
111	0xbd157e86	-0.036497615
112	0xbc52165f	-0.0128227165
113	0x3d206ded	0.039167333
114	0x3b2a0fb9	0.0025949313
115	0x3d8e14b9	0.06937546
116	0xbd957e98	-0.072995365
117	0xbc1dcf50	-0.009631947
118	0x3d51d835	0.05123158
119	0xbcfdbb42	-0.03097308
120	0x3da960db	0.08270427
121	0xba849401	-0.0010114909
122	0x3db5e6d2	0.08881916
123	0x3d84c152	0.064821854
124	0x3bbe1dc5	0.0058018886
125	0x3d019b51	0.031642262
126	0xbd94d828	-0.07267791
127	0xbced0f72	-0.028938029

actor.linear2.weight f4 [128, 128]
0	0xbdb6f5b1	-0.08933581
1	0x3bfa4ed3	0.007638791
2	0xbd0f3c61	-0.03496969
3	0x3d8f03b9	0.06983132
4	0xbdb00a2e	-0.085956916
5	0xbdaff481	-0.08591557
6	0x3ca596e6	0.020213556
7	0x3d129688	0.03578809
8	0x3caa8b79	0.020818459
9	0xbdad4048	-0.08459526
10	0xbcfcac89	-0.03084399
11	0xbd855ab0	-0.06511438
12	0x3da18a84	0.07887748
13	0x3ca8224d	0.020524168
14	0x3d54854c	0.051884934
15	0xbd2a865b	-0.041632038
16	0xbc949c85	-0.01814104
17	0xbd59eaa9	-0.053202305
18	0x3c5d057e	0.013490079
19	0x3dcc80aa	0.09985478
20	0x3d8db3ed	0.06919084
21	0xbd8c9c37	-0.06865733
22	0x3d103762	0.035209067
23	0x3da56a91	0.080769666
24	0xbd68b5dd	-0.056814063
25	0xbd81c205	-0.063358344
26	0x3ba1fb8b	0.0049433163
27	0x3da824de	0.08210157
28	0x3d88f6cf	0.066877
29	0xbd4142e0	-0.047182918
30	0x3c84ee3c	0.01622688
31	0xbd629022	-0.055313237
32	0xbd2a8562	-0.04163111
33	0xbd4661a9	-0.04843298
34	0xbd741757	-0.05959257
35	0xbd2b26c9	-0.041785035
36	0x3d1b1eac	0.037871048
37	0xbd3c0d9d	-0.04591142
38	0xbd912967	-0.07087975
39	0x3d54b612	0.05193145
40	0xbd13aad0	-0.03605157
41	0x3d7dbf10	0.06194979
42	0x3ce344c7	0.027742757
43	0x3d96b382	0.07358457
44	0x3d42a3ba	0.047519423
45	0xbb8c3452	-0.004278698
46	0x3dbda2ca	0.09259565
47	0x3d832437	0.06403392
48	0xbceb79ca	-0.028744597
49	0xbd31e27d	-0.043428887
50	0xbd7efcc3	-0.06225277
51	0xbd0aaa05	-0.03385355
52	0x3c88f608	0.01671888
53	0xbc23d6cb	-0.009999941
54	0xbbfc899d	-0.0077068345
55	0xbcc99e13	-0.024611508
56	0x3d49feb5	0.049315173
57	0xbc0ed78a	-0.008718381
58	0x3d0b8361	0.03406084
59	0x3d025542	0.03181959
60	0xbce0ef40	-0.027457833
61	0x3d83f677	0.06443494
62	0xbd7b48c2	-0.061348684
63	0xbd87ab6a	-0.066244915
64	0xbd14b190	-0.03630215
65	0xbb0093e9	-0.0019619411
66	0x3dc8467a	0.09779067
67	0x3c2a5a5e	0.010397522
68	0x3d7bec20	0.061504483
69	0x3d1f47cd	0.038886834
70	0xbd9018f6	-0.07036011
71	0x3d9e30c2	0.077241436
72	0x3d96c015	0.073608555
73	0x3bb18c1b	0.005418313
74	0x3d0430a4	0.03227295
75	0xbaf4ba22	-0.0018671195
76	0x3cfc3d40	0.030790925
77	0xbcf0325a	-0.029320884
78	0x3d93710e	0.07199298
79	0xbd948723	-0.07252338
80	0x3baf0a21	0.0053417836
81	0xbd16b3f9	-0.03679273
82	0x3c8d2da9	0.017233687
83	0xbd4d9248	-0.050188333
84	0xbd6cdd18	-0.05782804
85	0x3d0fe90f	0.03513437
86	0xbd7b85eb	-0.06140701
87	0xbd143f30	-0.036193073
88	0x39e41a22	0.0004350702
89	0x3c1cbc47	0.009566373
90	0xbd5fbc1a	-0.054622747
91	0xbc8f5aaf	-0.017499296
92	0xbd388f45	-0.045058507
93	0x3d416dd8	0.047223896
94	0x3ce73152	0.02822176
95	0x3b9571bb	0.004560677
96	0x3c7aff76	0.015319696
97	0x3d2ac570	0.041692197
98	0xbd9bcd46	-0.07607512
99	0xbbeb8a35	-0.0071881064
100	0x3da5c609	0.08094413
101	0xbd861d10	-0.06548512
102	0xbdb24a9b	-0.08705636
103	0x3d87b495	0.0662624
104	0xbd7349d6	-0.059396587
105	0xbd85c841	-0.06532336
106	0x3d8b4202	0.06799699
107	0x3b97d2c3	0.004633279
108	0xbdc8b47e	-0.09800051
109	0x3da1ab95	0.07894055
110	0xbc169552	-0.009190874
111	0x3d29ac8e	0.041424327
112	0xbce50707	-0.027957452
113	0xbd2c0037	-0.041992392
114	0x3d0a23a1	0.033725385
115	0xbc020f39	-0.0079382
116	0x3c805962	0.015667621
117	0xbd9673fd	-0.07346342
118	0x3db12883	0.08650305
119	0x3d89d9e2	0.06731011
120	0x3da781c6	0.08179049
121	0x3dab4efc	0.083646744
122	0xbcfcac02	-0.030843738
123	0xba17e316	-0.00057940313
124	0x3d8136db	0.06309291
125	0xbc1a6f1d	-0.0094259055
126	0xbd947496	-0.072487995
127	0xbc852317	-0.016252084
128	0x3dcdad04	0.10042766
129	0xbcab98a7	-0.020946814
130	0xbd716a95	-0.058939535
131	0x3c832c87	0.016012443
132	0x3d9c2927	0.07625037
133	0x3d84c59a	0.06483002
134	0x3ba41692	0.0050075734
135	0x3d10d480	0.035358906
136	0x3ca78a31	0.020451637
137	0x3d2ac730	0.041693866
138	0xbd816668	-0.063183606
139	0x3c6c3b82	0.014418485
140	0xbcef30ae	-0.029198017
141	0x3ccf270c	0.025287174
142	0xbd0167b7	-0.03159305
143	0x3d50637c	0.050876126
144	0xbdacb449	-0.08432824
145	0xbdd6642e	-0.104683265
146	0x3d4b8f5c	0.049697265
147	0xbd3eab6c	-0.0465502
148	0xbd994ec4	-0.074857265
149	0x3d3b4cfb	0.04572771
150	0x3dba09a5	0.09083871
151	0x3a7dd260	0.00096825324
152	0xbd8f3479	-0.0699243
153	0xbd1c769c	-0.038199052
154	0x3d746c16	0.05967339
155	0x3d588420	0.05286038
156	0x3d71e595	0.059056837
157	0x3cc1b3d0	0.023645312
158	0x3d8bc3f9	0.06824488
159	0x3da5d7a6	0.08097772
160	0xbdaaa741	-0.083326824
161	0xbdb9b10a	-0.09066971
162	0xbc8ee5a0	-0.017443478
163	0x3b29fdd6	0.0025938652
164	0xbd8a37ad	-0.067489006
165	0x3bd790fe	0.0065785637
166	0x3da5b63b	0.08091398
167	0xbbd1008a	-0.006378238
168	0xb9ccbe05	-0.00039051488
169	0xbae92755	-0.0017788211
170	0x3d747cde	0.059689395
171	0xbda2a5ee	-0.07941805
172	0x3c8a7e2c	0.016905867
173	0xbd16ba62	-0.036798842
174	0x3d9f2bbf	0.07772016
175	0xbd98de31	-0.07464255
176	0xbc5ed137	-0.013599685
177	0x3d8af485	0.0678492
178	0x3d5bee35	0.05369397
179	0x3d330d18	0.04371366
180	0x3d3206b0	0.04346341
181	0x3ca7f777	0.020503743
182	0xbd5699cb	-0.052392762
183	0xbd9f10a3	-0.07766845
184	0x3c17fd60	0.009276718
185	0xbd38c53e	-0.04510998
186	0xbcb0f00a	-0.021598835
187	0x3dbb22ad	0.09137473
188	0xbce8ca78	-0.028416857
189	0x3d62ff87	0.05541947
190	0x3d606b3f	0.054789778
191	0x3b9ade08	0.004726175
192	0x3d7515d7	0.05983528
193	0x3d25e76a	0.040503897
194	0x3d43fbea	0.047847666
195	0xbbc370a6	-0.0059643565
196	0xbc288b83	-0.010287168
197	0xbd39c352	-0.045352288
198	0x3d8dc643	0.06922581
199	0x3d6a5ffb	0.05722044
200	0x3d502691	0.05081803
201	0x3d77f92a	0.060540356
202	0xbd910a71	-0.0708207
203	0xbda1164a	-0.078655794
204	0x3db244ca	0.08704527
205	0x3c8c539c	0.017129712
206	0x3ca44cf4	0.020056225
207	0x3d004b36	0.031321727
208	0x3d392d86	0.04520943
209	0xbc3a6fd6	-0.011379203
210	0xbc9fe693	-0.019519126
211	0x3d811f75	0.06304828
212	0xbc90f8a3	-0.017696684
213	0x3d9c3dcd	0.07628975
214	0x3d19956e	0.037496023
215	0x3b19aa28	0.0023447368
216	0x38f43f5c	0.00011646628
217	0x3d805527	0.062662415
218	0xbc3b1620	-0.011418849
219	0xbc9fd0d2	-0.019508753
220	0x3dd0ee43	0.10201695
221	0x3dd1e741	0.10249186
222	0x3dad34b4	0.08457318
223	0xbd8b7203	-0.068088554
224	0xbc9aacaf	-0.01888117
225	0x3c9dc03d	0.019256705
226	0xbc3a00c6	-0.011352723
227	0x3c9e417d	0.019318337
228	0xbd049da5	-0.032376904
229	0xbd82f632	-0.06394614
230	0x3d8700d9	0.065919586
231	0x3d8fa6d4	0.07014242
232	0x3d8c0baa	0.06838162
233	0xbd96350e	-0.07334338
234	0xbcb07c90	-0.021543771
235	0xbc8d70ef	-0.017265765
236	0x3d325da7	0.043546345
237	0x3c1e2a9e	0.009653715
238	0x3d32e13a	0.043671824
239	0x3cfb848d	0.030702854
240	0xbda50fed	-0.08059678
241	0x3d675b2b	0.05648343
242	0xbc4542c2	-0.012039842
243	0xbd859485	-0.065224685
244	0x3dbee760	0.09321475
245	0x3da14c89	0.07875926
246	0xbdc4c7c9	-0.096084185
247	0x3bb2819c	0.0054475795
248	0xbd752f3f	-0.05985951
249	0x3d198247	0.037477758
250	0x3d4ab210	0.04948622
251	0xbd7413bf	-0.059589144
252	0x3cee912a	0.029121954
253	0xbc4ca410	-0.012490287
254	0x3dcb1735	0.09916536
255	0x3d2af469	0.041736994

actor.linear2.bias f4 [128]
0	0x3d692c37	0.056926932
1	0xbd2e0cd9	-0.04249272
2	0xbd2ed338	-0.042681903
3	0xbd0a03e6	-0.033695124
4	0x3c251d34	0.010077763
5	0xbae1d795	-0.0017230386
6	0x3d21bb41	0.03948522
7	0x3caf8d94	0.021429814
8	0xbda76c41	-0.08174945
9	0xbb849ecd	-0.004047251
10	0xbd8cad79	-0.06869025
11	0xbd88df49	-0.06683213
12	0xbd9cf414	-0.07663742
13	0x3d1ffb09	0.039057765
14	0x3d375468	0.04475823
15	0x3db4a1c7	0.08819919
16	0xbd500dfb	-0.050794583
17	0xbc4781bd	-0.012176928
18	0xbd77029f	-0.060305234
19	0x3d33f29d	0.043932546
20	0x3da79a15	0.08183686
21	0x3c92091d	0.017826611
22	0xbd95f656	-0.073223755
23	0xbb71df91	-0.0036906938
24	0x3d6e0c91	0.058117453
25	0xbd536a1e	-0.051614873
26	0xbccfc6f3	-0.025363421
27	0x3d87ab5d	0.06624482
28	0xbd6df198	-0.05809173
29	0xbd4f15ba	-0.05055783
30	0x3d5f7a4d	0.054559994
31	0x3d51f80b	0.051261943
32	0x3d0612cb	0.032732766
33	0x3d546193	0.051850867
34	0xbd707e88	-0.05871442
35	0x3c82e06c	0.015976153
36	0x3d5a422f	0.053285774
37	0xbd112e9c	-0.03544484
38	0x3dad72c9	0.08469159
39	0x3d371386	0.044696353
40	0xbcb1259a	-0.021624375
41	0x3c77ebe5	0.015131925
42	0xb9b8cb4c	-0.00035246683
43	0xba874d55	-0.0010322729
44	0xbd6973ce	-0.056995206
45	0x3beb5e01	0.007182837
46	0xbcc1127a	-0.02356838
47	0x3d7be140	0.061494112
48	0x3da9192a	0.08256753
49	0xbd93e0c0	-0.07220602
50	0x3d72d9ac	0.05928962
51	0x3d14eab0	0.036356628
52	0x3dbf69cd	0.09346352
53	0xbcc1c75e	-0.023654636
54	0xbd505705	-0.05086424
55	0xbd1edd75	-0.038785417
56	0x3d9547ff	0.07289123
57	0x3c132951	0.008982019
58	0xbda214d5	-0.0791413
59	0x3cc93135	0.024559597
60	0xbc25e64a	-0.010125706
61	0xbd692736	-0.05692216
62	0xbbb9900a	-0.0056629227
63	0x3da30d1d	0.079614855
64	0xbd7ef35b	-0.0622438
65	0x3db04983	0.08607771
66	0x3d277e3c	0.04089187
67	0x3da62b6f	0.08113753
68	0xbd41049c	-0.047123536
69	0x3c8403a2	0.016115014
70	0x3c8058e1	0.01566738
71	0xbc043034	-0.008068133
72	0xbd1ebf4c	-0.038756654
73	0x3ceee111	0.029160054
74	0xbc5aa37c	-0.013344642
75	0x3d18efba	0.037337996
76	0x3bd67cc9	0.0065456373
77	0xbc140717	-0.0090348935
78	0xbd893ba1	-0.067008264
79	0xbc004821	-0.007829697
80	0x3d8b931f	0.068151705
81	0xbb3cc3db	-0.0028803262
82	0x3dab3b84	0.08360961
83	0x3c87dc05	0.016584406
84	0xbd4c5e3b	-0.049894553
85	0x3b71b5c0	0.0036882013
86	0x3c30ea7d	0.010798094
87	0x3d404686	0.046942256
88	0xbcec46b2	-0.028842304
89	0x3d9b41ad	0.07580886
90	0xbd040be5	-0.032237906
91	0x3d49d85e	0.04927861
92	0xbc584a75	-0.013201346
93	0xbc6fa48d	-0.014626634
94	0x3dc0ae1c	0.09408209
95	0xbcf6062a	-0.030032236
96	0x3cce3c8a	0.025175352
97	0x3d86793e	0.06566094
98	0xbcd90922	-0.026493613
99	0xbd43965e	-0.047750823
100	0xbd4540aa	-0.04815737
101	0x3dabc555	0.083872475
102	0x3d003a48	0.03130558
103	0x3da9a377	0.082831316
104	0x3d71c553	0.059026074
105	0xbcee3fa0	-0.029083073
106	0x3d164805	0.036689777
107	0x3d8770e3	0.06613328
108	0x3d69f5f9	0.057119343
109	0x3a7641b0	0.00093939435
110	0x3d8a237b	0.067450486
111	0x3d8d5be9	0.06902296
112	0x3db08c96	0.08620565
113	0xbd36d3fa	-0.04463575
114	0x3dc69025	0.09695462
115	0xbd4119d2	-0.047143765
116	0xbd348e1a	-0.04408083
117	0x3c7734af	0.015088244
118	0xbd03484c	-0.03205137
119	0x3b8923d8	0.004185181
120	0xbd8a4e9e	-0.06753276
121	0xbd2e8689	-0.04260877
122	0xbd633a0b	-0.055475276
123	0x3d1843e8	0.037174135
124	0xbcf6c229	-0.03012188
125	0xbd0680c9	-0.032837663
126	0x3d4cc2b3	0.049990367
127	0x3d8f0b33	0.06984558

actor.linear3.weight f4 [128, 128]
0	0xbd9ae968	-0.0756405
1	0xbd967567	-0.073466115
2	0xbc74e1b6	-0.014946392
3	0xbcef3bf0	-0.029203385
4	0x3c555a82	0.013022067
5	0x3d37e2ca	0.044894017
6	0xbd51f070	-0.05125469
7	0x3daefc8d	0.08544264
8	0xbd8ed784	-0.069747
9	0x3d99d85d	0.07511971
10	0x3d11216b	0.03543226
11	0xbd3e7f95	-0.04650839
12	0xbc4cc363	-0.012497756
13	0xbd61b4c9	-0.05510405
14	0xbdbd1786	-0.09233002
15	0xbd9c3ff8	-0.076293886
16	0xbd1d4c49	-0.03840283
17	0x3d82b213	0.06381621
18	0x3d33f280	0.043932438
19	0xbca65342	-0.020303372
20	0xbda130ad	-0.07870612
21	0x3d1b2a4c	0.037882134
22	0x3db0e9ed	0.08638368
23	0x3c84ba9d	0.016202265
24	0x3d3ac959	0.045602176
25	0xbd4852b1	-0.048906986
26	0x3d3144c3	0.043278467
27	0xbd9776ea	-0.07395728
28	0x3d701b72	0.058619924
29	0xbb5246c9	-0.0032085648
30	0x3d20af40	0.03922963
31	0xbd96a1b2	-0.0735506
32	0x3ccdb498	0.025110528
33	0x3b2d00cc	0.002639818
34	0xbb44bec5	-0.0030020934
35	0x3c7fe9c9	0.015619704
36	0x3d9e8974	0.07741061
37	0xbd0d696c	-0.034524366
38	0x3d8d566c	0.06901249
39	0xbcac8e94	-0.02106408
40	0x3d0a2e0c	0.03373532
41	0x3d84efc6	0.06491046
42	0x3d20a53b	0.039220076
43	0x3c88ed77	0.016714795
44	0x3d3a4f6a	0.04548589
45	0x3dae62bd	0.085149266
46	0x3d4879fb	0.048944455
47	0x3daa2fb8	0.08309883
48	0xbd864517	-0.065561466
49	0x3cf1f9de	0.029538091
50	0x3ddee6e7	0.10883885
51	0xbd3b2624	-0.04569067
52	0x3d91c56b	0.071177326
53	0x3d0b08de	0.033944003
54	0x3d622b1d	0.055216897
55	0xba8a4ea6	-0.0010552004
56	0xbdb24627	-0.08704787
57	0x3ddddea6	0.108334824
58	0xbd9201b0	-0.07129228
59	0xbd802f08	-0.062589705
60	0xbcda0e5f	-0.02661818
61	0x3d947185	0.07248215
62	0x3d8375f8	0.06418985
63	0x3d4cda28	0.050012738
64	0xbdb1c4d0	-0.08680117
65	0x3d9d305d	0.0767524
66	0x3a5930c2	0.00082851585
67	0xbd017174	-0.031602338
68	0xbd6194ad	-0.05507343
69	0x3c860442	0.016359452
70	0xbb6ccfc3	-0.0036134578
71	0xbc980ddc	-0.018561296
72	0xbd644f72	-0.055739827
73	0x3d1e574b	0.038657468
74	0xbd3e4d2d	-0.04646032
75	0xbd197e52	-0.037473984
76	0x3d1767f5	0.036964376
77	0x3d86eb48	0.06587845
78	0x3dd720cb	0.10504302
79	0xbccdbdc6	-0.025114905
80	0xbd637674	-0.055532888
81	0x3d896b58	0.06709927
82	0x3d84a2c0	0.064763546
83	0xbb968078	-0.0045929514
84	0xbda2d0ed	-0.07950006
85	0xbcfda66a	-0.030963141
86	0x3ca17d0e	0.019712951
87	0x3d7389c0	0.05945754
88	0xbd7242d1	-0.059145752
89	0x3d129952	0.03579075
90	0xbc9bf54c	-0.019037865
91	0x3d6f199b	0.05837403
92	0xbd96731b	-0.073461734
93	0xbd190aae	-0.0373637
94	0x3d40a2f5	0.047030408
95	0xbc58ac68	-0.013224699
96	0x3d553b03	0.05205823
97	0x3da180ac	0.0788587
98	0x3d806302	0.06268884
99	0xbbfd7f57	-0.0077361274
100	0xbd208a3b	-0.039194327
101	0xbd7d1243	-0.061784994
102	0x3d4e022e	0.050295047
103	0x3d6d3d34	0.057919696
104	0xbcc250d8	-0.02372019
105	0x3c6649ab	0.01405565
106	0xbd166786	-0.03671982
107	0xbdb79c1b	-0.08965322
108	0x3cdc1244	0.026864178
109	0x3a8deb83	0.0010827634
110	0xbb8f007e	-0.0043640723
111	0x3dd081ce	0.10181008
112	0xbcd6267b	-0.026141396
113	0x3dbdaa4d	0.09260998
114	0x3cfae189	0.030625122
115	0xbdbda242	-0.09259464
116	0x3c5a4753	0.013322669
117	0x3c43db90	0.011954203
118	0xbd840058	-0.06445378
119	0x3d7febed	0.062480856
120	0x3dc9fbdf	0.09862494
121	0x3da40e91	0.08010591
122	0x3d8fc315	0.07019631
123	0x3d4a149a	0.049336053
124	0xbce3206c	-0.02772542
125	0xba36986d	-0.0006965462
126	0xbd1d2227	-0.03836265
127	0x3d0f3c55	0.034969646
128	0x3d4f70bd	0.050644625
129	0x3a0cefab	0.00053762895
130	0xbc0cc245	-0.008591239
131	0xbd06077c	-0.03272198
132	0xbd979bad	-0.0740274
133	0x3d77ed57	0.06052908
134	0x3d7f40f6	0.06231781
135	0xbb0476a7	-0.0020212324
136	0x3d35d8c7	0.044396188
137	0xbb06d7b1	-0.002057534
138	0x3daf20ae	0.08551155
139	0x3d99ff0d	0.0751935
140	0xbdb97381	-0.09055234
141	0x3dc28ac4	0.09499124
142	0x3d834993	0.064105175
143	0xbcab1f46	-0.020888936
144	0xbd83276e	-0.06404005
145	0x3c665060	0.014057249
146	0x3d8c23bb	0.068427525
147	0xbda59f59	-0.08087034
148	0x3afdce9e	0.0019363945
149	0xbdde140b	-0.10843667
150	0x3cc8cf8a	0.024513025
151	0xbd0389d4	-0.032113865
152	0x3d5cd4d7	0.053913917
153	0x3d1036f6	0.035208665
154	0x3daf876f	0.08570754
155	0xbc383bad	-0.011244697
156	0x3da6a804	0.08137515
157	0x3d221042	0.039566286
158	0xbad5f5fe	-0.0016323922
159	0x3db9151b	0.09037229
160	0x3d963034	0.07333413
161	0x3d961030	0.07327306
162	0xbd2ece16	-0.042677008
163	0x3d6f405c	0.058410987
164	0x3bde9264	0.0067923535
165	0xbd82eabd	-0.06392429
166	0x3d8ad6fc	0.06779286
167	0xbd68e7fb	-0.05686186
168	0xbd0cc52c	-0.034367725
169	0x3d507650	0.05089408
170	0xbd4ad7b1	-0.049522106
171	0x3daecdc6	0.08535342
172	0xbd1ec7a6	-0.03876462
173	0x3d0b791b	0.034051042
174	0xbb92e43a	-0.004482773
175	0x3d5250a2	0.05134643
176	0x3c880ad2	0.016606722
177	0xbd910ddd	-0.07082722
178	0x3d443437	0.04790136
179	0x3d6cde87	0.057829406
180	0xbdaf4f9b	-0.085601054
181	0xbac12fa4	-0.001473893
182	0x3d026766	0.03183689
183	0xbd67b661	-0.056570414
184	0x3d2c2921	0.04203141
185	0x3dee709b	0.116425715
186	0x3c0fe4a1	0.008782537
187	0x3b970437	0.0046086567
188	0x3d9b31d1	0.07577861
189	0x3d22e447	0.039768483
190	0x3d5da552	0.05411274
191	0xbdb5e58f	-0.088816755
192	0x3cca82cd	0.024720574
193	0xbd8e4594	-0.06946865
194	0xbd9a9a1e	-0.07548927
195	0xbda8a5df	-0.082347624
196	0xbd2ad936	-0.041711055
197	0xbcde8282	-0.02716184
198	0xbd4201a0	-0.04736483
199	0xbd68ff2a	-0.05688397
200	0x3b682c17	0.003542667
201	0x3db1e4b8	0.08686203
202	0xbb07fabe	-0.002074882
203	0x3c74be7c	0.014937993
204	0xbd60e171	-0.054902498
205	0x3c30be93	0.010787624
206	0x3d647ac8	0.055781156
207	0xbd9152f1	-0.07095898
208	0xbc057ba1	-0.008147151
209	0x3d22b06a	0.039719023
210	0x3c863698	0.016383454
211	0x3c609690	0.013707772
212	0x3ccee152	0.025253925
213	0xbd26c271	-0.040712778
214	0xbc55f7c3	-0.013059559
215	0x3d314063	0.043274295
216	0xbd9c1174	-0.076205164
217	0x3cf8dbc2	0.030378226
218	0x3d55584a	0.052086152
219	0x3a05c091	0.0005102242
220	0x3c991d9d	0.018690879
221	0x3cd80c06	0.02637292
222	0xbc993309	-0.018701093
223	0xbd24a5ae	-0.040197067
224	0xbd5f2fde	-0.05448901
225	0x3db74a08	0.08949667
226	0xbcfde85e	-0.03099459
227	0x3db6ff95	0.08935467
228	0x3ca1ffca	0.01977529
229	0xbd2114f7	-0.039326634
230	0x3cee9275	0.02912257
231	0xbcd9f88d	-0.026607776
232	0x3de89dd3	0.113582276
233	0x3d67877c	0.056525692
234	0x3da13a67	0.078724675
235	0x3ba86709	0.005139236
236	0x3d23d3c5	0.03999688
237	0xbdbf9f9b	-0.09356614
238	0x3d670dca	0.056409635
239	0x3ddfbf7a	0.10925193
240	0xbd8f5332	-0.0699829
241	0x3da6e789	0.081496306
242	0x3c0ab580	0.008466125
243	0xbc91eab0	-0.017812103
244	0x3d9e266d	0.07722173
245	0x3cca292c	0.024677835
246	0xbde42a24	-0.1114085
247	0xbdb6b0d3	-0.08920445
248	0xbd4fd395	-0.05073889
249	0x3c1b60e6	0.009483552
250	0xbdb24232	-0.08704032
251	0xbdb59654	-0.088665634
252	0x3b5e28c7	0.0033898817
253	0xbb6d063a	-0.0036167041
254	0x3cd2bef7	0.025725825
255	0xbd914469	-0.07093126

actor.linear3.bias f4 [128]
0	0xbc73554f	-0.014851882
1	0x3dc169ed	0.09444032
2	0xbd316a4d	-0.043314267
3	0xbd9a0308	-0.075201094
4	0xbd68fbeb	-0.056880873
5	0x3d818572	0.06324281
6	0x3cf38bf1	0.029729815
7	0xbd40301d	-0.046920884
8	0xbc183d77	-0.009291998
9	0x3dae7b4d	0.085196115
10	0xbd802fac	-0.06259093
11	0x3d9f8f8a	0.0779105
12	0x3d8580f6	0.06518738
13	0x3d96bbed	0.07360063
14	0x3d44bbec	0.04803078
15	0xbd675243	-0.056474935
16	0x3cb8d68e	0.022563245
17	0x3db82d2c	0.08992991
18	0x3d784821	0.060615662
19	0x3ce9607c	0.02848839
20	0x3c668930	0.014070794
21	0x3a3ed510	0.00072796736
22	0xbc8f406d	-0.017486775
23	0xbca121f6	-0.019669514
24	0xbd22fc94	-0.03979166
25	0x3dbdef70	0.09274185
26	0xbd2b5e77	-0.041838136
27	0x3cff0acf	0.031133084
28	0xbd5fb42a	-0.054615177
29	0x3d0fd541	0.035115484
30	0x3bf73a7f	0.007544815
31	0x3c783c57	0.015151105
32	0x3da1b89d	0.0789654
33	0xbd11009e	-0.03540098
34	0x3d5ca2e8	0.053866297
35	0xbdb4f068	-0.08834916
36	0xbc0b8bba	-0.0085172
37	0xbda5cdcf	-0.080958955
38	0x3ce7f66a	0.028315742
39	0xbd843fb3	-0.06457462
40	0xbd72b4a3	-0.0592543
41	0x3d73adb7	0.05949184
42	0x3d01746d	0.031605173
43	0x3d44e6b5	0.048071582
44	0xbd7dd2d9	-0.061968658
45	0xbab9bab6	-0.0014170024
46	0x3c850b86	0.016240846
47	0x3dc6274d	0.09675465
48	0xbbb91749	-0.0056485278
49	0x3c87a016	0.016555827
50	0x3d87d963	0.0663326
51	0x3cec3c01	0.028837206
52	0xbc3fb9f4	-0.0117020495
53	0xbda9cb60	-0.08290744
54	0xbd8f7641	-0.07004977
55	0x3d7a784b	0.061149877
56	0x3cfac631	0.030612083
57	0xbcc16b8f	-0.023610858
58	0x3b31820a	0.0027085566
59	0x3d0371f9	0.032091115
60	0x3c279f73	0.010230887
61	0xbb5a02fe	-0.0033265944
62	0x3d733372	0.059375234
63	0x3bfd58a7	0.0077315154
64	0xbd02d7ce	-0.03194409
65	0xbcb52e0e	-0.022116687
66	0x3d6ec239	0.058290694
67	0xbdb5fe63	-0.08886411
68	0xbd654e2e	-0.05598276
69	0x3d98e052	0.07464661
70	0x3d8c3558	0.06846112
71	0xbd8bec19	-0.068321414
72	0x3d526306	0.051363967
73	0xbd824e69	-0.06362612
74	0xba8a0db0	-0.0010532644
75	0x3ca72098	0.020401284
76	0xbc2678ff	-0.010160684
77	0xbc83bd64	-0.01608152
78	0xbd9a2d19	-0.07528133
79	0x3dc1d948	0.09465271
80	0x3daae3cd	0.08344231
81	0xbda30038	-0.07959026
82	0x3b89ae3d	0.004201679
83	0x3cf4a436	0.029863458
84	0x3b84af81	0.004049242
85	0xbc2bd27e	-0.010487197
86	0x3bee7b3a	0.0072778733
87	0xbd8e9348	-0.069616854
88	0xbd7f4799	-0.06232414
89	0xbd048ea1	-0.032362584
90	0xbbeca8f8	-0.007222291
91	0x3d603e45	0.054746885
92	0x3b1bf7f4	0.0023798915
93	0x3d2d9985	0.042382736
94	0x3cfb48ca	0.030674357
95	0x3cdb0dea	0.026740033
96	0xbc42622d	-0.011864227
97	0x3daf3a2a	0.08556016
98	0x3d0c2d14	0.034222677
99	0xbd31ddc1	-0.04342437
100	0x3c81a413	0.015825307
101	0xbc923a0a	-0.01784994
102	0x3ce7e909	0.028309362
103	0x3d9b1ada	0.07573481
104	0x3d9a7685	0.07542137
105	0x3d13ccad	0.036083866
106	0xbd41a94d	-0.0472806
107	0xbcecb596	-0.02889518
108	0x3dc97da8	0.0983842
109	0x3a9c7874	0.0011937753
110	0x3db2b8a7	0.08726626
111	0xbd8c6fd2	-0.068572655
112	0x3d2112b9	0.039324496
113	0x3cff416a	0.031159122
114	0xbd9218f4	-0.07133666
115	0xbd46f9eb	-0.048578184
116	0xbd50cc98	-0.050976366
117	0xbd82ab6a	-0.06380351
118	0x3d83cdbe	0.064357266
119	0x3da7110d	0.08157549
120	0x3d63a3d9	0.05557618
121	0x3db1e897	0.08686941
122	0x3d90c31d	0.07068465
123	0xbc6c4a3d	-0.014421997
124	0x3cfb996e	0.03071281
125	0x3ab7968e	0.0014006661
126	0x3dbc7fd3	0.09204068
127	0xbd8209dc	-0.06349537

actor.linear4.weight f4 [9, 128]
0	0x3d0e5992	0.03475339
1	0x3cb39ac5	0.021924386
2	0xbc79ce71	-0.015246973
3	0xbdaf45b9	-0.085582204
4	0xbd638b5a	-0.055552818
5	0xbcf2b16a	-0.029625613
6	0x3cf8dc30	0.030378431
7	0xbd8c6c3d	-0.06856582
8	0x3d4ad64c	0.049520776
9	0xbcc8faa5	-0.02453358
10	0xbc4f3a5a	-0.012648189
11	0x3d45a74d	0.048255254
12	0xbc3e013f	-0.011596977
13	0xbd300b66	-0.04297962
14	0x3d84e6be	0.06489323
15	0x3d416238	0.04721281
16	0x3d3248b6	0.043526374
17	0x3c807e92	0.015685353
18	0x3d5405ad	0.051763225
19	0x3d87405e	0.06604074
20	0xbd8cff81	-0.06884671
21	0xbd806fd0	-0.062713265
22	0xbd92f27c	-0.071751565
23	0xbcdd9b9c	-0.02705174
24	0xbdaaf908	-0.0834828
25	0xbb393fbb	-0.0028266746
26	0x3c6b9b8f	0.01438035
27	0xbc4da5d2	-0.012551742
28	0xbda8baeb	-0.08238777
29	0x3daea5d3	0.08527722
30	0xbd6ba5d1	-0.05753118
31	0x3ca2dfaf	0.019882051
32	0xbd276abe	-0.04087328
33	0xbd8ecaa2	-0.06972243
34	0xbbbc439e	-0.0057453653
35	0xbd5fa694	-0.05460222
36	0x3c9f83ff	0.01947212
37	0xbc9b411f	-0.01895195
38	0x3d88b12c	0.06674418
39	0xbd7af66d	-0.061270166
40	0xbd3dc3d7	-0.046329346
41	0xbd45fedd	-0.04833876
42	0xbd643327	-0.055712845
43	0xbd3e05d0	-0.046392262
44	0x3d7fb03f	0.06242394
45	0x3d3a59ce	0.0454958
46	0xbd4946ed	-0.049139906
47	0xbcf7e7e9	-0.03026195
48	0x3d29babd	0.041437853
49	0x3d87c4f7	0.06629365
50	0xbc7f7a97	-0.015593193
51	0xbd81e46c	-0.06342396
52	0xbd97c25a	-0.074101165
53	0xbda0afe0	-0.078460455
54	0x3d25e77d	0.040503968
55	0xbdb0e6a5	-0.08637742
56	0xbce70bb4	-0.028203823
57	0x3d4e25ab	0.05032889
58	0x3dabe8e3	0.08394029
59	0x3bd2f9ea	0.0064384835
60	0xbd60bfbb	-0.05487035
61	0xbd965353	-0.073401116
62	0xbd1c9236	-0.038225375
63	0x3d717e7a	0.058958508
64	0xbd58f08c	-0.05296378
65	0x3d8f8519	0.07007808
66	0x3c2215fe	0.009892939
67	0x3d99189f	0.07475399
68	0xbcc50356	-0.024049442
69	0x3da9380e	0.08262645
70	0x3d1e4c27	0.038646843
71	0xbd319c26	-0.043361805
72	0x3ce7ac68	0.028280452
73	0xbd36b68b	-0.04460768
74	0xbca53d21	-0.02017075
75	0x3da7b963	0.081896566
76	0x3d923675	0.07139293
77	0x3c922271	0.017838689
78	0x3d9553fe	0.07291411
79	0x3da9355a	0.08262129
80	0x3d2202b4	0.03955336
81	0x3cd13636	0.025538545
82	0x3c22c6f9	0.009935134
83	0x3bfc9e9e	0.0077093383
84	0x3d22f913	0.039788317
85	0x3c9200b5	0.017822603
86	0x3b1e3f63	0.0024146668
87	0x3da6ba56	0.081410095
88	0x3c647c22	0.013945611
89	0x3d9c7ea6	0.07641344
90	0x3d4039e8	0.046930224
91	0xbd60c18c	-0.05487208
92	0x3d288301	0.04114056
93	0xbb7becc8	-0.0038440693
94	0xbdb51439	-0.08841748
95	0x3d67a86d	0.056557108
96	0x3b51b614	0.0031999396
97	0xbce30f35	-0.027717212
98	0x3da2df0c	0.07952699
99	0x3d1af825	0.037834305
100	0xbdb7e036	-0.08978312
101	0xbd5d3d5b	-0.05401359
102	0x3d8713b2	0.065955535
103	0xbb09e36a	-0.002104009
104	0xbd52b61b	-0.0514432
105	0x3d8b6758	0.06806821
106	0xbda62c7f	-0.08113956
107	0xbd7bbf17	-0.061461534
108	0xbd23e4bf	-0.04001307
109	0xbc76692e	-0.015039725
110	0x3db7e027	0.089783005
111	0x3d25ae5b	0.04044948
112	0xbd28d5a6	-0.041219376
113	0xbbbd03eb	-0.0057682893
114	0xbd7ad6c8	-0.061239988
115	0x3d8ef404	0.06980136
116	0x3d8e2b63	0.06941869
117	0x3da5ce36	0.08095972
118	0xbd4b5be7	-0.04964819
119	0xbd195717	-0.03743657
120	0x3d17306f	0.036911424
121	0x3c9f3556	0.019434612
122	0xbce741ca	-0.028229613
123	0xbd8fff8c	-0.070311636
124	0x3ac47377	0.0014988024
125	0xbd633682	-0.055471905
126	0xbd88dc22	-0.06682612
127	0xbd7a9bf0	-0.06118387
128	0x3d8dfc24	0.06932858
129	0x3d3087da	0.04309831
130	0x3dccb632	0.099956885
131	0x3d481fe7	0.04885855
132	0xbda78797	-0.081801586
133	0x3de6bd1c	0.112665385
134	0x3dc0d12d	0.09414897
135	0x3d476548	0.048680574
136	0x3c304f00	0.010761023
137	0xbc433fff	-0.011917113
138	0x3c7ff5de	0.015622584
139	0x3d9bb4e6	0.07602863
140	0x3d65e4a7	0.056126263
141	0x3c5f97bc	0.013647016
142	0xbb8d7cd2	-0.0043178583
143	0x3d762521	0.060094003
144	0xbd3fa63d	-0.046789397
145	0x3d3d3f29	0.046202812
146	0x3d0f550d	0.03499322
147	0x3dc9d087	0.098542266
148	0xbd8ed022	-0.06973292
149	0xbd84902c	-0.06472811
150	0x3be27acc	0.006911611
151	0xbc887e09	-0.01666166
152	0x3d25b982	0.040460117
153	0x3d24776b	0.04015295
154	0x3d824bf1	0.06362141
155	0x3d1c80a7	0.03820863
156	0xbd31118d	-0.04322963
157	0xbc990799	-0.01868038
158	0xbd1bb7d5	-0.038017113
159	0x3dd5aae0	0.104329824
160	0xbcf4f2ef	-0.029900996
161	0xbd394441	-0.045231108
162	0xbdd9b523	-0.10630252
163	0x3da0431e	0.078253016
164	0xbd1c1cce	-0.038113408
165	0x3c7f2e5f	0.015575021
166	0x3c2e97c6	0.010656303
167	0x3de81a9d	0.11333201
168	0x3c85b366	0.016320895
169	0xbd9c69ae	-0.07637344
170	0x3c83c39b	0.016084483
171	0xbdae68b8	-0.08516067
172	0xbcf628a8	-0.030048683
173	0xbd935755	-0.07194392
174	0xbc1e895f	-0.0096763065
175	0x3c4f4883	0.0126515655
176	0xbdaa0dbb	-0.083034
177	0xbd99cfeb	-0.0751036
178	0xbb9011b2	-0.0043966407
179	0x3aa223df	0.001237031
180	0x3d89e881	0.067338
181	0x3d666c5d	0.056255687
182	0x3dc5dd8a	0.09661396
183	0x3d30d34c	0.04317026
184	0xbcbee497	-0.02330236
185	0xbbc3e872	-0.0059786374
186	0x3d15500f	0.036453303
187	0x3d6aaff3	0.057296705
188	0x3cab6674	0.020922877
189	0x3d8b99e0	0.06816459
190	0x3d19515f	0.037431117
191	0xbd3b0d90	-0.04566723
192	0xbd0c51a4	-0.034257546
193	0x3dbc7ef1	0.092039
194	0xbd74d754	-0.059775665
195	0xbdaf5dab	-0.085627876
196	0xbd9b9830	-0.07597387
197	0x3cd9853d	0.02655279
198	0x3deaad96	0.1145889
199	0x3d4f114d	0.05055361
200	0x3d0bafa6	0.03410306
201	0xbd06907a	-0.032852627
202	0xbd483968	-0.048882872
203	0x3d5d1865	0.053978343
204	0xbd73b928	-0.05950275
205	0x3d8f2a0a	0.0699044
206	0x3d84cf9e	0.06484912
207	0x3d8bcdd4	0.06826368
208	0x3d5c8a4c	0.053842828
209	0x3d9d86cb	0.07691725
210	0x3ccd2d53	0.025046026
211	0xbda27fb3	-0.07934513
212	0xbcc9fea0	-0.024657547
213	0x3dbbbea4	0.09167221
214	0xbd27b91b	-0.040948015
215	0xbdbcb889	-0.09214885
216	0x3d82cf7f	0.06387233
217	0xbb90a0cc	-0.0044136997
218	0xbbf3d8c6	-0.007441613
219	0xbd846b34	-0.0646576
220	0x3cca97ac	0.024730526
221	0xbda597f1	-0.08085621
222	0x3dbcb0ae	0.092133865
223	0x3d7c0d0e	0.061535887
224	0xbdb16be2	-0.08663155
225	0xbca127e8	-0.01967235
226	0xbd99bc76	-0.07506649
227	0x3d209500	0.039204597
228	0x3a4a975b	0.0007728242
229	0x3d75952f	0.059956726
230	0xbd93276d	-0.07185254
231	0xbaf3dbb8	-0.001860491
232	0xbc669919	-0.014074587
233	0xbd177bef	-0.036983427
234	0x3d55f859	0.052238796
235	0x3d267b32	0.040644832
236	0x3d808e08	0.0627709
237	0xbcbe5a6e	-0.02323648
238	0x3c6cec12	0.01446058
239	0xbdc9026f	-0.09814917
240	0xbb20b84b	-0.002452391
241	0x3d3a8861	0.045540217
242	0x3dda5266	0.106602475
243	0x3d736655	0.059423763
244	0x3da365ff	0.079784386
245	0x3d01468b	0.031561416
246	0xbc22a6e1	-0.009927482
247	0x3c132231	0.00898032
248	0x3d866d6b	0.065638386
249	0xbde0be5e	-0.1097381
250	0x3d705e8e	0.058683924
251	0xbdb7871e	-0.089613184
252	0x39501ab4	0.00019846373
253	0xbdb2d23c	-0.08731505
254	0x3dd8e137	0.10589831
255	0xbcb50ff9	-0.022102343

actor.linear4.bias f4 [9]
0	0x3d6a0f30	0.05714339
1	0xbd9207a0	-0.071303606
2	0x3d04fc14	0.032466963
3	0x3da50182	0.08056928
4	0x3bdef93a	0.0068046125
5	0xbd3a512c	-0.045487568
6	0x3d509edc	0.05093275
7	0x3d64fded	0.055906225
8	0x3d9a4468	0.07532579

critic.linear1.weight f4 [128, 120]
0	0x3d9a791a	0.075426295
1	0x3e27c2bf	0.16382883
2	0x3dabe19a	0.083926395
3	0xbd0d1ba5	-0.034450192
4	0xbcf89271	-0.030343266
5	0x3d8c043d	0.06836746
6	0x3d82a315	0.06378762
7	0x3d044a7e	0.032297604
8	0x3b5e968a	0.003396424
9	0x3e0d6adb	0.13810293
10	0x3d88733c	0.06662604
11	0xbdeb189e	-0.11479305
12	0x3d68fb94	0.05688055
13	0xbcc3c451	-0.023897322
14	0xbdb37ed5	-0.08764426
15	0xbcc7e50a	-0.024401207
16	0x3d9ef2e2	0.0776117
17	0xbdc97c0b	-0.098381124
18	0x3d13aeee	0.036055498
19	0x3dcab81d	0.09898398
20	0x3d8893fa	0.06668849
21	0x3d3d2fe0	0.046188235
22	0x3bc6883c	0.006058721
23	0xbb41b0ac	-0.0029554768
24	0x3d02f286	0.03196957
25	0xbcaea154	-0.021317162
26	0x3c9a6d24	0.01885087
27	0xbcc914c9	-0.024546044
28	0xbd026930	-0.031838596
29	0x3d347407	0.044055965
30	0x3d310ba0	0.043223977
31	0xbd1d2327	-0.038363602
32	0xbd7872eb	-0.06065647
33	0x3b99b954	0.0046912823
34	0x3e1a4748	0.15066254
35	0x3b4dff5f	0.003143273
36	0x3def1818	0.116745174
37	0x3dfaae6b	0.12240299
38	0xbdef7176	-0.11691563
39	0x3caff6a0	0.021479905
40	0xbc41d351	-0.011830167
41	0x3d96f6a1	0.073712595
42	0xbd9a2852	-0.07527222
43	0x3db51a0a	0.08842857
44	0xbcd84f9d	-0.02640515
45	0xbd86348a	-0.0655299
46	0xbdc55151	-0.096346505
47	0xbd363893	-0.044487547
48	0x3da4ba14	0.08043304
49	0x3d766528	0.060155064
50	0x3d901eff	0.07037162
51	0x3d97d79b	0.0741417
52	0x3d23f57e	0.04002904
53	0x3d276553	0.040868115
54	0x3dbc82bd	0.09204624
55	0x3e133fd1	0.14379813
56	0xbda3dde3	-0.08001306
57	0xbccd8d5a	-0.025091816
58	0xbdb42afd	-0.08797262
59	0x3d9f5206	0.077793166
60	0xbd899e7c	-0.067196816
61	0x3c38d690	0.011281624
62	0xbc74f4b1	-0.014950917
63	0xbdc04bb0	-0.09389436
64	0xbc23343d	-0.009961185
65	0xbdf8a324	-0.121404916
66	0x3df4ea4a	0.119587496
67	0xbd189ac9	-0.03725699
68	0x3e00869b	0.12551348
69	0x38d8d87d	0.00010340007
70	0x3c945b25	0.018109867
71	0x3bb5e9d9	0.0055515585
72	0xbd9cc254	-0.07654253
73	0xbdd11f02	-0.102109924
74	0x3cd539e2	0.026028577
75	0xbd3758f7	-0.044762578
76	0xbce0974c	-0.027415894
77	0x3db0a4b2	0.08625163
78	0x3ccd8b5e	0.02509087
79	0xbd00824e	-0.03137427
80	0xbdc11db1	-0.09429491
81	0xbdb5805e	-0.08862375
82	0xbd8f89b1	-0.070086844
83	0xbcda271f	-0.026629983
84	0x3de1500a	0.11001594
85	0x3cbde768	0.023181632
86	0xbd5f299b	-0.054483037
87	0x3d9760c3	0.07391503
88	0xbc6a3d13	-0.014296788
89	0xbd88c333	-0.06677856
90	0xbdb8d3ae	-0.0902475
91	0x3d51279a	0.051063158
92	0x3d1fbc55	0.038997967
93	0xbbaf56b7	-0.0053509134
94	0x3d20af62	0.039229758
95	0x3d6691e3	0.056291472
96	0x3d2cbfb4	0.04217501
97	0x3d5e6050	0.05429107
98	0xbc8c8fd4	-0.017158426
99	0xbba74464	-0.0051045883
100	0xbbf94ba5	-0.0076078945
101	0x3dcf1ba5	0.10112695
102	0xbd78e790	-0.06076771
103	0x3d0ea635	0.034826476
104	0xbadbef53	-0.0016779698
105	0x3d9aaf33	0.07552948
106	0xbda66323	-0.081243776
107	0x3d6ec495	0.058292944
108	0xbdda8d1e	-0.10671447
109	0x3daf50dc	0.085603446
110	0x3dd498ed	0.10380731
111	0xbca9a794	-0.02070979
112	0x3db06fcc	0.086150736
113	0xbdec5189	-0.11538989
114	0x3dddf878	0.10838407
115	0x3d00cc36	0.03144475
116	0x3d970dc5	0.07375673
117	0xbd67968a	-0.05654005
118	0x3dda5d50	0.10662329
119	0x3e0d77a7	0.13815175
120	0xbd222873	-0.039589357
121	0xbb3e0124	-0.002899238
122	0x3c9dd89c	0.019268326
123	0xbca523d0	-0.020158678
124	0x3c0b88ed	0.008516532
125	0xbdb37c8d	-0.087639906
126	0x3cd8e006	0.02647401
127	0x3d5baab4	0.053629592
128	0xbb544e7f	-0.003239542
129	0x3d0a340a	0.033741035
130	0xbd5e07b0	-0.05420655
131	0xbcd90485	-0.026491413
132	0x3c417e04	0.01180983
133	0xbdc02685	-0.09382347
134	0x3e1698cc	0.14706725
135	0x3d91beb7	0.07116454
136	0x3d355485	0.044270057
137	0xbda9cc3c	-0.08290908
138	0x3c5074f0	0.012723193
139	0x3d1df94b	0.038567822
140	0x3d18ea7b	0.037332993
141	0x3de5ac9e	0.11214565
142	0x3de06b4f	0.109579675
143	0x3d5c6312	0.05380542
144	0x3d88b7f1	0.06675709
145	0xbd0452b1	-0.032305423
146	0x3c93fa03	0.01806355
147	0xbda05365	-0.07828406
148	0x3d89a548	0.06720978
149	0xba1aa5b9	-0.00058993284
150	0x3dca1631	0.09867514
151	0xbd00c852	-0.03144104
152	0xbd97e046	-0.07415824
153	0xbe157275	-0.14594443
154	0x3d245d4b	0.040128034
155	0xbc777fac	-0.015106123
156	0x3d8a75a9	0.06760723
157	0x3c8cc26c	0.017182551
158	0x3d99023a	0.07471128
159	0x3dfa82c6	0.12231974
160	0xbc90a30d	-0.017655874
161	0xbd06a3df	-0.032871123
162	0x3d1e22e7	0.038607504
163	0x3c308410	0.010773674
164	0xbcfb6044	-0.030685551
165	0x3d1df2a7	0.03856149
166	0xbd81df72	-0.06341447
167	0xbc9a567c	-0.018840067
168	0xbde1d2bb	-0.11026522
169	0x3db9a970	0.09065521
170	0xbccfa831	-0.025348755
171	0xbd6c26fa	-0.05765436
172	0x3d12d717	0.035849657
173	0x3bbd6e81	0.0057809954
174	0x3e0b6f8f	0.13616775
175	0x3b83d0c4	0.0040226895
176	0xbda28b97	-0.07936781
177	0x3d82d1d0	0.06387675
178	0x3da53a07	0.080677085
179	0xbd1dd73e	-0.03853535
180	0x3d93f5e6	0.07224636
181	0x3c91cbf3	0.017797446
182	0x3dafe5a1	0.0858872
183	0x3cab963e	0.020945664
184	0x3df7cab0	0.120992064
185	0x3da0c591	0.07850183
186	0xbd18a0e5	-0.037262816
187	0xbcb3720e	-0.021904971
188	0x3dfd8471	0.12378777
189	0x3b67824c	0.0035325466
190	0xbd656da9	-0.056012783
191	0x3b0eae37	0.002177132
192	0xbd5f0a46	-0.054453157
193	0x3e0b1b14	0.13584548
194	0x3db5f6fe	0.08885001
195	0x3d65340c	0.05595784
196	0x3d5b0668	0.053472906
197	0xbd809a93	-0.06279483
198	0x3dea38d3	0.114366196
199	0x3d9824bf	0.07428884
200	0xbd3527c6	-0.044227384
201	0xbde1269f	-0.109936945
202	0x3dc1b5b9	0.09458489
203	0x3c56ad13	0.013102788
204	0x3e06beb6	0.13158688
205	0x3dd6c934	0.10487595
206	0xbcf3c178	-0.029755339
207	0xbc67b079	-0.014141195
208	0xbd1384c4	-0.036015287
209	0x3d86d023	0.06582668
210	0xbc1879e6	-0.009306407
211	0x3d5dcd6a	0.054150976
212	0x3dcdbaa3	0.10045364
213	0xbdba239c	-0.09088823
214	0x3d0ec32b	0.034854095
215	0x3cc30a40	0.023808599
216	0x3d05e663	0.032690417
217	0xbdc4b22a	-0.096042946
218	0xbd3abf4a	-0.045592584
219	0xbc716823	-0.014734301
220	0x3c83da9c	0.016095452
221	0x3daefe0a	0.08544548
222	0x3e14ff49	0.14550509
223	0x3e251d27	0.16124402
224	0xbd9cc3e5	-0.076545514
225	0xbd02a608	-0.03189662
226	0x3dde68ac	0.10859808
227	0x3ca4dcd8	0.020124838
228	0x3d2a30bc	0.041550383
229	0x3d5801cd	0.052736092
230	0xbcc037de	-0.02346414
231	0x3dc078eb	0.09398063
232	0x3da60914	0.081072
233	0x3e18a361	0.14906074
234	0xbdbd2138	-0.092348516
235	0xbd78118f	-0.06056362
236	0xbc8e6cb9	-0.017385827
237	0x3e555e8d	0.2083685
238	0x3d389db8	0.045072287
239	0x3dc53633	0.09629478
240	0xbc010365	-0.0078743445
241	0xbc718c32	-0.014742898
242	0xbb48caf4	-0.0030638548
243	0xbca95346	-0.02066959
244	0xbdab4125	-0.08362035
245	0x3c70b927	0.014692581
246	0xbe06b52b	-0.13155048
247	0xbd0e96cb	-0.034811776
248	0x3d86eb19	0.0658781
249	0x3d53ff94	0.05175741
250	0x3db5cd97	0.08877104
251	0x3d284a45	0.041086454
252	0x3cf2887c	0.029606096
253	0x3cf5307b	0.029930344
254	0xbd11e008	-0.035614043
255	0x3c1baf65	0.0095022665

critic.linear1.bias f4 [128]
0	0x3d37afb5	0.0448453
1	0x3d86b337	0.06577151
2	0x3c24ad0d	0.010051024
3	0xbe05df6b	-0.13073508
4	0x3dfab22b	0.12241014
5	0x3cb911e6	0.022591542
6	0x3db0196b	0.08598598
7	0xbdf934ce	-0.12168275
8	0x3dbe5fa8	0.09295589
9	0xbd588a5b	-0.05286632
10	0x3ce949a3	0.028477496
11	0x3dda2816	0.10652177
12	0x3c3935ff	0.011304378
13	0xbc985f3a	-0.018600095
14	0x3e05082d	0.129914
15	0x3de351a0	0.11099553
16	0xbce0bfa9	-0.02743514
17	0x3e245fe6	0.16052207
18	0x3ced3f64	0.028960891
19	0xbca50051	-0.020141752
20	0x3e08fdcc	0.13378066
21	0xbcbed7d7	-0.02329628
22	0x3df4481c	0.11927816
23	0xbd8e1edd	-0.069394805
24	0xbca2a22b	-0.019852718
25	0xbd795c6e	-0.060879163
26	0xbc58bba5	-0.013228332
27	0xbddbfc46	-0.10741477
28	0x39f924f5	0.00047520516
29	0x3df49ffa	0.119445756
30	0xbd18bf44	-0.03729178
31	0x3c922f93	0.01784495
32	0xba47350e	-0.00075991533
33	0xbd84b3f7	-0.06479638
34	0xbdd0d6a8	-0.101971924
35	0xbd80d590	-0.06290734
36	0x3d129706	0.03578856
37	0x3c91a1bc	0.017777316
38	0x3e10c2c8	0.14136803
39	0xbe120ad9	-0.1426195
40	0x3c84a861	0.01619357
41	0xbe0bf233	-0.1366661
42	0xbda0b59f	-0.078471415
43	0x3c162189	0.009163269
44	0x3ce55272	0.027993415
45	0xbd41ab22	-0.047282346
46	0x3df99eb7	0.121884756
47	0xbab3db23	-0.0013721924
48	0xbe01df27	-0.12682782
49	0x3cc87ecf	0.02447453
50	0x3cd960ac	0.026535355
51	0x3d52c35c	0.05145584
52	0xbb4148b0	-0.0029492788
53	0x3d8b0806	0.0678864
54	0xbc9d717e	-0.019219156
55	0xbd151368	-0.03639546
56	0x3de579c6	0.11204867
57	0xbcba7864	-0.022762485
58	0x3df88d4c	0.12136325
59	0xba4493ad	-0.0007498812
60	0xbba58666	-0.005051422
61	0x3d30c171	0.04315323
62	0xbdc9a496	-0.098458454
63	0x3cfe89d2	0.031071577
64	0x3cb0dbac	0.021589123
65	0x3e0db772	0.1383951
66	0xbdf99516	-0.12186639
67	0xbd826407	-0.06366735
68	0x3e081607	0.13289653
69	0x3dfc2a35	0.12312738
70	0x3d92b521	0.07163454
71	0x3d4f9c1f	0.050685998
72	0xbdfce6f2	-0.12348737
73	0x3cc14173	0.023590779
74	0x39857d1a	0.00025460945
75	0x3c4f17a0	0.01263991
76	0x3e06d584	0.13167387
77	0x3d29c466	0.041447066
78	0x3d4a5548	0.049397737
79	0xbe041dcf	-0.12901996
80	0xbde166c8	-0.11005932
81	0x3de9254a	0.113840654
82	0x3e074f27	0.13213788
83	0xbe20ae74	-0.15691549
84	0x3ce247c1	0.027622106
85	0x3e1cbdb6	0.15306744
86	0xbda27948	-0.07933289
87	0x3d1e5e53	0.038664173
88	0xbdb63e5f	-0.08898615
89	0x3c39cf20	0.011340886
90	0x3e25df34	0.16198426
91	0x3d93da29	0.07219345
92	0xbdc2dd29	-0.09514839
93	0x3e1c1ac7	0.1524459
94	0xbc843b1c	-0.016141467
95	0x3e0d0ebc	0.13775152
96	0x3e1bd4af	0.15217851
97	0xbd1a802e	-0.037719898
98	0xbdccbfc3	-0.09997513
99	0xbe0a9d98	-0.1353668
100	0x3dd35bc0	0.10320234
101	0xbe15a6d0	-0.14614415
102	0x3d2bbcee	0.041928224
103	0xba1a12e0	-0.00058774464
104	0xbb4c5875	-0.0031180654
105	0x3e3460cc	0.1761505
106	0xbda1f709	-0.07908446
107	0x3dc9b8be	0.0984969
108	0xbc9d90ed	-0.019234145
109	0x37f64e96	2.936208e-05
110	0x3deb4f44	0.11489728
111	0xbd1baa75	-0.038004357
112	0x3c629adf	0.013830869
113	0xbba36c1a	-0.004987252
114	0x3d0e096c	0.034676954
115	0xbce311bb	-0.027718415
116	0x3e103743	0.1408358
117	0x3e2098fd	0.1568336
118	0x3df420c8	0.11920315
119	0x3e23e220	0.16004229
120	0x3b94aa79	0.0045369235
121	0x3d8cf5a5	0.068827905
122	0xbdcfd8f2	-0.10148801
123	0xbd064e2e	-0.0327894
124	0xbcad58eb	-0.021160563
125	0xbd1bcc3a	-0.038036563
126	0x3d9a183f	0.07524156
127	0x3e139620	0.14412737
