landing_falcon_raw_ckpt/ckpt_00001001.pt (torch, 453559 bytes, 15 tensors)

actor.linear1.weight f4 [128, 120]
0	0xbd32215f	-0.043488856
1	0xbd8fc275	-0.070195116
2	0xbd735a1a	-0.0594121
3	0x3d687c7a	0.056759335
4	0xbd8349f0	-0.06410587
5	0xbbcb16b3	-0.0061977743
6	0x3cd0ac8b	0.0254729
7	0xbd66c7a0	-0.05634272
8	0x3d563b90	0.052302897
9	0x3d9217e7	0.07133465
10	0xbce1313b	-0.027489295
11	0x3d83e7e7	0.06440716
12	0x3db8daa1	0.09026075
13	0xbdafd41a	-0.08585377
14	0x3d8ddc60	0.06926799
15	0x3db08888	0.08619791
16	0x3d5d7fca	0.054076947
17	0x3c1234e9	0.008923748
18	0xbd7a04b2	-0.061039634
19	0x3d88e323	0.06683948
20	0x3d998153	0.0749537
21	0x3bd16323	0.006389992
22	0x3d0e52c6	0.034746908
23	0x3d8a31dd	0.06747792
24	0xbd91440b	-0.07093056
25	0xbcf119c7	-0.029431237
26	0xbc9c026b	-0.019044122
27	0xbda181b1	-0.07886065
28	0xbdaae071	-0.0834359
29	0x3c655436	0.013997128
30	0xbd5bc1d5	-0.05365165
31	0xbcfb45d1	-0.03067294
32	0xbd22eb37	-0.0397751
33	0x3cacec8c	0.021108888
34	0xbcdcd7d8	-0.026958391
35	0xbb59f285	-0.0033256125
36	0x383a3873	4.4398428e-05
37	0x3d115c8a	0.035488643
38	0x3db3d0ff	0.08780097
39	0x3d8c80db	0.06860515
40	0x3d9a441b	0.07532521
41	0xbd4ce8bc	-0.05002664
42	0x3da642b3	0.081181906
43	0xbd6ea6aa	-0.058264412
44	0x3d95990e	0.073045835
45	0xbd78a29b	-0.060701948
46	0xbcc84ec4	-0.02445162
47	0xbd89c724	-0.06727436
48	0x3d9d08f9	0.07667727
49	0xbc89fe1f	-0.016844807
50	0xbd606dd0	-0.054792225
51	0xbd256caf	-0.040386852
52	0xbdad5990	-0.08464348
53	0xbd1d9a88	-0.03847745
54	0xbcb3b637	-0.021937473
55	0xbcbfbc5a	-0.023405243
56	0xbd5198bc	-0.05117105
57	0x3c3b2732	0.011422919
58	0xbd809450	-0.06278288
59	0xbd1f3099	-0.038864706
60	0x3b132c76	0.002245692
61	0x3d95d6e3	0.07316377
62	0x3cfa8a92	0.030583654
63	0x3cc115d6	0.023569982
64	0x3d91d8b2	0.071214095
65	0x3b90d323	0.0044197007
66	0x3d4a2395	0.04935034
67	0xbda1547a	-0.07877441
68	0x3cbc7349	0.023004191
69	0x3d8f45a0	0.06995702
70	0x3d69de9f	0.057097074
71	0xbc9a5a71	-0.018841954
72	0x3c308e41	0.0107761035
73	0xbd996e61	-0.07491756
74	0x3c5f2904	0.013620619
75	0x3d5999b1	0.053125087
76	0xbcb253e2	-0.021768514
77	0x3d40b455	0.047046978
78	0xbb64f08d	-0.0034933419
79	0xbd8a0369	-0.06738932
80	0x3d73a258	0.059480995
81	0x3cdb5f3c	0.02677881
82	0xbd9d215c	-0.076723784
83	0x3d6ff04d	0.058578778
84	0xbdbc9873	-0.09208765
85	0xbc28901f	-0.010288267
86	0x3c38287c	0.011240121
87	0x3d3a93e0	0.04555118
88	0xbadde300	-0.0016928613
89	0x3d196225	0.037447114
90	0x3a625e0b	0.00086352293
91	0x3d1d655b	0.03842674
92	0x3ce89891	0.028393062
93	0x3d78373b	0.060599547
94	0x3b746eed	0.0037297562
95	0xbdaf949d	-0.085732676
96	0xbd0f1d25	-0.034939904
97	0x3c56e701	0.013116599
98	0x3d9104dc	0.07081005
99	0x3dad5210	0.08462918
100	0xbb6338c1	-0.003467128
101	0xbd86b776	-0.06577961
102	0x3c917e51	0.017760428
103	0xbba3e233	-0.0050013303
104	0xbd90bb29	-0.07066948
105	0xbd3bccae	-0.045849495
106	0xbce5ea84	-0.028065927
107	0xbd9ef78e	-0.07762061
108	0xbd68d7ad	-0.05684631
109	0x3ca7b6f5	0.020472983
110	0x3d376b89	0.044780288
111	0xbd0d6d40	-0.034528017
112	0xbd8e8ca0	-0.06960416
113	0x3b999196	0.0046865446
114	0x3d06dfe6	0.03292837
115	0xbd0cae7e	-0.034346096
116	0x3d705bb0	0.05868119
117	0xbc9797bb	-0.018504968
118	0xbd1ed96b	-0.038781565
119	0x3d958a13	0.07301726
120	0x3dbc923e	0.09207581
121	0x3d9d71a4	0.07687691
122	0x3d6684f0	0.056279123
123	0x3da7834e	0.08179341
124	0xbd332b4c	-0.043742463
125	0xbd81f5ff	-0.06345748
126	0x3d5a940e	0.053363852
127	0x3d87868d	0.066174604
128	0xbd712b8c	-0.05887942
129	0xbcd196d4	-0.025584616
130	0x3d612e11	0.054975573
131	0x3d86e6e6	0.06587009
132	0xbc6fdcd2	-0.01464005
133	0x3c05043c	0.008118685
134	0xbd72dab6	-0.05929061
135	0xbd151197	-0.036393728
136	0x3cbc556e	0.022989955
137	0xbda1a963	-0.07893636
138	0xbbf19b86	-0.007373276
139	0xbd6d1eb9	-0.057890628
140	0x3d7a14be	0.061054938
141	0xbd42f5cf	-0.047597703
142	0xbc08bab2	-0.008345293
143	0x3da5631c	0.08075544
144	0x3d3c44cd	0.04596405
145	0xbd681708	-0.05666259
146	0x3d7c4bb7	0.061595645
147	0x3dbb08b1	0.09132517
148	0x3c80fc81	0.015745403
149	0xbb59a1e6	-0.0033208071
150	0x3b842440	0.0040326416
151	0x3d358432	0.044315524
152	0x3d39a7d9	0.045326088
153	0x3d92f492	0.07175554
154	0xbd680063	-0.056640994
155	0x3da4f9be	0.08055447
156	0x3dad591e	0.084642634
157	0xbd79bddc	-0.06097208
158	0xbd574f0c	-0.05256562
159	0xbd3cfbc0	-0.046138525
160	0x3c173a61	0.009230227
161	0xbd62641f	-0.055271264
162	0xbda92f0a	-0.08260925
163	0xbb08eec7	-0.0020894276
164	0x3cb0c875	0.02157996
165	0x3d52bf6b	0.05145208
166	0xbd895053	-0.06704774
167	0x3c2617b8	0.010137491
168	0x3cf3be03	0.02975369
169	0xbd82e0f8	-0.06390566
170	0x3d18ffe9	0.03735343
171	0x3d9bd1f9	0.076084085
172	0xbdb32a1c	-0.08748266
173	0x3d71f077	0.059067216
174	0xbd4ef48e	-0.050526194
175	0xbdb4a789	-0.08821017
176	0x3d9f5ca0	0.07781339
177	0x3c73916c	0.014866214
178	0x3d07ccaa	0.033154167
179	0x3d921c17	0.07134264
180	0x3cb80955	0.022465387
181	0xbd9489c6	-0.07252841
182	0x3da14e65	0.07876281
183	0x3cc52b4a	0.024068493
184	0x3d53fbd2	0.051753826
185	0x3d9682ea	0.073491886
186	0x3d788f55	0.060683567
187	0xbd485d39	-0.04891703
188	0x3da58de5	0.08083705
189	0x3caa4083	0.020782715
190	0xbd615a28	-0.05501762
191	0x3dbe1027	0.092804246
192	0x3d04b4f6	0.03239914
193	0xbc4f53a6	-0.012654221
194	0xbd251211	-0.040300433
195	0x3d0df981	0.034661774
196	0x3daaaf8e	0.08334266
197	0x3d4f3031	0.05058307
198	0xbd5736bf	-0.052542444
199	0x3d3aaa42	0.045572527
200	0x3d49f4b2	0.049305625
201	0xbd535212	-0.05159194
202	0x3d0669b4	0.03281565
203	0xbd332eeb	-0.043745916
204	0x3d5a5ad2	0.05330927
205	0xbba12f84	-0.0049189944
206	0x3d712453	0.058872532
207	0xbcb36c51	-0.021902235
208	0xbd6ea2cd	-0.058260728
209	0xbd401104	-0.046891227
210	0xbb3bb563	-0.002864205
211	0xbb0c9431	-0.0021450634
212	0x3d987a12	0.07445158
213	0x3d16ddc5	0.03683259
214	0x3d79f600	0.06102562
215	0xbd29d859	-0.04146609
216	0xbc9ed151	-0.01938692
217	0xbcfd6818	-0.030933425
218	0xbdad5827	-0.08464079
219	0x39b65bf2	0.0003478225
220	0x3d38f8ba	0.04515908
221	0x3d41ed23	0.04734529
222	0xbcdbc429	-0.026826935
223	0xbc737190	-0.014858618
224	0xbca669b5	-0.020314077
225	0xbcbd2d71	-0.023092957
226	0x3d34c04c	0.0441287
227	0x3bfb3628	0.007666368
228	0xbd78c93c	-0.060738787
229	0xbd4b75a2	-0.04967273
230	0x3d51696d	0.051125932
231	0x3db86be0	0.090049505
232	0xbd83d26e	-0.06436621
233	0x3d10760c	0.03526883
234	0xbc7d0a86	-0.0154444035
235	0xbcf9680e	-0.030445125
236	0xbd6e2c95	-0.058147985
237	0xbce01349	-0.027352946
238	0x3d34c512	0.044133253
239	0x3d5ef455	0.054432232
240	0x3d89e5c1	0.06733275
241	0xbd8d8b95	-0.06911389
242	0xbd5c9771	-0.053855363
243	0xbd917e38	-0.071041524
244	0xbda1bf9d	-0.078978755
245	0xbd9fe392	-0.078070775
246	0xbda6440c	-0.08118448
247	0x3cfa2afd	0.030538077
248	0xbd7abf5f	-0.061217662
249	0xbd8a0d9f	-0.06740879
250	0x3d2e172c	0.042502567
251	0x3b32a5f3	0.0027259558
252	0x3d68d7dd	0.05684649
253	0xbd76853b	-0.060185652
254	0xbd29d917	-0.0414668
255	0x3d039108	0.032120734

actor.linear1.bias f4 [128]
0	0x3d9a8541	0.075449474
1	0x3c2c1bab	0.010504643
2	0x3c19f912	0.009397762
3	0x3d5d974d	0.05409937
4	0xbdb3257a	-0.087473825
5	0xba6fe23e	-0.0009150839
6	0x3cf6eafb	0.030141344
7	0x3d94f6ef	0.07273661
8	0x3d9fd3b7	0.07804053
9	0x3d1c28af	0.038124736
10	0xbd4f7868	-0.050651938
11	0x3d2d8b05	0.042368907
12	0x3db0e162	0.08636738
13	0xbd20f044	-0.039291635
14	0xbc8702a8	-0.016480759
15	0x3d00cb9d	0.03144418
16	0x3b69c25c	0.0035668826
17	0xbdabef6a	-0.08395274
18	0xbd3659ae	-0.04451912
19	0xbd16680b	-0.036720317
20	0xbd8a5f5c	-0.067564696
21	0x3d6a9899	0.057274435
22	0xbdbdbb2e	-0.09264217
23	0xbb8f693d	-0.004376559
24	0x3d686b45	0.056742925
25	0xba2c924d	-0.000658308
26	0x3c13218a	0.008980164
27	0x3d256042	0.040375
28	0x3db7726e	0.089573726
29	0x3b204c16	0.0024459413
30	0xbaf74627	-0.0018865512
31	0x3d7fd5eb	0.062459867
32	0x3d4ecfde	0.050491206
33	0x3d646870	0.05576366
34	0x3d1f4f1a	0.038893797
35	0x3d608d4e	0.05482226
36	0x3dbc9a2e	0.09209095
37	0xbd5fc156	-0.05462774
38	0xbc1f70f0	-0.009731516
39	0x3cdb8dc9	0.026801007
40	0xba7d0ed7	-0.00096533954
41	0x3d512e48	0.051069528
42	0xbd020b6c	-0.031749174
43	0x3d1c9a83	0.03823329
44	0x3cb217ea	0.021739919
45	0xbd26b868	-0.040703207
46	0x3d65de2e	0.05612009
47	0xbd8a7950	-0.0676142
48	0xbd9e4445	-0.07727865
49	0x3d2f9cd3	0.04287417
50	0x3cfb1bc9	0.030652897
51	0x3d5f1ed0	0.054472744
52	0xbd23a232	-0.039949603
53	0x3daa6b20	0.08321214
54	0x3babc987	0.00524253
55	0x3d19c1d1	0.037538353
56	0xbda0f96b	-0.07860073
57	0xbda23abc	-0.07921359
58	0x3b9df1dd	0.004820092
59	0xbd8d475e	-0.06898378
60	0x3d8c22ea	0.06842597
61	0x3c3a8eff	0.011386632
62	0x3d7ef933	0.062249374
63	0x3d8910bc	0.06692645
64	0x3d919338	0.07108158
65	0xbca77022	-0.020439211
66	0x3af3cfd7	0.001860137
67	0xbd049bbb	-0.03237508
68	0xbdafb416	-0.085792705
69	0xbc6cc3af	-0.0144509515
70	0xbd6d5f5a	-0.057952262
71	0xbd9dea03	-0.0771065
72	0xbcded2b2	-0.027200077
73	0x3d55d68d	0.052206565
74	0xbc706bec	-0.014674168
75	0x3ce53fe2	0.027984563
76	0x3da60269	0.081059285
77	0x3d959515	0.07303826
78	0x3d7913aa	0.06080977
79	0xbd014069	-0.031555567
80	0xbd5b9e0e	-0.05361753
81	0x3d360271	0.044435922
82	0x3d7fa965	0.062417407
83	0xbd9a0a4b	-0.075214945
84	0xbd888828	-0.06666595
85	0xbd438d23	-0.04774202
86	0xbc0a96b8	-0.008458786
87	0xbd8b4612	-0.06800474
88	0x3cfc9dc9	0.030836957
89	0xbd97d540	-0.07413721
90	0x3d06321c	0.03276263
91	0xbd1383ed	-0.036014486
92	0xbda040fc	-0.07824895
93	0xbd9e1c2a	-0.077202156
94	0xbbce6e1a	-0.006299746
95	0x3d3d11fe	0.046159737
96	0xbd850756	-0.0649554
97	0xbd515d25	-0.05111422
98	0x3da02577	0.07819646
99	0xbd91c81e	-0.071182474
100	0x3c1a0569	0.009400704
101	0xbd218a21	-0.03943837
102	0x3ce18887	0.027530922
103	0xbbb67329	-0.0055679274
104	0xbd8c03ea	-0.06836684
105	0xbc2ebe7e	-0.010665534
106	0x3d040dc0	0.032239676
107	0x3b131dba	0.0022448138
108	0xbd4855ee	-0.048910074
109	0x3c1d57f2	0.009603487
110	0xbd3cb57e	-0.046071522
111	0xbd335e09	-0.04379085
112	0xbc3ce79d	-0.01152983
113	0x3d06ec56	0.03294023
114	0x3c0551de	0.008137194
115	0x3d8f1b73	0.069876574
116	0xbdae9d3b	-0.08526083
117	0xbc8fba09	-0.017544763
118	0x3d36a85d	0.044594157
119	0xbcc81829	-0.024425583
120	0x3d8f577a	0.06999107
121	0xbb8996d5	-0.004198889
122	0x3daae257	0.08343952
123	0x3d6b1ee3	0.057402503
124	0x3c557b79	0.013029926
125	0x3cb91851	0.022594603
126	0xbd9c21ac	-0.0762361
127	0xbd007613	-0.031362604

actor.linear2.weight f4 [128, 128]
0	0xbda85b72	-0.08220567
1	0xbb93dd31	-0.004512452
2	0xbd09a636	-0.033605777
3	0x3da14b2e	0.078756675
4	0xbd8ef041	-0.069794185
5	0xbd98f5cc	-0.07468757
6	0x3a0455e9	0.0005048202
7	0x3cbf8cea	0.023382623
8	0x3c8c394b	0.017117163
9	0xbdb1fa99	-0.08690376
10	0xbcadad66	-0.021200847
11	0xbda5cc9d	-0.080956675
12	0x3d818953	0.06325021
13	0x3bbf2c67	0.0058341506
14	0x3d574e29	0.052564774
15	0xbd011cec	-0.031521723
16	0xbd16233b	-0.036654692
17	0xbd9bb2bf	-0.076024525
18	0x3d18a8b7	0.037270274
19	0x3dab039d	0.083502986
20	0x3d54569e	0.051840417
21	0xbd9c87f1	-0.07643116
22	0x3d3b3d51	0.045712773
23	0x3d76dab8	0.06026718
24	0xbd68dac7	-0.056849267
25	0xbda6cc2e	-0.08144413
26	0xbc10a911	-0.008829371
27	0x3d93886e	0.07203756
28	0x3d99f706	0.07517819
29	0xbd206c1a	-0.039165594
30	0x3bb06789	0.005383436
31	0xbd6ea6fd	-0.05826472
32	0xbd57584d	-0.052574445
33	0xbd4c3236	-0.049852572
34	0xbd694843	-0.05695368
35	0xbd1c8d67	-0.03822079
36	0x3c3ca264	0.011513326
37	0xbd1d3e0a	-0.038389243
38	0xbd78ae79	-0.060713265
39	0x3d4bf8d3	0.049797844
40	0xbccac5fa	-0.024752606
41	0x3d5bd994	0.053674296
42	0x3ce1fcaa	0.0275863
43	0x3d69cdab	0.057080906
44	0x3d45cd4a	0.048291482
45	0xbb1aef41	-0.0023641142
46	0x3daae811	0.083450444
47	0x3d450b29	0.048106346
48	0xbcfeed2d	-0.031118954
49	0xbd24d21a	-0.04023943
50	0xbda34721	-0.07972551
51	0xbd3a7c06	-0.045528434
52	0xbb9b7d9f	-0.0047452
53	0xb9d34177	-0.0004029383
54	0xbceb7a0b	-0.028744718
55	0xbcebaf61	-0.02877015
56	0x3d37dce1	0.04488838
57	0xbbb60432	-0.0055546993
58	0x3d12a093	0.035797667
59	0x3d260269	0.040529642
60	0xbd16f7b6	-0.03685733
61	0x3d9d1d0c	0.07671556
62	0xbd7f9cf9	-0.06240556
63	0xbd8c6e2d	-0.06856952
64	0xbc7f67dd	-0.015588728
65	0xbc997fc2	-0.018737677
66	0x3db437fc	0.08799741
67	0x3b20d5e6	0.0024541556
68	0x3d5edcce	0.054409795
69	0x3d42c9f1	0.047555868
70	0xbd950be8	-0.072776616
71	0x3d9b95a9	0.07596905
72	0x3d92f98c	0.071765035
73	0xbbc7f563	-0.0061022504
74	0x3cabaee2	0.020957414
75	0xbcb031ab	-0.021508059
76	0x3cddc450	0.027071148
77	0xbcf4c7cc	-0.029880427
78	0x3d470f96	0.04859885
79	0xbd5ddf79	-0.0541682
80	0x3bfd9ec9	0.007739876
81	0xbd2b1b25	-0.041773934
82	0xbc220530	-0.009888932
83	0xbd7fc969	-0.06244794
84	0xbd61c110	-0.05511576
85	0x3d118237	0.035524573
86	0xbd75889a	-0.059944727
87	0xbd615208	-0.05500987
88	0x3bc539fd	0.0060188756
89	0x3c62c2c0	0.013840377
90	0xbd419c70	-0.04726833
91	0xbcbdb77c	-0.023158781
92	0xbcf21ad6	-0.029553812
93	0x3d440fa8	0.047866493
94	0x3d27a0d3	0.04092486
95	0xbbe965ea	-0.007122745
96	0x3963cb37	0.0002172411
97	0x3cb629f0	0.022236794
98	0xbda25f33	-0.07928314
99	0xbca9bd18	-0.02072005
100	0x3d96a057	0.07354801
101	0xbd9f32ad	-0.077733375
102	0xbd9f335e	-0.077734694
103	0x3d7db03b	0.061935645
104	0xbd6693d1	-0.056293312
105	0xbd95929e	-0.07303356
106	0x3d974bfe	0.07387541
107	0xbc0a9980	-0.008459449
108	0xbdb04a99	-0.086079784
109	0x3db1ca3c	0.08681151
110	0xbc13f1e6	-0.009029841
111	0x3cca17f8	0.024669632
112	0xbcb63888	-0.022243753
113	0xbd360527	-0.044438507
114	0x3d181526	0.037129544
115	0xba19a5dc	-0.0005861202
116	0x3c7990a0	0.015232235
117	0xbdb3845a	-0.087654784
118	0x3d92c82c	0.07167086
119	0x3d572ebb	0.0525348
120	0x3da64403	0.08118441
121	0x3d948ef9	0.07253832
122	0xbd1dccb1	-0.038525287
123	0xbc3afff2	-0.011413561
124	0x3d90d37b	0.07071587
125	0xbca83d09	-0.020536916
126	0xbd8f8d0a	-0.07009323
127	0xbc6824c8	-0.014168926
128	0x3db09a1b	0.08623143
129	0xbc8103ca	-0.015748877
130	0xbd890e58	-0.06692189
131	0x3c61e8c0	0.013788402
132	0x3d54e2ff	0.051974293
133	0x3d52a4a5	0.05142655
134	0x3c9f39c8	0.019436732
135	0x3d4ef52d	0.050526787
136	0x3c799056	0.015232166
137	0x3d36e4e4	0.04465188
138	0xbda5ae90	-0.08089936
139	0x3ce87cea	0.028379876
140	0xbc9c8cd0	-0.019110113
141	0x3d19d4af	0.037556347
142	0xbd188cdd	-0.037243713
143	0x3d0badf7	0.034101453
144	0xbd8b97af	-0.06816041
145	0xbdb73bc4	-0.08946946
146	0x3cc0a5d5	0.023516575
147	0xbcc359bf	-0.023846505
148	0xbd70e556	-0.05881246
149	0x3d36ea85	0.04465725
150	0x3d98e923	0.07466342
151	0x3ca7c77d	0.020480866
152	0xbda4fdfe	-0.08056258
153	0xbcc3cdf0	-0.02390191
154	0x3d956c4f	0.07296049
155	0x3d59b7bc	0.05315374
156	0x3d124c03	0.03571702
157	0x3cb8d95d	0.022564584
158	0x3d8db14a	0.06918581
159	0x3da23731	0.07920683
160	0xbda29695	-0.079388775
161	0xbdb4dfea	-0.08831771
162	0xbcc41fe3	-0.023940986
163	0xbba00642	-0.0048835585
164	0xbd3ea111	-0.046540324
165	0x3b28dc0d	0.0025765926
166	0x3d94c6de	0.072644934
167	0xbc28cbba	-0.010302478
168	0xbc57ed9f	-0.013179212
169	0x3c00e078	0.0078660175
170	0x3d49c60c	0.049261138
171	0xbd8fb0cf	-0.070161454
172	0x3bfee6d5	0.007778982
173	0xbd254b2b	-0.04035489
174	0x3db0a846	0.086258456
175	0xbd867e4a	-0.065670565
176	0xbcd9420c	-0.026520751
177	0x3d850c22	0.06496455
178	0x3d836799	0.06416244
179	0x3d3d8810	0.046272337
180	0x3d81a2ba	0.06329866
181	0x3b855b87	0.004069749
182	0xbd0fa775	-0.03507181
183	0xbd8ff1c7	-0.07028537
184	0xb9f8909c	-0.00047409988
185	0xbd7112ac	-0.058855698
186	0xbcee058a	-0.029055376
187	0x3dad5955	0.08464304
188	0xbc59dd37	-0.013297371
189	0x3d60451d	0.05475341
190	0x3d791a8b	0.06081633
191	0xbb329824	-0.0027251327
192	0x3d1ce1e4	0.038301364
193	0x3d501f53	0.050811123
194	0x3d5ae719	0.05344305
195	0xbc041d60	-0.008063644
196	0xbb95f761	-0.004576609
197	0xbd85d828	-0.06535369
198	0x3d890f01	0.06692315
199	0x3d75aa73	0.059977006
200	0x3d39a223	0.04532064
201	0x3d8a702d	0.06759677
202	0xbd89eeae	-0.06734978
203	0xbd803bb6	-0.06261389
204	0x3da5e65e	0.0810058
205	0x3c45b434	0.01206689
206	0x3d1ea526	0.038731717
207	0xba92dc1e	-0.0011204516
208	0x3d49b8cb	0.049248498
209	0xbc745298	-0.01491227
210	0x3a398f5f	0.0007078554
211	0x3d9f62ac	0.07782492
212	0xbcf8855a	-0.030337024
213	0x3d93fc55	0.07225863
214	0x3d46d7ed	0.048545767
215	0x3c1f0de1	0.009707899
216	0xbc456c54	-0.012049753
217	0x3d715ec4	0.058928266
218	0xbc07dac1	-0.008291901
219	0xbcdc53ee	-0.02689549
220	0x3db065fc	0.08613202
221	0x3db7b759	0.08970518
222	0x3d9d3302	0.076757446
223	0xbd867d85	-0.0656691
224	0xbc23cf8b	-0.009998213
225	0x3d117248	0.035509378
226	0xbc6476b2	-0.013944315
227	0x3cef55eb	0.029215774
228	0xbd0ed8d4	-0.034874752
229	0xbd7bfb8d	-0.061519194
230	0x3d6d9de3	0.0580119
231	0x3d942706	0.07234006
232	0x3d959501	0.07303811
233	0xbd8aeac0	-0.06783056
234	0xbd27aa59	-0.04093394
235	0xbb919ab7	-0.0044434923
236	0x3cd7e45b	0.026354006
237	0xbb5ab52d	-0.003337215
238	0x3cea3f7f	0.02859473
239	0x3d31eeae	0.043440513
240	0xbda9296e	-0.08259855
241	0x3d57ad1f	0.052655336
242	0xbc9cd5eb	-0.019144973
243	0xbd9b98db	-0.07597514
244	0x3da21e18	0.07915896
245	0x3dab1338	0.08353275
246	0xbdb14f97	-0.08657759
247	0x3c6d5e60	0.014487833
248	0xbd9af353	-0.07565942
249	0x3d58b017	0.052902307
250	0x3d635fb7	0.055511203
251	0xbd6f648a	-0.05844549
252	0x3ccb67de	0.024829801
253	0xbc0969da	-0.008387053
254	0x3db3305c	0.08749458
255	0x3cfdfc67	0.031004144

actor.linear2.bias f4 [128]
0	0x3d40b9c8	0.047052175
1	0xbd2f0ae1	-0.042734984
2	0xbd40e8cf	-0.047097024
3	0xbd3e2147	-0.046418454
4	0xb9baf2c1	-0.0003565755
5	0x3a59ffc3	0.00083160045
6	0x3d0ddce0	0.03463447
7	0x3c9c3f3f	0.019073127
8	0xbda34590	-0.07972252
9	0xbc3f8046	-0.011688298
10	0xbd7882ea	-0.060671724
11	0xbd8c025d	-0.06836388
12	0xbda2c29a	-0.079472736
13	0x3d17f9f0	0.037103593
14	0x3d2fcbf8	0.04291913
15	0x3da38346	0.07984023
16	0xbd6fe247	-0.058565404
17	0xbca422dc	-0.020036153
18	0xbd9f4f77	-0.077788286
19	0x3d3b5716	0.04573735
20	0x3da0d3e7	0.07852917
21	0x3c83d7dc	0.01609414
22	0xbda2117f	-0.07913493
23	0xbc112280	-0.008858323
24	0x3d45f5db	0.04833017
25	0xbd663763	-0.056205165
26	0xbd10f308	-0.035388023
27	0x3d81c951	0.06337226
28	0xbd82c272	-0.06384744
29	0xbd83d953	-0.06437936
30	0x3d2b814d	0.041871358
31	0x3d18b787	0.0372844
32	0x3cbec568	0.02328749
33	0x3d3c9566	0.046040915
34	0xbd90feb9	-0.070798345
35	0x3c036035	0.008018543
36	0x3d2506fb	0.04028986
37	0xbd1c9768	-0.03823033
38	0x3da72126	0.081606194
39	0x3d411b1c	0.047144994
40	0xbd160a01	-0.036630634
41	0x3c001fc1	0.007820071
42	0xbc278444	-0.010224406
43	0xbbbe64e0	-0.005810365
44	0xbd7ee00d	-0.06222539
45	0x3b6b66e3	0.003591948
46	0xbcdf9991	-0.027294906
47	0x3d588ca1	0.05286849
48	0x3d8f54fe	0.06998633
49	0xbd77bb0a	-0.06048111
50	0x3d4ef5b1	0.05052728
51	0x3cde25e3	0.027117675
52	0x3da8d678	0.08244032
53	0xbd1aa40b	-0.0377541
54	0xbd52d30b	-0.051470798
55	0xbcd3d1bd	-0.025856847
56	0x3db78d44	0.08962491
57	0x3b9cf271	0.0047896435
58	0xbd916511	-0.07099355
59	0x3c8319f8	0.016003594
60	0xbc3a20fa	-0.011360401
61	0xbd78c1a9	-0.060731564
62	0xbc9f38c0	-0.01943624
63	0x3d9ef7ef	0.07762133
64	0xbd91e7e7	-0.0712431
65	0x3d87498c	0.06605825
66	0x3d46bbd3	0.048518967
67	0x3da33127	0.079683594
68	0xbd6113c2	-0.054950483
69	0x3cba8e9a	0.022773076
70	0x3caea18a	0.021317262
71	0xbc05a127	-0.0081560975
72	0xbd3eca34	-0.046579555
73	0x3ca272cd	0.019830132
74	0xbc10411c	-0.008804586
75	0x3cf31589	0.029673355
76	0xbbc0ad4e	-0.0058800345
77	0xbca37fa8	-0.019958332
78	0xbda8fe75	-0.08251659
79	0xbc6e9efc	-0.014564272
80	0x3d916f19	0.07101268
81	0xbb9a9deb	-0.0047185323
82	0x3d9160e4	0.070985585
83	0x3c13a50f	0.009011521
84	0xbd436ce1	-0.047711257
85	0xbba0ac6f	-0.004903368
86	0x3c4cb10a	0.012493381
87	0x3d1748f0	0.036934793
88	0xbd0e0b29	-0.034678612
89	0x3d914429	0.07093079
90	0xbd1c7159	-0.038194034
91	0x3d51d882	0.05123187
92	0xbcc4fb6f	-0.024045674
93	0xbcd98e3d	-0.026557082
94	0x3db50fa0	0.08840871
95	0xbcaff702	-0.021480087
96	0x3d2ceb2e	0.042216472
97	0x3d4f2ff7	0.050582852
98	0xbcc6245d	-0.024187261
99	0xbd6998b9	-0.057030413
100	0xbd66bc9f	-0.056332227
101	0x3d9eea68	0.07759553
102	0x3cd05af4	0.025433995
103	0x3d992b85	0.07479004
104	0x3d3fa0e3	0.046784293
105	0xbd282741	-0.04105306
106	0x3ce13aa8	0.02749379
107	0x3d8361ea	0.0641516
108	0x3d91c74a	0.071180895
109	0x3b118401	0.0022203925
110	0x3d893244	0.066990405
111	0x3d606faf	0.05479401
112	0x3da122e7	0.07867985
113	0xbd769460	-0.060200095
114	0x3db44d00	0.08803749
115	0xbd61dc11	-0.055141512
116	0xbd4fc9a3	-0.050729405
117	0x3a4f2695	0.00079021725
118	0xbd24abed	-0.040203024
119	0xbb7673a4	-0.0037605548
120	0xbd9b1252	-0.07571854
121	0xbd47839c	-0.048709497
122	0xbd703bfd	-0.05865096
123	0x3cff4af7	0.031163676
124	0xbd2437c3	-0.04009224
125	0xbd19f355	-0.037585575
126	0x3d7d4d8f	0.061841544
127	0x3d6bef1b	0.057601076

actor.linear3.weight f4 [128, 128]
0	0xbdaef03d	-0.085419156
1	0xbd8ba29f	-0.06818127
2	0xbcd5b479	-0.026087033
3	0xbd364a86	-0.044504665
4	0x3c179c97	0.0092536425
5	0x3d660f97	0.05616721
6	0xbd8553bf	-0.06510114
7	0x3d9f4f2a	0.07778771
8	0xbdae097a	-0.08497901
9	0x3d682987	0.05668023
10	0x3d16f795	0.036857206
11	0xbd79e6fe	-0.061011307
12	0xbb94e298	-0.0045436136
13	0xbd798b71	-0.060923997
14	0xbdae0b0b	-0.084982
15	0xbd7e07b9	-0.062019084
16	0xbcd3e895	-0.02586774
17	0x3d49d7aa	0.04927794
18	0x3d015fd1	0.03158552
19	0xbc7155e7	-0.014729953
20	0xbdb1ca22	-0.08681132
21	0x3d64554a	0.0557454
22	0x3da3cbe1	0.07997871
23	0xbba72b3d	-0.00510159
24	0x3cfcc9f1	0.030858012
25	0xbd078aba	-0.033091284
26	0x3cbe37bc	0.023219936
27	0xbdae43fb	-0.0850906
28	0x3d8d1202	0.068882
29	0x3b0393d1	0.002007712
30	0x3c65119e	0.013981251
31	0xbda2ef4e	-0.079558
32	0xba70f669	-0.00091919914
33	0xbc5fa8e6	-0.013651108
34	0x3ba2901d	0.0049610273
35	0x3bb4654e	0.0055052405
36	0x3da8aed9	0.082364745
37	0xbd13224d	-0.035921384
38	0x3d65b2ba	0.05607865
39	0xbd2a485b	-0.04157291
40	0x3c8c8436	0.017152887
41	0x3d92d856	0.07170169
42	0x3d1a68a6	0.037697457
43	0x3af03f1f	0.0018329358
44	0x3d4c014d	0.049805928
45	0x3daf90e2	0.08572556
46	0x3d1a75d4	0.037710026
47	0x3d64bd4a	0.055844583
48	0xbd52ec71	-0.05149502
49	0x3d223e07	0.039609935
50	0x3da6d9da	0.08147021
51	0xbd732fa2	-0.059371598
52	0x3db0f414	0.08640304
53	0x3d20013e	0.039063685
54	0x3d326a97	0.043558683
55	0x3c0bed33	0.008540439
56	0xbda0567e	-0.07828997
57	0x3da32783	0.07966521
58	0xbd87bd34	-0.066278845
59	0xbd42d9c1	-0.047570948
60	0xbd2c1a4e	-0.042017274
61	0x3d64eb75	0.05588861
62	0x3d026357	0.03183302
63	0x3d57cc86	0.052685283
64	0xbda960df	-0.0827043
65	0x3d862e8e	0.06551848
66	0x3c058106	0.008148437
67	0xbd0438b5	-0.032280643
68	0xbd54478d	-0.05182605
69	0x3c0a68cb	0.008447836
70	0x3c30ffc7	0.01080317
71	0xbce7a489	-0.028276699
72	0xbd47783e	-0.048698656
73	0x3c849f03	0.016189104
74	0xbd321c75	-0.04348417
75	0xbd41d1f2	-0.04731936
76	0x3d3b534c	0.045733735
77	0x3daaf8fb	0.083482705
78	0x3da0abc3	0.07845261
79	0xbcfd1bb9	-0.030897008
80	0xbd8e20f3	-0.06939878
81	0x3d541c42	0.05178476
82	0x3d39a21d	0.04532062
83	0x3a0d1625	0.0005382023
84	0xbda6ecc1	-0.08150626
85	0xbc2821e1	-0.010261984
86	0x3c83e065	0.01609821
87	0x3d53897b	0.051644783
88	0xbd5e7c2f	-0.05431765
89	0x3ce31d92	0.027724061
90	0xbbe0fb27	-0.006865877
91	0x3d9c62ea	0.07636054
92	0xbd688b6d	-0.05677359
93	0xbd817d92	-0.06322779
94	0x3d4479ae	0.047967605
95	0x3a1c6ef0	0.0005967459
96	0x3d6d85d5	0.05798896
97	0x3d97abdc	0.074058264
98	0x3d9d3a22	0.076771036
99	0xbcdb474c	-0.026767395
100	0xbd386eb4	-0.04502745
101	0xbd811c4a	-0.06304224
102	0x3d4ee0ce	0.05050736
103	0x3d1d4040	0.03839135
104	0xbd55c202	-0.052186973
105	0x3c31c784	0.010850791
106	0xbd53ca19	-0.051706407
107	0xbda85a78	-0.082203805
108	0x3d00382e	0.031303577
109	0x3c2f5942	0.010702433
110	0xbcd4a19b	-0.025955966
111	0x3dabb02b	0.08383211
112	0xbd16e158	-0.036836
113	0x3d95612c	0.07293925
114	0x3d07a99d	0.03312074
115	0xbdafdc37	-0.085869245
116	0xbba1f0c3	-0.004942031
117	0x3c8433d3	0.016137993
118	0xbd35d938	-0.04439661
119	0x3d885508	0.066568434
120	0x3da92ecc	0.08260879
121	0x3d8286be	0.06373356
122	0x3da51539	0.080606885
123	0x3d687fae	0.05676239
124	0xbd2e650e	-0.042576842
125	0xbbf9b755	-0.007620732
126	0xbd3fc6a1	-0.046820287
127	0x3d287403	0.041126262
128	0x3d1b0276	0.037844144
129	0x3c28ad2a	0.010295192
130	0xbcb2daf3	-0.021832919
131	0xbd5019ae	-0.05080574
132	0xbd9ef48d	-0.07761488
133	0x3d977c39	0.073967405
134	0x3d5040fb	0.05084322
135	0xbc2389b1	-0.009981559
136	0x3ceabe11	0.028655084
137	0xbcdf64eb	-0.027269801
138	0x3db08d90	0.08620751
139	0x3d68b222	0.056810506
140	0xbd9da7c2	-0.07698013
141	0x3db47fd4	0.08813444
142	0x3d937a08	0.0720101
143	0x3a9424ce	0.0011302473
144	0xbd3c8689	-0.04602674
145	0xbb4baf45	-0.003107981
146	0x3d4dedab	0.050275486
147	0xbd93d621	-0.07218576
148	0xbc29b828	-0.010358848
149	0xbdb4d5ac	-0.08829817
150	0x3cb6dd17	0.02232222
151	0xbd72c49d	-0.059269536
152	0x3d1b7e04	0.037961975
153	0x3d599921	0.05312455
154	0x3d74a58b	0.059728187
155	0xbcda1a9f	-0.026624022
156	0x3db30dc1	0.08742858
157	0x3d490164	0.04907359
158	0xbd0dd68b	-0.034628432
159	0x3dab71e3	0.083713315
160	0x3d1f3518	0.038868994
161	0x3d5136e8	0.051077753
162	0xbcf22649	-0.029559271
163	0x3d404574	0.046941236
164	0x3c908e4e	0.017645981
165	0xbd829494	-0.06375995
166	0x3d5a135d	0.053241123
167	0xbda788f0	-0.08180416
168	0xbd709ca7	-0.058743145
169	0x3d803ad3	0.0626122
170	0xbd719783	-0.058982383
171	0x3d809800	0.06278992
172	0xbcf16ea9	-0.029471712
173	0x3d113540	0.035451174
174	0xbcb7f9a7	-0.02245791
175	0x3c6d8a21	0.0144982645
176	0x3d1f9d14	0.03896816
177	0xbd77a9e6	-0.060464762
178	0x3c6903bb	0.014222081
179	0x3d324c2f	0.043529686
180	0xbd80708f	-0.06271469
181	0x3c0ee39d	0.008721259
182	0x3c6f796b	0.014616351
183	0xbd3ad946	-0.045617364
184	0x3d512d7b	0.051068764
185	0x3da89da1	0.0823319
186	0x3c4eca0d	0.012621415
187	0x3cc74b92	0.024328027
188	0x3d64b5bc	0.055837378
189	0x3c996986	0.018727075
190	0x3c3b6842	0.011438431
191	0xbda848a1	-0.08216978
192	0x3d0b4d61	0.03400934
193	0xbdab4e07	-0.08364492
194	0xbd8a65d6	-0.06757705
195	0xbda5dbec	-0.080985874
196	0xbd233da6	-0.039853714
197	0xbd1973ae	-0.037463836
198	0xbce457ed	-0.027873958
199	0xbd88fae9	-0.06688482
200	0x3c728351	0.014801816
201	0x3d6ba49d	0.057530034
202	0x3a00bf36	0.0004911305
203	0x3a97c2ed	0.0011578478
204	0xbd2c8359	-0.04211745
205	0x3d11a319	0.035555933
206	0x3cb01d71	0.021498414
207	0xbd905222	-0.070469156
208	0xbcd09a0a	-0.025464077
209	0x3c9d7aad	0.019223535
210	0xbc4f3f36	-0.012649348
211	0x3cc13b05	0.023587713
212	0x3cafb854	0.0214502
213	0xbc533e97	-0.012893341
214	0xbc71e642	-0.01476437
215	0x3d1c6c35	0.03818913
216	0xbd8d69a4	-0.06904915
217	0x3ca586a4	0.020205803
218	0x3d9002cd	0.07031784
219	0x3ca598f0	0.020214528
220	0x3d232b9b	0.039836507
221	0xbbf71ec8	-0.007541511
222	0xbc85704f	-0.016288904
223	0xbccb8508	-0.024843708
224	0xbd3b2d72	-0.045697637
225	0x3daeab39	0.08528752
226	0xbc9cdafa	-0.019147385
227	0x3d8571c0	0.06515837
228	0x3c595ed4	0.013267238
229	0xbd119df4	-0.035551026
230	0x3cedb8f1	0.029018851
231	0xbd59fa04	-0.05321695
232	0x3d97dd19	0.07415218
233	0x3d56dce1	0.05245674
234	0x3d69b8e3	0.057061087
235	0x3c7d1939	0.015447908
236	0x3d2f48b1	0.042793933
237	0xbda44eee	-0.08022867
238	0x3cf3b7d1	0.029750736
239	0x3db02cc3	0.086022876
240	0xbda3c141	-0.07995845
241	0x3d6be7e3	0.05759419
242	0x3c67d756	0.014150461
243	0xbc1b6ed5	-0.009486874
244	0x3d648cc5	0.05579831
245	0x3d0c92a4	0.034319535
246	0xbdb0a98d	-0.08626089
247	0xbda2911b	-0.07937833
248	0xbd8ee857	-0.06977909
249	0xbc4009a6	-0.01172105
250	0xbd923bba	-0.07140298
251	0xbda9723a	-0.0827374
252	0xbcb1b75b	-0.021693876
253	0xbc41b1cb	-0.011822174
254	0x3c86584d	0.016399527
255	0xbd793173	-0.060838174

actor.linear3.bias f4 [128]
0	0xbccb1211	-0.024788888
1	0x3da93b9b	0.08263322
2	0xbd4a1f89	-0.04934648
3	0xbdb700b3	-0.0893568
4	0xbd7e6fba	-0.06211827
5	0x3d418a09	0.04725078
6	0x3ca1aa4e	0.019734528
7	0xbd492344	-0.049105898
8	0xbc57358c	-0.013135325
9	0x3d9a054f	0.07520544
10	0xbd8490cd	-0.06472931
11	0x3d989a55	0.074513115
12	0x3d83309e	0.06405757
13	0x3d8437e9	0.064559765
14	0x3d5653bc	0.05232595
15	0xbd707633	-0.058706474
16	0x3c891db9	0.016737806
17	0x3da8ba90	0.08238709
18	0x3d709bfe	0.058742516
19	0x3cb2000c	0.021728538
20	0x3c31a7b0	0.0108432025
21	0xbb11713a	-0.0022192732
22	0xbcd8c64e	-0.026461747
23	0xbd00eb60	-0.03147447
24	0xbd4f0849	-0.05054501
25	0x3da7e68e	0.08198272
26	0xbd44f0a0	-0.04808104
27	0x3ce51710	0.027965099
28	0xbd6d8ca9	-0.057995472
29	0x3d16bfa0	0.03680384
30	0x3b96d8cd	0.0046034814
31	0x3b59720a	0.0033179545
32	0x3d894e95	0.067044415
33	0xbd261d35	-0.040555198
34	0x3d393938	0.045220584
35	0xbdb7ab38	-0.08968204
36	0xbbbfe1b5	-0.005855764
37	0xbda73188	-0.08163744
38	0x3cb4c915	0.02206854
39	0xbda4b257	-0.08041828
40	0xbd8affe4	-0.067870885
41	0x3d7a8a63	0.061167132
42	0x3cf6a610	0.030108482
43	0x3d5844e9	0.052800093
44	0xbd8c5012	-0.0685121
45	0xbb94e466	-0.004543829
46	0x3b8ee3ae	0.0043606376
47	0x3dab9699	0.083783336
48	0xbc32204d	-0.010871959
49	0x3c9b6a4c	0.018971585
50	0x3d8d0476	0.068856165
51	0x3ca89994	0.020581044
52	0xbc999eed	-0.01875254
53	0xbdaff5f7	-0.08591836
54	0xbda33ed6	-0.079709694
55	0x3d585d44	0.05282332
56	0x3ce13d3e	0.027495023
57	0xbcfb279c	-0.030658536
58	0x3b8170f9	0.003950235
59	0x3cf787ac	0.03021606
60	0x3bc395c0	0.0059687793
61	0xbc33739d	-0.010952857
62	0x3d4f2f17	0.050582018
63	0x3c88d1e6	0.01670165
64	0xbd0ed4a2	-0.03487075
65	0xbccabb55	-0.02474753
66	0x3d81ce85	0.063382186
67	0xbd99e134	-0.07513657
68	0xbd909a17	-0.0706064
69	0x3da37ed6	0.079831764
70	0x3d69173a	0.056906916
71	0xbd907696	-0.070538685
72	0x3d3133c9	0.043262277
73	0xbd9baee3	-0.07601716
74	0xbb96709a	-0.00459106
75	0x3ca411ff	0.020028112
76	0xbc3c4b0e	-0.011492504
77	0xbc985814	-0.018596686
78	0xbd99c6da	-0.07508631
79	0x3db16e9a	0.08663674
80	0x3da16488	0.07880503
81	0xbda574a5	-0.08078889
82	0x3b4c1e18	0.0031145867
83	0x3cc6cb96	0.024267
84	0x3b955284	0.004556956
85	0xbc3a3187	-0.011364347
86	0x3b3fa0ce	0.0029240134
87	0xbd841cb6	-0.06450789
88	0xbd9650a1	-0.073395975
89	0xbccdd454	-0.02512566
90	0xbc6e1d99	-0.014533424
91	0x3d819ded	0.0632895
92	0x3b72e8b8	0.003706498
93	0x3d367ab5	0.044550616
94	0x3ca9df3d	0.020736331
95	0x3cb6149b	0.022226622
96	0xbc5362f8	-0.012902014
97	0x3dadc2bc	0.08484408
98	0x3d0e2cc9	0.03471068
99	0xbd51a630	-0.05118388
100	0x3c124ba7	0.00892917
101	0xbcd82f55	-0.026389757
102	0x3d2ae4c4	0.041722074
103	0x3d8a05a9	0.06739361
104	0x3da473b5	0.08029882
105	0x3cf1bd09	0.029509084
106	0xbd4b8c0f	-0.049694117
107	0xbcf9d492	-0.03049687
108	0x3db2f479	0.08738036
109	0xbbff782b	-0.0077963076
110	0x3daa1a47	0.08305793
111	0xbd9da049	-0.076965876
112	0x3d1bc709	0.03803161
113	0x3ca271d1	0.019829663
114	0xbd91479b	-0.07093736
115	0xbd6c75de	-0.057729594
116	0xbd68791c	-0.056756124
117	0xbd70f94c	-0.058831498
118	0x3d764b60	0.060130477
119	0x3d9e2375	0.07721607
120	0x3d3c6b9d	0.046001066
121	0x3da20306	0.07910733
122	0x3d7a9962	0.061181433
123	0xbcb529fe	-0.02211475
124	0x3cd1caf7	0.025609476
125	0x3ac5def4	0.0015096352
126	0x3db25f5d	0.08709595
127	0xbd94e867	-0.0727089

actor.linear4.weight f4 [9, 128]
0	0x3d24cc71	0.040234033
1	0x3cba0e3b	0.022711864
2	0xbc1cf6e3	-0.009580347
3	0xbdabbb19	-0.083852954
4	0xbd6942ac	-0.05694835
5	0xbcac5a48	-0.021039143
6	0x3d0804b8	0.033207625
7	0xbd882e87	-0.066494994
8	0x3d625ffd	0.055267323
9	0xbcb6538c	-0.022256635
10	0xbc3c5e48	-0.011497088
11	0x3d49c576	0.04926058
12	0xbc20cd5e	-0.009814588
13	0xbd13d512	-0.03609187
14	0x3d8ab090	0.06771958
15	0x3d4818b6	0.04885169
16	0x3d3ab462	0.045582183
17	0x3cb4b82b	0.022060474
18	0x3d5f885d	0.054573406
19	0x3d8fa92e	0.0701469
20	0xbd869682	-0.06571676
21	0xbd731f63	-0.059356105
22	0xbd983392	-0.07431711
23	0xbce779c7	-0.02825631
24	0xbd931ca7	-0.071831994
25	0x3ae06971	0.0017121268
26	0x3cc07971	0.023495408
27	0xbc43cef4	-0.011951197
28	0xbd985bb6	-0.074393675
29	0x3db15bec	0.08660111
30	0xbd5faee8	-0.054610163
31	0x3cb514da	0.02210467
32	0xbd26703e	-0.040634386
33	0xbd7e7736	-0.062125407
34	0xbbd187ab	-0.0063943467
35	0xbd64d13b	-0.0558636
36	0x3cd3e022	0.02586371
37	0xbcaa3f2f	-0.020782081
38	0x3d93babd	0.07213352
39	0xbd537745	-0.051627416
40	0xbd1dd434	-0.03853245
41	0xbd46c60a	-0.04852871
42	0xbd5fad3a	-0.05460856
43	0xbd4743f8	-0.048648804
44	0x3d8e1687	0.069378905
45	0x3d38cb45	0.045115728
46	0xbd4e7c41	-0.050411467
47	0xbd05e25a	-0.03268657
48	0x3d463778	0.048392743
49	0x3d981ca4	0.07427338
50	0xbc80c231	-0.015717598
51	0xbd75114a	-0.05983094
52	0xbd833be9	-0.06407911
53	0xbd9516ef	-0.07279765
54	0x3d2a0115	0.04150494
55	0xbd9bec8e	-0.076134786
56	0xbcf36d0d	-0.029715085
57	0x3d5f5e40	0.054533243
58	0x3dabed75	0.08394901
59	0x3afb4e9f	0.0019173211
60	0xbd6f4495	-0.058415014
61	0xbd85526c	-0.06509861
62	0xbd179688	-0.037008792
63	0x3d5ad393	0.05342443
64	0xbd5beeb9	-0.05369446
65	0x3d9cdc6e	0.07659231
66	0x3c8f6838	0.01750575
67	0x3d949443	0.07254841
68	0xbca7362a	-0.02041157
69	0x3da57594	0.08079067
70	0x3d27c184	0.040956035
71	0xbd33bca5	-0.043881077
72	0x3ce6b23f	0.028161166
73	0xbd345566	-0.044026755
74	0xbc9a762d	-0.018855179
75	0x3da2c694	0.07948032
76	0x3d9b25ba	0.07575555
77	0x3cb9091c	0.022587352
78	0x3d9bdbc1	0.07610274
79	0x3dabb19f	0.08383488
80	0x3d2c53f5	0.042072255
81	0x3d1c160c	0.038106963
82	0x3c71fc26	0.0147695895
83	0x3c1c7980	0.009550452
84	0x3d243b9b	0.040095907
85	0x3c9c171b	0.019053986
86	0x3c4fe1ca	0.01268811
87	0x3da18a41	0.07887698
88	0x3c616fdc	0.0137595795
89	0x3d8c320a	0.06845482
90	0x3d4d5277	0.050127473
91	0xbd575bad	-0.052577663
92	0x3d2bbe2d	0.041929413
93	0xbc74117d	-0.014896748
94	0xbda77d83	-0.08178236
95	0x3d5ffdaf	0.05468529
96	0x3bee0055	0.007263223
97	0xbcc7b37a	-0.024377573
98	0x3dac30b6	0.084077284
99	0x3d3af97d	0.045648087
100	0xbdb73780	-0.08946133
101	0xbd38d25a	-0.045122482
102	0x3d7d5804	0.061851516
103	0xba356b46	-0.0006920587
104	0xbd7e850c	-0.062138602
105	0x3d8fc527	0.07020026
106	0xbd9d2547	-0.07673126
107	0xbd7341d5	-0.059388954
108	0xbd092347	-0.03348091
109	0xbc8a3a67	-0.016873552
110	0x3db84a9b	0.08998605
111	0x3d24fe1a	0.040281393
112	0xbd3b981d	-0.045799363
113	0xbb6baf57	-0.0035962665
114	0xbd726402	-0.059177406
115	0x3d8df6a2	0.06931807
116	0x3d8cc58f	0.06873619
117	0x3da3cf4c	0.07998523
118	0xbd437fc6	-0.047729276
119	0xbd1ca08f	-0.038239058
120	0x3d1e35e2	0.038625605
121	0x3c9375b6	0.018000465
122	0xbcc58812	-0.024112735
123	0xbd85a0fb	-0.06524845
124	0x3c075c04	0.008261684
125	0xbd5ec0dc	-0.054383144
126	0xbd8580b6	-0.0651869
127	0xbd853d05	-0.06505779
128	0x3d87b993	0.06627192
129	0x3d69a730	0.057044208
130	0x3d98e421	0.07465387
131	0x3d57dbe6	0.052699946
132	0xbd87e338	-0.066351354
133	0x3da176c9	0.078839846
134	0x3d862535	0.065500654
135	0x3cba63d6	0.022752684
136	0xbb8c7d8a	-0.0042874264
137	0x3b083768	0.0020784978
138	0xbb07178e	-0.0020613405
139	0x3d561f2d	0.052275825
140	0x3d0bd559	0.03413901
141	0xbc932a24	-0.01796443
142	0xbc34e3d3	-0.011040646
143	0x3d275600	0.0408535
144	0xbcdf3532	-0.027247045
145	0x3cd6a865	0.026203344
146	0x3ca4e47a	0.020128477
147	0x3d905a00	0.07048416
148	0xbd809fe5	-0.062804975
149	0xbd819994	-0.06328121
150	0x3cc46f72	0.023978923
151	0xbcb03f44	-0.021514542
152	0x3d4a6993	0.04941709
153	0x3ce1323e	0.027489778
154	0x3d6dee51	0.058088604
155	0x3ce12cc0	0.027487159
156	0xbd89641c	-0.067085475
157	0xbc3ecfff	-0.01164627
158	0xbd0bce67	-0.034132387
159	0x3d8deac4	0.069295436
160	0xbc24fa30	-0.010069415
161	0xbd7e5809	-0.062095676
162	0xbdad9cad	-0.08477149
163	0x3da239b7	0.079211645
164	0xbd7ef6d1	-0.0622471
165	0x3c9e9ce4	0.01936192
166	0x3c17b3d3	0.009259182
167	0x3da27560	0.07932544
168	0xbc0e5b1d	-0.008688715
169	0xbd9653a7	-0.07340174
170	0x3caa11a0	0.020760357
171	0xbd9f3c13	-0.0777513
172	0xbc80dd95	-0.015730659
173	0xbd82b866	-0.063828275
174	0x3bd071e4	0.006361233
175	0x3cf4fc22	0.029905383
176	0xbd5a9e3e	-0.053373568
177	0xbdb7c8cc	-0.08973846
178	0xbcea75e5	-0.02862067
179	0x3c1ec906	0.009691482
180	0x3d1f07db	0.03882585
181	0x3d565a08	0.052331954
182	0x3d9e62db	0.07733699
183	0x3ca892dc	0.02057784
184	0xbc0c7f1f	-0.00857523
185	0x3c83851e	0.016054686
186	0x3c25319a	0.010082627
187	0x3d400be2	0.046886332
188	0x3d0ec362	0.0348543
189	0x3d45b275	0.048265893
190	0x3cf678e0	0.030086935
191	0xbd661ff4	-0.056182817
192	0xbc560011	-0.013061539
193	0x3d807205	0.062717475
194	0xbd94f8e5	-0.07274035
195	0xbda5bcab	-0.08092626
196	0xbd6f2b00	-0.058390617
197	0x3c406e76	0.011745086
198	0x3db3c796	0.08778302
199	0x3d603ac2	0.054743536
200	0xb89c107e	-7.4417316e-05
201	0xbc4c9f28	-0.012489118
202	0xbcc41cc3	-0.023939496
203	0x3d62a217	0.055330362
204	0xbd87dd81	-0.066340454
205	0x3d391426	0.04518523
206	0x3d3f95a1	0.046773557
207	0x3d8d6de8	0.069057286
208	0x3d296224	0.04135336
209	0x3d891aa1	0.06694532
210	0x3ce4a7d7	0.027912064
211	0xbda7bac2	-0.08189918
212	0xbd5ee644	-0.054418817
213	0x3d9a2da2	0.07528235
214	0xbd97e80f	-0.074173085
215	0xbdb02342	-0.08600475
216	0x3d200eb5	0.039076526
217	0xbc3d306d	-0.01154719
218	0x3c0b1496	0.008488795
219	0xbdb308a1	-0.0874188
220	0x3d3da072	0.04629559
221	0xbd89f759	-0.06736631
222	0x3d879013	0.06619277
223	0x3d9f1c20	0.07769036
224	0xbdac1a1c	-0.084034175
225	0xbd32cb70	-0.043651044
226	0xbd820808	-0.06349188
227	0x3bd1a27f	0.006397545
228	0x3b02b527	0.00199444
229	0x3d35f393	0.044421744
230	0xbd96b4a9	-0.07358677
231	0xbc55c48a	-0.013047347
232	0xbc105d6e	-0.008811338
233	0xbcb415a4	-0.021982975
234	0x3cd14755	0.02554671
235	0x3d1d471a	0.038397886
236	0x3d0d537a	0.034503438
237	0xbc437a9f	-0.011931091
238	0x3c9593f5	0.018259028
239	0xbdab4e71	-0.08364571
240	0x3a0fed9c	0.00054904236
241	0x3d400a3c	0.04688476
242	0x3dadf2b7	0.0849356
243	0x3cffa7a6	0.03120787
244	0x3dae0e01	0.08498765
245	0x3d32a146	0.043610834
246	0xbd152aa4	-0.03641762
247	0x3c62fae5	0.013853763
248	0x3d5bef44	0.05369498
249	0xbdb3e46e	-0.08783804
250	0x3d5177ea	0.05113975
251	0xbd894d1d	-0.06704161
252	0x3cfc2f1f	0.030784188
253	0xbd8eceb0	-0.06973016
254	0x3db1f90f	0.08690082
255	0x3b735911	0.0037131945

actor.linear4.bias f4 [9]
0	0x3d775093	0.060379576
1	0xbda036bc	-0.0782294
2	0x3caa6795	0.020801345
3	0x3db2e910	0.087358594
4	0x3bbeee73	0.005826765
5	0xbd3699e4	-0.044580355
6	0x3d75394c	0.059869096
7	0x3d7bcd8f	0.061475333
8	0x3d94791f	0.072496645

critic.linear1.weight f4 [128, 120]
0	0x3d9ae4fc	0.075632066
1	0x3dff6f14	0.12472358
2	0x3dae0b19	0.084982105
3	0x3c11d658	0.008901201
4	0xbd0d07f3	-0.03443141
5	0x3d8dcbed	0.069236614
6	0x3cbcb919	0.02303748
7	0x3d149d31	0.036282722
8	0x3a6dba95	0.00090686354
9	0x3de9b8d3	0.114122055
10	0x3d89bbc2	0.06725265
11	0xbd9138d0	-0.07090914
12	0x3d584cc7	0.052807596
13	0xbcbca41f	-0.023027478
14	0xbd3f5c3f	-0.046718832
15	0xbca73fa8	-0.020416096
16	0x3d761807	0.060081508
17	0xbdc1bf54	-0.09460321
18	0xbc53f8b4	-0.012937713
19	0x3d7072e1	0.058703307
20	0x3cc4cbfe	0.024023052
21	0x3b521663	0.00320568
22	0x3d38dc72	0.045132108
23	0xbd3c4766	-0.04596653
24	0x3cfbe54a	0.030748982
25	0xbd6a4364	-0.057193175
26	0x3c9420f0	0.018082112
27	0x3ca970c5	0.020683656
28	0xbd12e876	-0.035866223
29	0x3d380750	0.04492885
30	0x3dae34f9	0.085061975
31	0xbd0cd07e	-0.03437852
32	0xbd640761	-0.0556711
33	0x3d216f86	0.039412998
34	0x3d9d2768	0.07673532
35	0x3c9e4f7f	0.019325016
36	0x3d99d605	0.07511524
37	0x3da2d51e	0.07950805
38	0xbdb9f67a	-0.09080215
39	0xbcb05f1c	-0.021529727
40	0xbc1fd5d4	-0.00975557
41	0x3d90330a	0.07040985
42	0xbdaabb4b	-0.083365045
43	0x3dd5dbc2	0.10442306
44	0xbcf7c80a	-0.030246753
45	0xbd8464b2	-0.064645186
46	0xbd77e37b	-0.060519677
47	0xbd25e62a	-0.040502705
48	0x3da53543	0.080667995
49	0x3dc5cb9e	0.096579775
50	0x3d178969	0.03699628
51	0x3db125b1	0.08649767
52	0x3b20d51d	0.0024541088
53	0xbadbca99	-0.0016768753
54	0x3dadb52a	0.0848182
55	0x3dce6d5b	0.10079452
56	0xbdae49a0	-0.085101366
57	0xbb7c97cf	-0.0038542633
58	0xbdb16d0b	-0.086633764
59	0x3d700e05	0.05860712
60	0xbd8ffbce	-0.0703045
61	0x3c4818ca	0.012212941
62	0x3bc6d24a	0.006067549
63	0xbdb822d7	-0.0899102
64	0xbc89c115	-0.016815701
65	0xbdeaff02	-0.1147442
66	0x3da366bd	0.0797858
67	0xbc903556	-0.017603558
68	0x3dce8baf	0.10085236
69	0xbd280c91	-0.04102761
70	0x3cb5a95f	0.022175489
71	0xbd194e87	-0.037428405
72	0xbd9a969f	-0.0754826
73	0xbde1c7dc	-0.11024448
74	0x3ce3b25c	0.02779501
75	0xbd654896	-0.055977426
76	0xbcf23d02	-0.029570106
77	0x3db2ef79	0.08737082
78	0x3cc41225	0.023934433
79	0xbce0670b	-0.027392885
80	0xbdc85e55	-0.097836174
81	0xbdc26c47	-0.094933085
82	0xbd94464c	-0.072399706
83	0xbcf97ee6	-0.030456018
84	0x3dbd931c	0.092565745
85	0xbc470b08	-0.012148626
86	0xbd3a67a4	-0.045508996
87	0x3cfe32f9	0.031030165
88	0xbc996278	-0.018723711
89	0xbd921944	-0.07133725
90	0xbdbdfceb	-0.09276756
91	0x3d88b872	0.06675805
92	0x3d1dfa84	0.03856899
93	0xbb676e35	-0.0035313491
94	0x3d128adf	0.03577697
95	0x3d76d4a4	0.060261384
96	0x3d227892	0.039665766
97	0x3d33c8b6	0.043892585
98	0xbc6b38ad	-0.014356774
99	0xbc0f5bfd	-0.008749959
100	0xbd4c2e4d	-0.049848843
101	0x3db1636d	0.08661542
102	0xbd6372df	-0.05552947
103	0xbbfb7105	-0.007673385
104	0xbc5024e4	-0.012704108
105	0x3d9eb79c	0.077498645
106	0xbda35cb4	-0.07976666
107	0x3d7b03bb	0.061282855
108	0xbdcc42af	-0.099736564
109	0x3db199c6	0.08671908
110	0x3de09d06	0.1096745
111	0xbc898e5d	-0.016791517
112	0x3db48608	0.08814627
113	0xbde31c3e	-0.11089371
114	0x3dcf54b3	0.10123577
115	0x3b12c4a8	0.0022395048
116	0xbc71ecda	-0.0147659425
117	0xbd63903d	-0.05555748
118	0x3de6f41c	0.11277029
119	0x3dc72c94	0.097252995
120	0xbd1627cb	-0.036659043
121	0xbdd4520b	-0.10367211
122	0x3d14fe06	0.036375068
123	0x3da2b2d4	0.07944265
124	0xbc1e099e	-0.009645848
125	0xbd9d1cfb	-0.07671543
126	0xbd8d9e23	-0.06914928
127	0x3d0f05a1	0.034917478
128	0xbbbf59e8	-0.005839575
129	0xbd3a36d8	-0.04546246
130	0xbd18e206	-0.037324928
131	0x3d9723fa	0.07379909
132	0xbbd145be	-0.0063864877
133	0xbda9c70f	-0.082899205
134	0x3d8292f1	0.06375683
135	0x3d56d846	0.05245235
136	0x3d1f5779	0.03890178
137	0xbc683734	-0.014173318
138	0xbda58153	-0.08081307
139	0xbd6dabc5	-0.05802514
140	0xbd82ea5b	-0.06392356
141	0x3c37d9b5	0.011221339
142	0x3dac9f38	0.08428806
143	0xbd40e123	-0.047089707
144	0x3d71e3ef	0.059055265
145	0xbb323e7c	-0.0027197888
146	0x3d0b14f1	0.03395552
147	0x3ca4b584	0.020106085
148	0x3d485806	0.04891207
149	0x3c29544c	0.010335039
150	0x3d5c18be	0.053734533
151	0xbd4d6d8d	-0.050153304
152	0xbd8b312c	-0.06796488
153	0xbd906dad	-0.07052169
154	0xbc7c3768	-0.015394069
155	0x3d4371bc	0.047715887
156	0xbd0e4441	-0.03473306
157	0xbdabafa0	-0.08383107
158	0x3d93ed2d	0.07222972
159	0x3caf7f7a	0.02142309
160	0xbc0f8a7f	-0.008761047
161	0x3c9a56f5	0.018840292
162	0x3d2d0f3f	0.042250868
163	0x3ca240d8	0.01980631
164	0xbd4a464f	-0.049383458
165	0x3d4ab47b	0.049488526
166	0xbd968435	-0.07349435
167	0xbd19d0f5	-0.037552793
168	0xbdb9304a	-0.090424135
169	0x3d1e90d4	0.038712338
170	0x3d0ffcce	0.035153203
171	0xbd8110d4	-0.06302038
172	0xbd90dafa	-0.070730165
173	0xbdc3c560	-0.09559131
174	0x3da1b2e7	0.07895451
175	0xbdc6699b	-0.096881114
176	0xbd6d216c	-0.0578932
177	0x3a4b6a55	0.000775968
178	0x3da668da	0.081254676
179	0xbd9dc708	-0.07703978
180	0x3d556f84	0.052108303
181	0x3ceb6136	0.028732877
182	0x3d109d4f	0.03530627
183	0x3b123aa8	0.0022312794
184	0x3dacc3f7	0.08435815
185	0x3cb939e2	0.022610608
186	0xbd7562dc	-0.059908733
187	0xbdad5fe8	-0.08465558
188	0x3b789687	0.0037931518
189	0xbdcb577e	-0.09928797
190	0xbcf882e7	-0.030335857
191	0xbdca409b	-0.09875604
192	0xbd030a99	-0.03199253
193	0x3d95a22d	0.07306323
194	0x3d9da1c4	0.0769687
195	0x3a835c0a	0.0010021937
196	0x3d013789	0.031547103
197	0xbd544702	-0.05182553
198	0x3d33d083	0.043900024
199	0x3d639b4b	0.05556802
200	0xbd0df8e6	-0.034661196
201	0xbd167688	-0.036734134
202	0x3da248f1	0.07924069
203	0xbd598049	-0.053100858
204	0x3b87ce74	0.004144484
205	0xbb7e4a0e	-0.0038801464
206	0xbccec5c2	-0.025240783
207	0xbdebe8a8	-0.11518985
208	0xbcf2905a	-0.029609848
209	0x3c474e09	0.012164601
210	0xbc903ee0	-0.017608106
211	0xbba7b9a9	-0.005118568
212	0x3da0f05f	0.07858347
213	0xbda34c18	-0.07973498
214	0xbb834bbd	-0.0040068314
215	0x3ba5dccd	0.005061722
216	0x3ce3de19	0.027815865
217	0xbd021509	-0.031758342
218	0xbceb55a3	-0.028727358
219	0xbd73f8ba	-0.059563376
220	0xbdad9055	-0.08474795
221	0xbd3605c2	-0.044439085
222	0x3d7ad118	0.061234564
223	0x3d74a636	0.059728824
224	0xbd57e915	-0.05271252
225	0xbb709666	-0.0036710738
226	0x3daa0636	0.08301966
227	0xbcd0cf9d	-0.025489623
228	0x3d104b65	0.03522815
229	0x3d884238	0.06653255
230	0xbc1e7390	-0.009671107
231	0x3d99dd22	0.07512881
232	0x3d358958	0.044320434
233	0x3da5ea91	0.081013806
234	0xbd98ae80	-0.07455158
235	0xbd1d79eb	-0.03844635
236	0xbc2a7d7f	-0.010405897
237	0x3d82420f	0.06360256
238	0x38304a94	4.2031126e-05
239	0xbbe9b9fb	-0.0071327663
240	0xbba1e5be	-0.0049407175
241	0x3d9afaa1	0.07567335
242	0xbad7df82	-0.0016469809
243	0xbdde5ca3	-0.10857513
244	0xbdb07f79	-0.086180635
245	0x3c97e1a0	0.018540204
246	0xbd38856f	-0.045049127
247	0xbd2d2808	-0.042274505
248	0x3d970c6e	0.07375418
249	0x3e0032b0	0.12519336
250	0x3db84096	0.08996694
251	0xbd44aab2	-0.04801435
252	0x3cddab4a	0.027059216
253	0x3d0a5bc3	0.033778917
254	0x3d2aa791	0.04166371
255	0x3b05ab91	0.002039645

critic.linear1.bias f4 [128]
0	0x3af0566d	0.0018336304
1	0xbd0fdd04	-0.035122886
2	0x3dcee1c0	0.10101652
3	0xbd2b5633	-0.041830253
4	0x3dad1e96	0.084530994
5	0x3debd4fe	0.115152344
6	0x3d873a8d	0.066029646
7	0xbcf9ec1b	-0.030508092
8	0xbbac87a6	-0.005265194
9	0x3d1566ff	0.036475178
10	0xbb84d0ae	-0.004053197
11	0x3d669ef3	0.05630393
12	0xbdba6c1d	-0.09102652
13	0x3d99e68b	0.07514676
14	0x3db23bcb	0.08702811
15	0x3d893dc0	0.06701231
16	0xbd45bc3b	-0.048275214
17	0x3e033643	0.12813668
18	0x3df6105b	0.12014838
19	0x3c6ae929	0.014337816
20	0x3dcdb7da	0.100448325
21	0x3d8f2743	0.069899105
22	0x3c93fef3	0.018065905
23	0x3c965eb1	0.0183557
24	0x3d473f67	0.04864445
25	0xbca64308	-0.020295635
26	0xbd6557ce	-0.05599194
27	0xbc6e1e73	-0.014533627
28	0x3d25dc38	0.04049322
29	0x3d9a95db	0.07548114
30	0x3d55d827	0.052208092
31	0x3de25d31	0.11052931
32	0x3dbade88	0.09124476
33	0x3ce729df	0.028218208
34	0xbc2f006e	-0.010681255
35	0x3cd9cdad	0.026587332
36	0xbb81e189	-0.0039636535
37	0x3de01d00	0.10943031
38	0x3db8a8f6	0.09016602
39	0xbdb613b8	-0.0889048
40	0x3dd04c48	0.101707995
41	0xbd32daad	-0.043665577
42	0x3c661881	0.014043928
43	0x3dce765e	0.100811705
44	0x3df68d79	0.120387025
45	0x3d33f984	0.04393913
46	0x3da9196f	0.08256804
47	0xbd22f366	-0.039782904
48	0xbdd9f402	-0.10642244
49	0xbc50316f	-0.012707098
50	0x3df06b84	0.11739257
51	0x3ca6b968	0.02035208
52	0xbdd82410	-0.105537534
53	0x3d69a666	0.057043456
54	0xbdf78ec2	-0.12087776
55	0x3d60e49f	0.05490553
56	0x3da9fdaf	0.083003394
57	0xbdfd8744	-0.123793155
58	0x3dcb2d78	0.09920782
59	0xbdd58ff3	-0.10427847
60	0xbdde84f3	-0.10865202
61	0x3cdd970e	0.027049568
62	0xbbcc8b17	-0.0062421667
63	0xbd904fb3	-0.070464514
64	0xbc6dace3	-0.014506551
65	0x3dbecd0f	0.093164556
66	0xbcfd5965	-0.030926416
67	0x3cdf3a9a	0.027249623
68	0x3ce5ade5	0.028037021
69	0x3cace95c	0.021107368
70	0x3d0f2238	0.034944743
71	0xbd567a7b	-0.0523629
72	0xbd120c8f	-0.035656508
73	0x3de9169a	0.11381264
74	0x3ce4e8cc	0.027943037
75	0xbce30673	-0.027713036
76	0x3dd0f983	0.102038406
77	0xbb32903e	-0.002724662
78	0xbd613b6e	-0.054988317
79	0xbd23979e	-0.039939515
80	0xbc8df348	-0.01732792
81	0x3da0dad5	0.07854239
82	0x3dc2f592	0.09519495
83	0xbdcea8bc	-0.10090777
84	0x3df02aca	0.11726911
85	0x3df15547	0.117838435
86	0xbcdd2da1	-0.026999297
87	0x3e03abdc	0.12858528
88	0x3b80467e	0.0039146533
89	0xbdbb55d8	-0.09147233
90	0x3dfb1321	0.12259508
91	0x3cce6a86	0.025197279
92	0xbb90b812	-0.004416474
93	0x3d52af0d	0.051436473
94	0xbd628eae	-0.05531185
95	0x3dcd24cd	0.10016785
96	0x3dda51bf	0.10660123
97	0x3d576c28	0.05259338
98	0xbc0d1da2	-0.008613022
99	0xbd4273db	-0.04747377
100	0x3daefe9f	0.08544659
101	0xbddc1c55	-0.107475914
102	0xbd5e41de	-0.054262035
103	0xbd0f6df6	-0.035016976
104	0xbd5d04bb	-0.05395959
105	0x3df39f11	0.11895574
106	0xbd0b25fd	-0.033971775
107	0x3d86a4bc	0.06574389
108	0x3d8ebd7c	0.06969735
109	0xbd18ab59	-0.037272785
110	0x3da4da37	0.08049434
111	0x3d5f1c18	0.05447015
112	0xbcac2c24	-0.021017142
113	0xbd402ad3	-0.04691584
114	0x3dff15a1	0.12455297
115	0xbd445f32	-0.047942348
116	0x3d1ec878	0.0387654
117	0x3df96984	0.12178329
118	0x3c8a62f8	0.016892895
119	0x3e01326c	0.1261689
120	0x3dc2b6aa	0.09507497
121	0x3ce1dc51	0.027570875
122	0xbbef6bad	-0.007306537
123	0xbd5fa331	-0.05459899
124	0xbd91853e	-0.07105492
125	0x3d68d4de	0.05684363
126	0xbce888cb	-0.02838554
127	0x3d27a90e	0.040932707
