landing_starship_raw_ckpt/ckpt_00003701.pt (torch, 597879 bytes, 15 tensors)

actor.linear1.weight f4 [128, 120]
00000000: b032 d03b abc7 5e3c e5dc 92bd cb88 933c
00000010: abbf 97bc 7c27 b3bd 0048 aebd 66ec f9bc
00000020: 6c8b 5a3d 6974 7fbd a288 a63d 6fd8 943d
00000030: 8f3d 25bd b24f eb3c 302d 543d a254 583d
00000040: 2215 8b3b 6d72 cf3c 9352 823d 3466 813d
00000050: 0b5a 3b3c 5224 b5bd cdc5 c1b9 8008 273d
00000060: 86b4 e23c f002 94bc e9fc 543c ebe2 963d
00000070: 7a12 ec3c 7833 1dbb 206b 9bbd 8b4a 50bd
00000080: fab8 8a3d 7700 98bd c760 edbb 4fe5 6a3d
00000090: 06c3 713d 8a25 c33c 404a 273d 6918 06bd
000000a0: 9270 1e3d 83c1 243d c075 343d 98ab 37bc
000000b0: 92d2 753d a743 acbd fe0d 2cbd 4ba4 54bd
000000c0: e931 9cbd c469 63bd 9c67 65bd eb65 8dbd
000000d0: afc3 d53c 6b42 863d da86 7cbd ac57 313d
000000e0: 9e42 56bb 163e 843d 25ae 7f3c e113 9fbd
000000f0: 6846 b0bd 26c6 6c3c 858d 84bb 82b8 32bd
00000100: 6a5c 7abc 8f48 8ebd 720b 4bbc bc18 85bd
00000110: 3481 9b3d 0294 0d3d f052 603d 735a aebd
00000120: 2f23 e9bc 022a 823c 3774 be3c dc9c 2d3d
00000130: 3e2b 7b3d 0830 8fbd 2afd 303d ef0f 96bc
00000140: 104d cb3c 57fd 5abd f8b8 4bbd dd0f bf3d
00000150: ce20 b33d ab3f a1bc d531 06bc 6d60 9bbb
00000160: 228a 943d eb06 bd3d 4441 5a3c 4060 723d
00000170: 767c c9b9 fe24 c2bc bd1e 7abd 1d69 08bd
00000180: 02b4 72bb 41f0 af3a bcd9 85bd b322 34bd
00000190: 927b 873d 506e 673d 2668 6cbc ed72 aebd
000001a0: ebcc 593d 971d 42bd c608 7c3d 567d 9cbd
000001b0: c711 0b3d cf98 c33c a023 513d 2e57 25bd
000001c0: 768a aabd 44a3 3ebd 5155 47bd 6572 473d
000001d0: b34b 7a3d 546d 21bc c866 49bd d007 b9bd
000001e0: 0deb 71bd f43a 423d 0e06 4b3d f024 9d3c
000001f0: 0e04 36ba b6f3 7fbd f1db c03c 60d8 5fbd
00000200: 8f5e 57bd f94a 953d f0c8 cbbc df7a 19bd
00000210: dc0d 8bbd 202e b8bd 2cbf 87bd 48ef c8bc
00000220: 1076 49bd d3f3 603c 1a67 a2bd 5870 86bd
00000230: 39cc 1dbd 4c63 ad3c d69c 513d 93b1 ae3d
00000240: f8e8 5dbd 8076 93bd 281b aabd fcfa 08bd
00000250: 7592 623d b3ca 4abd 4806 abbd 7907 1a3d
00000260: 334f 9c3d b161 a03d be9c 4d3d 6818 41bc
00000270: 3cdd adbd 4c55 7d3d 6c16 43bd 348f 403d
00000280: f866 873c daf3 183d de9b 17bd ec84 32bd
00000290: bda9 b9bd 58e8 f13c beef 9e3c 8b0f ec3c
000002a0: 64e4 943d 03cb 7b3d 5cda 1cbc 82ef 5dbd
000002b0: 8ba8 df3c e40b 7ebb 4ef6 53bc bb7d 04bd
000002c0: 18e4 8e3d 97a2 8dbd a2a1 ab3b 5c33 b13d
000002d0: 6468 263c 3fe1 bcbd 556e a03b 2007 dbbc
000002e0: 21e7 f43c 94d4 d43c 0337 2bbd 773a 9c3d
000002f0: 042a a03d 5aa9 9abd 7133 9fbd 4109 81bd
00000300: 0158 8bbc bc03 923d 5899 0fbc 3dc7 1d3b
00000310: 7595 ba3c eaa2 00bc a0b9 88bd e2cc b83d
00000320: 11a4 873d 99b7 10bd 6b4c 653c 082a a0bd
00000330: b041 723d b1c0 51bd 057b f6bb 03dc 72bc
00000340: aed4 93bd b4f2 33bc e1aa aebd 7efb 6abd
00000350: 6ad5 72bd a087 99bd 5b36 4cbc e95b 9abd
00000360: 7fd8 553d 7214 9abd 4300 873d 550d 55bd
00000370: e5ee 04bd c383 b13d 7c6d 09bd 7620 b9bd
00000380: 1a1b 7a3d 7d31 f03c da86 9abd 3b97 91bd
00000390: 29bd abbd 8818 783c c2f9 21bc 69ff 91bd
000003a0: 481c df3c 6f9f 2bbd 6a72 103d 2a51 f13c
000003b0: f45a 68bc 1f5c af3b fed4 b43b 0e5c 16bd
000003c0: bf3f 17bd 4918 b43d c539 513c b480 183c
000003d0: 2a4a a53d 191c fa3c 7245 97bd 69cd 3fbd
000003e0: f796 11bc 8dbe 92bd d6dd b63a cbba 7ebd
000003f0: a04a 443d b7b3 62bd a7fa 923b ace3 42bd
0.0063536987 0.013597409 -0.071710385 0.018009564 -0.018524012 -0.087477654 -0.08509827 -0.030508231
0.05335562 -0.062366877 0.081315294 0.07267844 -0.04034191 0.028724525 0.051800907 0.052815087
0.0042444626 0.025323117 0.06363406 0.06318322 0.011435042 -0.08844818 -0.00036959202 0.04077959
0.02767397 -0.018067807 0.012999752 0.073675 0.028817404 -0.0023986977 -0.07588792 -0.05085234
0.06773563 -0.07421964 -0.007244203 0.057347592 0.05902388 0.023821611 0.040842295 -0.032738123
0.038681574 0.04022361 0.044057608 -0.011210345 0.06001527 -0.08411341 -0.04200553 -0.051914494
-0.07626707 -0.055520788 -0.056007013 -0.06904205 0.026094286 0.06555637 -0.061652042 0.0432965
-0.0032693516 0.064571545 0.015605484 -0.077674635 -0.08607179 0.014451539 -0.0040451908 -0.04363299
-0.015280822 -0.06947433 -0.0123928655 -0.06498858 0.07593003 0.03456498 0.054766595 -0.085133456
-0.02845916 0.015889172 0.023248775 0.04238592 0.061320536 -0.06991583 0.043210186 -0.018318145
0.02481702 -0.05346426 -0.049736947 0.093291976 0.087464914 -0.01968368 -0.008190592 -0.0047417195
0.07252909 0.09229835 0.013321225 0.059173822 -0.00038430438 -0.02369928 -0.06106447 -0.03330337
-0.0037033563 0.0013423042 -0.0653567 -0.043978404 0.06615366 0.056501687 -0.014429128 -0.08518014
0.05317394 -0.0473915 0.061531805 -0.076410934 0.0339525 0.023876576 0.051059365 -0.040366344
-0.083271906 -0.04654242 -0.04866535 0.04869308 0.06110735 -0.009852726 -0.049170285 -0.09034693
-0.059062053 0.047419503 0.04956632 0.019182652 -0.0006943353 -0.06248828 0.023542376 -0.05464971
-0.052580412 0.072896905 -0.024876088 -0.037470695 -0.06789753 -0.08993173 -0.0662826 -0.02452816
-0.04918486 0.013730007 -0.07929821 -0.065643966 -0.03852484 0.021165513 0.05117496 0.08529963
-0.054177254 -0.072003365 -0.08305961 -0.033442482 0.055315454 -0.049509715 -0.083508074 0.037604783
0.076322936 0.07831133 0.05019831 -0.011785604 -0.08489463 0.061848924 -0.047628805 0.04701157
0.016528592 0.03734193 -0.03701388 -0.043583795 -0.09065578 0.029529735 0.019401427 0.028816005
0.072701246 0.061472904 -0.009573545 -0.05418349 0.027302047 -0.0038764412 -0.012937142 -0.03234647
0.06977099 -0.06915777 0.005237774 0.08652374 0.010156725 -0.0922265 0.004895965 -0.026736796
0.029895367 0.025980271 -0.04180051 0.07628339 0.07820514 -0.075518325 -0.077734835 -0.06300593
-0.017009737 0.071296185 -0.008764587 0.0024075054 0.022776345 -0.007851342 -0.0667603 0.09023453
0.0662309 -0.035331342 0.01399527 -0.07820517 0.059144676 -0.051209155 -0.0075219893 -0.014822963
-0.072183 -0.010983158 -0.08528686 -0.057368748 -0.05928556 -0.074965715 -0.012464131 -0.07537062
0.05220842 -0.07523431 0.06591847 -0.052014668 -0.03245439 0.0866771 -0.033551678 -0.090393946
0.061061002 0.029320473 -0.07545252 -0.07108923 -0.08385689 0.015142567 -0.009886207 -0.07128794
0.027235165 -0.041900095 0.035265364 0.029457647 -0.014181841 0.005351558 0.0055185547 -0.036708884
-0.036926027 0.087936945 0.012770121 0.009308029 0.08070786 0.030530976 -0.073862925 -0.046826754
-0.0088860905 -0.07165251 0.001395161 -0.06218986 0.04792273 -0.05534717 0.0044854465 -0.047580406

actor.linear1.bias f4 [128]
00000000: f11b 86bd fef1 423d c793 b6bd 6e17 983d
00000010: cd1c b0bd 427c c4bd a087 14bd d07d 363c
00000020: a7d3 4bbd 3239 43bc 320d 303d fb17 a13c
00000030: ab51 043d e5b2 333c 1915 a5bd 6c0c edbc
00000040: ca35 993c d7c8 763d f0ee 333c bcec 283c
00000050: e85e 873d 47fa 15bd d49f 533d 250a abbd
00000060: c3e8 5d3d 6562 cb3c 9f90 3ebc 00f9 3b3d
00000070: 331e 0d3c 95da 84bd 144b a4bd c3a9 9dbd
00000080: 8a60 4bbd d2e7 9e3d adde 893c 566c a6bd
00000090: 7e8e 8abd 779a 9f3d 6899 963b 1925 fc3c
000000a0: 8c3e d23b 669b 9ebd aa2c b6bd ab99 3abb
000000b0: 64d9 60bd c870 01bc 9b81 f63c 1b3c d6bc
000000c0: 2b54 9a3c a716 50bd 0a3c b4b9 85f3 25bc
000000d0: ae77 b13d 8d16 c6bd e0f4 b6bd 7254 8abd
000000e0: d48a 74bd 746c afbd 5a7f cf3c 93c3 e43b
000000f0: b051 83bd 039a 40bc a754 46bd f235 bfbd
00000100: a45e 703d 703e eb3b 54ef dbbc 32c7 bd3d
00000110: cbfa e73c d51e 673d 8f62 b2bc c5a1 96bd
00000120: 4802 c3bd 179b ab3b 0aaf 92bd d045 a8b5
00000130: 67db 44bd eaa7 8dbd 2722 7abd 8619 babd
00000140: a95f a83d 3184 6bbd 525f a33c 2221 f5bc
00000150: 895c d6bc 2bd4 44bd 2cdb aebd 0d3f a83d
00000160: a854 24bd 8af1 7abd a699 303d a0b2 25bc
00000170: bea7 7c3d 8f76 d03c 9347 b2bd 61e0 99bd
00000180: 7959 6a3d f9b5 f83c 9633 1a3d a6ea cabd
00000190: 7da9 b0bd 9898 ac3b 7463 613d abfa 84bd
000001a0: fe8c 82bd b722 63bd 46ea 6a3d 2881 1bbd
000001b0: d6db 89bd 9885 04bd 5671 b7bd d1c5 0cbd
000001c0: 0ac2 1439 8cfc 45bd bb49 17bd 4815 833d
000001d0: 21b3 4d3c b9d6 ac3d 3742 9f3d 1467 83bd
000001e0: 0736 b93d 7464 d6bc c8e0 a6bd 37fd 4f3d
000001f0: 1566 79bc 6080 58bc 4643 8fbc 3992 43bd
-0.06548298 0.047594063 -0.08914905 0.07426344 -0.08599243 -0.09594013 -0.036262155 0.0111383945
-0.049762394 -0.011915492 0.042981334 0.019664755 0.032304447 0.010967945 -0.08060665 -0.028936587
0.018702406 0.06025013 0.01098226 0.010310348 0.06609899 -0.036615636 0.051666096 -0.08351544
0.054177057 0.024827192 -0.01163116 0.04589176 0.008613157 -0.06487004 -0.080221325 -0.07698395
-0.049652614 0.0775906 0.016829813 -0.08126132 -0.067654595 0.07793134 0.004595924 0.030779408
0.0064161476 -0.07744484 -0.08895238 -0.002847294 -0.05489482 -0.007900424 0.030091098 -0.026151707
0.018838963 -0.050802853 -0.00034377008 -0.01012886 0.08665405 -0.0967227 -0.08933425 -0.06754388
-0.05970271 -0.08565608 0.02532928 0.006981322 -0.06412065 -0.011755469 -0.048420575 -0.09336461
0.058684006 0.007179074 -0.026847519 0.09266509 0.02831783 0.056425888 -0.021775512 -0.07355074
-0.095219195 0.005236994 -0.07162292 -1.2537294e-06 -0.0480608 -0.06916793 -0.061067726 -0.090868995
0.08221371 -0.057499114 0.019942913 -0.029923026 -0.026167171 -0.0480539 -0.085378975 0.08215151
-0.040119797 -0.061265506 0.04311528 -0.010113388 0.06168341 0.025447158 -0.08705058 -0.075135
0.057214234 0.030360209 0.037646852 -0.09908037 -0.08626077 0.005267214 0.055026487 -0.064931236
-0.063745484 -0.05545303 0.057352327 -0.03796497 -0.067313835 -0.032353967 -0.08957164 -0.03436834
0.00014186665 -0.04833655 -0.03693555 0.064005435 0.012554915 0.084393926 0.07776301 -0.06416145
0.09043508 -0.026170947 -0.08148342 0.050778594 -0.015222092 -0.013214201 -0.017488133 -0.04774687

actor.linear2.weight f4 [128, 128]
00000000: 9a04 b5bd 9f34 d3bc 1826 a0bd a985 45bc
00000010: f680 5bbd 8dc9 183d 10fc edbc 3363 b23d
00000020: 87bc 48bd 4a11 6b3c 0480 c9bc 18ba 1abd
00000030: 8d33 b83a 83fc 853d f232 b4bd 4ab0 f83c
00000040: 7f6e aabd d3ac ae3d 71a1 7c3d ebcf 0cbc
00000050: f8cd 2fbd 52f9 4fbc ee05 acbc 42f8 d2bc
00000060: f0ea 61bd 1e92 8d3b 4e1a 19bc 9ace 253d
00000070: 7403 863d f5ad 8fbc fdaa 63bd 8dc1 0b3b
00000080: ade8 a8bd 7a57 da3c 0cf6 8a3d 5086 183d
00000090: 1d96 e93c 3fe7 173c ac48 a03d 34dc 66bd
000000a0: 7ac4 8bbc 3c15 a23d 30f9 333d fab3 4ebd
000000b0: 9505 463d bb50 66bc c7c3 843d 52be 943c
000000c0: 07fb 67bd 94db c63b 4ba4 103d 44cb 68bd
000000d0: 8282 86bd 019f 97bc 272b 87bd d80b 03bb
000000e0: dda8 be3d 852d 2fbc f931 9a3d b16f 423b
000000f0: 0381 af3d e70e b7bd e824 903c b59c 19bc
00000100: 5c70 b5bc 2556 463d 211a bdbc a28f 0cbc
00000110: 4e19 e73c 2032 9c3d 845d 0b3c f59b 68bc
00000120: c5d7 443b 3b74 a13d f9fe 62bd ca3b debc
00000130: eb6f b03c b591 35bc 740d 00bd c180 0c3d
00000140: 699c d73b 86e7 a13d 5ebb 113c 8915 5d3d
00000150: 57e2 f5bc d711 28bd b2bc 97bd 6779 04bd
00000160: 2cc5 1bbd b8b2 623d 4c0b 193d 5f50 9e3c
00000170: ec52 0cbc d130 5bbd a734 3bbc 89fe d03b
00000180: 5fe1 603d 8c89 59bd 5879 563d 966b ff3b
00000190: 09fa 163d fba3 b8bd 0222 b5bd 038a 50bd
000001a0: 43de f23c bc14 3fbd 442a b83d 1648 94bd
000001b0: 4ed8 20bc cdfd b2bc d836 11bd fbc0 1fbd
000001c0: 1984 f9bc 0535 823d dd16 0b3d c718 84bd
000001d0: 92d2 813c bb92 ba3c 9aed 74bd 64b9 75bd
000001e0: c4b4 133d a53c 793d 5e82 4e3d 9186 ba3c
000001f0: aa14 0ebb 6eb9 a13b 968b 88bd 43f0 bc3c
00000200: 9214 3a3c 63cd b43d f38c 9f3d ef38 9d3d
00000210: 831a 5b3c 2928 113d 86e4 39bd 316d 643c
00000220: 8628 4d3d 8538 86bd ed01 823d 655d d9bb
00000230: b730 76bd c9c6 13bd 1055 91bd 7331 f73c
00000240: 81f9 06bc e4fd 103c 37e4 213d db55 af3c
00000250: 01c2 993c 9103 2cbd 2566 aabd 11cd 913d
00000260: 3da6 873d ef53 153c d532 ac3c d640 60bd
00000270: 4ea7 873d 49d6 81bd a785 4fbd 057c 22bc
00000280: 86d9 2cbd 8dd9 9fbd ddb0 8a3d 900d 153d
00000290: ee04 bbbc adde 4bbc 4eab a13d 47e1 a9bc
000002a0: 76ba aa3c 6543 b33d 15be 75bd 789c 903d
000002b0: 5d5d a13d 36e7 933d c522 45bc 2458 a43d
000002c0: e99b c9bc 8734 63bd 4898 c1bc efc2 b0bd
000002d0: 018f 8b3c d366 67bd 16eb 61bd 6599 84bc
000002e0: f40a 78bc 5baf bebc e360 b43c 6ff1 6dbc
000002f0: 81e8 693d c220 0bbd dda1 613b 33dd 37bd
00000300: 7d8e 0dbd cf8c aabd a239 6d3d 50ab 623d
00000310: 6a56 8cbd 9ffd 793c 3713 8f3d 3cc5 07bc
00000320: b5b4 703d c716 93bc c737 44bc 512b 9ebb
00000330: 6274 f23c 8cce 9dbd 510f 51bd 5d28 2ebd
00000340: 5535 1d3d 6056 b93d 07a9 303d 05b1 d23c
00000350: e8b3 0f3c 0ef4 8dbb 6a82 54bd e34f 003d
00000360: a690 e3bb 7a22 31bc 3d4e 163b 66f4 31bd
00000370: 6a92 cc3b 173f 803d b66f 813d cfe9 83bd
00000380: c8c6 38bd 1f89 25bd 3e04 8c3d dc89 943c
00000390: 7e76 653d b93b 9d3d 1cb5 95bd 426d 8fbd
000003a0: abae 82bd c09f 9cbd 4ba8 343d 143e 1b3d
000003b0: 63eb 8ebc 3caa 69bd 073c a43c 9668 6abd
000003c0: 2edf 053c 7844 553c a623 7e3d 2d57 95bd
000003d0: 66e2 883d 80e2 92bc e7a4 e73a 047c 32bd
000003e0: f6b2 443d 3b04 57bd 1d0d 6cbd 3b13 87bd
000003f0: 38b7 1dbd 62a1 bebc aa04 55bd fcaa ae3d
-0.08838768 -0.025781928 -0.07819766 -0.012055793 -0.053589784 0.03730159 -0.029050857 0.08710327
-0.04900792 0.014347384 -0.024597175 -0.03777513 0.0014053449 0.065423034 -0.087987795 0.030357499
-0.08321857 0.08529057 0.0616774 -0.008594493 -0.042921036 -0.01269372 -0.020998921 -0.025753144
-0.055155694 0.004320397 -0.00934465 0.040480234 0.065436274 -0.017539004 -0.05558299 0.0021325082
-0.082475044 0.02665304 0.06785211 0.037237465 0.028513962 0.009271442 0.07826361 -0.056362346
-0.01706146 0.079142064 0.043938816 -0.050464608 0.048345167 -0.014057334 0.06482654 0.018157158
-0.056635883 0.006068656 0.035312932 -0.056834474 -0.06567861 -0.018508436 -0.066000275 -0.0019996073
0.09309552 -0.010692005 0.07529063 0.0029668624 0.08569529 -0.08938389 0.017595723 -0.009375741
-0.022148304 0.048421998 -0.023083748 -0.008579167 0.028210308 0.07626748 0.008506183 -0.014197339
0.0030035835 0.07883497 -0.055418942 -0.027128119 0.021537742 -0.011082103 -0.03126283 0.034302477
0.006579925 0.07905488 0.0088947695 0.053975616 -0.030015154 -0.04103264 -0.07409038 -0.03234234
-0.038029835 0.05534622 0.03736429 0.019325433 -0.008564692 -0.05351335 -0.0114261275 0.006377999
0.05490243 -0.05310969 0.052361816 0.0077948077 0.036859546 -0.09015652 -0.08844377 -0.05091287
0.029646998 -0.046650633 0.089924365 -0.07240312 -0.009817196 -0.021849537 -0.035452694 -0.0390024
-0.030458497 0.06357769 0.03395735 -0.064500384 0.015847478 0.022775045 -0.059796907 -0.059991255
0.036061063 0.06084885 0.050417297 0.022769244 -0.0021679797 0.004935435 -0.06667249 0.023063784
0.011357443 0.08828237 0.07790556 0.07676875 0.01337302 0.03543869 -0.045383953 0.013942049
0.050087474 -0.06553749 0.063480236 -0.006633448 -0.06010505 -0.03607825 -0.070963025 0.030174946
-0.008238197 0.008849595 0.039524283 0.021403244 0.018769266 -0.04199559 -0.08320264 0.071191914
0.06623504 0.00911425 0.021020332 -0.054749332 0.06623708 -0.063397 -0.05066457 -0.009917264
-0.042199634 -0.078051664 0.06772015 0.036389887 -0.0228295 -0.012443227 0.07894002 -0.020737303
0.020840865 0.08753089 -0.05999573 0.07061094 0.07879136 0.07221834 -0.0120322155 0.08024624
-0.024610477 -0.055470016 -0.023632184 -0.08630931 0.017035963 -0.056494545 -0.055155836 -0.016186425
-0.01513933 -0.023276975 0.022018855 -0.014522894 0.0571065 -0.033966787 0.0034428753 -0.044888686
-0.034559716 -0.08327638 0.05791629 0.055339158 -0.0685242 0.015258222 0.06986087 -0.00828677
0.058766086 -0.017955197 -0.011976189 -0.004826941 0.029596511 -0.07705411 -0.051039997 -0.042518962
0.03838094 0.09049678 0.043129947 0.025719175 0.00877092 -0.004332072 -0.051882185 0.031326186
-0.0069447337 -0.0108114425 0.0022934817 -0.043445967 0.00624304 0.062620334 0.06320135 -0.0644108
-0.045111448 -0.040413972 0.06836747 0.018132143 0.056021206 0.07677407 -0.073099345 -0.07003261
-0.063809715 -0.076476574 0.04410581 0.037901 -0.017446226 -0.057047114 0.020048155 -0.057228647
0.008170886 0.0130168125 0.062045716 -0.07292018 0.06683807 -0.01793027 0.0017673046 -0.0435753
0.048022233 -0.05249427 -0.057629693 -0.06595465 -0.03850481 -0.023270313 -0.0520064 0.085287064

actor.linear2.bias f4 [128]
00000000: f2f2 11bd 353d 913d 508c 923d 7f5b cfbc
00000010: 289c 9d3c eea3 923d 0c9d 8e3d 1bfc 673d
00000020: c4a2 073d d0bd 71bd e99a 8abd bfbe 2e3d
00000030: 9322 9b3d 8751 8e3b 8379 acbc 771c 593d
00000040: 9854 083b 7db9 463d 4044 4cbd 80f1 1f3d
00000050: af5b 523d 9331 7e3d 487d a6bd 3ed9 6abd
00000060: 2b7a c13c 370a 703d 4bb9 2e3d 9b2b b7bc
00000070: 2f94 433c c9ab 2f3d a71d dcbc 16e4 123d
00000080: a3a0 df3b da77 a63d 7cd3 9f3d 7b7e 903d
00000090: df9e abbb 45ed 853d 08ee 06bd cea0 6b3d
000000a0: 12f6 a73d d493 a33d 37b0 29bc e36d a63b
000000b0: c794 b8bd 5fb6 723d 99ce 0c3c ed4d 3a3d
000000c0: 15cf 143d 8f79 0c3d 5534 693c 0126 39bd
000000d0: 7a91 9ebd 9640 44bd 42cc 45bc d53f 97bd
000000e0: b9d4 d1bb 9748 a6bd dbaf 64bd 5305 b6bc
000000f0: c543 25bc 57e9 413d 8d24 263d a912 f83b
00000100: 073a a93b 81a4 40bd a451 09bc ff79 633d
00000110: 83b0 b5bd c3c1 633d ea6c b33d 50ba 963d
00000120: 866b e33c 8f89 273d 0ab7 d7bc c2e2 943c
00000130: e9e1 573d 7f75 a43d 1576 3fbd cfd2 8f3d
00000140: c5cf 753c 532f 7dbc 0c4f 9fbd c6a2 3a3c
00000150: 3156 16bd 7094 8ebd 6966 9dbd 5359 b03d
00000160: 7bb3 953d e08d acbd 60b7 2abd 37a0 2bbd
00000170: 43e7 97bd a54b f8bc 2c55 07bd dd88 a63d
00000180: f646 27bd bb6f a6bc b8b5 10bd 20fe 813d
00000190: 0592 77bc 897f ac3d b2c3 403c ea51 863d
000001a0: 864c 11bb 17c0 55bd 33a0 87bd 115d 663d
000001b0: b98a 823d 8f65 2abd f5cf 8abc 2dd7 cb3c
000001c0: 39ab be3d 94df e03c 6824 893d 6a91 813d
000001d0: e41a 8ebc a448 bcba 2c07 c3ba 071f e53b
000001e0: 39e1 0b3d c60c a6bc 3576 cbbc 3e95 3f3d
000001f0: 2399 57bb 0a59 57bd 37a2 803d fff5 3cbd
-0.03563208 0.070917524 0.07155669 -0.025312183 0.0192395 0.07160173 0.06963548 0.05663691
0.03311421 -0.05901891 -0.06767828 0.04266238 0.07574954 0.004343215 -0.021054035 0.05300566
0.0020802375 0.04851674 -0.049869776 0.03904867 0.051356968 0.062058996 -0.08129364 -0.057336085
0.023617825 0.05860349 0.042657178 -0.02235966 0.011937185 0.042888436 -0.026869608 0.03586205
0.0068245693 0.081283286 0.07804009 0.07055374 -0.005237445 0.06539396 -0.032941848 0.057526402
0.08201231 0.0798718 -0.010356954 0.0050790175 -0.09012752 0.059255954 0.008594179 0.045484472
0.0363303 0.034295615 0.014233668 -0.04520226 -0.07742591 -0.047913156 -0.012072625 -0.07385222
-0.0064035323 -0.08119314 -0.05583177 -0.022219336 -0.010086958 0.04734167 0.0405622 0.007570584
0.005164388 -0.047031883 -0.008381281 0.055536266 -0.088715576 0.055604707 0.08761008 0.07359755
0.027761232 0.04090267 -0.026332397 0.018174533 0.05270568 0.08030223 -0.04674347 0.070226304
0.015003149 -0.0154531775 -0.07778749 0.011391347 -0.036703292 -0.06961906 -0.07685549 0.08610787
0.07309624 -0.08425498 -0.041678786 -0.04190084 -0.074171565 -0.030309508 -0.03304021 0.08131573
-0.040839158 -0.02031695 -0.03532955 0.063472986 -0.015110497 0.08422763 0.011765407 0.065585926
-0.0022170856 -0.052185144 -0.066223525 0.0562411 0.063741155 -0.04160076 -0.016944865 0.024882877
0.09310002 0.02745036 0.06696397 0.06326564 -0.017346807 -0.001436491 -0.0014879457 0.006992224
0.034150336 -0.020269763 -0.024836639 0.046773188 -0.0032897673 -0.05257515 0.0628094 -0.046133038

actor.linear3.weight f4 [128, 128]
00000000: 284d 6b3d 3b2f ce3c 7c5f 993d 1c80 2c3d
00000010: dc6c 843c 87a9 2abd 3b12 d7bb f58b 26bd
00000020: 5633 b33d 806c 14bd 1cf8 3dbd 18ba 53bd
00000030: 880f 033d f991 9f3d 912f 183d 1674 793d
00000040: 6ac1 3a3d ef69 853d 94f9 293d 0279 943d
00000050: eca8 8a3c abde a4bd c9e9 363d 140e de3c
00000060: 06ec 023d cc9d c53b 7f46 e33c f164 05bd
00000070: 494b 58bd dfd2 5fbd 009b 08bd 0ca4 0abc
00000080: 9a66 a53d 32ef 9c3d 495c c83c 434a af3d
00000090: b27e b13d caab 943c e979 4dbd b1cf 5ebd
000000a0: 0de9 81bd 929d acbd bf06 543c 6999 9c3d
000000b0: c662 6e3d 8a1f cabc 777c 533d a64f 6abc
000000c0: dee2 1cbd ff6b 613d 63a0 713d d7de 433d
000000d0: e177 ac3d 1fdf efbb 964a caba b69c cebc
000000e0: 7074 94bd a0ad debc 3961 6bbd bde9 3abd
000000f0: 4355 7fbd ef74 a83d 58ba 463d 0223 333d
00000100: a9ce 4f3d 3e60 24bd daa4 553d 8b36 09bc
00000110: a6bc 72bb efe1 783d b8c4 94bd 3d9b aa3d
00000120: bbcd 193d 4b18 983d db0c a23d 3c82 48bd
00000130: e8ac 433d d63d 64bd ea54 b4bd bf2f 38bd
00000140: 3249 0a3d d16d d4bb 883f be3d 3868 d4bc
00000150: f8f2 d5bc c2a6 a23d 5b84 54bc 719c 06bc
00000160: 5f28 31bd c725 34bd d1ce 2ebd 5bdb 373c
00000170: 9ffb 3dbc 9f1c 94bd 182f d83c a30c 343d
00000180: 121b dbbc f4e8 43bd d179 e53c ab6c 123d
00000190: eb21 193d fa9e 1f3c a627 9abd 9be1 4dbd
000001a0: 3d2f 683d a9cd 5cbd c9da 80bd f5e3 a7bc
000001b0: 747d 31bd f800 2bbc fb0b 63bc ab57 4cbd
000001c0: 76cd ddbc 105e 9e3d 256a 2c3d 574b 9f3d
000001d0: ea49 733d f040 3e3d 3fd0 36bd 240d 043d
000001e0: ae8a 9e3d fef3 14bd 424e 363d 8469 863d
000001f0: 5f40 9bbd 2f6c a0bd c8c9 593c b0a5 94bd
00000200: 36e4 83bd 20e6 1c3d e3f5 b2bd cb40 543b
00000210: 1b09 b2bd 97b6 8fbd 1764 c5bc d4da 84bd
00000220: c9ac 0d3c 6d94 8ebd 2d3d 8c3d c3dc acbd
00000230: 5a6c 843c 5aac 40bd 4ad1 23bd 7ba9 383d
00000240: 3939 87ba 4267 86bd 0186 283d b49a f1bc
00000250: 80f4 873d d029 5fbd 6b35 a13d 159f e93c
00000260: 030a a0bc 4812 873c 58a6 183d 02a3 463c
00000270: ac83 9e3d c826 a2bd d925 233c f8f0 f6bc
00000280: cf7d 953d b0bc 8e3b d5c6 94bd 12dc 623d
00000290: db9f 3dbd cdcf e63b b98d 0d3c 003f 873a
000002a0: efd8 43bd a92c 0abc b6ba 9a3c 241b 903d
000002b0: 0b93 5cbc 703f 273c 9dff fe3c 843d 0cbb
000002c0: e6fc b4bd 3c5f b0bd b294 a53d a5a2 e73b
000002d0: 8b1a 8fbb c31e 233d 3dad a43d f19b 93bb
000002e0: 49f7 953d 00ef 90bb 785b 85bd 8b0f 453d
000002f0: fe1f 983d 8597 a1bd a23d 2e3d f0c0 b13d
00000300: 981d 0b3d 0382 8abd 5789 283d 2933 a43c
00000310: a320 23bd cd9e 65bd c728 7fbd 5647 87bd
00000320: ad33 2c3c 9d10 9a3d 6120 a63d f1df b13d
00000330: 5f35 a9bd 5efa a53c 09a1 9cbd bf55 59bb
00000340: 9910 8e3d 74e9 aabd 9898 c93c 91d3 c73c
00000350: d454 80bd ee41 4dbd fb93 e13c dc10 223c
00000360: e18c 2fbd 8bbb 573d 910f 2dbb a4dc ea3c
00000370: b5eb 9ebd aca2 6b3c 1158 03bc 56f5 adbb
00000380: 8b7b b73d d129 df3c b027 8fbd 746e 8b3d
00000390: 37c8 823d f01d 56bd b528 a4bc c309 fbbc
000003a0: db2b 643c 0cfa 5dbd 5e17 ab3d 3f68 b33d
000003b0: c4f1 4ebd 9820 123d ae31 9abd bb5b 2d3d
000003c0: 72dd e13c b867 71bc 724f 1fbc 2411 8cbc
000003d0: a452 823d 07e0 afbd c8a4 9dbd 4fd5 613a
000003e0: 4393 523d 216b b0bd 076f 84bd abb8 443c
000003f0: 93a3 b43c c929 af3c ad0a d93c 4312 d5bb
0.05744663 0.025169006 0.07488915 0.042114362 0.01616519 -0.04166558 -0.0065634525 -0.040660817
0.08750026 -0.036236286 -0.046379194 -0.051691145 0.031997234 0.07791514 0.037154738 0.060901724
0.04559461 0.06514346 0.041497782 0.07249643 0.016926251 -0.08050283 0.04465655 0.027106322
0.03196337 0.0060307737 0.027743576 -0.03256697 -0.052806173 -0.05464446 -0.033350945 -0.008461963
0.0807621 0.076628104 0.024458067 0.08559086 0.08666743 0.018148322 -0.05016509 -0.05439729
-0.06343279 -0.08428492 0.0129410615 0.07646448 0.058199666 -0.024673242 0.05163237 -0.014301216
-0.038302295 0.055034634 0.058990847 0.04781994 0.084213026 -0.0073202993 -0.0015433605 -0.02522121
-0.07248771 -0.0271824 -0.057465766 -0.045633066 -0.06233717 0.08225428 0.048517555 0.043734558
0.050734196 -0.040130846 0.052159168 -0.00837482 -0.0037038713 0.060762342 -0.072640836 0.083303906
0.037549715 0.074265085 0.07912608 -0.048952326 0.047772318 -0.055723034 -0.088052586 -0.04496741
0.03376121 -0.0064828177 0.092894614 -0.025928602 -0.026116833 0.07941963 -0.012971009 -0.0082160095
-0.04325139 -0.04398134 -0.042677704 0.011221732 -0.011595636 -0.072320215 0.026389644 0.043957364
-0.026746307 -0.047829583 0.028012188 0.035748165 0.037385862 0.009742493 -0.075270936 -0.050263982
0.056685675 -0.05390707 -0.0629173 -0.02049444 -0.043332532 -0.010437243 -0.013857837 -0.049888294
-0.02707551 0.07732785 0.042093415 0.07778042 0.05939666 0.046448648 -0.044632193 0.032239094
0.07741295 -0.0363655 0.044508226 0.06563094 -0.07580637 -0.078331344 0.013292737 -0.07258165
-0.06440012 0.0383054 -0.087383054 0.0032387252 -0.08693143 -0.07017248 -0.024095578 -0.06487051
0.008647152 -0.06961904 0.06847606 -0.084405445 0.016164947 -0.047039367 -0.039994515 0.045083504
-0.0010316736 -0.065626636 0.04114342 -0.029492714 0.066384315 -0.054483235 0.07871517 0.028518239
-0.019536024 0.01648821 0.037268013 0.012123825 0.07739958 -0.07917553 0.009957754 -0.0301442
0.07299387 0.0043559894 -0.07264487 0.055385657 -0.04629503 0.0070438148 0.008639746 0.0010318458
-0.047814306 -0.008433499 0.018887859 0.07036427 -0.013462792 0.010207996 0.031127745 -0.002139897
-0.08837299 -0.086119145 0.08085002 0.0070689493 -0.004367178 0.03982426 0.08040855 -0.0045046736
0.073225565 -0.0044230223 -0.06511587 0.048110526 0.07427977 -0.07890228 0.042539246 0.08679378
0.03396377 -0.06763079 0.041146602 0.020043926 -0.039826047 -0.056059647 -0.062294748 -0.06605403
0.010510367 0.075227 0.081116445 0.086852916 -0.08262133 0.020260986 -0.076479025 -0.003316268
0.069367595 -0.08345309 0.024608895 0.024392875 -0.0626618 -0.050111704 0.027536383 0.009891715
-0.042858962 0.05266909 -0.0026406983 0.028669663 -0.07759801 0.014382046 -0.008016602 -0.0053087873
0.08959111 0.02724162 -0.06989992 0.06808177 0.06385844 -0.052274644 -0.020038942 -0.030644303
0.013926472 -0.05419354 0.08354066 0.08760118 -0.050523534 0.035675615 -0.07529007 0.04232381
0.027571414 -0.014734201 -0.009723531 -0.017098017 0.06363419 -0.08587652 -0.07697445 0.00086148543
0.05140997 -0.08614183 -0.06466489 0.012006919 0.022050655 0.02138223 0.026494348 -0.006502421

actor.linear3.bias f4 [128]
00000000: 8bec 2f3d 167b 873d 26be ba3d 5b5a 74bd
00000010: 77eb 88bd 9abe 98bd 0c7d d33c 5e3e 903c
00000020: eb78 8d3d ed9f 2f3d 4eab ba3c f559 13bd
00000030: e101 893c e2ba ab3b b702 6a3d 0b22 27bd
00000040: 426b 92bd c5cc 9a3d 11f4 95bd 4d45 b83d
00000050: 4323 6a3d 5903 d03c 7604 683b efd2 3d3d
00000060: 6203 273c e1ae e13c 6156 2bbd 0d4b 853d
00000070: cd7f 153d affd 8abc 929d a4bc bc14 43bd
00000080: 770d f8bc f080 f7bc 497f 1d3d d8db 5ebc
00000090: b67e 873d 8dcc 5d3d f3e6 7c3d 159b 9b3d
000000a0: 8452 453d 82a8 8f3c 0e8b 5f3d aeb4 ae3d
000000b0: f5ad 6f3d 2c1e 0ebd 7189 01bd c4d1 7abc
000000c0: 1dea c9bb b9a4 2ebc f6c2 2d3d 76b6 753b
000000d0: 3788 5e3c 7560 9b3d a58a 7dbc 0b23 aa3d
000000e0: ffe5 0fbd 87a2 83bd 0388 7abd 5e32 8c3d
000000f0: a6a7 863c 690f 843d 4f55 663c 9715 30bd
00000100: d149 9e3d af21 823d 37e6 783d 1a0f ae3d
00000110: 5600 a6bc 9091 0d3b f31d 043c 6564 8f3d
00000120: dd0d ca3c 1fed e6bc ba70 063c 71d5 bb3d
00000130: 815a ebbc 2c54 99bd 6312 0abc 84fc b73c
00000140: 1c2a 8f3d f043 cbbc c083 1bbd d7e8 a0bd
00000150: b3c8 57bd cae7 30bd e3cb 993d 83ea 0a3c
00000160: 4aca 71bd f831 973d 6d1e 773d 0d5d 46bd
00000170: 45b1 913d d6e4 563d 0c2d 7e3d 17c3 a83d
00000180: 9c8f 56bd da56 19bd 9943 18bd 9cdc 97bc
00000190: 2ed9 653d 0019 71bc 5854 b63d ae37 d13b
000001a0: df51 a43d fb24 38bd 0b36 8abd 6e7e c4bc
000001b0: fd79 a5bc a705 843d a5b6 4bbd fbf5 0cbd
000001c0: 0936 a43b ff0a 3e3c 448d bcbd 1346 a3bd
000001d0: 675a e53c eb68 41bd ebfd 74bd f707 acbc
000001e0: 100a 283d 9c85 4cbd 957d 2cbd a843 b93d
000001f0: b4c7 933d e188 2bbd 3d66 033d c87d 803a
0.042950194 0.06615274 0.09118299 -0.059656482 -0.06685536 -0.07458229 0.025816463 0.017607864
0.06907829 0.042877126 0.022786763 -0.03597446 0.016724529 0.005240784 0.057131495 -0.04080395
-0.07149364 0.07558588 -0.073219426 0.08997593 0.057162534 0.025392221 0.003540305 0.04634374
0.010193678 0.02754921 -0.041830424 0.065084554 0.036498833 -0.016966669 -0.020094667 -0.047627196
-0.030279858 -0.03021285 0.038451467 -0.0136022195 0.06615965 0.054150153 0.061743688 0.07597939
0.048174396 0.017536405 0.054575972 0.08530556 0.058515508 -0.034696743 -0.031625215 -0.015308801
-0.0061619417 -0.01065939 0.042422257 0.0037492788 0.013582281 0.07586757 -0.01547495 0.08307465
-0.03513145 -0.06427484 -0.061164867 0.06845544 0.016437363 0.06448252 0.014058425 -0.04298934
0.07728923 0.06354081 0.060766425 0.08498974 -0.020263832 0.0021601655 0.008063781 0.070015706
0.024664814 -0.02818924 0.008205587 0.0917157 -0.028729679 -0.07486758 -0.008427235 0.022459276
0.069904536 -0.024812669 -0.037967443 -0.07856911 -0.052681636 -0.0431898 0.075095914 0.0084787635
-0.05903081 0.07382578 0.06033175 -0.048428584 0.071138896 0.05246433 0.06205468 0.082403354
-0.05238305 -0.037436344 -0.03717384 -0.018537812 0.05611532 -0.014715433 0.08902806 0.0063848114
0.08023428 -0.044957142 -0.06748589 -0.023986068 -0.02019977 0.064463906 -0.04973473 -0.034414273
0.0050113243 0.011599301 -0.09206632 -0.0797235 0.027997209 -0.0472192 -0.059812468 -0.020999892
0.04102522 -0.049932107 -0.04211195 0.090461075 0.07215825 -0.041878585 0.032079924 0.0009803111

actor.linear4.weight f4 [9, 128]
00000000: a427 62bd 8a37 a93d 66fe 7a3d a922 e83c
00000010: dc11 803d e37c 43bd 873f adbd bcb1 71bd
00000020: e182 90bd 754d 9cbd ac66 7b3d 5973 643c
00000030: 0906 3c3d 6f7f 7cbd 3b25 6dbd 4178 263d
00000040: 93d3 41bd 734f 573d 45e5 9c3d dd1c 833d
00000050: 5930 8abd 6fef c6bb ea16 a6bd ca92 a83d
00000060: 4de5 9bbd 8c4a 653d d924 783d acff 70bd
00000070: f7e1 80bd d84f 313d 174d ae3d 04ac 7bbc
00000080: 6bab 403d aade 443d e2ad 8b3d a658 52bd
00000090: 3bca 473d 7da3 663a 4395 9ebd 4544 3e3d
000000a0: c597 6abc ff80 edbc 4de9 a83d e1fa 383d
000000b0: a03a b53d cbe0 6abd 660a e0bc daa9 7e3d
000000c0: 58c0 663d f341 9b3d 7e51 eebc 478e c3bc
000000d0: 35ef c93c 63ea e63c 45b6 6dbb 78c7 613d
000000e0: 106d 4abd 254d 0cbd c5b3 303d bf65 973b
000000f0: 9561 12bd 2a2d 673d a948 c4bc 321c 29bc
00000100: 8810 abbd 9c32 39bd 2e61 9e3b e6d7 0e3d
00000110: 6a35 e9bb a96f b23d 0a28 a23c 4e53 303c
00000120: db30 313d 2975 0fbd 1fbd 3ebd 7839 9a3d
00000130: aaf2 a2bc 77d4 893d 5fd7 2abc dd7b 8bbb
00000140: 9fe4 963d 5fde 74bd 78d4 7a3d 9785 783d
00000150: 1deb 0e3d 7feb b23d 3063 2cbc 5b4a 9e3d
00000160: 46b8 8c3c 714c a6bd 1dea 923d 8554 92bc
00000170: 7f78 93bd 5594 90bd 6c43 9dbb 2522 7abd
00000180: 185b 983c 7768 0cbd d761 4fbd 346e b43d
00000190: 5f7c 2bbd 8815 1ebd 0d06 f43b 331e e73b
000001a0: ae96 f5bb 265b 9cbb 6271 4f3d 7248 03bd
000001b0: 3215 2fbc cc08 8dbd f981 8ebd e196 7a3d
000001c0: 63c2 d1bb a944 603c 4ba9 013d a8bb b5bd
000001d0: bd0c acbd ae17 903d 7225 c2bb bba1 77bc
000001e0: bbf8 963c ed17 ef3b ee4c 363c 519b 88bd
000001f0: e7a1 ab3d 3654 463d bbd2 a23d 9ff1 efbc
00000200: 7318 51bd 753b ef3c 8e8f c13c 765f 493c
00000210: 4516 493d 2444 89bd 826a 0c3d be81 003d
00000220: 680b b13d f2f4 ac3d 206f 663d 9647 493d
00000230: 9547 81bd b357 85bd e894 72bd e0ce 9ebd
00000240: 4888 2abd 3c10 993d 4f0a fbbc 12da 8f3d
00000250: a853 8ebc 8353 1cbd 7a88 6f3b c4c7 503d
00000260: ead0 3cbd f694 b83d a2d3 9cbd ca7e 863d
00000270: f8bc 613d 5804 52bd 6d22 353c 47c4 60bd
00000280: 8e94 c4bc 1d7e c8bd ef31 8cbd d0a6 873d
00000290: a5f5 c03c 42bf 943c 97ac 803d 8e4f 6d3d
000002a0: 9f5c 883d ce52 2e3c c31a 94bd a5fc a43c
000002b0: 25a1 a83d c14e 71bd 8eab ccbd c2ea 68bd
000002c0: e213 8bbd a8cf b2bd b5d1 4b3d b408 21bd
000002d0: f97e 8b3d c338 3ebd 4725 5b3d 1b72 9e3d
000002e0: f06b 7bbb 2d0b a2bd 74ce 0fbd 2276 1cbc
000002f0: 9452 033d a3a0 2dbd b334 dc3b 3d36 563b
00000300: 1917 c03d a021 32bd bbe4 c83b 02be a1bd
00000310: 9d7c 353c 620d 77bd b37c a5bd 1344 9abd
00000320: 2f8e a5bc bb18 583d d152 8bbd 00c8 4ebc
00000330: aa25 bd3c 16fc 88bd a12c 1ebd 78a3 1bbd
00000340: c895 9d3c 192f 753c 4d91 1cbd 9224 96bd
00000350: 080d 9e3d 6dfb b2ba 1d9d 5cbd d48d 253d
00000360: ac1a a5bd 2c45 1abd 60e1 883d 541a 8dbc
00000370: 3fe1 9a3c 00e6 e53c bf0e 733d 4bc8 9b3d
00000380: 4ac0 653c 0124 8bbd e622 8cbd 1241 eabc
00000390: 0543 a13c dca0 803b 13d6 8e3d b993 aa3d
000003a0: dbf2 bf3d e593 303b 41df a4bd 1ac9 15bd
000003b0: fce8 3ebd 087a a6bc 981b 54bd 0093 8fbd
000003c0: 2d5a 2b3c 6b6f dabb 58de 9fbd 10f6 a0bd
000003d0: d91b eabc ddcd 86bd e04e a5bb 9b8e 9fbd
000003e0: ebe7 6d3d c264 073d 1ee0 d1bc ec62 863d
000003f0: bdee c03a 7c38 af3d 156e cabc 3d8c 7e3b
-0.055213585 0.08262546 0.06127777 0.02833684 0.062534064 -0.047726523 -0.084593825 -0.05900739
-0.07056213 -0.07631961 0.061377212 0.013943517 0.045904193 -0.061644968 -0.057896834 0.040642027
-0.047320914 0.052566003 0.07660917 0.064019896 -0.06747503 -0.006071023 -0.08109839 0.08231123
-0.07612095 0.055979297 0.060582016 -0.058837578 -0.062930994 0.043289036 0.085107975 -0.015360836
0.047038477 0.04806391 0.06820275 -0.051354073 0.048776846 0.00087981654 -0.07743313 0.046451826
-0.014318411 -0.028992174 0.082476236 0.04516113 0.088490725 -0.057343286 -0.027348708 0.0621737
0.056335777 0.07580938 -0.029091593 -0.023871554 0.024650196 0.028187936 -0.0036271971 0.05512187
-0.049420416 -0.03425326 0.04314019 0.0046202834 -0.035737593 0.056439556 -0.023960428 -0.010321664
-0.083527625 -0.04521428 0.004833362 0.034873866 -0.007116963 0.08712704 0.019794483 0.010762049
0.043259483 -0.035023842 -0.04656708 0.075304925 -0.019891102 0.067299776 -0.010427325 -0.004256709
0.07367825 -0.059782382 0.061237782 0.060674276 0.03489219 0.087363236 -0.010521695 0.07729026
0.017177712 -0.08120049 0.0717356 -0.017862568 -0.07200717 -0.07059542 -0.004799297 -0.06106772
0.018598124 -0.034279313 -0.050630417 0.08810082 -0.041866656 -0.038594753 0.0074470104 0.0070531606
-0.007494769 -0.004771608 0.05064524 -0.03205151 -0.010686206 -0.068864435 -0.06958384 0.061179046
-0.0064013465 0.013688245 0.03165559 -0.08873683 -0.08400867 0.070357665 -0.005924874 -0.015114243
0.01842915 0.0072965533 0.01112674 -0.06670249 0.0838049 0.048420154 0.0795035 -0.029290019
-0.051048707 0.029203156 0.023628023 0.012290826 0.049093504 -0.0670245 0.03428126 0.03137373
0.08644754 0.08445157 0.05625832 0.049140535 -0.06312481 -0.06510868 -0.05922404 -0.07754302
-0.041633874 0.074737996 -0.030644564 0.070240155 -0.017373875 -0.03816558 0.0036549852 0.05097176
-0.046097673 0.09012787 -0.07657553 0.06567152 0.055111855 -0.051273674 0.011055571 -0.054874685
-0.023996618 -0.09789679 -0.068454616 0.06623614 0.023554632 0.018157605 0.06282919 0.057937197
0.06658291 0.010639859 -0.07231667 0.020140002 0.08233861 -0.058912996 -0.09993659 -0.056864507
-0.06790902 -0.087310135 0.04976054 -0.03931494 0.068113275 -0.04644085 0.053502347 0.07736608
-0.0038363896 -0.07912288 -0.035109 -0.009549649 0.032061175 -0.042389523 0.0067201494 0.0032686137
0.093794055 -0.0434891 0.0061307824 -0.07897569 0.011077073 -0.060315497 -0.08080425 -0.075325154
-0.0202094 0.05275796 -0.06802905 -0.012620926 0.023089249 -0.066887066 -0.03861678 -0.037997693
0.01923646 0.014964842 -0.038224507 -0.07331194 0.07717329 -0.0013655253 -0.053860772 0.04041846
-0.08061728 -0.037663624 0.06683612 -0.017224468 0.018906234 0.028063774 0.059340235 0.07606562
0.014022896 -0.067939766 -0.06842594 -0.028595481 0.019685278 0.003925426 0.06974425 0.08328957
0.09372493 0.002694362 -0.08050395 -0.03656874 -0.04660891 -0.02032186 -0.051784128 -0.0701046
0.010458511 -0.006666114 -0.078060806 -0.07859433 -0.028577732 -0.06582234 -0.005044803 -0.07790872
0.058082502 0.033055075 -0.025619563 0.065618366 0.0014719587 0.085556954 -0.024710694 0.0038840913

actor.linear4.bias f4 [9]
00000000: 7515 803d 74f0 c1bc fc3a 9d3d a5ee 25bd
00000010: 0974 f1bc a356 a0bd fef8 1bbc 467c 2ebd
00000020: a300 a3bd
0.062540926 -0.023674227 0.07677266 -0.040510792 -0.029474275 -0.07829025 -0.009519814 -0.042598985
-0.07959106

critic.linear1.weight f4 [128, 120]
00000000: bba6 823d 9440 be3c ba38 9fbd b2f5 78bd
00000010: 3ae8 9f3d aff0 d1bc cccd 98bd 7813 6abd
00000020: a171 85bd e94f 85bd ec3a b43c 0fc3 bd3c
00000030: 020b 86bd a859 5fbd 33d5 a9bd 8bb6 c9bd
00000040: 8fe3 37bc dea9 78bd 5e4d 6a3d 1984 843c
00000050: 02d7 15bd 501c 85bd 52d9 b2bd 7734 8e3d
00000060: 7b35 54bc a853 b6bc f889 9dbc e512 283d
00000070: 05cf 6abc d40f 6b3d 31c5 9d3c 1d8a a0bd
00000080: 4750 5c3d 76f0 a3bc 9fc7 e33d 7405 c0bd
00000090: b3bc 1d3d 1dec ae3d 88fd 923d 790a aa3c
000000a0: 7abc eebc 0740 9d3d 5455 92bb 540f 1b38
000000b0: 4523 6e39 a486 95bd ac40 70bc 9971 eebb
000000c0: 4963 3a3d 56f5 713d dc71 4abc c5c0 853d
000000d0: e242 093d 49b9 ed3c e205 99bb b896 7abd
000000e0: 995b 3dba 6fdb 8ebd cab2 55bd abea efbc
000000f0: 7e79 0cbd d679 9fbd 0ab2 a0bc af6f d83c
00000100: 01e2 6fbc d7e8 533c ce39 53bc 70c6 813c
00000110: 60b3 293b 6c60 88ba a53c 89bd 893e d13d
00000120: d6c0 1fbd 0725 61bc ff6d 963d 4574 a33c
00000130: e4c7 803c ef72 bf3d b52d 083d a884 73bd
00000140: 342a 8ebd eeb0 81bd 3366 c03d e51a 70bc
00000150: 0127 ae3a c708 783d 4d77 a6bd 77a3 fabc
00000160: 00b0 4dbd e49a b8bc d177 073d 9390 313d
00000170: 5e20 ac3d 71f1 08bd b0fa f8bc cba9 3abd
00000180: 1a90 6abd 5ff1 7ebd 04ee 8bbd eec4 4dbd
00000190: b7f9 35bc baf6 3cbd cbaf 4abd c3b0 09bd
000001a0: aa95 1c3d 0464 75ba 0482 9dbc bbb0 d23b
000001b0: e7d2 ac3c 3b6f 90bc f88b a23b fe54 4d3b
000001c0: 9e4a 553c 85f5 babc 6f42 85bd 2e7c eb3d
000001d0: 0f08 513c a242 ebbd b39f 1a3b 1459 48bd
000001e0: a0c6 173c fa9c acbc a6cc 8e3c ed60 793d
000001f0: 5a53 9cbd be32 923d 50ec ad3d 97ed 8f3d
00000200: 4380 2bbd faad fcbc aead c23a 5400 973d
00000210: 28a6 173c a2cb a3bd e334 d2bb 601d 9a3c
00000220: 2be6 c93c d341 663c e1d0 633d 75d4 d8bd
00000230: 7dbc 33bd 7122 9c3d 5206 bcbc 6ee0 693d
00000240: 6d29 273d 4ec4 8cbd 06c8 6bbd 0a7a b73d
00000250: 4e12 633a 99b1 cabc f212 31bd a7c3 fabc
00000260: 7642 a83d 98a3 89bd d930 07bd b3a2 8dbd
00000270: a7cb 53bb da9b 563d 2d1b 38bd 2980 1ebd
00000280: f82e 74bd 2554 9b3c 42ad 66bc ae13 b13d
00000290: 3629 913d f2e7 b03d d43f 86bc eddc a23a
000002a0: 6a52 73bd 5bd6 783c 8eab f33d 55fd a13d
000002b0: f82b 313c 3c0d b43d 532f a2bd 2df6 97bc
000002c0: 3aad debb 259a a2bd 4599 a13c 9b15 99bd
000002d0: e709 5ebd 28c1 a7bd 5565 9ebd 7d91 ab3c
000002e0: 6e07 1c3d 9c0a 473d 6ae3 593d 5dd1 c5bc
000002f0: 4b75 14bd cdbc 6c3d 7761 813c ee8a 823d
00000300: 1be6 5bbc 70e2 86bd 9071 98bd 0cfc ad3d
00000310: 2853 3d3d 4d44 95bd 4074 de3c eb37 2b3d
00000320: 0a78 4bbd 39cb c23d ca9c 743d f8af 29bd
00000330: cc66 12bc 6fb6 2bbd f70e 873d 3478 cd3d
00000340: 390b a73c 0bcb acbd d5f4 883a 5bef 763c
00000350: a2cc 82bd a04c b93d 1215 953d 7b78 b6bc
00000360: 936d 7abb 8c17 673c 3e8f 3bbd 2fd6 5ebd
00000370: 3286 26bd 2a1b 173d d75f 88bd 5729 3f3d
00000380: f672 9ebd 0702 44bd 99fb 693c f4e0 a53d
00000390: ff05 82bd 2dff 833d ff9a 0f3d e429 4ebd
000003a0: cda6 32bd 5d85 ae3d fa0f 7dbc cb11 d93c
000003b0: fcb0 163d 55ce 1abe 6c4d 84bc 6a52 84bd
000003c0: 14cb 953d 1534 3e3d 2056 293d 6107 f33c
000003d0: 4003 f13c cb9c aebd 4395 b13d cd29 ccbd
000003e0: 1bb4 66bd 5003 c13d 3aab 083d 41f8 553d
000003f0: 6d08 a3bd 1ee7 b53d 4c15 ec3c 5ae9 fe3c
0.063794576 0.023224153 -0.077744916 -0.06078119 0.078079656 -0.025627462 -0.07461128 -0.057147473
-0.065158136 -0.06509382 0.022000752 0.0231643 -0.06545068 -0.054528862 -0.08292618 -0.098492704
-0.011223688 -0.060708873 0.05720269 0.01617627 -0.036582 -0.06499541 -0.08732857 0.069436006
-0.012952204 -0.022256687 -0.019230828 0.041033644 -0.014331584 0.05738814 0.019259067 -0.07838843
0.053787496 -0.020012122 0.11122059 -0.0937604 0.038510036 0.08541129 0.071772635 0.020756947
-0.029142607 0.07678228 -0.0044657383 3.6969155e-05 0.00022710588 -0.07301071 -0.0146638565 -0.0072767255
0.045504842 0.05907186 -0.012356248 0.065309085 0.03351105 0.029019015 -0.0046698907 -0.061178893
-0.0007223427 -0.069754474 -0.05217246 -0.029286703 -0.03429555 -0.0778691 -0.019616146 0.026420442
-0.014641286 0.012933931 -0.0128922 0.015841693 0.002589427 -0.0010404713 -0.0670102 0.10217006
-0.039002262 -0.013741738 0.07345199 0.019952903 0.015720315 0.09348094 0.033246715 -0.059452683
-0.06941643 -0.06332575 0.09394493 -0.01465485 0.001328677 0.060555246 -0.081282236 -0.030595524
-0.050216675 -0.022534795 0.03307325 0.043350767 0.08404611 -0.03343338 -0.030392975 -0.045572083
-0.057266332 -0.06224191 -0.06832507 -0.050236635 -0.0111069 -0.046133734 -0.049484055 -0.03361584
0.03822867 -0.0009360912 -0.019227035 0.0064297593 0.02109666 -0.017631164 0.004960533 0.0031331177
0.013018278 -0.022822151 -0.06506812 0.11498295 0.012758269 -0.114873186 0.0023593723 -0.048913077
0.0092636645 -0.021070946 0.017431568 0.06088345 -0.076330855 0.071385846 0.08492339 0.070277385
-0.041870367 -0.030844677 0.0014852786 0.073731095 0.009255923 -0.07997824 -0.006414996 0.018812835
0.024645885 0.01405378 0.055619124 -0.10587398 -0.04388093 0.07623757 -0.022952233 0.0570988
0.04081099 -0.0687338 -0.057563804 0.08958824 0.00086620904 -0.024742888 -0.04323096 -0.030610872
0.082158014 -0.06720656 -0.03300557 -0.06915798 -0.0032317431 0.052394725 -0.04494779 -0.03869644
-0.059615105 0.018961022 -0.014079394 0.08646332 0.070879385 0.0863799 -0.016387857 0.001242546
-0.059404768 0.015187825 0.11897956 0.079096474 0.010813706 0.08791587 -0.07919183 -0.018550003
-0.0067955526 -0.07939557 0.019726405 -0.07474824 -0.054208662 -0.081911385 -0.07734171 0.020943398
0.038093023 0.048594102 0.053195395 -0.024147684 -0.03624467 0.057797242 0.015793545 0.06374155
-0.013421561 -0.06586158 -0.07443535 0.0849534 0.046221882 -0.07288418 0.027155042 0.041801374
-0.049675025 0.09511418 0.05971984 -0.041427583 -0.0089356415 -0.04192203 0.06594651 0.100326926
0.020391094 -0.08437165 0.0010448942 0.015071715 -0.06386687 0.09047818 0.072794095 -0.022274246
-0.0038212284 0.014104735 -0.045790903 -0.05440348 -0.040655322 0.03689114 -0.06658905 0.046670284
-0.07736771 -0.047853496 0.014281177 0.08099547 -0.063488 0.06445155 0.035059925 -0.05033292
-0.043616105 0.08521531 -0.015445704 0.026497742 0.03678988 -0.15117772 -0.016150199 -0.06461032
0.07314125 0.046436388 0.0413419 0.029666604 0.029420495 -0.08526 0.086710475 -0.0996891
-0.056324106 0.0942446 0.03336642 0.052238706 -0.079605915 0.08881973 0.028818749 0.03111713

critic.linear1.bias f4 [128]
00000000: 19eb af3d c84d b0bb c88e 5bbc 8229 ab3d
00000010: dbe5 03bd 9d3e 8f3d 8520 d0bc 43df 97bd
00000020: f155 8d3d 0e62 fb3c 7545 a7bd b20f b93d
00000030: 8afc 51bd aee5 283c 54e5 363c 6583 84bd
00000040: 0330 813b 4b94 93bd e169 143d 3ff8 a33c
00000050: 3959 a6bc 92b3 08bd 6bc0 b83d 0987 f6bb
00000060: 0a66 8f3d b896 1a3d 963e d43c 7b26 d33b
00000070: 497c cebc d140 4abd 8463 44bb 4d77 1abd
00000080: cbc8 343c c409 89bd 83ca 123c 43cd a83c
00000090: 1001 b23c a31c 143c 16d0 3c3d fda9 f33c
000000a0: 8796 073d 887d e2bb 4fba 9d3c 3ac8 c13d
000000b0: c3e3 a23d a996 ac3d 360e 913d f5e2 9b3c
000000c0: ab4f b43c 986d 6f3d fe86 2abd 022b efbc
000000d0: dd78 a03a 98c1 81bd cd92 a03d 48e5 0d3d
000000e0: 93f4 2dbd 18d0 c6bb 4b61 413d fa3a 623d
000000f0: 3487 8a3d 7bc6 1ebd 6260 a2bc 522e 343d
00000100: f529 6dbc 3af1 823d 659d 0abd 5b13 aa3d
00000110: a3b6 8fbd f3f0 debc 9cd8 a03d 66b2 96bd
00000120: 283b 443d d3aa bb3d 9cf7 6c3d 53a4 a13c
00000130: ed21 b23d c61a 85bd 2f67 93bd b7f6 40bd
00000140: 8342 993d b950 9fbd ff13 ab3c c17e a53d
00000150: 5d6a 80bd 2855 9cbd 4101 81bd 1c9e 2abd
00000160: 4764 a13d b6dc 333c 286d d03d 76e5 81bd
00000170: cf48 e4bc 3314 743d dff3 88bd 8467 27bd
00000180: d197 7f3d 7052 86bd 7c47 923d fffe 7f3d
00000190: 9c28 6bbd 6ec9 a63d 9908 813d ad2d 943d
000001a0: c74e 9d3d e4d0 71bd ffc7 9abc 7485 913c
000001b0: db84 853d ee57 923d 351f 27bd e5f6 1b3d
000001c0: 1040 9d3d 7e13 64bd d5eb 6dbd 5a68 2dbd
000001d0: b8ae 8bbb 2ce1 aabc 4817 8cbd da70 38bd
000001e0: b7cf a3bc af7f 853d 59b5 1bbd b5d0 04bd
000001f0: 376e 2ebd 513e 6ebd 5a17 36bd 39e2 78bd
0.08589763 -0.005380366 -0.013400741 0.08357526 -0.03220163 0.069943644 -0.025406132 -0.07415631
0.06901158 0.030686405 -0.08167545 0.09036197 -0.05126623 0.010308666 0.0111630745 -0.06470374
0.003942491 -0.07206019 0.036233786 0.020015834 -0.020306217 -0.033374377 0.09021076 -0.0075234217
0.07001884 0.037741393 0.02590875 0.006443796 -0.025205748 -0.04937822 -0.0029966542 -0.03771143
0.011034201 -0.06691316 0.008959415 0.020605689 0.021729022 0.009040031 0.046096884 0.029744143
0.03310254 -0.006911937 0.019253878 0.09462018 0.07953598 0.08427174 0.07082789 0.01902912
0.022010645 0.058454126 -0.041632645 -0.029195312 0.0012243051 -0.06335753 0.078405 0.034642488
-0.042469572 -0.006067287 0.047211926 0.055232026 0.06764069 -0.038763504 -0.01982135 0.043989487
-0.014475335 0.063936666 -0.03384151 0.08304473 -0.07017257 -0.027214503 0.07853815 -0.073582456
0.04790798 0.091634415 0.057853326 0.019731676 0.08697877 -0.06499247 -0.07197415 -0.047110286
0.07483389 -0.077790685 0.020883558 0.08080817 -0.06270287 -0.0763343 -0.06299067 -0.04165469
0.078804545 0.010977915 0.1017707 -0.06342594 -0.02786675 0.059589576 -0.0668714 -0.040870205
0.062400643 -0.065586925 0.07142541 0.062499043 -0.057411775 0.081438884 0.06300468 0.072352745
0.07681041 -0.059037104 -0.018894194 0.01776383 0.06519481 0.071456775 -0.040801246 0.038077254
0.076782346 -0.05568265 -0.058086235 -0.042335846 -0.0042627715 -0.020859323 -0.06840378 -0.0450295
-0.019996507 0.06518494 -0.038014743 -0.0324256 -0.042585578 -0.0581649 -0.044455864 -0.060762618
