landing_starship_raw_ckpt/ckpt_00005201.pt (torch, 677687 bytes, 15 tensors)

actor.linear1.weight f4 [128, 120]
0	0x3ba891fa	0.005144355
1	0x3c67a190	0.014137641
2	0xbd9442ec	-0.07239327
3	0x3c9f3a7e	0.019437071
4	0xbc824526	-0.015902113
5	0xbda867fa	-0.08222957
6	0xbdb426a2	-0.08796431
7	0xbd1a0bd7	-0.037608948
8	0x3d65d8b8	0.056114882
9	0xbd79af39	-0.06095812
10	0x3da4abc8	0.08040577
11	0x3d988cfb	0.07448765
12	0xbd1a81ad	-0.037721325
13	0x3d0b26e3	0.033972632
14	0x3d52d46c	0.051472113
15	0x3d3b3e64	0.045713797
16	0x3be2960b	0.006914859
17	0x3cd6aa7a	0.026204336
18	0x3d7d60a6	0.06185975
19	0x3d794992	0.060861178
20	0x3c1bccca	0.009509275
21	0xbdb915b9	-0.090373464
22	0xbb5e49f3	-0.003391859
23	0x3d1f2589	0.038854156
24	0x3ce20a88	0.027592912
25	0xbc94edf1	-0.018179866
26	0x3c38e558	0.011285149
27	0x3d9cd9d2	0.076587334
28	0x3d00c13e	0.03143429
29	0x3b3abb08	0.0028492827
30	0xbd93ceb2	-0.072171584
31	0xbd6d60e8	-0.057953745
32	0x3d91daf4	0.0712184
33	0xbd932202	-0.07184221
34	0xbc08f432	-0.008359002
35	0x3d680128	0.056641728
36	0x3d69dea2	0.057097085
37	0x3cb36061	0.021896543
38	0x3d2d2372	0.04227013
39	0xbd0dfb3a	-0.034663416
40	0x3d157c9d	0.036495794
41	0x3d2ec6c3	0.042670023
42	0x3d1f31e4	0.03886594
43	0xbc36b150	-0.011150673
44	0x3d803d71	0.06261719
45	0xbda184ac	-0.07886633
46	0xbd2c2cd1	-0.042034928
47	0xbd71ba9f	-0.059015866
48	0xbd9d265b	-0.07673331
49	0xbd641cb5	-0.05569144
50	0xbd62390a	-0.055230178
51	0xbd85a1c5	-0.06524996
52	0x3cc5f36a	0.02416392
53	0x3d8251c5	0.063632526
54	0xbd7a5ad0	-0.06112176
55	0x3d297551	0.041371647
56	0xbb5413d4	-0.0032360451
57	0x3d77c3eb	0.060489576
58	0x3c892163	0.016739553
59	0xbd9d96a9	-0.07694752
60	0xbdab1114	-0.08352867
61	0x3ca15770	0.019695014
62	0xbaa2b460	-0.0012413375
63	0xbd4fced8	-0.05073437
64	0xbc636007	-0.013877875
65	0xbd8e9022	-0.06961085
66	0xbc6bca4f	-0.014391496
67	0xbd879ac5	-0.06621317
68	0x3d978625	0.07398633
69	0x3d05b761	0.032645587
70	0x3d6fde0b	0.058561366
71	0xbdb24aba	-0.08705659
72	0xbced664d	-0.028979445
73	0x3c4d1ae9	0.012518623
74	0x3cb45bdd	0.02201646
75	0x3d2a341d	0.041553605
76	0x3d825b89	0.06365115
77	0xbd847ace	-0.06468736
78	0x3d34e29a	0.044161417
79	0xbcd03c80	-0.025419474
80	0x3ccf5213	0.02530769
81	0xbd571fe4	-0.052520648
82	0xbd4b7584	-0.04967262
83	0x3dba1773	0.09086504
84	0x3daf11cc	0.08548316
85	0xbcb0d1d0	-0.021584421
86	0xbc4057f6	-0.0117397215
87	0xbbda2902	-0.0066577205
88	0x3d923759	0.07139463
89	0x3db5321b	0.088474475
90	0x3c4ac3f8	0.012375824
91	0x3d6e49d0	0.05817586
92	0x3aa655b7	0.001269034
93	0xbc97dd69	-0.018538194
94	0xbd757b63	-0.059932124
95	0xbd257ec3	-0.040404093
96	0xbafb6c0f	-0.0019181984
97	0x3ba2e1a7	0.0049707475
98	0xbd8bf60f	-0.06834041
99	0xbd2dd602	-0.042440422
100	0x3d831f46	0.06402449
101	0x3d5ff7fb	0.054679852
102	0xbc8b64b2	-0.017015789
103	0xbdb2508c	-0.08706769
104	0x3d551858	0.05202517
105	0xbd3855bc	-0.045003638
106	0x3d812a2e	0.06306873
107	0xbda10316	-0.07861917
108	0x3d00612e	0.031342678
109	0x3ceadc38	0.028669462
110	0x3d44c665	0.048040766
111	0xbd426906	-0.04746344
112	0xbdaab7f4	-0.083358675
113	0xbd418fe9	-0.047256384
114	0xbd384f49	-0.044997487
115	0x3d4b1183	0.049577247
116	0x3d72a18f	0.059236106
117	0xbc3959cd	-0.011312914
118	0xbd51d906	-0.05123236
119	0xbdbca8b6	-0.092118666
120	0xbd7b4622	-0.06134618
121	0x3d3f56a2	0.04671348
122	0x3d3ef9d9	0.046624992
123	0x3cac5d47	0.021040572
124	0x3b51d150	0.003201563
125	0xbd5952e7	-0.053057577
126	0x3ca9c101	0.020721914
127	0xbd84a9b7	-0.06477683
128	0xbd5492af	-0.0518977
129	0x3d90db2e	0.07073055
130	0xbce44853	-0.027866518
131	0xbd11317b	-0.03544758
132	0xbd83138b	-0.06400212
133	0xbda4dda8	-0.0805009
134	0xbd84b308	-0.0647946
135	0xbd0df30e	-0.034655623
136	0xbd4e76ca	-0.050406255
137	0x3c1ddd0a	0.009635219
138	0xbda579e8	-0.080798924
139	0xbd8a7f4f	-0.067625634
140	0xbd272aae	-0.040812187
141	0x3c9aa852	0.01887909
142	0x3d67af52	0.056563683
143	0x3daa02ac	0.08301291
144	0xbd6f97f7	-0.058494534
145	0xbd945835	-0.07243387
146	0xbdb06de9	-0.08614714
147	0xbd00a120	-0.03140366
148	0x3d728546	0.05920913
149	0xbd24299f	-0.040078755
150	0xbdae16f7	-0.08500474
151	0x3ce117e4	0.027477212
152	0x3d9919b3	0.07475605
153	0x3d9e7b80	0.077383995
154	0x3d52ffff	0.05151367
155	0xbc31159f	-0.0108083775
156	0xbdb28d87	-0.087184004
157	0x3d73f8a5	0.059563298
158	0xbd381734	-0.044944003
159	0x3d37317f	0.044724938
160	0x3c660aae	0.014040632
161	0x3d15d701	0.036581997
162	0xbd1c0f08	-0.038100272
163	0xbd38e762	-0.04514254
164	0xbdb1b3de	-0.08676885
165	0x3d1f95c2	0.03896118
166	0x3cb41dea	0.02198692
167	0x3c99185f	0.018688379
168	0x3d9089c1	0.070575245
169	0x3d82e3bc	0.06391093
170	0xbbd589e3	-0.0065166815
171	0xbd5e2522	-0.05423463
172	0x3cccd68a	0.025004644
173	0xbbc9ce5f	-0.0061586346
174	0xbc3a836a	-0.011383871
175	0xbd0ddb9a	-0.034633256
176	0x3d8e2058	0.06939763
177	0xbd8da8c0	-0.06916952
178	0x3c0f93ec	0.008763295
179	0x3db14ae0	0.086568594
180	0x3c65acb7	0.014018229
181	0xbda98fbe	-0.0827937
182	0x3b492832	0.0030694124
183	0xbd16ff37	-0.036864486
184	0x3ce80211	0.028321298
185	0x3cdf70bb	0.027275434
186	0xbd364bb5	-0.044505794
187	0x3d9ff4b3	0.078103445
188	0x3d9b6600	0.07587814
189	0xbd9f4eba	-0.07778688
190	0xbd9d724d	-0.07687817
191	0xbd85b83e	-0.06529282
192	0xbc8b4813	-0.017002141
193	0x3d91a36a	0.07111247
194	0xbbbadba9	-0.005702455
195	0x3b3711b0	0.0027934127
196	0x3cd99a90	0.026562959
197	0x3acff6ea	0.0015866433
198	0xbd81ed97	-0.06344145
199	0x3da40ed1	0.080106385
200	0x3d8673d8	0.06565064
201	0xbd11df07	-0.035613086
202	0x3c3ce0f0	0.011528239
203	0xbda34e4b	-0.079739176
204	0x3d685630	0.05672282
205	0xbd5ad254	-0.05342324
206	0xbc085fdd	-0.008323637
207	0xbc8c2a87	-0.017110122
208	0xbd94f047	-0.07272392
209	0xbc417a90	-0.011809006
210	0xbdb14579	-0.08655829
211	0xbd66bfaa	-0.05633513
212	0xbd634475	-0.055485208
213	0xbd862fee	-0.065521106
214	0xbc801185	-0.015633354
215	0xbdaf1a91	-0.08549989
216	0x3d5a1b26	0.053248547
217	0xbd9c9e88	-0.07647425
218	0x3d7fcf72	0.062453695
219	0xbd422aac	-0.047403976
220	0xbd0f9861	-0.03505743
221	0x3dad6fd9	0.08468599
222	0xbd08cc90	-0.03339821
223	0xbdbdd02c	-0.09268221
224	0x3d7732f4	0.060351327
225	0x3cff6261	0.03117484
226	0xbd97abd3	-0.0740582
227	0xbd91affc	-0.071136445
228	0xbda4137a	-0.08011527
229	0x3cc7f8bc	0.024410598
230	0xbc1ef142	-0.009701075
231	0xbda6bfc9	-0.08142049
232	0x3cd23251	0.025658758
233	0xbd2b1c36	-0.04177495
234	0x3d133047	0.035934713
235	0x3cfd7606	0.030940067
236	0xbc850420	-0.016237319
237	0x3b8baabf	0.004262298
238	0x3b8de332	0.0043300623
239	0xbd1fbd85	-0.0389991
240	0xbd21a8de	-0.039467685
241	0x3db5d76f	0.08878981
242	0x3c0c810a	0.008575687
243	0x3c0d00fd	0.008606193
244	0x3dae683b	0.08515974
245	0x3d1e6b01	0.038676266
246	0xbd96e8df	-0.073686354
247	0xbd60479e	-0.0547558
248	0xbbdd48da	-0.0067530693
249	0xbd9a510a	-0.07534988
250	0xbb3596e2	-0.0027708341
251	0xbd813aa3	-0.06310012
252	0x3d568746	0.0523751
253	0xbd4156b8	-0.047201842
254	0x3b94e7b0	0.004544221
255	0xbd635e31	-0.05550975

actor.linear1.bias f4 [128]
0	0xbd8a0d65	-0.06740836
1	0x3d39943b	0.04530738
2	0xbdb538b2	-0.088487044
3	0x3d9de550	0.077097535
4	0xbdbf040c	-0.09326944
5	0xbdc5eb64	-0.09664038
6	0xbd0298c3	-0.031883966
7	0x3c66c55d	0.014085141
8	0xbd3cc8e4	-0.04609002
9	0xbc0633c8	-0.008191057
10	0x3d28ba67	0.041193392
11	0x3cb693aa	0.022287209
12	0x3d14e6e5	0.03635301
13	0x3c483463	0.012219521
14	0xbdafe97d	-0.08589456
15	0xbcd6425d	-0.026154691
16	0x3cac4ef0	0.021033734
17	0x3d7d104f	0.06178313
18	0x3c6d8418	0.014496826
19	0x3c4c1b4b	0.012457679
20	0x3d8a27f8	0.06745905
21	0xbd303e5a	-0.043028213
22	0x3d5a46c0	0.05329013
23	0xbda7302d	-0.08163486
24	0x3d70d330	0.058795154
25	0x3cee162e	0.02906331
26	0xbc22e1c7	-0.009941525
27	0x3d4b438e	0.049624972
28	0x3c455eac	0.012046497
29	0xbd7d3153	-0.061814617
30	0xbd9fbacb	-0.077993
31	0xbd98be8a	-0.074582174
32	0xbd335706	-0.043784164
33	0x3da0233a	0.07819219
34	0x3c808efd	0.015693182
35	0xbda4d0aa	-0.08047612
36	0xbd87c685	-0.066296615
37	0x3d97eb63	0.07417943
38	0x3bc76e0e	0.0060861176
39	0x3d0ddaf6	0.034632646
40	0x3c5f4749	0.013627836
41	0xbd998051	-0.074951775
42	0xbdb4e186	-0.08832078
43	0x3a23bba8	0.00062459195
44	0xbd611d13	-0.054959368
45	0xbbb1adfc	-0.005422352
46	0x3d10e782	0.035377033
47	0xbcd80a27	-0.026372029
48	0x3c93880e	0.018009212
49	0xbd4924e4	-0.049107447
50	0x3a1bb48d	0.0005939685
51	0xbbfcdaa9	-0.007716496
52	0x3db64557	0.08899944
53	0xbdc63224	-0.09677532
54	0xbdb8bca5	-0.09020356
55	0xbd827140	-0.06369257
56	0xbd74a043	-0.05972315
57	0xbdb60025	-0.08886746
58	0x3cbefd59	0.023314165
59	0x3c1f7a49	0.009733745
60	0xbd80dcf9	-0.06292147
61	0xbc402dc7	-0.011729664
62	0xbd3750b7	-0.04475471
63	0xbdc66c65	-0.09688643
64	0x3d7f92c8	0.06239584
65	0x3b8c6a80	0.0042851567
66	0xbcc4ac0c	-0.02400782
67	0x3dc06506	0.09394269
68	0x3d084305	0.03326704
69	0x3d68c46e	0.056827955
70	0xbca5ba97	-0.020230575
71	0xbd9942d3	-0.07483449
72	0xbdc77616	-0.0973932
73	0x3c24310f	0.010021462
74	0xbd8abce5	-0.0677431
75	0x3b344f3a	0.0027513043
76	0xbd3adc90	-0.0456205
77	0xbd83b778	-0.06431478
78	0xbd70f8a5	-0.058830876
79	0xbdc715d4	-0.0972096
80	0x3daa4d71	0.08315552
81	0xbd5f3530	-0.054494083
82	0x3cc3f23d	0.02391922
83	0xbcfd645d	-0.030931646
84	0xbcc6fec8	-0.024291411
85	0xbd3cc3a8	-0.04608503
86	0xbdb5458e	-0.08851157
87	0x3da3a279	0.079899736
88	0xbd2eba86	-0.04265835
89	0xbd73a168	-0.0594801
90	0x3d47328e	0.048632197
91	0xbc127c44	-0.00894076
92	0x3d7bf2fc	0.061511025
93	0x3cd25141	0.02567351
94	0xbdac66bd	-0.08418033
95	0xbda04c6c	-0.07827076
96	0x3d726ef9	0.059187863
97	0x3cf8f457	0.030389948
98	0x3d10833d	0.03528141
99	0xbdd7ef06	-0.10543637
100	0xbdac56c7	-0.08414989
101	0x3bb65297	0.0055640447
102	0x3d5de14b	0.054169934
103	0xbd777024	-0.06040968
104	0xbd78275a	-0.060584404
105	0xbd566c1d	-0.0523492
106	0x3d7a3f8e	0.061095767
107	0xbd1678cd	-0.0367363
108	0xbd85238b	-0.0650092
109	0xbcf30b65	-0.02966852
110	0xbdb8afae	-0.09017883
111	0xbcfca4ad	-0.030840242
112	0x3a467171	0.00075700047
113	0xbd426966	-0.047463797
114	0xbd218f6d	-0.039443422
115	0x3d826466	0.06366806
116	0x3c56c12b	0.013107578
117	0x3dae1888	0.08500773
118	0x3d990760	0.0747211
119	0xbd79e854	-0.06101258
120	0x3dbfe500	0.0936985
121	0xbcc5497f	-0.024082897
122	0xbdb0eede	-0.0863931
123	0x3d56fe1a	0.052488424
124	0xbc7def04	-0.01549888
125	0xbc82875d	-0.015933687
126	0xbc82e1f1	-0.015976878
127	0xbd44ea2b	-0.048074882

actor.linear2.weight f4 [128, 128]
0	0xbdb3afcf	-0.08773767
1	0xbccdb306	-0.02510978
2	0xbda5aadf	-0.08089232
3	0xbc52bddf	-0.012862652
4	0xbd5870d4	-0.052841976
5	0x3d0a6e51	0.033796612
6	0xbd0ce49c	-0.034397706
7	0x3dbd559d	0.09244845
8	0xbd552f40	-0.052047014
9	0x3c2bd02a	0.010486642
10	0xbcb312c7	-0.02185954
11	0xbd07d32e	-0.03316038
12	0x3bc66e9d	0.0060556666
13	0x3d838f26	0.06423788
14	0xbdb9ad90	-0.090663075
15	0x3cef7413	0.029230153
16	0xbdac72a1	-0.08420301
17	0x3da9a75d	0.08283875
18	0x3d755dbd	0.05990385
19	0xbb9de7e2	-0.0048189024
20	0xbd3b97f6	-0.045799218
21	0xbc6dca62	-0.014513584
22	0xbcaefbeb	-0.021360358
23	0xbcb48989	-0.022038238
24	0xbd716d96	-0.0589424
25	0x3c5613cb	0.013066242
26	0xbc5f5d2e	-0.013633056
27	0x3d3b90d6	0.045792423
28	0x3d8fc673	0.07020273
29	0xbcab3450	-0.020898968
30	0xbd4fc085	-0.05072071
31	0x3acc04bd	0.0015565377
32	0xbdb6b2e9	-0.08920843
33	0x3ce68ba6	0.028142761
34	0x3d843dfa	0.064571336
35	0x3d278691	0.040899817
36	0x3ce0d085	0.02744318
37	0x3bf318f9	0.0074187485
38	0x3da9f5b5	0.08298818
39	0xbd6eb5bf	-0.058278795
40	0xbc99732d	-0.018731678
41	0x3da61a2e	0.08110462
42	0x3d2f102c	0.042740032
43	0xbd48b1c1	-0.048997644
44	0x3d58ed68	0.052960783
45	0xbbf7ac8a	-0.00755841
46	0x3d85e8de	0.065385565
47	0x3c888aca	0.016667742
48	0xbd6c56aa	-0.057699837
49	0x3c35f1ce	0.011105014
50	0x3d13a272	0.03604359
51	0xbd800803	-0.06251528
52	0xbd883d7b	-0.066523515
53	0xbc98fbf8	-0.018674836
54	0xbd8497d9	-0.06474275
55	0xbbe8e8df	-0.0071078385
56	0x3dc571cd	0.096408464
57	0xbc2ff349	-0.010739156
58	0x3d965f70	0.07342422
59	0x3b486ca8	0.0030582342
60	0x3db3ea61	0.087849386
61	0xbdbe01c0	-0.092776775
62	0x3c9b962d	0.018992508
63	0xbc3e3762	-0.011609884
64	0xbcacb0a3	-0.02108032
65	0x3d4284c1	0.047489885
66	0xbccd5ec2	-0.025069598
67	0xbbac6b5b	-0.005261821
68	0x3cfb182a	0.03065117
69	0x3da61d08	0.08111006
70	0x3c0d4058	0.008621298
71	0xbc611a30	-0.013739154
72	0x3b322375	0.0027181779
73	0x3d9bc154	0.07605234
74	0xbd4f0a62	-0.05054701
75	0xbcbb87a4	-0.022891827
76	0x3cc50d5b	0.02405422
77	0xbbe40f5d	-0.0069598393
78	0xbd0681e2	-0.03283871
79	0x3d04a01f	0.032379266
80	0x3c26ffbe	0.01019281
81	0x3dac9d12	0.08428396
82	0x3ba525fb	0.005039928
83	0x3d563a69	0.052301798
84	0xbd0432ab	-0.032274883
85	0xbd198d83	-0.03748847
86	0xbd9d9d25	-0.076959886
87	0xbd002438	-0.03128454
88	0xbd1700ca	-0.036865987
89	0x3d680ac2	0.056650884
90	0x3d275842	0.040855654
91	0x3c638e9f	0.013888984
92	0xbb670f48	-0.003525691
93	0xbd5a9bce	-0.053371243
94	0xbba53846	-0.0050421087
95	0x3bd865ce	0.006603933
96	0x3d5ef335	0.05443116
97	0xbd4197ee	-0.047264032
98	0x3d59a11b	0.053132158
99	0x3b6d3803	0.0036196716
100	0x3d0d55a4	0.0345055
101	0xbdbe707a	-0.09298797
102	0xbdb15976	-0.086596414
103	0xbd5f2b4f	-0.05448466
104	0x3cebe11b	0.028793862
105	0xbd538acc	-0.05164604
106	0x3dcad17d	0.09903238
107	0xbd9d5b9a	-0.07683487
108	0xbc3be1c3	-0.0114674
109	0xbca3aaf8	-0.019978985
110	0xbd0c3fd9	-0.034240577
111	0xbd437a35	-0.047723968
112	0xbcf51356	-0.029916447
113	0x3d8467dd	0.06465123
114	0x3d07d3cd	0.033160973
115	0xbd878577	-0.06617253
116	0x3c797a3d	0.015226898
117	0x3ccff32c	0.025384508
118	0xbd656244	-0.056001917
119	0xbd76833f	-0.06018376
120	0x3d27eff2	0.041000314
121	0x3d8460a9	0.06463749
122	0x3d3bd90b	0.045861285
123	0x3cbde8e5	0.023182342
124	0x3a5bc21f	0.00083831133
125	0x3bc01a6c	0.0058625247
126	0xbd819c65	-0.06328658
127	0x3cd2fd96	0.025755685
128	0x3c5b8bac	0.0134
129	0x3db8e39c	0.09027788
130	0x3d9e8a55	0.077412285
131	0x3d998aa2	0.07497145
132	0x3c5f8d3b	0.013644512
133	0x3d02b43e	0.031910174
134	0xbd446ac1	-0.04795337
135	0x3c96eeda	0.01842444
136	0x3d413840	0.047172785
137	0xbd8ae190	-0.06781304
138	0x3d84c021	0.06481958
139	0xbbbd904c	-0.005785024
140	0xbd69c963	-0.057076823
141	0xbd0dafc5	-0.034591455
142	0xbd9945b4	-0.07483998
143	0x3cfd4af0	0.030919522
144	0xbc3ea5a0	-0.011636168
145	0x3bfe9bcc	0.0077700373
146	0x3d1d1e34	0.038358882
147	0x3cd27ca3	0.025694197
148	0x3c93018f	0.01794508
149	0xbd362d52	-0.044476815
150	0xbdac0d5a	-0.08400984
151	0x3d959d94	0.07305446
152	0x3d808895	0.06276051
153	0x3c53b934	0.012922574
154	0x3c8c6005	0.01713563
155	0xbd4583e4	-0.048221484
156	0x3d8c0503	0.068368934
157	0xbd88a77b	-0.06672569
158	0xbd3b1ca3	-0.045681607
159	0xbc2c1176	-0.01050221
160	0xbd3c135d	-0.045916904
161	0xbd973f90	-0.073851705
162	0x3d8a2ac9	0.06746442
163	0x3d1d298c	0.0383697
164	0xbcc4908c	-0.023994707
165	0xbc4b73e0	-0.0124177635
166	0x3da75ecf	0.0817238
167	0xbca8699b	-0.02055817
168	0x3c943332	0.018090818
169	0x3db70678	0.08936781
170	0xbd72af64	-0.059249297
171	0x3d99061c	0.074718684
172	0x3dae40b1	0.08508433
173	0x3d9d62dd	0.07684872
174	0xbc3a5249	-0.011372157
175	0x3da03777	0.07823079
176	0xbcd77efc	-0.026305668
177	0xbd4fa948	-0.05069855
178	0xbcac3c50	-0.021024853
179	0xbdb4e7b5	-0.08833257
180	0x3c7ea4bd	0.015542206
181	0xbd5eaa6e	-0.054361753
182	0xbd5e0b63	-0.054210078
183	0xbca5b932	-0.02022991
184	0xbc4e1c23	-0.0125799505
185	0xbccec784	-0.02524162
186	0x3c993f40	0.018706918
187	0xbc551f0d	-0.013007891
188	0x3d721d18	0.059109777
189	0xbd134da2	-0.03596271
190	0x3bbbdfbf	0.0057334597
191	0xbd3fdca1	-0.046841267
192	0xbd03565b	-0.032064777
193	0xbdab9f8f	-0.08380043
194	0x3d67dbd4	0.05660613
195	0x3d72afb3	0.05924959
196	0xbd868f90	-0.06570351
197	0x3cad513f	0.021156905
198	0x3d8f2a4a	0.06990488
199	0xbc0e407d	-0.008682367
200	0x3d704bfc	0.058666214
201	0xbca1cfca	-0.019752402
202	0xbbcf991b	-0.0063353903
203	0xba9658b6	-0.001147053
204	0x3d061536	0.032735072
205	0xbd97e7aa	-0.07417233
206	0xbd5e9d65	-0.054349322
207	0xbd343fa9	-0.044006024
208	0x3d2a030f	0.041506823
209	0x3dc0a67f	0.094067566
210	0x3d29ba05	0.041437168
211	0x3cd02dd7	0.025412483
212	0x3c254178	0.01008641
213	0xbb119e79	-0.0022219701
214	0xbd655224	-0.05598654
215	0x3d032874	0.032021
216	0xbb982cd9	-0.004644018
217	0xbbffb685	-0.0078037404
218	0x3bb5c9db	0.0055477447
219	0xbd372fa5	-0.04472317
220	0x3c2d3ef7	0.010574094
221	0x3d762191	0.060090605
222	0x3d8e52c6	0.069493815
223	0xbd81ac74	-0.06331721
224	0xbd399291	-0.045305792
225	0xbd1bc05d	-0.03802525
226	0x3d8789af	0.06618058
227	0x3c698c20	0.0142546
228	0x3d65e560	0.056126952
229	0x3d99e992	0.07515253
230	0xbd952841	-0.072830684
231	0xbd926350	-0.071478486
232	0xbd85a314	-0.06525245
233	0xbda01ea2	-0.07818343
234	0x3d459f2f	0.048247512
235	0x3d088454	0.033329323
236	0xbca8f48a	-0.020624418
237	0xbd5e6b7a	-0.054301716
238	0x3ca60fe2	0.020271245
239	0xbd7e064e	-0.06201773
240	0x3c23e4d5	0.010003288
241	0x3c79d765	0.015249108
242	0x3d7e9d79	0.062161896
243	0xbd94d3f3	-0.072669886
244	0x3d894972	0.06703462
245	0xbc886f7a	-0.016654719
246	0x3b8d0b17	0.0043043005
247	0xbd32ce51	-0.04365379
248	0x3d534292	0.05157716
249	0xbd459287	-0.048235442
250	0xbd747c68	-0.059688956
251	0xbd85b7df	-0.06529211
252	0xbd14f625	-0.036367554
253	0xbcc484a8	-0.023989037
254	0xbd4cb01f	-0.04997265
255	0x3db15094	0.08657947

actor.linear2.bias f4 [128]
0	0xbd0717e0	-0.032981753
1	0x3d97484e	0.07386838
2	0x3d98dd3a	0.074640706
3	0xbcb993bf	-0.022653459
4	0x3c79fcc4	0.015258018
5	0x3d940b81	0.07228757
6	0x3d925195	0.07144467
7	0x3d7060e5	0.058686156
8	0x3cefc7d2	0.029270086
9	0xbd61e993	-0.055154394
10	0xbd88423c	-0.06653258
11	0x3d36e68a	0.044653453
12	0x3d9d6145	0.07684568
13	0x3b8ff6b2	0.004393422
14	0xbca9f5c1	-0.020747067
15	0x3d5220b5	0.051300723
16	0x3b1ec4dd	0.0024226226
17	0x3d4137c5	0.047172327
18	0xbd527f60	-0.051391006
19	0x3d25026d	0.040285517
20	0x3d69a622	0.057043202
21	0x3d8212a8	0.06351215
22	0xbda02949	-0.078203745
23	0xbd61d64f	-0.05513602
24	0x3cbb9e63	0.022902673
25	0x3d76378f	0.06011158
26	0x3d3b7c2b	0.045772713
27	0xbca75b84	-0.02042938
28	0x3c44911c	0.011997487
29	0x3d3241c1	0.04351974
30	0xbcce1316	-0.025155585
31	0x3d03e3bb	0.032199603
32	0x3c0df16c	0.0086635165
33	0x3daaec7a	0.083458856
34	0x3da8ac20	0.08235955
35	0x3d93da43	0.072193645
36	0xbb313954	-0.0027042227
37	0x3d8d6036	0.069031164
38	0xbcf886f5	-0.03033779
39	0x3d6b924a	0.05751256
40	0x3dac65d7	0.08417862
41	0x3da52d40	0.080652714
42	0xbc158f5f	-0.009128421
43	0x3bf9d5ee	0.0076243794
44	0xbdafcc3c	-0.085838765
45	0x3d800f57	0.06252926
46	0x3c404523	0.0117352335
47	0x3d4c3542	0.049855478
48	0x3d01e30e	0.031710677
49	0x3d1a1d98	0.03762588
50	0x3c922f0c	0.0178447
51	0xbd331936	-0.043725215
52	0xbd9dfba3	-0.077140115
53	0xbd4525ba	-0.048131682
54	0xbc2c4884	-0.010515336
55	0xbd91d81b	-0.07121297
56	0xbbe40136	-0.006958152
57	0xbda4701f	-0.08029198
58	0xbd5a04bf	-0.053227182
59	0xbca50d10	-0.02014783
60	0xbb440982	-0.0029912894
61	0x3d5401ab	0.051759403
62	0x3d2e514e	0.042558007
63	0x3c1a90f4	0.009433974
64	0x3c192a7c	0.009348508
65	0xbd5134a2	-0.051075585
66	0xbc442111	-0.011970774
67	0x3d6eea7b	0.058329087
68	0xbdb9d395	-0.09073559
69	0x3d6c2c04	0.057659164
70	0x3dc146f6	0.09437363
71	0x3d8b917d	0.06814859
72	0x3ce23265	0.02761192
73	0x3d24b314	0.040209845
74	0xbcf9eb0f	-0.030507592
75	0x3cb2f7f4	0.021846749
76	0x3d5b27e2	0.053504832
77	0x3db144c3	0.086556934
78	0xbd3589c3	-0.044320833
79	0x3d951ec4	0.07281259
80	0x3c59a21c	0.013283279
81	0xbc6d5537	-0.014485649
82	0xbd903f06	-0.07043271
83	0x3c4e9d80	0.012610793
84	0xbd06c7ca	-0.032905377
85	0xbd878023	-0.06616237
86	0xbd9b2f2a	-0.07577355
87	0x3db0834b	0.08618792
88	0x3d9cdd8f	0.076594464
89	0xbdb1196e	-0.086474285
90	0xbd287f39	-0.041136954
91	0xbd1ea50b	-0.038731616
92	0xbd9df043	-0.07711842
93	0xbccd6da5	-0.025076697
94	0xbcec5140	-0.028847337
95	0x3da7b55b	0.08188888
96	0xbd1c477d	-0.038154114
97	0xbc96ee63	-0.018424219
98	0xbd0d3a0d	-0.03447919
99	0x3d85ca82	0.06532766
100	0xbc509a2a	-0.012732068
101	0x3db0a629	0.086254425
102	0x3c4ac789	0.012376674
103	0x3d904baa	0.07045682
104	0xba2ad983	-0.0006517397
105	0xbd4a7ced	-0.049435545
106	0xbd818a3a	-0.06325193
107	0x3d7259cc	0.05916767
108	0x3d883295	0.06650273
109	0xbd2917ab	-0.041282337
110	0xbc4dfc38	-0.012572341
111	0x3cd5a599	0.02607994
112	0x3dc4f29e	0.09616588
113	0x3cd34924	0.025791712
114	0x3d87270e	0.06599246
115	0x3d82feac	0.06396231
116	0xbc7fb0ff	-0.015606164
117	0x3ab8f64b	0.0014111487
118	0xb85376cc	-5.041696e-05
119	0x3bf4be4a	0.0074689733
120	0x3d10a7a5	0.03531613
121	0xbcb3d247	-0.021950854
122	0xbc9b72ec	-0.018975697
123	0x3d3abe79	0.045591805
124	0xbb0f6e18	-0.002188569
125	0xbd45e588	-0.0483146
126	0x3d80dde7	0.062923245
127	0xbd36c3be	-0.044620268

actor.linear3.weight f4 [128, 128]
0	0x3d67a3da	0.056552745
1	0x3cd8a5a6	0.026446175
2	0x3d9ecc89	0.07753856
3	0x3d34c746	0.044135354
4	0x3c87e2e7	0.016587688
5	0xbd3860e1	-0.045014266
6	0xbbbf5460	-0.0058389157
7	0xbd25a3cb	-0.04043941
8	0x3db8d355	0.090246834
9	0xbd10f110	-0.035386145
10	0xbd3a42e8	-0.045473963
11	0xbd6499c1	-0.055810694
12	0x3d1cb1d1	0.038255516
13	0x3d90d1c3	0.07071259
14	0x3cfe5962	0.03104848
15	0x3d6d0253	0.057863545
16	0x3d1d06fb	0.038336735
17	0x3d724370	0.059146345
18	0x3d2f5a8e	0.04281097
19	0x3d8f8c52	0.07009186
20	0x3c53b2f7	0.0129210865
21	0xbda24a52	-0.07924332
22	0x3d4063c9	0.046970163
23	0x3d08230a	0.03323654
24	0x3d06b9ce	0.03289204
25	0x3bc03307	0.005865458
26	0x3d047a1f	0.032343026
27	0xbd04f7d7	-0.03246292
28	0xbd6e0cf5	-0.058117826
29	0xbd6b9683	-0.057516586
30	0xbd1a1e67	-0.03762665
31	0xbbb046fa	-0.005379555
32	0x3da53538	0.08066791
33	0x3d90a068	0.07061845
34	0x3ca46140	0.020065904
35	0x3da2c7b3	0.07948246
36	0x3dadca86	0.08485894
37	0x3c5dd903	0.013540509
38	0xbd4f0c98	-0.05054912
39	0xbd639d3c	-0.055569872
40	0xbd7d1e92	-0.061796732
41	0xbdb47723	-0.08811786
42	0x3c47159a	0.012151146
43	0x3d9783d3	0.0739819
44	0x3d59bc65	0.053158183
45	0xbcd24184	-0.025666006
46	0x3d52251c	0.05130492
47	0xbc105db5	-0.008811404
48	0xbd0faec2	-0.03507877
49	0x3d57944a	0.052631654
50	0x3d6b42b1	0.05743665
51	0x3d40e048	0.04708889
52	0x3db0eedf	0.08639311
53	0xbbd7d7eb	-0.0065870187
54	0xbb2e5fca	-0.0026607388
55	0xbcf18dd3	-0.029486572
56	0xbd971c1d	-0.07378409
57	0xbcc987ba	-0.024600852
58	0xbd847c92	-0.064690724
59	0xbd37cf04	-0.04487516
60	0xbd90fcb9	-0.07079453
61	0x3d96a9b2	0.073565856
62	0x3d594ee9	0.05305377
63	0x3d1c9bfb	0.038234692
64	0x3d46befd	0.048521984
65	0xbd193fe4	-0.037414446
66	0x3d5ed23e	0.05439972
67	0xbc692fd8	-0.014232598
68	0xbb9473f3	-0.004530424
69	0x3d61f327	0.05516353
70	0xbd9ca9c6	-0.07649569
71	0x3db4e219	0.08832187
72	0x3d1ea8af	0.038735088
73	0x3d9351c9	0.07193334
74	0x3daa8b09	0.083273
75	0xbd48787f	-0.04894304
76	0x3d3457b1	0.04402894
77	0xbd74e15f	-0.059785243
78	0xbdb5bd0b	-0.08873948
79	0xbd30f4bb	-0.043202143
80	0x3d0d84e5	0.034550566
81	0xbc5a1df0	-0.013312802
82	0x3dbbd635	0.09171716
83	0xbcbaf4ca	-0.022821803
84	0xbd1293c7	-0.035785463
85	0x3d9a7df4	0.07543555
86	0xbbf557aa	-0.007487257
87	0xbc20e54f	-0.009820296
88	0xbd3781b0	-0.044801414
89	0xbd24c6c1	-0.04022861
90	0xbd3471f3	-0.044053983
91	0x3c7fff1a	0.015624786
92	0xbc22cd10	-0.009936586
93	0xbd9a3b0c	-0.075307935
94	0x3ce8fe6d	0.028441632
95	0x3d27c881	0.0409627
96	0xbce183d9	-0.02752869
97	0xbd37640e	-0.044773154
98	0x3cd91670	0.026499957
99	0x3d1fbe06	0.03899958
100	0x3d1a53b3	0.037677478
101	0x3c3d6995	0.011560817
102	0xbda65327	-0.08121329
103	0xbd697c03	-0.057003032
104	0x3d55f1b1	0.052232448
105	0xbd699953	-0.057030987
106	0xbd7bd1da	-0.061479427
107	0xbcacb99a	-0.021084595
108	0xbd430751	-0.0476144
109	0xbc081381	-0.008305431
110	0xbc9927bd	-0.018695707
111	0xbd644b2c	-0.055735752
112	0xbd07bfa0	-0.033141732
113	0x3da6c4bd	0.081429936
114	0x3d250771	0.0402903
115	0x3d9701ad	0.073733665
116	0x3d584fe2	0.052810557
117	0x3d434021	0.04766858
118	0xbd307483	-0.043079864
119	0x3cdd1543	0.026987677
120	0x3da8f6ef	0.08250224
121	0xbd099783	-0.03359176
122	0x3d30e120	0.043183446
123	0x3d8316bb	0.0640082
124	0xbda32aff	-0.07967185
125	0xbd98d119	-0.07461757
126	0x3c6f8a93	0.014620441
127	0xbda0a199	-0.07843322
128	0xbd7f9ce3	-0.06240548
129	0x3d20723d	0.039171446
130	0xbdb47de6	-0.08813076
131	0x3bc1f2dd	0.005918844
132	0xbdb44c71	-0.088036425
133	0xbd8ae46e	-0.06781851
134	0xbccd71b0	-0.025078624
135	0xbd872075	-0.065979876
136	0x3c1e1dc1	0.009650649
137	0xbd8e16df	-0.06937956
138	0x3d9174b1	0.07102335
139	0xbdb27aa5	-0.08714799
140	0x3c789d00	0.0151741505
141	0xbd41cd5d	-0.04731499
142	0xbd23bfc2	-0.039977796
143	0x3d3b8a71	0.045786325
144	0xbab51489	-0.0013815324
145	0xbd8523d3	-0.065009736
146	0x3d285932	0.04110069
147	0xbcdf4c03	-0.027257925
148	0x3d856336	0.065130636
149	0xbd5d5613	-0.054037165
150	0x3da2b782	0.079451576
151	0x3cf1f6d4	0.029536642
152	0xbc99d68d	-0.018779064
153	0x3c93118c	0.017952703
154	0x3d182cd4	0.037152126
155	0x3c1fd821	0.009756119
156	0x3d9d9030	0.07693517
157	0xbda1bd5c	-0.078974456
158	0x3c56b6f9	0.0131051475
159	0xbcf9a189	-0.030472534
160	0x3d94b66d	0.072613575
161	0x3b9fab3f	0.004872709
162	0xbd9d5440	-0.07682085
163	0x3d5e0f29	0.054213677
164	0xbd3a7a42	-0.04552675
165	0x3be6bed6	0.0070417924
166	0x3c47be28	0.012191333
167	0x3ab97986	0.0014150597
168	0xbd3d523b	-0.046221
169	0xbc095de8	-0.008384205
170	0x3c9b9442	0.018991593
171	0x3d934346	0.07190566
172	0xbc3925ea	-0.011300543
173	0x3c2265d6	0.009911975
174	0x3d001873	0.031273317
175	0xbb616d12	-0.0034397286
176	0xbdb59087	-0.08865457
177	0xbdaccf4e	-0.08437978
178	0x3da6ed16	0.08150689
179	0x3c054b7f	0.008135675
180	0xbbe1a40d	-0.0068860115
181	0x3d260b68	0.04053822
182	0x3da45599	0.08024139
183	0xbba2bbfa	-0.004966256
184	0x3d97da50	0.07414687
185	0xbbb7d52e	-0.00561013
186	0xbd85d31d	-0.06534407
187	0x3d446563	0.047948252
188	0x3d9c3f15	0.076292194
189	0xbda1f5bc	-0.07908198
190	0x3d282546	0.04105117
191	0x3db24370	0.08704269
192	0x3d0c8171	0.034303132
193	0xbd8bdf5e	-0.06829713
194	0x3d2648e6	0.040596865
195	0x3c9d07b9	0.019168722
196	0xbd1a7e95	-0.037718374
197	0xbd65a680	-0.05606699
198	0xbd8094ca	-0.06278379
199	0xbd83c436	-0.06433909
200	0x3c2846a7	0.010270751
201	0x3d9b0cf0	0.07570827
202	0x3da4b186	0.080416724
203	0x3db23f64	0.08703497
204	0xbda83314	-0.082128674
205	0x3ca5ac1f	0.020223675
206	0xbd9c9b1c	-0.07646772
207	0xbb8f7db6	-0.0043789996
208	0x3d940e20	0.07229257
209	0xbdab9bec	-0.08379349
210	0x3cbe2294	0.023209848
211	0x3ccd621e	0.0250712
212	0xbd85187a	-0.06498809
213	0xbd4d7e65	-0.050169367
214	0x3ce8d5de	0.028422292
215	0x3c238e0e	0.009982599
216	0xbd386360	-0.045016646
217	0x3d5a0ed3	0.053236794
218	0xbb1fb0d6	-0.0024366877
219	0x3cebb757	0.028773947
220	0xbda10419	-0.0786211
221	0x3c6b1fa6	0.014350807
222	0xbc079858	-0.008276068
223	0xbb629499	-0.0034573434
224	0x3db9fcbd	0.09081409
225	0x3cf480da	0.029846597
226	0xbd8ceffc	-0.06881711
227	0x3d8effa8	0.06982356
228	0x3d7bbc1e	0.0614587
229	0xbd540eb9	-0.051771853
230	0xbca2f2df	-0.0198912
231	0xbd00189b	-0.031273466
232	0x3c68e7b3	0.014215398
233	0xbd6a9b51	-0.057277028
234	0x3da83052	0.08212341
235	0x3db57f8e	0.0886222
236	0xbd5067c5	-0.050880212
237	0x3d1746a2	0.036932595
238	0xbd991b21	-0.074758776
239	0x3d2c6047	0.042084005
240	0x3ce3a823	0.027790135
241	0xbc6ffccc	-0.014647674
242	0xbc570cfe	-0.013125656
243	0xbc86166a	-0.01636811
244	0x3d818fc2	0.06326248
245	0xbdb14155	-0.08655039
246	0xbd9cb339	-0.076513715
247	0x3a9280b3	0.0011177271
248	0x3d54d528	0.051961094
249	0xbdb1a655	-0.086743034
250	0xbd8518bd	-0.06498859
251	0x3c678ed5	0.014133175
252	0x3cbb1477	0.022836907
253	0x3caac93b	0.020847907
254	0x3ce16e12	0.027518306
255	0xbbd17e60	-0.006393239

actor.linear3.bias f4 [128]
0	0x3d25c2fa	0.040469147
1	0x3d8851ce	0.06656228
2	0x3dc043d2	0.09387936
3	0xbd72fae3	-0.059321295
4	0xbd8c7cae	-0.06859718
5	0xbd9f74e7	-0.07785969
6	0x3cf774f1	0.03020713
7	0x3c8124e9	0.01576467
8	0x3d9442fb	0.07239338
9	0x3d49c3fa	0.049259163
10	0x3c98f18e	0.01866987
11	0xbd0db323	-0.034594666
12	0x3ca53e90	0.020171434
13	0x3be4e647	0.006985459
14	0x3d5ed525	0.05440249
15	0xbd37b5ff	-0.0448513
16	0xbd85b27f	-0.06528186
17	0x3d99d00d	0.07510386
18	0xbd958112	-0.07300009
19	0x3dc0cf8f	0.09414589
20	0x3d6d5813	0.057945322
21	0x3cc1121c	0.023568206
22	0x3b148be2	0.0022666384
23	0x3d393a0a	0.045221366
24	0x3c17db4e	0.009268595
25	0x3d040267	0.032228854
26	0xbd47cadd	-0.04877745
27	0x3d8d46f5	0.068982996
28	0x3d0fb223	0.035081994
29	0xbc80267e	-0.015643355
30	0xbc9cb247	-0.019127978
31	0xbd352a9e	-0.044230096
32	0xbce942e2	-0.028474275
33	0xbcdd018b	-0.026978275
34	0x3d204263	0.03912581
35	0xbc679a11	-0.014135853
36	0x3d890454	0.06690279
37	0x3d5b9bf5	0.05361553
38	0x3d87cc25	0.06630734
39	0x3da2cf6f	0.07949721
40	0x3d525c70	0.051357687
41	0x3c98478b	0.018588802
42	0x3d6414b6	0.055683814
43	0x3db8dbf4	0.09026328
44	0x3d7c5a19	0.06160936
45	0xbd1e2136	-0.03860589
46	0xbcde98a1	-0.027172389
47	0xbc83070e	-0.015994575
48	0xbb7d3f02	-0.0038642292
49	0xbc75f40e	-0.0150118
50	0x3d39ac16	0.04533013
51	0x3b8a1990	0.004214473
52	0x3c903317	0.017602487
53	0x3da209bf	0.07912015
54	0xbc21c205	-0.009872918
55	0x3daf1fdd	0.08550999
56	0xbd073194	-0.033006266
57	0xbd84c315	-0.064825214
58	0xbd738aa3	-0.059458386
59	0x3d934041	0.0718999
60	0x3ca408b6	0.020023685
61	0x3d818e59	0.06325979
62	0x3c91fc4b	0.017820498
63	0xbd260db3	-0.04054041
64	0x3d9ea55c	0.077463835
65	0x3d6e2a42	0.05814577
66	0x3d6be0d9	0.05758748
67	0x3daefa17	0.085437946
68	0xbca70712	-0.020389114
69	0x3bb3698d	0.005475229
70	0x3bbb12b5	0.005709017
71	0x3d913a0b	0.07091149
72	0x3ce00fd1	0.027351292
73	0xbcc5bbd5	-0.024137417
74	0x3c38df0e	0.011283649
75	0x3db6840e	0.08911906
76	0xbcf7fccc	-0.03027191
77	0xbd9947f3	-0.07484426
78	0xbbbc1a7f	-0.0057404633
79	0x3c90cf8d	0.017677093
80	0x3d9426c5	0.07233957
81	0xbcac55c7	-0.021036996
82	0xbd1b1569	-0.037862215
83	0xbdabc0b6	-0.08386366
84	0xbd4cf59c	-0.05003892
85	0xbd27d6e5	-0.040976424
86	0x3d977675	0.07395641
87	0x3b914114	0.0044328067
88	0xbd71bf6d	-0.05902045
89	0x3d9205ba	0.071299985
90	0x3d80bd95	0.0628616
91	0xbd4558d8	-0.04818043
92	0x3d960b33	0.07326355
93	0x3d64002a	0.05566422
94	0x3d84b138	0.06479114
95	0x3dadda90	0.08488953
96	0xbd6c6fca	-0.057723798
97	0xbd09e2ea	-0.033663668
98	0xbd19db2e	-0.03756254
99	0xbcaa4c27	-0.020788265
100	0x3d75a2c2	0.05996967
101	0xbc9244ea	-0.017855126
102	0x3db64678	0.089001596
103	0x3beefc94	0.0072932933
104	0x3da9e07e	0.082947716
105	0xbd3d3d27	-0.046200898
106	0xbd83126a	-0.063999966
107	0xbcc3b58c	-0.02389028
108	0xbcb79929	-0.0224119
109	0x3d8ec757	0.06971615
110	0xbd4328f4	-0.047646478
111	0xbd0c105b	-0.034195285
112	0xba5d3cf3	-0.0008439563
113	0x3c81ff27	0.015868736
114	0xbdc19cd1	-0.094537385
115	0xbda50971	-0.080584414
116	0x3cd7a345	0.02632297
117	0xbd504b81	-0.050853256
118	0xbd85c569	-0.065317936
119	0xbc8ebbf8	-0.017423615
120	0x3d3ceb65	0.046122927
121	0xbd459d3f	-0.048245665
122	0xbd3d7b66	-0.04626026
123	0x3dc5f2ad	0.09665427
124	0x3d94370f	0.07237064
125	0xbd0fde9d	-0.03512441
126	0x3cff481b	0.031162312
127	0xbad65aea	-0.0016353999

actor.linear4.weight f4 [9, 128]
0	0xbd65ea51	-0.056131665
1	0x3da47a92	0.08031191
2	0x3d7c068c	0.06152968
3	0x3cd4ca01	0.02597523
4	0x3d7f69df	0.062356826
5	0xbd402618	-0.04691133
6	0xbdab2b52	-0.08357872
7	0xbd761ae7	-0.06008425
8	0xbd8cd4bc	-0.06876513
9	0xbd995757	-0.07487362
10	0x3d818cbd	0.06325672
11	0x3c489e5c	0.012244787
12	0x3d30f5e8	0.043203264
13	0xbd83887a	-0.06422515
14	0xbd6d36f5	-0.05791374
15	0x3d2689d5	0.04065879
16	0xbd3e8c6d	-0.04652064
17	0x3d5bbbda	0.053645946
18	0x3d9e22c4	0.07721475
19	0x3d85420f	0.0650674
20	0xbd871ff4	-0.065978914
21	0xbbc86ff3	-0.006116861
22	0xbda731a6	-0.081637666
23	0x3da4a05b	0.08038398
24	0xbda29a30	-0.07939565
25	0x3d63d8e2	0.055626757
26	0x3d7cf61a	0.06175814
27	0xbd811667	-0.06303101
28	0xbd7f39f2	-0.06231112
29	0x3d28386b	0.04106943
30	0x3dad60e8	0.08465749
31	0xbc77d87f	-0.0151273
32	0x3d3a281a	0.0454484
33	0x3d37bf8f	0.04486042
34	0x3d861d2e	0.06548534
35	0xbd4c44a9	-0.049870167
36	0x3d45dc24	0.048305646
37	0x38cf983a	9.8988836e-05
38	0xbd9f04e2	-0.07764603
39	0x3d36159b	0.0444542
40	0xbc5c3382	-0.013440015
41	0xbcee96e1	-0.029124679
42	0x3da35edc	0.07977077
43	0x3d34d320	0.044146657
44	0x3db4553c	0.0880532
45	0xbd6af9a5	-0.057366986
46	0xbcf0b03c	-0.02938091
47	0x3d84ddfd	0.064876534
48	0x3d5a2aad	0.053263355
49	0x3da085e3	0.07838037
50	0xbcf390c4	-0.029732116
51	0xbcd76348	-0.026292458
52	0x3ccbe0f6	0.024887543
53	0x3cdef2a3	0.027215308
54	0xbbb60c46	-0.0055556623
55	0x3d63035c	0.055423126
56	0xbd568622	-0.052374013
57	0xbd0cdfe8	-0.03439322
58	0x3d310a00	0.043222427
59	0x3b026df4	0.0019901963
60	0xbd1b4f75	-0.037917573
61	0x3d4c31b9	0.049852107
62	0xbcd9ba1e	-0.026578005
63	0xbc0e6584	-0.008691195
64	0xbda92b2a	-0.08260186
65	0xbd2f12fb	-0.04274271
66	0x3ab108fe	0.0013506708
67	0x3d0d8cd5	0.034558136
68	0xbbb5c434	-0.005547071
69	0x3dac181b	0.08403035
70	0x3c95b82e	0.0182763
71	0x3c090659	0.00836333
72	0x3d2922de	0.041293018
73	0xbd1b86c2	-0.037970312
74	0xbd4f16b9	-0.05055878
75	0x3d96b945	0.07359556
76	0xbcbd60c5	-0.023117432
77	0x3d840495	0.064461865
78	0xbc5a1b29	-0.01331214
79	0xbb966967	-0.0045902017
80	0x3d926162	0.071474805
81	0xbd7d4a14	-0.061838225
82	0x3d6df47d	0.05809449
83	0x3d7d0015	0.061767656
84	0x3d18424a	0.037172593
85	0x3db3a9bf	0.08772611
86	0xbc54f0ec	-0.012996893
87	0x3d9d7178	0.07687658
88	0x3c626778	0.013818614
89	0xbda7ec1c	-0.08199331
90	0x3d954574	0.07288638
91	0xbc8791c4	-0.016548999
92	0xbd903ee1	-0.07043243
93	0xbd886f1e	-0.06661819
94	0xbb94a645	-0.0045364224
95	0xbd7af480	-0.06126833
96	0x3ca04826	0.019565653
97	0xbd06e546	-0.032933496
98	0xbd4a1a2a	-0.04934136
99	0x3daf75ba	0.085673764
100	0xbd2902d4	-0.041262463
101	0xbd2857c2	-0.041099317
102	0x3bfc798c	0.007704919
103	0x3baa5f13	0.005199322
104	0xbbbbf7b5	-0.005736316
105	0xbb896e8a	-0.0041940855
106	0x3d42b336	0.04753419
107	0xbcf7d18a	-0.030251283
108	0xbc159b9a	-0.009131337
109	0xbd91bbde	-0.07115911
110	0xbd91f272	-0.07126321
111	0x3d65cb79	0.05610225
112	0xbbd1c998	-0.0064022057
113	0x3c50fa7a	0.012755031
114	0x3cfef005	0.03112031
115	0xbdb289ac	-0.08717665
116	0xbdaa69e8	-0.08320981
117	0x3d90571d	0.070478655
118	0xbbaf92e5	-0.0053580874
119	0xbc92bcc3	-0.017912274
120	0x3c90ec18	0.017690703
121	0x3bf0b6f5	0.007346029
122	0x3c3d0a4f	0.011538102
123	0xbd8673cb	-0.065650545
124	0x3da9fd33	0.08300247
125	0x3d462ce7	0.048382666
126	0x3d9dad07	0.07699018
127	0xbcfc2741	-0.030780436
128	0xbd52abac	-0.05143325
129	0x3cffa12f	0.031204788
130	0x3ce82147	0.02833618
131	0x3c545b24	0.012961183
132	0x3d5e2f4b	0.05424432
133	0xbd8e46f7	-0.06947129
134	0x3d00db5c	0.031459197
135	0x3d159d9b	0.036527257
136	0x3dc08236	0.09399836
137	0x3db8d8b8	0.09025711
138	0x3d5d2a80	0.05399561
139	0x3d3aa694	0.045569018
140	0xbd86e4d6	-0.06586616
141	0xbd8c5260	-0.06851649
142	0xbd6bd687	-0.057577636
143	0xbda5626e	-0.080754146
144	0xbd2ab1ba	-0.0416734
145	0x3da4dcd8	0.08049935
146	0xbce1e613	-0.027575528
147	0x3d9bb063	0.076020025
148	0xbc842bb1	-0.016134115
149	0xbcfbcaf2	-0.03073642
150	0x3c05a1a1	0.008156211
151	0x3d4fa4b2	0.050694175
152	0xbd452fdf	-0.048141357
153	0x3dbd54fb	0.09244724
154	0xbda506a0	-0.08057904
155	0x3d82a89e	0.063798174
156	0x3d702b4c	0.05863504
157	0xbd54cfa6	-0.05195584
158	0x3c7aee94	0.0153156705
159	0xbd4d6faf	-0.050155338
160	0xbcd9bfe5	-0.02658076
161	0xbdcad71c	-0.0990431
162	0xbd8fedb3	-0.070277594
163	0x3d86f764	0.06590155
164	0x3cdd634f	0.027024893
165	0x3caccb32	0.021092985
166	0x3d76cb91	0.06025273
167	0x3d714cb7	0.05891105
168	0x3d935270	0.07193458
169	0x3bfab9dc	0.0076515507
170	0xbd99ca82	-0.075093284
171	0x3ca78dc6	0.020453345
172	0x3db08e09	0.08620841
173	0xbd80801d	-0.06274436
174	0xbdd5143f	-0.10404252
175	0xbd67d2ba	-0.05659745
176	0xbd8fee97	-0.07027929
177	0xbdb40867	-0.08790665
178	0x3d5a7ae1	0.053339843
179	0xbd2a79ed	-0.041620184
180	0x3d928cc9	0.07155759
181	0xbd354714	-0.04425724
182	0x3d5df881	0.05419207
183	0x3dab3a24	0.08360699
184	0xbb9082a0	-0.004410103
185	0xbd9c867d	-0.07642839
186	0xbcf6f65a	-0.030146766
187	0xbc38cc10	-0.011279121
188	0x3d06d245	0.032915372
189	0xbd4551e4	-0.0481738
190	0x3b98a48b	0.004658287
191	0x3ba195d3	0.0049311905
192	0x3dcacd74	0.09902468
193	0xbd2952d9	-0.041338775
194	0x3b7ca0c8	0.0038547982
195	0xbd9a9f82	-0.07549955
196	0x3c856961	0.0162856
197	0xbd81654d	-0.0631815
198	0xbda480f5	-0.08032409
199	0xbd98b72d	-0.07456813
200	0xbcc1d6f2	-0.023662064
201	0x3d5180b8	0.051148146
202	0xbd8fd8b5	-0.070237555
203	0xbc42eda1	-0.011897475
204	0x3ca0f477	0.01964782
205	0xbd8c9bae	-0.06865631
206	0xbd27f5f6	-0.04100605
207	0xbd10019c	-0.035157785
208	0x3cba2c0f	0.022726087
209	0x3c60a2ab	0.013710658
210	0xbd2d907d	-0.042374123
211	0xbd99b9a8	-0.07506114
212	0x3d93a5ea	0.0720938
213	0x3bb9ee28	0.0056741424
214	0xbd548039	-0.051880095
215	0x3d324c2c	0.043529674
216	0xbda54410	-0.080696225
217	0xbd0e17b4	-0.034690574
218	0x3d92fb0d	0.071767904
219	0xbc4fb9ff	-0.012678622
220	0x3ccf9c9a	0.025343228
221	0x3d011ce1	0.03152168
222	0x3d82bbf9	0.06383509
223	0x3da93ddb	0.08263751
224	0x3c899115	0.016792813
225	0xbd818d0c	-0.06325731
226	0xbd8dcd2b	-0.06923898
227	0xbcf5037d	-0.02990889
228	0x3ccc95c3	0.024973756
229	0x3aedd39d	0.0018144731
230	0x3d9c1063	0.07620313
231	0x3da7b571	0.08188904
232	0x3dcc674e	0.09980641
233	0x3c10fbfc	0.00884914
234	0xbdaa51b8	-0.08316368
235	0xbd180f4f	-0.037123974
236	0xbd45e3e1	-0.048313025
237	0xbcb0261f	-0.021502553
238	0xbd5fc6e3	-0.054633033
239	0xbd98391a	-0.07432766
240	0x3c034d54	0.008014042
241	0xbb679c4c	-0.0035340963
242	0xbda65fee	-0.08123766
243	0xbda41299	-0.0801136
244	0xbcc44485	-0.023958454
245	0xbd8ce867	-0.06880265
246	0xbb6a3e3a	-0.0035742656
247	0xbda27f12	-0.07934393
248	0x3d8029c2	0.06257965
249	0x3d1b3b14	0.03789814
250	0xbcddec54	-0.02709023
251	0x3d91600a	0.07098396
252	0x3b70838c	0.0036699502
253	0x3dba9a40	0.09111452
254	0xbcddc35e	-0.027070697
255	0x3af2f16c	0.0018535084

actor.linear4.bias f4 [9]
0	0x3d7d2c51	0.06180984
1	0xbcad725f	-0.0211727
2	0x3d9a412f	0.07531964
3	0xbd382f7b	-0.044967156
4	0xbcd0a6b7	-0.02547012
5	0xbd9506f6	-0.07276718
6	0xbc42ee40	-0.011897624
7	0xbd306801	-0.043067936
8	0xbda93d5f	-0.08263659

critic.linear1.weight f4 [128, 120]
0	0x3d865ae3	0.06560304
1	0x3d611259	0.05494914
2	0xbd98a31a	-0.07452984
3	0xbdbf372b	-0.09336694
4	0x3d9b3dd4	0.07580152
5	0xbcb3d11e	-0.0219503
6	0xbd276cda	-0.040875293
7	0xbd308496	-0.043095194
8	0xbd853843	-0.06504872
9	0xbd163c21	-0.036678437
10	0x3ccfc101	0.025360586
11	0xbc21f69f	-0.009885459
12	0xbd8ab553	-0.06772866
13	0xbd5049ac	-0.05085151
14	0xbd77937d	-0.06044339
15	0xbdacef16	-0.084440395
16	0xbc31041e	-0.010804204
17	0xbdb39f61	-0.087706335
18	0x3db84bde	0.089988455
19	0x3d4679a4	0.04845585
20	0xbb51e08d	-0.0032024712
21	0xbd0180de	-0.031617038
22	0xbdb68451	-0.08911956
23	0x3dd29061	0.10281444
24	0xbc87acc6	-0.016561877
25	0xbcb87514	-0.022516765
26	0xbc7c6a4f	-0.015406205
27	0x3bf34242	0.00742367
28	0xbc880fa7	-0.016609026
29	0x3d7a20bb	0.06106637
30	0x3d1ecd3a	0.038769938
31	0xbd83c2b2	-0.064336196
32	0x3d6cc95a	0.05780921
33	0xbd3032bb	-0.04301713
34	0x3e0e59bf	0.13901423
35	0xbdf2ce05	-0.11855701
36	0x3d933c9f	0.07189297
37	0x3df347e7	0.11878949
38	0x3d8d5953	0.06901803
39	0x3d5dbd16	0.054135405
40	0xbcefbe55	-0.029265562
41	0x3d854c65	0.06508712
42	0x3a9ac70c	0.0011808588
43	0x3c0ebb5d	0.008711663
44	0xbb062e0b	-0.002047422
45	0xbd8dfc5b	-0.069328986
46	0xbc06808a	-0.008209357
47	0x3bde030b	0.006775265
48	0x3d39d12d	0.0453655
49	0x3d9e8b90	0.07741463
50	0xbd01fc9f	-0.03173506
51	0x3d8d004b	0.068848215
52	0x3d8906fd	0.06690786
53	0x3d7f93b9	0.06239674
54	0xbb7a6140	-0.0038204938
55	0xbce3bda8	-0.027800396
56	0x39df037a	0.00042536465
57	0xbd71ba6f	-0.059015688
58	0xbd67f8ce	-0.056633763
59	0xbc0cf27f	-0.008602737
60	0xbd15b3d6	-0.036548458
61	0xbd97e886	-0.07417397
62	0xbc34a540	-0.011025727
63	0x3d25c595	0.040471632
64	0xbc68d5cd	-0.01421113
65	0x3c7e46e1	0.015519829
66	0x3b5a8045	0.0033340615
67	0x3d187ac8	0.03722647
68	0x3d13a38a	0.036044635
69	0x3d0471ea	0.0323352
70	0xbdaf924d	-0.085728265
71	0x3e0acd69	0.1355492
72	0xbd2ca78d	-0.042151976
73	0xbb30c840	-0.0026974827
74	0x3d9afc5d	0.07567666
75	0x3d1cb554	0.038258865
76	0x3c5f59b9	0.013632231
77	0x3dc72021	0.09722925
78	0x3d3f789c	0.04674588
79	0xbd39fa65	-0.04540481
80	0xbd9464b7	-0.07245772
81	0xbda299df	-0.07939505
82	0x3dcc1e0e	0.0996667
83	0x3bac722b	0.0052626333
84	0x3d0f6c7e	0.035015576
85	0x3dc05ab0	0.09392297
86	0xbdd3459b	-0.103160106
87	0x3b368ed2	0.0027856124
88	0xbd6bf6dc	-0.05760847
89	0xbd3f28c0	-0.04666972
90	0x3d0f9860	0.035057425
91	0x3d8057db	0.06266757
92	0x3da8f504	0.08249858
93	0xbcf18e94	-0.029486932
94	0xbce9bd2a	-0.028532583
95	0xbd012de2	-0.031537898
96	0xbd8708e2	-0.06593491
97	0xbda54eaf	-0.08071648
98	0xbd94dfee	-0.07269274
99	0xbd0d4e5c	-0.034498557
100	0x3cbb5599	0.022867965
101	0xbc519bb9	-0.012793475
102	0xbd901916	-0.07036035
103	0xb96dce4f	-0.00022678937
104	0x3d18157b	0.03712986
105	0x3c1dede5	0.009639238
106	0xbc98663a	-0.018603433
107	0x3ccd04c5	0.025026688
108	0x3cbe9dac	0.023268543
109	0xbc56b8a9	-0.01310555
110	0x3c7693a0	0.015049845
111	0x3c8c2035	0.017105201
112	0x3c8a523c	0.016884916
113	0xbd2744b8	-0.04083702
114	0xbd8a7661	-0.0676086
115	0x3df9f642	0.12205173
116	0x3cb220c7	0.021744145
117	0xbda73aaf	-0.0816549
118	0x3bbb239f	0.0057110335
119	0xbc7de384	-0.0154961385
120	0x3bf16692	0.0073669637
121	0xbd819b96	-0.06328504
122	0x3c63605e	0.013877956
123	0x3dd4a3ce	0.10382806
124	0xbd92c399	-0.071662135
125	0x3d8ee4b6	0.06977217
126	0x3d321b54	0.043483093
127	0x3d73e13d	0.059540976
128	0xbd26c601	-0.040716175
129	0xbd7be3a4	-0.061496392
130	0xbb0beda2	-0.0021351357
131	0x3def43a2	0.11682822
132	0x3c641370	0.01392065
133	0xbda719f7	-0.08159249
134	0xbcd91665	-0.026499936
135	0x3c04532f	0.008076473
136	0x3caf0379	0.02136396
137	0x3d42307f	0.04740953
138	0x3c63f8cc	0.013914298
139	0xbe133455	-0.14375432
140	0xbdb1a0b7	-0.08673232
141	0x3d08c48c	0.033390567
142	0xbc8c3961	-0.017117204
143	0x3c698207	0.014252192
144	0x3d205e69	0.039152537
145	0xbd85839a	-0.06519242
146	0xbd7b5910	-0.061364233
147	0x3e04d4c2	0.12971786
148	0x3bb4d835	0.005518938
149	0xbcd7edda	-0.026358534
150	0xbd57f38b	-0.052722495
151	0xbd295ba2	-0.041347153
152	0x3d9649f2	0.07338323
153	0xbd113d3b	-0.035458785
154	0xbd86e1b0	-0.06586015
155	0xbd132c84	-0.035931125
156	0xbd3cd0f4	-0.04609771
157	0x3c1c69a0	0.009546667
158	0xbce14d7b	-0.027502766
159	0xbda7000a	-0.08154304
160	0xbd6150ed	-0.055008817
161	0x3d21b886	0.039482616
162	0xbc8af96e	-0.01696464
163	0x3d9aea53	0.07564225
164	0x3d9a977b	0.07548424
165	0x3dad95d0	0.0847584
166	0xbccfc457	-0.025362177
167	0xbc1b8a04	-0.009493355
168	0xbd53a7d0	-0.05167371
169	0xbb84eaf8	-0.004056331
170	0x3e13bc6b	0.14427345
171	0x3d8f7749	0.07005174
172	0xbd0382b2	-0.032107063
173	0x3d389499	0.04506359
174	0xbd812f60	-0.06307864
175	0xbd7b7b08	-0.06139663
176	0xbc091d8a	-0.008368859
177	0xbd8fff11	-0.07031072
178	0x3caee54f	0.021349577
179	0xbdc6ffb3	-0.097167395
180	0xbd4bf03a	-0.049789645
181	0xbdab1f8c	-0.083556265
182	0xbd617dde	-0.055051677
183	0x3c2743dd	0.010209051
184	0x3d0260ae	0.031830482
185	0x3cd51d62	0.026014987
186	0x3d01148a	0.03151373
187	0xbd4d72bb	-0.050158244
188	0xbda27e55	-0.07934252
189	0x3c7492b9	0.0149275595
190	0x3c5fa3c8	0.013649888
191	0x3cab2ba6	0.020894837
192	0xbc2f5c90	-0.010703221
193	0xbd325edd	-0.0435475
194	0xbd8acdca	-0.067775324
195	0x3d707ea3	0.05871452
196	0x3d4ceebe	0.05003237
197	0xbd98d47d	-0.07462404
198	0x3c0dacfa	0.008647198
199	0x3cfe8d62	0.031073276
200	0xbd2d00a8	-0.042236954
201	0x3d8bb491	0.0682155
202	0x3d6053a5	0.05476727
203	0xbd876118	-0.06610316
204	0xbd561cc3	-0.052273523
205	0xbdadc95c	-0.08485672
206	0x3d4d4e36	0.050123416
207	0x3d6b6f9f	0.057479497
208	0x3c85850d	0.016298795
209	0xbd6eadd6	-0.05827125
210	0xba6aca31	-0.00089565205
211	0xbbe1bd54	-0.0068890247
212	0xbd78581e	-0.06063091
213	0x3db4ee9f	0.08834576
214	0x3d3c7a83	0.046015274
215	0xbd07134e	-0.032977395
216	0xba2db653	-0.00066265947
217	0xb802b986	-3.1167197e-05
218	0xbd22005f	-0.039551135
219	0xbd8b00aa	-0.06787236
220	0xbda64123	-0.081178926
221	0xbbcca8c8	-0.006245706
222	0xbd28b65c	-0.041189536
223	0x3b7a750a	0.0038216733
224	0xbd77b4cb	-0.060475152
225	0xbd05360b	-0.032522243
226	0x3c341848	0.010992117
227	0x3d653340	0.05595708
228	0xbd6ed8a3	-0.05831207
229	0x3d7882d9	0.06067166
230	0x3cb5889b	0.022159865
231	0xbd799288	-0.06093076
232	0xbcf72d0e	-0.030172851
233	0x3d7800d3	0.06054766
234	0xbc5388bc	-0.012911018
235	0x3c973315	0.018456975
236	0x3d038764	0.03211154
237	0xbe472127	-0.1944624
238	0xbc23e289	-0.010002741
239	0xbddc1331	-0.10745848
240	0x3d9966b5	0.07490293
241	0x3da3d10e	0.079988584
242	0x3d38379a	0.0449749
243	0xbb9e68a1	-0.00483425
244	0x3cd8388d	0.026394153
245	0xbda75ff3	-0.08172598
246	0x3df852a1	0.12125135
247	0xbdb1d55b	-0.086832725
248	0xbd622f67	-0.055220988
249	0x3dffd48d	0.12491713
250	0x3d1807bb	0.037116747
251	0x3c8e565a	0.01737516
252	0xbda93aad	-0.08263145
253	0x3dbd242c	0.09235415
254	0x3d5bdb2c	0.053675815
255	0x3d341d6b	0.043973368

critic.linear1.bias f4 [128]
0	0x3df44701	0.119276054
1	0xbd4589a1	-0.048226956
2	0x3caf4d35	0.02139912
3	0x3dff8ab2	0.12477626
4	0x3bca22d6	0.0061687035
5	0x3df0b8dc	0.11754009
6	0x3cd2944c	0.02570548
7	0xbd26eee1	-0.040755156
8	0x3cc5a2aa	0.024125416
9	0x3d84b08d	0.06478987
10	0xbdd56637	-0.104198866
11	0x3d4fc8e8	0.05072871
12	0xbdc1513c	-0.09439322
13	0xbd0dfe79	-0.034666512
14	0xbcea7120	-0.028618395
15	0xbc732bd5	-0.014841993
16	0x3cfa7cf0	0.030577153
17	0xbca345d7	-0.019930763
18	0x3d9e8260	0.07739711
19	0x3d4afd55	0.049558003
20	0x3c6d5955	0.01448663
21	0x3960710c	0.00021404418
22	0x3deaa30d	0.11456881
23	0x3d11e297	0.035616484
24	0x3dd748c8	0.10511929
25	0xbbbc399b	-0.005744172
26	0x3d962e1c	0.073330134
27	0x3d284970	0.04108566
28	0xbd919533	-0.071085356
29	0xbc43ef5e	-0.011958925
30	0xbd3be3ec	-0.04587166
31	0x3c4b4620	0.012406856
32	0x3d2da94f	0.042397793
33	0xbde43e63	-0.11144712
34	0x3d6ad6d5	0.057333786
35	0xbc4d519b	-0.012531663
36	0x3d7c7340	0.06163335
37	0x3d6e97d8	0.05825028
38	0x3dc415d4	0.09574476
39	0x3da06f03	0.07833674
40	0x3d72a51e	0.0592395
41	0x3d004c3a	0.031322695
42	0xbc81c8cd	-0.01584282
43	0x3d68cfe6	0.056838892
44	0x3dec6aaa	0.11543782
45	0x3e0095fa	0.12557212
46	0x3dd44ec4	0.10366586
47	0xbcd4ad08	-0.025961414
48	0xbca7fb74	-0.020505644
49	0x3de16781	0.1100607
50	0xbdbdebbf	-0.092734806
51	0x3ca60cdb	0.020269802
52	0x3d00e750	0.031470597
53	0xbcc33ed3	-0.023833668
54	0x3dcc338f	0.099707715
55	0x3da86fe3	0.08224466
56	0xbbdc71dd	-0.0067274407
57	0xbd41b72a	-0.04729382
58	0x3b9e34ce	0.004828072
59	0x3ddae4c8	0.10688168
60	0x3dc45e37	0.095882826
61	0x3c5f9537	0.013646415
62	0xbd82ec53	-0.063927315
63	0x3d90c59a	0.070689395
64	0x3cf0d9c9	0.029400723
65	0x3dd5e93d	0.10444877
66	0xbc11ceca	-0.0088994
67	0x3dfee448	0.12445885
68	0xbca1d840	-0.019756436
69	0x3caa6112	0.02079824
70	0x3e03b989	0.12863745
71	0xbdedc7ae	-0.116103515
72	0x3dc9b98d	0.09849844
73	0x3e107c42	0.141099
74	0x3d934226	0.07190351
75	0x3d4d8cd8	0.050183147
76	0x3dd825db	0.10554095
77	0xbc769110	-0.015049234
78	0xbde07fd4	-0.10961881
79	0xbdb89e6e	-0.09014593
80	0x3dff0441	0.12451983
81	0xbdeb9c26	-0.11504392
82	0xbd020d91	-0.03175122
83	0x3d0f8e02	0.03504754
84	0xbd098236	-0.033571444
85	0xbcd36e3b	-0.025809398
86	0xbc73857b	-0.014863367
87	0xbbbfcb19	-0.0058530685
88	0x3de7ba19	0.11314792
89	0xbd09e7bc	-0.033668265
90	0x3e1172b0	0.14203906
91	0xbdd7665d	-0.10517571
92	0xbd955ec0	-0.07293463
93	0x3dc1cd99	0.09463043
94	0xbddbe79a	-0.10737534
95	0xbc1f25b5	-0.00971358
96	0x3de4d438	0.1117329
97	0xbddf31e1	-0.108981855
98	0x3dccf504	0.100076705
99	0x3db5d86d	0.088791706
100	0xbbf783de	-0.0075535616
101	0x3d10dddf	0.035367843
102	0x3db8ff8e	0.09033118
103	0x3dea2157	0.1143214
104	0x3d0358dd	0.03206717
105	0xbd4a14f8	-0.049336404
106	0xbd82835a	-0.063727096
107	0xbcc354ea	-0.023844201
108	0x3de18373	0.110114
109	0x3dca55f3	0.09879675
110	0xbdafb904	-0.08580211
111	0xbbda4a7b	-0.006661711
112	0x3dd23b8e	0.102652654
113	0xbdce0caf	-0.10061013
114	0xbdd55c72	-0.10418023
115	0xbda8590d	-0.0822011
116	0xbb1ce226	-0.0023938506
117	0x3cdc9abb	0.02692925
118	0xbde82a2d	-0.113361694
119	0xbdb10f44	-0.0864549
120	0x3c9a53a1	0.018838705
121	0x3cd64f8b	0.026160976
122	0x3b1039b8	0.002200706
123	0x3c98a40c	0.018632911
124	0x3c0e605a	0.008689964
125	0xbc0db284	-0.0086485185
126	0x3bb03bc0	0.0053782165
127	0xbc983ce1	-0.018583717
