landing_starship_raw_ckpt/ckpt_00001001.pt (torch, 453495 bytes, 15 tensors)

actor.linear1.weight f4 [128, 120]
00000000: c808 f03b 5603 2d3c 7dc7 9fbd fccf a63c
00000010: 51fc 01bc c5c5 a9bd c4f5 afbd c695 0ebd
00000020: 2164 583d 92bb 7abd d369 993d bbcb 993d
00000030: f389 f3bc af6b 083d 7df8 543d 90b4 463d
00000040: 9f45 9e3b 61e3 c23c 569f 793d b781 803d
00000050: c53a 133c 5525 babd 565e c5b9 9406 1d3d
00000060: a32f de3c 93c6 67bc ffe7 d23b c5b9 973d
00000070: 15c6 213d 8b0d 0f3b b9a3 9fbd e5ea 61bd
00000080: f5e3 823d 813b 9fbd ce4b 20bc d352 793d
00000090: b8ac 673d 2121 af3c cf79 2e3d 361a 10bd
000000a0: 0116 143d 91c0 1e3d ebb0 2a3d ba82 64bc
000000b0: 7338 913d 38e1 a2bd 7ba4 24bd fa44 66bd
000000c0: 67ad 9bbd 948d 5dbd b184 63bd 6b82 95bd
000000d0: bf69 c13c fc40 813d 722c 88bd 8156 273d
000000e0: da28 73ba 2618 7d3d e060 883c 258d 97bd
000000f0: ea9b 99bd cff3 9b3c 8be3 acbb 665a 44bd
00000100: ea58 99bc 0ca0 86bd 2c65 25bc e670 87bd
00000110: f29d 963d 0393 033d d195 6e3d fa59 b3bd
00000120: 1e2c debc b827 9e3c 8a3c d23c 6f14 2d3d
00000130: 65b3 933d dfc2 85bd 6902 333d 9f5d b9bc
00000140: 7428 d73c f9a2 59bd 3f0f 46bd db0d b63d
00000150: 0cb9 af3d 1ddb b4bc 94b6 f7bb a70c ebbb
00000160: 1b78 9c3d f0af be3d a24d 733c a38b 653d
00000170: 7f4e 2c3c b8cb 9abc 6994 7fbd df23 1abd
00000180: 8ee2 d438 acd0 2239 e9bd 7fbd 77bc 33bd
00000190: a8e3 7f3d 275a 5f3d d0bc 82bc d05a b3bd
000001a0: 8cea 613d 9c47 2dbd 241b 833d fa36 8ebd
000001b0: 9783 033d 209f fb3c 0429 5d3d e162 37bd
000001c0: 8e50 a7bd e661 2bbd 3169 5dbd e991 433d
000001d0: 17f5 7e3d 8b2d 2bbc 860b 43bd b79e bdbd
000001e0: 665d 68bd 4507 463d ff5b 4d3d 831c 923c
000001f0: 4422 073b 06ff 73bd 15f2 d43c ef86 71bd
00000200: 99c4 58bd 06f6 943d ae41 c9bc a324 21bd
00000210: dc6d 85bd 1a33 b2bd 0fb2 8dbd e84c ecbc
00000220: a4dc 42bd 419d 7d3c c2e9 9ebd 4841 7fbd
00000230: 7a46 15bd c350 be3c 4628 443d 3bec b23d
00000240: 3e21 62bd e334 91bd 015e abbd f25f 14bd
00000250: 51b3 6d3d f2d0 3ebd 3510 aabd 9658 083d
00000260: 1389 9e3d 07bc a23d 2b85 4d3d c2c0 52bc
00000270: e481 a9bd 1ae8 823d 4514 4dbd ad04 493d
00000280: 9edf 5a3c b068 073d 2109 25bd a160 34bd
00000290: ba5d b4bd 3afd 043d 37bf 863c 5fb1 c83c
000002a0: 311b 973d 6635 833d 9ffc 48bc c4e8 59bd
000002b0: 9690 f23c 74b1 eaba 70d0 57bc 5811 f8bc
000002c0: cf6e 883d 3a0e 94bd ce85 e83b 1b7e ad3d
000002d0: 6e53 483c 1bbe b6bd e0e0 b93b 0166 febc
000002e0: 7e0b 073d a5d9 e43c 8211 26bd 71bb 9a3d
000002f0: ff8a a53d 6643 96bd 6d75 a1bd e79e 79bd
00000300: 50be 73bc 0154 983d 257a 5dbc c83b 803b
00000310: 51c1 d73c 5a7c 97bb 1072 91bd 8af4 af3d
00000320: 0e56 8a3d 17c6 17bd f499 5e3c 3f65 a5bd
00000330: 4871 7a3d 8910 48bd c585 64bb 6e22 51bc
00000340: f24f 9abd 7390 f0bb 9da9 babd 728e 66bd
00000350: 7254 60bd 9e83 91bd 9c91 69bc 1c37 a3bd
00000360: 62c9 483d a423 a2bd ead7 853d b63f 64bd
00000370: ad40 03bd 9d2f b63d ed94 f8bc 2df4 b4bd
00000380: c933 793d 45d8 ed3c f370 95bd 2b29 99bd
00000390: cd74 a9bd 0eed ad3c cc80 2abc 7ee5 9abd
000003a0: 1e51 f33c 466d 29bd ffe3 0c3d a1d6 023d
000003b0: 861c 4abc 92d1 9b3b 113d 6f3a 9060 0ebd
000003c0: 18e9 2bbd eaf7 b43d f9bb 1a3c ed1f 1b3c
000003d0: cd6b a43d 9fe9 dc3c 60ab 9abd f0b4 2abd
000003e0: c170 0dbc 5eb2 92bd 8f9b ecba cdfe 7cbd
000003f0: e4a3 423d 044d 71bd e1ce 043c d6ca 2dbd
0.0073252656 0.010559877 -0.07801721 0.020362847 -0.007933692 -0.08289675 -0.08591798 -0.034810804
0.052829865 -0.061214037 0.074908875 0.07509562 -0.029728865 0.03330582 0.05199479 0.04851204
0.004830077 0.023790063 0.06094297 0.06274741 0.00898618 -0.09089152 -0.00037645054 0.03833635
0.027122324 -0.014146465 0.0064363475 0.074084796 0.039495546 0.002182814 -0.077948995 -0.055155654
0.063911356 -0.07775021 -0.009783698 0.060870003 0.0565612 0.021378102 0.042596634 -0.035181247
0.036153797 0.038757864 0.04167263 -0.013947183 0.07090845 -0.07953113 -0.040195923 -0.056218125
-0.07601433 -0.054090098 -0.055546466 -0.07300266 0.023609994 0.06311223 -0.06649102 0.04085398
-0.0009275802 0.061790608 0.016647756 -0.07399968 -0.07500441 0.019037155 -0.0052761487 -0.047937773
-0.018719155 -0.06573495 -0.010094922 -0.066133305 0.073543444 0.032122623 0.058248345 -0.08757396
-0.027120646 0.019306049 0.025663633 0.042255815 0.07211951 -0.06531309 0.04370347 -0.02262765
0.026264407 -0.05313394 -0.048354384 0.088893615 0.08580217 -0.022077138 -0.007559607 -0.007173139
0.07640096 0.09310901 0.014850052 0.05604137 0.010516762 -0.018895969 -0.062397394 -0.037631866
0.00010151147 0.0001552726 -0.06243697 -0.043880906 0.06247297 0.054529335 -0.015959173 -0.087575555
0.055155322 -0.04230462 0.06401661 -0.0694408 0.032107916 0.030715525 0.053994194 -0.044772033
-0.081696615 -0.04184141 -0.054055396 0.047746573 0.062245455 -0.01044787 -0.04761841 -0.09258788
-0.056729697 0.048346777 0.050136562 0.017835861 0.002061979 -0.05956938 0.02599434 -0.058966573
-0.052921865 0.07273488 -0.024567451 -0.03934158 -0.06515095 -0.08701153 -0.069187276 -0.028845266
-0.0475737 0.015479387 -0.077594295 -0.062318116 -0.036444165 0.02323187 0.04788997 0.08736464
-0.055207483 -0.070901655 -0.08367539 -0.036224313 0.058032338 -0.046585985 -0.083038725 0.033287607
0.077409886 0.079460196 0.050175827 -0.01286334 -0.08276728 0.06391926 -0.05006816 0.049076725
0.013358979 0.033058822 -0.04029191 -0.044037465 -0.088069394 0.03246806 0.0164486 0.02449864
0.07378233 0.06406669 -0.012267261 -0.0532005 0.02960996 -0.0017905668 -0.013172254 -0.030281708
0.0666176 -0.07229276 0.007096029 0.08471318 0.012226922 -0.089229785 0.005672559 -0.031054499
0.032969944 0.027935812 -0.04054404 0.07555283 0.08083152 -0.07337074 -0.07883725 -0.060942557
-0.014876917 0.074378975 -0.013517891 0.0039133765 0.026337298 -0.004622978 -0.07101834 0.08591564
0.06754695 -0.037054148 0.01358651 -0.08075952 0.06114319 -0.048843894 -0.0034869772 -0.012764556
-0.075347796 -0.0073414384 -0.091143824 -0.05628819 -0.054768033 -0.07105182 -0.014255907 -0.07969496
0.04902018 -0.07916954 0.06535323 -0.055724822 -0.0320441 0.088958 -0.03034445 -0.08835635
0.0608404 0.02903379 -0.07296934 -0.07478555 -0.08274231 0.0212312 -0.010406684 -0.075633034
0.029701766 -0.041363977 0.03439712 0.031942967 -0.012335902 0.0047552073 0.0009126226 -0.034760058
-0.041970342 0.08836348 0.00944423 0.009468061 0.08028374 0.026966868 -0.075522184 -0.04167646
-0.00863284 -0.07162927 -0.0018051731 -0.061766434 0.04751958 -0.05891134 0.008105964 -0.042429768

actor.linear1.bias f4 [128]
00000000: f41c 8bbd 6c67 4b3d bbb3 b7bd 4e39 963d
00000010: a255 a4bd f46c b0bd f505 26bd 1fc6 183b
00000020: 6f79 61bd ed07 96bc b12e 133d 9649 af3c
00000030: f420 b13c 0ec3 fe3b c947 a4bd f352 16bd
00000040: 6fd3 0e3c 21d9 653d fbf0 be3b b47c 643b
00000050: 3805 7a3d dbc8 f9bc ae57 513d 65f0 adbd
00000060: 3e51 4b3d 67be f03c 5b54 a9bc 0828 283d
00000070: 1253 4abb baa7 81bd 7eb5 b4bd 6541 94bd
00000080: ef2b 6bbd 43a6 a13d 42da 813c e433 a1bd
00000090: 641f 83bd b2de a93d 9843 ab3b 5bff a93c
000000a0: b94c e9ba 86ad a7bd 6e72 bbbd 36f8 3ebb
000000b0: a5cc 63bd f917 9fbc a38d b13c 204d c5bc
000000c0: 7856 c83c f3e7 6fbd 9a0f 88bb e7f1 86bc
000000d0: 63a9 a53d 4053 bdbd cc6c b3bd 1822 a1bd
000000e0: 90ce 81bd 07d6 abbd 75c0 033d b88c 3c3b
000000f0: ec45 8fbd 85bf 1cbc 554a 6bbd 52a6 b6bd
00000100: fa05 5b3d af9b 433c 27e9 d3bc d9e9 ae3d
00000110: 7e6b 953c 7ef2 543d 7fba c5bc 31f4 a0bd
00000120: 4c71 b5bd fc2c 60bb 4c1e a1bd 6cec a2bb
00000130: a6e0 58bd 8ec5 86bd 365e 8cbd 53e7 aebd
00000140: fee7 a43d d111 7dbd 8bf3 923c dc16 e0bc
00000150: 8642 acbc df91 55bd 0e96 a6bd 7253 ae3d
00000160: f280 36bd 2f64 82bd 4da2 0d3d 4636 42bc
00000170: 7fb1 723d 14de e43c aa1c b0bd 8afb 8fbd
00000180: 36b5 393d ac2d cb3c f6aa 253d 0c5d b6bd
00000190: 3df7 afbd 9a91 c13a 9280 5c3d 1d43 7cbd
000001a0: 3e86 93bd 4400 6bbd 564e 683d a63f 0ebd
000001b0: 39c7 8ebd 0d0f 15bd 7b5b babd 99ed 10bd
000001c0: b8fc 7b3b 1c5e 56bd a5a4 26bd 89fa 823d
000001d0: 15ca 853c d2e5 9e3d 5ea4 9d3d 1d49 8bbd
000001e0: d97d b43d c0e7 02bd c30b 9abd 32b4 4e3d
000001f0: 4719 a9bc 619b ccbb 5134 8dbc 1dcd 2dbd
-0.06792632 0.049659178 -0.08969828 0.07335149 -0.08024146 -0.08614531 -0.040533025 0.0023311449
-0.05504745 -0.018314326 0.0359332 0.021397393 0.021622159 0.007774717 -0.080215044 -0.0367002
0.008717402 0.056115273 0.005827067 0.0034864368 0.061040133 -0.030491283 0.05110901 -0.08493117
0.049638025 0.029387666 -0.020670107 0.0410538 -0.0030872268 -0.063308194 -0.088236794 -0.072390355
-0.057414945 0.0789304 0.015851144 -0.078712255 -0.06402472 0.08294429 0.0052265637 0.020751646
-0.0017799354 -0.08187394 -0.09152685 -0.0029139644 -0.055615086 -0.01942061 0.021673983 -0.024084628
0.024455294 -0.058570813 -0.0041522505 -0.01647277 0.080889486 -0.09244394 -0.08760986 -0.07867831
-0.06338227 -0.08390432 0.032165963 0.0028770398 -0.069957584 -0.009567146 -0.057443935 -0.08918442
0.053472497 0.011938973 -0.025868012 0.08540697 0.018239733 0.05198907 -0.02413678 -0.07859076
-0.088595 -0.00342065 -0.07867107 -0.0049720313 -0.052948616 -0.06580649 -0.06853907 -0.08540215
0.080520615 -0.06178457 0.017938396 -0.02735465 -0.021027815 -0.052141067 -0.081340894 0.0851201
-0.044556566 -0.06366765 0.03457861 -0.01185376 0.059251305 0.027937926 -0.08599217 -0.07030399
0.04533883 0.024802051 0.040446244 -0.08904466 -0.08592079 0.0014768124 0.05383355 -0.06158744
-0.07203339 -0.0573733 0.056715332 -0.03472867 -0.069715925 -0.036391307 -0.0909948 -0.03538284
0.0038450193 -0.052335843 -0.04068436 0.06395442 0.016331712 0.077586785 0.07697366 -0.068010546
0.08813066 -0.031959295 -0.075217746 0.050464816 -0.020641936 -0.0062441085 -0.01723686 -0.04243194

actor.linear2.weight f4 [128, 128]
00000000: d721 adbd 82a0 e4bc b039 9dbd a1f4 5dbc
00000010: a4b4 45bd a606 2c3d 97cf debc 7302 a03d
00000020: 304f 34bd df54 8e3c 7af0 c7bc 3bd8 2bbd
00000030: 6f9f 0fbc 5482 883d 1b22 a8bd 308d 083d
00000040: 7fe1 9dbd 0539 b43d 6706 6f3d 8cec 93bc
00000050: 2de8 12bd 827c 5dbc 25a1 a0bc 37ca 19bd
00000060: b146 70bd aa1d 4dba d237 b03b e820 fe3c
00000070: 5e9d 523d 4bc4 38bc 1e35 86bd d2a0 c93b
00000080: c920 96bd 6cc3 be3c 705c 8d3d b41a 173d
00000090: 2b7d fe3c 909d 293c 9e4e 9d3d e30c 77bd
000000a0: aba3 90bc e5f1 9a3d b031 4e3d 6ccc 64bd
000000b0: c6ac 353d 2176 bdbc 7596 7b3d 5de7 a33c
000000c0: 7d04 4bbd 8ec9 03bc 4b4a 153d 8397 5dbd
000000d0: 0893 93bd f62a 81bc 4d79 91bd 62d3 e43b
000000e0: 262a a73d 478f 33bc 522c a43d 09f6 2e3c
000000f0: 1489 993d 8e24 b3bd 588d 4a3c dd8e a0ba
00000100: 1267 bdbc 174c 4b3d 5c97 5dbc 9db6 94bc
00000110: 2816 ad3c 426b 873d 3b6c 123c 3436 9bbc
00000120: f483 ba3b 5239 a83d 12ad 8dbd 4b36 08bd
00000130: 36eb 393c a43d 92bc 3112 c8bc 4484 123d
00000140: 9bec d93a a4cb 853d 768a 253c b7b2 4c3d
00000150: 906e f1bc 9c62 40bd 62a1 8fbd 41e5 1cbd
00000160: 2ad7 f6bc 1cde 433d fd98 0c3d 7519 b23c
00000170: 3d3f 82bc bc50 79bd 47e2 abbc a159 453b
00000180: 2cfd 483d 3aa3 79bd 0973 493d 9f3f 583c
00000190: 8abe 143d 48c2 a7bd e019 aebd 8080 54bd
000001a0: bab6 153d 4199 31bd 0290 a43d d119 87bd
000001b0: eaa8 42bb 019c 07bd cda5 1dbd ce2f b8bc
000001c0: 4a9d 08bd f654 913d 4a82 133d 6207 82bd
000001d0: f776 813c fea8 403c 138f 88bd 05f7 6dbd
000001e0: 3019 d83c 0ee8 543d c5aa 703d 0e89 a23c
000001f0: ce68 08bc f028 063c 88b2 91bd dc62 a03c
00000200: 96fc 963c a6da ae3d d580 9e3d 3a8e a43d
00000210: 2143 6f3c 6027 123d 10c4 2dbd 5ef5 043c
00000220: cff2 673d d858 79bd d9a5 783d 6ffb 1cbc
00000230: 296c 82bd 94ab 10bd a69f 96bd 0247 0a3d
00000240: 1916 2eba 0de4 393c f712 1f3d f1bc 753c
00000250: 8908 ad3c c052 24bd 4278 a7bd a7b6 923d
00000260: 33d3 853d a438 e23b d474 ee3c 255c 6cbd
00000270: 1a9b 8b3d 60d2 72bd f4b7 67bd cd82 dcbb
00000280: 97df fabc 7d2c a6bd 4dee 8c3d 32e4 0e3d
00000290: 5568 a8bc 3a40 33bc 3215 9b3d c2c1 b2bc
000002a0: 4c62 d13c ea12 af3d 5d81 6bbd 27f4 8b3d
000002b0: df1c 9f3d 52cb 883d 9ee6 45bc 370b ae3d
000002c0: 56e6 bebc 0723 7dbd 4849 b9bc 0f82 aabd
000002d0: 67ef 893c 1f1a 5dbd 6004 58bd e59b 46bc
000002e0: e481 a3bc 223a b9bc 933f cf3c 566e 60bc
000002f0: 6b08 4b3d a220 1bbd 3cfa cbba 0ea3 30bd
00000300: 1bc3 0bbd 3946 aabd be9d 7a3d 0944 4e3d
00000310: 2847 8ebd c4aa 5d3c de81 933d 11f4 99bb
00000320: d67e 813d 190b 80bc 36a1 abbc 4883 bcbb
00000330: fdd9 d53c d78d abbd d2e8 4ebd e3c6 2dbd
00000340: e30f 173d fb38 a93d eb51 303d fac7 b43c
00000350: 491a 003c 1f77 12bc 3c54 4ebd fff9 f93c
00000360: 97bb 5ebb 069e 78bc 1d07 b63b 5976 3abd
00000370: bed2 423b ab26 873d 6aa2 703d d656 82bd
00000380: d759 30bd 27ff 28bd 2bc1 8f3d decc 9b3c
00000390: c6de 5e3d 7a44 9d3d 64c9 8abd 8a5b 8ebd
000003a0: 7c82 73bd f901 9bbd d16e 1e3d 2d87 263d
000003b0: f0bf a8bc 6f3c 89bd ea0d 9f3c e8d0 4cbd
000003c0: d171 423c 82f6 8d3c 7386 8a3d 7751 97bd
000003d0: 5936 8f3d 32e9 c7bc a3be bc3a 4321 1dbd
000003e0: bad6 313d 969c 71bd bd24 74bd ee21 8abd
000003f0: cffb 13bd f012 a1bc 9cc7 74bd eac7 ad3d
-0.0845372 -0.027908567 -0.07677019 -0.013547094 -0.048267975 0.041998528 -0.027198596 0.07812967
-0.04402083 0.017374454 -0.02440666 -0.04195426 -0.008766039 0.06665483 -0.0820963 0.033337772
-0.077090256 0.08799938 0.058355715 -0.01805713 -0.03586595 -0.0135184545 -0.01960809 -0.037546363
-0.058661167 -0.00078245497 0.005377748 0.03102155 0.05141961 -0.011277269 -0.065531 0.0061532045
-0.07330472 0.023286544 0.06902397 0.0368907 0.031065544 0.010352507 0.07681011 -0.060315024
-0.017656168 0.07565669 0.050340354 -0.055859014 0.044354223 -0.023127617 0.061422784 0.020007784
-0.049564827 -0.00804366 0.036447804 -0.05409957 -0.07205778 -0.015767556 -0.071032144 0.0069832066
0.08162336 -0.010959453 0.08016266 0.010678777 0.07496849 -0.08747207 0.012362801 -0.0012249608
-0.023120437 0.04963311 -0.013524856 -0.018153483 0.021128729 0.06612255 0.008936937 -0.018946745
0.0056919996 0.08214058 -0.06917776 -0.033254903 0.011347583 -0.017851658 -0.024422737 0.03577067
0.00166263 0.06532982 0.010103812 0.049975123 -0.029471666 -0.04696904 -0.07013203 -0.03830457
-0.030131895 0.047819242 0.03432559 0.021740654 -0.015899295 -0.06086801 -0.02098192 0.0030113237
0.04906957 -0.06094668 0.04918197 0.013198762 0.036314525 -0.08191353 -0.08501029 -0.05188036
0.036551215 -0.043359045 0.0803528 -0.06596721 -0.0029702731 -0.03310776 -0.038488198 -0.022483733
-0.033353128 0.07096283 0.036012925 -0.063490644 0.015803797 0.011759041 -0.06667914 -0.058096904
0.026379198 0.051979117 0.05875661 0.019840743 -0.008325769 0.008188471 -0.0711413 0.01957839
0.01843099 0.08537798 0.077394165 0.0803494 0.014603407 0.035682082 -0.042423308 0.008115141
0.056628045 -0.060875744 0.06070504 -0.009581431 -0.06368286 -0.03531988 -0.07354669 0.033759125
-0.0006640866 0.011345875 0.038836446 0.01499866 0.021122234 -0.04011798 -0.08177234 0.071637444
0.06534424 0.0069037247 0.029108442 -0.057705063 0.06816693 -0.05928266 -0.056571916 -0.00672946
-0.030624194 -0.08113954 0.0688139 0.034885593 -0.020557562 -0.010940606 0.07572402 -0.021820907
0.025559567 0.085485294 -0.057496417 0.06833678 0.077691786 0.06679405 -0.012078909 0.08498233
-0.023303192 -0.061800983 -0.022617951 -0.08325588 0.016837789 -0.05397999 -0.052738547 -0.012122129
-0.019959398 -0.022610728 0.02529887 -0.013698181 0.049568575 -0.037872918 -0.0015562247 -0.04312425
-0.034121614 -0.08314175 0.06118559 0.050357852 -0.06947166 0.013529483 0.072025046 -0.0046982844
0.0632302 -0.015630292 -0.020950895 -0.0057529546 0.026104921 -0.08376663 -0.050515004 -0.042426
0.036880385 0.08262821 0.043046873 0.022068013 0.007818767 -0.0089395335 -0.0503733 0.030514715
-0.0033986324 -0.0151743945 0.005555047 -0.04552302 0.0029727663 0.06599172 0.05874864 -0.06364219
-0.043054428 -0.041258957 0.07019266 0.019018587 0.054411672 0.076790765 -0.067766935 -0.069510534
-0.05945061 -0.07568736 0.0386799 0.040656257 -0.020599335 -0.0670098 0.019415814 -0.050003916
0.011867956 0.017329458 0.067639254 -0.07388585 0.06992788 -0.024403188 0.0014400076 -0.0383618
0.04341767 -0.058987223 -0.05960535 -0.06744753 -0.036128815 -0.01966235 -0.059760675 0.08485396

actor.linear2.bias f4 [128]
00000000: a548 2ebd df0d 8e3d 67f4 793d 622b ebbc
00000010: b4f1 703c eece 823d 6e78 8b3d 3992 6d3d
00000020: 132a 193d 95cd 85bd cea8 92bd 9467 2f3d
00000030: 27db 9b3d 29dc b13a b881 c8bc 4e99 403d
00000040: cd0f 20bb c944 333d b28a 49bd 7567 1c3d
00000050: 24ad 2e3d 844a 883d e976 adbd d149 84bd
00000060: 27e8 8f3c 4157 7d3d d877 303d f4a7 b8bc
00000070: c541 7f3c 508e 343d f7c5 d2bc a11a 423d
00000080: a57e bfbb 815f 9a3d a55a a33d f690 8a3d
00000090: 0a1e b3bb fb05 833d 7639 07bd 6d50 763d
000000a0: f4f6 a03d 64e2 993d 8f32 5bbc 75d5 263a
000000b0: db81 b4bd 8a1a 6f3d a5ef 293c bfea 533d
000000c0: 6e8e 343d 3f4b 013d 221c 273c 03a1 57bd
000000d0: a92e 99bd 0f0a 4dbd 9baa 8abc 4a25 a4bd
000000e0: 6380 4cbc 6a98 98bd 4bf9 77bd e434 d2bc
000000f0: 197d 64bc 5bf3 3f3d 0be8 2e3d 30b0 863b
00000100: ad57 43bb c63d 33bd 1b59 9abb 9468 523d
00000110: 3d04 b2bd 224b 3d3d 9052 aa3d cc9f 933d
00000120: 777e ce3c 11ca 153d 260e bebc 19fc 4f3c
00000130: c3ff 433d aec1 a13d 2a8d 30bd e1e5 8b3d
00000140: 30a7 873c 72e2 95bc e425 adbd 42d8 603c
00000150: 4b58 2fbd 9948 90bd c135 9ebd edaf a83d
00000160: 6aa5 a03d e9f4 aebd 8bfb 51bd 80f7 47bd
00000170: 4295 9abd 6743 10bd d65c 0bbd 8e4d a33d
00000180: 4051 1cbd d1c3 a3bc ae00 e6bc dba7 883d
00000190: f720 70bc 34bf a03d c0ad c93b c1f1 823d
000001a0: 60b0 3dba 1f73 6ebd ea10 7bbd e846 503d
000001b0: dd08 703d aa76 41bd 7faf c2bc 0b5c 633c
000001c0: 9b21 b23d 2f16 e03c fe24 903d 2e96 6f3d
000001d0: a10d d5bc ca37 80bc d81d ddbb 1e16 ba3a
000001e0: 6480 163d 4c7d 99bc 5c83 f9bc db16 343d
000001f0: 33ac eabb ca0e 5fbd 58a9 733d 54f2 62bd
-0.042549748 0.069362395 0.061024096 -0.02870721 0.014706064 0.06387125 0.068100795 0.058000777
0.03739364 -0.06533352 -0.07161103 0.04282339 0.07610159 0.0013569641 -0.024475917 0.047021203
-0.002442348 0.04376677 -0.049204536 0.0381846 0.04264559 0.06654838 -0.08469946 -0.06459392
0.017566754 0.06185079 0.043083042 -0.022541024 0.0155796455 0.044081032 -0.025729163 0.047388677
-0.0058439546 0.07537747 0.079762734 0.0676593 -0.0054662274 0.06397625 -0.033013783 0.060135294
0.078596026 0.07513884 -0.013378753 0.0006364205 -0.088138305 0.05837492 0.010372077 0.051737543
0.044081144 0.0315659 0.0101995785 -0.052643787 -0.07479603 -0.05005842 -0.016927054 -0.08014925
-0.012481782 -0.07450946 -0.06054048 -0.025659986 -0.013945841 0.04686294 0.042701762 0.0041103587
-0.0029806898 -0.043760084 -0.004710329 0.051369265 -0.08692215 0.04621423 0.08316529 0.07208213
0.025206788 0.03656966 -0.023200106 0.012694382 0.047851335 0.078982696 -0.043103375 0.06830955
0.016559213 -0.018296454 -0.08454493 0.013723435 -0.042808812 -0.07045097 -0.077250965 0.0823668
0.0784405 -0.08542807 -0.05126528 -0.04882002 -0.07548 -0.03522053 -0.034024082 0.07973777
-0.038163424 -0.019990833 -0.028076496 0.06672641 -0.014656297 0.07848969 0.006154746 0.06393767
-0.000723606 -0.058215257 -0.061295427 0.05084887 0.058602203 -0.047232307 -0.023765324 0.013876925
0.08697816 0.027354328 0.07038306 0.058492832 -0.026007475 -0.015651602 -0.0067479424 0.0014197265
0.036743537 -0.018736504 -0.030458145 0.04396711 -0.007161641 -0.054457463 0.05948767 -0.055406883

actor.linear3.weight f4 [128, 128]
00000000: 5f31 5a3d e196 a23c c5d0 893d 5606 0d3d
00000010: f85b 893c 3207 45bd 44f1 1cbc fd97 27bd
00000020: 87a8 af3d ca6c 17bd 6ecf 52bd f050 46bd
00000030: 1042 e23c 684d a93d 6c34 293d a249 713d
00000040: 0862 453d 5e4a 8b3d c436 253d 74ff 973d
00000050: b8d7 903c 3933 a2bd 2a06 2a3d 369f a73c
00000060: b016 e53c fa70 ff3b 6cad f83c b0e3 e8bc
00000070: a0a1 4fbd ef08 4cbd 6165 f4bc 5d66 14bc
00000080: 5dcb 973d 0fdd a23d b77a e03c ee42 b03d
00000090: f0a6 ae3d 6f4d 9f3c c595 55bd 9bc6 65bd
000000a0: ab55 90bd 432b afbd f73a 3e3c 2c6a 9c3d
000000b0: 4de5 753d d94c f2bc a00b 433d 78bf 7cbc
000000c0: 02ad 2bbd 2f3e 613d 19c8 623d 5740 2f3d
000000d0: f1ba a93d 11e6 2abc 2360 77bb d76d c7bc
000000e0: db31 94bd 7ccd cebc cd7d 65bd 5396 4ebd
000000f0: 7229 7fbd 43f7 ab3d 9c62 3d3d a2c6 403d
00000100: dccb 4a3d cdf8 26bd b1bb 5c3d 55f8 8cbb
00000110: ab7d 64bb 4976 853d 9f07 91bd 0f26 a63d
00000120: 233d 053d 7dde 8d3d e35d 9b3d 6dbd 61bd
00000130: fa31 3e3d 7565 62bd e317 b1bd b69c 44bd
00000140: 76ec 033d e58e 81bb 28f6 b53d df63 d9bc
00000150: 914b aebc 7ca2 aa3d 455a 80bc 480c 07bc
00000160: 3de2 22bd 7947 44bd 59ad 35bd f738 ab3b
00000170: d3dd 10bc 7656 90bd e5bd c73c 5945 2d3d
00000180: 4d09 e2bc a2e7 46bd 5a92 ec3c 6c77 fc3c
00000190: 7efd 1b3d d80e af3b 209d 90bd 12c1 44bd
000001a0: 23d9 723d 5d6c 51bd ba52 7ebd 039a c5bc
000001b0: fcb0 2cbd 7250 90bc e05e 65bc 70f6 30bd
000001c0: 3ca7 c7bc 3ec8 a13d fdff 323d 2c5f a53d
000001d0: 192c 853d 832d 2d3d 12a3 4ebd 20df 063d
000001e0: 214c 9a3d 670e 1cbd 1334 3a3d 1c4d 853d
000001f0: 54b5 97bd 5e9b a7bd 8b44 373c e1c7 8dbd
00000200: a681 81bd 9d51 1d3d 45cb aebd f111 053a
00000210: 7058 b3bd 1a38 91bd 356a c6bc 2711 85bd
00000220: e544 0e3c f966 91bd 18e7 873d 1434 b2bd
00000230: 37ca 853c ff0f 4abd c8b1 19bd 90cc 323d
00000240: 96b6 12bb 0649 8bbd ef45 203d fcff f0bc
00000250: a507 863d b946 5cbd df16 9d3d 4e9a 073d
00000260: 1c92 a6bc 1e97 963c e289 123d d26c 153c
00000270: 7130 993d 10eb a5bd c31a 2c3c 965e ebbc
00000280: 5612 9f3d af72 863b 1b03 8fbd bae8 5d3d
00000290: b17d 45bd f108 223c 8713 ad3b 5d2c 5cb9
000002a0: 3f1c 40bd 327e 1fbc 00ed a23c 2f9e 913d
000002b0: 7f42 8abc b622 5e3c 7829 013d cb7e faba
000002c0: aaa5 b0bd dd38 b0bd 3b5a a53d 7c21 ff3b
000002d0: 9cac 2fbb 499b 213d 07f5 a43d bc50 8cbb
000002e0: 18f2 933d 6f6a 2fbb 83ca 89bd cd21 443d
000002f0: eea6 963d a5b5 a1bd 14e1 333d afae aa3d
00000300: 13b3 073d 2c79 8ebd 1893 143d e23d 8c3c
00000310: 224a 21bd 8494 78bd 6a82 88bd 285d 82bd
00000320: 2a30 2c3c 20a8 973d 3006 a73d 8fb0 b23d
00000330: b478 a8bd f9a1 903c 8c37 9abd da5c b5bb
00000340: f5ea 8c3d 4233 b2bd 98a8 d23c 6bef c53c
00000350: 0219 7dbd 3cac 4ebd 44a2 ea3c f0e8 0d3c
00000360: 344e 43bd 5282 653d b2c2 7cbb 34bb 073d
00000370: 89e4 9cbd 7073 353c fe53 02bc 11b8 1bbc
00000380: 1e1d ae3d ff30 f83c 6309 94bd 39b0 893d
00000390: c0d0 833d c18a 53bd c252 b1bc a9ca ebbc
000003a0: d806 583c 5055 4cbd f145 a33d a4a6 b23d
000003b0: 76ff 57bd 960c 073d 5713 97bd b91b 2d3d
000003c0: 7bb1 d73c 632c 9cbc c6a1 0bbc 104e 91bc
000003d0: f1fe 823d c7c2 b0bd 084f 99bd 7311 023a
000003e0: 86e3 573d bf7d acbd 2d48 86bd 6bee 2f3c
000003f0: 1973 a23c b30f cc3c 7d82 d63c 0995 08bc
0.05326974 0.019847335 0.06729273 0.03442987 0.016767487 -0.048102565 -0.009579007 -0.04091643
0.08577066 -0.036968984 -0.05146735 -0.04841703 0.027619392 0.08266717 0.04130976 0.058908112
0.048189193 0.06801294 0.04033543 0.07421771 0.017680988 -0.07919926 0.041509785 0.02046166
0.02796492 0.0077954503 0.030356131 -0.028428882 -0.050691247 -0.049813207 -0.029833497 -0.009057608
0.07411835 0.0795232 0.027402265 0.08606516 0.085279346 0.019446103 -0.052144784 -0.056097608
-0.0704759 -0.085531734 0.011610738 0.07637438 0.06003313 -0.02957766 0.04761851 -0.015426509
-0.04191304 0.054990944 0.05536661 0.04278597 0.08287609 -0.010430829 -0.003774651 -0.024344368
-0.07236072 -0.025244467 -0.056028176 -0.05043633 -0.062295385 0.08396771 0.04623662 0.04706443
0.04951082 -0.04076462 0.053889934 -0.0043020644 -0.0034864943 0.06516702 -0.07081532 0.08112728
0.032529008 0.06927202 0.07586267 -0.05511229 0.04643438 -0.05527254 -0.08647134 -0.048001014
0.03220793 -0.003953802 0.08884841 -0.02653688 -0.021276267 0.08331773 -0.015668044 -0.008242674
-0.03976654 -0.047919724 -0.04435477 0.0052252966 -0.0088419495 -0.07047741 0.024382541 0.042302463
-0.027592326 -0.048560746 0.02887838 0.030818664 0.038083546 0.0053423457 -0.07061219 -0.04803569
0.05928911 -0.051128734 -0.062090613 -0.02412129 -0.042160973 -0.017616484 -0.013999671 -0.04320377
-0.024371736 0.07899521 0.04370116 0.08074793 0.065025516 0.04227973 -0.050448485 0.032927632
0.07534052 -0.038099673 0.045459818 0.06508848 -0.074076325 -0.08183931 0.0111857755 -0.069228895
-0.063235566 0.03840791 -0.08534864 0.0005076221 -0.087571025 -0.07090779 -0.024220565 -0.06497412
0.008683418 -0.070997186 0.066358745 -0.08701339 0.016331775 -0.04933166 -0.03752306 0.043652117
-0.0022386662 -0.068010375 0.039129194 -0.029418938 0.06544427 -0.053778384 0.07670378 0.03310614
-0.020333342 0.018382605 0.035776027 0.009120183 0.074799426 -0.08101475 0.010504427 -0.028731626
0.07767169 0.004103027 -0.06983014 0.054177023 -0.04821557 0.009889827 0.005281869 -0.00020997362
-0.046901938 -0.009734677 0.019888401 0.07110249 -0.016877411 0.01355808 0.03153369 -0.0019111274
-0.08625348 -0.08604596 0.08073851 0.007785974 -0.0026805764 0.039454732 0.08054548 -0.004282085
0.0722391 -0.002676632 -0.06728079 0.047883797 0.07356058 -0.07895974 0.043915823 0.083340995
0.033129763 -0.069567055 0.036273092 0.017119352 -0.03937734 -0.06068851 -0.066654995 -0.063654244
0.01050953 0.07405114 0.08155477 0.08725082 -0.08226147 0.01765536 -0.07530126 -0.0055347504
0.06880752 -0.08701183 0.025715157 0.024162015 -0.061791427 -0.050457224 0.028641827 0.008661494
-0.047682002 0.056032486 -0.0038568196 0.033137515 -0.07660777 0.011074886 -0.007954596 -0.009504334
0.085016474 0.0302968 -0.07228353 0.06723065 0.064363 -0.051645998 -0.021645907 -0.02878316
0.013185225 -0.049886048 0.07972325 0.087231904 -0.05273386 0.032970987 -0.07376736 0.042262767
0.026329746 -0.019064134 -0.0085224565 -0.017737418 0.063962825 -0.08630901 -0.07485777 0.00049617066
0.052707218 -0.08422422 -0.06556735 0.010737996 0.019830273 0.02490983 0.026185269 -0.008336314

actor.linear3.bias f4 [128]
00000000: ac2a 2e3d a7c4 843d 4ba2 af3d 4623 7fbd
00000010: defd 99bd 14a1 9abd f9dd ef3c 5dc0 7d3c
00000020: 7eea 893d bc8c 1e3d 05b4 a93c 8964 16bd
00000030: 0979 6e3c ac59 4a3b 58ef 5b3d 4471 27bd
00000040: 23c3 90bd 198c 893d 3e0f 98bd d8e4 ad3d
00000050: 490f 703d 51a6 d23c 5386 ac3b ea32 203d
00000060: 63cc 223c 410c b53c 9442 2ebd 36fc 833d
00000070: 27bf 143d 06ce 91bc 5191 d3bc 49f9 3cbd
00000080: 7b43 0abd 86a9 1abd a38a 0d3d ef65 97bc
00000090: c9e6 723d 756c 523d 578a 813d 99bc 8d3d
000000a0: 6ed9 253d 6be8 ab3c dcb9 593d 883f a43d
000000b0: 9038 543d f6e6 15bd 38c5 1abd 8324 24bc
000000c0: ad28 81bc 543d 42bc 7cc7 303d bd97 0c3b
000000d0: 91d8 823c ae64 973d d65c 93bc e69e a03d
000000e0: a165 25bd b273 86bd 78f0 80bd fc40 8a3d
000000f0: f926 943c 28fe 8e3d 3b19 6a3c 8214 2ebd
00000100: 1b68 943d 9925 8f3d 7994 853d 09ac a93d
00000110: 8c4a e5bc fc03 2bbb ddc9 603c 8a72 8b3d
00000120: 5a59 d33c 2f69 fdbc a888 3d3c e88d ad3d
00000130: 81a5 0bbd 02ca 9fbd 4b7f 77bc fcac b13c
00000140: 7379 8f3d 00fa d7bc af80 3abd 0976 9bbd
00000150: e163 4cbd 4f94 47bd 4f8a a23d ad06 103b
00000160: 6150 84bd 2fc7 923d c8a3 753d 4b1b 5ebd
00000170: e439 8f3d 0e47 543d 03ae 673d d558 a13d
00000180: 0cc0 63bd 0296 17bd b3bd 09bd 34c2 bdbc
00000190: 1df1 503d aa59 7bbc 639e b03d d815 c63b
000001a0: d799 963d 3d8e 4abd 7ce9 8ebd 4d25 9cbc
000001b0: f778 7fbc b16d 843d f24e 5cbd dad9 eebc
000001c0: eee6 6e3b 5c4a 653c 4efd b7bd 0cfc 94bd
000001d0: fb9c dd3c 5380 3dbd 736f 81bd 2136 c1bc
000001e0: 7300 153d 0c76 5bbd 8dbb 1ebd b77e b23d
000001f0: 1d02 8f3d ea33 4ebd e452 093d 9753 a03b
0.042521164 0.06482821 0.08575877 -0.0622895 -0.075191244 -0.075502545 0.02928065 0.0154877575
0.06734179 0.038708434 0.020715723 -0.03671697 0.014555224 0.0030876203 0.053695053 -0.040879503
-0.070684694 0.06716175 -0.07424782 0.08490914 0.058608327 0.025714071 0.005265036 0.039111055
0.009936425 0.02210057 -0.042543963 0.0644459 0.03631511 -0.017798435 -0.025826128 -0.046136174
-0.03375576 -0.037759326 0.034556042 -0.018481223 0.059302125 0.051372964 0.06325214 0.06920738
0.04049056 0.020984849 0.053155765 0.0801993 0.051811755 -0.036597215 -0.03778574 -0.010018471
-0.015766466 -0.011855442 0.043158993 0.0021452748 0.015972408 0.0739225 -0.017988604 0.078428075
-0.040380124 -0.06565036 -0.06295866 0.06750676 0.01808499 0.0698207 0.014288242 -0.042500027
0.07246419 0.06989593 0.065224595 0.08284766 -0.027989648 -0.0026094904 0.013720003 0.06808956
0.025799442 -0.030933945 0.011568226 0.08474332 -0.034093384 -0.07802202 -0.015106033 0.02168893
0.070055865 -0.026364326 -0.04553288 -0.07590873 -0.04989994 -0.048725422 0.079365365 0.0021976635
-0.064606436 0.071668975 0.059970647 -0.054225247 0.06993464 0.051825576 0.056562435 0.078782715
-0.055603072 -0.037008293 -0.033628177 -0.023163892 0.051011194 -0.015341202 0.0862396 0.0060450844
0.07353561 -0.049452055 -0.06978127 -0.019060755 -0.015592805 0.064662345 -0.053786226 -0.029156614
0.0036453563 0.013994779 -0.08983861 -0.072746366 0.027052393 -0.046264958 -0.063200854 -0.023585381
0.03637738 -0.053579375 -0.03875308 0.08715575 0.06982825 -0.050342478 0.033526316 0.004892777

actor.linear4.weight f4 [9, 128]
00000000: 8b63 68bd 1ab8 9f3d 0cc6 6b3d b91b d93c
00000010: 57de 873d 0fb2 33bd f76b acbd 0449 80bd
00000020: d8aa 8fbd 7dc2 a3bd cbb0 843d 6dcf 413c
00000030: 2a0e 303d 3cb7 83bd f2db 7dbd 2d00 313d
00000040: d618 35bd 2bff 513d 66a7 a53d 2b3c 7d3d
00000050: 8fad 8cbd 2787 36bc 6d10 adbd aa2a 9d3d
00000060: 977f a8bd 688f 503d c8b2 733d e52b 83bd
00000070: 02f0 76bd f6be 283d e745 a83d 8db8 8dbc
00000080: ee43 443d d7d2 453d 24fd 813d 2884 41bd
00000090: 6706 3a3d d71b 74bb 387f 9ebd ad3e 343d
000000a0: 45e4 8abc df0b f6bc 510b a43d 872a 283d
000000b0: c863 b13d 30dd 5dbd e880 b5bc 2285 743d
000000c0: e36a 593d 42c8 a03d a9fc 05bd fe7c ecbc
000000d0: db65 f03c c41e c73c ba74 b1bb b877 563d
000000e0: ec05 40bd ce0b 0bbd 56fc 223d 55a0 8638
000000f0: 64ed 0ebd 2eaf 5d3d d3b6 ebbc 562a 0bbc
00000100: ece4 b1bd 2744 3abd 463a 293b be56 fb3c
00000110: 2713 0bbc debd ac3d c621 8e3c 63c8 c03b
00000120: bb87 1f3d f6c2 20bd 1d3f 4fbd 73b0 913d
00000130: bbbe 7dbc 0131 8d3d 823a 84bc 1c07 ecbb
00000140: e7d5 903d f9cf 82bd 0425 6f3d 2e5a 833d
00000150: 9a72 133d 1dce ae3d 9796 65bc 012e 953d
00000160: 80f5 af3c 9402 aebd 095e 8b3d 4f96 a2bc
00000170: 68fd 99bd fcef 8fbd 0491 8fba 46c6 76bd
00000180: b8fb 823c af2d 0cbd 8cc0 48bd 2ea7 a93d
00000190: 39b4 36bd 67f0 2ebd 2e26 793b 67d4 bf3a
000001a0: 025e 1ebc 7df2 2e3a 5f68 4e3d 4f9d f7bc
000001b0: 0eec bbbb 4ea5 97bd caec 83bd e054 713d
000001c0: 6a34 ceba 372e 263c 1582 113d ac94 b2bd
000001d0: 6b2a b3bd b437 983d d28a 32bb 36c5 a6bc
000001e0: c774 893c 42dc ad3b 6b3c 723c c4ee 90bd
000001f0: 70c0 a03d 0b3d 5c3d a506 a13d c347 f9bc
00000200: 16a4 51bd 8f43 013d 8f54 6c3c 1e73 8d3c
00000210: 2b5a 423d 9eb0 8abd 64d8 f43c 9c73 b63c
00000220: 81f3 8d3d 02f7 913d 7bfd 753d bee0 673d
00000230: ec97 4abd 3cb3 70bd e635 7fbd 9c16 8fbd
00000240: afc9 2dbd 919c 7a3d 4148 cdbc 9b80 663d
00000250: 2796 e2bc 231f 42bd 6ed0 a7bb 525c 583d
00000260: df40 26bd 1a7d af3d 78cf 8abd aa23 923d
00000270: 4040 673d 78bd 32bd 6caa c33b 9746 79bd
00000280: 2db4 46bc 331e a2bd a0a4 81bd 3ddd 893d
00000290: e528 963c 5b8c 753c 800a 8e3d d660 643d
000002a0: 10ba 5c3d 188c 643c bb7c 8abd 077d 9d3c
000002b0: 604e 963d 0a88 45bd 65ee a7bd 1a8d 71bd
000002c0: 516f 59bd c76c adbd bd36 373d 9008 0fbd
000002d0: 6755 713d abb8 60bd c464 823d 20dc 883d
000002e0: 4b64 983b 92d6 a2bd c690 31bd 9c07 2bbb
000002f0: 58f6 fa3c 9885 1bbd c9a3 173c 6715 79bb
00000300: f2d1 a83d 89a0 4abd 5e52 963b 0f1e acbd
00000310: 5d14 8ebb 39b1 34bd 18fd abbd 8056 99bd
00000320: 9389 42bc 68c9 6b3d 8835 7dbd 93b3 6fbc
00000330: b403 1b3d c484 68bd fd85 debc 0e01 2ebd
00000340: 8f34 903c 86fc c33c 9dde d2bc 31f1 95bd
00000350: 9c14 a13d 2777 8abc 9aa9 5dbd 677a 0e3d
00000360: cd52 87bd 0579 2ebd 3398 673d 5ef9 febc
00000370: b064 023c e395 423c f221 543d 3982 8a3d
00000380: ab72 533c 0af2 94bd 67e5 85bd 6030 ecbc
00000390: 634c 013c 4fee 9a3b e821 683d e41e ad3d
000003a0: 4c20 a53d 7bcc 9ebb 2283 80bd c4f3 1abd
000003b0: fd58 38bd 3ee2 8bbc 787b 37bd e43d 79bd
000003c0: 70bc 6e3c f0e6 55bc def2 96bd 306a a7bd
000003d0: 35a8 1cbd c360 76bd 1f2a 3cbb fd85 8cbd
000003e0: 7f37 4d3d 5122 b53c 58c9 ccbc ca85 613d
000003f0: 7ee4 bcba 9e2b 9d3d 20e8 a1bc bf3f 143b
-0.056735557 0.077987865 0.05756192 0.026502477 0.06634205 -0.04387098 -0.0841903 -0.062639266
-0.07015008 -0.0799608 0.06479033 0.011829239 0.042982258 -0.064314336 -0.061977334 0.04321306
-0.04421314 0.051268738 0.08088569 0.06182496 -0.06869041 -0.011140621 -0.084503986 0.07674153
-0.08227461 0.050918013 0.05949667 -0.064048566 -0.060287483 0.04119774 0.08216458 -0.017299915
0.047916345 0.048296776 0.06347111 -0.047245175 0.045416262 -0.003724804 -0.07739109 0.044005085
-0.01695455 -0.030034957 0.08009971 0.041056182 0.0866161 -0.05416602 -0.022156194 0.059697278
0.05308045 0.07850696 -0.03271166 -0.028868195 0.029345443 0.024306662 -0.005415526 0.052360266
-0.046880648 -0.033946805 0.039791428 6.419482e-05 -0.034894362 0.054122142 -0.0287737 -0.00849398
-0.086862415 -0.04547515 0.0025822087 0.03068101 -0.008488453 0.08434652 0.017350089 0.005883263
0.038947802 -0.03924843 -0.0505973 0.07113733 -0.015487368 0.068941124 -0.01614118 -0.007202996
0.07072049 -0.06387324 0.05838491 0.06413685 0.035997964 0.08535407 -0.014012954 0.07284165
0.021479368 -0.084965855 0.06805045 -0.019847063 -0.075190365 -0.07028195 -0.0010953252 -0.060247682
0.01598917 -0.034223255 -0.049011752 0.0828384 -0.044605467 -0.042709734 0.0038017142 0.0014635444
-0.009665968 0.0006673707 0.050392505 -0.030226378 -0.005734927 -0.07404576 -0.06441648 0.058918834
-0.0015732173 0.010142854 0.035524447 -0.08719763 -0.08748325 0.074324995 -0.0027243388 -0.02035771
0.016779317 0.005305798 0.014784913 -0.07076791 0.078492045 0.053769153 0.078625955 -0.030429726
-0.051181875 0.03155857 0.014424457 0.017266806 0.047449272 -0.06771968 0.02988834 0.022271924
0.0693121 0.07127191 0.06005619 0.056610815 -0.04946129 -0.05876468 -0.06230726 -0.06986734
-0.04242867 0.06118447 -0.025058867 0.05627499 -0.027659489 -0.047392976 -0.0051212823 0.05282242
-0.04058921 0.08568783 -0.06777853 0.07135709 0.056457758 -0.043637723 0.0059712436 -0.060858335
-0.012127918 -0.07915916 -0.06330228 0.06731651 0.018330047 0.014987077 0.069355965 0.055756412
0.05388838 0.013949417 -0.06762072 0.019224657 0.073391676 -0.04822544 -0.08199767 -0.058972456
-0.053084675 -0.08468013 0.044729937 -0.034920275 0.058919337 -0.054863613 0.06366876 0.066826105
0.0046506277 -0.07951082 -0.043350957 -0.0026097065 0.030635044 -0.0379692 0.009255358 -0.0038007142
0.08243169 -0.049469505 0.0045874557 -0.08404171 -0.0043359236 -0.044114325 -0.08397883 -0.07487202
-0.011873621 0.057565123 -0.06181863 -0.014630216 0.03784533 -0.05676724 -0.0271635 -0.042481475
0.017603187 0.023924123 -0.025740916 -0.07321394 0.07865259 -0.01690252 -0.054116823 0.0347847
-0.0660759 -0.042595882 0.056541633 -0.031124767 0.007958576 0.011876556 0.051790185 0.06763119
0.012905757 -0.07272728 -0.06537896 -0.02883166 0.007891747 0.0047281156 0.05667296 0.084531575
0.08062801 -0.0048461533 -0.062750116 -0.03783013 -0.04500674 -0.017075654 -0.044795483 -0.06085004
0.014571294 -0.013055548 -0.07370542 -0.081745505 -0.038246352 -0.060150873 -0.002871163 -0.06861494
0.050101753 0.02211109 -0.024998352 0.05505923 -0.0014411358 0.07674335 -0.019764006 0.0022621003

actor.linear4.bias f4 [9]
00000000: a45b 703d 604f e8bc a30d 993d ec03 34bd
00000010: a282 e3bc ac65 9cbd eedf bfbb c283 2bbd
00000020: 9f8f 95bd
0.058681145 -0.028358161 0.07473304 -0.043949053 -0.027772252 -0.0763658 -0.005855552 -0.0418737
-0.07302784

critic.linear1.weight f4 [128, 120]
00000000: f939 853d 6010 493d fd9a a8bd d900 acbd
00000010: f80c 9b3d a847 fbbc 9b07 59bd 7983 3bbd
00000020: 58c0 7dbd 35ee 2abd 4167 903c dfd1 7db8
00000030: c3e1 8abd 8506 74bd c264 c8bc 836e b2bd
00000040: da4e 9cbc 69b7 bebd 8349 9a3d 30e8 1d3d
00000050: 2d2f 4cbc 7e86 28bd 8535 93bd d300 bf3d
00000060: fd45 33bc e8da 77bd cb06 bbbc eef4 a53c
00000070: 6c86 88bc 405f 563d 67a2 6a3d 1442 89bd
00000080: 4ddc 643d ecda 13bd bff4 d33d 23fd e8bd
00000090: 3e10 823d 1aec df3d 45d0 9c3d 4f9f 363d
000000a0: 1c74 ddbc 94fe 7d3d 2f97 0cbb 5a34 7b3b
000000b0: a243 00bb aae6 9fbd 695d 793c 820c 863b
000000c0: d633 3e3d 440d d63d 2b21 80bd d78b a13d
000000d0: 81d8 7d3d 2a15 5a3d b3cd c6bb 36f7 18bd
000000e0: 83dc 0aba 7dcb 69bd 5eec 76bd d0d1 acbc
000000f0: 6088 10bd 90f8 a9bd d759 653c 0dc7 1a3d
00000100: 6f07 4dbc 9494 b23c 1522 f2bb d8d1 5e3d
00000110: 43d4 2e3d 10cc c73c a369 9cbd a60c 013e
00000120: f76e 35bd 6de2 98bc 81a3 a13d 973c 2b3d
00000130: 4243 ad3c 217b b43d e645 8d3d e0f7 44bd
00000140: c461 97bd 7059 c0bd 3490 c23d 61e4 7e3c
00000150: 1d2c 4f3d c24f ba3d 4e25 cbbd 6715 dabb
00000160: 2510 5bbd f01e 09bd d428 173d 65b4 9e3d
00000170: a880 b73d c302 22bd ecca b9bc 6126 0cbd
00000180: b290 7ebd adcf aebd fa46 94bd 6519 f6bc
00000190: 7838 673c bef0 533b 999a 8dbd b4e6 18bc
000001a0: 5205 4f3d fec0 543a bd83 a5bc 42c3 e03c
000001b0: c142 a83c a649 a5bc 0565 9d3c bfc4 6c3c
000001c0: a195 6c3c a0f8 15bd 6132 8cbd cfeb cf3d
000001d0: 8e11 07bd 3fff 40bd 5851 ae3c f021 bebc
000001e0: 0f9f 1f3c c238 8e3b 201d 5b3c 783d 1b3d
000001f0: 5736 a3bd 626d 873d 911b da3d 1af5 a33d
00000200: 9219 1ebd d796 07bc 0560 1ebb 4ba2 4f3d
00000210: 8848 c13b a791 aebd c317 4d3d a13b ea3c
00000220: 957f 923c e310 88bc c273 963d 9404 abbd
00000230: 8b98 a3bc 788d cc3d 2bc4 2abc 9c4e a53d
00000240: 8bcb 353d cc07 debd 1363 79bd 268e 8c3d
00000250: 5c04 22bb 4bd1 f5bc 556e 1fbc 89a5 aabc
00000260: 5fca af3d 4887 b3bd 68ac 29bd 8eb4 b5bd
00000270: b09d b03c f6df 9b3d 1136 56bd a208 77bc
00000280: e866 73bd b083 cdbb c30a 5ebc d7a3 b73d
00000290: 758e 8a3d 0b18 a63d b5bf 483c e496 343c
000002a0: 9470 7fbd cb7c 643d c53a 8d3d cf49 bc3d
000002b0: ea12 203d bd3b e53d e358 babd c343 a63b
000002c0: 4d28 e3bb 3e12 8fbd 9b28 6a3c 7030 89bd
000002d0: 4cd5 66bd e4b0 b2bd 0d8d 83bd 6ead fb3c
000002e0: 7a0c 303d 106b 8e3d a17b 6e3d f429 5a3c
000002f0: 985c 703b 2d05 aa3d 841b 053d aff7 b23d
00000300: 078e 90bc f037 89bd 3038 96bd 01d5 da3d
00000310: 6d43 4e3d 1fb1 a0bd 8e50 823d 8242 533d
00000320: cec3 57bd 4cf3 db3d 40af 703d 57f7 49bc
00000330: 0517 243d 56e8 3fbc 8380 bb3d 5111 fe3d
00000340: bcaa c33c a2b7 cdbd 835b 9f3b f7b4 453d
00000350: 328f 74bd b83e ac3d e402 db3d 6cfd 4cbc
00000360: 6023 9dbb 9fff e13b 0042 47bd 7ea2 0fbd
00000370: e3c7 7ebc c733 b03d 487c b2bd 8ae0 903d
00000380: 894f a3bd 3063 63bd 481e 7e3c 5614 d23d
00000390: dd8d 89bd e4c8 7c3d b9c1 8b3d b665 26bd
000003a0: fa59 4bbd b99e c43d 2d9a 83bc f0b9 133c
000003b0: 4410 03bc 209f abbd 3fca 3dbc ee45 20bd
000003c0: 784a 993d ab8f 933d aace 1b3d ef3f df3b
000003d0: 6d58 d33c 1de2 b8bd 09a4 dc3d 1622 b8bd
000003e0: ed1b 59bd 7e34 f23d da54 f73c 6255 f03c
000003f0: bc70 aabd 1fa1 ab3d 91a8 b43d 0f84 273d
0.06505198 0.049087882 -0.08232687 -0.08398599 0.07570833 -0.030673817 -0.05298577 -0.04577968
-0.06195101 -0.04173108 0.01762736 -6.051536e-05 -0.06781342 -0.05957653 -0.024462108 -0.08712485
-0.019080568 -0.093123265 0.075335525 0.03855151 -0.012462419 -0.041143887 -0.071879424 0.09326329
-0.0109419795 -0.0605115 -0.022830388 0.020258393 -0.01666566 0.05233693 0.057283785 -0.067020565
0.055874158 -0.036097452 0.10349416 -0.11376407 0.06350754 0.10933705 0.07656912 0.044585522
-0.027032904 0.062010363 -0.0021452417 0.0038330765 -0.0019571562 -0.078076676 0.015220025 0.0040908465
0.046436153 0.10451749 -0.06256326 0.078880005 0.061974052 0.05324284 -0.0060670017 -0.037345134
-0.0005297141 -0.057078827 -0.06028401 -0.02109614 -0.035286307 -0.08299363 0.01399847 0.037787486
-0.012513979 0.021799363 -0.007389317 0.05439934 0.042682897 0.024389297 -0.07637336 0.12602481
-0.044295277 -0.018662656 0.07892514 0.04180583 0.021150235 0.088125475 0.06898098 -0.048087955
-0.07391694 -0.09392059 0.09500161 0.015557379 0.05057918 0.09097244 -0.09919225 -0.0066553834
-0.053482193 -0.03347677 0.03690417 0.07749251 0.08960086 -0.039553415 -0.022679769 -0.03421629
-0.06214971 -0.08535705 -0.072401 -0.030041406 0.014112584 0.0032339538 -0.06914253 -0.009332348
0.050542183 0.0008115916 -0.02020442 0.027436856 0.020539643 -0.02017672 0.019213209 0.014451205
0.014439971 -0.03661406 -0.068455465 0.10152399 -0.032975726 -0.04711842 0.021279022 -0.023209542
0.009742512 0.004340262 0.013373643 0.037900418 -0.07969349 0.0661266 0.10649789 0.08005734
-0.038598605 -0.008275709 -0.0024166119 0.050691884 0.005898539 -0.08523875 0.05007149 0.028592886
0.017883101 -0.016609615 0.07346298 -0.083504826 -0.0199702 0.099879205 -0.010422747 0.08071634
0.044383567 -0.10841331 -0.0608855 0.0686305 -0.0024721837 -0.030007025 -0.009730895 -0.020830886
0.08583521 -0.08766037 -0.041424185 -0.08872329 0.021559566 0.076110765 -0.052297655 -0.015077742
-0.05942431 -0.006271802 -0.0135523705 0.08966797 0.06765453 0.081100546 0.012252738 0.011022303
-0.062363222 0.055783074 0.06895975 0.09193765 0.039080538 0.11193035 -0.09098985 0.005073996
-0.0069322945 -0.06985901 0.014291908 -0.06698692 -0.05635576 -0.087251455 -0.06423388 0.030722346
0.04298065 0.06954014 0.05822337 0.0133156665 0.0036676284 0.083017685 0.032496944 0.08738648
-0.017645849 -0.06700122 -0.07334936 0.106851585 0.05035727 -0.07846283 0.06363021 0.0515771
-0.05267697 0.107397646 0.05876088 -0.012327037 0.040061016 -0.011713108 0.09155371 0.124056466
0.023885123 -0.10044791 0.004863204 0.048268285 -0.059706874 0.084104 0.10693911 -0.012511592
-0.004795477 0.0068969275 -0.048646927 -0.035067074 -0.015550586 0.08603626 -0.08715111 0.070740774
-0.079741545 -0.055514514 0.015510149 0.10257785 -0.067165114 0.06171502 0.06824059 -0.040624343
-0.049646355 0.096005864 -0.016064728 0.009016499 -0.0079994835 -0.0837996 -0.011583864 -0.03912919
0.07484907 0.07205137 0.038038887 0.0068130414 0.025799 -0.09027503 0.10773475 -0.089908764
-0.053005148 0.11826418 0.030191828 0.029337589 -0.083222836 0.08380341 0.08821214 0.040897425

critic.linear1.bias f4 [128]
00000000: 34b7 e03d f064 953c da05 243c 0e8a d83d
00000010: e343 1bbc 7701 243d 0ca8 5fbd 85e1 4ebd
00000020: 29a3 bb3d a838 583d 9e0b d7bd 9781 e93d
00000030: 983a ecbc 37b0 013d 2bbe 0d3d 1446 bcbd
00000040: f8ec e03c e20a c9bd 8a9a 743d b38c 2d3d
00000050: 963d 743b d8cd 3ebc 7491 e83d 852a 773c
00000060: 597e bf3d 2f6c 763d 1164 23bc 3d0a f93c
00000070: 522c 6bbb 0d63 dbbc 35c8 a33c ad00 7abd
00000080: 9eff 0b3d ff4c 3bbd 08a7 ed3c b0fb 14bb
00000090: 61b5 363d a4d2 88bc 998c b93c 50b4 4c3d
000000a0: d02e 683d e7ee 833c 20c4 8bbb bb37 f33d
000000b0: 3857 d13d 6741 db3d 2c9d be3d 08d5 273d
000000c0: a289 383d 9b70 9e3d 70d4 79bd b1b2 54bd
000000d0: a619 cc3c 12ac 27bd 512b d03d 75f4 8d3b
000000e0: 8b5b 9fbc 4aba e7bc b92b 8d3d a6d1 f13c
000000f0: 4aa3 b73d 9726 b8bc fba2 4a3b 9627 893d
00000100: c70b f73b cd85 b23d a6ef 25bc e980 d83d
00000110: 06a0 c9bd cd78 c6bb 4531 513d 4157 4dbd
00000120: 8a7c bf3c 9609 e83d 9aae a43d 5c3d 2e3d
00000130: b64f e13d abf3 bdbd ad28 49bd 47bf c2bc
00000140: ead9 503d b1f4 d0bd 405e b43b c137 cd3d
00000150: efa8 20bd 5e32 ccbd bb5c b1bd 77c6 99bc
00000160: 13e4 cf3d a0c9 073d 79c8 ff3d 675f 24bd
00000170: 4d4c a5bb 41eb a83d 4cec b8bd dd1a 8ebc
00000180: a3cb 1a3d 5117 32bd 9001 c33d af4e b03d
00000190: db72 a9bd 45ad d13d 3581 af3d 510f c33d
000001a0: e287 cc3d 5eb6 0ebd 0ea3 343b 1a65 2a3d
000001b0: 2a98 b23d 8fbc c03d d7de 9bbc 94f0 763d
000001c0: 4666 ce3d 17fe 9ebd 786b 12bd 4bf8 86bd
000001d0: 1a3c 9d3c da2b 59bd a4d6 40bd 94e8 b6bc
000001e0: 58ac 4b3b 9f65 b63d 306d 86bc accd 67bd
000001f0: 88cb 87bd 5216 a8bd 8e76 8dbd 4a66 20bd
0.10972443 0.018236607 0.010011161 0.10573207 -0.009476635 0.04004046 -0.05460362 -0.05050804
0.0916198 0.052788407 -0.10500263 0.114016704 -0.028836533 0.031662192 0.034605186 -0.09193054
0.027456746 -0.09816529 0.059717692 0.04237051 0.0037268153 -0.011645757 0.11355868 0.015085821
0.09350271 0.060161766 -0.009972588 0.03040039 -0.0035884571 -0.02678063 0.019992927 -0.0610358
0.034179322 -0.045727726 0.02901031 -0.0022733025 0.04460657 -0.016702004 0.02265005 0.049976647
0.05668527 0.016105128 -0.0042653233 0.11875864 0.10221714 0.10705834 0.09307322 0.040974647
0.045053132 0.077363215 -0.06099361 -0.051928226 0.024914574 -0.040935583 0.10164512 0.00433212
-0.01945283 -0.028287072 0.06893105 0.029518913 0.08966692 -0.022479339 0.0030919898 0.066970035
0.0075392458 0.08716927 -0.010127937 0.10571463 -0.09844975 -0.006056881 0.051072378 -0.05013204
0.023374815 0.11329953 0.08041115 0.042538986 0.11001532 -0.092749916 -0.049111057 -0.023772849
0.05098907 -0.10202921 0.0055043995 0.100204 -0.039223608 -0.09970544 -0.08660265 -0.018771393
0.101509236 0.03315127 0.12489409 -0.040130045 -0.005044496 0.08247996 -0.09029445 -0.017346794
0.03779186 -0.043479268 0.095217824 0.08608758 -0.0827386 0.10238127 0.08569566 0.09524406
0.09986855 -0.034841888 0.0027563008 0.041600324 0.08720429 0.09410965 -0.019027157 0.060288027
0.10078101 -0.077633075 -0.03574702 -0.06590327 0.019193698 -0.053020336 -0.047079697 -0.022327699
0.0031078067 0.089061014 -0.016409487 -0.05659263 -0.066306174 -0.08207382 -0.06907378 -0.03916005
