landing_starship_raw_ckpt/ckpt_00004001.pt (torch, 613879 bytes, 15 tensors)

actor.linear1.weight f4 [128, 120]
0	0x3bb21dc7	0.0054356786
1	0x3c685048	0.014179297
2	0xbd94d08b	-0.07266339
3	0x3c9077e3	0.017635291
4	0xbc9080d9	-0.017639564
5	0xbdb24214	-0.0870401
6	0xbdaee2ad	-0.08539329
7	0xbcfdbdd5	-0.030974308
8	0x3d593314	0.053027228
9	0xbd816dad	-0.06319747
10	0x3da4ab27	0.08040457
11	0x3d94696e	0.072466716
12	0xbd219ea3	-0.03945793
13	0x3ceee51a	0.029161979
14	0x3d4d4265	0.050112147
15	0x3d566be0	0.05234897
16	0x3b8894aa	0.0041681128
17	0x3cd43ea4	0.025908776
18	0x3d8272f1	0.063695796
19	0x3d8094da	0.06278391
20	0x3c3d2232	0.011543797
21	0xbdb4eafe	-0.08833884
22	0x37c98418	2.4022578e-05
23	0x3d277b20	0.040888906
24	0x3cee870d	0.029117132
25	0xbc99fd1e	-0.018797453
26	0x3c484813	0.012224215
27	0x3d97d1ec	0.07413086
28	0x3cf34d3d	0.029699916
29	0xbb008993	-0.001961325
30	0xbd9bd03a	-0.076080754
31	0xbd523353	-0.051318478
32	0x3d8b753c	0.0680947
33	0xbd96f83f	-0.07371568
34	0xbbf1aaba	-0.0073750885
35	0x3d675fe5	0.056487937
36	0x3d72334d	0.059130955
37	0x3cc40af8	0.023931012
38	0x3d2818b2	0.041039176
39	0xbd05a5b9	-0.03262875
40	0x3d194e07	0.03742793
41	0x3d28d627	0.041219857
42	0x3d341f63	0.043975245
43	0xbc321e1a	-0.010871435
44	0x3d7969e5	0.060892005
45	0xbdab5e82	-0.08367635
46	0xbd2cbd67	-0.042172816
47	0xbd568d27	-0.052380707
48	0xbd9c1920	-0.0762198
49	0xbd6ab40f	-0.057300624
50	0xbd62e992	-0.05539853
51	0xbd8c122b	-0.06839403
52	0x3cd69678	0.026194796
53	0x3d867bed	0.06566606
54	0xbd7999ba	-0.06093762
55	0x3d31ca8d	0.043406058
56	0xbb990b29	-0.00467052
57	0x3d8299ad	0.063769676
58	0x3c82303f	0.015892146
59	0xbda2a20e	-0.07941066
60	0xbdae86ca	-0.08521803
61	0x3c73e9c6	0.014887279
62	0xbb8c294b	-0.0042773834
63	0xbd34a19f	-0.044099446
64	0xbc671fdc	-0.014106717
65	0xbd8c1119	-0.068391986
66	0xbc667d12	-0.014067905
67	0xbd861fef	-0.065490596
68	0x3d9ba855	0.07600466
69	0x3d0e07f7	0.034675565
70	0x3d65acac	0.056072876
71	0xbdae20c1	-0.08502341
72	0xbce9fb53	-0.028562224
73	0x3c8392e1	0.016061248
74	0x3cb45d29	0.022017078
75	0x3d2d14fa	0.042256333
76	0x3d7e55c3	0.062093507
77	0xbd8e4e65	-0.06948546
78	0x3d35d001	0.04438782
79	0xbc99e482	-0.018785719
80	0x3cd12eee	0.025535073
81	0xbd5bf4ea	-0.053700365
82	0xbd4bf0fe	-0.049790375
83	0x3dbe6a8f	0.09297668
84	0x3db31408	0.08744055
85	0xbca04f24	-0.019568987
86	0xbc0835f6	-0.008313647
87	0xbb97b0ef	-0.0046292464
88	0x3d93c925	0.072161
89	0x3dbbcc83	0.09169867
90	0x3c5e8328	0.013581075
91	0x3d72c28e	0.059267573
92	0x3957ddc7	0.00020586616
93	0xbcbed0e4	-0.023292966
94	0xbd7d1566	-0.061787985
95	0xbd0a5808	-0.03377536
96	0xbb1f77d3	-0.0024332895
97	0x3b372d8a	0.0027950727
98	0xbd862a3b	-0.065510236
99	0xbd35101f	-0.044204827
100	0x3d869c58	0.06572789
101	0x3d67f9ef	0.05663484
102	0xbc5d3d15	-0.013503333
103	0xbdae3306	-0.08505826
104	0x3d54a7ec	0.051917955
105	0xbd382fe8	-0.044967562
106	0x3d7ddb6c	0.061976835
107	0xbda0852d	-0.07837901
108	0x3d0a57bc	0.033775076
109	0x3cc5eb1f	0.024159966
110	0x3d4bbdd4	0.04974158
111	0xbd2758b8	-0.040856093
112	0xbdaa89bf	-0.08327054
113	0xbd44f417	-0.048084345
114	0xbd4542eb	-0.04815952
115	0x3d486e04	0.048933044
116	0x3d767c59	0.06017718
117	0xbc1d9b3d	-0.009619531
118	0xbd50549b	-0.050861936
119	0xbdb8b40b	-0.090187155
120	0xbd7619ff	-0.060083386
121	0x3d3e6e66	0.046492003
122	0x3d4a0da4	0.049329415
123	0x3cab1dde	0.020888265
124	0xba07599b	-0.00051631936
125	0xbd787bb8	-0.060664862
126	0x3caec767	0.021335317
127	0xbd6a5130	-0.057206333
128	0xbd516be3	-0.05112828
129	0x3d947298	0.072484195
130	0xbccdcba8	-0.025121525
131	0xbd121cbd	-0.03567194
132	0xbd8ab0a9	-0.067719765
133	0xbdb4720e	-0.08810817
134	0xbd879cee	-0.06621729
135	0xbcdde108	-0.027084842
136	0xbd44cdf3	-0.04804797
137	0x3c60cbaa	0.013720432
138	0xbda60e40	-0.08108187
139	0xbd8a3864	-0.06749037
140	0xbd263003	-0.04057313
141	0x3c9c9cc7	0.019117726
142	0x3d5629e6	0.05228605
143	0x3daa7fe1	0.08325172
144	0xbd615d3d	-0.05502056
145	0xbd92e1a0	-0.07171941
146	0xbdaaaf82	-0.08334257
147	0xbd01a469	-0.031650934
148	0x3d634c0c	0.055492446
149	0xbd435260	-0.04768598
150	0xbdaab8ce	-0.0833603
151	0x3d0f8e96	0.03504809
152	0x3d99c81b	0.0750887
153	0x3d9fd97b	0.07805153
154	0x3d4bf14c	0.049790666
155	0xbc367d4b	-0.011138271
156	0xbdb20fd0	-0.08694422
157	0x3d74f24e	0.059801392
158	0xbd415098	-0.047196
159	0x3d382bcd	0.044963647
160	0x3c75e294	0.015007634
161	0x3d105ab9	0.03524277
162	0xbd189305	-0.037249584
163	0xbd341445	-0.043964643
164	0xbdb94e90	-0.09048188
165	0x3d006d71	0.03135437
166	0x3cab09e7	0.020878745
167	0x3cd71dc0	0.026259303
168	0x3d937d7f	0.07201671
169	0x3d800e93	0.0625278
170	0xbc0be410	-0.008538261
171	0xbd5a3214	-0.053270414
172	0x3cced3ed	0.025247538
173	0xbbc2145e	-0.005922838
174	0xbc672daa	-0.014110008
175	0xbd0ce134	-0.034394458
176	0x3d8d2e99	0.068936534
177	0xbd8dc6a8	-0.06922656
178	0x3bddaef2	0.00676524
179	0x3dae0d91	0.08498681
180	0x3c291395	0.01031961
181	0xbdb922d6	-0.090398476
182	0x3b8c3f35	0.004279996
183	0xbceff8d7	-0.02929346
184	0x3cf58a58	0.029973194
185	0x3cd6698a	0.026173372
186	0xbd2cecd6	-0.04221805
187	0x3d9ba597	0.07599943
188	0x3d9beb1b	0.07613202
189	0xbd9ed7dd	-0.077560164
190	0xbd9e36e2	-0.07725312
191	0xbd853b1a	-0.06505413
192	0xbc8674d6	-0.016413134
193	0x3d913ff5	0.07092277
194	0xbc059c76	-0.008154979
195	0x3b2ee0c8	0.0026684273
196	0x3cbbac31	0.022909256
197	0xbbc4f0cf	-0.006010152
198	0xbd880562	-0.06641652
199	0x3db39082	0.08767797
200	0x3d8701b0	0.06592119
201	0xbd1357d1	-0.03597242
202	0x3c5a3135	0.013317396
203	0xbda20532	-0.07911147
204	0x3d6981fd	0.057008732
205	0xbd5a0a4e	-0.053232484
206	0xbbea4222	-0.007148997
207	0xbc8a3721	-0.01687199
208	0xbd93822e	-0.07202564
209	0xbc2eacda	-0.010661328
210	0xbdade38d	-0.084906675
211	0xbd697789	-0.056998763
212	0xbd728d20	-0.05921662
213	0xbd95a94a	-0.0730768
214	0xbc46be8a	-0.012130389
215	0xbd9f97fc	-0.077926606
216	0x3d54cc74	0.051952794
217	0xbd9831ab	-0.074313484
218	0x3d869630	0.06571615
219	0xbd505b93	-0.050868582
220	0xbd0dd46d	-0.034626413
221	0x3dad8961	0.084734686
222	0xbd055edd	-0.03256117
223	0xbdbd5473	-0.09244623
224	0x3d7a71ba	0.061143614
225	0x3cf6e940	0.03014052
226	0xbd99e2c1	-0.07513953
227	0xbd8f8136	-0.07007067
228	0xbdacb06d	-0.08432088
229	0x3c8c6c3d	0.017141456
230	0xbc041caa	-0.008063475
231	0xbd973a08	-0.073841155
232	0x3ce5d6f1	0.028056594
233	0xbd2a6433	-0.041599464
234	0x3d137a2c	0.036005184
235	0x3cf5a9e5	0.029988239
236	0xbc7acf74	-0.01530825
237	0x3b784fa9	0.0037889278
238	0x3baf1c6f	0.0053439657
239	0xbd1ecfc6	-0.038772367
240	0xbd1e0832	-0.038582034
241	0x3db4ded3	0.08831563
242	0x3c3c29d7	0.011484585
243	0x3c13ec95	0.0090285735
244	0x3da5e7af	0.08100831
245	0x3d009ef6	0.031401597
246	0xbd9790b0	-0.07400644
247	0xbd41bc27	-0.047298577
248	0xbc0bb3ee	-0.008526785
249	0xbd923b00	-0.071401596
250	0x38c85b96	9.5538024e-05
251	0xbd7fc253	-0.06244118
252	0x3d4586dc	0.048224315
253	0xbd5f22bf	-0.054476496
254	0x3b96b47d	0.0045991526
255	0xbd44d272	-0.04805226

actor.linear1.bias f4 [128]
0	0xbd85e2a0	-0.06537366
1	0x3d3a8ea1	0.045546178
2	0xbdb62342	-0.08893444
3	0x3d99f135	0.0751671
4	0xbdb4c88b	-0.08827313
5	0xbdc55806	-0.0963593
6	0xbd148a63	-0.03626479
7	0x3c411c40	0.0117865205
8	0xbd49244c	-0.04910688
9	0xbc54703f	-0.012966215
10	0x3d2d2bf7	0.042278256
11	0x3ca50013	0.020141637
12	0x3d06fc23	0.0329553
13	0x3c3ad5a1	0.011403472
14	0xbda6de24	-0.08147839
15	0xbce767af	-0.028247682
16	0x3ca38518	0.019960925
17	0x3d788be7	0.060680296
18	0x3c3ec766	0.01164422
19	0x3c2e6e70	0.010646448
20	0x3d88750f	0.06662952
21	0xbd19dc60	-0.03756368
22	0x3d5357c6	0.05159738
23	0xbda8c955	-0.08241526
24	0x3d602cfd	0.054730404
25	0x3ccc5365	0.02494211
26	0xbc2e47a5	-0.010637199
27	0x3d3ed5cd	0.046590615
28	0x3c1c459b	0.00953808
29	0xbd8389cf	-0.06422769
30	0xbda2fa16	-0.07957856
31	0xbd9dfb1f	-0.07713913
32	0xbd46e0ad	-0.04855411
33	0x3d9d4c8c	0.07680616
34	0x3c8207d6	0.015872877
35	0xbda6bb62	-0.08141209
36	0xbd883f19	-0.0665266
37	0x3d9d390a	0.07676895
38	0x3ba25c35	0.0049548396
39	0x3d020edd	0.031752456
40	0x3c02aeab	0.007976214
41	0xbd9cbf86	-0.07653718
42	0xbdb3b568	-0.08774835
43	0xb9dbbfc0	-0.000419138
44	0xbd62ef8e	-0.05540424
45	0xbbf07ced	-0.007339111
46	0x3d00c4a6	0.03143754
47	0xbcd401da	-0.02587979
48	0x3c900edf	0.017585216
49	0xbd4d7cc4	-0.050167814
50	0x398b8f82	0.00026619068
51	0xbc2b880f	-0.010469451
52	0x3db10e22	0.08645274
53	0xbdc8c816	-0.09803788
54	0xbdb78708	-0.08961302
55	0xbd88da77	-0.06682294
56	0xbd737f79	-0.05944774
57	0xbdad8740	-0.084730625
58	0x3ccbe892	0.024891172
59	0x3bfbd404	0.0076851863
60	0xbd83d67c	-0.06437394
61	0xbc3bd340	-0.01146394
62	0xbd4148ce	-0.047188573
63	0xbdc00412	-0.09375776
64	0x3d76704f	0.0601657
65	0x3be3c6bd	0.0069511817
66	0xbcdeaea7	-0.02718289
67	0x3dbe1a1a	0.09282322
68	0x3cef1d04	0.02918864
69	0x3d676039	0.05648825
70	0xbca3c034	-0.01998911
71	0xbd97fcc3	-0.07421257
72	0xbdc224e1	-0.0947969
73	0x3be9310f	0.007116444
74	0xbd902676	-0.07038586
75	0x3a896f69	0.0010485473
76	0xbd419bb2	-0.047267623
77	0xbd8aaebf	-0.067716114
78	0xbd7946c6	-0.06085851
79	0xbdba1eaa	-0.0908788
80	0x3da80f81	0.08206082
81	0xbd6a0350	-0.057132065
82	0x3ca22e8f	0.019797591
83	0xbcf6ea85	-0.030141125
84	0xbcccccc4	-0.024999984
85	0xbd40c986	-0.047067188
86	0xbdb12c33	-0.086510085
87	0x3da5cf2c	0.080961555
88	0xbd1e8a12	-0.038705893
89	0xbd778cc2	-0.06043697
90	0x3d37ec64	0.044903174
91	0xbc28d085	-0.010303621
92	0x3d7c34b1	0.061573688
93	0x3cc644a8	0.02420266
94	0xbdb2ebd8	-0.0873639
95	0xbd997788	-0.07493502
96	0x3d6bb1ef	0.057542738
97	0x3cf519cf	0.029919533
98	0x3d173e88	0.03692487
99	0xbdcddec5	-0.100522555
100	0xbdafc401	-0.08582307
101	0x3bc0851f	0.0058752443
102	0x3d5c7e4f	0.053831395
103	0xbd826f4b	-0.06368884
104	0xbd811968	-0.06303674
105	0xbd5fbcbc	-0.05462335
106	0x3d6c3569	0.057668123
107	0xbd17e7ac	-0.037086174
108	0xbd87c84f	-0.06630003
109	0xbcfece3b	-0.031104198
110	0xbdb65841	-0.08903552
111	0xbd0b7eaf	-0.03405636
112	0x3905175e	0.00012692573
113	0xbd43a0bc	-0.04776071
114	0xbd17fd9c	-0.037107095
115	0x3d83964a	0.0642515
116	0x3c48fccb	0.012267302
117	0x3daf48e5	0.085588254
118	0x3d9fed8c	0.0780898
119	0xbd81ac8f	-0.06331741
120	0x3dbaabd7	0.09114807
121	0xbcd730ac	-0.026268326
122	0xbda7b4a3	-0.081887506
123	0x3d54b0ad	0.051926304
124	0xbc82320a	-0.015893001
125	0xbc511304	-0.012760881
126	0xbc89316b	-0.016747197
127	0xbd440e3f	-0.04786515

actor.linear2.weight f4 [128, 128]
0	0xbdb2b493	-0.08725848
1	0xbcce4da4	-0.025183506
2	0xbda0d8d1	-0.078538544
3	0xbc3c172a	-0.011480132
4	0xbd5ca5a9	-0.053868923
5	0x3d18da3c	0.0373175
6	0xbceb3a1a	-0.028714228
7	0x3db54b62	0.08852269
8	0xbd4ac5e8	-0.049505144
9	0x3c820315	0.01587061
10	0xbcc4da09	-0.024029749
11	0xbd173cd0	-0.03692323
12	0x3b325d46	0.002721624
13	0x3d855090	0.06509507
14	0xbdb57401	-0.088600166
15	0x3cfaa9b8	0.030598506
16	0xbdabc719	-0.08387584
17	0x3db24166	0.0870388
18	0x3d7d48d2	0.061837025
19	0xbbdeb2f6	-0.006796236
20	0xbd2dd586	-0.04243996
21	0xbc610cf3	-0.0137359975
22	0xbca86027	-0.020553662
23	0xbcbf673d	-0.023364658
24	0xbd5f2112	-0.054474898
25	0x3bb19035	0.005418802
26	0xbc330af2	-0.010927903
27	0x3d295ab4	0.041346267
28	0x3d86c636	0.065807745
29	0xbc987f78	-0.01861547
30	0xbd5d6fbb	-0.054061633
31	0x3aa2a164	0.0012407717
32	0xbda98aa3	-0.08278396
33	0x3cdebc04	0.027189262
34	0x3d8ae653	0.06782212
35	0x3d179ca8	0.037014633
36	0x3ce8657a	0.0283687
37	0x3c13ee23	0.009028944
38	0x3da2e3bb	0.079535924
39	0xbd6734e6	-0.056446932
40	0xbc86331a	-0.016381789
41	0x3da57d59	0.08080549
42	0x3d330672	0.04370732
43	0xbd50b481	-0.050953392
44	0x3d4af8dd	0.04955374
45	0xbc54cb27	-0.012987888
46	0x3d86b12d	0.06576762
47	0x3c8bb25d	0.017052824
48	0xbd672ac7	-0.05643728
49	0x3c032249	0.00800378
50	0x3d119507	0.035542514
51	0xbd64c813	-0.05585487
52	0xbd83940c	-0.06424722
53	0xbc9f6986	-0.019459497
54	0xbd843bee	-0.06456743
55	0xbb06168e	-0.002046022
56	0x3dc1b51b	0.09458371
57	0xbc0e2d52	-0.008677797
58	0x3d9862c6	0.074407145
59	0x3b3b1f55	0.002855261
60	0x3db16d3b	0.08663412
61	0xbdb82301	-0.089910515
62	0x3c9a35ab	0.018824419
63	0xbc3ca328	-0.011513509
64	0xbcada85d	-0.021198446
65	0x3d4b5226	0.04963889
66	0xbcc04f80	-0.023475409
67	0xbbf24342	-0.0073932717
68	0x3cf18137	0.02948056
69	0x3d9ed2a7	0.077550225
70	0x3c19fe7a	0.009399051
71	0xbc74ba18	-0.014936946
72	0x3b4b6810	0.0031037368
73	0x3da13d59	0.07873029
74	0xbd590334	-0.05298157
75	0xbcd7456b	-0.026278218
76	0x3cbf3ae8	0.023343518
77	0xbc334ad6	-0.010943135
78	0xbcfebf26	-0.031097006
79	0x3d02f47a	0.031971432
80	0x3bff45fc	0.007790325
81	0x3da58c3a	0.08083387
82	0x3c220e36	0.009891083
83	0x3d5818d2	0.052758045
84	0xbcfa7a09	-0.030575769
85	0xbd1eba22	-0.03875173
86	0xbd9a1c9e	-0.075249895
87	0xbd006e7e	-0.031355374
88	0xbd1bb372	-0.03801293
89	0x3d6a505e	0.05720555
90	0x3d1c85f9	0.038213704
91	0x3c939421	0.01801497
92	0xbbda20bf	-0.0066567357
93	0xbd599c50	-0.053127587
94	0xbc27552f	-0.01021318
95	0x3bde9baf	0.0067934613
96	0x3d62f8f7	0.055413213
97	0xbd517348	-0.05113533
98	0x3d55fa0f	0.052240428
99	0x3bbf9ea4	0.005847769
100	0x3d191286	0.03737118
101	0xbdba8b62	-0.091086164
102	0xbdb0f57c	-0.086405724
103	0xbd53f27c	-0.051744923
104	0x3cf5cba7	0.030004336
105	0xbd3f6f83	-0.046737205
106	0x3dbb96b1	0.091596015
107	0xbd97a196	-0.07403867
108	0xbc1d6a9a	-0.009607935
109	0xbca67d97	-0.020323558
110	0xbd0e0368	-0.034671217
111	0xbd25645d	-0.040378917
112	0xbcfd0a0e	-0.030888584
113	0x3d830d48	0.063990176
114	0x3d0ddddb	0.034635406
115	0xbd85904e	-0.065216646
116	0x3c7878df	0.015165537
117	0x3cc9355d	0.024561578
118	0xbd72735a	-0.05919204
119	0xbd6e1b27	-0.058131363
120	0x3d1bc42f	0.038028892
121	0x3d7bba0b	0.06145672
122	0x3d476b08	0.048686057
123	0x3cbe773b	0.023250213
124	0xb9638335	-0.00021697285
125	0x3b968f11	0.0045946916
126	0xbd84660d	-0.06464777
127	0x3cbe1385	0.023202667
128	0x3c3617e2	0.011114093
129	0x3db4b6d3	0.088239335
130	0x3d9f4adb	0.077779494
131	0x3d9cacc5	0.07650141
132	0x3c656a89	0.014002451
133	0x3d11fa0b	0.03563885
134	0xbd3ca97b	-0.046060067
135	0x3c6b3ce5	0.01435778
136	0x3d49df8f	0.049285468
137	0xbd85cd2a	-0.065332726
138	0x3d837088	0.06417948
139	0xbbc4195f	-0.00598447
140	0xbd77d984	-0.060510173
141	0xbd133bb2	-0.0359456
142	0xbd9221c6	-0.07135348
143	0x3cf2d6ee	0.029643502
144	0xbc225643	-0.009908262
145	0x3c0da32a	0.008644858
146	0x3d22f34b	0.039782804
147	0x3cb35596	0.021891396
148	0x3c9bd870	0.019024104
149	0xbd2b0fdd	-0.041763175
150	0xbda803a8	-0.082038224
151	0x3d9246da	0.0714242
152	0x3d887c8d	0.06664381
153	0x3c1644cf	0.009171679
154	0x3ca73872	0.020412657
155	0xbd62d03f	-0.05537438
156	0x3d861bf4	0.065483004
157	0xbd84a099	-0.06475944
158	0xbd50fc7c	-0.051022038
159	0xbc2871e9	-0.010281065
160	0xbd2f4f08	-0.04279998
161	0xbd9ff066	-0.07809524
162	0x3d8a6699	0.0675785
163	0x3d1827c4	0.0371473
164	0xbcc0e6bb	-0.02354752
165	0xbc4650ad	-0.012104196
166	0x3da18df7	0.07888406
167	0xbcad5da3	-0.021162814
168	0x3ca679c4	0.020321734
169	0x3db44f42	0.0880418
170	0xbd75233d	-0.05984806
171	0x3d91b5cd	0.07114754
172	0x3da084a1	0.07837797
173	0x3d9400c0	0.072267056
174	0xbc45097b	-0.012026186
175	0x3da359d2	0.07976116
176	0xbcc65637	-0.024211032
177	0xbd61fb5b	-0.055171352
178	0xbcbf29f3	-0.023335433
179	0xbdb14567	-0.086558156
180	0x3c844530	0.016146272
181	0xbd6631f9	-0.0562
182	0xbd641023	-0.05567945
183	0xbc917a4e	-0.017758515
184	0xbc7402a0	-0.014893204
185	0xbcbd6ad0	-0.023122221
186	0x3cb7014f	0.022339491
187	0xbc727b5e	-0.014799921
188	0x3d67f4ae	0.05662983
189	0xbd0af7e4	-0.033927813
190	0x3b72ce91	0.0037049393
191	0xbd3959c3	-0.04525162
192	0xbd108b53	-0.03528912
193	0xbda76a0b	-0.08174523
194	0x3d6bf622	0.057607777
195	0x3d654455	0.05597337
196	0xbd8d13e2	-0.06888558
197	0x3c81201e	0.015762385
198	0x3d90a5dd	0.07062886
199	0xbc0d9d31	-0.008643434
200	0x3d713098	0.058884233
201	0xbc9b51c6	-0.018959891
202	0xbc2ca15d	-0.010536519
203	0xbb8265e7	-0.003979433
204	0x3cf55e5f	0.029952226
205	0xbda04f87	-0.07827669
206	0xbd56f4ad	-0.052479435
207	0xbd2d4290	-0.042299807
208	0x3d1e639e	0.03866922
209	0x3db96d13	0.090540074
210	0x3d2d363d	0.042288054
211	0x3cd165cd	0.025561238
212	0x3c0c0aab	0.008547465
213	0xbb99d292	-0.0046942914
214	0xbd56c24e	-0.052431397
215	0x3cff6e1e	0.031180438
216	0xbc02125d	-0.007938948
217	0xbc20cb11	-0.00981404
218	0x3ae40064	0.0017395136
219	0xbd3072da	-0.04307828
220	0x3bcbdc0b	0.0062212995
221	0x3d7ff241	0.06248689
222	0x3d81b3f0	0.063331485
223	0xbd8532a3	-0.06503799
224	0xbd39a5bb	-0.04532407
225	0xbd2654cb	-0.04060821
226	0x3d889539	0.06669087
227	0x3c92ed95	0.017935554
228	0x3d648eed	0.055800367
229	0x3d9bf08d	0.07614241
230	0xbd94aafc	-0.07259175
231	0xbd912031	-0.07086218
232	0xbd842acb	-0.064534746
233	0xbd9ec739	-0.077528425
234	0x3d2ed195	0.04268034
235	0x3d19c5bf	0.0375421
236	0xbc957c11	-0.018247636
237	0xbd6978a9	-0.056999836
238	0x3ca1484e	0.019687798
239	0xbd6a6f73	-0.057235193
240	0x3c0678ac	0.008207481
241	0x3c55ea6c	0.013056379
242	0x3d80bc1d	0.0628588
243	0xbd943065	-0.07235793
244	0x3d87ed60	0.066370726
245	0xbc932281	-0.017960789
246	0x39df20be	0.0004255827
247	0xbd30dc7a	-0.043179013
248	0x3d4684fc	0.048466668
249	0xbd555500	-0.052083015
250	0xbd6a3123	-0.057175767
251	0xbd876182	-0.06610395
252	0xbd1eecef	-0.038800176
253	0xbcc21b0e	-0.023694541
254	0xbd52ef38	-0.051497668
255	0x3db04921	0.08607698

actor.linear2.bias f4 [128]
0	0xbd0bcdf9	-0.034131978
1	0x3d914f77	0.07095235
2	0x3d93bb64	0.07213476
3	0xbcc75477	-0.024332268
4	0x3c9b94d2	0.018991861
5	0x3d9285fb	0.07154461
6	0x3d8f2374	0.06989184
7	0x3d65d489	0.056110892
8	0x3d08bb00	0.033381462
9	0xbd6fbe04	-0.058530822
10	0xbd8a488f	-0.06752121
11	0x3d2f7c8c	0.042843387
12	0x3d9aa513	0.07551017
13	0x3b90d0f0	0.0044194385
14	0xbcabbcf8	-0.02096413
15	0x3d57cf41	0.052687887
16	0x3aec0472	0.0018006696
17	0x3d43204b	0.04763822
18	0xbd4f82be	-0.050661795
19	0x3d22ddc2	0.039762266
20	0x3d579fd7	0.05264267
21	0x3d7c2ed5	0.0615681
22	0xbda41a79	-0.08012862
23	0xbd6c9f11	-0.057768885
24	0x3cc2212d	0.02369746
25	0x3d712288	0.058870822
26	0x3d32f02d	0.04368608
27	0xbcb195ab	-0.021677813
28	0x3c4ca036	0.012489369
29	0x3d2faeec	0.042891428
30	0xbcd43726	-0.025905203
31	0x3d104331	0.03522033
32	0x3be738c1	0.007056326
33	0x3da78f22	0.08181597
34	0x3da16f95	0.07882611
35	0x3d92656b	0.0714825
36	0xbbc0666d	-0.005871585
37	0x3d893db4	0.06701222
38	0xbd00fcc3	-0.031491052
39	0x3d6b009a	0.05737362
40	0x3da6f79c	0.081526965
41	0x3da40789	0.0800925
42	0xbc2d77fe	-0.01058769
43	0x3bcdae80	0.0062769055
44	0xbdb7404a	-0.08947809
45	0x3d718142	0.05896116
46	0x3c10dc1c	0.008841541
47	0x3d3eb167	0.046555903
48	0x3d0f8617	0.035039987
49	0x3d108c26	0.035289906
50	0x3c7612c0	0.015019119
51	0xbd37d07c	-0.04487656
52	0xbd9c0d1f	-0.0761969
53	0xbd4318b9	-0.047631
54	0xbc41a2bd	-0.011818585
55	0xbd951864	-0.07280043
56	0xbbb58e8b	-0.005540674
57	0xbda5c2e5	-0.08093814
58	0xbd61afb8	-0.05509922
59	0xbcb5b70a	-0.022182006
60	0xbc0aa006	-0.008461004
61	0x3d43021a	0.047609426
62	0x3d27d1ed	0.040971685
63	0x3c059ee4	0.008155558
64	0x3bd9f925	0.006652015
65	0xbd48e4f7	-0.049046483
66	0xbc1827f1	-0.0092868665
67	0x3d69bf6f	0.05706733
68	0xbdb77654	-0.08958116
69	0x3d678194	0.05652006
70	0x3db57511	0.08860219
71	0x3d93efe4	0.0722349
72	0x3ce1563c	0.02750694
73	0x3d28d749	0.041220937
74	0xbce5ea5d	-0.028065855
75	0x3c992854	0.018695988
76	0x3d578fca	0.052627362
77	0x3da6ebdd	0.08150456
78	0xbd3f58ac	-0.046715423
79	0x3d920ae7	0.07130986
80	0x3c761c9b	0.0150214685
81	0xbc7470fb	-0.014919515
82	0xbd9a9b52	-0.07549156
83	0x3c450e28	0.012027301
84	0xbd12e8fd	-0.035866726
85	0xbd8c92d6	-0.06863944
86	0xbd9ce645	-0.07661108
87	0x3dafb6f2	0.08579816
88	0x3d981500	0.074258804
89	0xbdad968e	-0.08475982
90	0xbd27e9b3	-0.040994357
91	0xbd2818a3	-0.04103912
92	0xbd973c7d	-0.07384584
93	0xbcef210b	-0.02919056
94	0xbd058279	-0.03259513
95	0x3da750ba	0.08169694
96	0xbd251a34	-0.040308192
97	0xbc9ced07	-0.019155992
98	0xbd1138b9	-0.035454486
99	0x3d82b9c2	0.06383087
100	0xbc6f1a4b	-0.014593671
101	0x3dadd064	0.08487013
102	0x3c44bde7	0.012008167
103	0x3d892cad	0.06697974
104	0xba758e9a	-0.00093672576
105	0xbd552a2b	-0.052042168
106	0xbd857392	-0.06516184
107	0x3d6899d1	0.056787316
108	0x3d839947	0.0642572
109	0xbd29b997	-0.041436758
110	0xbc70a01c	-0.014686611
111	0x3cd087d2	0.02545539
112	0x3dc0643a	0.09394117
113	0x3cd99302	0.026559357
114	0x3d89a380	0.06720638
115	0x3d8007c7	0.062514834
116	0xbc8a67fd	-0.016895289
117	0xbaa74e0b	-0.0012764347
118	0xba8e7d7f	-0.0010871141
119	0x3bfd81e4	0.0077364314
120	0x3d0b0433	0.03393955
121	0xbca18193	-0.019715106
122	0xbcbd1861	-0.023082914
123	0x3d414512	0.04718501
124	0xbb208dbc	-0.0024498543
125	0xbd517355	-0.05113538
126	0x3d81186a	0.06303485
127	0xbd3ad929	-0.045617256

actor.linear3.weight f4 [128, 128]
0	0x3d697fdd	0.057006706
1	0x3ccf354f	0.025293974
2	0x3d9993a8	0.07498866
3	0x3d2ec8f8	0.042672127
4	0x3c811765	0.015758226
5	0xbd2e2d22	-0.04252351
6	0xbbdf8cf2	-0.006822222
7	0xbd27ed2d	-0.040997673
8	0x3db5d1b4	0.08877888
9	0xbd1499d5	-0.03627952
10	0xbd3df8be	-0.046379797
11	0xbd58f7a6	-0.05297055
12	0x3d06daf2	0.032923646
13	0x3d9cfb07	0.07665067
14	0x3d103a6e	0.035211973
15	0x3d7495f1	0.059713308
16	0x3d375710	0.044760764
17	0x3d844ef8	0.064603746
18	0x3d280cda	0.04102788
19	0x3d93bcfd	0.07213781
20	0x3c7cf110	0.015438333
21	0xbda29cb5	-0.07940046
22	0x3d369629	0.044576798
23	0x3cec3ba4	0.028837033
24	0x3d026d20	0.03184235
25	0x3bb41d6f	0.005496673
26	0x3ce664e9	0.02812429
27	0xbd052617	-0.03250703
28	0xbd5d7708	-0.054068595
29	0xbd63094c	-0.055428788
30	0xbd0a52c0	-0.033770323
31	0xbbf7fe12	-0.0075681293
32	0x3da42763	0.08015325
33	0x3d9b4622	0.07581736
34	0x3cc5e3e9	0.024156528
35	0x3dad62f3	0.08466139
36	0x3db037c3	0.08604386
37	0x3c8b994e	0.017040875
38	0xbd4c74eb	-0.04991619
39	0xbd605f60	-0.054778457
40	0xbd831255	-0.06399981
41	0xbdae2531	-0.085031874
42	0x3c4b1c2e	0.012396855
43	0x3d9b0ef2	0.0757121
44	0x3d6efabf	0.0583446
45	0xbcc7b893	-0.024380004
46	0x3d5348dd	0.05158316
47	0xbc55b3ba	-0.013043338
48	0xbd193b4a	-0.037410058
49	0x3d5e57e6	0.054283045
50	0x3d70ee1e	0.058820836
51	0x3d43d86b	0.047813814
52	0x3dae9b79	0.08525748
53	0xbbea8333	-0.0071567534
54	0xbaefb81c	-0.0018289122
55	0xbcd4f499	-0.02599554
56	0xbd95c66b	-0.07313236
57	0xbcd8cb06	-0.026463997
58	0xbd709c9e	-0.05874311
59	0xbd3ec8ae	-0.0465781
60	0xbd817587	-0.06321245
61	0x3da73c7e	0.08165835
62	0x3d4981da	0.0491961
63	0x3d2e9905	0.0426264
64	0x3d4d18f9	0.050072644
65	0xbd213f38	-0.03936693
66	0x3d558e19	0.052137468
67	0xbc1e4cfb	-0.009661908
68	0xbb611f3c	-0.0034350893
69	0x3d6fd041	0.058548216
70	0xbd95e52b	-0.07319101
71	0x3dad5c95	0.08464924
72	0x3d17d40a	0.03706745
73	0x3d96e20d	0.073673345
74	0x3da4aafc	0.08040425
75	0xbd439375	-0.047748048
76	0x3d4054ec	0.046955988
77	0xbd662910	-0.056191504
78	0xbdb3761a	-0.087627605
79	0xbd370053	-0.044678044
80	0x3d0c274d	0.034217168
81	0xbbffdde3	-0.0078084334
82	0x3dbe30f9	0.092866845
83	0xbccf5e1d	-0.025313431
84	0xbce3767e	-0.027766462
85	0x3da19cf2	0.07891263
86	0xbc45c32c	-0.012070458
87	0xbc111a5b	-0.008856381
88	0xbd3447f0	-0.044013917
89	0xbd2fb619	-0.04289827
90	0xbd3072b3	-0.043078136
91	0x3c38542d	0.011250538
92	0xbc315d10	-0.0108254105
93	0xbd951c2c	-0.07280764
94	0x3cd53b56	0.02602927
95	0x3d2f3b2b	0.042781036
96	0xbce55bff	-0.027997969
97	0xbd418493	-0.047245573
98	0x3ce6c74e	0.028171208
99	0x3d130bd5	0.035899956
100	0x3d17c6be	0.03705477
101	0x3c20f585	0.009824161
102	0xbd9cd872	-0.07658471
103	0xbd51a401	-0.051181797
104	0x3d64b627	0.055837777
105	0xbd5c5a6a	-0.053797163
106	0xbd809c57	-0.062798195
107	0xbcab0d19	-0.020880269
108	0xbd35dde0	-0.04440105
109	0xbc210c74	-0.009829629
110	0xbc6f06cb	-0.014589022
111	0xbd520cf7	-0.051281895
112	0xbce81da3	-0.028334444
113	0x3d9e21ff	0.07721328
114	0x3d29aa6a	0.041422285
115	0x3d9d8bc8	0.07692677
116	0x3d6d9001	0.05799866
117	0x3d3bc1c0	0.04583907
118	0xbd367b42	-0.04455114
119	0x3cfd5330	0.030923456
120	0x3da0499f	0.07826542
121	0xbd11a5e6	-0.035558604
122	0x3d325ed1	0.043547455
123	0x3d85d3d7	0.06534546
124	0xbd9d669d	-0.076855876
125	0xbd9f3aa3	-0.07774856
126	0x3c5ca317	0.013466618
127	0xbd965adb	-0.07341548
128	0xbd8223ce	-0.063544855
129	0x3d23b256	0.039964996
130	0xbdb27d17	-0.08715265
131	0x3b82dcb5	0.0039935955
132	0xbdb290e7	-0.08719044
133	0xbd8d8b19	-0.069112964
134	0xbcbdac94	-0.02315358
135	0xbd826608	-0.06367117
136	0x3c107c43	0.008818689
137	0xbd8dc404	-0.06922153
138	0x3d8ecdb3	0.06972828
139	0xbdab9ef5	-0.08379928
140	0x3c817747	0.015803946
141	0xbd3ee6a9	-0.046606693
142	0xbd1dde92	-0.038542338
143	0x3d3a60bb	0.045502406
144	0xb8b5cb45	-8.6686145e-05
145	0xbd854781	-0.06507779
146	0x3d2d631b	0.042330842
147	0xbce76f16	-0.028251212
148	0x3d88f62d	0.06687579
149	0xbd62c7a3	-0.05536617
150	0x3da2bf29	0.07946617
151	0x3cedb019	0.029014634
152	0xbc9b4db0	-0.018957943
153	0x3c8e776d	0.017390931
154	0x3d185392	0.037189074
155	0x3c4c4787	0.012468225
156	0x3d9f5f9e	0.077819094
157	0xbda1fde9	-0.07909758
158	0x3c1b404d	0.00947578
159	0xbcfd6509	-0.030931966
160	0x3d96ae60	0.07357478
161	0x3ba8ac33	0.005147481
162	0xbd953392	-0.07285227
163	0x3d6639d2	0.056207485
164	0xbd3b11ba	-0.045671202
165	0x3c0cf309	0.008602866
166	0x3c2e479f	0.010637193
167	0x3ad4a11e	0.0016222333
168	0xbd3f1961	-0.046655063
169	0xbc031c70	-0.0080023855
170	0x3c9e48d9	0.019321846
171	0x3d925a93	0.07146182
172	0xbc4d5bc7	-0.012534088
173	0x3c383278	0.011242501
174	0x3cfd1bd2	0.030897055
175	0xbb3b9224	-0.0028621042
176	0xbdb6d3b5	-0.08927099
177	0xbdb0af4d	-0.08627186
178	0x3da72254	0.081608444
179	0x3be91f17	0.007114302
180	0xbb8c77c2	-0.004286737
181	0x3d22022b	0.03955285
182	0x3da5b82e	0.0809177
183	0xbb63a04e	-0.0034733
184	0x3d97009b	0.07373162
185	0xbbb4b89b	-0.0055151707
186	0xbd850308	-0.06494719
187	0x3d4771c2	0.048692472
188	0x3d9a5323	0.07535388
189	0xbda05442	-0.07828571
190	0x3d2df62e	0.042471103
191	0x3db2ce08	0.087307036
192	0x3d0e35e2	0.034719355
193	0xbd8ade8d	-0.067807294
194	0x3d2ae872	0.041725583
195	0x3cab3b4a	0.020902295
196	0xbd21f378	-0.03953883
197	0xbd621a5b	-0.055200916
198	0xbd7c4c0e	-0.06159597
199	0xbd862554	-0.065500885
200	0x3c314528	0.010819711
201	0x3d9a0333	0.075201415
202	0x3da40277	0.08008283
203	0x3db1f797	0.08689802
204	0xbda83e21	-0.08214975
205	0x3ca8e5c0	0.020617366
206	0xbd9d65ef	-0.07685458
207	0xbb643c9b	-0.0034826163
208	0x3d8e7b06	0.069570586
209	0xbda938ad	-0.08262763
210	0x3cca3e01	0.024687769
211	0x3cbfff3c	0.023437135
212	0xbd7db60c	-0.06194119
213	0xbd4b7fd9	-0.049682472
214	0x3ce4e626	0.027941775
215	0x3c28cde3	0.0103029935
216	0xbd35a361	-0.044345263
217	0x3d588e45	0.052870054
218	0xbb017e1c	-0.0019759005
219	0x3cefbe78	0.029265627
220	0xbda1689b	-0.0788128
221	0x3c6ed543	0.014577213
222	0xbbea2bb5	-0.0071463236
223	0xbb7285a4	-0.0037005926
224	0x3db98106	0.090578124
225	0x3cdc5897	0.026897712
226	0xbd8cf736	-0.06883089
227	0x3d8c1f4c	0.06841907
228	0x3d81714c	0.06320438
229	0xbd5380e8	-0.051636606
230	0xbc9e7a53	-0.019345438
231	0xbcf6c150	-0.030121475
232	0x3c6ef06a	0.014583686
233	0xbd631275	-0.055437524
234	0x3da8f499	0.08249778
235	0x3db56caa	0.08858617
236	0xbd4be739	-0.049781058
237	0x3d151019	0.036392305
238	0xbd996b81	-0.07491208
239	0x3d30105e	0.04298436
240	0x3ce5dd7c	0.028059714
241	0xbc832033	-0.016006565
242	0xbc26c33f	-0.010178386
243	0xbc85d7dd	-0.016338283
244	0x3d82b6e1	0.06382538
245	0xbdafe6f3	-0.08588972
246	0xbd9c5f1a	-0.07635327
247	0x3b0a5ba2	0.0021111746
248	0x3d5115e1	0.051046256
249	0xbdb251b2	-0.087069884
250	0xbd834848	-0.06410271
251	0x3c4b6cc2	0.012416067
252	0x3cbc023d	0.022950286
253	0x3cb6a0bd	0.022293443
254	0x3cd88ab6	0.02643333
255	0xbbc8a740	-0.0061234534

actor.linear3.bias f4 [128]
0	0x3d2c1be9	0.042018805
1	0x3d8950f9	0.067048974
2	0x3dbcd398	0.09220046
3	0xbd768ac6	-0.06019094
4	0xbd8987b6	-0.06715338
5	0xbd9a1875	-0.07524196
6	0x3cda3c63	0.026640123
7	0x3c8588c9	0.016300576
8	0x3d8e186a	0.0693825
9	0x3d32dd84	0.043668285
10	0x3cc16f27	0.023612572
11	0xbd117752	-0.035514183
12	0x3c985391	0.018594535
13	0x3bac94fc	0.0052667838
14	0x3d65d6b7	0.05611297
15	0xbd2cbec6	-0.042174123
16	0xbd8eeb20	-0.0697844
17	0x3d9bef28	0.07613975
18	0xbd938de6	-0.07204799
19	0x3dbc17dc	0.09184238
20	0x3d6a4dff	0.05720329
21	0x3cc4c052	0.024017487
22	0x3b1e0dc1	0.0024117085
23	0x3d3f4a16	0.046701513
24	0x3c0fb35a	0.008770788
25	0x3ced1e14	0.028945006
26	0xbd323acc	-0.043513104
27	0x3d85e1d5	0.06537215
28	0x3d173b4d	0.036921788
29	0xbc8ed065	-0.017433355
30	0xbc9fce03	-0.019507414
31	0xbd3f260f	-0.046667155
32	0xbce8cdef	-0.02841851
33	0xbcf7a577	-0.030230267
34	0x3d1e4151	0.03863651
35	0xbc69e8ca	-0.014276693
36	0x3d87cadf	0.066304915
37	0x3d601c77	0.054714646
38	0x3d7d0478	0.06177184
39	0x3d9ca27e	0.076481804
40	0x3d4af6cb	0.049551766
41	0x3c90f19a	0.01769333
42	0x3d5f3cad	0.054501224
43	0x3db049b1	0.086078055
44	0x3d773667	0.060354616
45	0xbd135abf	-0.035975214
46	0xbcfbd9cf	-0.030743508
47	0xbc7326b5	-0.014840771
48	0xbbb9ae22	-0.00566651
49	0xbc37c45c	-0.011216249
50	0x3d30e61a	0.043188192
51	0x3b30f0d5	0.0026999016
52	0x3c6966ad	0.014245671
53	0x3d9c9aaf	0.07646691
54	0xbc580b8d	-0.013186348
55	0x3dacf82e	0.08445774
56	0xbd0b9d9d	-0.03408586
57	0xbd848834	-0.06471291
58	0xbd78a4c8	-0.060704023
59	0x3d8e863d	0.06959198
60	0x3c8e1e17	0.017348332
61	0x3d82a8f8	0.063798845
62	0x3c62e499	0.013848447
63	0xbd2ce282	-0.042208202
64	0x3d9e3067	0.07724076
65	0x3d7ce922	0.06174577
66	0x3d73eeda	0.05955396
67	0x3dae6e98	0.08517188
68	0xbca14148	-0.019684449
69	0x3b6d3860	0.0036196932
70	0x3c061079	0.008182638
71	0x3d8f8847	0.07008415
72	0x3cd5e02e	0.026107874
73	0xbcdab0ea	-0.026695687
74	0x3c0567d5	0.008142431
75	0x3dbb26aa	0.09138234
76	0xbcf0e93e	-0.029408094
77	0xbd98a8b0	-0.074540496
78	0xbbfe1b4c	-0.007754719
79	0x3cb12a91	0.021626743
80	0x3d91842b	0.07105287
81	0xbcc7135d	-0.024301225
82	0xbd15fb82	-0.03661681
83	0xbda239ec	-0.07921204
84	0xbd520d51	-0.05128223
85	0xbd2cc4db	-0.042179924
86	0x3d99d851	0.07511962
87	0x3c0c4f6d	0.008563858
88	0xbd700ad0	-0.05860406
89	0x3d961663	0.07328489
90	0x3d7b9998	0.061425775
91	0xbd474f77	-0.048659768
92	0x3d9340f5	0.07190124
93	0x3d597cb4	0.05309744
94	0x3d81d2b2	0.06339015
95	0x3da8bea8	0.0823949
96	0xbd585746	-0.052817605
97	0xbd15917e	-0.036515705
98	0xbd1b2b22	-0.03788293
99	0xbc994a0f	-0.018712072
100	0x3d696e82	0.056990154
101	0xbc831de1	-0.016005458
102	0x3db62229	0.08893234
103	0x3be5c20b	0.007011657
104	0x3da48ba8	0.0803445
105	0xbd37d3e4	-0.04487981
106	0xbd8801b5	-0.066409506
107	0xbcc822e7	-0.024430705
108	0xbca8f929	-0.020626621
109	0x3d839661	0.06425167
110	0xbd4abc8e	-0.049496226
111	0xbd0cbda2	-0.034360535
112	0x3b841ec9	0.00403199
113	0x3c3a43d1	0.011368708
114	0xbdbceb4a	-0.09224565
115	0xbda588fc	-0.08082768
116	0x3ce0865c	0.027407818
117	0xbd431742	-0.047629602
118	0xbd77c4c0	-0.06049037
119	0xbca7928d	-0.020455623
120	0x3d2db554	0.042409256
121	0xbd4906ad	-0.049078632
122	0xbd2d8795	-0.04236563
123	0x3dbbc59f	0.091685526
124	0x3d935fd2	0.07196011
125	0xbd22bc96	-0.03973063
126	0x3d02d63a	0.031942584
127	0x39f6ff34	0.00047110918

actor.linear4.weight f4 [9, 128]
0	0xbd5e9785	-0.05434372
1	0x3dab6eee	0.083707675
2	0x3d7da52d	0.061925102
3	0x3ceb1df1	0.0287008
4	0x3d8103b4	0.062995344
5	0xbd47cd85	-0.048779983
6	0xbdae12b6	-0.084996626
7	0xbd71c1e5	-0.059022803
8	0xbd8e7d4b	-0.069574915
9	0xbd99c9b9	-0.07509179
10	0x3d792bb3	0.06083269
11	0x3c63bfb4	0.013900686
12	0x3d3bdaa9	0.045862827
13	0xbd7c7cdb	-0.06164251
14	0xbd6a4cd5	-0.05720218
15	0x3d24b340	0.04021001
16	0xbd43776a	-0.047721304
17	0x3d5ad356	0.053424202
18	0x3da0d83c	0.078537434
19	0x3d849110	0.06472981
20	0xbd8aa240	-0.06769228
21	0xbba5ea89	-0.005063359
22	0xbda55a9b	-0.08073922
23	0x3da9205d	0.08258126
24	0xbd9c9a8c	-0.07646665
25	0x3d680678	0.056646794
26	0x3d7434bc	0.059620604
27	0xbd70b2db	-0.05876432
28	0xbd7f853a	-0.062382914
29	0x3d3192d5	0.04335292
30	0x3db05ed8	0.0861184
31	0xbc65820f	-0.014008059
32	0x3d418989	0.047250304
33	0x3d45db64	0.04830493
34	0x3d8c30a0	0.06845212
35	0xbd52087e	-0.05127763
36	0x3d4ad718	0.049521536
37	0x3a75b215	0.00093725446
38	0xbd9fbee5	-0.07800082
39	0x3d3cdbeb	0.046108168
40	0xbc5e60cd	-0.013572884
41	0xbce73e9a	-0.028228093
42	0x3da9b456	0.082863495
43	0x3d3b5027	0.045730736
44	0x3db5ed3e	0.08883141
45	0xbd6d71af	-0.057969745
46	0xbcdfff85	-0.02734352
47	0x3d806056	0.062683746
48	0x3d6709bd	0.05640577
49	0x3d9c2c46	0.07625632
50	0xbceabe55	-0.02865521
51	0xbcc1532a	-0.023599226
52	0x3cc782c3	0.024354344
53	0x3cea40e1	0.02859539
54	0xbb5c8f0a	-0.0033654594
55	0x3d6592b4	0.05604811
56	0xbd4a84ac	-0.049442932
57	0xbd0a3cee	-0.033749513
58	0x3d328198	0.04358062
59	0x3bb0fea3	0.005401449
60	0xbd179d7d	-0.037015427
61	0x3d62df4f	0.055388745
62	0xbcc4229d	-0.023942286
63	0xbc33048f	-0.01092638
64	0xbdaa8956	-0.08326976
65	0xbd34cba9	-0.044139538
66	0x3b92252d	0.004459998
67	0x3d121c5b	0.035671573
68	0xbbd85410	-0.006601818
69	0x3db2c674	0.08729258
70	0x3ca3db8c	0.020002149
71	0x3c372fba	0.0111808125
72	0x3d32adbd	0.04362272
73	0xbd0f0132	-0.03491325
74	0xbd3d9c81	-0.046291832
75	0x3d9b4eaa	0.07583363
76	0xbcaa6abd	-0.02080285
77	0x3d89be2c	0.067257255
78	0xbc2909e8	-0.010317303
79	0xbb7478ee	-0.0037303525
80	0x3d965030	0.07339513
81	0xbd720af0	-0.059092462
82	0x3d7b46e6	0.06134691
83	0x3d7abe22	0.06121648
84	0x3d0df003	0.03465272
85	0x3db3be49	0.087765284
86	0xbc2dc9c8	-0.01060719
87	0x3d9f494f	0.077776544
88	0x3c8e6091	0.01738003
89	0xbda4fd1f	-0.080560915
90	0x3d94bddf	0.072627775
91	0xbc8dc75c	-0.017306976
92	0xbd91a0ae	-0.07110725
93	0xbd8f0088	-0.06982523
94	0xbb86fc41	-0.0041194265
95	0xbd781e9c	-0.060576066
96	0x3c995746	0.018718373
97	0xbd07e212	-0.03317458
98	0xbd50ecb1	-0.051006977
99	0x3db4a5e7	0.08820706
100	0xbd27d8b5	-0.040978152
101	0xbd1f7fe2	-0.038940318
102	0x3c029ab4	0.007971454
103	0x3bf003ff	0.007324695
104	0xbbdfc9de	-0.0068294844
105	0xbb9f17cc	-0.0048551317
106	0x3d4f1fca	0.050567426
107	0xbd056b7b	-0.032573204
108	0xbc345cbd	-0.011008439
109	0xbd8c0901	-0.06837655
110	0xbd916104	-0.070985824
111	0x3d745a21	0.059656266
112	0xbbe91420	-0.007112995
113	0x3c6364a9	0.01387898
114	0x3cf8dc14	0.030378379
115	0xbdb6e794	-0.08930889
116	0xbda9df3a	-0.0829453
117	0x3d8e938a	0.069617346
118	0xbbc3ad46	-0.0059715835
119	0xbc73d475	-0.014882197
120	0x3c9aed08	0.018911853
121	0x3bf59ee7	0.0074957493
122	0x3c291d1e	0.0103218835
123	0xbd86bfab	-0.065795265
124	0x3dad9df9	0.084773965
125	0x3d485ec5	0.048918504
126	0x3da2cd02	0.079492584
127	0xbcec45bd	-0.028841848
128	0xbd4e2799	-0.050330732
129	0x3ceecf2f	0.029151527
130	0x3ccacd4a	0.024756093
131	0x3c47aa01	0.012186528
132	0x3d4e82af	0.0504176
133	0xbd8a7e7c	-0.06762406
134	0x3d09686d	0.033546854
135	0x3d05476c	0.032538816
136	0x3db4e2c2	0.08832313
137	0x3dafcf0d	0.08584414
138	0x3d665dff	0.056241985
139	0x3d4453b1	0.047931377
140	0xbd812a57	-0.06306904
141	0xbd86c1b5	-0.065799154
142	0xbd7105f8	-0.058843583
143	0xbd9febb0	-0.07808626
144	0xbd2b1048	-0.041763574
145	0x3d9b9dff	0.07598495
146	0xbceca65f	-0.028887926
147	0x3d92cf1b	0.071684085
148	0xbc8a3d18	-0.016874835
149	0xbd14ac53	-0.036297154
150	0x3b9b03e5	0.004730689
151	0x3d5279dd	0.05138575
152	0xbd3b28fc	-0.045693383
153	0x3db964fe	0.09052466
154	0xbd9edd93	-0.07757106
155	0x3d87524b	0.06607493
156	0x3d6824ab	0.056675594
157	0xbd5227af	-0.051307376
158	0x3c4099ae	0.01175539
159	0xbd5e36c9	-0.054251466
160	0xbcc4012d	-0.023926342
161	0xbdc88142	-0.09790279
162	0xbd8c05dd	-0.06837056
163	0x3d8920ec	0.066957325
164	0x3cc713b7	0.024301393
165	0x3c98182e	0.018566217
166	0x3d802cda	0.06258555
167	0x3d6f34ad	0.058399845
168	0x3d8abb44	0.06773999
169	0x3c38730a	0.011257896
170	0xbd95c5be	-0.07313107
171	0x3ca6a6b6	0.020343166
172	0x3daa4da7	0.08315592
173	0xbd72141c	-0.05910121
174	0xbdce1ccb	-0.100640856
175	0xbd67c1dc	-0.056581363
176	0xbd8b3994	-0.067980915
177	0xbdb32440	-0.087471485
178	0x3d4f5b87	0.050624397
179	0xbd20e449	-0.03928021
180	0x3d8f7050	0.07003844
181	0xbd3c1809	-0.04592136
182	0x3d5ca17b	0.053864937
183	0x3da1a8ac	0.078935
184	0xbb8de06f	-0.004329733
185	0xbda12c89	-0.078698225
186	0xbd0a426c	-0.03375475
187	0xbc1e3d0d	-0.00965811
188	0x3d02ec07	0.031963374
189	0xbd30eedc	-0.043196544
190	0x3bba00b4	0.0056763534
191	0x3b48bf7d	0.0030631714
192	0x3dc1ceca	0.0946327
193	0xbd2d56af	-0.042318996
194	0x3bd39f70	0.0064582154
195	0xbda00f28	-0.07815391
196	0x3c40ba13	0.011763114
197	0xbd7a1a08	-0.06105998
198	0xbda66918	-0.08125514
199	0xbd98f4c0	-0.07468557
200	0xbcb04472	-0.021517012
201	0x3d54f7fc	0.05199431
202	0xbd8c59a9	-0.06853039
203	0xbc4a1287	-0.012333519
204	0x3cbcab0b	0.023030778
205	0xbd8af3fb	-0.06784817
206	0xbd212eed	-0.039351393
207	0xbd189f06	-0.03726103
208	0x3caa551d	0.020792538
209	0x3c6e72f8	0.014553778
210	0xbd226439	-0.03964636
211	0xbd988d8e	-0.074488744
212	0x3d9c1b68	0.07622415
213	0x398f7eb8	0.00027369498
214	0xbd5932e6	-0.053027056
215	0x3d283dc4	0.04107453
216	0xbda4b61c	-0.08042547
217	0xbd1716a0	-0.03688681
218	0x3d8a2041	0.06744433
219	0xbc8761f7	-0.016526205
220	0x3ca73808	0.02041246
221	0x3ce592d1	0.02802411
222	0x3d78bc09	0.0607262
223	0x3da024d6	0.07819526
224	0x3c7b60ef	0.015342935
225	0xbd8878f5	-0.06663696
226	0xbd8bb386	-0.06821351
227	0xbcea120a	-0.028573055
228	0x3caa9d0b	0.020826837
229	0x3b62a832	0.0034585115
230	0x3d915be8	0.07097608
231	0x3da9a8ab	0.08284124
232	0x3dc3a137	0.09552234
233	0x3b8fe163	0.004390882
234	0xbda5fc8c	-0.0810481
235	0xbd178a18	-0.03699693
236	0xbd41c803	-0.047309887
237	0xbcaa39bb	-0.020779481
238	0xbd5636b2	-0.052298255
239	0xbd910ad5	-0.07082144
240	0x3c30e2f6	0.010796299
241	0xbbbb1f6a	-0.005710532
242	0xbda16378	-0.078803
243	0xbda29842	-0.07939197
244	0xbce2b223	-0.027672833
245	0xbd87f215	-0.0663797
246	0xbb9c6548	-0.004772816
247	0xbda02586	-0.07819657
248	0x3d733c83	0.05938388
249	0x3d0d86c5	0.034552354
250	0xbcd55c92	-0.026045118
251	0x3d88cbbf	0.066794865
252	0x3adf4c87	0.0017036357
253	0x3db1d8d0	0.08683932
254	0xbcd06a5b	-0.02544134
255	0x3b1508ff	0.0022740958

actor.linear4.bias f4 [9]
0	0x3d81995b	0.06328078
1	0xbcbb057a	-0.02282976
2	0x3d9cb8b4	0.07652417
3	0xbd2b88c2	-0.04187847
4	0xbcef8c35	-0.02924166
5	0xbd9f02a4	-0.077641755
6	0xbc339344	-0.010960404
7	0xbd2bb146	-0.041917108
8	0xbda434aa	-0.080178574

critic.linear1.weight f4 [128, 120]
0	0x3d7f62db	0.062350135
1	0x3c8a879f	0.016910372
2	0xbd9d1cc1	-0.076715
3	0xbd5f961d	-0.05458652
4	0x3d9d67eb	0.076858364
5	0xbccbc219	-0.024872826
6	0xbda30e3d	-0.079617
7	0xbd74468b	-0.059637588
8	0xbd83bbb1	-0.06432284
9	0xbd8fb0e8	-0.07016164
10	0x3cbc7f3c	0.023009889
11	0x3cef21e1	0.02919096
12	0xbd888c67	-0.066674046
13	0xbd5c425e	-0.05377423
14	0xbdb4c564	-0.08826712
15	0xbdced019	-0.10098285
16	0xbc443d6b	-0.011977534
17	0xbd5eb857	-0.05437502
18	0x3d5304e8	0.05151835
19	0x3c4f01cf	0.012634709
20	0xbd2da62a	-0.042394795
21	0xbd910381	-0.070807464
22	0xbdaf520e	-0.085605726
23	0x3d824d5d	0.06362412
24	0xbc5937de	-0.013257949
25	0xbc9aba9e	-0.018887814
26	0xbc95d9aa	-0.018292267
27	0x3d37c51c	0.044865713
28	0xbc7ef3f3	-0.015561092
29	0x3d6e2731	0.058142845
30	0x3c59a7b8	0.013284616
31	0xbda5a3ac	-0.080878586
32	0x3d5869f7	0.05283543
33	0xbc97f9a9	-0.018551664
34	0x3dda767c	0.1066713
35	0xbdb2ef4b	-0.08737048
36	0x3d05eaf4	0.032694772
37	0x3da304a7	0.07959872
38	0x3d874d86	0.06606583
39	0x3c74dbe4	0.014945004
40	0xbce3369e	-0.027736004
41	0x3d94534d	0.07242451
42	0xbb86c882	-0.004113258
43	0xbb822bce	-0.003972507
44	0xba866fe2	-0.0010256732
45	0xbd93fad5	-0.07225577
46	0xbca5bc7b	-0.020231476
47	0xbc2004de	-0.009766785
48	0x3d342524	0.043980733
49	0x3d59982b	0.053123634
50	0xbbf390cb	-0.007433032
51	0x3d71d4ba	0.059040762
52	0x3ce2d00f	0.0276871
53	0x3cbe1761	0.023204507
54	0xbb850a48	-0.0040600635
55	0xbd893277	-0.066990785
56	0xba32fc90	-0.0006827796
57	0xbd826eaa	-0.06368764
58	0xbd50146f	-0.050800737
59	0xbd0935c4	-0.03349854
60	0xbd11ebca	-0.035625257
61	0xbd9ded7f	-0.077113144
62	0xbc9fe4aa	-0.019518215
63	0x3cc40a2a	0.023930628
64	0xbc641688	-0.0139213875
65	0x3c15342e	0.009106679
66	0xbc8abfdb	-0.016937187
67	0x3c261837	0.010137609
68	0xbb552aad	-0.0032526657
69	0xbbe0df45	-0.0068625533
70	0xbd7aa1c1	-0.061189417
71	0x3dc5577b	0.09635826
72	0xbd18ca6d	-0.037302423
73	0xbbddfa7e	-0.0067742458
74	0x3d929d39	0.07158894
75	0x3c73af70	0.0148733705
76	0x3c693d3a	0.014235789
77	0x3dc10142	0.09424068
78	0x3cf72c86	0.030172598
79	0xbd7db674	-0.06194158
80	0xbd84f6a9	-0.06492359
81	0xbd6e44b1	-0.058170978
82	0x3dbcdad3	0.09221425
83	0xbca937cc	-0.020656489
84	0xbb90e42b	-0.004421731
85	0x3d6011d3	0.0547045
86	0xbd9ac901	-0.0755787
87	0xbd151f3c	-0.03640674
88	0xbd47a150	-0.048737824
89	0xbcbdc5fb	-0.023165694
90	0x3d055f7b	0.03256176
91	0x3d1c5730	0.038169086
92	0x3da8f2db	0.08249446
93	0xbd05ce2e	-0.03266733
94	0xbcd82586	-0.02638508
95	0xbd44d7c4	-0.048057333
96	0xbd62b69f	-0.055349942
97	0xbd63e8e1	-0.055642013
98	0xbd87d79a	-0.066329196
99	0xbd5f70da	-0.054550983
100	0xbc76d30f	-0.015064969
101	0xbd554e54	-0.052076653
102	0xbd39adef	-0.04533189
103	0xbd217bfb	-0.039424878
104	0x3d0925cd	0.033483315
105	0xb9c2c05f	-0.0003714589
106	0xbc8ddba0	-0.01731664
107	0x3b4b6476	0.0031035221
108	0x3ca3ce95	0.019995967
109	0xbc8ad5b1	-0.0169476
110	0x3c0e5983	0.008688333
111	0x3a2ddada	0.00066320377
112	0x3c4fff4f	0.012695148
113	0xbcc16704	-0.023608692
114	0xbd810597	-0.06299894
115	0x3de225df	0.110423796
116	0x3c9e2a95	0.019307414
117	0xbdf7bbc0	-0.12096357
118	0xbb5a990d	-0.0033355386
119	0xbd601a6d	-0.0547127
120	0x3c0a8bf4	0.008456219
121	0xbcec5e16	-0.028853457
122	0x3c8f5364	0.017495818
123	0x3d8d2c64	0.068932325
124	0xbd9bca99	-0.07607002
125	0x3d939e8c	0.07207975
126	0x3d9ef903	0.07762339
127	0x3d8b2063	0.06793287
128	0xbd26f3a2	-0.04075969
129	0xbd13a187	-0.036042716
130	0x3ac93213	0.0015350006
131	0x3da73bae	0.0816568
132	0x3c1be6c6	0.00951547
133	0xbda25fda	-0.079284385
134	0xbc1a5358	-0.009419285
135	0x3c86e89c	0.016468339
136	0x3cc357a1	0.023845496
137	0x3ca0d59b	0.019633105
138	0x3d4570ec	0.048203394
139	0xbde49e5f	-0.111630194
140	0xbd535a51	-0.051599804
141	0x3d8c5416	0.068519756
142	0xbcb7145f	-0.02234858
143	0x3d4a43e1	0.04938114
144	0x3d207c7f	0.03918123
145	0xbd81dbeb	-0.06340774
146	0xbd6bc0d6	-0.05755695
147	0x3dc43900	0.095811844
148	0x3a9312ea	0.0011220847
149	0xbcc502cf	-0.02404919
150	0xbd378a1b	-0.044809442
151	0xbd06fc2c	-0.032955334
152	0x3da0d4f3	0.07853117
153	0xbd7a2c54	-0.06107743
154	0xbd1be056	-0.03805574
155	0xbd7b1f63	-0.06130923
156	0xbc337991	-0.010954277
157	0x3d36feb5	0.0446765
158	0xbd2c5324	-0.042071477
159	0xbd3e1cb0	-0.046414077
160	0xbd6a73f0	-0.057239473
161	0x3ca5cc1f	0.020238934
162	0xbc677621	-0.014127285
163	0x3da610a4	0.08108643
164	0x3d91a7b7	0.07112067
165	0x3db25350	0.08707297
166	0xbc9e8c9d	-0.019354159
167	0xba906ae1	-0.001101818
168	0xbd6981c2	-0.057008512
169	0x3c07ed1d	0.008296278
170	0x3e011ab1	0.12607838
171	0x3d96c7f8	0.0736236
172	0x3b49bb57	0.003078183
173	0x3da43dcf	0.080196016
174	0xbd9376fa	-0.07200427
175	0xbcd72f03	-0.026267534
176	0xbbfa227c	-0.0076335054
177	0xbd9026dd	-0.070386626
178	0x3c9ac3dd	0.018892223
179	0xbda0bea7	-0.07848864
180	0xbd5d46a2	-0.05402244
181	0xbda65713	-0.08122077
182	0xbd8ea8d3	-0.069657944
183	0x3c985de1	0.018599452
184	0x3d1654bb	0.0367019
185	0x3d26979e	0.040671937
186	0x3d482c8c	0.04887061
187	0xbcf5aaea	-0.029988725
188	0xbd34452e	-0.044011287
189	0x3d4d16fe	0.050070755
190	0x3c48db87	0.012259371
191	0x3d6579d4	0.056024387
192	0xbc45a437	-0.012063078
193	0xbd656545	-0.05600478
194	0xbd949288	-0.07254511
195	0x3da10065	0.078614034
196	0x3d3d83a1	0.04626811
197	0xbd93dfd2	-0.07220425
198	0x3c98e481	0.018663647
199	0x3d219fdd	0.039459098
200	0xbd3ba941	-0.04581571
201	0x3daf64ee	0.08564173
202	0x3d6f009f	0.0583502
203	0xbd41ad17	-0.047284212
204	0xbc882fdb	-0.016624382
205	0xbd4b75cd	-0.04967289
206	0x3d695f5c	0.056975707
207	0x3dbdaaf6	0.09261124
208	0x3c96301f	0.018333493
209	0xbd99de00	-0.07513046
210	0x3a26e21a	0.0006366089
211	0x3c1add71	0.00945221
212	0xbd8271fc	-0.06369397
213	0x3dba95a7	0.09110575
214	0x3d83723a	0.06418271
215	0xbcc99aa0	-0.024609864
216	0xbb742447	-0.0037253068
217	0x3c01b70a	0.007917175
218	0xbd319412	-0.0433541
219	0xbd6961d6	-0.05697807
220	0xbd3f02e9	-0.046633635
221	0x3cee21ce	0.029068854
222	0xbd6f2844	-0.05838801
223	0x3d1f953a	0.038960673
224	0xbd9074bd	-0.07053516
225	0xbd294bf0	-0.041332185
226	0x3c54ba21	0.01298383
227	0x3d9a4060	0.0753181
228	0xbd7c3b3d	-0.06157993
229	0x3d84a46c	0.064766735
230	0x3ce7d0d4	0.02829782
231	0xbd579e28	-0.052641064
232	0xbd179222	-0.037004597
233	0x3d9d0ec2	0.076688305
234	0xbc66b46c	-0.014081102
235	0x3cd51957	0.02601306
236	0x3d2d2a16	0.042276464
237	0xbe22d7e6	-0.15902671
238	0xbc5daa63	-0.013529393
239	0xbd940f46	-0.07229476
240	0x3d93d9cd	0.072192766
241	0x3d27fc05	0.04101183
242	0x3d2a5842	0.041588075
243	0x3d0ecc4c	0.0348628
244	0x3cf09707	0.02936889
245	0xbdad6236	-0.08465998
246	0x3da9eccb	0.08297118
247	0xbdcea507	-0.1009007
248	0xbd649663	-0.055807482
249	0x3db95815	0.090500034
250	0x3d09bdd3	0.033628296
251	0x3d6a7171	0.057237092
252	0xbda32450	-0.079659104
253	0x3db721b8	0.08941978
254	0x3cc7b89f	0.024380026
255	0x3cf4fc77	0.02990554

critic.linear1.bias f4 [128]
0	0x3da40400	0.080085754
1	0xbc56991e	-0.013098029
2	0xbc9441f5	-0.018097857
3	0x3da97c73	0.0827569
4	0xbd0d96ba	-0.034567572
5	0x3da4e1d7	0.08050888
6	0xbc53a88f	-0.0129186055
7	0xbda2d07d	-0.07949922
8	0x3d7c3608	0.061574966
9	0x3cc88f8b	0.02448251
10	0xbd96bd06	-0.07360272
11	0x3da82567	0.08210259
12	0xbd71479b	-0.05890618
13	0x3b5aaad1	0.0033365975
14	0x3b723bce	0.0036961916
15	0xbd5884f5	-0.052861173
16	0xbb44b509	-0.0030015132
17	0xbd70ce94	-0.05879076
18	0x3d175c1f	0.036953088
19	0x3c6a87b8	0.014314584
20	0xbccc1cf4	-0.02491615
21	0xbd25d178	-0.040482968
22	0x3da9a191	0.082827695
23	0xbbc6648f	-0.006054468
24	0x3d862617	0.06550234
25	0x3cf9f3da	0.030511785
26	0x3d16fee2	0.03686417
27	0x3aaa6bd5	0.0013002107
28	0xbd092e65	-0.03349151
29	0xbd5e5cc6	-0.054287694
30	0xbc27c525	-0.010239874
31	0xbce62e92	-0.028098378
32	0x3bb73185	0.00559062
33	0xbd9a929d	-0.075474955
34	0x3c76a527	0.015054024
35	0x3cd7769d	0.026301676
36	0x3ca81671	0.020518513
37	0x3ca4a3eb	0.020097693
38	0x3d62371a	0.05522833
39	0x3d1aebee	0.037822656
40	0x3cd68fff	0.02619171
41	0xbc1fa6fe	-0.009744404
42	0x3cc08e63	0.023505395
43	0x3db0cb4e	0.08632527
44	0x3d9929ee	0.074787006
45	0x3dad373d	0.084578015
46	0x3d86d72a	0.06584008
47	0x3c3eab63	0.011637541
48	0x3c6c287e	0.014413951
49	0x3d92366c	0.071392864
50	0xbd5e1e32	-0.054228015
51	0xbca6cccd	-0.020361328
52	0xbb8ee5ea	-0.004360904
53	0xbd858b95	-0.06520764
54	0x3d941df7	0.07232278
55	0x3d3976c3	0.045279276
56	0xbd417dbc	-0.04723905
57	0xbbc35408	-0.005960945
58	0x3d24d65c	0.04024349
59	0x3d8ca94e	0.0686823
60	0x3d7ca997	0.06168517
61	0xbcd1e813	-0.025623357
62	0xbce73b72	-0.028226588
63	0x3d19a47f	0.03751039
64	0xbc395947	-0.011312789
65	0x3d82a5ae	0.06379257
66	0xbd26df03	-0.040740024
67	0x3dadd60c	0.08488092
68	0xbd6ce97e	-0.057839863
69	0xbc9b3daf	-0.018950311
70	0x3db9ed71	0.090784915
71	0xbda6f152	-0.08151497
72	0x3d70835d	0.058719028
73	0x3dced612	0.100994244
74	0x3d4adf5d	0.049529422
75	0x3c4c4963	0.012468669
76	0x3da034d1	0.07822574
77	0xbd59f3cd	-0.053211022
78	0xbd9f405a	-0.07775946
79	0xbd5b35db	-0.053518157
80	0x3dae873b	0.08521887
81	0xbd9a4dd6	-0.07534377
82	0x3bf6866a	0.0075233476
83	0x3d942bcd	0.07234917
84	0xbd8c9b49	-0.06865556
85	0xbd859ce1	-0.06524063
86	0xbd5cfba1	-0.05395091
87	0xbd3b80ea	-0.04577724
88	0x3d97c1e4	0.074100286
89	0x3b77261b	0.0037711922
90	0x3dce78f5	0.100816645
91	0xbd905e69	-0.07049257
92	0xbd151755	-0.036399204
93	0x3d5f0f72	0.05445809
94	0xbd8a8009	-0.06762702
95	0xbd3f1b6b	-0.046657007
96	0x3d94b4ea	0.07261069
97	0xbd97a7f7	-0.074050836
98	0x3d84e737	0.06489413
99	0x3d6581d5	0.05603202
100	0xbd3ce7cc	-0.046119496
101	0x3d94c15a	0.072634414
102	0x3d6b2498	0.057407945
103	0x3d96edd6	0.07369582
104	0x3d8b751a	0.06809445
105	0xbd894e2c	-0.06704363
106	0xbcca9897	-0.024730964
107	0x3c1ed655	0.009694655
108	0x3d903216	0.07040803
109	0x3d86423b	0.06555601
110	0xbd4918fe	-0.0490961
111	0x3cf90194	0.03039626
112	0x3d8df82d	0.069321014
113	0xbd794d39	-0.06086466
114	0xbd8a2eed	-0.06747232
115	0xbd310780	-0.043220043
116	0xbc5a4969	-0.013323166
117	0xbc243f99	-0.0100249285
118	0xbd9b68f6	-0.07588379
119	0xbd54827d	-0.051882256
120	0xbcb5e5c5	-0.02220429
121	0x3d654f8b	0.05598406
122	0xbd23314b	-0.03984193
123	0xbcafa450	-0.021440655
124	0xbd06e90d	-0.0329371
125	0xbd45e6c8	-0.048315793
126	0xbd06bcdd	-0.032894958
127	0xbd7b1644	-0.06130053
