landing_starship_raw_ckpt/ckpt_00009501.pt (torch, 909047 bytes, 15 tensors)

actor.linear1.weight f4 [128, 120]
000000 fd 41 a9 3b a8 24 df 3c 95 89 aa bd d2 2d 2a 3c
       0.005165337 0.027239159 -0.08327023 0.010386901
000010 73 1f 8f bb 07 c5 99 bd 30 76 c2 bd d1 10 52 bd
       -0.0043677627 -0.07508283 -0.09495199 -0.05128557
000020 06 90 63 3d f7 e2 90 bd b7 eb 8d 3d 50 56 89 3d
       0.055557273 -0.0707454 0.06929725 0.06705916
000030 f6 81 d6 bc 05 6d 28 3d 12 62 64 3d c2 38 03 3d
       -0.026185017 0.041119594 0.05575759 0.03203655
000040 f0 6e cd 3b ff 65 92 3c e8 80 81 3d 4d 91 64 3d
       0.0062693283 0.017870901 0.06323415 0.055802632
000050 5d d8 42 3c fe 32 b4 bd 7b 3b 92 bb 16 eb 28 3d
       0.011892405 -0.087987885 -0.004462657 0.04123982
000060 ad df f6 3c 82 cb f8 bc 34 c0 0a ba 7b d1 a0 3d
       0.030135954 -0.030370478 -0.0005292923 0.07852455
000070 9e 07 30 3d f0 c7 23 3c 67 dc 97 bd 7f b3 92 bd
       0.042976014 0.009996399 -0.07415085 -0.071631424
000080 25 55 99 3d 28 40 84 bd a0 65 2d bc 4e 2f 2c 3d
       0.07486943 -0.06457549 -0.010583311 0.0420373
000090 f8 98 73 3d 39 eb c6 3c 08 23 28 3d aa 35 04 bd
       0.059472054 0.024282085 0.041049033 -0.03227774
0000a0 50 7f 14 3d 02 21 3b 3d d9 85 cb 3c 99 45 c2 3a
       0.036254227 0.045685776 0.024844097 0.0014821767
0000b0 fc eb 97 3d 11 e1 92 bd 49 a8 21 bd 7b e0 94 bd
       0.07418057 -0.07171834 -0.03946713 -0.07269379
0000c0 44 5d 98 bd fb 95 75 bd be 2e 88 bd 59 1b 6e bd
       -0.07439664 -0.059957486 -0.0664954 -0.05813155
0000d0 96 24 d9 3c 2c 34 87 3d 37 2c 73 bd b0 3a 33 3d
       0.026506703 0.06601748 -0.05936834 0.04375714
0000e0 fd ab ad bb d3 2c 68 3d a1 20 8c 3c 48 b2 a0 bd
       -0.0053000436 0.056683373 0.017105402 -0.078465044
0000f0 bb 34 93 bd fd ea db 3c 00 b9 ca bb fb ea 83 bd
       -0.07187792 0.02684545 -0.0061866045 -0.06441303
000100 f9 32 a2 bc e1 cd 8d bd 29 c5 a1 bc 1a df 6b bd
       -0.019799696 -0.06924034 -0.019747334 -0.057585813
000110 be 0e 9c 3d 0c 79 0f 3d aa 3a 73 3d 95 68 ad bd
       0.07619999 0.03502755 0.05938212 -0.08467213
000120 de af e0 bc 4b 7c c7 3b eb 60 b2 3c da c3 39 3d
       -0.02742761 0.006087815 0.02177473 0.045352794
000130 16 f2 9a 3d b8 a0 6b bd 79 7e 2e 3d 28 29 20 bd
       0.075657055 -0.05752632 0.042601082 -0.03910175
000140 54 46 d4 3c bc 4b 50 bd cd 2a 44 bd a4 aa be 3d
       0.025912441 -0.050853476 -0.04789238 0.09309891
000150 b8 8b b2 3d 64 66 9d bc e6 94 17 bc 71 25 8c bb
       0.087180555 -0.019213863 -0.009251809 -0.0042769243
000160 11 36 89 3d a7 e7 b6 3d 1a dc 46 3c cf 45 73 3d
       0.066997655 0.08930903 0.012137437 0.059392747
000170 2a 0a 72 3c 1c c0 39 bc 9d 78 85 bd 6c 98 5d bd
       0.014772931 -0.011337306 -0.06517146 -0.05410044
000180 21 35 65 bb fe 2e 6d 3b 7a 97 92 bd df 87 16 bd
       -0.0034974294 0.003619134 -0.07157798 -0.03675067
000190 a6 8f 82 3d 37 7c 69 3d 89 73 6f bc 44 78 ad bd
       0.06375055 0.057003226 -0.014614948 -0.084702045
0001a0 6b 60 56 3d b7 cb 35 bd 41 bc 87 3d f4 73 9e bd
       0.052338045 -0.04438373 0.066277035 -0.0773696
0001b0 a5 fc 4e 3d 87 7d 13 3d 83 3c 5f 3d a0 ba 7a bd
       0.05053391 0.036008384 0.054501068 -0.061213136
0001c0 75 f0 9b bd 0b db 40 bd 1c 65 30 bd 74 5e 43 3d
       -0.07614223 -0.047083896 -0.043065175 0.0476975
0001d0 b9 87 5f 3d 20 b6 16 bc cb a1 5e bd 6f f2 b7 bd
       0.054572795 -0.009198695 -0.054353517 -0.089817874
0001e0 34 22 80 bd 11 98 4e 3d 15 cd 21 3d 48 a9 9d 3c
       -0.06256524 0.05043799 0.039502222 0.019245759
0001f0 c9 54 2b 3c 68 06 17 bd b9 0c b0 3c c9 cf a6 bd
       0.010457226 -0.036871344 0.021490442 -0.081451006
000200 3c 97 4f bd 8f 05 8f 3d 5a 37 10 bd db 92 18 bd
       -0.050681338 0.06983482 -0.035209037 -0.037249427
000210 df 6c 68 bd 33 b7 83 bd b5 17 82 bd 95 3f 52 bd
       -0.056744453 -0.06431427 -0.06352178 -0.051330168
000220 0e 1a 44 bd 5b d8 42 3b 99 de a0 bd 4c 71 86 bd
       -0.04787641 0.0029731009 -0.07854957 -0.065645784
000230 5f a6 1e bd 56 b0 ab 3c 9e fe 70 3d 63 44 ae 3d
       -0.038732883 0.020958107 0.058836572 0.085091375
000240 72 ff 62 bd 4d 74 a5 bd 71 dc c0 bd 8c bc 06 bd
       -0.055419393 -0.08078823 -0.09417046 -0.032894656
000250 c6 22 88 3d 33 b9 c3 bc 18 9c b0 bd 26 fd 30 3c
       0.066472575 -0.02389202 -0.086235225 0.010802543
000260 68 60 a2 3d cd 3b 9e 3d 2d da 5d 3d 9e de 2d bc
       0.07928544 0.0772625 0.054163147 -0.010612158
000270 8c 4a ae bd 53 7d 7c 3d 15 e9 50 bd 0a b5 3f 3d
       -0.085103124 0.061642956 -0.051003534 0.04680351
000280 5a c8 84 3c d1 8c 12 3d 56 84 46 bd ed 78 37 bd
       0.016208816 0.035778824 -0.04846605 -0.04479306
000290 3f c7 a2 bd a9 e3 61 3d 96 97 ca 3c ec f3 03 3b
       -0.079481594 0.055148754 0.024730485 0.0020134402
0002a0 64 d5 8d 3d 96 ba 78 3d f0 fa b2 bb d6 83 5c bd
       0.06925467 0.060724817 -0.005462043 -0.053836666
0002b0 3d f1 dd 3c 4d 91 85 bb c6 b9 0c bc e0 57 05 bd
       0.02709257 -0.004076159 -0.008589214 -0.032554507
0002c0 19 b4 88 3d 56 be 89 bd f0 80 33 3c 05 8d a9 3d
       0.06674976 -0.06725757 0.010956034 0.082788505
0002d0 0c 52 af 3c e8 66 88 bd 79 2a a1 3a 12 4d 5b bd
       0.021401428 -0.06660253 0.0012295983 -0.053540297
0002e0 f2 3c d2 3c 8d a0 d4 3c dd 48 45 bd 31 c0 a3 3d
       0.025663827 0.025955463 -0.04816519 0.07995642
0002f0 64 bb 9f 3d f8 04 9b bd 63 e9 a0 bd 8b 76 81 bd
       0.07799414 -0.07569307 -0.07857015 -0.063214384
000300 a5 f4 be bc a7 c4 8d 3d bb 7d 50 bb c2 38 b3 3b
       -0.023310015 0.06922274 -0.0031813222 0.0054694125
000310 5b a8 0c 3d 48 c0 91 3c 74 2b 77 bd fe e5 81 3d
       0.034340244 0.017791882 -0.060344175 0.06342696
000320 f0 e4 88 3d c1 9c 06 bd 89 ff 0e 3c e4 b9 a5 bd
       0.06684291 -0.032864336 0.0087279165 -0.080920964
000330 8c 7a 71 3d 23 10 52 bd 7f 2f f6 bb 68 4d 76 bc
       0.05895476 -0.05128492 -0.007512986 -0.0150331035
000340 cf e9 9b bd fb 53 21 bc 7d 36 b0 bd 79 b1 74 bd
       -0.07612955 -0.009846683 -0.08604143 -0.059739564
000350 e4 35 3c bd 5a c6 49 bd 94 aa 4f bc ca 4a d1 bd
       -0.04594983 -0.04926143 -0.012674946 -0.10219343
000360 7d 9f 51 3d 59 3c 98 bd 8a 05 77 3d c2 58 3f bd
       0.05117749 -0.074333854 0.060308017 -0.046715505
000370 a4 8f 04 bd 95 2e b2 3d e5 e2 ee bc e9 91 b9 bd
       -0.03236355 0.08700291 -0.029160926 -0.09061033
000380 c1 60 73 3d f3 51 00 3d 79 99 8b bd 81 f3 92 bd
       0.059418444 0.031328153 -0.06816382 -0.07175351
000390 36 91 7f bd 4c 5c 27 3d 90 7d f1 bb 60 0b c9 bd
       -0.062394343 0.040859506 -0.0073697045 -0.09816623
0003a0 ed e6 dd 3c 2e 24 1f bd 8a 9a 21 3d 2a 10 cf 3c
       0.027087653 -0.038852863 0.03945402 0.025276262
0003b0 65 b7 57 bc 15 cb ee 3b a5 83 9b 3b 5f 57 17 bd
       -0.013166283 0.007287393 0.004745918 -0.036948558
0003c0 cc 6a 0d bd a4 4b c3 3d c0 5f e9 3a d9 64 88 3b
       -0.034525678 0.09535912 0.0017805025 0.0041624126
0003d0 07 07 c0 3d b7 a3 46 3d 33 2b 92 bd 96 f8 8c bd
       0.0937634 0.048495974 -0.07137146 -0.068833515
0003e0 bc 05 12 bc b0 0d a6 bd 72 21 22 bc 8d 4f 8a bd
       -0.0089125 -0.081080794 -0.009895669 -0.06753454
0003f0 bc c5 79 3d b0 1d 19 bd bd ca 23 3c 00 84 8e bd
       0.06097959 -0.037381828 0.009997067 -0.06958771

actor.linear1.bias f4 [128]
000000 7f 2a 85 bd e8 17 42 3d 4e 49 ab bd c8 89 9f 3d
       -0.06502246 0.04738608 -0.08363591 0.077899516
000010 bd 85 c8 bd 99 dd bb bd 7d 01 da bc f5 22 6a 3c
       -0.097911336 -0.09173126 -0.026612038 0.014290561
000020 9f d4 2f bd 3b ec 2c bb 2b b5 2e 3d b3 73 f6 3c
       -0.04292738 -0.0026385922 0.042653244 0.030084467
000030 17 b8 1f 3d e7 64 5e 3c 19 21 b3 bd 4b d7 c6 bc
       0.03899392 0.013573862 -0.08746547 -0.024272582
000040 bd 6f b6 3c d2 15 86 3d de 27 95 3c 0e f5 7b 3c
       0.022270078 0.06547131 0.018207487 0.01537825
000050 d8 93 8e 3d 6e cc 36 bd 78 ef 59 3d e2 cc a0 bd
       0.06961793 -0.044628553 0.05320689 -0.07851578
000060 fd d5 80 3d 7f ac 1c 3d 00 2b d7 bb 7f ff 64 3d
       0.06290815 0.038250443 -0.0065664053 0.055907723
000070 db 8f 8b 3c 21 a9 71 bd 76 ba 9b bd 57 5b 89 bd
       0.01703637 -0.058999185 -0.07603924 -0.06706875
000080 61 28 20 bd 4a 89 a5 3d 6e 85 a2 3c 04 c8 a0 bd
       -0.03910101 0.080828264 0.019839015 -0.0785065
000090 c6 44 82 bd 90 ee 9d 3d 8d cf e6 3b aa b8 17 3d
       -0.06360774 0.07711518 0.007043785 0.037041344
0000a0 ac 78 8a 3c a9 71 95 bd 65 61 ac bd fd 9a bc 3b
       0.016903244 -0.072970696 -0.08417014 0.0057557807
0000b0 f8 eb 5c bd 09 86 14 bb fe e7 3b 3d df f2 cf bc
       -0.053935975 -0.00226629 0.045875542 -0.025384365
0000c0 b3 4a 93 3c 15 c8 44 bd 0f 01 41 3a 26 c0 3a bb
       0.017979955 -0.048042376 0.00073625235 -0.0028495877
0000d0 c9 45 bc 3d 8b c0 bf bd 5f 78 b7 bd ab 99 79 bd
       0.09192998 -0.093628965 -0.08958506 -0.060937565
0000e0 f1 04 67 bd 66 fb ae bd 39 86 b8 3c 81 ee 70 3c
       -0.056401197 -0.08544044 0.02252494 0.014705301
0000f0 c1 a9 75 bd de d1 18 bc 38 55 22 bd b8 48 c8 bd
       -0.059976343 -0.00932738 -0.039632052 -0.09779495
000100 56 99 87 3d 37 95 b7 3b 5b 46 cd bc a5 ad c1 3d
       0.066210434 0.0056025046 -0.025057962 0.09456948
000110 81 69 0b 3d 78 d8 79 3d 4a ec 99 bc 07 28 9a bd
       0.034036163 0.060997456 -0.01878943 -0.07527166
000120 27 d3 c7 bd 33 9f 5b 3c 3c 78 86 bd 08 a2 b8 3b
       -0.09757071 0.013404655 -0.06565902 0.00563455
000130 b1 88 39 bd d9 a8 79 bd b3 92 65 bd d1 3b df bd
       -0.045296375 -0.06095204 -0.056048106 -0.10900081
000140 b9 4a a5 3d 90 b5 52 bd de aa da 3c 97 07 f0 bc
       0.08070893 -0.051442683 0.026692804 -0.029300494
000150 a0 6c b1 bc 12 66 35 bd 9b 88 b4 bd ad 18 a3 3d
       -0.021658242 -0.044286795 -0.08815118 0.07963691
000160 ec 61 22 bd 9b 44 69 bd 8c 69 3e 3d 4a 84 eb bb
       -0.039644167 -0.056950193 0.046487376 -0.007187401
000170 cf d9 79 3d 75 08 dc 3c 6f 69 a5 bd 99 fd a4 bd
       0.060998734 0.026859501 -0.080767505 -0.080561824
000180 d7 25 82 3d 55 77 00 3d ef 96 14 3d 4f f4 dd bd
       0.063548736 0.031363804 0.036276754 -0.10837614
000190 ee b9 ab bd 2c c1 f7 3b f4 54 67 3d f8 a8 5e bd
       -0.08385073 0.0075608697 0.056477502 -0.05436036
0001a0 29 58 6e bd cf 35 49 bd d8 e1 86 3d 8e 5f 16 bd
       -0.058189545 -0.04912358 0.06586045 -0.03671222
0001b0 c3 99 7c bd 2e 38 e4 bc 60 56 b3 bd 52 e3 cf bc
       -0.061670076 -0.02785882 -0.08756709 -0.02537695
0001c0 39 9c 2a bb 97 76 38 bd 0b 17 04 bd 6f 6c 7e 3d
       -0.0026033057 -0.04503497 -0.032248538 0.06211513
0001d0 25 8b 86 3c ad 3c b8 3d 66 70 8f 3d fd 38 6c bd
       0.016423771 0.08995948 0.0700386 -0.057671536
0001e0 f8 d2 c2 3d b6 e8 9e bc 71 61 b8 bd 5d f0 4c 3d
       0.09512895 -0.019398075 -0.090029605 0.050033916
0001f0 53 12 7b bc 58 e9 86 bc 2b a9 63 bc bd 2c 35 bd
       -0.015324193 -0.016468689 -0.013895313 -0.04423212

actor.linear2.weight f4 [128, 128]
000000 7a 78 b3 bd 94 37 c5 bc 8a 75 a5 bd 2b 57 8c bc
       -0.087632135 -0.024074353 -0.080790594 -0.017131409
000010 f0 c9 4e bd ee 31 e4 3c 88 6e 26 bd 2b 10 c7 3d
       -0.05048555 0.02785584 -0.040632755 0.09719881
000020 98 07 64 bd 84 f3 fc 3a 1a 68 7d bc 71 9e d7 bc
       -0.055671304 0.0019298648 -0.015466714 -0.026320668
000030 8d e8 0f 3c ad f6 6f 3d a5 6a bb bd fb 53 cb 3c
       0.008783472 0.058584858 -0.091512 0.024820318
000040 c4 dc b7 bd df 8c a4 3d 18 61 66 3d 5d 5d 9f 3a
       -0.089776546 0.080346815 0.05624494 0.0012158562
000050 19 c9 53 bd 2f af 82 bc 24 8d ae bc d2 1c ba bc
       -0.051705454 -0.015952675 -0.021307535 -0.02271882
000060 f0 95 75 bd be a9 be 3c 2a 4e 9f bc e3 7d 58 3d
       -0.059957445 0.023274299 -0.019446451 0.05285443
000070 7e b2 97 3d 1b 17 d0 bc 59 12 42 bd a3 03 a5 b9
       0.074070916 -0.025401643 -0.04738078 -0.00031473962
000080 84 ae d0 bd 31 8f 02 3d 81 07 65 3d 6d 5d 37 3d
       -0.10189536 0.03187484 0.05591536 0.044766832
000090 2f 6d c2 3c 25 54 da 3a c6 bc b5 3d a2 e1 7b bd
       0.023733703 0.0016657157 0.08873896 -0.061494477
0000a0 1d 37 ad bc c4 64 a5 3d 95 5e 2a 3d 8f 07 53 bd
       -0.021144444 0.0807586 0.041594107 -0.05152088
0000b0 47 5b 65 3d b6 7a d6 ba 12 74 87 3d c0 c0 2e 3c
       0.055995252 -0.0016363475 0.066139355 0.010666072
0000c0 b5 95 7c bd 89 ee 84 3c df 0b 0a 3d 87 d0 8c bd
       -0.06166621 0.016227024 0.033702727 -0.06875711
0000d0 22 90 8d bd 43 a6 83 bc 41 36 90 bd 3d 53 1d bc
       -0.06912257 -0.01607049 -0.07041598 -0.009602365
0000e0 49 d5 cf 3d fc 0e 71 bc ed e2 8f 3d f8 b7 a1 ba
       0.10148103 -0.014713045 0.070257045 -0.0012338152
0000f0 a9 2e bc 3d b8 17 c2 bd 3a 9c a6 3c b8 3e 5d bc
       0.09188587 -0.0947718 0.020338167 -0.013503723
000100 56 bd b4 bc 00 b0 36 3d b4 09 d4 bc 11 c1 c7 ba
       -0.022062939 0.04460144 -0.025883533 -0.0015240033
000110 b2 52 00 3d 4e e7 ae 3d 69 7d ef 3b 29 8b 38 bc
       0.031328864 0.085402116 0.007308651 -0.011263647
000120 a9 b8 40 3b 8a 84 94 3d e2 4c 47 bd 56 c1 94 bc
       0.002940694 0.07251842 -0.048657306 -0.018158596
000130 5b 88 f1 3c b8 c0 1b b9 51 11 15 bd 7e de 04 3d
       0.029483965 -0.00014853745 -0.036393467 0.032438748
000140 94 d4 67 3c 5c c8 b7 3d 69 5e 1d 39 c9 42 40 3d
       0.014149804 0.089737624 0.00015007857 0.04693869
000150 6b 82 11 bd c4 7f 0b bd 04 71 a8 bd f4 1d f2 bc
       -0.035524767 -0.034057394 -0.08224681 -0.029555298
000160 8e 30 1e bd 26 83 72 3d a1 da 2c 3d 37 6a 83 3c
       -0.038620524 0.059207104 0.04220069 0.016041858
000170 4f 0f d6 b8 a7 d8 65 bd ac 04 ab 3b 38 51 3e 3b
       -0.000102071666 -0.05611482 0.005219063 0.002904011
000180 28 e7 58 3d f1 01 2c bd b6 75 59 3d 0a c9 05 3b
       0.052954823 -0.04199404 0.053090774 0.0020414018
000190 fe 83 f5 3c db 25 be bd 5d f8 b4 bd 84 12 79 bd
       0.029970165 -0.09284564 -0.08836434 -0.060808674
0001a0 d0 1d d1 3c 20 17 65 bd 01 7d de 3d cd 7d a4 bd
       0.025526911 -0.055930257 0.10863686 -0.08031807
0001b0 0e 98 71 bc 47 bb 74 bc 99 a2 0e bd 30 d7 77 bd
       -0.014745725 -0.0149372285 -0.034823034 -0.060507953
0001c0 0e 17 e8 bc 13 24 7d 3d be ee e5 3c fd 10 86 bd
       -0.028331306 0.06180198 0.028067943 -0.06546209
0001d0 36 94 71 3c 5b fc f9 3c c0 a0 6f bd 75 1a 8a bd
       0.014744809 0.03051584 -0.058502913 -0.067433275
0001e0 1e 5b 31 3d 34 1a 98 3d 32 75 38 3d cd 30 bd 3c
       0.043299787 0.07426873 0.04503364 0.02309456
0001f0 3d 41 83 3a 96 90 99 3b 93 8b 73 bd f9 52 02 3d
       0.0010013949 0.0046864254 -0.05945928 0.03181741
000200 59 ec 5f 3c f8 4d b7 3d 03 a4 98 3d 2b 2c 96 3d
       0.0136671895 0.08950418 0.07453158 0.07332643
000210 8c 1a 6c 3c ab 3e 8f 3c 80 96 5f bd a2 3c d5 3c
       0.014410626 0.017485937 -0.054586887 0.026029889
000220 33 c9 3d 3d f6 c6 99 bd 1a f6 8d 3d 3b 03 25 3c
       0.046334457 -0.07508652 0.06931706 0.010071571
000230 f0 84 59 bd 5c 1b 13 bd 97 09 a2 bd 81 d2 fd 3c
       -0.053105295 -0.035914764 -0.07911985 0.030984165
000240 f7 f0 52 bc 1e f1 4e 3b d2 f6 12 3d 83 d2 f0 3c
       -0.012874833 0.0031576823 0.035879917 0.029397255
000250 8b fb 20 3c 43 93 3f bd a9 28 b3 bd 7f bb 9f 3d
       0.0098255975 -0.0467713 -0.0874799 0.07799434
000260 df e7 79 3d 94 e3 e3 3c 82 c7 dc 3b 97 70 12 bd
       0.061012145 0.027818479 0.0067376504 -0.035751905
000270 38 99 95 3d dc 75 8c bd 09 5d 20 bd ac 2a f4 bb
       0.07304615 -0.068584174 -0.039151225 -0.007451376
000280 12 5d 65 bd 09 44 88 bd b2 48 76 3d 6a 88 2f 3d
       -0.055996962 -0.06653602 0.06012792 0.042854704
000290 32 ab f9 bc 37 d9 83 bc 0e cd b3 3d a8 9a b5 bc
       -0.03047714 -0.016094787 0.087793455 -0.022168472
0002a0 2a e0 91 3c 84 15 b2 3d 98 d3 7d bd 17 de a1 3d
       0.017807085 0.0869551 -0.06196937 0.079036884
0002b0 a0 d1 bc 3d 80 ea ab 3d 72 88 46 bc d3 0c 97 3d
       0.0921967 0.08394337 -0.012117492 0.07375493
0002c0 e4 aa 01 bd 4e 90 34 bd 88 e9 ae bc fc d0 c0 bd
       -0.031657115 -0.044082932 -0.02135159 -0.094148606
0002d0 e1 dc 61 3c a3 95 52 bd 85 f5 6c bd 1f d2 ad bc
       0.013785572 -0.051412236 -0.057851333 -0.021218358
0002e0 a5 35 01 bc ad 82 02 bd 2e d4 5f 3c 33 d4 a0 bc
       -0.007886325 -0.031862903 0.013661427 -0.019632434
0002f0 ed 7a 85 3d 0d b6 17 bd 78 de 02 3c 28 95 45 bd
       0.06517587 -0.03703885 0.007987611 -0.04823795
000300 06 e0 07 bd f3 4b ae bd c7 48 5c 3d 72 a1 80 3d
       -0.03317263 -0.0851058 0.053780343 0.06280793
000310 fa 9a 7b bd ba 6e da 3c 6f d4 8f 3d 68 bd 8a bb
       -0.061427094 0.026664127 0.0702294 -0.0042340048
000320 6e 65 76 3d 7d f3 92 bc e4 f5 73 bb b0 39 09 b8
       0.060155325 -0.01793837 -0.003722542 -3.271707e-05
000330 12 a4 17 3d f7 1c 91 bd fc 15 6d bd 4a ae 3d bd
       0.037021704 -0.07085603 -0.057882294 -0.046308793
000340 21 b1 3f 3d 81 c2 d0 3d 29 01 08 3d bd 21 98 3c
       0.046799783 0.10193349 0.03320423 0.018570775
000350 15 51 cf 3b 70 f4 9b ba a0 2b 82 bd 2a a3 0b 3d
       0.0063268044 -0.001189841 -0.06355977 0.034091152
000360 d4 7e b6 bb ee 39 4c bb 35 73 39 3c 43 f9 47 bd
       -0.0055693183 -0.0031162458 0.011318971 -0.0488217
000370 58 97 59 3c 8a 01 80 3d 87 8e ab 3d 58 be 85 bd
       0.013280712 0.062502936 0.08376794 -0.06530446
000380 ae 06 3f bd ee 6e f8 bc e5 13 91 3d e2 77 24 3c
       -0.04663723 -0.030326333 0.07083873 0.010038348
000390 3b ae 51 3d 8c 57 90 3d 8c b8 99 bd 50 9a 9e bd
       0.05119155 0.07047948 -0.07505903 -0.077442765
0003a0 bd 91 87 bd ab 4f a6 bd f4 57 72 3d e6 a0 ea 3c
       -0.06619594 -0.08120664 0.05916591 0.028641175
0003b0 88 3a c1 bc 62 7e 4c bd 65 9a c1 3c 20 e0 96 bd
       -0.02358748 -0.049925216 0.023633191 -0.07366967
0003c0 5b 60 86 3c 30 51 6b 3c 1d 5a 87 3d 7c 88 90 bd
       0.016403368 0.014362618 0.066089846 -0.07057282
0003d0 fe 43 88 3d e2 5b 89 bc 39 a5 d2 3b 5e 44 45 bd
       0.066535935 -0.016767446 0.0064283875 -0.048160903
0003e0 dd 3e 67 3d ba c1 24 bd 3e 6b 83 bd cf 41 7c bd
       0.056456435 -0.040223815 -0.06416939 -0.061586197
0003f0 15 2d 07 bd fd ca cf bc 27 de 2e bd 12 ab bb 3d
       -0.033001978 -0.025365347 -0.04269233 0.091634884

actor.linear2.bias f4 [128]
000000 de 37 04 bd 6f da 9c 3d 24 f7 9a 3d db 87 a0 bc
       -0.03227984 0.076588504 0.075666696 -0.019596031
000010 34 0b b0 3c bb e5 93 3d 47 cc 92 3d aa 56 84 3d
       0.021489717 0.07221552 0.07167869 0.06461842
000020 00 6c e7 3c 26 fa 5a bd 1c 8e 84 bd 7b 58 38 3d
       0.02824974 -0.053461216 -0.06472418 0.045006257
000030 a7 61 aa 3d f8 f0 ba 3b 43 e7 99 bc c9 5d 63 3d
       0.08319407 0.0057049952 -0.018787032 0.055509362
000040 46 8f c7 3b aa 5e 50 3d 36 fc 4b bd 87 93 37 3d
       0.0060900776 0.05087153 -0.049801074 0.044818427
000050 e0 cb 74 3d 07 f3 7a 3d 81 2d 96 bd f4 93 46 bd
       0.059764743 0.061266925 -0.07332898 -0.048480943
000060 bc c8 b8 3c 8c d3 84 3d cc 3c 3d 3d d1 40 96 bc
       0.022556655 0.06485662 0.04620056 -0.018341454
000070 5c 0d 3e 3c bf 25 38 3d a1 f1 b3 bc b0 f0 e3 3c
       0.011599865 0.044957872 -0.021965804 0.02782473
000080 bb 2c 2f 3c 51 44 ac 3d d8 3f ae 3d f7 dd 97 3d
       0.010691817 0.08411468 0.08508271 0.07415383
000090 d5 ee 1d b9 c3 ef 9a 3d f5 03 00 bd e8 05 6c 3d
       -0.00015061659 0.07565262 -0.031253774 0.05762282
0000a0 8a 14 ab 3d 44 bc a4 3d 0d 4b 8a bb fb a4 16 3c
       0.08353527 0.08043721 -0.0042203725 0.009194608
0000b0 8d 44 ad bd ef d8 80 3d c3 50 53 3c da cc 53 3d
       -0.08460341 0.06291377 0.012897673 0.051709034
0000c0 dc d9 0d 3d 3d 6f 24 3d 4d 3c 94 3c d8 03 1f bd
       0.034631595 0.040145148 0.01809516 -0.038822025
0000d0 07 b5 8d bd 53 3e 30 bd 70 8f 3e bc ce ad 90 bd
       -0.06919294 -0.043028187 -0.011630878 -0.070644006
0000e0 bc a4 cb bb ff c5 a1 bd 81 a2 59 bd 44 09 aa bc
       -0.006214706 -0.07899093 -0.05313349 -0.020756371
0000f0 51 36 17 3a c4 e6 69 3d fd b7 52 3d aa 0b 57 3c
       0.00057682866 0.05710484 0.051444996 0.0131253395
000100 af 30 2c 3c f9 6f 4b bd b2 00 b4 bb e1 b0 7b 3d
       0.010509654 -0.049667332 -0.005493247 0.06144798
000110 65 fc c6 bd 24 b3 76 3d a9 a2 c8 3d b2 8a 81 3d
       -0.09716109 0.060229436 0.0979665 0.06325282
000120 87 f8 e3 3c 6e 1b 2d 3d dd dd 03 bd 82 fb d0 3c
       0.027828468 0.042262487 -0.032194007 0.025510553
000130 a5 cb 5b 3d 8f 5e b7 3d 15 eb 37 bd 0d 56 9d 3d
       0.053661007 0.089535825 -0.044901926 0.076824285
000140 30 f9 91 3c 19 7e 44 bc 14 a7 86 bd c0 7f 81 3c
       0.017819017 -0.011992955 -0.065748364 0.015807986
000150 01 21 f9 bc c8 8c 84 bd fc f0 86 bd 88 f8 ae 3d
       -0.030411245 -0.064721644 -0.06588933 0.08543497
000160 aa c7 a0 3d f0 94 9f bd 83 a0 30 bd 22 45 0a bd
       0.07850583 -0.077920794 -0.043121826 -0.033757336
000170 09 62 a4 bd 3c 98 c5 bc dc 00 e8 bc 62 14 a3 3d
       -0.08026511 -0.024120443 -0.028320722 0.07962872
000180 4e 27 15 bd 37 78 63 bc b4 d6 16 bd 43 e9 8c 3d
       -0.036414437 -0.013883642 -0.03682585 0.06880429
000190 83 c0 9a bc 0a ae b3 3d 2f a5 42 3c 9c c0 93 3d
       -0.018890625 0.0877343 0.011880203 0.07214472
0001a0 0f c8 a0 3a d8 4d 33 bd 63 1d 8d bd 14 52 80 3d
       0.0012266653 -0.04377541 -0.06890371 0.06265655
0001b0 eb 75 87 3d 6b 70 22 bd 15 db 4a bc 95 48 e2 3c
       0.06614288 -0.03965799 -0.012381335 0.0276225
0001c0 4c 71 c8 3d ff 7f b2 3c 72 16 92 3d bd cb 80 3d
       0.09787235 0.021789549 0.07133187 0.0628886
0001d0 90 1e 3a bc 1b 36 54 3b dc 8f b0 3a fe 4e 40 3c
       -0.011359826 0.0032380882 0.0013470608 0.011737583
0001e0 1b 2e 0f 3d 69 5a b3 bc b3 41 9c bc dc 65 4e 3d
       0.03495608 -0.021893697 -0.019074297 0.05039011
0001f0 96 4c 05 b9 48 50 2c bd 43 23 80 3d 8d 60 35 bd
       -0.00012712399 -0.04206875 0.06256726 -0.04428153

actor.linear3.weight f4 [128, 128]
000000 9d 26 81 3d 1f 4a 0b 3d 26 d7 ae 3d 3a 1a 53 3d
       0.06306193 0.034006234 0.0853713 0.051538683
000010 46 f1 32 3c 6d 20 31 bd fe 90 d4 3a 94 c8 09 bd
       0.010921782 -0.043243814 0.0016217527 -0.03363855
000020 8c 86 b2 3d 20 63 ee bc 4d 41 23 bd 37 22 68 bd
       0.08717069 -0.0291 -0.039857198 -0.056673255
000030 99 1c 2c 3d fb ab 85 3d 7d dc b7 3c 94 b0 57 3d
       0.04201946 0.06526943 0.022444004 0.052658632
000040 23 c9 f5 3c 68 d9 52 3d 7d c1 31 3d 47 ac 97 3d
       0.030003136 0.051476866 0.043397415 0.07405906
000050 e1 91 59 3c 58 da aa bd 99 d0 5b 3d 93 6e 24 3d
       0.013279409 -0.08342427 0.05366573 0.040144514
000060 02 28 1d 3d 22 07 c7 3b 38 cc 07 3d 3d eb fa bc
       0.038368233 0.0060738483 0.033153743 -0.030629748
000070 cb 48 71 bd 98 0a 7a bd 50 54 44 bd 4e dc fb bb
       -0.05890731 -0.06104526 -0.04793197 -0.0076861745
000080 53 3c b9 3d 65 33 85 3d dd 65 9a 3c 80 e7 a0 3d
       0.09044709 0.06503943 0.0188474 0.07856655
000090 9a 1d b5 3d d4 df 2f 3c ba 5b 55 bd 8e 19 55 bd
       0.08843537 0.010734517 -0.05208943 -0.052026324
0000a0 a9 43 56 bd a8 be b3 bd c0 d2 a3 3c b1 e4 8b 3d
       -0.05231062 -0.08776599 0.019997954 0.06830729
0000b0 fb e7 55 3d dd f0 9a bc 5c bc 77 3d 33 32 39 bb
       0.052223187 -0.01891368 0.060482368 -0.002825868
0000c0 50 44 0b bd b7 bc 3e 3d e4 b3 7a 3d 4c 1d 4e 3d
       -0.034000695 0.04656669 0.061206713 0.05032091
0000d0 03 af ba 3d 87 07 08 3b e3 fd 57 ba 08 da fc bc
       0.09115412 0.002075644 -0.0008239431 -0.030865684
0000e0 ea e2 94 bd 70 e7 d3 bc eb fc 92 bd 9b f0 15 bd
       -0.07269843 -0.025867194 -0.071771465 -0.036606412
0000f0 3f ea a0 bd b7 13 83 3d 95 01 87 3d 53 2f e2 3c
       -0.07857179 0.06400245 0.065920986 0.027610457
000100 6a 5d 56 3d 68 a6 05 bd 9c b2 62 3d 93 3d 83 bc
       0.05233518 -0.0326294 0.055346116 -0.016020572
000110 0e 85 17 bc 80 05 45 3d 9d 0c 9e bd c8 2d af 3d
       -0.009248031 0.04810095 -0.077172495 0.08553654
000120 f5 54 48 3d a1 ff 93 3d aa 92 ac 3d 03 a5 39 bd
       0.048909146 0.07226492 0.084264114 -0.045323383
000130 7b d5 31 3d d9 31 7f bd e0 ec c7 bd b0 08 1f bd
       0.04341648 -0.062303398 -0.09761977 -0.038826644
000140 48 a8 1e 3d 44 1e 97 bc 55 0b c6 3d 5e 99 c2 bc
       0.038734704 -0.018447049 0.0967013 -0.023754772
000150 26 40 39 bd 55 cd 97 3d bd ca 95 3b d4 b0 2b bc
       -0.045227192 0.07412211 0.0045712874 -0.010479171
000160 9e d3 2e bd bd 2b ff bc a8 74 34 bd 00 7a dd 3c
       -0.042682283 -0.031148786 -0.044056565 0.027035713
000170 f5 86 41 bc 5d 44 9d bd a2 47 11 3d 16 bd 45 3d
       -0.011811961 -0.07679055 0.035468705 0.04827603
000180 dd 8c 98 bc f4 5b 1e bd 77 d2 b5 3c be cc 3d 3d
       -0.018621856 -0.038661912 0.022195084 0.046337835
000190 6b 42 2b 3d 59 6a 8d 3c 27 50 af bd 36 d2 78 bd
       0.041811388 0.017262625 -0.0856021 -0.060747348
0001a0 2a c7 43 3d 7a 6d 80 bd be ca 86 bd c0 12 88 bc
       0.04779736 -0.06270881 -0.06581639 -0.016610503
0001b0 58 7d 47 bd 72 89 a4 39 7f 82 a0 bc 93 b0 6a bd
       -0.04870352 0.00031382922 -0.019593475 -0.0572973
0001c0 e1 bd 16 bd a0 e1 ac 3d a8 c5 0e 3d ba 61 95 3d
       -0.036802176 0.08441472 0.03485647 0.072940305
0001d0 ed ca 30 3d e3 01 66 3d a6 40 0f bd 97 7b bb 3c
       0.043162275 0.056154143 -0.034973763 0.02288608
0001e0 15 5a b0 3d 19 11 0b bd 88 d5 3b 3d f3 6b 84 3d
       0.08610932 -0.033951852 0.045857936 0.06465902
0001f0 ba a8 a5 bd d2 d6 7f bd 0e 52 5a 3c 8b ff a7 bd
       -0.08088823 -0.062460728 0.013325227 -0.08203038
000200 8f ec 70 bd 6f b4 32 3d 2a 18 a4 bd 6c 1d 0b 3c
       -0.05881935 0.043629106 -0.080124214 0.008490901
000210 d9 8e b2 bd 1a f0 83 bd 64 ae 8d bc d9 48 72 bd
       -0.08718652 -0.0644228 -0.01729507 -0.059151504
000220 41 2f de 3b 7f a8 89 bd 73 d2 96 3d 4a b0 a8 bd
       0.0067805354 -0.06721591 0.07364359 -0.082367495
000230 bc 47 82 3c 1a 5d 3d bd 9f 91 0f bd 73 d7 3b 3d
       0.015903346 -0.046231367 -0.035050984 0.045859765
000240 13 ac 06 bb 0c d5 84 bd 94 c8 2d 3d 38 24 b1 bc
       -0.0020549342 -0.06485948 0.042427614 -0.021623716
000250 3a 7f 8c 3d 09 50 73 bd 54 92 ac 3d 39 57 05 3d
       0.06860204 -0.0594025 0.084263474 0.032553885
000260 53 83 84 bc 60 fc 94 3c d5 98 10 3d 4e a5 45 3c
       -0.016175902 0.018186748 0.035302002 0.0120633375
000270 dd ad a5 3d b8 5a 9f bd c7 a0 4a 3c 7c 45 0c bd
       0.080898024 -0.07780975 0.012367434 -0.034245953
000280 d2 24 a1 3d 4a 2f e9 3b cf 98 95 bd f1 dd 6c 3d
       0.07868351 0.007116233 -0.073045366 0.057828847
000290 33 1e 2e bd de 88 32 3c a3 3f fb 3b 04 67 8e 3b
       -0.04250927 0.0108968895 0.007667498 0.0043457765
0002a0 5a f7 21 bd e3 9a cd bb 3a b3 b4 3c 2f 76 92 3d
       -0.039542533 -0.0062745675 0.022058118 0.07151448
0002b0 bf 16 1f bc 31 86 69 3c 02 31 1b 3d 08 85 85 bb
       -0.009710013 0.014253185 0.037888534 -0.0040746965
0002c0 9d d0 ba bd cd 95 aa bd 29 7e ab 3d 07 53 1f 3c
       -0.09121821 -0.083293535 0.083736725 0.009724385
0002d0 e3 14 89 bb 4e 00 36 3d 21 26 a8 3d b7 5d 0d ba
       -0.004183398 0.044433884 0.082103975 -0.0005392688
0002e0 34 d5 96 3d e6 90 12 bc f9 66 82 bd 20 2c 5d 3d
       0.07364884 -0.008945679 -0.06367297 0.05399716
0002f0 08 d4 a0 3d 2c 40 a3 bd 4e 27 45 3d d6 13 b2 3d
       0.07852942 -0.07971224 0.048133187 0.0869519
000300 66 b9 1a 3d a5 69 8c bd f7 aa 2d 3d f2 3d b8 3c
       0.037774466 -0.068560876 0.042399373 0.022490475
000310 9d b5 18 bd 95 d2 65 bd f2 1b 72 bd 42 24 8d bd
       -0.037282575 -0.05610903 -0.059108682 -0.06891681
000320 a4 91 77 3c 13 8d 98 3d a4 d2 9c 3d 42 03 ad 3d
       0.015110407 0.07448783 0.07657364 0.08447887
000330 1e 31 a3 bd 7b b1 b1 3c 79 bd a1 bd a0 c0 d6 b9
       -0.07968353 0.021691075 -0.07897467 -0.00040960778
000340 8d 19 90 3d 30 eb a8 bd 16 7d e9 3c 56 c8 ab 3c
       0.070361234 -0.082479835 0.028502028 0.020969551
000350 b1 0d 85 bd 97 d8 4b bd 2c e2 09 3d d7 63 3c 3c
       -0.06496752 -0.049767103 0.03366296 0.011498413
000360 09 55 45 bd 7a 7d 68 3d 47 b1 87 b9 43 8f 0d 3d
       -0.0481768 0.05676029 -0.00025881288 0.034560453
000370 79 8e a9 bd cf 37 77 3c e3 3a 80 bb 72 4d 04 bb
       -0.08279128 0.015088989 -0.00391327 -0.0020187763
000380 4c 3e c5 3d 08 23 e5 3c 93 01 8e bd ad e4 98 3d
       0.09631023 0.027970806 -0.06933894 0.074654914
000390 8b 31 7a 3d 8c 2b 49 bd 36 c7 9a bc 40 94 df bc
       0.061082404 -0.049113795 -0.01889382 -0.02729237
0003a0 54 6d 6f 3c a8 14 60 bd af 64 9c 3d dd 5e bc 3d
       0.014613468 -0.0547072 0.07636391 0.09197781
0003b0 d2 54 44 bd 33 e3 1f 3d b0 26 94 bd 41 26 3e 3d
       -0.047932453 0.039035033 -0.072339416 0.0464232
0003c0 d1 06 f6 3c 5f a4 9d bc 30 1b 4b bc 92 23 56 bc
       0.030032547 -0.019243417 -0.012396619 -0.013070004
0003d0 bc bb 82 3d 1c 6e aa bd 2e 44 94 bd ec 92 45 3b
       0.06383464 -0.08321783 -0.07239567 0.0030147387
0003e0 4b 7e 4f 3d 34 ed b5 bd 38 06 79 bd 40 c8 58 3c
       0.05065755 -0.088831335 -0.060796946 0.013231337
0003f0 68 4f cc 3c 3a d5 de 3c 26 8a bd 3c 06 de 46 bb
       0.024940208 0.027201284 0.023137163 -0.0030344739

actor.linear3.bias f4 [128]
000000 c1 b2 31 3d a8 d5 90 3d c5 36 c0 3d bc ad 74 bd
       0.043383364 0.07072002 0.093854465 -0.059736
000010 86 8b 8b bd 05 00 a3 bd 84 9d 28 3d 72 66 59 3c
       -0.06813721 -0.07958988 0.041165844 0.013269054
000020 77 e5 a0 3d 0c 55 4d 3d 6a 38 b4 3c 54 c0 ee bc
       0.07856267 0.050129935 0.021999557 -0.029144444
000030 8d 64 c0 3c 6e ac 1c 3c 2b 7b 4c 3d 5b 9a 43 bd
       0.023485446 0.009562595 0.04992215 -0.047754627
000040 06 4c 7a bd e1 45 9d 3d d7 e3 8e bd d6 6f c9 3d
       -0.061107658 0.07679344 -0.06977051 0.09835784
000050 d4 11 8a 3d 02 df d3 3c 42 26 a8 b9 b7 9e 2f 3d
       0.06741682 0.025863174 -0.0003207196 0.04287597
000060 27 66 71 3c 13 ea 01 3d 8a aa 54 bd 0a 3f 8f 3d
       0.014733828 0.03171737 -0.05192045 0.069944456
000070 2d ef 06 3d 03 3f 90 bc 7e 6a ad bc 2b 23 2c bd
       0.03294294 -0.017608171 -0.021168943 -0.042025726
000080 c9 31 c4 bc 66 f6 e2 bc 66 13 2b 3d 1b 70 62 bc
       -0.02394952 -0.027705383 0.041766547 -0.013820673
000090 ed 3c 7b 3d b1 e5 58 3d e9 1d 89 3d ad a5 9d 3d
       0.0613374 0.052953426 0.06695158 0.07697616
0000a0 b4 86 5c 3d b3 bd b8 3c 44 a7 70 3d f1 23 b2 3d
       0.0538394 0.022551393 0.058753267 0.086982615
0000b0 b4 80 7c 3d 8d c6 1d bd c0 cf c6 bc 87 fb 7e bc
       0.06164618 -0.03851943 -0.024268985 -0.0155628985
0000c0 fb 77 47 ba 3c 12 8f bc d4 cb 4b 3d 5a 11 01 3c
       -0.0007609126 -0.01746475 0.049754933 0.007877672
0000d0 16 05 a2 3c 46 de a0 3d a4 92 bf bb be 29 b2 3d
       0.019777816 0.07854895 -0.0058463383 0.08699368
0000e0 b8 19 03 bd 03 c1 84 bd 52 ac 72 bd 79 ac 98 3d
       -0.03200695 -0.064821266 -0.05924637 0.074547715
0000f0 41 e8 cd 3c ad 5a 87 3d a3 31 93 3c b0 8e f8 bc
       0.025135161 0.06609092 0.017968005 -0.030341476
000100 c1 84 a0 3d 4e 7d 86 3d 91 b5 75 3d bf aa aa 3d
       0.07837821 0.06566869 0.05998761 0.083333485
000110 e1 98 86 bc a7 93 fe 3b dc bf e7 3b f9 ca 96 3d
       -0.01643032 0.0077690664 0.007072432 0.07362933
000120 5d b9 02 3d ad b7 a7 bc 54 b6 68 3c a4 75 b3 3d
       0.031915057 -0.020473326 0.014203627 0.087626725
000130 5e eb e7 bc a0 84 8f bd 06 b5 6b bb d3 c9 85 3c
       -0.028310474 -0.07007718 -0.0035966053 0.016331589
000140 3c 3d 97 3d 53 65 a3 bc 0c 5e 02 bd ac a2 ae bd
       0.073847264 -0.019945776 -0.03182797 -0.08527121
000150 72 2b 49 bd 39 69 1a bd e1 8e 9c 3d bf e4 bc 3a
       -0.0491137 -0.037698004 0.076444395 0.0014411433
000160 19 96 75 bd 47 ce 8f 3d 0c 27 85 3d d7 eb 4b bd
       -0.059957597 0.07021766 0.06501588 -0.04978546
000170 5b dc 9e 3d 1d 7c 78 3d 75 c2 89 3d 05 3b b0 3d
       0.07756873 0.06066524 0.06726543 0.08605007
000180 cc f6 5b bd 32 4e 05 bd b4 a8 20 bd c2 8d 9e bc
       -0.05370216 -0.032545276 -0.039223388 -0.019354705
000190 5b 37 74 3d 38 72 8c bc 26 4c bc 3d 9d 6e 35 3c
       0.059623104 -0.017144307 0.09194212 0.011073736
0001a0 52 a4 b2 3d 43 ce 25 bd 43 ba 77 bd 4f 2e 78 bc
       0.08722748 -0.04047991 -0.060480367 -0.01514776
0001b0 fc 31 ae bc 1d 3d 8c 3d 99 18 41 bd 02 ab e6 bc
       -0.021264069 0.06847594 -0.0471426 -0.028157715
0001c0 5d ab 98 ba 48 24 5b 3c 46 ff bf bd 61 4c a1 bd
       -0.001164775 0.013375349 -0.093748614 -0.07875896
0001d0 61 65 db 3c ae 5a 4b bd f7 77 81 bd 39 e4 92 bc
       0.02678174 -0.049647026 -0.063217096 -0.01793109
0001e0 84 fd 41 3d a0 05 36 bd b3 46 36 bd 47 f1 c9 3d
       0.047360912 -0.04443896 -0.044501018 0.09860473
0001f0 9d 74 8c 3d 00 43 0c bd 39 e5 2c 3d fc 8c a9 3b
       0.0685818 -0.034243584 0.04221079 0.0051742774

actor.linear4.weight f4 [9, 128]
000000 21 dd 66 bd f5 6b 9e 3d 9c 5c 76 3d 5d d0 d6 3c
       -0.05636323 0.07735435 0.060146913 0.026222402
000010 7b 38 79 3d 0f 87 3a bd d0 c5 b0 bd 2c 85 77 bd
       0.06084488 -0.04553896 -0.0863148 -0.060429737
000020 98 82 91 bd cd 41 9d bd c4 6d 83 3d 05 c5 66 3c
       -0.07104987 -0.07678566 0.064174205 0.014085059
000030 6c 31 25 3d f7 0e 85 bd fe 33 6b bd 88 f8 2b 3d
       0.040330335 -0.06496995 -0.05742263 0.041985065
000040 40 b3 4e bd a8 eb 51 3d 14 80 92 3d 16 71 7f 3d
       -0.050463915 0.05125013 0.07153335 0.062363707
000050 b3 40 84 bd 84 28 05 bc 8d 6e af bd 17 80 a7 3d
       -0.06457653 -0.008127335 -0.08566008 0.08178728
000060 ad b2 9f bd 83 da 61 3d 60 01 82 3d 59 cd 78 bd
       -0.077977516 0.05514003 0.063479185 -0.06074271
000070 e0 d5 81 bd eb f8 24 3d 04 52 a8 3d c9 da 9b bc
       -0.063396215 0.04027645 0.08218768 -0.019025223
000080 8e 6e 37 3d 69 7a 36 3d 60 ab 84 3d fd 97 4a bd
       0.044783168 0.044550333 0.06478 -0.049461354
000090 7b e3 3d 3d 4a 85 ea 39 ef a4 97 bd 3b 2b 3a 3d
       0.04635952 0.00044731266 -0.074045055 0.045451384
0000a0 e2 71 6b bc f4 d8 02 bd 9b 5e a3 3d eb 2f 37 3d
       -0.0143704135 -0.031945184 0.07977029 0.044723433
0000b0 7e 61 b3 3d ff 3f 63 bd dc ee ea bc 04 26 8a 3d
       0.087588295 -0.055480953 -0.02867835 0.06745532
0000c0 26 a6 59 3d a8 c8 a3 3d 48 ef 02 bd b9 18 ce bc
       0.053136967 0.079972565 -0.031966478 -0.025158273
0000d0 4d bb b7 3c 5d 98 d3 3c f9 94 a0 bb a0 be 57 3d
       0.02242818 0.025829488 -0.0049005714 0.05267203
0000e0 19 a5 58 bd 89 ec 17 bd 34 db 2d 3d ee be 95 3a
       -0.052891824 -0.037090812 0.042445377 0.0011424699
0000f0 48 8c 29 bd 69 0a 52 3d a8 de dc bc b4 9c 10 bc
       -0.04139355 0.05127946 -0.02696164 -0.008826423
000100 c9 fb aa bd 66 60 33 bd 83 d5 15 b9 66 dd 03 3d
       -0.083488055 -0.043793105 -0.00014289287 0.032193564
000110 af 41 dd bb 84 cf a8 3d 0d e2 76 3c dd 24 83 3b
       -0.006752215 0.082427055 0.015068543 0.004002197
000120 de 74 1b 3d f9 71 1e bd 2e e6 56 bd 46 98 9a 3d
       0.03795325 -0.03868291 -0.05246561 0.07548575
000130 42 ac c9 bc 0b bb 7c 3d 2c 01 6d bc b8 a6 d4 bb
       -0.024618272 0.061701816 -0.014465611 -0.006489601
000140 b7 b1 92 3d a6 73 7d bd 5c c3 6e 3d 76 80 81 3d
       0.07162803 -0.06187787 0.058291778 0.0632333
000150 c8 c1 29 3d db 1f b0 3d 72 5a 9b bc 20 83 9c 3d
       0.04144457 0.08599826 -0.018964026 0.076421976
000160 81 0a 47 3c e1 fa a9 bd 01 30 95 3d 46 13 91 bc
       0.0121485 -0.082998045 0.07284547 -0.017709386
000170 d3 4f 93 bd c7 12 8e bd 7f de e6 bb 02 2f 81 bd
       -0.0719296 -0.06937175 -0.0070455666 -0.06307794
000180 27 9c bb 3c c1 8f 18 bd c5 0b 3e bd b3 ee b0 3d
       0.022901608 -0.03724647 -0.046397943 0.08639278
000190 51 95 32 bd 7c a1 22 bd f8 9e ae 3b 66 f1 a4 3b
       -0.04359943 -0.039704785 0.005329009 0.0050336597
0001a0 c5 8f e9 bb ef ea e2 bb a5 28 3d 3d 44 76 f0 bc
       -0.0071277344 -0.006924979 0.04618134 -0.029353268
0001b0 bf df 00 bc d1 41 95 bd 44 3a 98 bd af a8 57 3d
       -0.007865845 -0.07287944 -0.07432988 0.052651104
0001c0 19 b3 c1 bb c7 7a 1f 3c a6 25 f0 3c 6e 15 ac bd
       -0.0059112427 0.009733862 0.029314827 -0.08402525
0001d0 92 fb ae bd 3c fc 92 3d dc e5 84 3b b3 3d 98 bc
       -0.08544077 0.07177016 0.0040557217 -0.018584108
0001e0 ae 08 81 3c fe 53 cd 3b 34 cf 4b 3c c4 37 86 bd
       0.01575121 0.006266116 0.012439538 -0.06553605
0001f0 23 13 a3 3d 3d d6 3b 3d a4 1f 90 3d 51 cc 17 bd
       0.079626344 0.04585861 0.07037285 -0.037060086
000200 a6 af 6e bd ec a9 9b 3c f4 ac 1d 3d a3 b1 fb 3b
       -0.05827298 0.019001924 0.03849502 0.007681088
000210 89 08 88 3d f5 86 8b bd b0 71 1d 3d 86 2d 41 3d
       0.06642253 -0.068128504 0.0384385 0.047162555
000220 82 5d d4 3d aa b0 c6 3d 53 cd 6c 3d 83 42 29 3d
       0.10369398 0.09701665 0.057813 0.041323196
000230 eb ca 9a bd 0c 22 9b bd ac f4 57 bd 23 b3 b5 bd
       -0.07558235 -0.07574853 -0.05272357 -0.08872058
000240 63 33 24 bd 59 1d bc 3d bb 01 00 bd 04 ad b0 3d
       -0.04008807 0.09185285 -0.03125165 0.0862675
000250 06 5a 8b bb a4 4f f1 bc bd 37 48 3c b1 b8 45 3d
       -0.004252675 -0.02945692 0.01222032 0.04827184
000260 5b 92 60 bd 6a 6c c8 3d 2d f4 a8 bd 18 61 64 3d
       -0.054827075 0.09786303 -0.08249698 0.05575666
000270 a7 49 74 3d e6 4d 5e bd 3d 10 b0 3c 21 5a 36 bd
       0.059640553 -0.05427351 0.021492118 -0.044519547
000280 98 e5 13 bd 39 de e0 bd e7 d2 a6 bd ec ef 97 3d
       -0.03610763 -0.109798856 -0.08145695 0.07418808
000290 50 b8 02 3d 80 1d fa 3c cb 7a 64 3d 7c 72 80 3d
       0.031914055 0.030531645 0.055781167 0.06271836
0002a0 4e 42 a6 3d 74 9e d7 bb f2 57 ae bd 64 0c aa 3c
       0.08118115 -0.0065801684 -0.08512868 0.020757861
0002b0 74 4e b9 3d a7 79 8a bd 69 e5 df bd be 17 61 bd
       0.09048167 -0.067614846 -0.109324284 -0.054954283
0002c0 8f c4 a4 bd 95 3e b7 bd 2c 0e 66 3d e9 d7 45 bd
       -0.08045303 -0.089474835 0.05616586 -0.04830161
0002d0 8a 8a 99 3d a1 1f 2a bd bf 73 5b 3d 57 7c c1 3d
       0.07497127 -0.04153407 0.05357718 0.09447544
0002e0 bd 50 d5 bb 38 10 98 bd 82 6b 9b bc 98 53 b1 bc
       -0.006509869 -0.074249685 -0.018972162 -0.021646306
0002f0 5e 5b e9 3c 4d ea 7c bd e8 4d 20 bb 10 78 ae 3c
       0.02848595 -0.061746884 -0.0024460498 0.021297485
000300 29 e3 e2 3d e9 69 25 bd 96 d3 19 bc 20 6d 8b bd
       0.110784836 -0.040384207 -0.009388825 -0.06807923
000310 f0 47 e5 3c ab 22 94 bd 7e 49 ac bd 00 5d b5 bd
       0.027988404 -0.07233175 -0.08412455 -0.08855629
000320 45 3d 15 bd 7f a5 37 3d 7a 46 ac bd 2f 8f 4c bc
       -0.036435384 0.044835564 -0.0841188 -0.0124853095
000330 d7 14 e4 3b 35 2a b0 bd 40 94 51 bd b8 b7 0a bd
       0.006960492 -0.086018 -0.051166773 -0.033866614
000340 5a 17 c2 3c 7f 01 e5 3b 9e 35 54 bd 50 01 9a bd
       0.023692776 0.0069887037 -0.051808946 -0.075197816
000350 e5 96 93 3d 1a 87 80 3c 1f b4 6c bd f0 f5 49 3d
       0.07206515 0.015689421 -0.057788964 0.04930681
000360 d2 b8 b6 bd 42 2d 04 bd 58 7c ad 3d 49 f3 01 bb
       -0.089219704 -0.032269724 0.08470982 -0.0019828847
000370 da 97 11 3d 63 a1 26 3d 4f 9a 8f 3d 09 a8 b5 3d
       0.035545208 0.040681254 0.07011854 0.08869941
000380 9d f3 ea 3c 59 3e 64 bd 93 b0 86 bd 9b 65 04 bd
       0.028680617 -0.05572352 -0.065766476 -0.03232346
000390 f7 6f 07 3d 9c 6b e1 bb f2 8b b0 3d 2c 17 9a 3d
       0.033065762 -0.006879283 0.086204425 0.07523951
0003a0 e8 e1 e4 3d 40 88 b2 3c 0b 3a c0 bd 96 01 c3 bc
       0.11175901 0.021793485 -0.09386071 -0.023804467
0003b0 a3 f6 3c bd d8 df da bc 17 f8 80 bd 94 37 ba bd
       -0.04613365 -0.026718065 -0.062973194 -0.09092632
0003c0 e1 fd d7 3b e7 f4 08 bb 24 14 b4 bd 42 ab a0 bd
       0.006591544 -0.0020897926 -0.08792904 -0.07845165
0003d0 17 9d 64 bc d9 f2 92 bd 7d e3 11 3b f7 66 b0 bd
       -0.013953469 -0.07175226 0.0022260838 -0.08613389
0003e0 1b c0 8d 3d 62 52 4a 3d 19 48 de bc d0 3e a4 3d
       0.06921407 0.049394973 -0.027133988 0.08019793
0003f0 dd 91 d1 3b 83 bf c6 3d 14 ae 29 bd 5c 7d 66 bc
       0.006395562 0.09704497 -0.04142578 -0.014067974

actor.linear4.bias f4 [9]
000000 c0 fb 74 3d 27 de ad bc 44 d7 94 3d 28 65 43 bd
       0.0598104 -0.021224095 0.07267621 -0.047703892
000010 21 29 da bc dc 82 8f bd dd 42 6b bc 0a b3 1e bd
       -0.02663094 -0.07007381 -0.014359203 -0.038744964
000020 15 a6 a1 bd
       -0.07893006

critic.linear1.weight f4 [128, 120]
000000 d2 2f 95 3d b3 2f a1 3d de bb 92 bd 21 87 f2 bd
       0.072845116 0.07870426 -0.07164739 -0.1184218
000010 87 09 96 3d 50 84 b2 bc 6a ef e1 bc b2 ed 4b bd
       0.07326036 -0.021791607 -0.027579982 -0.04978723
000020 e1 ac 5d bd 69 ea 10 bd 8c 08 e7 3c e7 6f 0e bd
       -0.05411995 -0.0353798 0.028202318 -0.034774687
000030 73 e9 8f bd 5b a3 4f bd d8 69 92 bd 80 a3 ba bd
       -0.07026949 -0.050692897 -0.07149094 -0.091132164
000040 b7 6b 50 3c 63 19 8c bd 6a 1a e5 3d 48 ff 8a 3d
       0.012720994 -0.0684078 0.11186679 0.06786972
000050 68 f1 96 3c 71 b1 23 bc 54 8d e8 bd 97 da fe 3d
       0.018425658 -0.009991036 -0.11355081 0.124440365
000060 d3 1b 0a bc 6f f7 5f 3b fc 20 50 bc 24 52 87 bc
       -0.008429485 0.0034174582 -0.012703177 -0.01651866
000070 0f dc 9c bc 37 c7 7a 3d b5 03 d0 3c 12 77 91 bd
       -0.0191479 0.061225142 0.025392393 -0.07102789
000080 d6 2c 6f 3d c8 49 2e bd 4d 62 25 3e 36 0c 11 be
       0.05839237 -0.042550832 0.1615078 -0.14164814
000090 9c 8b bf 3d 51 c9 0f 3e 99 c3 57 3d ef 28 9b 3d
       0.093528 0.1404164 0.05267677 0.07576167
0000a0 e0 cc f2 bc 01 a6 9c 3d de 11 41 3b 70 91 31 bb
       -0.029638708 0.0764885 0.0029460113 -0.0027094744
0000b0 4d 0c 96 bb 37 a9 8d bd 3e 19 f6 bc 9f d4 af 38
       -0.004579103 -0.06917041 -0.030041333 8.384254e-05
0000c0 ec 11 31 3d a2 a8 87 3d f8 ed 96 bc ee bc 7d 3d
       0.043229982 0.06623961 -0.01842402 0.061947756
0000d0 a2 64 b5 3d 94 15 ac 3d 12 d9 26 3b d9 47 ca bb
       0.08857085 0.08402553 0.0025458974 -0.0061731157
0000e0 3c a4 8f bb f1 28 92 bd 75 45 6c bd 0a 03 bc 3b
       -0.004383592 -0.07136715 -0.057683427 0.005737667
0000f0 f7 f3 1f bd 73 95 97 bd 06 7d ca bc e8 5e 0a 3d
       -0.039051022 -0.07401552 -0.024717819 0.033781916
000100 ea 13 69 bc ef 6a 92 3c 0a 80 90 3c e9 70 b3 3c
       -0.014225939 0.017873256 0.017639179 0.021904426
000110 90 d5 6c 3d 1a 12 5d 3d c9 09 b6 bd ff f3 20 3e
       0.057820857 0.05397234 -0.08888585 0.15718077
000120 b4 2f 37 bd 98 66 c0 bb 96 9f 99 3d d8 0d 53 3d
       -0.044723228 -0.005871605 0.07501142 0.051526874
000130 cc 57 38 3c aa 72 c7 3d 20 55 2b 3d b3 59 55 bd
       0.011251401 0.09738667 0.04182923 -0.052087497
000140 da 00 8b bd 2a f2 9b bd 2c 2d c3 3d 16 cf 17 3c
       -0.06787272 -0.076145485 0.095301 0.009265682
000150 3e 86 6a 3d 4a bc ec 3d 48 5f d8 bd a6 2b c8 3c
       0.05725693 0.11559351 -0.105650485 0.024434876
000160 b3 dd 6d bd 1b 81 54 bd 46 69 0d 3d b0 aa 60 3d
       -0.058072757 -0.051880937 0.034524225 0.05485028
000170 0a 49 a5 3d 11 4a f0 bc 06 cf f1 bc bb 6f 1c bd
       0.08070572 -0.029332193 -0.029517662 -0.038192492
000180 aa db 87 bd aa 75 a2 bd b3 cd 85 bd f4 a3 1b bd
       -0.066336945 -0.07932599 -0.06533375 -0.037998155
000190 8e 41 41 3d ad 9f 13 3c ce 7f 96 bd 2e 11 b0 3c
       0.04718166 0.009010238 -0.073485956 0.021492567
0001a0 3d e2 0f 3d 75 6b b8 3b 71 66 ce bc 81 b9 43 3c
       0.035127867 0.0056280443 -0.025195332 0.011946083
0001b0 01 2f da 3c 7c 4e 54 bc b0 d5 72 3c ae 29 2d 3c
       0.026633741 -0.012958165 0.014821455 0.010569019
0001c0 7b 7b 58 3c 31 52 2d bd ea 1e 8c bd e2 18 e6 3d
       0.013213034 -0.042314712 -0.06841834 0.11235215
0001d0 a9 0c 61 3d 99 0b 73 bd 32 42 9e 3b 8f 18 d5 3b
       0.054943714 -0.059337232 0.0048296684 0.0065031718
0001e0 ae ba 11 39 d5 44 b2 bd cf 1d 34 3c eb fa 03 3e
       0.00013897821 -0.08704535 0.010993435 0.12888686
0001f0 a4 8d 8d bd 25 8e 8e 3d 77 39 f7 3c 1a 9f 87 3d
       -0.069117814 0.06960706 0.030178769 0.06622143
000200 e4 90 53 bd b4 9f 80 bd b2 24 a3 bb 7d 1f 11 3e
       -0.05165185 -0.06280461 -0.0049787397 0.14172168
000210 01 e1 86 3c 82 70 a7 bd 3e 44 7d bc b5 c6 71 3c
       0.016464712 -0.08175756 -0.015458165 0.014756848
000220 32 f4 0c bb 7f 1f e6 3c d7 9a 02 bc a5 17 27 be
       -0.0021507856 0.02809119 -0.007971487 -0.16317613
000230 df ef dd bd 5f a2 40 3c 3e a4 f0 3b b6 da f1 bb
       -0.108367674 0.011757462 0.007343798 -0.0073808087
000240 de 3f fe 3c 08 30 bb bd 9a 36 83 bd 82 5a 1d 3e
       0.031036314 -0.091400206 -0.06406899 0.15366557
000250 17 13 04 3c cf 47 d9 bc e6 21 21 bd db fe 0d bd
       0.008061192 -0.026523499 -0.03933897 -0.034666877
000260 44 21 95 3d f7 1d 13 bd ad f7 b4 bd 64 ba 52 bc
       0.072817355 -0.03591725 -0.08836303 -0.012861822
000270 2e bb 8a bd 52 08 46 bc 8f 36 36 bc fb 4d d3 bd
       -0.06773983 -0.012086945 -0.011121406 -0.10317608
000280 55 d9 5f bd 2b 22 e6 3c 35 72 99 bc 1c 5e b2 3d
       -0.054650623 0.028092464 -0.018731216 0.08709356
000290 88 c8 9f 3d 70 3f ad 3d 55 3f 67 bb 96 62 38 bb
       0.0780192 0.08459365 -0.0035285552 -0.0028134934
0002a0 f4 e3 4a bd 21 3a f1 3b 74 16 06 3e ef 94 9d 3d
       -0.0495338 0.007361666 0.13094503 0.076944225
0002b0 ab 45 5c bd 0a ec bf 3c 4e 59 8e bd 15 0c aa bd
       -0.053777378 0.023427982 -0.06950627 -0.08303086
0002c0 82 4d 69 bb f6 a5 6d bd 14 80 b7 3c b1 5b e4 bd
       -0.0035599177 -0.0580196 0.02239994 -0.11150301
0002d0 96 ac 41 bd df 75 ab bd 60 32 29 bd db 56 8a 3c
       -0.04728373 -0.083720915 -0.041307807 0.016887119
0002e0 b8 7b 02 3d 06 20 be 3c d7 f4 8c 3c 5a a5 0e bd
       0.03185627 0.02320863 0.017206592 -0.03482566
0002f0 08 1b cf bd b4 16 dc bb 8b c7 87 3c 1b 03 43 ba
       -0.10112578 -0.0067165736 0.016574642 -0.00074391224
000300 8d 8e 05 bc 47 3a 26 bd 0b 6f 89 bd d7 32 3a 3d
       -0.008151663 -0.04058292 -0.06710633 0.04545864
000310 e6 b2 56 3d 84 2a 99 bd 75 aa 60 3c f2 99 1a 3d
       0.052416705 -0.07478812 0.013712515 0.03774447
000320 05 c8 3f bd 2b b2 82 3d 6e 51 72 3d 71 96 8f bd
       -0.046821613 0.06381639 0.05915969 -0.07011116
000330 2d 9f 98 bd da 2e da bd 21 63 56 3d 63 bb 12 3d
       -0.07452235 -0.106534675 0.05234063 0.035823237
000340 4b 39 89 3c 73 29 5b bd 3a 90 c0 b9 f6 18 78 3a
       0.016750952 -0.053506326 -0.0003672855 0.00094641687
000350 9d fb 70 bd 60 9a b4 3d 16 9c 3f 3d 2f bb d7 bc
       -0.058833707 0.08818507 0.046779715 -0.026334373
000360 f9 c3 88 b9 11 77 16 bb 76 47 40 bd 04 dc 83 bd
       -0.00026085952 -0.0022959153 -0.04694315 -0.06438449
000370 f7 10 d8 bd 17 d7 e5 bc f2 31 1e bd ff ac 92 bc
       -0.10550111 -0.028056664 -0.03862185 -0.017904757
000380 5c 62 6f bd ae 26 ed bc f5 fe 8f 3c 67 64 8d 3d
       -0.058443412 -0.028949108 0.017577628 0.06903916
000390 b9 97 7c bd a0 e2 77 3d 0b 5b b7 3c 54 d9 5e bd
       -0.06166813 0.06051886 0.02238228 -0.05440648
0003a0 db 0a d9 bc c0 0c 7e 3d 94 9b 46 bc 85 ea e6 3c
       -0.026494434 0.062023878 -0.012122054 0.028188
0003b0 a1 8e 90 ba 78 fd 5d be 67 1c 18 bc 85 92 04 be
       -0.0011028835 -0.21678722 -0.009284115 -0.12946518
0003c0 5a 34 a8 3d ba 7c d4 3d 2f 0b 44 3d 1e eb f4 bc
       0.0821311 0.10375352 0.047862228 -0.029897269
0003d0 a8 5a c3 3c de 06 a7 bd dd cc 09 3e 7d 7f bf bd
       0.02384694 -0.08155607 0.13457055 -0.09350488
0003e0 76 67 35 bd 25 45 01 3e 6d b0 23 3d 34 84 f6 bb
       -0.04428812 0.12624033 0.039963175 -0.007523084
0003f0 e2 71 ae bd 2b 7d bd 3d 20 a7 2e 3d f9 c8 18 3d
       -0.08517815 0.092523895 0.04263985 0.037301037

critic.linear1.bias f4 [128]
000000 a3 48 10 3e 86 12 8f bd 94 4b 30 3d 32 f1 15 3e
       0.14090209 -0.06985955 0.043040827 0.1464279
000010 b4 ba e3 3c 59 53 0e 3e 33 62 41 3d 51 7f 9c bc
       0.027798988 0.13898982 0.04721279 -0.019103678
000020 f8 68 26 3b 6c 05 b1 3d 82 eb 00 be 55 b2 ed 3c
       0.0025392156 0.08643612 -0.12589839 0.0290157
000030 1b b6 ed bd 44 4d 66 bd 7f 00 4e bd a3 24 d9 3b
       -0.116069995 -0.05622603 -0.05029344 0.006626682
000040 f5 28 56 3d 20 54 ce 3a 1d b0 ca 3d e7 fc 91 3d
       0.052285153 0.0015741624 0.09896872 0.071283154
000050 98 e2 13 3d 62 e0 b2 3c 2b 90 0b 3e 31 4b 6a 3d
       0.03610477 0.02183551 0.13629214 0.057200614
000060 cf cf 01 3e c2 06 e0 bc da 0b c2 3d f2 70 80 3d
       0.12676929 -0.027346972 0.09474917 0.062715426
000070 8d d0 bd bd 59 1d 1e 3c 16 3e 8a bd fd 60 0b 3d
       -0.092682935 0.009650552 -0.06750123 0.034028042
000080 6b 51 83 3d dd 20 08 be 6c bf a1 3d 51 3d 0c bd
       0.064120136 -0.13293786 0.07897839 -0.034238163
000090 19 76 aa 3d 6c 58 a3 3d ce 81 f0 3d c4 a2 cc 3d
       0.083233066 0.079758495 0.11743508 0.099919826
0000a0 96 d0 a5 3d 9b da 58 3d fc 6a 19 bd f9 51 0f 3d
       0.08096425 0.052942853 -0.037455544 0.034990285
0000b0 f4 5e 0c 3e d2 be 16 3e 04 5e 00 3e a5 af 42 bd
       0.13708097 0.1472123 0.12535864 -0.04753079
0000c0 12 ab 2c bd a6 c0 06 3e 32 06 ea bd 3a 83 2b 3d
       -0.042155333 0.13159427 -0.11426963 0.041873194
0000d0 c1 b4 59 3d 71 31 11 bb de be f8 3d f3 5c d4 3d
       0.053150896 -0.0022154714 0.1214578 0.10369291
0000e0 08 ee 73 3c 41 22 8d bd 76 2b 89 bc 11 6e 03 3e
       0.014888294 -0.06891299 -0.016744357 0.12834956
0000f0 db e1 f0 3d 2b 33 10 3d 87 15 af bd b7 4c bd 3d
       0.117618285 0.035205048 -0.08549028 0.09243148
000100 65 d8 50 3d 81 14 01 3e 03 c5 51 3c c0 8e 15 3e
       0.05098762 0.12605478 0.012803319 0.14605236
000110 38 62 e0 3a 39 87 2d 3d c0 b5 19 3e 91 11 0d be
       0.0017119115 0.042365286 0.15010738 -0.13776232
000120 da d9 f5 3d 18 8f 26 3e bc 1b c0 3d 1f 25 93 3d
       0.120044425 0.16265523 0.0938029 0.07184815
000130 6a 50 02 3e c8 42 d3 3b f7 74 06 be 90 f3 e4 bd
       0.12725988 0.00644717 -0.13130556 -0.11179268
000140 d9 97 15 3e 62 fa 0b be ea 73 5a bd 70 30 5d 3c
       0.14608707 -0.13669732 -0.0533332 0.013500318
000150 3a a8 42 bc d0 be 8b bb 90 23 de 3b 4d 4e 81 3c
       -0.011880929 -0.00426469 0.0067791417 0.015784407
000160 3d 0b 0a 3e 8c 35 62 bd d0 9d 27 3e d0 ee 01 be
       0.1348085 -0.055226848 0.16368794 -0.12688756
000170 94 52 c1 bd 00 1b ee 3d 9b 13 04 be 93 2d 44 3c
       -0.09439579 0.116262436 -0.12898104 0.011973756
000180 79 7c 08 3e f6 c8 05 be d9 63 f9 3d 23 54 e2 3d
       0.13328733 -0.13064942 0.121772476 0.11051204
000190 25 9f 64 3c 5b 1d 63 3c 7d 85 e5 3d e6 2f 0b 3e
       0.013953959 0.013861979 0.112071015 0.1359249
0001a0 f4 a5 2b 3c 9f 9b e0 bc 00 c0 ae bd ad 2b 3a bd
       0.010476578 -0.027417956 -0.08532715 -0.04545181
0001b0 4e d6 06 3e 66 d3 f6 3d 5a c6 db bd 47 17 e7 bc
       0.13167688 0.1205204 -0.10731192 -0.028209342
0001c0 31 a8 fe 3d ef 48 fa bd fd af 00 be 48 88 d4 bd
       0.12434424 -0.12220942 -0.12567134 -0.10377556
0001d0 0f b5 a0 3c 15 2f 46 3d e8 1f 0a be df 94 dd bd
       0.019617585 0.048384745 -0.13488734 -0.108194105
0001e0 a9 a2 25 3d 2f ec 8d 3b 4b 41 c3 3c 8e 9e 24 3d
       0.040438328 0.004331134 0.023834845 0.040190272
0001f0 8d e7 f7 3c ea ac 57 3c 0b 85 dc 3c 28 21 49 3b
       0.03026178 0.0131637845 0.026918909 0.0030689929
