landing_starship_raw_ckpt/ckpt_00001501.pt (torch, 480375 bytes, 15 tensors)

actor.linear1.weight f4 [128, 120]
0.0073525147 0.010331237 -0.07680388 0.020970896 -0.008704961 -0.08266464 -0.08696457 -0.03520869
0.052449044 -0.061369747 0.07619541 0.07565584 -0.030505456 0.033537515 0.052074526 0.04811405
0.0053974944 0.02329447 0.060517196 0.062453717 0.008336102 -0.09154171 -0.0008951924 0.037686694
0.027350187 -0.01468157 0.007900487 0.07428679 0.0387029 0.0024136386 -0.07747064 -0.055553578
0.064742304 -0.07630449 -0.009204565 0.061184842 0.05590913 0.0207266 0.042144272 -0.03583096
0.03717546 0.038477167 0.042423148 -0.013798281 0.070050664 -0.07930382 -0.03969629 -0.056615993
-0.07529028 -0.054288752 -0.05467833 -0.0727695 0.02294071 0.06245511 -0.06579534 0.040204044
-0.0026601132 0.061706074 0.016735254 -0.07476232 -0.07606378 0.019249553 -0.0064779157 -0.04833537
-0.018440189 -0.06715875 -0.010217541 -0.06625893 0.07277805 0.031442247 0.056169864 -0.08822459
-0.028743777 0.01731781 0.02484838 0.042639293 0.07129208 -0.065173514 0.04441056 -0.023024207
0.026367852 -0.053527262 -0.049881224 0.08867188 0.0848744 -0.022858676 -0.008716655 -0.007826639
0.075413294 0.09420736 0.01440925 0.055764608 0.0093485825 -0.019215487 -0.060486253 -0.038024202
-0.00024894573 7.6707875e-05 -0.061915707 -0.045612022 0.06286454 0.053439178 -0.016402725 -0.088240564
0.054953296 -0.042017404 0.06315652 -0.07242382 0.0336413 0.028861945 0.05220498 -0.045146875
-0.08176715 -0.0424774 -0.05316633 0.04721762 0.06360329 -0.011668313 -0.047468614 -0.093298025
-0.05818412 0.05002264 0.04899887 0.01586149 0.0023672008 -0.06027765 0.02749499 -0.057874944
-0.053760733 0.07406099 -0.02562941 -0.04116151 -0.06484311 -0.087720454 -0.06975912 -0.027753606
-0.047788113 0.015168058 -0.07605912 -0.062320277 -0.034539945 0.025122993 0.04784347 0.08925491
-0.055523425 -0.07190969 -0.0843947 -0.03638782 0.058347147 -0.047296755 -0.08180282 0.034379315
0.07655316 0.07909042 0.050197437 -0.014384066 -0.080823995 0.06581322 -0.049278427 0.05096692
0.013192405 0.032928757 -0.039154854 -0.043387327 -0.08773969 0.0317498 0.016809318 0.025590314
0.072103366 0.06349457 -0.012300349 -0.05282194 0.03166647 0.00011431815 -0.013314091 -0.028391346
0.0667595 -0.07246131 0.005140762 0.0845665 0.01231281 -0.08997892 0.0051709875 -0.02996294
0.032681383 0.028790217 -0.04068792 0.07597079 0.08295662 -0.0714238 -0.07981615 -0.059051678
-0.0148506 0.07704359 -0.012925145 0.003168914 0.025105692 -0.0055116215 -0.06936056 0.087006666
0.06693049 -0.036417585 0.012433952 -0.07935133 0.06313548 -0.046765458 -0.0042915097 -0.010871538
-0.07511438 -0.00716138 -0.09032772 -0.05722507 -0.055373564 -0.072693475 -0.0143876225 -0.07860596
0.049238905 -0.07882634 0.065394 -0.056781687 -0.032326393 0.09112218 -0.030224102 -0.08645499
0.059775457 0.028982522 -0.07341506 -0.07581473 -0.08194906 0.017608603 -0.011435414 -0.07455228
0.028825168 -0.04075311 0.03513051 0.03046843 -0.013814993 0.0066214777 0.0016231937 -0.032827057
-0.04129515 0.089439586 0.009986422 0.008497018 0.080793634 0.027183296 -0.07460859 -0.041186873
-0.008745557 -0.07033645 -0.0012735949 -0.0628278 0.04801875 -0.058695365 0.00862463 -0.04194017
00000000: 5ded f03b 5944 293c 5a4b 9dbd 28cb ab3c
00000010: 419f 0ebc 144c a9bd 7b1a b2bd fd36 10bd
00000020: cfd4 563d d85e 7bbd 570c 9c3d 73f1 9a3d
00000030: 94e6 f9bc a25e 093d 194c 553d 3d13 453d
00000040: 77dd b03b 0bd4 be3c e1e0 773d 78cf 7f3d
00000050: 2594 083c 387a bbbd 58ab 6aba 5d5d 1a3d
00000060: 800d e03c f88a 70bc 0b71 013c ac23 983d
00000070: ef86 1e3d 232e 1e3b eda8 9ebd 268c 63bd
00000080: 9d97 843d 8745 9cbd bece 16bc f59c 7a3d
00000090: f900 653d d5ca a93c 799f 2c3d 7cc3 12bd
000000a0: 4c45 183d 3c9a 1d3d e5c3 2d3d 2f12 62bc
000000b0: b976 8f3d 0b6a a2bd 9498 22bd 2ce6 67bd
000000c0: ca31 9abd e25d 5ebd 62f6 5fbd 2d08 95bd
000000d0: 28ee bb3c eed0 7f3d b5bf 86bd ffac 243d
000000e0: 4b55 2ebb 82bf 7c3d 5f18 893c fd1c 99bd
000000f0: 54c7 9bbd 3db1 9d3c b244 d4bb 4ffb 45bd
00000100: e10f 97bc 878a 89bd 7967 27bc c3b2 87bd
00000110: a90c 953d 96c9 003d 5f12 663d 18af b4bd
00000120: 1278 ebbc 14de 8d3c d48e cb3c 8aa6 2e3d
00000130: 9501 923d b179 85bd d9e7 353d 439d bcbc
00000140: 6501 d83c 673f 5bbd 4150 4cbd 9a99 b53d
00000150: a1d2 ad3d 1e42 bbbc 4dd0 0ebc 4e3b 00bc
00000160: 4972 9a3d caef c03d c614 6c3c 6e69 643d
00000170: cc2a 193c cc69 9dbc 6fc0 77bd 44bf 1bbd
00000180: ee84 82b9 3ade a038 539b 7dbd acd3 3abd
00000190: 20bf 803d 0ae3 5a3d 025f 86bc 78b7 b4bd
000001a0: b516 613d 711a 2cbd 3558 813d f152 94bd
000001b0: 76cb 093d e36f ec3c e4d4 553d eeeb 38bd
000001c0: 8975 a7bd c8fc 2dbd f0c4 59bd 4367 413d
000001d0: 7142 823d 742c 3fbc 736e 42bd 0913 bfbd
000001e0: 7952 6ebd 8ae4 4c3d 0ab3 483d f5ef 813c
000001f0: 0a23 1b3b b2e5 76bd 2c3d e13c 470e 6dbd
00000200: 3734 5cbd 4aad 973d c5f4 d1bc f998 28bd
00000210: 77cc 84bd c8a6 b3bd dfdd 8ebd 885b e3bc
00000220: 78bd 43bd 7283 783c e2c4 9bbd 8c43 7fbd
00000230: c279 0dbd bcce cd3c 84f7 433d 47cb b63d
00000240: 886c 63bd 6345 93bd 21d7 acbd 650b 15bd
00000250: 6bfd 6e3d 3eba 41bd 3d88 a7bd 53d1 0c3d
00000260: e7c7 9c3d 28fa a13d d49b 4d3d 25ab 6bbc
00000270: 0d87 a5bd 15c9 863d 2dd8 49bd b0c2 503d
00000280: f524 583c 4ee0 063d d760 20bd e9b6 31bd
00000290: deb0 b3bd 140c 023d b2b3 893c c7a2 d13c
000002a0: eeaa 933d 7109 823d 6787 49bc d25b 58bd
000002b0: b3b4 013d 17be ef38 5823 5abc f894 e8bc
000002c0: 34b9 883d 9866 94bd d673 a83b 3331 ad3d
000002d0: abbb 493c de46 b8bd 6371 a93b d774 f5bc
000002e0: eadc 053d 76d9 eb3c 60a8 26bd 9396 9b3d
000002f0: 29e5 a93d a446 92bd a676 a3bd 2ce0 71bd
00000300: ee4f 73bc 08c9 9d3d fdc3 53bc 8ead 4f3b
00000310: 74aa cd3c d59a b4bb e90c 8ebd 8d30 b23d
00000320: da12 893d 9b2a 15bd c6b7 4b3c f382 a2bd
00000330: 2d4d 813d 238d 3fbd cb9f 8cbb 891e 32bc
00000340: 91d5 99bd 02aa eabb bdfd b8bd d664 6abd
00000350: 64cf 62bd 51e0 94bd 10ba 6bbc 29fc a0bd
00000360: bcae 493d b46f a1bd 4aed 853d ea93 68bd
00000370: ae68 04bd 449e ba3d 8998 f7bc 500f b1bd
00000380: 1cd7 743d c16c ed3c a35a 96bd c144 9bbd
00000390: e9d4 a7bd eb3f 903c 9a5b 3bbc deae 98bd
000003a0: c222 ec3c bcec 26bd 02e5 0f3d ee98 f93c
000003b0: 4858 62bc fbf8 d83b 58c1 d43a aa75 06bd
000003c0: 1a25 29bd 1a2c b73d 179e 233c 1437 0b3c
000003d0: 2277 a53d 81af de3c 63cc 98bd 91b3 28bd
000003e0: 8649 0fbc 8f0c 90bd c1ee a6ba ddab 80bd
000003f0: 4faf 443d 8d6a 70bd 524e 0d3c 75c9 2bbd

actor.linear1.bias f4 [128]
-0.06857591 0.051549383 -0.088602185 0.073467106 -0.08177391 -0.0863929 -0.04047992 0.0025585894
-0.053432703 -0.017728211 0.035055332 0.02095864 0.022868559 0.008332509 -0.07993529 -0.03480493
0.011665302 0.056944303 0.0066688685 0.0034846622 0.0622536 -0.03021765 0.051105887 -0.085335314
0.05144053 0.030190209 -0.020430323 0.041047085 -0.0025856292 -0.064081095 -0.086615 -0.072008096
-0.05892594 0.07700834 0.017207004 -0.079080425 -0.06365719 0.08135635 0.0060955076 0.023304764
-0.00083898637 -0.081827655 -0.09053816 -0.0035603952 -0.05608708 -0.017684352 0.022564594 -0.025426967
0.024050973 -0.057457376 -0.0036043667 -0.015380329 0.08187672 -0.09454784 -0.08851506 -0.077029906
-0.06350613 -0.085268065 0.030815072 0.0031029966 -0.06874605 -0.009061985 -0.05473572 -0.08818773
0.05334052 0.0111943325 -0.025337286 0.0863143 0.019252444 0.05278749 -0.024475373 -0.07700294
-0.09052576 -0.0023585851 -0.07692247 -0.004036274 -0.05315815 -0.067783475 -0.06720552 -0.08576882
0.079294816 -0.061802536 0.016801441 -0.026336731 -0.021198934 -0.051881883 -0.08235506 0.08598349
-0.044448886 -0.06275245 0.035296503 -0.011123002 0.058748245 0.025590423 -0.08488278 -0.07082086
0.047847077 0.02603696 0.040303823 -0.09024672 -0.08616747 -0.0001672835 0.05402106 -0.061385497
-0.070301846 -0.058393076 0.055292543 -0.03542095 -0.068751566 -0.035817444 -0.09150672 -0.034633987
0.0023921044 -0.05175887 -0.03899015 0.063308835 0.014818097 0.077345364 0.077237464 -0.06828821
0.08787716 -0.03218774 -0.07601859 0.0500327 -0.019397985 -0.0072810347 -0.017406793 -0.045008387
00000000: 8771 8cbd 7225 533d 1075 b5bd ec75 963d
00000010: 1479 a7bd c3ee b0bd 46ce 25bd 02ae 273b
00000020: 40dc 5abd c13a 91bc 2e96 0f3d 74b1 ab3c
00000030: d856 bb3c 1385 083c 1db5 a3bd 9d8f 0ebd
00000040: d31f 3f3c 6e3e 693d 8686 da3b ee5e 643b
00000050: a2fd 7e3d 018b f7bc 6854 513d 48c4 aebd
00000060: 4eb3 523d 7551 f73c 7e5d a7bc fd20 283d
00000070: a973 29bb f33c 83bd 3563 b1bd fb78 93bd
00000080: 545c 71bd 8cb6 9d3d b4f5 8c3c ebf4 a1bd
00000090: b35e 82bd 289e a63d d3bc c73b a2e9 be3c
000000a0: 6cef 5bba 4295 a7bd 126c b9bd 8555 69bb
000000b0: 91bb 65bd c6de 90bc 62d9 b83c 374c d0bc
000000c0: 8c06 c53c 6d58 6bbd 3d37 6cbb c7fd 7bbc
000000d0: fbae a73d 4ca2 c1bd 6247 b5bd dbc1 9dbd
000000e0: 800f 82bd 06a1 aebd e46f fc3c a55b 4b3b
000000f0: bbca 8cbd b878 14bc 9032 60bd c59b b4bd
00000100: 977b 5a3d 6f68 373c 2490 cfbc 8dc5 b03d
00000110: 4db7 9d3c b237 583d 9480 c8bc b8b3 9dbd
00000120: 9265 b9bd 7e92 1abb 8789 9dbd b842 84bb
00000130: 5cbc 59bd 10d2 8abd 0ca3 89bd 90a7 afbd
00000140: 5265 a23d a824 7dbd 2da3 893c 21c0 d7bc
00000150: 63a9 adbc 1982 54bd c5a9 a8bd 1d18 b03d
00000160: 0910 36bd 5b84 80bd 1193 103d 403d 36bc
00000170: 00a2 703d 02a3 d13c 06d7 adbd 870a 91bd
00000180: 4cfb 433d 764b d53c 9f15 253d 46d3 b8bd
00000190: 9278 b0bd d368 2fb9 3045 5d3d 5c6f 7bbd
000001a0: 6afa 8fbd 942d 6fbd 6f7a 623d 8f15 11bd
000001b0: 9fcd 8cbd 50b5 12bd e067 bbbd 5edc 0dbd
000001c0: dac4 1c3b 1c01 54bd 23b4 1fbd 10a8 813d
000001d0: 9bc7 723c 3f67 9e3d ad2e 9e3d b0da 8bbd
000001e0: f1f8 b33d 4bd7 03bd a2af 9bbd 17ef 4c3d
000001f0: 86e8 9ebc bf95 eebb b198 8ebc b75a 38bd

actor.linear2.weight f4 [128, 128]
-0.085423075 -0.027582094 -0.077670276 -0.012336047 -0.04738294 0.041666254 -0.027404023 0.07753501
-0.04451098 0.017659754 -0.026269102 -0.042878665 -0.0078035155 0.06613852 -0.08352231 0.032313168
-0.07920897 0.08683361 0.05772415 -0.018140573 -0.037802305 -0.012160195 -0.02074963 -0.03554134
-0.059268184 -0.00041628952 0.0050469427 0.031642817 0.0530425 -0.0098732 -0.06598014 0.0072392253
-0.073200524 0.023226073 0.06857829 0.03864441 0.030994723 0.010660002 0.07591216 -0.060961004
-0.017010022 0.075023204 0.0486653 -0.05450527 0.046228606 -0.02320501 0.060096692 0.020249596
-0.05011003 -0.007809849 0.035009462 -0.054690335 -0.07184698 -0.01646527 -0.07048778 0.0045216405
0.08226209 -0.012313331 0.07976594 0.008411519 0.07550092 -0.09060608 0.011202051 -0.00091554114
-0.022896921 0.048453875 -0.013639237 -0.01819833 0.020692155 0.06746936 0.009422181 -0.017095732
0.0051229447 0.080678806 -0.06720999 -0.033127893 0.011762117 -0.017335827 -0.027372316 0.036921825
0.001200429 0.06632565 0.009164599 0.04920772 -0.028763589 -0.04668893 -0.07031103 -0.03765227
-0.030097248 0.04813357 0.03436625 0.022599183 -0.015467443 -0.059409514 -0.02047302 0.0034720278
0.04980449 -0.061080948 0.050514296 0.013104392 0.035812467 -0.08275953 -0.084780596 -0.053080484
0.035515208 -0.043749157 0.08127785 -0.06485096 -0.0034565935 -0.031767804 -0.037497547 -0.024452873
-0.0314539 0.07064946 0.03650692 -0.06360597 0.016274372 0.012759345 -0.06585311 -0.059223678
0.02646866 0.051372852 0.058178917 0.018930534 -0.007848412 0.00757366 -0.07182102 0.019022644
0.01819087 0.08667534 0.0787224 0.08102217 0.0148482 0.035150252 -0.041069705 0.010541496
0.054556012 -0.061367158 0.060824 -0.009361572 -0.06198972 -0.034776628 -0.07472421 0.033485588
-0.0012527521 0.010971982 0.03892474 0.01629762 0.020304328 -0.040895317 -0.08337221 0.07264321
0.06523137 0.008264055 0.026378024 -0.05739055 0.06773203 -0.058736626 -0.053145602 -0.0077314596
-0.03244197 -0.07901219 0.06905815 0.03488212 -0.021584079 -0.010374355 0.076535076 -0.021091167
0.024223138 0.08569192 -0.057293087 0.07023931 0.078715004 0.06807207 -0.012574166 0.08393887
-0.022370152 -0.059984267 -0.022484666 -0.08318227 0.01714336 -0.05466143 -0.052990466 -0.011782289
-0.018929262 -0.024435917 0.025458258 -0.013463759 0.052885037 -0.03753946 -0.00017178824 -0.043520503
-0.03480946 -0.08239404 0.060956758 0.050484933 -0.06816552 0.014673465 0.07098443 -0.005204627
0.06181698 -0.015857892 -0.019434057 -0.005999063 0.027683523 -0.082517855 -0.04974039 -0.043380313
0.037201155 0.08508904 0.044417113 0.023853391 0.009408532 -0.0073074712 -0.051688217 0.030352034
-0.0038973652 -0.013830448 0.0064054346 -0.045945734 0.0048335977 0.06644206 0.059411388 -0.062956855
-0.043297075 -0.04051424 0.069610655 0.017861629 0.055401426 0.07703131 -0.06920877 -0.06966999
-0.06087419 -0.07501072 0.040870734 0.03938815 -0.018375153 -0.064267755 0.018679108 -0.052196734
0.011465729 0.016938707 0.066907205 -0.07400339 0.069515266 -0.023109904 0.0027310855 -0.03821895
0.044830494 -0.05803045 -0.058628414 -0.06732908 -0.035867687 -0.020187126 -0.059184425 0.08507071
00000000: 4bf2 aebd d8f3 e1bc 9811 9fbd 221d 4abc
00000010: 9d14 42bd 3caa 2a3d 677e e0bc adca 9e3d
00000020: 2551 36bd 30ab 903c 4d32 d7bc 8aa1 2fbd
00000030: a2b4 ffbb a273 873d bf0d abbd d05a 043d
00000040: 5038 a2bd d2d5 b13d 2970 6c3d 8a9b 94bc
00000050: 97d6 1abd 8e3b 47bc 21fb a9bc cc93 11bd
00000060: 32c3 72bd 6f41 dab9 d360 a53b e69b 013d
00000070: 1843 593d 34c3 21bc 9820 87bd 0637 ed3b
00000080: 28ea 95bd 9b44 be3c c672 8c3d 9a49 1e3d
00000090: a5e8 fd3c 4aa7 2e3c d677 9b3d 3fb2 79bd
000000a0: 9a58 8bbc c4a5 993d 4455 473d eb40 5fbd
000000b0: 355a 3d3d 6f18 bebc f327 763d 7be2 a53c
000000c0: 2d40 4dbd c3e9 ffbb 1566 0f3d f902 60bd
000000d0: 8224 93bd 2de2 86bc e65b 90bd 452a 943b
000000e0: 0779 a83d dabd 49bc 535c a33d 78d0 093c
000000f0: 3aa0 9a3d ae8f b9bd cf88 373c ed00 70ba
00000100: 5392 bbbc 9277 463d 1b77 5fbc aa14 95bc
00000110: 9882 a93c 602d 8a3d 7e5f 1a3c 590c 8cbc
00000120: 60de a73b ee3a a53d 64a5 89bd 1db1 07bd
00000130: e5b5 403c dd03 8ebc e83b e0bc 573b 173d
00000140: b757 9d3a bed5 873d 1d27 163c 098e 493d
00000150: 9ea1 ebbc e43c 3fbd 3bff 8fbd 4439 1abd
00000160: 818e f6bc b527 453d a0c3 0c3d ec21 b93c
00000170: 286b 7dbc 6457 73bd 09b7 a7bc f68a 633b
00000180: cbff 4b3d 0430 7abd 14e8 4e3d ceb3 563c
00000190: 18b0 123d d47d a9bd 73a1 adbd ec6a 59bd
000001a0: 6578 113d 5132 33bd 0075 a63d 95d0 84bd
000001b0: 0488 62bb f51e 02bd 0797 19bd 6451 c8bc
000001c0: ced5 00bd aab0 903d 4888 153d d943 82bd
000001d0: d551 853c 920c 513c ffdd 86bd 8794 72bd
000001e0: ced4 d83c 576c 523d 044d 6e3d 3514 9b3c
000001f0: a096 00bc 772c f83b e616 93bd 60d5 9b3c
00000200: 0505 953c d782 b13d 3639 a13d f4ee a53d
00000210: dd45 733c b6f9 0f3d b538 28bd 3db6 2c3c
00000220: 2076 5f3d 215c 7bbd 9622 793d 4761 19bc
00000230: efe8 7dbd f071 0ebd 0209 99bd 2f28 093d
00000240: 6333 a4ba d4c3 333c 8c6f 1f3d 9682 853c
00000250: 4355 a63c d981 27bd 0dbf aabd f7c5 943d
00000260: 0698 853d f565 073c ba16 d83c 5a12 6bbd
00000270: 17b7 8a3d d195 70bd 34af 59bd 2f58 fdbb
00000280: dfe1 04bd 25d1 a1bd 5c6e 8d3d 8ee0 0e3d
00000290: 18d1 b0bc 33f9 29bc 6cbe 9c3d 62c7 acbc
000002a0: 9a6f c63c 3f7f af3d 28ac 6abd a1d9 8f3d
000002b0: 5535 a13d 5f69 8b3d e003 4ebc 24e8 ab3d
000002c0: 9c41 b7bc 10b2 75bd c331 b8bc 775b aabd
000002d0: 3b70 8c3c aae4 5fbd 880c 59bd 800a 41bc
000002e0: 8a11 9bbc d52d c8bc d68d d03c 1997 5cbc
000002f0: fb9d 583d fac2 19bd 0e22 34b9 8e42 32bd
00000300: 5d94 0ebd 35be a8bd cbad 793d 4ac9 4e3d
00000310: 5d9a 8bbd f968 703c 4960 913d 938b aabb
00000320: cd33 7d3d 69e8 81bc 2c34 9fbc ca93 c4bb
00000330: 8ec8 e23c 1fff a8bd 94bc 4bbd 8eaf 31bd
00000340: 3d60 183d 2a43 ae3d b8ee 353d 3068 c33c
00000350: 3e26 1a3c 8373 efbb 06b7 53bd d4a4 f83c
00000360: f06a 7fbb 1a99 62bc aee4 d13b 9831 3cbd
00000370: 2863 9e3b c612 883d 5b59 733d 86ef 80bd
00000380: 4658 31bd 42f2 25bd 0890 8e3d 8d52 923c
00000390: 9bec 623d 97c2 9d3d 54bd 8dbd 24af 8ebd
000003a0: 3757 79bd 389f 99bd 1268 273d 7855 213d
000003b0: 7d87 96bc d09e 83bd ee04 993c 3ecc 55bd
000003c0: c1da 3b3c 0bc3 8a3c a506 893d 178f 97bd
000003d0: 055e 8e3d fb50 bdbc 03fc 323b 798b 1cbd
000003e0: 2ea0 373d 56b1 6dbd 5924 70bd d4e3 89bd
000003f0: ffe9 12bd 795f a5bc 5e6b 72bd 8d39 ae3d

actor.linear2.bias f4 [128]
-0.042865142 0.07037198 0.06298534 -0.028998503 0.014876657 0.065969154 0.067123845 0.05603537
0.036872525 -0.06410933 -0.072394416 0.04306715 0.07595184 0.0021165847 -0.022544218 0.04882309
-0.0032885773 0.044384632 -0.049081247 0.037145644 0.043839723 0.06460983 -0.08542174 -0.0655531
0.018426405 0.06205697 0.042299807 -0.02206969 0.016278744 0.043131612 -0.027370105 0.04610396
-0.003457492 0.07444574 0.07863372 0.066510566 -0.0048258407 0.063682966 -0.032980643 0.058023732
0.07836422 0.07527782 -0.014363131 0.0008353151 -0.08803151 0.058517355 0.0085828155 0.051296443
0.042692434 0.03220379 0.009514023 -0.051504724 -0.07552663 -0.049383093 -0.016404718 -0.07913458
-0.010769148 -0.077305816 -0.058564927 -0.024772955 -0.014810296 0.045365345 0.04184239 0.005476123
-0.001128479 -0.04374373 -0.0045038164 0.0515127 -0.08706298 0.04825842 0.08347751 0.07234259
0.026016474 0.035602063 -0.022881405 0.014162917 0.048617475 0.07852421 -0.04225539 0.06969911
0.015369105 -0.018290235 -0.08436723 0.012062306 -0.04101568 -0.07169555 -0.07854166 0.08328187
0.07734599 -0.085344635 -0.0492519 -0.04888533 -0.07615063 -0.034731556 -0.0342332 0.08265731
-0.038413666 -0.020679219 -0.02784594 0.06708493 -0.014497691 0.07905746 0.00722352 0.06518305
-0.0027516668 -0.057640553 -0.060932375 0.05189026 0.059802234 -0.046707798 -0.024423633 0.014348855
0.087155364 0.027352205 0.06989613 0.058828052 -0.0236413 -0.012672233 -0.0060707526 0.0016904027
0.035815127 -0.02090827 -0.030352674 0.044587262 -0.0050418884 -0.053965982 0.061629325 -0.05296106
00000000: 5c93 2fbd 2f1f 903d 75fe 803d 458e edbc
00000010: 39bd 733c d61a 873d 3a78 893d 5885 653d
00000020: a507 173d c14b 83bd 8643 94bd 2e67 303d
00000030: a38c 9b3d 66b6 0a3b a7ae b8bc b8fa 473d
00000040: 2c85 57bb a9cc 353d 6b09 49bd 0826 183d
00000050: 4891 333d 2952 843d 98f1 aebd b440 86bd
00000060: f9f2 963c 732f 7e3d 9042 2d3d 7fcb b4bc
00000070: 005b 853c c6aa 303d 4537 e0bc 82d7 3c3d
00000080: 1797 62bb 0277 983d b70a a13d b136 883d
00000090: 1622 9ebb 376c 823d b616 07bd 4baa 6d3d
000000a0: 6c7d a03d 422b 9a3d 5653 6bbc 0cf9 5a3a
000000b0: dd49 b4bd e5af 6f3d f09e 0c3c 381c 523d
000000c0: 43de 2e3d 1fe8 033d b4e0 1b3c 9ef6 52bd
000000d0: b5ad 9abd ed45 4abd 3063 86bc 5011 a2bd
000000e0: 1571 30bc 8352 9ebd c7e1 6fbd a7f0 cabc
000000f0: e2a6 72bc 03d1 393d ed62 2b3d 0d71 b33b
00000100: 79e9 93ba a02c 33bd c094 93bb fbfe 523d
00000110: 134e b2bd 9faa 453d 42f6 aa3d 5a28 943d
00000120: 8020 d53c 78d3 113d c971 bbbc 940b 683c
00000130: 1e23 473d 4dd1 a03d fd13 2dbd 68be 8e3d
00000140: b3ce 7b3c 67d5 95bc bac8 acbd faa0 453c
00000150: 0f00 28bd 1ed5 92bd 73da a0bd af8f aa3d
00000160: 9367 9e3d 2bc9 aebd 5cbc 49bd fc3b 48bd
00000170: ddf4 9bbd ad42 0ebd 1d38 0cbd 3c48 a93d
00000180: a657 1dbd 7767 a9bc 2b1d e4bc d363 893d
00000190: b987 6dbc e1e8 a13d 47b3 ec3b b17e 853d
000001a0: 4f55 34bb 8018 6cbd 3a94 79bd e28a 543d
000001b0: 30f3 743d ad50 3fbd 1214 c8bc 7617 6b3c
000001c0: 837e b23d bb11 e03c b425 8f3d aff5 703d
000001d0: 66ab c1bc 339f 4fbc 2aed c6bb 8190 dd3a
000001e0: e2b2 123d d247 abbc 2ca6 f8bc 22a1 363d
000001f0: 6d36 a5bb 6f0b 5dbd 086f 7c3d b2ed 58bd

actor.linear3.weight f4 [128, 128]
0.05339906 0.021391474 0.069662675 0.034434676 0.017569372 -0.04684862 -0.00953405 -0.04053324
0.08668677 -0.03928098 -0.050552137 -0.049292035 0.026906801 0.08142486 0.039731003 0.05977211
0.047674164 0.06733786 0.040055104 0.07454417 0.017853664 -0.078440264 0.04045568 0.020855539
0.027466726 0.006383751 0.030855538 -0.028838601 -0.050583508 -0.05164618 -0.030527752 -0.007939297
0.07464408 0.079802275 0.026397642 0.084724516 0.08510164 0.01898443 -0.051939625 -0.05638429
-0.06998866 -0.08544812 0.009459776 0.07621624 0.057693213 -0.030371213 0.04693496 -0.014909004
-0.041560885 0.055566415 0.05474677 0.04445819 0.08392531 -0.01014309 -0.0037754767 -0.023939895
-0.07359116 -0.026316697 -0.055308346 -0.05157837 -0.05971008 0.08380112 0.04647514 0.046740342
0.049513586 -0.040403035 0.053484004 -0.005626793 -0.0021566467 0.06359445 -0.06907948 0.08105178
0.03253716 0.070472404 0.07738199 -0.05294289 0.046511203 -0.055598654 -0.08666232 -0.0459982
0.03299921 -0.005766799 0.09201183 -0.02562364 -0.021165255 0.08340844 -0.014474806 -0.008621338
-0.040957876 -0.04805199 -0.044382054 0.006142499 -0.009343298 -0.07128812 0.0225752 0.04194102
-0.028314825 -0.048956446 0.028964149 0.031075094 0.038006246 0.0054321154 -0.07221038 -0.046621427
0.05883097 -0.051576555 -0.063772686 -0.024807056 -0.04334854 -0.017325869 -0.0120170545 -0.045198
-0.025466334 0.07902645 0.043457575 0.07990811 0.06529628 0.04250729 -0.04997141 0.03156252
0.0763292 -0.037664086 0.044465933 0.06531593 -0.07625353 -0.081116885 0.011441294 -0.069617994
-0.063656054 0.03827082 -0.08434334 0.0015006913 -0.08766148 -0.07094961 -0.024052793 -0.06444874
0.007998196 -0.07117394 0.06645816 -0.086764924 0.016000636 -0.049423758 -0.038463738 0.043424856
-0.002796308 -0.068258874 0.03898144 -0.028682575 0.06659917 -0.054426126 0.07776558 0.032838594
-0.020253647 0.018639164 0.035708487 0.009890871 0.07448585 -0.081610605 0.011874377 -0.02875232
0.07755704 0.004180345 -0.06968523 0.053129297 -0.04813403 0.010044618 0.0064808824 0.00017739701
-0.046255425 -0.009332775 0.019457635 0.0715795 -0.01661199 0.012898822 0.03133319 -0.0014828204
-0.08596014 -0.08605432 0.08074858 0.007875631 -0.0030001886 0.038385283 0.08029385 -0.003836472
0.07203831 -0.00242549 -0.066789314 0.047682073 0.07451626 -0.079024784 0.043384872 0.08364324
0.03257841 -0.070202745 0.0373547 0.016616447 -0.039050017 -0.0600659 -0.065287724 -0.0630393
0.010707107 0.07304944 0.08218399 0.08850316 -0.08243699 0.018033732 -0.076837406 -0.0064510037
0.06853007 -0.08648184 0.02679435 0.024810258 -0.061674144 -0.050897487 0.02812092 0.008721812
-0.04605557 0.056396957 -0.0041576894 0.03364626 -0.076831795 0.011610317 -0.0076804464 -0.009473341
0.085208006 0.029898927 -0.07193372 0.06738529 0.06426705 -0.052374907 -0.021887809 -0.028150752
0.013849475 -0.05095655 0.08140164 0.087159246 -0.052681223 0.03423742 -0.07476438 0.041895557
0.026199449 -0.018415047 -0.008621245 -0.01737465 0.062287305 -0.085689366 -0.0747918 0.00047006283
0.053310435 -0.084046885 -0.06574589 0.011019693 0.01972894 0.024884664 0.026706822 -0.007052259
00000000: f9b8 5a3d 2c3d af3c 4eab 8e3d 600b 0d3d
00000010: a5ed 8f3c 57e4 3fbd b434 1cbc 2f06 26bd
00000020: d588 b13d 18e5 20bd c20f 4fbd 72e6 49bd
00000030: a76b dc3c 14c2 a63d fabc 223d 9ad3 743d
00000040: fc45 433d 6fe8 893d d210 243d 9daa 983d
00000050: d941 923c 4aa5 a0bd dbb4 253d 3cd9 aa3c
00000060: e601 e13c c92e d13b c1c4 fc3c ee3e ecbc
00000070: a730 4fbd f28a 53bd 5615 fabc d313 02bc
00000080: ffde 983d 606f a33d de3f d83c 0c84 ad3d
00000090: c549 ae3d 3c85 9b3c a5be 54bd 37f3 66bd
000000a0: 3756 8fbd 6dff aebd 2dfd 1a3c 4317 9c3d
000000b0: b84f 6c3d 0dcd f8bc df3e 403d e544 74bc
000000c0: bf3b 2abd 9c99 633d 263e 603d cb19 363d
000000d0: 08e1 ab3d 342f 26bc fd6d 77bb 991d c4bc
000000e0: f6b6 96bd 1d96 d7bc 018b 62bd d743 53bd
000000f0: 8f92 74bd ec9f ab3d b75c 3e3d cd72 3f3d
00000100: c2ce 4a3d a77d 25bd 0b12 5b3d f660 b8bb
00000110: 8756 0dbb cf3d 823d 8b79 8dbd 7afe a53d
00000120: af45 053d d653 903d 737a 9e3d a5da 58bd
00000130: 8882 3e3d 6abb 63bd 047c b1bd 9c68 3cbd
00000140: 2e2a 073d 6bf7 bcbb b370 bc3d abe8 d1bc
00000150: c262 adbc 0bd2 aa3d bd27 6dbc 8340 0dbc
00000160: 72c3 27bd 2ad2 44bd f5c9 35bd 0447 c93b
00000170: a214 19bc 81ff 91bd a0ef b83c 59ca 2b3d
00000180: 7ef4 e7bc 8e86 48bd 3946 ed3c 3291 fe3c
00000190: 70ac 1b3d e3ff b13b 09e3 93bd 1cf6 3ebd
000001a0: bef8 703d f041 53bd 419b 82bd 2b38 cbbc
000001b0: 3d8e 31bd fbee 8dbc 2ee3 44bc 8a21 39bd
000001c0: c69e d0bc 9fd8 a13d 9200 323d dda6 a33d
000001d0: 0eba 853d 201c 2e3d d2ae 4cbd b347 013d
000001e0: 7c52 9c3d a845 1abd e921 363d 5cc4 853d
000001f0: d02a 9cbd 9c20 a6bd 4474 3b3c e193 8ebd
00000200: 1b5e 82bd ddc1 1c3d 33bc acbd d8b2 c43a
00000210: dd87 b3bd 074e 91bd 5d0a c5bc b3fd 83bd
00000220: de0a 033c a5c3 91bd 371b 883d cfb1 b1bd
00000230: c413 833c 9170 4abd 278c 1dbd 43de 313d
00000240: 4342 37bb 4fcb 8bbd 01ab 1f3d b8f7 eabc
00000250: 2565 883d eeed 5ebd 8f43 9f3d c381 063d
00000260: faea a5bc 29b1 983c 1043 123d 520d 223c
00000270: 0a8c 983d 7623 a7bd bf8c 423c fc89 ebbc
00000280: 3ad6 9e3d 47fb 883b 21b7 8ebd 1b9e 593d
00000290: 3028 45bd 2e92 243c 955d d43b a603 3a39
000002a0: 5476 3dbd 7fe8 18bc 9e65 9f3c 4698 923d
000002b0: de15 88bc 9555 533c 3b57 003d 325b c2ba
000002c0: df0b b0bd 3f3d b0bd 835f a53d ca08 013c
000002d0: d09e 44bb e339 1d3d 1a71 a43d 526d 7bbb
000002e0: d288 933d f8f4 1ebb d6c8 88bd 474e 433d
000002f0: fb9b 983d bfd7 a1bd 56b4 313d 264d ab3d
00000300: f070 053d 75c6 8fbd 3e01 193d 371f 883c
00000310: e9f2 1fbd a907 76bd 92b5 85bd c01a 81bd
00000320: dd6c 2f3c f29a 953d 1450 a83d 2541 b53d
00000330: bad4 a8bd 7abb 933c ee5c 9dbd f162 d3bb
00000340: 7e59 8c3d 641d b1bd d37f db3c e23e cb3c
00000350: 079e 7cbd e279 50bd d85d e63c eee5 0e3c
00000360: c4a4 3cbd 7f00 673d 3a3d 88bb a9d0 093d
00000370: fd59 9dbd 3339 3e3c 41ac fbbb 1236 1bbc
00000380: 8981 ae3d 98ee f43c fc51 93bd 4d01 8a3d
00000390: 719e 833d 1287 56bd 104e b3bc 689c e6bc
000003a0: e9e8 623c d1b7 50bd e7b5 a63d 8c80 b23d
000003b0: 44c8 57bd 893c 0c3d 111e 99bd ad9a 2b3d
000003c0: 3aa0 d63c 27db 96bc 1f40 0dbc 4855 8ebc
000003d0: f920 7f3d e87d afbd 712c 99bd c472 f639
000003e0: 0b5c 5a3d c620 acbd c8a5 86bd f18b 343c
000003f0: 969e a13c ecda cb3c 44c8 da3c a316 e7bb

actor.linear3.bias f4 [128]
0.042217977 0.064853266 0.08666938 -0.06186233 -0.073687084 -0.07583137 0.028282281 0.017222002
0.06743094 0.03856555 0.021690635 -0.03797637 0.011997902 0.002384862 0.05515478 -0.03868041
-0.07318424 0.06920128 -0.07445878 0.08574202 0.059473407 0.026716229 0.00605287 0.041067276
0.010982216 0.023347652 -0.040316142 0.06368796 0.036493037 -0.016370548 -0.022932976 -0.04704527
-0.034845144 -0.037242163 0.034646865 -0.019594694 0.06132903 0.051079888 0.063371986 0.07039269
0.04155693 0.018649096 0.053636886 0.0815093 0.05186923 -0.03532234 -0.038496632 -0.00965466
-0.014411628 -0.009450452 0.04266223 0.003005863 0.014700579 0.07310377 -0.019403113 0.08040283
-0.042288404 -0.06563888 -0.06286315 0.06551672 0.015903052 0.0701437 0.014008386 -0.04295988
0.07319965 0.06894018 0.06496609 0.084049955 -0.02689343 -0.0027468863 0.011880053 0.06923123
0.026307277 -0.032497633 0.011367529 0.08759898 -0.031539373 -0.07754235 -0.014935882 0.020819299
0.07004032 -0.02573095 -0.04571963 -0.07473952 -0.050261013 -0.04726936 0.07854421 0.003883703
-0.06359559 0.071276136 0.060744688 -0.05279699 0.068325415 0.050305877 0.055462535 0.079233564
-0.05660671 -0.036543943 -0.033455033 -0.022386877 0.05095333 -0.015474616 0.08706338 0.0047865715
0.07527249 -0.04716442 -0.071300484 -0.01886349 -0.017184706 0.06559486 -0.05418411 -0.02909913
0.0040296386 0.015610969 -0.08980635 -0.07442295 0.02679911 -0.0453503 -0.06174041 -0.024441296
0.037682075 -0.05407517 -0.039604213 0.085956424 0.0732637 -0.048955455 0.033316955 0.004216624
00000000: c2ec 2c3d cad1 843d b77f b13d 5b63 7dbd
00000010: 41e9 96bd 7a4d 9bbd 3eb0 e73c 2815 8d3c
00000020: 3c19 8a3d e9f6 1d3d 8fb0 b13c 1c8d 1bbd
00000030: d992 443c 584b 1c3b fbe9 613d 596f 1ebd
00000040: 9ee1 95bd 67b9 8d3d d87d 98bd 8399 af3d
00000050: 639a 733d fedb da3c 2757 c63b 2936 283d
00000060: c1ee 333c 9343 bf3c 8a22 25bd d56e 823d
00000070: b979 153d 871b 86bc f0dd bbbc 8bb2 40bd
00000080: c8b9 0ebd 3d8b 18bd dfe9 0d3d 0d85 a0bc
00000090: 2634 7b3d 2539 513d 2cc9 813d 0b2a 903d
000000a0: 9937 2a3d fdc5 983c 5ab2 5b3d 59ee a63d
000000b0: d474 543d 28ae 10bd a5ae 1dbd 942e 1ebc
000000c0: c01e 6cbc 12d6 1abc 97be 2e3d 03fe 443b
000000d0: b3da 703c 6eb7 953d 47f3 9ebc 3daa a43d
000000e0: 9b36 2dbd ad6d 86bd 65be 80bd a12d 863d
000000f0: 1e47 823c 80a7 8f3d 6e83 653c b3f6 2fbd
00000100: b3e9 953d 8230 8d3d f10c 853d 6222 ac3d
00000110: 9c4f dcbc 1b05 34bb 8ea4 423c 1ac9 8d3d
00000120: 5c82 d73c 3d1c 05bd df3e 3a3c 1867 b33d
00000130: 6e2f 01bd 86ce 9ebd a1b5 74bc 3c8d aa3c
00000140: 4d71 8f3d b7c9 d2bc 8244 3bbd 0911 99bd
00000150: 7ede 4dbd 849d 41bd c9db a03d b985 7e3b
00000160: 683e 82bd 39f9 913d 6ccf 783d a841 58bd
00000170: 32ee 8b3d 890d 4e3d af2c 633d 3545 a23d
00000180: 70dc 67bd 1aaf 15bd 2508 09bd af64 b7bc
00000190: 70b4 503d 3e89 7dbc 494e b23d acd8 9c3b
000001a0: 7728 9a3d 7b2f 41bd fd05 92bd 9b87 9abc
000001b0: f1c6 8cbc 9956 863d 28f0 5dbd 4c61 eebc
000001c0: 0f0b 843b 26c5 7f3c 64ec b7bd 0f6b 98bd
000001d0: cf89 db3c 3cc1 39bd 83e3 7cbd 1d39 c8bc
000001e0: 8558 1a3d ed7d 5dbd 0738 22bd ec09 b03d
000001f0: 470b 963d 8485 48bd 5c77 083d 9b2b 8a3b

actor.linear4.weight f4 [9, 128]
-0.05786577 0.078631796 0.059169732 0.026729561 0.06375632 -0.045497637 -0.08400039 -0.06063963
-0.06985456 -0.07844611 0.066479586 0.013436523 0.045827128 -0.06291877 -0.061008032 0.043998655
-0.04508745 0.05169155 0.08131758 0.063102104 -0.06831419 -0.009102993 -0.08267564 0.07845269
-0.07934454 0.05199705 0.060065266 -0.06169248 -0.06125133 0.04298556 0.08338967 -0.016878188
0.04668166 0.049069017 0.06569665 -0.047614925 0.04717278 -0.0015548059 -0.07747199 0.045318484
-0.015957333 -0.028483119 0.080245994 0.042166814 0.086758845 -0.05514967 -0.023348914 0.060630262
0.055057023 0.07755828 -0.031102348 -0.027003266 0.030045347 0.02562146 -0.005956187 0.053752236
-0.045032077 -0.03201089 0.042004816 0.0016951289 -0.034366786 0.05552522 -0.027453698 -0.008521521
-0.08538488 -0.044377573 0.0046335757 0.033085536 -0.009734182 0.08662557 0.018447474 0.008041513
0.038549278 -0.039118547 -0.04861378 0.07250894 -0.01592657 0.067140065 -0.014898573 -0.0056060688
0.07132976 -0.06257514 0.056414973 0.06212487 0.03450228 0.08670107 -0.011683412 0.07467668
0.021173695 -0.083966576 0.06878755 -0.018918855 -0.07407366 -0.07079463 -0.0012930195 -0.05989685
0.016418569 -0.033603195 -0.049798388 0.084583655 -0.04271384 -0.042565014 0.005227169 0.0028230632
-0.007815605 -0.0006399377 0.050485633 -0.028620683 -0.008196278 -0.07245976 -0.06619891 0.06117922
-0.003330926 0.011049594 0.03395362 -0.085824415 -0.0865605 0.07325439 -0.0046350206 -0.018084645
0.017238967 0.005850477 0.013782753 -0.06923964 0.08015129 0.052347194 0.07883787 -0.03013051
-0.051631458 0.0316157 0.015467991 0.016761804 0.046750646 -0.06819248 0.030871732 0.023185609
0.070668556 0.07256612 0.05859493 0.056706123 -0.04972409 -0.05800592 -0.06189498 -0.07182411
-0.04179243 0.0627971 -0.024862275 0.05840237 -0.02665958 -0.04546134 -0.004385695 0.053046145
-0.04006977 0.08613623 -0.06936735 0.07109178 0.056067664 -0.043799642 0.0074039996 -0.059912387
-0.012108548 -0.08074383 -0.06303987 0.066227436 0.019128002 0.015416317 0.06833985 0.055603135
0.05601466 0.014722643 -0.067850254 0.0202349 0.0744574 -0.049651828 -0.08384778 -0.05866762
-0.055019744 -0.08552392 0.045220613 -0.034339078 0.060205866 -0.053371977 0.06263324 0.06767999
0.0034979929 -0.0802464 -0.042243034 -0.0023747447 0.030529106 -0.037887722 0.00950147 -0.0033129936
0.08341742 -0.048787147 0.005056099 -0.08368716 -0.0019293025 -0.044433173 -0.08251889 -0.074406445
-0.012102963 0.056902625 -0.06156514 -0.0139697725 0.036896843 -0.05722459 -0.028870028 -0.041625544
0.018416006 0.023741286 -0.02798818 -0.07422564 0.077983275 -0.015152351 -0.0539546 0.035427626
-0.06728407 -0.042083442 0.05843222 -0.029109795 0.009154565 0.013832509 0.052414615 0.06786189
0.012815318 -0.07235933 -0.06645134 -0.027910937 0.009043195 0.0046574813 0.057966713 0.08476057
0.08149329 -0.005458832 -0.06367018 -0.037956756 -0.04596907 -0.016096067 -0.045985088 -0.061836023
0.013989906 -0.012242261 -0.07426838 -0.082481995 -0.037014816 -0.061061475 -0.0032148631 -0.069327384
0.050786406 0.023201114 -0.025217008 0.05652574 -0.00066682854 0.077328406 -0.019698836 0.002657277
00000000: a804 6dbd b509 a13d f65b 723d f4f7 da3c
00000010: ac92 823d bb5b 3abd 6508 acbd 4361 78bd
00000020: e80f 8fbd 5ba8 a0bd 7326 883d dd24 5c3c
00000030: 3ab5 3b3d 8edb 80bd 8fe3 79bd ef37 343d
00000040: 9ead 38bd 85ba 533d d589 a63d ad3b 813d
00000050: 4fe8 8bbd b824 15bc d951 a9bd ceab a03d
00000060: 647f a2bd dcfa 543d ff06 763d 41b1 7cbd
00000070: ade2 7abd a011 303d 34c8 aa3d 2044 8abc
00000080: 4535 3f3d 98fc 483d f78b 863d de07 43bd
00000090: 3f38 413d a1ca cbba a2a9 9ebd e09f 393d
000000a0: f4b8 82bc 6e55 e9bc 0358 a43d 1cb7 2c3d
000000b0: 9fae b13d 9fe4 61bd 3946 bfbc 7057 783d
000000c0: 7983 613d e0d6 9e3d 5aca febc f435 ddbc
000000d0: a921 f63c 19e4 d13c 1e2c c3bb 4e2b 5c3d
000000e0: 8e73 38bd da1d 03bd 3e0d 2c3d 162f de3a
000000f0: 30c4 0cbd 6a6e 633d 94e6 e0bc da9d 0bbc
00000100: 45de aebd 42c5 35bd 40d5 973b b384 073d
00000110: 1e7c 1fbc bf68 b13d 281f 973c 8dc0 033c
00000120: d9e5 1d3d c53a 20bd 3e1f 47bd 917f 943d
00000130: 7078 82bc bb80 893d 2519 74bc 1db3 b7bb
00000140: 5615 923d 6527 80bd 6313 673d a676 7e3d
00000150: 4352 0d3d 5590 b13d c86b 3fbc 16f0 983d
00000160: 7574 ad3c abf6 abbd 7de0 8c3d b7fb 9abc
00000170: eeb3 97bd c6fc 90bd 897a a9ba 6656 75bd
00000180: 3c80 863c 81a3 09bd 65f9 4bbd 323a ad3d
00000190: b5f4 2ebd a758 2ebd ac48 ab3b 2403 393b
000001a0: 060d 00bc 7ec1 27ba 06ca 4e3d ec75 eabc
000001b0: ae49 06bc c865 94bd 4b93 87bd 1097 7a3d
000001c0: aa4b 5abb 5b09 353c f312 0b3d b6c4 afbd
000001d0: a246 b1bd 6606 963d 5fe1 97bb 4026 94bc
000001e0: bc38 8d3c 5cb5 bf3b 0ed1 613c 83cd 8dbd
000001f0: 5c26 a43d 036a 563d c075 a13d 42d4 f6bc
00000200: 827b 53bd 777f 013d 756d 7d3c 0d50 893c
00000210: 9b7d 3f3d 80a8 8bbd b7e6 fc3c bfef bd3c
00000220: adba 903d 8c9d 943d 3d01 703d ae44 683d
00000230: 7dab 4bbd 9e97 6dbd 9785 7dbd 8518 93bd
00000240: 8a2e 2bbd c49b 803d f8ab cbbc 5337 6f3d
00000250: 3165 dabc ac35 3abd e0b5 8fbb ea46 593d
00000260: 3320 24bd 3168 b03d 7810 8ebd 9198 913d
00000270: 35a7 653d 4167 33bd 409d f23b b166 75bd
00000280: ee62 46bc 055d a5bd 0c1b 81bd 40a2 873d
00000290: 54b2 9c3c b894 7c3c c3f5 8b3d 1dc0 633d
000002a0: a16f 653d 3e37 713c 13f5 8abd a9c3 a53c
000002b0: 1f7d 983d b75f 4bbd 63b8 abbd 754d 70bd
000002c0: 625c 61bd 2a27 afbd 4039 393d 22a7 0cbd
000002d0: 6d9a 763d 939c 5abd db45 803d ce9b 8a3d
000002e0: 953e 653b 3958 a4bd 0807 2dbd 9ba1 1bbb
000002f0: 2d18 fa3c 2830 1bbd 0eac 1b3c cf1e 59bb
00000300: c1d6 aa3d 08d5 47bd a2ad a53b 2c64 abbd
00000310: a6e0 fcba 8fff 35bd aaff a8bd 6862 98bd
00000320: 824b 46bc ba12 693d ba2b 7cbd 79e1 64bc
00000330: 2521 173d 5564 6abd d680 ecbc 8c7f 2abd
00000340: 2add 963c 167d c23c 7847 e5bc 9d03 98bd
00000350: b2b5 9f3d 9141 78bc 80ff 5cbd 8f1c 113d
00000360: 3bcc 89bd b05f 2cbd a056 6f3d aa77 eebc
00000370: 07fd 153c bfa1 623c b5b0 563d 2dfb 8a3d
00000380: 57f7 513c 2131 94bd a417 88bd 7aa5 e4bc
00000390: e929 143c c99d 983b 816e 6d3d f396 ad3d
000003a0: f4e5 a63d 00e0 b2bb 8365 82bd 8b78 1bbd
000003b0: 104a 3cbd e6db 83bc dc5a 3cbd c547 7dbd
000003c0: eb35 653c c493 48bc 051a 98bd 52ec a8bd
000003d0: d99c 17bd 991b 7abd 74b0 52bb 84fb 8dbd
000003e0: 6805 503d 4310 be3c e693 cebc 8987 673d
000003f0: 1bce 2eba 5b5e 9e3d 745f a1bc b625 2e3b

actor.linear4.bias f4 [9]
0.06026341 -0.027597968 0.07378019 -0.04144882 -0.027684655 -0.07745033 -0.0043449695 -0.043477353
-0.07521466
00000000: c4d6 763d 2215 e2bc 111a 973d 3dc6 29bd
00000010: eeca e2bc 479e 9ebd 3f60 8ebb 4f15 32bd
00000020: 250a 9abd

critic.linear1.weight f4 [128, 120]
0.06423867 0.051895976 -0.07925536 -0.087701865 0.07684957 -0.028514137 -0.049444314 -0.047439344
-0.062801495 -0.039481185 0.020739337 -0.0037434353 -0.06667958 -0.057416685 -0.038498215 -0.08878457
-0.017317176 -0.09390169 0.08013879 0.038708407 -0.009194131 -0.0378005 -0.07283549 0.096613586
-0.011928658 -0.056008104 -0.019641845 0.01892405 -0.0155552365 0.05449745 0.05428378 -0.06868028
0.0554517 -0.037841734 0.113146976 -0.118158415 0.066525124 0.112659216 0.07811985 0.04793544
-0.027166674 0.06320126 0.00012238084 0.008773476 -0.000957461 -0.07591357 0.014794309 0.0024311414
0.04852233 0.098883085 -0.055716466 0.082871355 0.063942365 0.056479476 -0.0066977823 -0.03399684
-0.0010188194 -0.058460318 -0.0567156 -0.017894426 -0.034976028 -0.080820315 0.011214255 0.03612775
-0.013235903 0.020038612 -0.002319707 0.051766925 0.04059651 0.027272634 -0.07951849 0.12936664
-0.044754162 -0.018993217 0.078751296 0.042265847 0.018974172 0.090339616 0.06469341 -0.049747635
-0.073908255 -0.09125132 0.0957438 0.015676552 0.044779073 0.09228083 -0.09983469 -0.0033396294
-0.053181797 -0.0367878 0.036517575 0.07635843 0.087050356 -0.037200633 -0.027142772 -0.03587598
-0.061933223 -0.08882709 -0.07370132 -0.029849133 0.012848309 -0.0026595688 -0.06927747 -0.0061224094
0.04846327 0.0021372798 -0.01887673 0.027365217 0.018999828 -0.01800536 0.011587901 0.012791632
0.014676749 -0.0370524 -0.06754458 0.10756093 -0.027977498 -0.060176644 0.016954493 -0.020448295
0.008964568 0.0071561337 0.01645352 0.03417482 -0.07855014 0.06829496 0.110034406 0.078393355
-0.039484195 -0.0060779667 0.0007041333 0.04699923 0.007034886 -0.08307019 0.036133762 0.026928868
0.019615386 -0.01745663 0.07827746 -0.08335828 -0.016698325 0.10322695 -0.011287642 0.08407099
0.043389328 -0.10387008 -0.057686824 0.067294344 -0.0013579191 -0.027837772 -0.012741617 -0.022494894
0.085401595 -0.089373484 -0.031734552 -0.09314114 0.024578646 0.07943697 -0.05078922 -0.011723517
-0.05956243 -0.0051129414 -0.01127821 0.09466012 0.06866301 0.08327258 0.01166624 0.0093583055
-0.060340974 0.04987123 0.07587485 0.09596321 0.041041885 0.11517033 -0.09190766 0.008426592
-0.007453581 -0.07138669 0.017870342 -0.06379239 -0.0560226 -0.08506821 -0.0669931 0.029058354
0.04231801 0.06786618 0.06333783 0.010683442 0.0015498874 0.085902065 0.029293437 0.090732634
-0.01808274 -0.06768753 -0.07352927 0.10731123 0.04818586 -0.07623516 0.059515994 0.04991309
-0.05270071 0.11203577 0.059574712 -0.01220333 0.034242917 -0.010414143 0.090488456 0.12737626
0.024134573 -0.105144404 0.0044706753 0.047138166 -0.062289003 0.086487025 0.10336474 -0.014175615
-0.0045345356 0.0024190287 -0.049973138 -0.034888532 -0.016827563 0.08009924 -0.087881304 0.07395451
-0.08180299 -0.054261256 0.016774066 0.10251426 -0.0686871 0.06391323 0.0619273 -0.042288378
-0.049305923 0.095511466 -0.015138951 0.015077358 -0.0029765894 -0.096879564 -0.016414365 -0.036365837
0.07406275 0.074864745 0.041103963 0.0030800719 0.026941195 -0.08812478 0.11127957 -0.09154512
-0.05385159 0.12044544 0.03329906 0.025639948 -0.08208768 0.085953854 0.07421653 0.039261047
00000000: 908f 833d e090 543d a250 a2bd 099d b3bd
00000010: 4f63 9d3d 7b96 e9bc 1f86 4abd c24f 42bd
00000020: 129e 80bd 06b7 21bd 8be5 a93c 6c54 75bb
00000030: 4e8f 88bd c22d 6bbd 4eb0 1dbd afd4 b5bd
00000040: c0dc 8dbc 874f c0bd ce1f a43d b58c 1e3d
00000050: fba2 16bc b2d4 1abd c62a 95bd 58dd c53d
00000060: 6b70 43bc c168 65bd efe7 a0bc 9c06 9b3c
00000070: 64db 7ebc b838 5f3d ab58 5e3d 3fa8 8cbd
00000080: 5221 633d efff 1abd 9ab9 e73d 0afd f1bd
00000090: 533e 883d e0b9 e63d 4dfd 9f3d f457 443d
000000a0: a58c debc aa6f 813d 5b53 0039 a0be 0f3c
000000b0: 1ffe 7aba 9378 9bbd d463 723c c953 1f3b
000000c0: 5abf 463d 3783 ca3d f336 64bd 75b8 a93d
000000d0: 37f4 823d 0657 673d 1279 dbbb 4540 0bbd
000000e0: e889 85ba 1674 6fbd 9e4e 68bd 5597 92bc
000000f0: 0643 0fbd 1f85 a5bd ffbb 373c b1fa 133d
00000100: 67db 58bc 0428 a43c 3a06 18bb 8e09 543d
00000110: 8748 263d dc6a df3c 97da a2bd b078 043e
00000120: 2450 37bd aa97 9bbc 5c48 a13d f41e 2d3d
00000130: b96f 9b3c fa03 b93d fb7d 843d 2dc4 4bbd
00000140: 365d 97bd f9e1 babd 5315 c43d 1d6c 803c
00000150: 436a 373d bbfd bc3d 2176 ccbd afdd 5abb
00000160: 28d5 59bd ceae 16bd 7493 153d cf61 9c3d
00000170: 7547 b23d b15f 18bd 855a debc b1f2 12bd
00000180: b1ad 7dbd faea b5bd b8f0 96bd 2b86 f4bc
00000190: b781 523c 294c 2ebb 59e1 8dbd 7e9e c8bb
000001a0: 6c81 463d 9b11 0c3b 5fa3 9abc 052d e03c
000001b0: 87a5 9b3c fa7f 93bc 2edb 3d3c fe93 513c
000001c0: bf76 703c 42c4 17bd d054 8abd e848 dc3d
000001d0: 1131 e5bc c97b 76bd 26e4 8a3c 2f83 a7bc
000001e0: 20e0 123c 007e ea3b 88c9 863c e5fa 0b3d
000001f0: e5de a0bd 3ade 8b3d b859 e13d b28c a03d
00000200: 2eba 21bd ae29 c7bb 9695 383a 4482 403d
00000210: e784 e63b b420 aabd ff00 143d ee99 dc3c
00000220: 72b0 a03c 3501 8fbc ef4f a03d bfb7 aabd
00000230: edca 88bc a768 d33d cdef 38bc 692d ac3d
00000240: 02b9 313d d6b9 d4bd 0549 6cbd 9ed1 893d
00000250: 34fc b1ba 0a0c e4bc 37c2 50bc 3647 b8bc
00000260: 08e7 ae3d 7209 b7bd 17fc 01bd c8c0 bebd
00000270: 2859 c93c daaf a23d 5b08 50bd ff13 40bc
00000280: bcf7 73bd 768a a7bb 3ec8 38bc 2add c13d
00000290: 319f 8c3d d08a aa3d c223 3f3c 9453 193c
000002a0: 1928 77bd c645 4c3d 4664 9b3d 5c88 c43d
000002b0: 891b 283d 6cde eb3d 153a bcbd b00f 0a3c
000002c0: 2b3d f4bb 2f33 92bd d364 923c 96a5 82bd
000002d0: f477 65bd 3e38 aebd ae33 89bd c90b ee3c
000002e0: a655 2d3d 6cfd 8a3d 44b7 813d 9a09 2f3c
000002f0: 9725 cb3a 6ced af3d caf8 ef3c 08d2 b93d
00000300: 4122 94bc c29f 8abd 8496 96bd fdc5 db3d
00000310: 895e 453d 2e21 9cbd 0bc7 733d ab71 4c3d
00000320: b3dc 57bd 0373 e53d 9d04 743d 7af0 47bc
00000330: 4d42 0c3d 15a0 2abc 0352 b93d ec6e 023e
00000340: deb5 c53c f355 d7bd be7e 923b f313 413d
00000350: c122 7fbd 1c20 b13d e5b0 d33d d740 68bc
00000360: 7196 94bb 9188 1e3b a2b0 4cbd 47e7 0ebd
00000370: f5d9 89bc 120b a43d 1dfb b3bd 7675 973d
00000380: 5388 a7bd 0d41 5ebd c469 893c fff2 d13d
00000390: d3ab 8cbd f1e4 823d 7ba7 7d3d 9436 2dbd
000003a0: 02f5 49bd 849b c33d 5d09 78bc 0607 773c
000003b0: e212 43bb cb68 c6bd 6b77 86bc 58f4 14bd
000003c0: 36ae 973d b052 993d a15c 283d 08db 493b
000003d0: c8b3 dc3c c47a b4bd 8be6 e33d 027c bbbd
000003e0: 7c93 5cbd 19ac f63d 9864 083d de0a d23c
000003f0: 961d a8bd 9308 b03d d6fe 973d 31d0 203d

critic.linear1.bias f4 [128]
0.11307486 0.021591363 0.01337058 0.10908321 -0.006253482 0.037581425 -0.057961732 -0.047210485
0.094918385 0.056128524 -0.10835688 0.1173702 -0.025312329 0.035058416 0.037947956 -0.09525328
0.030804057 -0.1015477 0.06302423 0.045758802 0.007047162 -0.008436493 0.116904676 0.018430188
0.09682572 0.063577965 -0.011887234 0.033750966 -0.0003173382 -0.023465108 0.023273017 -0.06437455
0.03753662 -0.04213969 0.03211693 -0.005651285 0.04793256 -0.02002501 0.019302431 0.05307048
0.06002989 0.019403543 -0.0076195463 0.122108474 0.10545351 0.1104058 0.096441224 0.044427518
0.048346035 0.0804391 -0.06436514 -0.055262707 0.028202796 -0.037579514 0.10498012 0.0015662048
-0.016188601 -0.03164342 0.07235148 0.026120588 0.09307377 -0.019274103 0.006422669 0.07025527
0.010884095 0.09048854 -0.0067725526 0.10908171 -0.10179772 -0.0028002854 0.047760177 -0.04677637
0.020022493 0.11604115 0.08378391 0.045746967 0.113369025 -0.09604839 -0.045711815 -0.020488203
0.047602568 -0.1053853 0.0021274416 0.103694774 -0.035910957 -0.10306639 -0.08995641 -0.015433895
0.10487027 0.036651775 0.12824197 -0.03680927 -0.0015773983 0.08580777 -0.09363735 -0.01400177
0.03446682 -0.04009856 0.098521546 0.089442104 -0.08608244 0.105994314 0.08900048 0.09858787
0.10320993 -0.031520724 0.0058772136 0.044930786 0.09052416 0.097470105 -0.015620612 0.063688524
0.10411655 -0.081002854 -0.03229269 -0.06924973 0.022530131 -0.055984907 -0.04365538 -0.018954245
0.006425527 0.09241485 -0.012932604 -0.059951913 -0.06966436 -0.08541644 -0.07242186 -0.035832055
00000000: cb93 e73d 5fe0 b03c 4710 5b3c 0567 df3d
00000010: 02ea ccbb fbee 193d 4869 6dbd c85f 41bd
00000020: 9264 c23d 06e7 653d 36ea ddbd ca5f f03d
00000030: cd5b cfbc 6a99 0f3d 516f 1b3d 2714 c3bd
00000040: ca58 fc3c 3ef8 cfbd d912 813d 956d 3b3d
00000050: e1eb e63b 3739 0abc b86b ef3d e8fa 963c
00000060: 904c c63d 2a35 823d acc2 42bc 743e 0a3d
00000070: 6a60 a6b9 e639 c0bc 0ea7 be3c ced6 83bd
00000080: 00c0 193d ab9a 2cbd 0b8d 033d 6a2e b9bb
00000090: ef54 443d 7d0b a4bc 2220 9e3c 6e60 593d
000000a0: e7e1 753d 2ef4 9e3c 63ad f9bb 0214 fa3d
000000b0: 03f8 d73d 701c e23d fa82 c53d a1f9 353d
000000c0: 7e06 463d 41bd a43d dfd1 83bd 265b 62bd
000000d0: 8d09 e73c faec 19bd d1ff d63d 1d49 cd3a
000000e0: f59d 84bc 889c 01bd 032d 943d d8fa d53c
000000f0: 769d be3d b9e4 9dbc 4175 d23b ffe1 8f3d
00000100: 3453 323c 0e52 b93d 4aec ddbb 3b66 df3d
00000110: 537b d0bd fe84 37bb 2da0 433d 9498 3fbd
00000120: 3606 a43c fca6 ed3d e696 ab3d 2c61 3b3d
00000130: 052e e83d 05b5 c4bd 503c 3bbd e0d6 a7bc
00000140: e9fa 423d 40d4 d7bd 8c6c 0b3b ed5d d43d
00000150: 5e17 13bd 7914 d3bd 113b b8bd 73de 7cbc
00000160: 39c6 d63d 2c20 163d dd51 033e 51c5 16bd
00000170: b4c0 ceba fcbb af3d f0c4 bfbd ae67 65bc
00000180: 152d 0d3d 633e 24bd aac5 c93d 6c2d b73d
00000190: fe4b b0bd 8c13 d93d e245 b63d 70e8 c93d
000001a0: ba5f d33d e01b 01bd a495 c03b 5809 383d
000001b0: bb64 b93d 689e c73d 98ed 7fbc 216f 823d
000001c0: 0f3b d53d d3e4 a5bd 5745 04bd cdd2 8dbd
000001d0: 1c91 b83c 6e50 65bd fccf 32bd ef45 9bbc
000001e0: 3a8d d23b ff43 bd3d 46e3 53bc 2390 75bd
000001f0: 30ac 8ebd d1ee aebd ea51 94bd a2c4 12bd
