landing_starship_raw_ckpt/ckpt_00003801.pt (torch, 603255 bytes, 15 tensors)

actor.linear1.weight f4 [128, 120]
00000000: ef26 c83b 5001 603c f9c2 92bd 036d 933c
00000010: 01d9 94bc 0456 b1bd 0a79 aebd d97b f4bc
00000020: 3825 5a3d e196 7fbd bfc2 a63d 3fe5 943d
00000030: 53ca 23bd 8195 f23c 6465 523d fe0c 5b3d
00000040: a521 783b 0071 cf3c 625b 823d 2934 813d
00000050: 8942 3b3c 2b27 b5bd 3f7b f438 d802 273d
00000060: 412d e33c e5a9 95bc a4ec 593c 063a 973d
00000070: 4ff8 ee3c 6a0b c6ba da4c 9cbd 2992 4dbd
00000080: 8e46 8c3d b595 97bd 78af e8bb 9a5a 6b3d
00000090: 81bc 713d 351a c33c e84d 2b3d 061e 06bd
000000a0: 2664 1c3d f4af 213d 1cf3 363d cc77 3ebc
000000b0: 3144 773d 5572 aabd 29bb 2cbd e9eb 51bd
000000c0: 9532 9bbd c08c 68bd b17b 63bd ff5c 8dbd
000000d0: b5b1 d53c 973f 863d 5fd8 7cbd 2d52 313d
000000e0: 8205 50bb 6880 833d 7239 803c 777f a0bd
000000f0: 3e90 afbd 3a4d 7b3c bd30 99bb 2300 30bd
00000100: ae12 78bc f96b 8ebd 6484 54bc f628 85bd
00000110: 0278 9b3d 438e 0d3d ff0c 5f3d fd5c aebd
00000120: 8975 e9bc b33b 763c 6909 b73c a3d8 283d
00000130: 5c85 7c3d f560 8dbd 1ea7 323d 709f 90bc
00000140: 8491 d23c b7be 5dbd dd9e 4ebd 91f9 bf3d
00000150: 8507 b33d fc4a a1bc 7912 12bc f07a 9bbb
00000160: 9da0 933d c683 bc3d 787f 603c ccbf 713d
00000170: b089 b2b8 ae09 bbbc 70a2 7bbd 61b1 05bd
00000180: 3601 56bb b3ed 113b 0fc9 86bd 6b91 34bd
00000190: a52b 873d 8e6b 673d bd3d 5bbc 1071 aebd
000001a0: 3653 593d a7e4 3fbd 519b 7b3d 4add 9cbd
000001b0: d317 0b3d e40a ca3c f89b 533d d3a1 22bd
000001c0: 9e0b aabd 7bbf 42bd 2d06 46bd 6eac 463d
000001d0: d4a9 793d 6fc4 20bc 9643 4ebd b9f7 b8bd
000001e0: 32b1 70bd 0c17 403d 67ca 4a3d b443 a23c
000001f0: f198 08ba 0c1c 7fbd ce85 b93c 7402 63bd
00000200: 01b8 53bd 0f3f 953d cfb1 ccbc cb9b 16bd
00000210: ecb2 8abd 43c2 b7bd 27f0 87bd 8043 cfbc
00000220: 72c3 49bd 50bd 603c eb0b a4bd 8177 88bd
00000230: 5547 21bd d96d a63c a792 533d 38f4 ac3d
00000240: fa83 61bd 5f5c 92bd 19c3 aabd 6a28 05bd
00000250: fd48 633d c5f2 49bd 7e2f acbd 5fdd 163d
00000260: 0c48 9c3d 778f a13d e4d1 4b3d 63f8 3fbc
00000270: 669b afbd 8eda 793d 8521 42bd 7514 3d3d
00000280: 8eba 843c 85b2 123d 2cfd 1abd d95f 33bd
00000290: 2f4d b9bd 9299 f33c a676 9d3c 67bb e53c
000002a0: 4104 953d a6a4 7f3d fbd4 15bc 3aa5 5bbd
000002b0: 6ca6 d83c 90dc 9abb 5ba5 59bc 86f8 07bd
000002c0: ae8e 8d3d f5ad 8ebd 133a c03b 7f7f af3d
000002d0: 0978 293c 9473 bcbd 8061 9a3b f25a e1bc
000002e0: 85a7 f03c 1fc0 dc3c e103 2dbd 8fc9 9b3d
000002f0: 8c60 9e3d e466 9cbd b770 9fbd c1c6 82bd
00000300: e809 87bc 7b48 913d 3c61 07bc c5cf 213b
00000310: b074 bc3c 8b14 fabb 07f1 86bd 3c38 b73d
00000320: 3c52 873d 2296 12bd b34f 5f3c d9c1 a0bd
00000330: 6272 6e3d 8d3c 55bd ea09 f1bb 8e65 80bc
00000340: b411 93bd de66 34bc 8b23 b0bd 8988 6cbd
00000350: b591 71bd 46ff 98bd e552 47bc 38ef 9bbd
00000360: f34d 543d 0654 99bd e7c1 873d 1733 53bd
00000370: 3d15 09bd adc7 af3d 57c7 08bd e7df babd
00000380: 0ce2 753d d176 f13c 56b4 98bd c478 91bd
00000390: 38b4 abbd 9a93 7e3c 536d 19bc 5c8d 93bd
000003a0: df5a de3c 0075 27bd 607b 113d c1d9 f03c
000003b0: 898e 72bc 1872 963b b020 b33b c9e6 19bd
000003c0: da6f 1bbd f67e b43d 8c2d 433c 8e1b 143c
000003d0: 13ac a53d 1059 f93c 1f3c 97bd 8387 3fbd
000003e0: 4884 11bc 5034 93bd 5689 0e3a c1b8 7fbd
000003f0: 4f0f 453d 4b15 63bd 0806 a13b cd9d 42bd
0.006108157 0.013672188 -0.07166094 0.017996317 -0.018169882 -0.08658984 -0.0851918 -0.029844211
0.05325815 -0.06239975 0.081426136 0.07270288 -0.039987873 0.029612305 0.051366225 0.053479187
0.003786185 0.025322437 0.06365086 0.06308777 0.011429437 -0.08845361 0.00011657783 0.040774196
0.02773154 -0.018269489 0.013301048 0.07384114 0.029171137 -0.0015109603 -0.07631846 -0.050188217
0.06849395 -0.07401601 -0.0071009956 0.05745945 0.059017662 0.023816207 0.041822344 -0.032743476
0.038181446 0.039474443 0.04466544 -0.0116252415 0.060367767 -0.08322588 -0.042170677 -0.051250372
-0.07578007 -0.056774855 -0.055537883 -0.06902503 0.026085714 0.065550976 -0.061729785 0.04329126
-0.0031741564 0.06420976 0.015652392 -0.07836812 -0.08572434 0.0153382365 -0.0046749995 -0.04296888
-0.015141172 -0.06954188 -0.0129710175 -0.06501953 0.07591249 0.0345595 0.054455753 -0.0851383
-0.028498428 0.015028882 0.022343354 0.041222226 0.06165062 -0.06903259 0.043616407 -0.01765415
0.025704153 -0.054136958 -0.050444473 0.09373773 0.087416686 -0.019689076 -0.008915537 -0.00474488
0.07208369 0.09204821 0.013702266 0.059020802 -8.513348e-05 -0.022831764 -0.06143421 -0.032639865
-0.003265453 0.0022266924 -0.06581318 -0.044083994 0.066001214 0.056499057 -0.013381419 -0.08517659
0.05305787 -0.04684892 0.06142742 -0.07659395 0.033958267 0.024663396 0.051662415 -0.03970511
-0.08302997 -0.04754589 -0.048345733 0.048504286 0.060952976 -0.009812458 -0.050357424 -0.09031624
-0.058762737 0.04689698 0.049509432 0.019807674 -0.00052107783 -0.062282607 0.02264681 -0.05542226
-0.05168915 0.07287418 -0.02498713 -0.03676967 -0.06772408 -0.08972599 -0.06637602 -0.025300741
-0.049258657 0.013717011 -0.08010086 -0.066634186 -0.03937467 0.020316051 0.05165353 0.084450185
-0.055057503 -0.07146525 -0.08337993 -0.032509245 0.05548953 -0.04930379 -0.08407496 0.03683221
0.07630929 0.07888692 0.049760714 -0.011716935 -0.08574562 0.060999446 -0.047395248 0.046162087
0.016202237 0.03581478 -0.0378391 -0.04379258 -0.09047925 0.029736314 0.019221615 0.028043462
0.07276202 0.06241288 -0.009145017 -0.05362437 0.026446544 -0.004726 -0.013284053 -0.033195995
0.069119796 -0.069667734 0.005866298 0.0856924 0.01034356 -0.09201732 0.00471133 -0.027509186
0.029376755 0.02694708 -0.042240027 0.076068036 0.077332586 -0.07636812 -0.077851705 -0.063855655
-0.016484216 0.07093903 -0.008262929 0.002469049 0.02300486 -0.0076318434 -0.06588941 0.08946273
0.06607482 -0.03578771 0.013629842 -0.078494735 0.058214553 -0.0520597 -0.007355918 -0.015673425
-0.07181111 -0.011010854 -0.08600529 -0.057747398 -0.058976848 -0.074705645 -0.01216576 -0.07613987
0.05183215 -0.07486729 0.06628781 -0.051562395 -0.03346752 0.08583007 -0.03339323 -0.09124737
0.06003003 0.029475601 -0.07456271 -0.07103112 -0.083839834 0.015538121 -0.009364444 -0.072046965
0.02714294 -0.040883064 0.03551805 0.029400708 -0.014804491 0.0045912378 0.005466543 -0.03757361
-0.037948467 0.088132784 0.011912715 0.009039773 0.08089461 0.030437976 -0.07384514 -0.046760093
-0.008881636 -0.07187712 0.0005437335 -0.062432054 0.048110303 -0.05544023 0.004914049 -0.04751377

actor.linear1.bias f4 [128]
00000000: c21e 86bd 4677 3f3d 333e b6bd d10d 993d
00000010: b7bb b1bd fa7a c2bd 919a 14bd d568 343c
00000020: 9207 4abd 202e 51bc b2bd 2c3d 21f3 a33c
00000030: 1f61 043d 2020 383c a753 a5bd dc4d ebbc
00000040: bc26 9c3c 03a0 763d 69fa 333c a440 293c
00000050: 75aa 873d 0e33 16bd d91c 533d dfb5 a9bd
00000060: 082a 5f3d 4a5a ce3c 521d 2cbc 7c71 3b3d
00000070: 21f3 093c b707 83bd b853 a4bd 263f 9cbd
00000080: 2ad7 4abd 8d0a 9f3d 5238 8f3c 88b7 a6bd
00000090: 3f58 89bd d27f 9e3d d66e aa3b 8e66 fb3c
000000a0: aeed cf3b 4b12 9fbd 8f7c b5bd 9d9c e5ba
000000b0: 77cd 62bd d8b8 01bc 22e3 f53c 1527 dabc
000000c0: 302e 973c 06e9 4ebd 9187 22b9 4b76 25bc
000000d0: 6842 b03d 2840 c7bd a968 b8bd 2806 8abd
000000e0: 7998 74bd 9529 afbd 43df cd3c 8d66 f13b
000000f0: c5d6 83bd 9e9a 38bc b07e 47bd cf76 bfbd
00000100: 06bf 713d 4f21 f63b 606f d8bc 384b bd3d
00000110: 8d48 e43c b7f7 653d 9cb9 adbc d3a8 97bd
00000120: cebe c1bd 1688 c03b 0a2f 92bd 6e72 c139
00000130: 3ad5 42bd d667 8cbd 8dbc 79bd b83d babd
00000140: a11a a83d 2b19 6cbd 8a1a a43c 587e f9bc
00000150: e143 d5bc 30d6 44bd 34ef afbd dc70 a73d
00000160: af2a 23bd b102 79bd d498 313d d17d 2abc
00000170: 7da1 7a3d 666b ca3c e3bf b1bd 2d35 99bd
00000180: d8dc 683d 7d84 f63c d762 1b3d 9b97 cbbd
00000190: abd2 afbd f333 b53b c46a 623d d3a2 84bd
000001a0: 56da 81bd 10d5 61bd 0a40 6b3d fcb8 17bd
000001b0: d779 89bd 9a08 04bd 86e2 b7bd 760c 0cbd
000001c0: a613 2c39 a9cf 45bd d449 17bd 752b 833d
000001d0: 38be 523c 29d5 ac3d 0d76 9e3d 4804 82bd
000001e0: 1e9c b93d 92d7 d8bc 9cbe a6bd 1944 513d
000001f0: f48d 81bc 23c4 5abc 4d79 8fbc 8a0c 44bd
-0.06548835 0.046744607 -0.08898582 0.074733384 -0.08678382 -0.09496112 -0.03628022 0.011011322
-0.049323626 -0.012767345 0.042173095 0.020013394 0.032319184 0.011238128 -0.08072596 -0.02872365
0.019061439 0.060211193 0.010984995 0.010330353 0.06624309 -0.036669783 0.051541183 -0.08286642
0.054483443 0.025189538 -0.010505037 0.045762524 0.008419783 -0.06397956 -0.080237806 -0.07629232
-0.049521603 0.07765684 0.01748291 -0.081404746 -0.06706285 0.077392235 0.005201201 0.03068855
0.0063454723 -0.07767161 -0.08861648 -0.0017517988 -0.055371728 -0.007917605 0.030015532 -0.026629964
0.018454641 -0.050515197 -0.00015500026 -0.010099004 0.08606416 -0.09729034 -0.09004337 -0.067394555
-0.05971572 -0.08552853 0.025130874 0.0073669613 -0.064374484 -0.011267332 -0.048704803 -0.09348833
0.059020065 0.007511295 -0.026420295 0.092428625 0.027866626 0.056144442 -0.02120667 -0.074052475
-0.09460221 0.0058755977 -0.07137878 0.00036897085 -0.04756663 -0.06855743 -0.06097083 -0.09093803
0.08208204 -0.05764119 0.020032186 -0.030455753 -0.026033344 -0.048055828 -0.08590546 0.08175823
-0.039835628 -0.060793582 0.04335864 -0.0104059735 0.061189163 0.024709415 -0.086791776 -0.074808456
0.056851238 0.030092472 0.037936058 -0.09941026 -0.085851036 0.0055298745 0.0552776 -0.06476369
-0.063404724 -0.055134833 0.05743412 -0.03704165 -0.06712692 -0.032234766 -0.08978753 -0.03419157
0.00016410518 -0.048293743 -0.036935642 0.06404773 0.0128627345 0.084390946 0.0773736 -0.06348473
0.0906298 -0.02646998 -0.081418246 0.051090334 -0.015814759 -0.013352427 -0.017513895 -0.04786352

actor.linear2.weight f4 [128, 128]
00000000: cbe5 b2bd 3bdf d6bc 43fc a0bd 5041 41bc
00000010: 2440 5cbd d003 153d 645c efbc 573d b33d
00000020: 2c1e 4abd 3fbd 6a3c f2bc c9bc e911 19bd
00000030: de6e c53a 5925 853d 5cae b3bd a3fb f83c
00000040: 0599 abbd 738f af3d 6ee5 7b3d a88b 08bc
00000050: ad4d 2dbd 1c6c 54bc 6af3 abbc d0f6 c9bc
00000060: b988 62bd f113 933b cb2b 23bc 123c 223d
00000070: 292e 863d d9e2 96bc a18a 61bd ebab fa3a
00000080: 335b a8bd 5e17 de3c efe1 8a3d d930 1d3d
00000090: b5e5 e83c eee5 123c db85 a03d 2100 67bd
000000a0: f70a 86bc f893 a23d 72da 323d 42ee 4dbd
000000b0: 2505 4a3d 8361 65bc 0519 843d d4e0 913c
000000c0: 731e 67bd 9623 d83b 2a1a 103d dbf5 67bd
000000d0: 9045 86bd c248 98bc 00f9 85bd 598b 16bb
000000e0: 1e58 bf3d 3c3c 21bc cf83 993d 36d1 4c3b
000000f0: dd73 af3d 5bc3 b6bd 90ab 913c ae9d 25bc
00000100: de4b b4bc 92c5 463d ba1c c1bc ec63 07bc
00000110: b5ff e83c 93e8 9d3d 4f01 033c ec0d 69bc
00000120: aa4a 5f3b e519 a13d 4638 5fbd dd85 dbbc
00000130: 8b34 b53c 5413 3bbc c8e1 00bd 191b 0b3d
00000140: e46d e63b b3b3 a23d 3376 0c3c 612c 5b3d
00000150: 8f4c fbbc 828f 26bd 30f6 97bd a293 01bd
00000160: 2b8f 18bd f051 653d 412e 193d d948 9b3c
00000170: b961 01bc f889 58bd cdc0 36bc d03b d23b
00000180: 9d35 633d 10d2 58bd 5a87 563d c3f0 ee3b
00000190: cf79 153d 583b b9bd 190c b4bd f07c 51bd
000001a0: 9b37 f13c ef1b 40bd d566 b83d 5466 96bd
000001b0: 9f6f 1fbc 5862 acbc 61f1 10bd 9fcb 20bd
000001c0: cdc0 f8bc 976d 813d 9e7d 0b3d 5286 85bd
000001d0: 01f2 7f3c 1474 b93c 8525 74bd abe0 75bd
000001e0: ffc6 163d dd34 793d 7543 4c3d e276 ba3c
000001f0: fad3 92ba ce7a a03b b99a 86bd d833 c13c
00000200: f27d 393c 1716 b53d 4dad 9e3d 4049 9e3d
00000210: 89d8 543c 25af 0e3d a0ed 3bbd 23f2 6c3c
00000220: c14f 4d3d 26f3 85bd 3cb4 823d edb4 cdbb
00000230: 52e7 74bd 3459 13bd 3457 92bd 7292 fc3c
00000240: de2b 12bc 59dc 103c 8cbe 223d 5074 b23c
00000250: 4375 9f3c 1db0 2dbd 7838 aabd 9cb9 923d
00000260: 9259 883d 2abf 1b3c c504 a73c 277a 63bd
00000270: 90a7 873d 80f3 82bd 682d 4fbd 2948 2abc
00000280: 29d4 2cbd 76f8 9ebd db44 8b3d 2580 173d
00000290: 641f c3bc b3b6 43bc 850e a13d 0a3b a8bc
000002a0: b442 ae3c adc0 b43d 52ba 75bd 33ce 903d
000002b0: bfc3 a13d ebcc 933d bc00 46bc 3844 a43d
000002c0: 3743 cbbc 4bbe 61bd b038 c0bc 147d b0bd
000002d0: c650 8d3c ee7b 66bd beed 60bd 0b2f 89bc
000002e0: 14d4 71bc 1c0c bebc a57b b33c 1120 6bbc
000002f0: c161 6c3d 42a8 09bd 788f 803b 88d4 39bd
00000300: 2b0e 0dbd f297 a8bd f9fc 6a3d d2f1 643d
00000310: 34ed 8bbd c806 823c 6b05 903d cd5f 04bc
00000320: 26b6 6e3d 8bdc 91bc aec9 2bbc b1e1 79bb
00000330: 77c8 f43c 075f 9ebd 1219 53bd d2a0 2dbd
00000340: 75b3 1c3d fc6a ba3d 0514 2f3d 3fb9 cf3c
00000350: 9af6 063c ccf1 97bb a551 54bd 5332 003d
00000360: c3ad e4bb 49dc 1ebc 397b 1a3b d4e3 31bd
00000370: 8b93 e03b dfa3 813d 4961 813d 0a1b 84bd
00000380: f67f 36bd b768 24bd d568 8b3d 0e7b 903c
00000390: 44f2 663d 1a4d 9d3d 38a4 94bd bef2 8fbd
000003a0: 27eb 82bd d308 9dbd 99bb 343d 79d9 183d
000003b0: 96a4 8abc 39b9 65bd f595 a43c e92e 6cbd
000003c0: 9dc6 0a3c 6ac4 593c 44f1 803d 4ff6 93bd
000003d0: 1161 883d 6c30 91bc a4a9 f43a 0abf 31bd
000003e0: 7e96 483d 165a 56bd c37b 6dbd 7acf 85bd
000003f0: b377 1abd 931d c1bc 1fe4 52bd 2a38 af3d
-0.08735236 -0.026229491 -0.07860615 -0.011795357 -0.053772107 0.03638059 -0.02921886 0.08751934
-0.04934518 0.014327346 -0.024626229 -0.037370596 0.0015062948 0.06501264 -0.08773491 0.030393427
-0.083787955 0.08572283 0.061498098 -0.008334078 -0.042310406 -0.012965228 -0.020990092 -0.024653822
-0.05530617 0.004488461 -0.0099591715 0.03960807 0.06551773 -0.018418716 -0.055063847 0.0019124722
-0.0822052 0.027110752 0.06781375 0.038376663 0.028429845 0.008965952 0.07838031 -0.056396607
-0.01636265 0.07938379 0.043665357 -0.05027605 0.049321312 -0.014000299 0.064500846 0.017807402
-0.056425523 0.006596039 0.035181202 -0.05663095 -0.06556237 -0.018589381 -0.065416336 -0.0022971241
0.09342979 -0.009841021 0.074958436 0.003125263 0.08567021 -0.0892398 0.017782003 -0.010108395
-0.022008833 0.04852826 -0.023573268 -0.008263569 0.028442243 0.07710376 0.007995917 -0.014224511
0.0034071603 0.07866267 -0.054497026 -0.02679723 0.022119781 -0.011418182 -0.03146532 0.03396139
0.007032143 0.07944431 0.008573103 0.05350912 -0.030676154 -0.040664203 -0.074200034 -0.031634934
-0.03724591 0.055986345 0.037397627 0.018955635 -0.007896834 -0.052865952 -0.011154366 0.0064158216
0.05547105 -0.052934706 0.052375175 0.0072918846 0.03649312 -0.09044522 -0.0879137 -0.05114454
0.02944546 -0.04690164 0.09003989 -0.07343736 -0.009731202 -0.021042988 -0.035386447 -0.03925669
-0.030365372 0.06319731 0.034055345 -0.0651976 0.015621663 0.022638358 -0.059606094 -0.060028713
0.03681087 0.06084143 0.04986902 0.022761766 -0.001120209 0.004897452 -0.0657248 0.023584291
0.011321532 0.08842104 0.07747898 0.07728815 0.012991079 0.034835 -0.045880914 0.014462027
0.050124887 -0.065405175 0.06382033 -0.0062776715 -0.059790917 -0.035973743 -0.07145539 0.03083155
-0.008921592 0.0088415975 0.0397325 0.021783978 0.019465094 -0.042404283 -0.08311552 0.071643084
0.06657709 0.009506026 0.020388016 -0.055536415 0.06623757 -0.063941 -0.050580412 -0.010393181
-0.04219452 -0.07762234 0.068002425 0.036987443 -0.02381868 -0.011945414 0.078640975 -0.020535965
0.02127204 0.088258125 -0.059992142 0.070705794 0.07898664 0.072168194 -0.012085136 0.08020824
-0.024812324 -0.05511312 -0.02346453 -0.08617607 0.01725043 -0.056270532 -0.05491423 -0.016746065
-0.014760036 -0.023199134 0.021909544 -0.014350907 0.057710413 -0.03360773 0.003923353 -0.0453687
-0.03443734 -0.08232106 0.05737016 0.05589468 -0.06832352 0.015872374 0.070322834 -0.008079481
0.05827918 -0.017805358 -0.010485096 -0.0038128907 0.029880745 -0.07732969 -0.05153758 -0.0423897
0.03825708 0.09102437 0.0427437 0.025356887 0.008237505 -0.0046369787 -0.051835675 0.031297993
-0.006978722 -0.009696075 0.0023571982 -0.043430164 0.006853526 0.06330084 0.06317384 -0.0645047
-0.044555627 -0.040138926 0.068071045 0.017636802 0.056383386 0.076807216 -0.07257885 -0.07028721
-0.06392508 -0.07667699 0.04412422 0.037316773 -0.016924184 -0.056084845 0.020091036 -0.057661925
0.008470205 0.013291458 0.06296018 -0.07224714 0.06659139 -0.017723285 0.001866628 -0.04339508
0.048971646 -0.052332006 -0.057979356 -0.06533714 -0.03771181 -0.023573672 -0.051487084 0.08555634

actor.linear2.bias f4 [128]
00000000: 1094 10bd cb3a 923d cae5 923d 771f cdbc
00000010: 5729 953c 2554 923d 8c36 8e3d cd44 673d
00000020: cfe3 093d f5a8 71bd 9ac3 8abd 6e5d 2d3d
00000030: 4471 9b3d f860 8e3b 69ba adbc af3a 573d
00000040: 02db 033b a978 423d ccff 4dbd a715 1f3d
00000050: 9035 543d c336 7f3d a9cc a4bd 8b1c 6bbd
00000060: f7d3 bd3c a051 733d a32e 313d 483d b3bc
00000070: 2a22 4c3c 7359 303d 5016 d7bc bcd7 123d
00000080: 839c de3b e263 a73d 5081 9f3d 598d 913d
00000090: 16da 9cbb 50f0 873d c440 02bd 2787 683d
000000a0: 4aca a73d 0806 a33d 4f57 24bc 3eaa a73b
000000b0: 4e03 b8bd 30cd 713d a4d0 123c 74e8 3d3d
000000c0: a49a 133d ee7c 0c3d 621d 6e3c a97a 38bd
000000d0: 8ec4 9dbd 12bd 41bd db60 49bc c725 97bd
000000e0: d4cc e0bb 253d a4bd 1a06 63bd d29a b6bc
000000f0: 8d0e 15bc 5831 423d 599c 2a3d 8776 ff3b
00000100: 0596 a73b e963 41bd dd3b 0abc 8bd5 653d
00000110: e315 b6bd 99c8 643d 8e1d b53d c7d5 943d
00000120: 9b53 e03c e77b 263d fbcc dcbc d452 983c
00000130: 14d1 563d cb46 a53d 46c9 3dbd 3cbb 8f3d
00000140: 4011 7a3c 19f8 76bc 1fc0 9cbd 937a 483c
00000150: 7093 16bd 868e 8dbd f6d5 9dbd 6403 af3d
00000160: 76db 963d 7d0b adbd a270 2abd e706 2abd
00000170: b273 98bd 1fdb f7bc 6ab0 07bd bc99 a63d
00000180: 02fc 23bd 4f0a 9ebc 8188 0ebd 0776 823d
00000190: 6d48 68bc c254 ac3d bfa6 3b3c c5c6 883d
000001a0: e010 eeba 661e 54bd 5f03 87bd 7aa2 673d
000001b0: 0b1c 823d 8c0b 2bbd baf0 84bc 3eb1 cb3c
000001c0: b37e be3d a953 dd3c e591 893d 5bf8 7f3d
000001d0: 032a 8cbc 070a d6ba 5132 dfba 146f ee3b
000001e0: 59b3 0d3d bccc a5bc 6665 c8bc 3f8d 3d3d
000001f0: ce99 39bb a93e 54bd edc7 813d baf2 3cbd
-0.035297453 0.0714012 0.07172735 -0.025039418 0.018208189 0.071449555 0.06943998 0.056462098
0.03366452 -0.05899902 -0.06775589 0.04232543 0.07589963 0.0043450557 -0.021207051 0.0525462
0.0020119553 0.04747835 -0.050292775 0.03883901 0.051808894 0.062308084 -0.08046848 -0.057400268
0.023172362 0.059404016 0.043257367 -0.021879807 0.012459317 0.043054055 -0.026255757 0.03585027
0.00679356 0.08173348 0.07788336 0.07107038 -0.00478674 0.06637633 -0.031800047 0.056769516
0.081928805 0.07960135 -0.010030582 0.00511673 -0.08985005 0.059033573 0.008960877 0.046364263
0.03603615 0.03429883 0.014533373 -0.045038853 -0.077035055 -0.047299452 -0.012291159 -0.07380252
-0.006860355 -0.08019475 -0.05542574 -0.022290621 -0.009097707 0.04741034 0.04165301 0.007796112
0.0051143193 -0.047214422 -0.008437124 0.056111854 -0.08890893 0.055855367 0.08843528 0.07267337
0.027383616 0.040645506 -0.026953211 0.018594183 0.052445486 0.08070143 -0.046334527 0.07018134
0.015262902 -0.0150737995 -0.07653832 0.012236255 -0.0367617 -0.0691195 -0.077068254 0.085455686
0.073660776 -0.08449457 -0.04161132 -0.04151049 -0.07443942 -0.030255852 -0.033127226 0.08134791
-0.040035255 -0.019292025 -0.03479815 0.06370168 -0.014177424 0.08414604 0.01145333 0.06678537
-0.0018162988 -0.051786803 -0.0659244 0.056551434 0.06353005 -0.04175906 -0.016228069 0.02486479
0.0930151 0.027017431 0.0671728 0.06249271 -0.017109876 -0.0016329893 -0.0017028545 0.007276425
0.034594867 -0.020239227 -0.024462413 0.04627728 -0.0028320435 -0.05181757 0.06336961 -0.04612992

actor.linear3.weight f4 [128, 128]
00000000: a17b 6d3d 7640 d23c a254 9a3d 39cd 2f3d
00000010: 6180 853c 12ea 2bbd 559e c8bb b853 26bd
00000020: 4308 b33d 5f87 12bd 4037 3cbd a054 52bd
00000030: 8462 043d 2afc 9e3d 3269 133d 8cf6 773d
00000040: dec4 3a3d ebed 853d ba5e 2a3d 3fe8 943d
00000050: ce27 873c 8151 a4bd 887e 3b3d 29f0 e13c
00000060: 81b0 043d 7407 e53b 0d4e e63c 6232 04bd
00000070: 10ec 59bd 2870 5fbd 6f83 08bd 391f 0abc
00000080: f6c9 a53d 7ac8 9c3d edc1 c53c 5970 ae3d
00000090: 8e1a b23d b399 913c 2d89 50bd 54d7 5dbd
000000a0: 15d9 80bd 7a17 adbd 3f3c 543c 6c3e 9c3d
000000b0: 4a0f 6e3d 3c82 c9bc b7f2 513d 193b 61bc
000000c0: de42 1cbd 0bca 5f3d 38b1 723d 13ae 453d
000000d0: f540 ac3d 5b9b d6bb 33a2 95ba e931 d0bc
000000e0: 5a98 94bd 5d30 dfbc b66c 6cbd 422d 3bbd
000000f0: 7378 80bd ceba a73d 3b7c 453d d45d 333d
00000100: adae 503d e3d7 24bd c0b2 563d ed74 11bc
00000110: 5125 34bb 706e 753d 3669 96bd a82d ac3d
00000120: 8ca7 1b3d 2b70 983d 2796 a23d 2044 47bd
00000130: 241f 433d 1cd7 62bd a5d1 b4bd e020 36bd
00000140: 9350 0f3d 5d26 e0bb f912 be3d d240 d5bc
00000150: 4044 dabc 916d a33d c239 54bc cb97 01bc
00000160: fbb6 31bd 1960 33bd 53c7 2dbd a99e 423c
00000170: 80b1 41bc 85de 93bd 90a6 da3c 6a1a 333d
00000180: 699d dbbc c461 44bd be3f e23c 1539 163d
00000190: 26e8 183d f39a 2a3c 18da 9abd 2848 4fbd
000001a0: fd68 673d 81db 5dbd 8f50 81bd abfb a5bc
000001b0: bc56 31bd a9f7 1abc f095 63bc 4a6d 4dbd
000001c0: d9f9 dfbc d3f9 9d3d 70fd 263d 6aec 9e3d
000001d0: a3f2 713d 326b 3e3d f1f2 33bd a339 003d
000001e0: 85d1 9e3d fbc3 14bd fac0 363d 7859 863d
000001f0: 5f82 9bbd 1674 9fbd 5e22 533c 849d 94bd
00000200: f733 82bd 4299 223d 1489 b1bd 145e 833b
00000210: 4889 b3bd cc12 8ebd 8526 bebc dc18 84bd
00000220: 1fc0 0c3c 4787 8cbd 0915 8e3d 38f7 abbd
00000230: 55c8 803c cc56 3dbd b6bc 21bd 7e5b 3b3d
00000240: 9c54 f439 287e 83bd 0135 2b3d ea9b eebc
00000250: 5395 893d 6ca5 61bd 0c16 a33d 1eda e73c
00000260: b402 99bc be2f 8d3c cca7 163d 0b2a 4c3c
00000270: c8dc 9f3d 4b4d a1bd 7f73 1d3c d47b febc
00000280: 1304 973d 341f a73b d384 94bd 3b65 653d
00000290: 222d 3abd f370 003c e6d7 1b3c f193 e73a
000002a0: 2e4e 40bd 4a4b fdbb ca44 a13c 8e52 923d
000002b0: 807f 53bc 9f6d 393c 577a fb3c 5299 30bb
000002c0: 370d b7bd 88f7 b0bd 1218 a73d 31bd fc3b
000002d0: 5f39 aebb 74a2 233d f5a9 a63d 47f3 71bb
000002e0: 9f71 973d 06db 9fbb dd78 84bd 9390 473d
000002f0: 99de 973d da51 a1bd 8478 2c3d d76e b33d
00000300: 975d 0e3d 675c 8cbd 39f5 273d 6e4b a93c
00000310: a008 22bd 4fbf 61bd 364c 80bd e87d 86bd
00000320: fdb2 383c 6792 9b3d e21a a43d dde4 b23d
00000330: 5de8 a7bd ccaf ac3c b23d 9dbd a6da 75bb
00000340: 3844 8f3d 2bf1 a8bd 06fb c93c 7b81 c03c
00000350: 29ce 7dbd 935e 4bbd 9190 de3c 82a5 2f3c
00000360: 644d 32bd 9971 583d a3c7 e0ba 226e ea3c
00000370: 2de1 a0bd 0a2e 753c 4bba e0bb d6c3 93bb
00000380: 2f87 b83d 6257 d93c 6263 8ebd 25b1 8c3d
00000390: 7218 823d 5aaf 52bd de7e 9ebc b607 fbbc
000003a0: 68fc 673c c67c 5dbd 78ee a83d f776 b53d
000003b0: 2b4f 4bbd 051b 163d 593d 99bd 0fd5 2e3d
000003c0: 1a54 e73c 41f3 79bc 9577 2abc b2fd 86bc
000003d0: 302e 833d 254f afbd 1d44 9cbd ffbe c03a
000003e0: af4a 4f3d 19cd b1bd e3e9 82bd 7d4e 503c
000003f0: 4bdb b93c 4292 ae3c aea9 db3c e7da c6bb
0.05797923 0.025665503 0.07535674 0.042920325 0.016296567 -0.041971274 -0.0061223903 -0.040607184
0.0874181 -0.03577363 -0.045951128 -0.051350236 0.032320514 0.0776294 0.035988994 0.06053786
0.045597903 0.0653952 0.041594245 0.0727086 0.016498473 -0.08023358 0.045774966 0.027580338
0.03239489 0.006989414 0.02811339 -0.03227461 -0.053203642 -0.05455032 -0.03332847 -0.008430296
0.080951616 0.07655425 0.024140323 0.08517522 0.08696471 0.017773485 -0.05091207 -0.05416043
-0.06291405 -0.084517434 0.012953817 0.076290935 0.05812005 -0.024598233 0.05125686 -0.013747
-0.038149707 0.054636043 0.05925104 0.048261713 0.08410827 -0.0065492815 -0.0011416137 -0.025414424
-0.07255621 -0.027244741 -0.057720862 -0.045697458 -0.06272974 0.08189927 0.04821418 0.043790653
0.050947834 -0.040244948 0.052416563 -0.008877975 -0.0027488063 0.059919775 -0.07344286 0.08407146
0.038001582 0.07443269 0.079387955 -0.048648953 0.04763712 -0.055380926 -0.08829049 -0.044464946
0.03498895 -0.0068405108 0.092809625 -0.026031885 -0.026643872 0.079798825 -0.012953224 -0.007909725
-0.043387394 -0.043792818 -0.04242642 0.011878648 -0.011822104 -0.072201766 0.026690751 0.043726362
-0.026808457 -0.0479448 0.027618285 0.03667553 0.03733077 0.010412919 -0.07561129 -0.050605923
0.05649661 -0.054164413 -0.063141935 -0.020261606 -0.043295607 -0.009458461 -0.013890728 -0.050153054
-0.027340816 0.07713666 0.04076904 0.07759936 0.059069287 0.04648895 -0.04393286 0.031304967
0.077548064 -0.036319714 0.04461763 0.065600336 -0.07593226 -0.077858135 0.012886612 -0.07256606
-0.06357568 0.03969694 -0.08668724 0.0040090177 -0.08766419 -0.06937179 -0.023211727 -0.06450054
0.008590727 -0.068617396 0.06937606 -0.083967626 0.015720526 -0.046225354 -0.03948661 0.04574155
0.00046602346 -0.06420547 0.041798595 -0.02912708 0.067179345 -0.0550894 0.079631895 0.028302249
-0.018678047 0.01723468 0.036781117 0.012461196 0.078057826 -0.078760706 0.009610056 -0.031064905
0.07373824 0.0051001552 -0.07251897 0.056004744 -0.0454532 0.007839429 0.009511923 0.0017667991
-0.046949558 -0.0077299224 0.019686121 0.07144652 -0.012908816 0.01131764 0.030697985 -0.0026946855
-0.089380674 -0.08640963 0.08158888 0.007712983 -0.0053168978 0.03994985 0.081378855 -0.0036918686
0.073947184 -0.0048784046 -0.06468365 0.04872186 0.07415504 -0.0787694 0.04210712 0.087613754
0.034757223 -0.06853562 0.041005347 0.02066585 -0.039559007 -0.055114087 -0.06264536 -0.065669835
0.011273143 0.075962834 0.0801294 0.087350585 -0.08198617 0.02107992 -0.07677783 -0.0037514358
0.069954336 -0.08249124 0.02465583 0.023499241 -0.061964188 -0.04965074 0.027168544 0.0107206125
-0.043530837 0.05284271 -0.001714934 0.028616969 -0.07855449 0.01496459 -0.0068581454 -0.0045094294
0.09010159 0.026530925 -0.069525495 0.06869725 0.06352319 -0.05143676 -0.019347604 -0.030643325
0.014159299 -0.05407407 0.08248609 0.08860581 -0.049636047 0.03664686 -0.07482404 0.042683657
0.028238345 -0.01525575 -0.010404487 -0.016478393 0.06405294 -0.085600175 -0.07630179 0.0014705359
0.050608333 -0.086816974 -0.063922666 0.012714026 0.022687575 0.021309976 0.026814308 -0.0060685757

actor.linear3.bias f4 [128]
00000000: 1d21 303d 7e55 893d aa6c ba3d c8d7 73bd
00000010: 3d53 8abd bfb2 99bd 372a dd3c d00b 8c3c
00000020: 6c31 8f3d b73e 313d 1f24 bb3c 6732 11bd
00000030: 3729 8f3c 116e a73b 8bd7 663d b045 2abd
00000040: 649f 90bd ae51 9a3d 6a3b 94bd 1539 b93d
00000050: 46e3 6b3d 0a6d ce3c 1630 3a3b eea7 3a3d
00000060: ce74 173c de13 e73c 040c 2fbd 4324 863d
00000070: b9ef 153d 6b58 8dbc 1067 a2bc 79df 44bd
00000080: ddde f2bc aa6c f9bc 7a46 1e3d db5b 6abc
00000090: aff5 853d e13f 5d3d 1c74 7f3d 1b4d 9b3d
000000a0: 5cdb 473d 85b8 8f3c abb1 5d3d f0f7 ae3d
000000b0: 5f22 713d c45c 0ebd 1521 febc 7120 79bc
000000c0: da34 cabb 1a08 35bc ab98 313d 13a9 6e3b
000000d0: f6f4 5c3c 58ae 9b3d c84c 6fbc b808 ab3d
000000e0: 3c33 0fbd d21e 83bd b4b6 7bbd 4789 8c3d
000000f0: c053 873c 11f2 833d 0032 6d3c 579f 2ebd
00000100: 2927 9e3d 9b55 803d 9bc8 753d de2c ad3d
00000110: 52a8 a3bc 9109 133b f76f 063c ed37 903d
00000120: ff96 ce3c dce7 e0bc 9b0d 0e3c 65e5 b93d
00000130: 929f eebc f2fb 98bd 9b8d 0abc 8312 b13c
00000140: df26 8f3d 4b89 c3bc e007 1bbd a37e a0bd
00000150: 6cc8 53bd 912e 31bd 1fbb 993d d075 f93b
00000160: f9cc 71bd cc85 963d 1383 783d 7b7a 47bd
00000170: 3f13 923d a16d 593d bd90 803d 3575 a93d
00000180: ae98 5abd 080f 19bd 250c 1bbd c71a a0bc
00000190: 6c61 653d 014c 80bc fc9b b53d c6f6 e13b
000001a0: d65b a43d 3edb 38bd 1c8f 89bd 978f c4bc
000001b0: c1ea a9bc 7018 853d 4803 4abd e981 0dbd
000001c0: c605 9a3b b73f 433c 9a0f bcbd 6d08 a3bd
000001d0: a79f e23c 2113 40bd b1f8 78bd 3003 acbc
000001e0: 3315 2b3d 5848 4dbd 6413 2dbd 36a4 ba3d
000001f0: 67ef 923d 13e4 27bd e2a4 043d 44e2 523a
0.04300033 0.067057595 0.09102757 -0.059531957 -0.06754158 -0.07504796 0.026997669 0.017095476
0.06991848 0.0432727 0.022844372 -0.035448458 0.017475707 0.0051095565 0.0563579 -0.041570365
-0.07061651 0.075351104 -0.07237895 0.09044091 0.05758979 0.025198478 0.002841001 0.045570306
0.009244157 0.028207716 -0.04273607 0.06549885 0.03660557 -0.017254075 -0.019824535 -0.048064683
-0.029647285 -0.030447323 0.03864143 -0.014304127 0.06541001 0.054015998 0.06236659 0.07583066
0.04879318 0.01754404 0.054124516 0.08543384 0.05887067 -0.034756437 -0.031021634 -0.015205489
-0.006170851 -0.011049295 0.043358486 0.0036416694 0.013486138 0.07601613 -0.014605708 0.08351272
-0.03496097 -0.06402363 -0.061453536 0.06862121 0.016519427 0.06442655 0.014477253 -0.042632427
0.07722313 0.06266328 0.060005765 0.08455823 -0.019977722 0.0022436122 0.008205405 0.07041917
0.025218485 -0.02745431 0.008670236 0.09076957 -0.029128823 -0.0746993 -0.008456613 0.021615272
0.06989836 -0.023869177 -0.037849307 -0.07836654 -0.05170481 -0.0432573 0.07506394 0.0076129213
-0.059033368 0.073497385 0.060671877 -0.04870079 0.07132577 0.053083066 0.06277607 0.082743086
-0.053368263 -0.03736785 -0.03785338 -0.019544018 0.056001112 -0.015661241 0.08867642 0.0068958728
0.08025329 -0.04513096 -0.06716749 -0.02399425 -0.020741822 0.06498802 -0.049319535 -0.03454772
0.0047003953 0.011917046 -0.09182663 -0.079605915 0.027664019 -0.046893243 -0.060784046 -0.020997614
0.041768264 -0.05011782 -0.04225482 0.09113352 0.071745686 -0.040988993 0.032383807 0.00080445805

actor.linear4.weight f4 [9, 128]
00000000: 776a 63bd 5582 aa3d 3f20 7a3d 565a e43c
00000010: 461d 803d 53db 41bd db5c acbd e6ed 72bd
00000020: a190 90bd 993a 9cbd baa5 7b3d 8e78 663c
00000030: 39be 3a3d 085b 7dbd 5d20 6ebd a737 273d
00000040: f5ac 3fbd b7cc 563d 7eb8 9d3d c635 833d
00000050: 50a8 88bd 8273 c9bb a0c3 a6bd 4eee a73d
00000060: acb9 9cbd deed 633d 8c09 7b3d 731e 71bd
00000070: 287f 82bd 84d1 303d 5eaa ae3d 6e72 72bc
00000080: b51a 3f3d 981a 433d 4ff4 8a3d 38fa 51bd
00000090: 70e9 463d 2a4e 293a e02d 9ebd 5815 3c3d
000000a0: 0736 6ebc 053d efbc 5448 a83d 9199 373d
000000b0: f071 b43d c16a 6bbd ff0a e4bc 726e 803d
000000c0: af6f 653d a09d 9b3d 5f9e f0bc f689 c6bc
000000d0: 5e1e c53c b490 e43c ee55 85bb 379e 613d
000000e0: 3c64 4bbd 96dc 0cbd 2f18 303d bce4 953b
000000f0: 7004 13bd 0029 673d 9023 c8bc 2d46 23bc
00000100: 526f abbd ec41 36bd c0c6 813b 0881 0e3d
00000110: e038 ecbb 3937 b23d f816 a13c e87f 293c
00000120: bff6 303d 0fc5 10bd 8be3 41bd a56d 993d
00000130: c184 a7bc 1b45 893d 2bf7 30bc 8234 95bb
00000140: 58af 953d 8531 76bd 05b8 7a3d f371 793d
00000150: f787 103d a743 b23d 8ee9 34bc 9cc7 9d3d
00000160: 008f 8c3c c2c4 a6bd 71a6 923d efc3 93bc
00000170: b8a6 93bd 4a35 91bd de61 b1bb a180 7cbd
00000180: 9edb 963c 66ae 0bbd 19c3 4dbd c6d2 b33d
00000190: e795 2bbd fe30 20bd 0669 ef3b 5220 dc3b
000001a0: 450e fabb 90fb acbb 28dd 4d3d 1f70 01bd
000001b0: f3a9 28bc 7b7f 8dbd 15b9 8fbd 08d2 763d
000001c0: 3e0a dfbb a3e7 583c caf1 003d 721f b5bd
000001d0: cff4 abbd 84d4 903d 7426 d0bb 28a7 7cbc
000001e0: cbe1 943c 71bd e33b 087b 393c eec9 88bd
000001f0: 4bfb ab3d cc51 443d fae4 a23d fa1d f1bc
00000200: a2f5 4fbd 04ea ea3c fa5f c53c c4da 493c
00000210: 86a6 4a3d 1c6a 89bd 8ad4 0b3d d423 033d
00000220: 4468 b23d 6143 ae3d ab4c 673d 46b4 473d
00000230: aa59 82bd 1c28 86bd 23b4 71bd fcf7 9ebd
00000240: 8fa9 2bbd 3c20 9a3d 95e1 f5bc f9d5 903d
00000250: 04b3 8abc f0e1 1abd 614e 813b bd10 513d
00000260: 9eaf 3bbd 003c b93d f2a0 9dbd 0cc8 863d
00000270: 6a0f 643d 7e52 52bd 7093 363c e701 61bd
00000280: 777b c8bc f02e c9bd 6926 8cbd 8a91 883d
00000290: 5984 c23c f87e 943c 7cdd 803d 2260 6e3d
000002a0: bf5d 893d 72c0 403c 3206 95bd dbf4 a53c
000002b0: a772 a93d 0f89 71bd 89c6 cdbd 6284 6abd
000002c0: f554 8bbd bd86 b3bd 5e00 4d3d 2786 21bd
000002d0: 7b03 8d3d 0b1e 3dbd a000 5b3d 5bc7 9f3d
000002e0: 4038 91bb e5ba a1bd 3c52 0ebd ac15 21bc
000002f0: d35f 023d a6f4 31bd e6cf ca3b e7db 563b
00000300: 40db c03d ff98 30bd f0df c23b 5c7d a1bd
00000310: b1e7 3d3c 576c 7abd 707a a5bd 6268 9abd
00000320: 8efc acbc 96d0 543d 5c34 8cbd fe26 4dbc
00000330: a71a b83c e8a0 89bd 9338 20bd d6c7 1abd
00000340: 9d58 a23c fb4f 703c 27c9 20bd ffdf 96bd
00000350: 200c 9e3d 204d 31ba 0740 5cbd eab1 263d
00000360: 987e a5bd 6379 19bd ddcc 893d 62fb 89bc
00000370: e665 9f3c 38e5 ea3c 12e5 743d 7f64 9d3d
00000380: 4b52 713c b94b 8bbd 5a07 8cbd 9927 eabc
00000390: 64e7 a33c 59e8 653b 580b 903d ef0c aa3d
000003a0: a9e5 c13d c569 633b 3296 a5bd 3f3a 16bd
000003b0: daf3 3fbd 41e7 a7bc 8aa4 53bd 5e6e 91bd
000003c0: 4c7e 393c 31fe d8bb b7ca a0bd df5c a1bd
000003d0: f226 e9bc 7346 87bd 1642 9cbb 3d3e a0bd
000003e0: c5b0 6f3d c6d4 0a3d 59df d0bc 3991 873d
000003f0: 2094 c33a 5743 b03d 7d0b cdbc 6686 383b
-0.055521455 0.0832564 0.06106591 0.027875107 0.062555835 -0.047328304 -0.08416148 -0.05930891
-0.07058836 -0.07628364 0.061437346 0.014066828 0.045591567 -0.061854392 -0.058136333 0.04082456
-0.046795804 0.052441325 0.07701205 0.06406741 -0.06672728 -0.006147803 -0.08142781 0.0819975
-0.076526016 0.05564677 0.0612884 -0.05886693 -0.063719094 0.04316856 0.08528589 -0.01479779
0.04665633 0.047632784 0.067848794 -0.051264018 0.048562467 0.0006458486 -0.07723594 0.045918792
-0.014539248 -0.029203901 0.082169205 0.044824187 0.08810794 -0.057474855 -0.027837275 0.06271066
0.056014713 0.07598424 -0.029372392 -0.024235707 0.024062332 0.027901031 -0.0040690815 0.055082526
-0.049656138 -0.034390055 0.042991813 0.0045743864 -0.035892904 0.056435585 -0.02443102 -0.009965462
-0.08370842 -0.04449646 0.0039604604 0.034791023 -0.0072089285 0.08701939 0.019664273 0.010345437
0.043204065 -0.03534418 -0.047336143 0.07491616 -0.020449044 0.06702634 -0.010801117 -0.0045533786
0.07308835 -0.06010582 0.06121065 0.060899686 0.035285916 0.0870431 -0.011042012 0.07704088
0.017158031 -0.08142997 0.071606524 -0.018037764 -0.072095335 -0.07090242 -0.005413278 -0.061646108
0.018415269 -0.034101866 -0.050234888 0.08780436 -0.041891005 -0.039109223 0.007306221 0.00671772
-0.0076310956 -0.005279012 0.05025974 -0.031601068 -0.010294425 -0.069090806 -0.070177235 0.060258895
-0.006806641 0.01323882 0.031480588 -0.08843888 -0.08396303 0.07071784 -0.00635224 -0.0154207125
0.018174073 0.0069500734 0.011320837 -0.0667914 0.0839754 0.04792957 0.0795383 -0.02943324
-0.050771363 0.02867604 0.024093617 0.012320224 0.049475215 -0.06709692 0.03413824 0.03201659
0.08711293 0.08508945 0.0564696 0.048755907 -0.06364758 -0.06550619 -0.059009682 -0.07762143
-0.04190975 0.075256795 -0.030014792 0.07072062 -0.016931064 -0.037813127 0.003946111 0.051041353
-0.04582178 0.09044647 -0.076967135 0.06581125 0.055678762 -0.051348202 0.01114355 -0.054933455
-0.024472935 -0.09823406 -0.06843264 0.066683844 0.023744749 0.01812695 0.06292245 0.05819715
0.06707334 0.011764633 -0.07276572 0.020258358 0.08273821 -0.0589686 -0.10047633 -0.057255156
-0.06803314 -0.08765934 0.05004918 -0.03943458 0.068854295 -0.04617123 0.053467393 0.07801696
-0.0044317544 -0.078969754 -0.034746394 -0.009831827 0.031829666 -0.043446206 0.006189334 0.003278488
0.094168186 -0.04311466 0.0059471056 -0.078852385 0.011590884 -0.061138477 -0.08079994 -0.07539441
-0.021116521 0.051956736 -0.06845924 -0.0125215035 0.022473646 -0.067201436 -0.039116453 -0.037788235
0.019817645 0.014667506 -0.039254334 -0.073669426 0.077171564 -0.00067635067 -0.053772 0.040697016
-0.080807865 -0.03746928 0.06728528 -0.016843501 0.019457769 0.028673753 0.05978877 0.07685184
0.014729093 -0.06801552 -0.0683734 -0.028583335 0.020007797 0.0035081117 0.07033414 0.08303248
0.09467632 0.0034700495 -0.08085288 -0.03667664 -0.046863414 -0.020496013 -0.05167059 -0.07101129
0.011321615 -0.006622099 -0.07851165 -0.07879042 -0.028460953 -0.06605234 -0.0047686202 -0.07824371
0.05851819 0.033894323 -0.025497125 0.06619496 0.0014921464 0.08606594 -0.025029892 0.002815628

actor.linear4.bias f4 [9]
00000000: e2f5 7e3d d2ba bfbc 39df 9b3d cfc1 27bd
00000010: 27b7 f2bc b944 9ebd 9f77 1fbc b85c 2cbd
00000020: 1355 a3bd
0.06224621 -0.023404513 0.07610936 -0.040956315 -0.02962835 -0.077279516 -0.00973311 -0.04208061
-0.07975211

critic.linear1.weight f4 [128, 120]
00000000: 454b 823d de70 ab3c 06a4 9dbd 8bb3 6fbd
00000010: 2458 9e3d 486f cebc dfb8 9cbd a132 6ebd
00000020: a8fb 84bd 10b2 88bd 5270 ba3c 9df5 cf3c
00000030: e39b 87bd f798 5dbd 6456 adbd 20c6 cbbd
00000040: bc36 37bc 1b72 70bd 18e0 613d cb2e 713c
00000050: 99a4 1ebd d482 89bd 5f62 b1bd fdcd 893d
00000060: eeff 56bc 3012 aabc 6fc0 97bc e99a 2e3d
00000070: cb68 77bc 7dd0 6c3d 917e 8e3c b399 a2bd
00000080: 27a2 5b3d 7ec0 9bbc a7d8 e03d 4f49 bbbd
00000090: 33ed 143d 7285 aa3d c421 903d 8770 983c
000000a0: 88b8 eebc 8902 983d 1aad 8ebb 4651 d0ba
000000b0: 2683 12ba 56a6 94bd 04be 86bc 72b5 07bc
000000c0: b813 3b3d 7622 693d 98d6 27bc 35a9 813d
000000d0: 786c 003d 701c dc3c 158e 94bb dbb1 81bd
000000e0: 6bd6 79ba 88eb 8abd 9b35 52bd 9950 fdbc
000000f0: 97eb 0fbd be99 9ebd 5d8a a9bc 6b31 d03c
00000100: 3221 5fbc 4494 473c e74b 66bc f967 633c
00000110: b6e1 d839 405c 51bb 4d70 84bd 01d8 cc3d
00000120: 84c0 1cbd 8f63 42bc e24d 963d 5009 953c
00000130: 5c14 723c 3452 c03d 1269 023d b7a3 77bd
00000140: d142 8cbd 2b34 7bbd df7f bf3d 724f 89bc
00000150: 9148 5cba 9825 6f3d 6850 a1bd ed1e 06bd
00000160: 1980 4abd 3318 b6bc bb06 063d 72b4 293d
00000170: 6c19 aa3d 8d3e 07bd 1be7 eabc 7bc8 3ebd
00000180: 1cd1 68bd dd74 75bd b935 8abd d44f 53bd
00000190: 6194 4fbc a30f 46bd 2b3a 42bd ab7e 12bd
000001a0: c85f 163d 1c66 7aba 36df 98bc d41f ab3b
000001b0: 356a a63c dfc4 8dbc 65f9 c03b 8281 0b3b
000001c0: 0134 533c 150c b1bc 9785 83bd 6b7b e83d
000001d0: e0db 773c 54fd efbd 8db7 9439 8e29 51bd
000001e0: 3c6d 1c3c 2525 bfbc 1440 933c da76 813d
000001f0: a7f1 9cbd 02f8 923d de63 a93d 4c26 8f3d
00000200: 2c28 2abd e8bc 04bd f2bc 043b 42be 9b3d
00000210: 39ae 123c 6306 a3bd cb6d 00bc 3d00 973c
00000220: 0a1d c83c 9105 863c 2e05 5b3d df83 dcbd
00000230: 180c 3dbd 137b 973d cd2c bcbc bb91 603d
00000240: 6025 243d beaf 88bd b09d 69bd 476c bb3d
00000250: a692 123a d19c c7bc c5b0 32bd c3e0 fdbc
00000260: bd84 a63d e169 85bd ff9e 0cbd af01 89bd
00000270: f577 b4bb c94c 4d3d 1254 34bd d8ce 27bd
00000280: 74ff 72bd 688e 983c d975 61bc 9dee ad3d
00000290: 6c80 903d fbac b13d 86d4 8fbc bd18 623a
000002a0: b0ff 6dbd 7e70 503c d355 f83d 2c25 9f3d
000002b0: 52bb 0b3c 2465 af3d c82c 9dbd 8393 aabc
000002c0: 08bb e0bb 6296 9cbd 57ea a33c 8b54 9cbd
000002d0: d891 5fbd c5fc a6bd de8f 99bd be74 a83c
000002e0: 31b6 1b3d e2e2 3d3d cc51 563d 35ad d4bc
000002f0: 51ee 1dbd 3d68 633d 6ce6 783c 2ec7 7b3d
00000300: e18b 53bc 0fee 80bd d5aa 96bd 6d7f aa3d
00000310: d358 3b3d d382 94bd 3844 cb3c 27aa 293d
00000320: dcd0 47bd b646 bc3d fac5 733d b40a 30bd
00000330: d27e 38bc a11b 35bd 264c 813d e3d0 c83d
00000340: 8dee a43c ca20 a7bd d621 3a3a 4818 5a3c
00000350: cbbf 83bd 1d00 ba3d 86c3 8f3d 4e8f b9bc
00000360: b2f9 83bb 5fbb 4e3c f0c8 38bd 719d 62bd
00000370: 6ce2 2dbd df80 0d3d 3b80 83bd d8da 353d
00000380: b94f 99bd a148 3cbd cb32 683c 8a23 a33d
00000390: b0cc 81bd 7865 843d 7754 063d beab 4fbd
000003a0: d57f 29bd f563 a93d fb77 72bc d171 d33c
000003b0: 725d 1e3d 8a47 1dbe eb08 7abc 3ef9 88bd
000003c0: 9c9a 953d 752c 353d 8b37 2b3d 0163 023d
000003d0: d6fe ed3c 9fe5 adbd 66ea ad3d e53a cdbd
000003e0: 0f51 66bd 1195 bd3d c28f 0a3d 6ea8 5e3d
000003f0: 48ca a3bd 499e b63d 2ca9 dd3c f5a4 fa3c
0.06362013 0.020927843 -0.076973006 -0.058520835 0.07731655 -0.025199547 -0.07652449 -0.058153752
-0.06493312 -0.06674588 0.022758637 0.025385672 -0.0662153 -0.054100957 -0.08463743 -0.09949899
-0.011182483 -0.05870257 0.055145353 0.014720629 -0.03873119 -0.067144066 -0.08661341 0.06728742
-0.013122542 -0.020760626 -0.018524377 0.042628203 -0.015100668 0.057816017 0.017394336 -0.07939472
0.053621437 -0.019012686 0.10978823 -0.09144842 0.036359023 0.08326234 0.0703769 0.018608345
-0.029140726 0.074223585 -0.0043541314 -0.0015893362 -0.00055890006 -0.072582886 -0.016448028 -0.008283006
0.045673102 0.05691763 -0.010244034 0.06331102 0.031353444 0.026869029 -0.004533539 -0.06332751
-0.0009530547 -0.06783205 -0.051320653 -0.030922221 -0.035136785 -0.07744168 -0.02069586 0.02541419
-0.013618754 0.012181345 -0.0140561825 0.0138797695 0.00041366898 -0.0031945854 -0.06466732 0.10002137
-0.038269535 -0.011864557 0.07339074 0.018192917 0.014775362 0.09390679 0.031838484 -0.060458865
-0.06848682 -0.061329048 0.09350561 -0.016761515 -0.0008403147 0.05838546 -0.078766644 -0.032744337
-0.04943857 -0.022228336 0.032721262 0.04143185 0.0830563 -0.033018637 -0.028674653 -0.04657791
-0.056840047 -0.059925903 -0.06748528 -0.051589802 -0.012669654 -0.048354756 -0.047418755 -0.03576533
0.036712438 -0.00095519586 -0.018661123 0.0052223 0.020314315 -0.01730579 0.005889105 0.002128691
0.012890817 -0.021612206 -0.064219646 0.11351665 0.015128106 -0.117182404 0.00028365516 -0.05106502
0.009547528 -0.023333142 0.01797489 0.06321497 -0.07663279 0.0717621 0.08271001 0.069897264
-0.041542217 -0.032406718 0.0020254222 0.07604648 0.008952671 -0.079602025 -0.007838677 0.01843273
0.02442791 0.016360076 0.053471737 -0.1076734 -0.04615411 0.073965214 -0.022970581 0.05482648
0.040074706 -0.06674145 -0.05703515 0.09151512 0.00055913103 -0.024366768 -0.04362561 -0.030990964
0.081307866 -0.065143354 -0.034331318 -0.06689774 -0.005507464 0.050122056 -0.04402549 -0.040968746
-0.05932565 0.018622592 -0.013761007 0.084927775 0.070557445 0.086755715 -0.017557394 0.0008624902
-0.05810517 0.012722133 0.12125745 0.07770762 0.008528547 0.08564213 -0.07674557 -0.020822292
-0.0068582334 -0.07645871 0.020009203 -0.07633313 -0.054582447 -0.08153681 -0.074981436 0.02056348
0.03801555 0.04635895 0.0523241 -0.025961498 -0.038557354 0.05551933 0.015191656 0.06146925
-0.012911768 -0.06295406 -0.073568024 0.08325086 0.045739006 -0.07251515 0.024812803 0.041422036
-0.04878317 0.091931745 0.059514977 -0.042978957 -0.011260705 -0.044215802 0.06313352 0.09805467
0.020133281 -0.08160551 0.0007100379 0.013311453 -0.06433066 0.09082053 0.07019715 -0.02265134
-0.0040275687 0.012617915 -0.045113504 -0.05532593 -0.04245226 0.03454673 -0.064209424 0.04439816
-0.07485909 -0.0459677 0.014172266 0.07965763 -0.06337869 0.06464666 0.032795396 -0.050700895
-0.041381676 0.082710184 -0.014799113 0.025811108 0.038663335 -0.15359321 -0.015260915 -0.06688164
0.0730488 0.04423185 0.041801017 0.0318327 0.02905218 -0.084910624 0.084919736 -0.10020999
-0.056229647 0.09256948 0.033828504 0.054359846 -0.079975665 0.08916909 0.027058206 0.030596236

critic.linear1.bias f4 [128]
00000000: 9f84 ab3d 3bc3 fabb 25de 7cbc 2d7a a83d
00000010: e79b 0bbd 3067 953d 4b15 b2bc c444 9cbd
00000020: f7e9 883d 56d3 ea3c b593 a2bd 9145 b43d
00000030: 32cb 5abd e144 0a3c 7607 153c ee29 7bbd
00000040: 6ab2 f73a 5c4d 8cbd 15f3 0c3d 8063 933c
00000050: bf66 b7bc fa1d 12bd 0b29 b43d 4104 13bc
00000060: 786a 8b3d 7bda 113d dbd1 ed3c 42d9 8a3b
00000070: d4ec dcbc 9dd6 52bd 7726 a6bb fdcd 10bd
00000080: 7baf 153c 5984 8dbd c1ed 113c 06e1 b83c
00000090: 6786 a33c e9fd 463c c50d 473d 2b54 f23c
000000a0: af2f fd3c dc14 12bc e8ae ae3c f203 bd3d
000000b0: 0ec9 9e3d 5d87 a93d be4a 8d3d 684a 8b3c
000000c0: 6c92 a13c fdbe 793d 7875 36bd 7e13 e5bc
000000d0: cfb3 4dba 8556 85bd 1297 9c3d b080 1a3d
000000e0: 507d 36bd 86c4 8cbb 940b 393d 7dc3 713d
000000f0: 92fc 863d f52f 13bd 395b b5bc aee4 2b3d
00000100: eac5 81bc 5490 7e3d 89c3 13bd 07b6 a63d
00000110: 68fb 87bd 8045 e1bc 1502 a83d 8451 9bbd
00000120: 8701 4f3d f5a2 bb3d 2fdf 633d d99a 903c
00000130: 1799 ad3d 5ba1 7cbd fe65 97bd 80ad 49bd
00000140: 0be6 9e3d adf2 9abd 6f59 913c 8801 a23d
00000150: bcb2 84bd 7977 96bd 3ad6 78bd 31a5 31bd
00000160: c689 9d3d b7e1 133c f7af cc3d b655 86bd
00000170: 70a4 f5bc 7624 6c3d b613 85bd 409b 2fbd
00000180: ada5 853d 98c9 8abd 71ce 8d3d 9650 773d
00000190: 4f74 5ebd 0087 a23d 55f7 7a3d 850a 913d
000001a0: 0285 983d c667 7bbd 7930 a5bc e04f 7d3c
000001b0: c986 823d 2f8c 8e3d 1285 2fbd 204d 133d
000001c0: 9173 983d 334e 5fbd 88a1 77bd 891b 25bd
000001d0: 34cd d5bb 7e40 91bc 8713 90bd 67a0 40bd
000001e0: 19ed b3bc 704f 803d e1a6 21bd ce32 f2bc
000001f0: ad86 24bd 408c 63bd 5986 2abd abbe 7dbd
0.08374905 -0.007652668 -0.015433823 0.08226428 -0.034084227 0.07295072 -0.021738669 -0.076303035
0.0668525 0.028665226 -0.07938329 0.08802331 -0.05341644 0.008439274 0.009096017 -0.061319284
0.0018897776 -0.06850693 0.03441151 0.017991781 -0.02238786 -0.03567312 0.08796891 -0.008973182
0.06807417 0.03560875 0.029030731 0.004237325 -0.026968397 -0.051474202 -0.0050705033 -0.035352696
0.009136076 -0.06910009 0.008906783 0.022568237 0.019961549 0.012145498 0.048597116 0.02958115
0.030906526 -0.008916106 0.021323636 0.09229268 0.07753192 0.082777716 0.068990216 0.017003253
0.01972314 0.060973156 -0.04454562 -0.027963396 -0.0007846923 -0.06510643 0.07646002 0.037720382
-0.0445531 -0.0042958884 0.045177057 0.059024323 0.06591143 -0.035934407 -0.022138225 0.041966133
-0.015841443 0.06214936 -0.03607515 0.08140188 -0.06639749 -0.02749896 0.08203522 -0.07583907
0.050538566 0.09161941 0.055632766 0.017651962 0.08476465 -0.061677318 -0.073925 -0.049237728
0.07758721 -0.07565818 0.01774284 0.07910448 -0.064794034 -0.07347006 -0.060751177 -0.04337043
0.07692294 0.009025983 0.099945 -0.06559317 -0.029985636 0.05765196 -0.064979 -0.042872667
0.06525741 -0.06776732 0.06924141 0.060379587 -0.05431014 0.079359055 0.06127103 0.070820846
0.07447244 -0.061378263 -0.020164715 0.015460938 0.063733645 0.06960332 -0.042851515 0.035962224
0.074439175 -0.054517936 -0.060456783 -0.040309463 -0.0065247063 -0.017730948 -0.070349745 -0.04702797
-0.021963643 0.062651515 -0.03946579 -0.029565241 -0.0401675 -0.055553675 -0.04163203 -0.061949413
