hover_falcon_raw_ckpt/ckpt_00010701.pt (torch, 966711 bytes, 15 tensors)

actor.linear1.weight f4 [128, 120]
0	0x3ca9973d	0.020701999
1	0x3cae7235	0.021294693
2	0x3d8b0bc4	0.067893535
3	0x3d6b6ce5	0.057476897
4	0xbd5d77dd	-0.05406939
5	0x3da2e1e6	0.07953243
6	0x3d3bd889	0.0458608
7	0xbd195ef6	-0.037444077
8	0x3d4f2cdb	0.050579887
9	0xbd120a2f	-0.035654243
10	0xbc5c43cc	-0.013443898
11	0xbca455c9	-0.020060437
12	0xbd80eece	-0.062955484
13	0x3e0fabd6	0.14030394
14	0xbd3ce3f2	-0.046115823
15	0x3b0d5005	0.0021562588
16	0x3d9b1bcf	0.075736634
17	0x3ce1ff87	0.027587665
18	0x3d149b68	0.03628102
19	0xbcfbeb1f	-0.030751763
20	0x3d61c1ae	0.055116348
21	0xbb34173b	-0.0027479667
22	0xbd7bcf05	-0.061476726
23	0xbd93e3b8	-0.07221168
24	0xbd4a8887	-0.04944661
25	0x3c8531dc	0.016259126
26	0x3d089b36	0.033351146
27	0x3bed327b	0.0072386838
28	0xbd9edc13	-0.077568196
29	0x3d9ca1a6	0.076480195
30	0x3c4b9058	0.012424551
31	0xbdeea996	-0.1165344
32	0xbd5cef2c	-0.05393903
33	0x3a7f918f	0.0009749168
34	0x3cb4c698	0.022067353
35	0xbd95a8ae	-0.07307564
36	0xbd5974ae	-0.05308979
37	0xbd0d5bc4	-0.034511343
38	0x3d952ceb	0.07283958
39	0xbc99acd4	-0.018759169
40	0x3d03649c	0.03207837
41	0xbda34956	-0.07972972
42	0xbc172ba2	-0.0092267115
43	0xbdbcbb5d	-0.09215424
44	0xb9eb731f	-0.00044908465
45	0xbb6ffc1f	-0.0036618782
46	0xbd5139e4	-0.0510806
47	0x3bbc8ee5	0.005754339
48	0xbd6a0161	-0.05713022
49	0x3da1884e	0.07887326
50	0xbd865323	-0.06558826
51	0x3c6cd09e	0.014454035
52	0x3d849cdd	0.06475232
53	0xbcbaa972	-0.022785876
54	0xbd33a163	-0.043855082
55	0x3d8feb09	0.07027251
56	0x3c979f3f	0.018508552
57	0xbce22080	-0.027603388
58	0xbdc7136f	-0.097205035
59	0xbd4ac86b	-0.04950754
60	0x3c376292	0.011192935
61	0x3e105706	0.14095697
62	0x3c7641de	0.015030352
63	0xbdfbefa1	-0.12301565
64	0xbcf609de	-0.030034002
65	0x3c43d5dd	0.011952844
66	0x3dacc5eb	0.08436187
67	0x3da7605a	0.081726745
68	0x3daabc47	0.08336692
69	0x3c5857a6	0.013204491
70	0x3cddb157	0.027062101
71	0xbd95e3d1	-0.07318843
72	0xbcddb346	-0.027063023
73	0xbdacd0fd	-0.08438299
74	0x3dbd8c93	0.09255328
75	0xbd9e27c0	-0.077224255
76	0x3dc62efb	0.096769296
77	0x3ceafbdc	0.028684549
78	0x3d8d979a	0.06913681
79	0xbc5b56ad	-0.013387364
80	0x3c1975f9	0.009366506
81	0x3d0b6d52	0.034039803
82	0xbd87309c	-0.066010684
83	0xbd63c6dc	-0.05560957
84	0xbca7b5f8	-0.020472512
85	0x3d9e4367	0.077277
86	0xbd7b1fe1	-0.0613097
87	0xbd355bad	-0.044276882
88	0x3db7f0f4	0.08981505
89	0xbdaa980e	-0.083297834
90	0x3d7593c2	0.059955366
91	0x3cd25bd7	0.025678558
92	0xbc851f5a	-0.016250301
93	0x3d56e449	0.052463803
94	0xbd9e498d	-0.077288724
95	0xbd185d08	-0.037198097
96	0xbc6adb81	-0.01433456
97	0x3db56988	0.08858019
98	0x3d56b4d4	0.052418545
99	0x3c5b81ee	0.013397677
100	0xbd1cfd8d	-0.038327742
101	0xbc41442f	-0.011796041
102	0x3bba75c6	0.005690309
103	0x3d9a4fd2	0.07534756
104	0x3d582470	0.052769125
105	0xbda39ead	-0.079892494
106	0xbd154fc7	-0.036453035
107	0x3cd034bd	0.025415773
108	0xbc952d58	-0.018210098
109	0x3de6dd60	0.11272693
110	0x3d4dfd74	0.05029054
111	0xbdd22157	-0.10260265
112	0x3919c36c	0.00014664017
113	0xba10b753	-0.00055204815
114	0x3d72ae9f	0.059248563
115	0x3c7e35ed	0.015515787
116	0xbdb5b2f9	-0.08872027
117	0xbd2183d7	-0.039432373
118	0x3c25bdd5	0.01011606
119	0x3d553cf3	0.05206008
120	0xbc460508	-0.0120861605
121	0x3c4b7bfb	0.012419696
122	0xbc4e1502	-0.012578251
123	0x3d5de389	0.054172073
124	0xbda77fb6	-0.08178656
125	0x3da48004	0.080322295
126	0xbc353e35	-0.011062195
127	0xbce09d3d	-0.027418727
128	0x3d1310f1	0.03590483
129	0x3d55218d	0.05203395
130	0xbd0fe712	-0.035132475
131	0x3c789138	0.015171342
132	0xbc429a24	-0.01187757
133	0xbd454056	-0.04815706
134	0x3bcb0d35	0.0061966428
135	0xbdcc4285	-0.09973625
136	0xbd801553	-0.06254067
137	0xbdb2b875	-0.08726589
138	0xbce829d6	-0.028340261
139	0xbc92e5e7	-0.017931892
140	0x3d3133b1	0.043262187
141	0x3cd94089	0.02652003
142	0x3d7c2ac5	0.061564226
143	0x3cce767e	0.025202986
144	0xbd544275	-0.05182119
145	0x3cac8982	0.021061663
146	0xbdb5bfb7	-0.08874457
147	0x3da9b19b	0.08285829
148	0xbdb8d0bd	-0.09024189
149	0x3de105bf	0.10987424
150	0x3c0a43e7	0.008439041
151	0xbd37aa71	-0.04484028
152	0x3d0d7c83	0.03454257
153	0xbd9bf11e	-0.07614349
154	0xbc2426fb	-0.010019059
155	0xbd874be8	-0.06606275
156	0xbd440f56	-0.047866188
157	0xbc8e5294	-0.01737336
158	0xbcd98c47	-0.026556147
159	0xbd935cdb	-0.07195445
160	0x3d23a537	0.039952483
161	0xbd8a0985	-0.06740097
162	0xbbaf3f41	-0.0053481166
163	0xbd9442f3	-0.07239332
164	0xbdad31af	-0.08456742
165	0x3db3a792	0.08772196
166	0x3cd61280	0.026131868
167	0xbd51fc0b	-0.051265758
168	0x3c4bb66b	0.012433629
169	0xbd227f96	-0.039672457
170	0x3d771ee3	0.06033219
171	0xbd2facba	-0.042889334
172	0x3db1ca01	0.08681107
173	0x3d08cea0	0.033400178
174	0x3d087806	0.03331759
175	0xbc5dd807	-0.013540274
176	0x3d4269b3	0.047464084
177	0xbb04b392	-0.0020248634
178	0x3d0f2eed	0.03495686
179	0x3d93b4dd	0.07212231
180	0x3d34cc02	0.04413987
181	0x3c8995fe	0.016795155
182	0xbcf68045	-0.03009046
183	0x3d31e659	0.043432567
184	0x3cd89914	0.02644018
185	0xbd974e49	-0.073879786
186	0x3daf9012	0.08572401
187	0x3d66e17b	0.05636738
188	0xbda3f61f	-0.08005928
189	0x3d296159	0.041352604
190	0xbd890b6f	-0.06691634
191	0x3c03f764	0.008054588
192	0xbd19343f	-0.03740334
193	0xbd14a52e	-0.03629034
194	0x3c9a7d47	0.018858565
195	0xbd083c39	-0.033260558
196	0x3c4529f4	0.012033928
197	0x3d53ba7e	0.051691525
198	0x3d79dc03	0.061000835
199	0xbd696b58	-0.056987137
200	0x3d28447b	0.041080933
201	0x3a6bdc85	0.00089973985
202	0x3c9b7281	0.018975498
203	0x3c04c3d6	0.008103332
204	0xbcb6c1ef	-0.022309272
205	0x3d8822da	0.066472724
206	0x3da09039	0.07840008
207	0x3db7d0ae	0.08975349
208	0xbd7209e8	-0.05909148
209	0xbd0670e2	-0.032822497
210	0xbc2589b3	-0.010103631
211	0x3d46ac49	0.048504148
212	0xbd04cc7e	-0.03242158
213	0xbc85408f	-0.016266135
214	0x3d9310f7	0.0718097
215	0xbdcf2a5c	-0.10115501
216	0x3bc8b0c3	0.0061245873
217	0xbd6f43f3	-0.05841441
218	0xbc941c55	-0.018079916
219	0xbdacc498	-0.08435935
220	0xbd2e5864	-0.042564765
221	0x3ce0dc12	0.027448688
222	0xbd292fa6	-0.041305207
223	0x3d55e425	0.05221953
224	0x3d87512c	0.06607279
225	0x3bad534d	0.0052894712
226	0x3d8c4d4c	0.06850681
227	0x3d13cfd7	0.036086883
228	0xbc94e686	-0.018176328
229	0x3d563967	0.052300837
230	0x3dbdb4e0	0.09263015
231	0xbdc0c5a0	-0.09412694
232	0xbcdcd529	-0.026957111
233	0xbce77c18	-0.028257415
234	0xbd8d18fe	-0.068895325
235	0x3d43a623	0.047765862
236	0x3d72c503	0.059269916
237	0x3d138fb7	0.03602573
238	0xbc365199	-0.011127853
239	0xbce60b8c	-0.028081678
240	0xbd9e1e78	-0.07720655
241	0x3c9f0e93	0.01941613
242	0x3d8b9234	0.068149954
243	0x3b0f6865	0.0021882292
244	0xbb8f82cd	-0.0043796063
245	0xbd7c817b	-0.06164692
246	0x3dcf76ff	0.101301186
247	0xbd7a51c8	-0.06111315
248	0x3d806380	0.06268978
249	0x3b4e9e7b	0.0031527567
250	0xbdb666f0	-0.089063525
251	0xbdce6a0d	-0.10078821
252	0x3bfa09de	0.007630571
253	0xbd471d4f	-0.048611935
254	0x3c2ff23f	0.010738908
255	0xbdb66cda	-0.089074805

actor.linear1.bias f4 [128]
0	0xbd5a4876	-0.05329176
1	0xbbff71ed	-0.0077955634
2	0xbd14ee05	-0.036359806
3	0xbd451f3e	-0.048125498
4	0x3dc30704	0.095228225
5	0x3d1bba64	0.038019553
6	0x3dc63e5d	0.096798636
7	0x3d3ccc4a	0.046093263
8	0xbbf12dd3	-0.007360199
9	0x3d9586b4	0.07301083
10	0x3d1976a2	0.037466653
11	0x3d720763	0.059089076
12	0xbd14ac48	-0.036297113
13	0xbda51324	-0.080602914
14	0xbd689c05	-0.056789417
15	0xbd88e1d7	-0.066837005
16	0xbd9bc762	-0.07606389
17	0x3d9347df	0.07191443
18	0xbc64ddd2	-0.013968902
19	0xbd66753d	-0.05626415
20	0x3d0e3cbb	0.034725886
21	0x3c23a46a	0.00998793
22	0x3d7bc759	0.06146941
23	0x3d9b5e9a	0.07586403
24	0xbd88f219	-0.066868015
25	0x3d1afac0	0.03783679
26	0x3d8f0f54	0.069853455
27	0x3db8993b	0.090136014
28	0x3d433e18	0.04766664
29	0x3cc51470	0.024057597
30	0xbd9940b9	-0.07483048
31	0xbdb09627	-0.08622389
32	0x3d971015	0.07376114
33	0xbc69209f	-0.014228969
34	0x3d5869af	0.052835163
35	0xbd95f175	-0.07321445
36	0x3bdf4d2b	0.006814619
37	0xbcef9110	-0.029243976
38	0x3d565840	0.052330256
39	0xbd3f2f9e	-0.04667627
40	0xbd776453	-0.06039841
41	0xbda0f1f3	-0.07858648
42	0xbd9d99c0	-0.07695341
43	0xbd95b058	-0.073090255
44	0x3da1f5d2	0.07908215
45	0xbdc659be	-0.09685086
46	0x3d50bd70	0.05096191
47	0x3db6d51f	0.089273684
48	0xbd061bd1	-0.03274137
49	0x3cf7532a	0.030191023
50	0x3d0bb40d	0.034107257
51	0xbd9d8247	-0.07690864
52	0x3dca7ef4	0.09887496
53	0x3dc271a2	0.0949433
54	0x3c219dfe	0.009864328
55	0x3d71b47e	0.05901002
56	0x3bd5c2e9	0.0065234792
57	0x3d9c78dd	0.0764024
58	0xbd42ddb3	-0.04757471
59	0x3cdee72c	0.02720984
60	0xbd1dc4e5	-0.03851785
61	0xbd62a9c4	-0.055337682
62	0x3d9fa3c2	0.07794906
63	0x3d8a9923	0.0676749
64	0x3bb0f879	0.005400714
65	0xbcba2e6c	-0.022727214
66	0x3cb0e7a7	0.021594835
67	0x3c44ae2c	0.012004416
68	0xbad553b2	-0.0016275553
69	0x3d01b6b6	0.031668387
70	0x3d818351	0.06323875
71	0x3d64e953	0.055886578
72	0x3ba76264	0.0051081646
73	0xbd3a9e21	-0.04556096
74	0xbda6eff0	-0.08151233
75	0x3d5ce35e	0.05392777
76	0x3d6834f7	0.056691136
77	0xbc0285ce	-0.007966472
78	0x3ba842fb	0.005134938
79	0xbc749a64	-0.014929388
80	0x3d99c8ae	0.0750898
81	0xbc96bc99	-0.018400477
82	0x3cad80a8	0.021179512
83	0xbd369e7c	-0.044584736
84	0x3d036ecf	0.032088097
85	0xbd9d8c76	-0.076928064
86	0x3d7d0552	0.061772652
87	0xbd8615f0	-0.06547153
88	0x3c8346b0	0.016024917
89	0xbadc5437	-0.0016809766
90	0xbc768638	-0.015046649
91	0xbb944731	-0.0045250882
92	0x3d8ed40f	0.06974041
93	0xbd751061	-0.059830073
94	0xbabbfbf2	-0.0014342053
95	0x3d5419f7	0.051782575
96	0x3dc15db1	0.09441698
97	0xb893643e	-7.028178e-05
98	0x3d85e5fc	0.06538007
99	0x3d929240	0.07156801
100	0xbd52b6e9	-0.051443968
101	0xbda5904d	-0.08084164
102	0x3d56bbb9	0.05242512
103	0xbcbf8a9c	-0.023381524
104	0x3d9258c7	0.07145839
105	0xbd7236af	-0.05913418
106	0x3da614be	0.08109425
107	0x3db37566	0.08762626
108	0x3ac23002	0.0014815333
109	0x3c9fea78	0.019520983
110	0x3d8401ff	0.06445693
111	0xbd0ef4a8	-0.03490129
112	0xbd681a94	-0.056665972
113	0xbd8ddb90	-0.06926644
114	0x3cdaa437	0.026689632
115	0xbcaa542f	-0.020792095
116	0x3b5447b1	0.0032391364
117	0xbd4584e3	-0.048222434
118	0x3c17e9f6	0.009272089
119	0x3d34662f	0.044042762
120	0x3daa9c10	0.08330548
121	0x3d8de2d6	0.06928031
122	0xbce843b3	-0.028352594
123	0xbd869c44	-0.06572774
124	0xbc178d19	-0.009249949
125	0xbb0b3773	-0.0021242767
126	0xbc966465	-0.018358419
127	0xbd0e4a7c	-0.034739003

actor.linear2.weight f4 [128, 128]
0	0x3c686e3b	0.014186437
1	0x3cda9ca3	0.026686018
2	0x3db69dab	0.089167915
3	0xbd7bb172	-0.061448522
4	0x3c5db01f	0.01353076
5	0x3b65db7c	0.003507345
6	0xbcb346bb	-0.021884313
7	0x3d92a52a	0.07160409
8	0xbd9d2382	-0.07672788
9	0xbd81d108	-0.06338698
10	0xbcc5551d	-0.024088437
11	0x3d938211	0.072025426
12	0x3d78892b	0.06067769
13	0x3c88f631	0.016718956
14	0xbd7812e0	-0.060564876
15	0xbc8c3e0b	-0.017119428
16	0x3ca776ac	0.02044233
17	0x3d5baad1	0.0536297
18	0xbcda7d33	-0.026671028
19	0x3b3b3015	0.0028562595
20	0xbdc999ce	-0.09843789
21	0x3d192243	0.03738619
22	0xbc969349	-0.018380778
23	0xbd3b673c	-0.04575275
24	0xbd4ee115	-0.050507624
25	0x3db65bf3	0.08904257
26	0x3d340fb2	0.04396028
27	0x3d9eaaba	0.07747407
28	0x3c42cc94	0.011889596
29	0x3d153d9d	0.036435712
30	0x3d9dbc9d	0.07701991
31	0x3d24e103	0.04025365
32	0xbd9a3c77	-0.07531064
33	0xbdc1e484	-0.09467414
34	0xbd86a6fd	-0.06574819
35	0xbdad10de	-0.08450483
36	0x3d9a34c4	0.075295955
37	0x3a062c6c	0.0005118314
38	0xbd36a1ba	-0.04458783
39	0x3d7c6bd0	0.061626256
40	0xbd6413ca	-0.055682935
41	0xbd46fbbd	-0.04857992
42	0x3b2f7fab	0.0026778977
43	0xbcdfb065	-0.027305791
44	0x3db49372	0.088171855
45	0xbc9d1d0f	-0.019178895
46	0xbbfc309e	-0.0076962253
47	0x3dc1c18b	0.094607435
48	0x3adfeeeb	0.0017084753
49	0x3cf346be	0.029696818
50	0x3c8a89ac	0.01691135
51	0xbdadf49e	-0.08493923
52	0x3d82f265	0.06393889
53	0x3bc08624	0.005875366
54	0xbc9cd628	-0.019145086
55	0xbd83db9e	-0.06438373
56	0x3bec6e62	0.007215307
57	0xbd29d582	-0.041463383
58	0xbc2f6da6	-0.010707295
59	0x3cfb6743	0.030688887
60	0xbd4926bb	-0.049109202
61	0x3d2b9bd8	0.04189667
62	0xbcb18027	-0.021667553
63	0xbd2300e1	-0.03979576
64	0x3d9d47ec	0.07679734
65	0x3db3577d	0.087569214
66	0x3cb8f363	0.022576993
67	0xbd4c03ad	-0.049808193
68	0x3d1cf5fe	0.038320534
69	0x3cadd346	0.021218907
70	0xbcd1d132	-0.025612447
71	0x3d9425b1	0.072337516
72	0xbd078556	-0.033086143
73	0x3bc24867	0.005929041
74	0xbd383103	-0.044968616
75	0xbd56f5b9	-0.052480433
76	0xbd8678e2	-0.06566025
77	0xbd985f65	-0.0744007
78	0x3db2a0bf	0.08722066
79	0x3dade074	0.08490077
80	0x3dc141ac	0.09436354
81	0x3b8f8802	0.004380227
82	0x3da128da	0.0786912
83	0xbd8ac944	-0.067766696
84	0x3d11bc55	0.035579998
85	0xbd636aef	-0.0555219
86	0x3bc4ee38	0.006009843
87	0x3d89708b	0.06710919
88	0xbce5c373	-0.028047299
89	0xbd86a569	-0.06574518
90	0xbdb5e550	-0.088816285
91	0x3cc3a7b3	0.023883676
92	0xbd984ccd	-0.074365236
93	0x3d91d669	0.071209736
94	0x3c321d9e	0.010871319
95	0x3d199590	0.03749615
96	0xbb7913c2	-0.0038006161
97	0xbd6d6c0d	-0.057964373
98	0x3cd64b17	0.026158853
99	0x3d97a2a9	0.07404072
100	0xbd1e0498	-0.0385786
101	0xbda94151	-0.08264411
102	0xbd415727	-0.047202256
103	0x3ce47900	0.027889729
104	0x3d3c0a53	0.045908283
105	0x3c6b3539	0.014355951
106	0xbdb471c4	-0.088107616
107	0x3cbc6a04	0.022999771
108	0x3d9e6d54	0.077356964
109	0x3cc7ba8c	0.024380945
110	0x3da8f9eb	0.08250793
111	0xbd8536fc	-0.06504628
112	0xbd91e1ff	-0.071231835
113	0x3d65b49b	0.056080442
114	0x3d5d2a2f	0.053995308
115	0x3d9232c6	0.071385905
116	0xbc4bede3	-0.012446853
117	0xbcd79ee8	-0.02632089
118	0x3cd28fd2	0.025703344
119	0xbd57a0d1	-0.0526436
120	0xbdd1151b	-0.10209104
121	0x3d8f6358	0.0700137
122	0xbbefb331	-0.0073150625
123	0xbd4dfc38	-0.050289363
124	0x3d878656	0.066174194
125	0x3d8e471d	0.069471575
126	0xbd96dea8	-0.07366687
127	0x3d864ece	0.065579996
128	0x3dd95861	0.1061256
129	0x3d93cae3	0.07216432
130	0x3d834632	0.06409873
131	0x3bf25488	0.007395331
132	0x3d01df15	0.03170689
133	0x3d68091f	0.056649324
134	0xbd155699	-0.03645954
135	0x3d51f859	0.051262233
136	0xbcb389df	-0.021916328
137	0xbd865286	-0.06558709
138	0xbd8b1d7e	-0.067927346
139	0x3c639b41	0.013891996
140	0x3ddde542	0.10834743
141	0x3d3ce963	0.046121012
142	0x3d667f8e	0.05627399
143	0xbd8e66fa	-0.06953235
144	0x3cbed3bf	0.023294328
145	0x3d10ec38	0.035381526
146	0x3d879321	0.066198595
147	0xbd056c90	-0.032574236
148	0xbc3bbff9	-0.011459344
149	0x3d09aab9	0.03361008
150	0x3c25fd82	0.010131242
151	0xbd2c854b	-0.042119306
152	0xbda8fe63	-0.082516454
153	0x3bf5a81a	0.007496846
154	0x3cf2deaa	0.02964719
155	0xbd118fbd	-0.03553747
156	0xbd9012ce	-0.07034837
157	0xbce30c29	-0.02771576
158	0xbd6778de	-0.056511752
159	0x3d005538	0.03133127
160	0xbc9a3dcb	-0.018828293
161	0x3db002f5	0.08594314
162	0xbd25efe4	-0.04051198
163	0xbcb620ed	-0.022232497
164	0xbda48a34	-0.08034173
165	0xbd56f020	-0.052475095
166	0xbbfbe800	-0.0076875687
167	0xbc2c5f2c	-0.010520738
168	0xbd3f6d1c	-0.046734914
169	0xbd8771ef	-0.06613528
170	0xbd752207	-0.059846904
171	0xba1a1def	-0.0005879094
172	0x3d57ab2e	0.052653484
173	0x3b8bcd75	0.0042664357
174	0xbd479ad1	-0.04873163
175	0x3cfc5c8c	0.030805849
176	0x3d48f015	0.049057085
177	0xbd17e069	-0.03707925
178	0xbce80c6e	-0.02832624
179	0xba4bf299	-0.00077799853
180	0x3da076dc	0.078351706
181	0xbd88defa	-0.066831544
182	0x3da358b3	0.079759024
183	0xbd0256b1	-0.031820957
184	0xbc2e64bc	-0.010644134
185	0x3d361bb9	0.044460032
186	0xbdae9101	-0.08523751
187	0xbd5ed6bc	-0.054404005
188	0x3d77f96b	0.060540598
189	0xbcce0547	-0.025149
190	0x3c6af4e9	0.014340618
191	0xbdbf85e2	-0.09351708
192	0x3d851dd6	0.064998314
193	0x3d8bc1b2	0.06824054
194	0x3dc0b431	0.09409369
195	0xbcdc16a0	-0.026866257
196	0xbcf30789	-0.029666679
197	0x3d3f342b	0.04668061
198	0xbcc0172b	-0.023448547
199	0xbc09349c	-0.008374359
200	0x3d9c0b31	0.07619322
201	0x3a1e8454	0.000604694
202	0x3cb05776	0.02152608
203	0x3d9fe6f8	0.07807726
204	0xbc3a9b2c	-0.011389535
205	0x3d69893c	0.057015643
206	0xbdb998e7	-0.09062367
207	0x3d627ab9	0.05529282
208	0xbd489a10	-0.04897505
209	0x3da0eff8	0.078582704
210	0xbdb1b194	-0.086764485
211	0x3cc74b39	0.024327861
212	0x3c27ccb7	0.010241679
213	0x3cfb9068	0.030708507
214	0xbd800c10	-0.06252301
215	0x3c9a214f	0.01881471
216	0x3da577f9	0.080795236
217	0xbd58ade1	-0.0529002
218	0x3d8c5fc4	0.06854203
219	0x3c978ae9	0.018498855
220	0x3b029587	0.001992555
221	0x3d383fff	0.044982906
222	0x3d95e0cd	0.07318268
223	0xbd8876df	-0.06663298
224	0xbd899b41	-0.067190655
225	0xbc684ad4	-0.014177997
226	0x3d9bd85c	0.07609627
227	0x3d91c070	0.07116783
228	0xbdcd1097	-0.1001293
229	0xbc3bb27c	-0.011456128
230	0x3cb2eae2	0.021840516
231	0xbc86bef9	-0.016448485
232	0x3bd68a2a	0.006547232
233	0x3dc2b16d	0.095064975
234	0xbd8a03ba	-0.06738992
235	0x3d94d677	0.072674684
236	0xbd2980cc	-0.041382596
237	0x3d4e0054	0.05029328
238	0xbda63aad	-0.0811666
239	0x3d96bc17	0.07360094
240	0xbc5b1fb0	-0.013374254
241	0x3d257b7b	0.040400963
242	0xbdb0c72d	-0.0863174
243	0x3d9feadd	0.078084685
244	0xbd989272	-0.07449807
245	0x3d834fe1	0.0641172
246	0xbd886b4e	-0.06661092
247	0x3d90328c	0.07040891
248	0x3cd060bb	0.02543675
249	0x3d899fa0	0.06719899
250	0x3d0cee10	0.03440672
251	0x3c0cde2f	0.008597895
252	0x3d817c8d	0.06322584
253	0x3c2ab1bd	0.010418353
254	0x3d8dfa66	0.06932525
255	0x3db3ec27	0.08785277

actor.linear2.bias f4 [128]
0	0x3d8ba5d0	0.068187356
1	0x3cf23363	0.029565519
2	0x3ca6b6ae	0.02035078
3	0xbdb18b7e	-0.08669184
4	0x3bdeeec3	0.006803365
5	0x3d515139	0.05110285
6	0x3cd54d12	0.026037727
7	0x3c2add6b	0.010428767
8	0xbd926bd3	-0.07149472
9	0xbd7f8d75	-0.062390763
10	0xbcebd492	-0.028787885
11	0x3d95fbca	0.073234156
12	0x3d594268	0.053041846
13	0xbdb56a35	-0.08858148
14	0xbd675edb	-0.056486946
15	0x3d30e0b6	0.04318305
16	0x3d28a823	0.041175973
17	0xbd5823d3	-0.05276854
18	0x3d01046b	0.031498354
19	0x3db74b3d	0.089498974
20	0x3d817482	0.0632105
21	0xbd32f88a	-0.043694057
22	0xb850823a	-4.9712347e-05
23	0xbd32cab2	-0.043650337
24	0xbdb4099f	-0.087908976
25	0xbd19e445	-0.03757121
26	0x3d832b3b	0.0640473
27	0xbd238ee3	-0.03993119
28	0x3db3f7c9	0.08787496
29	0x3dbed84a	0.093185976
30	0xbd438710	-0.047736228
31	0x3d87b09f	0.06625485
32	0xbd462af1	-0.048380796
33	0xbc22cd5d	-0.009936658
34	0x3d8139f6	0.06309883
35	0xbd19790b	-0.03746895
36	0x3dc0548a	0.093911245
37	0xbdc3d3b4	-0.095618635
38	0x3a9463be	0.0011321229
39	0x3d8c19b7	0.06840842
40	0xbc868dd0	-0.016425043
41	0xbd7a35ba	-0.061086394
42	0x3d198571	0.037480775
43	0xbd9944f9	-0.074838586
44	0x3ca7af5c	0.02046936
45	0x3d9f6884	0.07783607
46	0x3d0489ab	0.032357853
47	0x3cb5b945	0.02218307
48	0xbcbd3c8e	-0.023100164
49	0x3dc191e4	0.094516546
50	0xbb89c640	-0.0042045414
51	0xbce12b96	-0.027486604
52	0x3d623b90	0.055232584
53	0x3d8ee882	0.06977941
54	0x3d459795	0.048240263
55	0xbd9d7e65	-0.076901235
56	0x3d9adfd9	0.07562227
57	0x3d2d488c	0.042305514
58	0x3d08aea6	0.033369683
59	0x3ccfecc3	0.025381451
60	0x3daf476a	0.08558543
61	0xbcdc24ce	-0.026873019
62	0x3d04d48d	0.032429267
63	0x3c7f8547	0.015595741
64	0x3dc9a3b4	0.09845677
65	0xbd864ae4	-0.06557253
66	0xbc1b764f	-0.009488656
67	0x3ccdaba5	0.02510626
68	0xbd8c55fb	-0.06852337
69	0xbd928724	-0.07154682
70	0xbc20d980	-0.009817481
71	0xbcaa2bfe	-0.02077293
72	0x3d72f77b	0.059318047
73	0x3d0146f1	0.031561796
74	0x3db6b474	0.089211375
75	0xbca632de	-0.020287927
76	0x3d713ff2	0.058898874
77	0xbd877b4e	-0.066153154
78	0xbc8dc7c4	-0.01730717
79	0xbd5b2223	-0.053499352
80	0xb9b1c507	-0.00033906868
81	0x3d719474	0.058979467
82	0x3da92c79	0.082604356
83	0x3d93f512	0.07224478
84	0xbb00bcb1	-0.001964372
85	0x3d79d338	0.06099245
86	0xbd0ae99c	-0.033914194
87	0xbd0ace69	-0.033888254
88	0x3da0d6a5	0.0785344
89	0xbd49dcb7	-0.049282756
90	0x3c362030	0.011116073
91	0xbb3eeab0	-0.0029131584
92	0x3db5921d	0.088657595
93	0x3d447ecf	0.047972497
94	0xbc9f5213	-0.019448316
95	0x3be62dd9	0.0070245084
96	0x3a9fc61c	0.0012189778
97	0x3d85a5b8	0.06525749
98	0xbdab6622	-0.0836909
99	0x3cce97b3	0.02521882
100	0x3d136cfd	0.03599261
101	0xbd78d77e	-0.060752384
102	0x3d75894c	0.05994539
103	0xbc3a34d1	-0.0113651315
104	0x3d378375	0.0448031
105	0x3d84f12c	0.064913124
106	0x3d00b92d	0.031426597
107	0x3d330ed7	0.043715324
108	0x3bc55ff2	0.0060234005
109	0x3b64fc4f	0.0034940427
110	0x3ce7df20	0.028304636
111	0x3d2d9e36	0.04238721
112	0x3da563cb	0.080756746
113	0x3caba8ee	0.020954575
114	0xbccb27aa	-0.024799187
115	0xbd618828	-0.05506149
116	0x3d9adfb0	0.07562196
117	0xbdc5336d	-0.09628949
118	0xbd9f433a	-0.07776494
119	0xbca42163	-0.020035451
120	0x3d1b6580	0.037938595
121	0xbd5e914b	-0.05433778
122	0xbdb1eced	-0.08687768
123	0xbda828a0	-0.082108736
124	0x3d651f41	0.05593801
125	0x3da610d5	0.08108679
126	0x3da1c3e3	0.078986906
127	0xbcc7948b	-0.024362823

actor.linear3.weight f4 [128, 128]
0	0xbdb6920c	-0.08914575
1	0x3d7ee035	0.06222554
2	0x3d0c515a	0.03425727
3	0xbd9e9c1e	-0.07744621
4	0x3d674eca	0.056471623
5	0xbc507d01	-0.012725116
6	0x3da879f4	0.08226386
7	0xbd736ead	-0.05943172
8	0xbd4e4865	-0.05036201
9	0x3ae44972	0.0017416908
10	0x3d6a74fd	0.057240475
11	0x3d797320	0.060900807
12	0x3d79edf0	0.06101793
13	0x3d3a621b	0.045503717
14	0x3d56c936	0.052437983
15	0x3ca5f1e2	0.02025694
16	0x3d87d060	0.06631541
17	0x3c1af07d	0.009456751
18	0x3a810092	0.0009842089
19	0xbd862f66	-0.06552009
20	0x3d88e432	0.0668415
21	0xba7ad162	-0.00095679436
22	0x3cd9ba17	0.026577992
23	0x3daed06c	0.08535847
24	0xbc0c7c8b	-0.008574615
25	0xbd0f48a8	-0.0349814
26	0x3da5854d	0.08082066
27	0x3d46ce48	0.04853657
28	0x3c43c936	0.011949828
29	0x3db6c6c4	0.0892463
30	0xbda70107	-0.08154493
31	0xbd9f79da	-0.07786913
32	0x3d853aba	0.06505342
33	0xbd7ae84d	-0.061256696
34	0xbc6eae7b	-0.014567967
35	0xbd1118ca	-0.03542403
36	0x3d50f81d	0.05101787
37	0xbd339f39	-0.04385302
38	0xbd2d8bf7	-0.04236981
39	0xbb1d2d8f	-0.0023983454
40	0x3ad5b5fc	0.0016304846
41	0x3d0ea71c	0.034827337
42	0xbbffb877	-0.0078039723
43	0xbb4f37a3	-0.0031618855
44	0xbd8f9ca8	-0.07012302
45	0xbc795cd8	-0.01521989
46	0xbd39bf01	-0.04534817
47	0xbd5d61bd	-0.05404829
48	0x3c55f614	0.013059158
49	0xbd75d54c	-0.06001787
50	0xbd907c9c	-0.07055017
51	0x3c4277db	0.011869396
52	0xbcd6cff6	-0.02622221
53	0x3b0fc4fb	0.0021937478
54	0xbcc1d8a9	-0.023662882
55	0x3d6d83ab	0.057986896
56	0x3d441206	0.04786875
57	0xbcbcdb01	-0.023053648
58	0xbd868524	-0.06568363
59	0x3d97d527	0.074137025
60	0x3d107b56	0.035273872
61	0x3b842099	0.0040322063
62	0xbda94c9e	-0.08266567
63	0xbd86c8a0	-0.06581235
64	0xbdc6a4c2	-0.09699394
65	0x3d918384	0.07105163
66	0x3c65e3ac	0.014031332
67	0x3da036ff	0.0782299
68	0x3d8d246a	0.06891711
69	0xbac2e078	-0.0014867922
70	0xbc2d4eb2	-0.010577844
71	0x3c927bfe	0.01788139
72	0xbd968e74	-0.073513895
73	0x3ceff36f	0.029290883
74	0x3d95093f	0.07277154
75	0x3d32f4fb	0.043690663
76	0x3d0233cd	0.031787682
77	0xbd333bb3	-0.043758105
78	0xbd1199d3	-0.03554709
79	0xbd5f1a50	-0.054468453
80	0xbd5d6907	-0.05405524
81	0xbd8891d9	-0.06668443
82	0x3d501859	0.05080447
83	0xbd7f7f36	-0.062377177
84	0x3d8f412a	0.06994851
85	0x3d77f15b	0.06053291
86	0x3d99ded1	0.07513202
87	0x3d2bdd9c	0.04195939
88	0xbd657a64	-0.056024924
89	0x3c33a0db	0.010963644
90	0xbcb7fb19	-0.0224586
91	0x3d616dbf	0.055036303
92	0x3d81a56d	0.063303806
93	0xbc6309e5	-0.0138573395
94	0x3d0c9cf3	0.034329366
95	0xbda05d40	-0.07830286
96	0xbd838427	-0.064216904
97	0xbd05433c	-0.032534823
98	0x3c900207	0.017579092
99	0x3b52d61b	0.0032171074
100	0xbd874ec6	-0.06606822
101	0x3d2dede5	0.042463202
102	0xbda4329f	-0.08017468
103	0x3c9c6f89	0.019096153
104	0xbdbb70b1	-0.091523536
105	0x3d7dab6e	0.061931066
106	0x3d639cec	0.055569574
107	0xbd9eea9c	-0.07759592
108	0x3d49a8bf	0.049233194
109	0x3c4f67ff	0.012659072
110	0x3c9b016c	0.018921576
111	0x3c4c1336	0.012455752
112	0xbcbe95b3	-0.023264742
113	0x3db00fb8	0.08596748
114	0x3da4c671	0.08045662
115	0x3cd006a2	0.025393788
116	0x3d071f0a	0.032988586
117	0x3d395a1c	0.04525195
118	0xbd42e867	-0.047584917
119	0x3da96a53	0.08272233
120	0xbc70d148	-0.014698334
121	0x3d54c221	0.05194295
122	0x3ce23f0b	0.027617952
123	0x3cecd387	0.028909458
124	0xbd9aafd9	-0.075530715
125	0xbdb2e471	-0.08734978
126	0xbd90955d	-0.07059739
127	0x3cc6fe0f	0.024291066
128	0xba60865e	-0.0008564944
129	0xbda507ed	-0.08058152
130	0xbd9094ad	-0.07059608
131	0x3d7d329b	0.06181584
132	0xbce84056	-0.02835099
133	0xbc5fdd7e	-0.013663648
134	0x3cd047b5	0.025424818
135	0xbcef8bbc	-0.029241435
136	0x3bc4b15f	0.0060025896
137	0xbd5d796d	-0.05407088
138	0xbd7a9b22	-0.061183102
139	0xbd7dec99	-0.061993215
140	0xbcfebf12	-0.031096969
141	0xbd868842	-0.06568958
142	0x3d48f9d9	0.0490664
143	0x3c733f20	0.014846593
144	0x3d06544b	0.03279523
145	0x3d464664	0.048406973
146	0x3d4f167b	0.05055855
147	0xbd4b163d	-0.049581755
148	0x3d6fe3b7	0.058566775
149	0x3c540c23	0.012942347
150	0x3b7b2e91	0.0038327316
151	0x3da0c369	0.078497715
152	0x3cec1c7d	0.028822178
153	0x3d3b4e9c	0.045729265
154	0x3db3118b	0.087435804
155	0x3d473670	0.0486359
156	0x3db210f4	0.0869464
157	0xbcc08f4f	-0.023505835
158	0xbdab09fd	-0.083515145
159	0xbd68e605	-0.05685999
160	0xbdb335a6	-0.08750467
161	0xbc8ae594	-0.016955175
162	0xbc9b8a34	-0.018986799
163	0xbd5aa146	-0.05337646
164	0x3c90a8e8	0.017658666
165	0xbc3a6efe	-0.011379002
166	0xbd9ff374	-0.07810107
167	0xbdac731e	-0.08420394
168	0xbdb2c315	-0.08728615
169	0x3d8a6cda	0.06759043
170	0xbd35b758	-0.044364303
171	0x3cb23bfe	0.021757122
172	0xbc5819be	-0.013189731
173	0x3daa2531	0.08307875
174	0x3d3cf3c3	0.046130907
175	0xbd2fc48f	-0.042912062
176	0x3da0da0b	0.078540884
177	0x3d57f258	0.05272135
178	0x3d940218	0.07226962
179	0xbce8c432	-0.028413866
180	0x3c344c4d	0.01100452
181	0xbca71dc5	-0.020399937
182	0x3cb7f93b	0.02245771
183	0xbba80dbf	-0.005128592
184	0xbd86354a	-0.06553133
185	0xbcaefc9f	-0.021360693
186	0x3c6535dd	0.013989893
187	0xbb0a6319	-0.0021116196
188	0x378a90ba	1.6518276e-05
189	0xbd9c41a8	-0.076297104
190	0xbd194696	-0.03742083
191	0x3d80ae48	0.062832415
192	0x3d12555e	0.035725944
193	0x3cc84f95	0.02445201
194	0x3daf2941	0.085527904
195	0xbd8eda3d	-0.069752194
196	0xbd393344	-0.045214906
197	0x3a8c0c54	0.0010684826
198	0x3c3b2310	0.011421934
199	0xbd2161df	-0.039399978
200	0x3d909d83	0.07061293
201	0xbd39eb13	-0.0453902
202	0xbd9936af	-0.07481133
203	0x3d4c4ca2	0.04987777
204	0xbd24a915	-0.04020031
205	0xbcd3986b	-0.025829514
206	0xbd108b8d	-0.035289336
207	0x3d378e8e	0.044813685
208	0x3d1af50b	0.037831347
209	0x3cb1ac77	0.021688683
210	0xbb2c9c44	-0.0026338259
211	0x3d18cd52	0.037305184
212	0xbd97e6f7	-0.074171
213	0xbbb913e4	-0.005648123
214	0x38f6fd1b	0.00011777339
215	0xbd2dccf4	-0.042431787
216	0xbc37a299	-0.0112082
217	0x3d2e56ac	0.042563125
218	0x3d2d632c	0.042330906
219	0x3d52a9a5	0.051431317
220	0xbd87ef19	-0.06637401
221	0xbd705e9a	-0.05868397
222	0xbda241b6	-0.079226896
223	0x3da2c1ad	0.07947097
224	0x3cc0aa2f	0.02351865
225	0xbd662d01	-0.056195263
226	0x3d970c50	0.07375395
227	0xbc4e2825	-0.012582813
228	0x3d460602	0.048345573
229	0x3d80f73b	0.062971555
230	0xbc46c79d	-0.012132552
231	0xbbc9cbd3	-0.006158331
232	0xbd62be66	-0.05535736
233	0xbd1b8989	-0.03797296
234	0xbd308097	-0.043091383
235	0xbc73ffa1	-0.01489249
236	0xbd8ee9d7	-0.06978195
237	0xbd1fc8cc	-0.039009854
238	0xbd928974	-0.07155123
239	0x3d0cf752	0.03441555
240	0xbd4b54df	-0.049641486
241	0xbd610b7e	-0.0549426
242	0xbb76c2cd	-0.0037652731
243	0xbda8bd72	-0.08239259
244	0x3da5b54b	0.080912195
245	0xbcbb7176	-0.02288125
246	0xbdaffc85	-0.08593086
247	0xbc89e68b	-0.016833564
248	0x3c93f93c	0.01806318
249	0x3c8ea450	0.017412335
250	0x3d04515d	0.032304157
251	0xbbdde6dd	-0.006771906
252	0x3d5966a0	0.053076386
253	0x3d4a02a4	0.049318925
254	0xbc4a4266	-0.012344932
255	0x3dabe5e9	0.08393461

actor.linear3.bias f4 [128]
0	0x3ccf8b5c	0.025335006
1	0xbd549904	-0.05190374
2	0x3d9b28aa	0.075761154
3	0xbcd6e9d2	-0.026234541
4	0xbc9d79ea	-0.019223172
5	0x3d3dcbe2	0.046337016
6	0xbd188c95	-0.037243444
7	0x3dc99b4a	0.09844072
8	0xbd6b4e54	-0.057447746
9	0x3d33a8f6	0.043862306
10	0x3d01744f	0.03160506
11	0xbd833f10	-0.064085126
12	0x3d9a189c	0.07524225
13	0x3ad8fd9a	0.0016555071
14	0xbba35b46	-0.004985246
15	0x3d6accbc	0.057324156
16	0xbd2e93e8	-0.042621523
17	0xbd96b67e	-0.07359026
18	0x3c277b33	0.010222244
19	0x3d536e52	0.05161888
20	0xbd94b915	-0.07261864
21	0xbc9082a5	-0.017640421
22	0x3d98cec4	0.074613124
23	0x3bd34ad7	0.0064481306
24	0xbd01f63b	-0.031728964
25	0x3d90dcfb	0.07073399
26	0xbd3cd8cd	-0.046105195
27	0xba4043c4	-0.00073343166
28	0xbbc138d9	-0.0058966693
29	0x3d83cfab	0.06436094
30	0xbc52d07f	-0.012867092
31	0xbce34f83	-0.027747875
32	0xbd9602c9	-0.0732475
33	0xbcafe581	-0.02147174
34	0x3d1758b3	0.036949825
35	0x3d8c5207	0.06851583
36	0xbd194065	-0.037414927
37	0x3cc557ae	0.02408966
38	0x3d42f77d	0.047599304
39	0x3d3751c7	0.044755723
40	0x39e125fb	0.00042943642
41	0xbd9d073b	-0.07667395
42	0xbd7336e3	-0.059378516
43	0xbd9addb9	-0.075618215
44	0xbd8aa02d	-0.06768832
45	0xbd3b7d1f	-0.04577362
46	0x3d16c6a4	0.036810532
47	0x3d42dd44	0.047574297
48	0xbc90d14b	-0.017677924
49	0xbaaf87ab	-0.0013391873
50	0xbbbe7893	-0.0058127134
51	0x3cffd40f	0.031229047
52	0x3c3db8e3	0.011579725
53	0x3dad1e0f	0.08452999
54	0xbd860ab6	-0.06545012
55	0x3d49102a	0.04908768
56	0x3cf196de	0.029490884
57	0xbcc36ad3	-0.023854649
58	0xbd0cf5f7	-0.034414258
59	0x3d0b6d08	0.034039527
60	0xbd0f0a62	-0.03492201
61	0x3dd0270b	0.10163697
62	0x3d34f5e3	0.04417981
63	0xbc216cdc	-0.009852614
64	0xbd771d0b	-0.060330432
65	0x3db8d3be	0.090247616
66	0x3da7ab67	0.08186989
67	0x3daf7d35	0.08568803
68	0x3d077572	0.03307099
69	0x3d958eab	0.073026024
70	0xbcfe92c3	-0.03107584
71	0xbc709819	-0.0146847
72	0xbd891dc3	-0.0669513
73	0xbd85fb31	-0.065420516
74	0x3d6cd881	0.05782366
75	0x3d183859	0.037163112
76	0xbdaf0b32	-0.08547057
77	0xbc99a40b	-0.01875498
78	0xbced3267	-0.028954698
79	0x3ade9c02	0.001698375
80	0x3d800dc4	0.062526256
81	0x3da216fd	0.07914541
82	0x3d8c1feb	0.06842025
83	0x3d9068ca	0.07051237
84	0xbd242e73	-0.04008336
85	0xbd9dc532	-0.07703628
86	0x3da18bb7	0.078879766
87	0x3d893a2d	0.06700549
88	0x3d8cc868	0.06874162
89	0x3c3d646a	0.011559585
90	0xbd9c6259	-0.07635946
91	0x3d8df54e	0.06931554
92	0x3d57f274	0.052721456
93	0xbd6405cc	-0.05566959
94	0x3d87c82c	0.06629977
95	0x3d91e475	0.07123653
96	0xbd84077b	-0.06446739
97	0xbd3c1fa3	-0.04592861
98	0x3db00393	0.08594432
99	0x3daea007	0.085266165
100	0x3d1f597c	0.0389037
101	0xbd96e3e6	-0.07367687
102	0xbd48b003	-0.048995983
103	0x3c331c4f	0.010932042
104	0xbd96309c	-0.0733349
105	0x3d3a118c	0.04542689
106	0x3dab8703	0.08375361
107	0xbd606ce6	-0.054791354
108	0xbda0a70b	-0.07844361
109	0xbd275300	-0.04085064
110	0xbd8ee0ce	-0.06976472
111	0xbd302b3e	-0.04300999
112	0x3c1c67bf	0.009546219
113	0x3d762509	0.060093913
114	0x3d967c6a	0.07347949
115	0x3c296d43	0.010340991
116	0x3da2e8b8	0.07954544
117	0x3d8ba73b	0.06819006
118	0xbb7ac828	-0.0038266275
119	0x3c227f31	0.00991802
120	0x3ca653cf	0.020303635
121	0x3d47dfa4	0.048797265
122	0xbd84cc9d	-0.064843394
123	0x3d17dca8	0.03707567
124	0x3d29fd22	0.041501172
125	0x3d80df2b	0.06292566
126	0x3db0749e	0.08615993
127	0x3d0fc62a	0.035101093

actor.linear4.weight f4 [9, 128]
0	0x3d081b59	0.033229206
1	0x3cefbbff	0.029264448
2	0xbd6b0cd7	-0.057385292
3	0xbbdea60b	-0.006794696
4	0xb8d23d10	-0.00010024954
5	0xbdb6bb8d	-0.08922491
6	0x3d0e6610	0.034765303
7	0x3da279f3	0.07933416
8	0x3d933af2	0.07188977
9	0xbcd17ae6	-0.025571298
10	0xbd934db5	-0.07192556
11	0xbc8e7739	-0.017390834
12	0x3cabe517	0.020983262
13	0xbd29364a	-0.04131154
14	0xbc6a69c7	-0.014307446
15	0xbd3f91aa	-0.046769775
16	0xbd83db15	-0.06438271
17	0xbd80af6b	-0.06283458
18	0x3d6396da	0.055563785
19	0xbd614d49	-0.055005345
20	0x3d89ec1c	0.067344874
21	0x3d903bc9	0.07042653
22	0x3b736ddd	0.003714434
23	0x3d95eed1	0.07320941
24	0xbd7f4d44	-0.062329546
25	0x3d9e95bb	0.077434026
26	0xbc1e9068	-0.009677984
27	0x3da2a2b3	0.07941189
28	0x3d7f83d6	0.062381588
29	0xbc98b5e2	-0.018641416
30	0x3d630ae0	0.055430293
31	0xbd7024c7	-0.058628824
32	0xbd80cd5c	-0.06289169
33	0x3cee4351	0.029084833
34	0x3d638476	0.055546246
35	0x3d8fe991	0.07026971
36	0xbd8fd6f6	-0.070234224
37	0x3cd943e3	0.026521629
38	0xbda679de	-0.08128713
39	0x3ce01523	0.027353829
40	0x3cef3353	0.029199278
41	0x3d9bcbef	0.076072566
42	0xbce7a7d8	-0.028278276
43	0xbd89e344	-0.067328006
44	0x3ca28aca	0.01984157
45	0x3d9ebd06	0.07750897
46	0x3c39b496	0.011334559
47	0xbc2aec5c	-0.010432329
48	0xbca0c72f	-0.019626228
49	0x3d1594fc	0.036519036
50	0xbd33ff2e	-0.04394453
51	0x3bc0e737	0.005886938
52	0x3d352d97	0.04423293
53	0xbc562452	-0.013070183
54	0xbc4ec669	-0.012620547
55	0xbda94fd2	-0.08267178
56	0x3cc2c2ee	0.02377459
57	0xbb308e20	-0.0026940182
58	0xbd1f2fc1	-0.0388639
59	0xbb99e20a	-0.0046961354
60	0xbd5cec15	-0.053936083
61	0x3cbb57c9	0.022869008
62	0xbd856f33	-0.0651535
63	0xbdc6fc63	-0.09716108
64	0xbd638f4d	-0.055556584
65	0xbd53eab0	-0.051737487
66	0x3d19b847	0.037529256
67	0xbd831788	-0.064009726
68	0xbd3832b4	-0.04497023
69	0xbcb2e1a4	-0.02183611
70	0x3d9cae87	0.07650476
71	0xbcdd0634	-0.026980497
72	0xbd545105	-0.05183508
73	0xbc95946b	-0.018259248
74	0x3d58b1e9	0.052904043
75	0x3b59ede3	0.0033253364
76	0xbd93e0af	-0.07220589
77	0xbd180978	-0.037118405
78	0x3ca9ce9d	0.020728404
79	0xbd2195c0	-0.039449453
80	0xbda21a4d	-0.07915173
81	0xbd421195	-0.04738005
82	0xbd447759	-0.04796538
83	0x3d873f83	0.06603911
84	0xbd03e8b7	-0.032204356
85	0xbd1358a5	-0.03597321
86	0x3d73554c	0.059407517
87	0xbc655817	-0.013998053
88	0xbd8f1c15	-0.06987778
89	0x3d918c6a	0.0710686
90	0xbc98fcd4	-0.018675245
91	0xbdb2a2fd	-0.08722494
92	0x3cf864f1	0.03032157
93	0xbaf1475e	-0.001840811
94	0x3c773302	0.015087845
95	0xbd633be8	-0.055477053
96	0xbb853dd0	-0.0040662065
97	0xbd50110d	-0.05079751
98	0xbc424c37	-0.011858991
99	0x3cc50758	0.024051353
100	0xbd8719b7	-0.065967016
101	0xbd8b3d9d	-0.06798861
102	0xba9e1060	-0.0012059323
103	0x3c9aca2e	0.018895235
104	0xbd0c21b8	-0.034211844
105	0xbc7b3444	-0.015332285
106	0xbccfa1db	-0.025345733
107	0x3d86108d	0.065461256
108	0x3c8a867e	0.016909834
109	0x3d84ed62	0.0649059
110	0x3b3284bf	0.0027239767
111	0x3d33f7c4	0.04393746
112	0x3da15054	0.078766495
113	0x3d3660bf	0.044525858
114	0x3d2330f9	0.039841626
115	0x3d72fc1b	0.059322458
116	0xbb3dded7	-0.0028971934
117	0xbd99a508	-0.0750218
118	0xbd3b098b	-0.045663398
119	0xbd0e66cd	-0.034766007
120	0x3cb5e1a4	0.02220232
121	0x3d10a919	0.035317514
122	0xbd775799	-0.060386274
123	0xbc0de6a4	-0.008660946
124	0xbc4ad6c9	-0.01238031
125	0x3c835986	0.016033899
126	0xbc7b3762	-0.0153330285
127	0xbc9818f6	-0.01856659
128	0xbc83b80a	-0.016078968
129	0x3d53f9d0	0.05175191
130	0xbd960d36	-0.073267385
131	0xbca81643	-0.020518428
132	0x3d5cc94d	0.053902913
133	0x3c6ae8dc	0.014337745
134	0x3e0041be	0.12525079
135	0x3d360468	0.044437796
136	0x3dd1a543	0.10236599
137	0x3d1e8d78	0.038709134
138	0xbcf587eb	-0.029972037
139	0x3c526480	0.012841344
140	0xbd9671f3	-0.07345953
141	0x3df82811	0.12117017
142	0x3d69a412	0.057041235
143	0x3ce4a2b4	0.027909614
144	0xbd49eaeb	-0.0492963
145	0xbd10054c	-0.0351613
146	0x3cb1be84	0.02169729
147	0xb9b70a14	-0.0003491199
148	0xbd871ac3	-0.06596901
149	0x3dd712f6	0.105016634
150	0xbd9a5945	-0.07536558
151	0xbd742db9	-0.059613917
152	0x3d43a190	0.0477615
153	0xbd173dc4	-0.03692414
154	0x3da974ff	0.08274268
155	0xbc30a687	-0.010781891
156	0xbd7038c3	-0.058647882
157	0xbda603fb	-0.08106228
158	0xbad99c82	-0.0016602429
159	0xbd55050d	-0.05200677
160	0xbd916b40	-0.071005344
161	0x3bc65221	0.006052271
162	0x3ddb21fa	0.1069984
163	0xbd918d4b	-0.071070276
164	0xbc93402b	-0.017974934
165	0x3d27fc6f	0.041012224
166	0x3bee2e7b	0.0072687245
167	0x3d5634ae	0.052296333
168	0x3cbd5d70	0.023115844
169	0xbdb84667	-0.08997803
170	0x3db48603	0.08814623
171	0x3d048589	0.03235391
172	0x3cb8792a	0.022518713
173	0x3dc7aa2c	0.097492546
174	0x3da97085	0.082734145
175	0xbcc7efab	-0.024406275
176	0x3dd122b2	0.10211696
177	0xbdc3438b	-0.09534367
178	0x3d09a897	0.033608045
179	0x3d753250	0.059862435
180	0xbc1c9f4e	-0.009559466
181	0x3d89dbd0	0.06731379
182	0x3d7b9154	0.061417893
183	0xbb562261	-0.00326743
184	0x3d75f8c3	0.06005169
185	0xbde1a67e	-0.11018084
186	0x3de50470	0.11182487
187	0x3cf46b9b	0.029836467
188	0xbd09ac55	-0.033611614
189	0xbc4ea029	-0.012611427
190	0x3daa6df4	0.08321753
191	0x3d9148a5	0.07093934
192	0xbcdd5c41	-0.02702153
193	0xbd3c76d6	-0.04601177
194	0xbd50ef2f	-0.051009353
195	0xbd91f0c6	-0.07126002
196	0xbc492544	-0.012276951
197	0xbd6c4669	-0.057684336
198	0x3d6227ff	0.055213924
199	0x3d61392e	0.05498617
200	0xbdc7bb6d	-0.097525455
201	0xbd881162	-0.066439405
202	0x3d51e24c	0.051241204
203	0x3dc0b64d	0.09409771
204	0xbcb4b2d3	-0.022057926
205	0xbad969c5	-0.0016587308
206	0x3db042b6	0.08606474
207	0xbd7b9417	-0.061420526
208	0xbc042b46	-0.008066958
209	0x3c838aec	0.016057454
210	0x3cd7e307	0.026353372
211	0x3d575224	0.05256857
212	0xbdc7210f	-0.09723102
213	0x3d899af5	0.06719009
214	0x3d3156ab	0.043295544
215	0xbde842c8	-0.113408625
216	0xbde540a3	-0.11193969
217	0x3c14b3fc	0.009076115
218	0x3d930e67	0.071804814
219	0x3d8b38ea	0.06797965
220	0x3ddc59dd	0.107593276
221	0xbd15362c	-0.036428615
222	0xbc40c6ca	-0.011766145
223	0xbcb3ab71	-0.021932336
224	0x3d095c57	0.033535328
225	0xbd761dd9	-0.06008706
226	0xbdcc27e3	-0.09968545
227	0xbd949102	-0.072542205
228	0x3db6fbc1	0.08934737
229	0x3db52d46	0.08846526
230	0xb878af06	-5.929081e-05
231	0x3dda672f	0.10664212
232	0xbdc7f425	-0.09763364
233	0xbdab2146	-0.08355956
234	0xbc0f37f7	-0.00874137
235	0x3d3d8482	0.046268947
236	0xbd4e950d	-0.050435115
237	0xbdc91dca	-0.09820135
238	0xbaee46b1	-0.0018179027
239	0xbccb71f5	-0.024834612
240	0xbd0a2737	-0.033728804
241	0x3c53a35b	0.012917365
242	0x3d79f106	0.061020873
243	0xbde23e64	-0.11047056
244	0xbdc9a200	-0.09845352
245	0xbdbce27c	-0.09222886
246	0x3d82ce2d	0.06386981
247	0x3d2d5064	0.042312995
248	0xbdd18413	-0.10230269
249	0x3d9170d8	0.07101601
250	0x3dcbfbcb	0.09960135
251	0xbd61643b	-0.055027228
252	0x3d5b7a30	0.053583324
253	0x3dd5c1d1	0.10437358
254	0x3deb68ec	0.11494622
255	0x3d0e72be	0.034777395

actor.linear4.bias f4 [9]
0	0xbabfa077	-0.0014619966
1	0x3d3f2d3c	0.046674
2	0xbd4b906b	-0.049698275
3	0x3d4ed771	0.05049843
4	0xbd3e4a99	-0.04645786
5	0x3db616b7	0.08891051
6	0xbd8aab49	-0.06770951
7	0x3d4c41fe	0.049867623
8	0xbc9b660e	-0.018969562

critic.linear1.weight f4 [128, 120]
0	0xbd8d0ec3	-0.06887581
1	0x3d861108	0.06546217
2	0x3dcd67ba	0.1002955
3	0xbd6d40d5	-0.057923157
4	0xbda43173	-0.08017244
5	0xbdd0f0e8	-0.10202199
6	0xbd3f16e5	-0.046652693
7	0x3d81eb53	0.06343713
8	0x3d19b65c	0.037527427
9	0xbdd2e21c	-0.10297033
10	0x3db995b7	0.09061759
11	0xbdd21124	-0.102571756
12	0x3d897280	0.06711292
13	0xbb11b13c	-0.0022230884
14	0x3d05be04	0.032651916
15	0xbdc812ea	-0.097692326
16	0x3e33c211	0.17554499
17	0xbdaeeefd	-0.08541677
18	0x3d6a91d0	0.057267964
19	0xbc91c73e	-0.017795201
20	0x3df6bb70	0.120474696
21	0xbb5ab0cd	-0.0033369542
22	0xbb9ef7b5	-0.0048513063
23	0xbc2cd35e	-0.010548441
24	0xbd02e5fb	-0.031957608
25	0x3d2b832e	0.04187315
26	0x3d2d0d8a	0.04224924
27	0xbcbfb1ac	-0.02340015
28	0xbd0d7d90	-0.034543574
29	0xbd075f87	-0.033050086
30	0xbd07e456	-0.033176742
31	0x3d7f693d	0.062356222
32	0xbcd4fcbb	-0.025999418
33	0x3c1712b1	0.009220765
34	0x3d156277	0.036470857
35	0x3cf527c6	0.029926192
36	0x3d1fe945	0.039040823
37	0xbb886703	-0.0041626706
38	0xbd670fd2	-0.05641157
39	0x3c0426af	0.0080658635
40	0x3d75255b	0.059850078
41	0x3be172fb	0.006880162
42	0x3d0f882e	0.03504198
43	0xbdd9f1ff	-0.1064186
44	0x3b732a8c	0.0037104217
45	0xbcc7070a	-0.024295349
46	0x3da57b72	0.08080186
47	0x3d8f495d	0.06996415
48	0x3ccbe86c	0.0248911
49	0xbc8a4ec2	-0.016883258
50	0x3df8c3ef	0.12146746
51	0xb953e1f5	-0.00020206704
52	0xbcb5f6b6	-0.022212368
53	0x3c2ed2a5	0.010670339
54	0xbd506e27	-0.0508863
55	0x3e099175	0.13434394
56	0x3d7294b9	0.059223864
57	0xbca54277	-0.020173294
58	0x3c96864a	0.01837458
59	0xbd450795	-0.048102934
60	0xbcb1aa99	-0.021687793
61	0xbce1e696	-0.027575772
62	0xbda17b86	-0.07884888
63	0xbd76d7ba	-0.060264327
64	0xbda49776	-0.080367014
65	0xbdb0da22	-0.086353555
66	0x3d6a6681	0.05722666
67	0xbdaa4b12	-0.083151
68	0x3be4532b	0.006967922
69	0x3da437c3	0.08018448
70	0x3d9dea8f	0.07710754
71	0xbc7376b5	-0.014859845
72	0xbd975453	-0.073891304
73	0xbdaa657e	-0.08320139
74	0x3d897807	0.067123465
75	0x3d5261aa	0.05136267
76	0x3d95a73d	0.07307289
77	0x3d0e9ebc	0.03481935
78	0x3db55d54	0.088556916
79	0x3d831f28	0.06402427
80	0xbce5f084	-0.028068788
81	0xbd890b55	-0.066916145
82	0x3d241876	0.04006239
83	0x3d8dc187	0.06921678
84	0x3ce02b74	0.02736447
85	0x3ddaf1d8	0.10690659
86	0x3d381aac	0.04494731
87	0x3da7e979	0.08198828
88	0xbdbcfcab	-0.0922788
89	0x3cca8925	0.024723599
90	0x3d663d0e	0.05621057
91	0xbc6c9c05	-0.014441495
92	0x3d764ac9	0.060129914
93	0xbc9d35af	-0.019190637
94	0xbdb86a6a	-0.09004672
95	0x3d368757	0.044562664
96	0xbd28d593	-0.041219305
97	0xbc3eaa96	-0.011637351
98	0xbd6d553d	-0.057942618
99	0xbd8fe04f	-0.07025205
100	0x3def071c	0.11671278
101	0x3da4f856	0.08055179
102	0xbd4c069f	-0.049811002
103	0x3d6c0df4	0.057630494
104	0xbda2e235	-0.07953302
105	0x3db27a68	0.087147534
106	0xbd7c8deb	-0.06165878
107	0xbca0eb7b	-0.019643536
108	0x3ca74d06	0.02042247
109	0xbd41e85b	-0.047340732
110	0x3d83105e	0.06399606
111	0xbdc3d667	-0.095623784
112	0x3cd0cc04	0.025487907
113	0x3d7c6739	0.06162188
114	0xbd077bf5	-0.0330772
115	0x3c418636	0.011811784
116	0x3e03a30d	0.12855168
117	0x3dfb8b9d	0.122824885
118	0xbd80716d	-0.06271634
119	0x3d610e68	0.05494538
120	0x3dc28c8a	0.09499462
121	0x3c8abbf5	0.016935328
122	0x3c2a35da	0.010388816
123	0xbdd8603a	-0.10565229
124	0xbdb816c5	-0.08988718
125	0xbd78bb33	-0.060725402
126	0x3de48252	0.11157669
127	0x3d5cda57	0.053919163
128	0xbd771c68	-0.060329825
129	0xbd6a7ece	-0.057249837
130	0xbd830ccb	-0.063989244
131	0xbd9ad18e	-0.07559501
132	0xbd9afeff	-0.07568168
133	0x3c3f8a83	0.011690739
134	0xbcc03afb	-0.023465624
135	0xbda327b4	-0.07966557
136	0x3e102f22	0.1408048
137	0xbd585ab1	-0.052820865
138	0x3de6115c	0.1123378
139	0x3e052bc2	0.13004974
140	0x3dfa8d71	0.12234009
141	0x3cb8d2c6	0.022561442
142	0xbc0af62e	-0.008481545
143	0x3c5462fb	0.012963052
144	0x3daf26f5	0.08552352
145	0xbbf19fdc	-0.007373793
146	0xbc90dd47	-0.017683638
147	0xbde9285d	-0.11384652
148	0x3ca4c21f	0.020112095
149	0x3d5d6f77	0.05406138
150	0x3b3a6a89	0.0028444848
151	0x3d816e11	0.063198216
152	0x3d053f0e	0.032530837
153	0x3c8f4908	0.017490879
154	0x3ce3044f	0.027712015
155	0x3b9b6bec	0.00474309
156	0x3da20e5f	0.07912897
157	0x3bf510be	0.0074788025
158	0x3d99c09e	0.07507442
159	0xbd2ec185	-0.042665023
160	0x3d943ea9	0.07238514
161	0xbc6a3c6c	-0.014296632
162	0x3c655d13	0.013999241
163	0xbdde2790	-0.1084739
164	0xbd97100e	-0.07376109
165	0x3d1aa673	0.037756395
166	0x3d562330	0.05227965
167	0x3a50d94c	0.000796695
168	0x3d1f6bf3	0.038921308
169	0xbd5f76e5	-0.054556746
170	0x3d7c45fe	0.061590187
171	0x3d92c847	0.07167106
172	0x3d5cb7d8	0.053886265
173	0x3e028f4f	0.1274998
174	0xbcee6814	-0.029102363
175	0x3dfef9b8	0.12449974
176	0x3d937d06	0.07201581
177	0xbd469f1d	-0.048491586
178	0x3ca71743	0.020396834
179	0x3cc0a4b4	0.023516037
180	0x3d5d3d0e	0.054013304
181	0xbd756dd0	-0.05991918
182	0xbc6c55c9	-0.01442475
183	0xbd982afb	-0.07430073
184	0x3c8536b4	0.016261436
185	0x3d90ec15	0.07076279
186	0x3d164f83	0.036696922
187	0xbd8883e6	-0.06665783
188	0x3d0d00e4	0.034424677
189	0xbce3e4ce	-0.027819064
190	0xbd057c0c	-0.032589003
191	0x3d2e60d5	0.042572815
192	0xbcdff2d7	-0.027337475
193	0xbbcd61d6	-0.0062677665
194	0xbd67d17f	-0.056596275
195	0xbda70b49	-0.08156449
196	0x3d3c64b2	0.045994468
197	0xbd18405e	-0.03717076
198	0xbd2d8b65	-0.042369265
199	0x3c5726fc	0.013131853
200	0xbd5a665f	-0.053320285
201	0x3ccbfb07	0.024899973
202	0xbdd396f3	-0.10331526
203	0x3c9b88e0	0.018986166
204	0x3dc58344	0.096441776
205	0x3e01cedf	0.12676571
206	0x3d1ad2d0	0.037798703
207	0x3d12ff18	0.035887808
208	0x3d4f9d81	0.050687317
209	0xbd48660a	-0.048925437
210	0xbdab473d	-0.08363197
211	0xbbe6edd4	-0.0070473943
212	0x3d570328	0.052493244
213	0x3d0dd4b2	0.03462667
214	0x3ca54e40	0.020178914
215	0x3d67b894	0.05657251
216	0x3d8c370f	0.06846439
217	0x3c13314f	0.008983924
218	0x3d7dd2d5	0.061968643
219	0xbca0824e	-0.019593384
220	0x3e16d15f	0.14728306
221	0x3dfbf056	0.123017
222	0xbcdc09e4	-0.026860185
223	0x3c5a0f0f	0.013309254
224	0xbcb9eb31	-0.022695156
225	0x3ad9885f	0.0016596428
226	0x3d7209e2	0.059091456
227	0xbd7a06a4	-0.06104149
228	0xbc49206c	-0.012275796
229	0x3d068bfa	0.032848336
230	0x3d5b4376	0.053531133
231	0xbd59498f	-0.053048667
232	0x3dc09d23	0.094049715
233	0x3cef8b5b	0.029241255
234	0x3cff00c5	0.031128297
235	0x3c817dc2	0.015807036
236	0x3d1318a0	0.035912156
237	0x3e044568	0.12917101
238	0x3d0b3530	0.03398627
239	0x3d9b57d4	0.07585111
240	0x3d8ffaf8	0.0703029
241	0x3c2f36b1	0.010694192
242	0x3c72fd36	0.014830878
243	0xbde3364f	-0.11094343
244	0xbcfa455b	-0.03055065
245	0x3d2ab2ae	0.04167431
246	0x3db84cd0	0.08999026
247	0x3cc46324	0.023973055
248	0x3be1240b	0.0068707517
249	0xbccb7682	-0.024836782
250	0x3d68f475	0.056873757
251	0xbcb6631d	-0.022264058
252	0x3d3e6c72	0.04649014
253	0xbc49261b	-0.012277151
254	0x3cc8d1d5	0.024514118
255	0x3d846501	0.064645775

critic.linear1.bias f4 [128]
0	0x3e01d0e8	0.12677348
1	0xbb9672ca	-0.0045913206
2	0x3db0d69d	0.08634684
3	0xbddbb6f1	-0.10728253
4	0x3c14f078	0.009090535
5	0x3d496c44	0.049175516
6	0x3dbbb25b	0.09164878
7	0x3dccb5e2	0.09995629
8	0xbd13759f	-0.036000844
9	0xbcb8cca4	-0.022558518
10	0x3dcde5a4	0.10053566
11	0xbd1c9c90	-0.038235247
12	0x3dd60c73	0.10451593
13	0x3cfabe49	0.030608313
14	0xbd71003c	-0.058838114
15	0x3dd50788	0.10401827
16	0x3dc7239a	0.09723587
17	0x3c899136	0.016792875
18	0x3b318deb	0.0027092646
19	0xbd034ebb	-0.032057505
20	0x3de8d960	0.11369586
21	0xbd094d60	-0.033521056
22	0x3dc37e8f	0.095456235
23	0x3de78d77	0.11306279
24	0xbdf2d345	-0.11856703
25	0x3d97f122	0.07419039
26	0x3ca1752a	0.019709188
27	0xbce8b307	-0.02840568
28	0xbd37c7bb	-0.044868212
29	0xbdd489fa	-0.103778794
30	0xbc100cc8	-0.00879211
31	0x3e047c69	0.12938084
32	0xbdbef11c	-0.09323332
33	0x3d57b571	0.05266327
34	0xbddcae13	-0.107753895
35	0xbc885ee6	-0.016646814
36	0x3da0b6d9	0.078473754
37	0x3c0de6d4	0.008660991
38	0x3e0e3b2f	0.13889764
39	0x3d5f6a93	0.054544996
40	0x3d4810c2	0.048844106
41	0xbc20e577	-0.009820334
42	0xbddd1c16	-0.107963726
43	0xbba5de2d	-0.005061886
44	0x3d9c5fed	0.07635484
45	0x3b15e755	0.002287348
46	0x3d5e94e4	0.054341212
47	0x3df7b606	0.12095265
48	0x3dfa4bbe	0.12221478
49	0xbdc3d2e2	-0.09561707
50	0x3d45b636	0.048269473
51	0x3dae64ab	0.08515295
52	0x3d1759d2	0.036950894
53	0x3b849768	0.0040463693
54	0xbda36780	-0.079787254
55	0x3cca5515	0.024698773
56	0x3cdb5445	0.026773581
57	0x3cb8c09f	0.022552786
58	0xbb7a73c6	-0.003821598
59	0xbd7bd9b9	-0.061486933
60	0x3c67bda1	0.014144332
61	0xbc9cc462	-0.019136611
62	0x3d964dd8	0.07339066
63	0x3df2e104	0.118593246
64	0x3dd1db65	0.10246924
65	0xbdc5b0d0	-0.09652865
66	0x3a068943	0.0005132148
67	0xbc39ee03	-0.01134825
68	0x3d7187a3	0.058967244
69	0x3e008ac5	0.12552936
70	0xbe002343	-0.12513451
71	0xbdf3b550	-0.11899817
72	0x3dfee3d5	0.12445799
73	0x3d6de339	0.058078025
74	0x3df02b98	0.11727065
75	0x3dd97daa	0.10619672
76	0x3dc27c41	0.09496356
77	0x3daf3948	0.085558474
78	0x3dcdfb4d	0.100576974
79	0x3db1293f	0.08650445
80	0x3df69a13	0.12041106
81	0xbcbdfeb7	-0.023192747
82	0xbc58723b	-0.013210828
83	0x3d77b173	0.060471963
84	0xbb351300	-0.0027629733
85	0xbdfee57a	-0.12446113
86	0x3d400be2	0.046886332
87	0x3d826722	0.06367327
88	0x3d0aeb40	0.033915758
89	0x3dcbcb0b	0.09950837
90	0x3cc58ac8	0.024114028
91	0xbd4b986b	-0.049705904
92	0xbdfb0f15	-0.12258736
93	0xbdc42b35	-0.095785536
94	0x3c52c765	0.012864922
95	0xbda32eed	-0.07967935
96	0xbdd1d937	-0.102465086
97	0x3c72e691	0.014825479
98	0x3dcd9479	0.100380845
99	0x3d056c30	0.03257388
100	0x3d9700c9	0.07373197
101	0x3d23bff7	0.039977994
102	0xbd426f85	-0.047469635
103	0x3d6c52aa	0.057696022
104	0x3b3b7008	0.0028600711
105	0x3d006070	0.03134197
106	0x3cb5b67b	0.02218174
107	0x3c968651	0.018374594
108	0x3ddacc70	0.106835246
109	0x3c7085ed	0.014680368
110	0x3db1fa3d	0.08690307
111	0xbcc77af6	-0.024350625
112	0x3d0f82e5	0.03503694
113	0x3df01d07	0.117242865
114	0x3d653f1e	0.055968396
115	0x3d437bcc	0.047725484
116	0xbdae5d93	-0.085139416
117	0x3d07486b	0.033028048
118	0x3da56245	0.08075384
119	0xbde0bbdb	-0.109733306
120	0x3df669b3	0.12031879
121	0x3d3ba242	0.045809038
122	0xbdb63641	-0.08897067
123	0xbddaf441	-0.10691119
124	0xbd167f32	-0.036742397
125	0x3dd7c834	0.105362326
126	0x3d5732c7	0.05253866
127	0x3db1402a	0.086548164
