hover_falcon_raw_ckpt/ckpt_00001301.pt (torch, 468663 bytes, 15 tensors)

actor.linear1.weight f4 [128, 120]
000000 ff 7a 17 3d 8b a7 91 3c ec 78 90 3d 4e 6e 6d 3d
       0.036982533 0.017780086 0.07054314 0.057966523
000010 14 b4 80 bd fe 0f e6 3c 66 3a 35 3d 78 64 f1 3c
       -0.06284347 0.028083798 0.044245146 0.029466853
000020 bc 01 99 3d 41 d7 1a bd 19 e3 2f bc 87 f0 98 bc
       0.07471034 -0.03780294 -0.010735297 -0.01866938
000030 72 30 93 bd 2c f2 b5 3d 2e 01 54 bd 38 82 8d 3d
       -0.071869746 0.08884081 -0.051758938 0.06909603
000040 7c a8 92 3d 62 7e a8 3c 24 f7 03 3d be cf 14 bd
       0.07161042 0.020568077 0.032218114 -0.03633093
000050 3f bc 51 3d d6 4b da bb 04 b6 7e bd 80 e7 9b bd
       0.051204916 -0.0066618724 -0.062185302 -0.076125145
000060 0b f1 35 bd 09 21 84 3c 6e 98 14 3d 97 d9 42 3c
       -0.04441933 0.016129034 0.03627818 0.011892698
000070 78 f6 b1 bd 08 be cc 3c 87 4f 4e 3c b1 1b 4b bd
       -0.08689588 0.024992958 0.012592203 -0.049586955
000080 a2 43 33 bd 63 c0 ed ba a2 b0 93 3c f6 0f a1 bd
       -0.04376567 -0.0018139001 0.018028561 -0.078643724
000090 06 76 69 bd 85 65 1d bd 8e 94 9e 3d 01 bc b9 bc
       -0.05699732 -0.038426895 0.07743178 -0.022672655
0000a0 d8 d1 0c 3d 87 2e a8 bd a6 27 9b bb d9 3a ae bd
       0.03437981 -0.082119994 -0.004734951 -0.08507318
0000b0 4d 59 37 bc 33 4a 62 bd d9 5e 49 bd f2 e7 94 3d
       -0.011190725 -0.055246543 -0.04916272 0.072708026
0000c0 14 31 55 bd 13 bc a6 3d 32 b9 87 bd de 75 8c 3c
       -0.052048758 0.08141341 -0.0662712 0.017146047
0000d0 70 5e 79 3d 5f cb da bc e4 0b 30 bd ae e6 87 3d
       0.06088108 -0.026708303 -0.04298009 0.066357955
0000e0 41 c1 aa 3c b0 9d ca bc 5b 1b b6 bd fa f2 64 bd
       0.020844104 -0.024733394 -0.088919364 -0.055895783
0000f0 3c 87 52 bb 22 3f b6 3d 64 57 fe 3b 58 91 65 bd
       -0.0032124063 0.088987604 0.0077618826 -0.056046814
000100 3f 16 17 bd 87 3c 8d 3b f3 7e aa 3d 3c 32 ab 3d
       -0.03688645 0.004310194 0.08324995 0.08359191
000110 62 b6 a2 3d 8b 9d 17 3c f4 4b cd 3c f5 e9 9d bd
       0.07944943 0.00925387 0.025060631 -0.077106394
000120 6f 58 e0 bc 9d 4c ad bd 93 48 bb 3d 62 16 98 bd
       -0.027385918 -0.084618784 0.09144702 -0.07426144
000130 8b 86 9c 3d 8b ef ca bc d5 b5 85 3d 62 ae 5b 3d
       0.076428495 -0.024772426 0.06528822 0.0536331
000140 ea f5 34 3c af f0 03 3d 92 5b 94 bd 85 a6 86 bd
       0.011044959 0.032211956 -0.07244028 -0.0657473
000150 be 19 e7 bc a8 ec 95 3d a6 34 86 bd 40 76 45 bd
       -0.028210517 0.07320529 -0.06553011 -0.048208475
000160 06 93 ba 3d 3f ed 9d bd b9 c4 5c 3d ac 00 e2 3c
       0.09110074 -0.07711267 0.053898547 0.027588211
000170 87 b2 26 bd 26 d7 be bb 01 5c 99 bd 12 fd f5 3c
       -0.0406976 -0.0058239875 -0.074882515 0.0300279
000180 83 92 96 bc b8 3d b3 3d d3 3e 4c 3d 2c 8b 37 3c
       -0.01838041 0.08752006 0.0498646 0.011202615
000190 78 6a 36 bd 05 f6 84 bc a7 17 c6 3b 49 26 92 3d
       -0.04453513 -0.016230593 0.0060453 0.071362086
0001a0 c6 c5 4a 3d c8 b4 b0 bd 15 4a 23 bd 8d 19 d2 3c
       0.049505018 -0.08628231 -0.039865572 0.02564695
0001b0 24 ad 18 bd 7a 5a 32 3d 89 b7 4a 3d bd 8b 0d bd
       -0.037274495 0.043543316 0.04949144 -0.034557093
0001c0 63 20 d5 3a 23 d1 87 bb 25 8f 70 3d 7b 68 80 3c
       0.0016260262 -0.004144804 0.058730263 0.01567482
0001d0 33 27 b3 bd 17 28 33 bd a6 cd cb 3b 08 10 44 3d
       -0.08747711 -0.043739405 0.0062195836 0.04786685
0001e0 b0 9d 05 bb c3 d4 2e 3c cb f8 58 bc 19 a1 73 3d
       -0.0020388179 0.0106708435 -0.013242911 0.059479807
0001f0 0a 11 a6 bd 90 6d 64 3d 7c 84 85 bc 04 4e f6 3b
       -0.08108719 0.05576855 -0.016298525 0.0075166244
000200 df 68 53 3d 2b b4 42 3d b9 26 14 bd b6 e3 a7 3c
       0.051613685 0.047535103 -0.03616974 0.020494323
000210 ab 60 37 bc f4 ed 94 bd a9 d1 d7 3b dc af 84 bd
       -0.011192481 -0.072719485 0.0065862727 -0.06478855
000220 3d 15 8b bd d7 fa b7 bd 6b 47 04 bd 7a 9a ac bc
       -0.0679116 -0.08983391 -0.032294672 -0.021069754
000230 02 3a 21 3d 2b a3 b8 3c 58 91 7c 3d b7 d4 ad 3c
       0.03936196 0.022538742 0.061662048 0.021219594
000240 33 f9 2d bd 9c 5b 98 3c a3 26 ba bd c4 eb b1 3d
       -0.042473983 0.01859837 -0.090894006 0.08687547
000250 9f 8d b7 bd 7d af ae 3d e8 a9 bb 3b 00 05 22 bc
       -0.08962559 0.085295655 0.0057270415 -0.009888887
000260 48 61 1f 3d fa f4 a4 bd 49 c2 65 bc 0f e3 8a bd
       0.038911134 -0.08054538 -0.014023372 -0.06781589
000270 24 15 53 bd 9f e3 ae bc 2d 25 c1 bc 91 85 9b bd
       -0.051533833 -0.021348773 -0.023577297 -0.07593835
000280 16 0b 49 3d e2 65 89 bd 29 0c 10 bc b5 3c 8a bd
       0.049082838 -0.06708886 -0.008791962 -0.0674986
000290 c5 42 ad bd 04 30 81 3d 1a 9b c1 3c f9 9e 85 bc
       -0.08460001 0.063079864 0.023633529 -0.016311156
0002a0 3c 5c 60 3c bf 51 0d bd 0a b3 63 3d da f7 3a bd
       0.013693865 -0.034501787 0.055590667 -0.045646526
0002b0 6b aa ab 3d 8a 3d f1 3c 7f 3d 00 3d 31 91 8f bc
       0.08382114 0.02944829 0.031308647 -0.017525287
0002c0 85 1d 49 3d 4b 56 a5 bb 54 a9 28 3d b0 a2 8d 3d
       0.049100418 -0.0050456873 0.04117711 0.06915796
0002d0 67 d3 22 3d 16 c4 04 bc d7 09 17 bd 32 8d a0 3d
       0.03975239 -0.008103391 -0.03687462 0.07839431
0002e0 28 47 c7 3c df 5f a7 bd af 86 a0 3d 49 a7 82 3d
       0.024325922 -0.08172583 0.07838189 0.06379563
0002f0 8b ed a8 bd 9a 8f 19 3d a2 92 8a bd 87 2f 85 3b
       -0.08248433 0.037490465 -0.06766249 0.0040645036
000300 67 f7 2f bd fa df 06 bd 34 05 9a 3c dd c4 08 bd
       -0.04296055 -0.032928444 0.01880131 -0.03339087
000310 49 20 54 3b 94 73 d2 3c c9 35 73 3d 79 34 b4 bc
       0.0032367876 0.025689878 0.059377465 -0.021997677
000320 39 d8 33 3d ab 2b 60 bb dd f2 b1 3b 2b e4 88 39
       0.043907378 -0.0034205716 0.005430563 0.0002610994
000330 c8 e2 c5 bc a5 cf 80 3d a8 77 9f 3d 13 9a af 3d
       -0.02415599 0.06289605 0.077864945 0.08574309
000340 22 8e 80 bd 1f 72 d5 bc 4d 62 0f bc 20 34 31 3d
       -0.0627711 -0.026055394 -0.008751464 0.0432626
000350 5b 6e 38 bd 94 1f 40 bd 63 1e 87 3d e4 48 87 bd
       -0.04502712 -0.046905115 0.06597593 -0.066057
000360 71 35 bf 3a 8c d5 6c bd c0 3e 9f bc 77 08 ae bd
       0.001458807 -0.05782084 -0.019439101 -0.08497708
000370 0f 93 38 bd d0 51 c6 3c a6 fb 2d bd 31 21 45 3d
       -0.04506212 0.024208933 -0.04247632 0.048127357
000380 71 b6 84 3d b0 8e dd 3b fa ff 80 3d 74 00 02 3d
       0.064801104 0.0067613944 0.06298824 0.031738713
000390 6f a2 c9 bc 75 56 61 3c b0 80 b8 3d 8c 02 70 bd
       -0.024613587 0.013753523 0.0900892 -0.05859618
0003a0 69 cb d4 bc cd a0 db bc 9b 7b 89 bd b7 7f 47 3d
       -0.0259759 -0.026810074 -0.06713029 0.048705783
0003b0 77 35 6a 3d cf e3 06 3d ad 2e 81 bc 54 22 05 bd
       0.057179894 0.0329321 -0.015769327 -0.03250344
0003c0 73 22 94 bd 86 91 a9 3c b0 a1 8a 3d ae 8b 47 3c
       -0.07233133 0.020699274 0.06769121 0.012179298
0003d0 24 8c 52 bc 4a f6 b6 bd 9a 8b b2 3d 43 5d 94 bc
       -0.012850795 -0.08933695 0.08718033 -0.018110877
0003e0 a5 e7 83 3d 71 29 ce ba 3a 4c b8 bd 84 95 ba bd
       0.06440667 -0.0015728903 -0.08998914 -0.09110549
0003f0 0d b5 50 ba b2 48 9c bd 74 2a 21 3c 83 9b 3c bd
       -0.0007961549 -0.07631053 0.009836782 -0.046046745

actor.linear1.bias f4 [128]
000000 f7 4f 6a bd 48 fc 40 bc 6c a2 35 bd 58 5c 4c bd
       -0.057205167 -0.011778899 -0.04434435 -0.049892753
000010 dc c0 b1 3d b8 8c bb 3c fd 65 b2 3d 66 09 59 3d
       0.08679363 0.022894248 0.08710859 0.05298748
000020 0d d2 07 bc bd 73 90 3d 40 b6 e0 3c 5c 72 92 3d
       -0.008289826 0.07053325 0.027430654 0.071507186
000030 0a 93 29 bd 9b 6f a6 bd ab 50 95 bd df dc 82 bd
       -0.041399993 -0.08126756 -0.07290777 -0.06389784
000040 10 18 96 bd 84 0f a5 3d 24 19 8a bc 99 04 8d bd
       -0.07328808 0.080596 -0.016857691 -0.068856426
000050 26 31 38 3d ac 33 01 bb 90 bc 76 3d e3 d4 8a 3d
       0.044968747 -0.0019714637 0.06023842 0.06778886
000060 72 e2 9a bd 52 b4 d1 3c 74 e6 76 3d af 24 a8 3d
       -0.07562722 0.025598679 0.06027837 0.08210122
000070 79 74 04 3d dd 68 50 3c fb 02 a8 bd dd b5 ac bd
       0.03233764 0.012720314 -0.082036935 -0.08433125
000080 a9 fc 85 3d 7a 1f b5 bc a9 51 2d 3d dd 20 9e bd
       0.06542332 -0.022109736 0.042314205 -0.07721112
000090 ed 34 82 bb 54 43 ba bc c8 ed 31 3d 32 fa 69 bd
       -0.0039735944 -0.022737183 0.043439656 -0.05712337
0000a0 7b 8a 87 bd 79 fd 8c bd df b6 87 bd be fa 9c bd
       -0.0661821 -0.068842836 -0.06626677 -0.07665013
0000b0 78 02 99 3d 4c 33 9c bd 47 cb 48 3d e8 05 ad 3d
       0.07471174 -0.076269716 0.049021985 0.08448392
0000c0 5a a1 15 bd 99 71 89 3c 68 b8 ec 3c 1c 44 9a bd
       -0.03653083 0.0167778 0.028896526 -0.07532522
0000d0 e6 6a ad 3d b9 78 ad 3d a3 fb 6e 3a f9 87 60 3d
       0.08467655 0.08470292 0.0009116476 0.054817174
0000e0 c0 80 82 bb 85 58 85 3d fe 38 59 bd 69 43 fc 3c
       -0.0039826334 0.065110244 -0.053032868 0.030793862
0000f0 ef 10 33 bd 94 4c 82 bd 76 52 89 3d 39 1e 7d 3d
       -0.04371732 -0.06362262 0.06705181 0.0617964
000100 13 c0 e3 bb e5 00 d6 bc 6c 14 98 3c 36 c2 c7 bb
       -0.0069503873 -0.026123473 0.018564425 -0.00609615
000110 25 86 25 bc 8c df ef 3c 44 ba 4c 3d 77 27 24 3d
       -0.010102783 0.0292814 0.049982324 0.0400767
000120 fe a5 82 bb 05 b7 66 bd f3 75 af bd ba 3e 51 3d
       -0.003987073 -0.056326885 -0.08567419 0.05108521
000130 10 ec 82 3d fc ee 87 bc 09 44 1e bc ca de a7 bc
       0.063926816 -0.016593449 -0.0096597755 -0.020491976
000140 ce b9 81 3d 1b c5 aa bc 82 53 33 3c 28 55 64 bd
       0.063342676 -0.02084594 0.010945203 -0.055745274
000150 b6 ee ed 3c 11 0b b2 bd ef df 84 3d ab 13 9d bd
       0.02904449 -0.08693517 0.064880244 -0.07669767
000160 d3 b1 88 3c 57 a5 95 3a f8 f0 db bc 6d f1 4e bc
       0.016686356 0.0011417073 -0.026848301 -0.012630803
000170 4e 41 87 3d 3e 23 8b bd 5e 67 d9 bb 8c 2d 28 3d
       0.06604253 -0.06793831 -0.006634637 0.041059062
000180 7f 3d ae 3d 9c 49 04 bc 2a 43 76 3d 5a fa 70 3d
       0.08507823 -0.0080741905 0.060122646 0.058832504
000190 51 1e 74 bd ca b1 b2 bd e4 8a 38 3d b3 8a 1b bd
       -0.059599224 -0.08725317 0.04505433 -0.03797407
0001a0 b1 8e 7d 3d 95 47 93 bd f8 31 8f 3d 0b 86 90 3d
       0.06190366 -0.071913876 0.06991953 0.07056817
0001b0 27 33 90 bb 55 28 f1 3b 97 60 5f 3d 62 06 ba bc
       -0.004400629 0.0073595443 0.054535475 -0.022708122
0001c0 1b 2a 8f bd 18 74 7f bd 80 9f 8e 3c e6 87 ec bc
       -0.06990453 -0.062366575 0.01741004 -0.028873395
0001d0 d8 3c 80 3b a4 60 7b bd f7 65 6c 3b ae d6 0a 3d
       0.003913503 -0.06137146 0.0036071518 0.03389614
0001e0 5e 3a 99 3d 71 ff 7a 3d f7 c9 23 bd c2 e8 9e bd
       0.07481836 0.061278764 -0.03998753 -0.07759239
0001f0 05 9d 24 bc 81 1b 4b bc 9c ee fe bc 6b 3f 3d bd
       -0.010047202 -0.012396694 -0.031119637 -0.04620306

actor.linear2.weight f4 [128, 128]
000000 bd 6a 09 3c 05 20 03 3d 85 bb a2 3d bb fa 79 bd
       0.008387265 0.032012958 0.07945923 -0.06103013
000010 0d c4 58 3c d9 49 ad bb bc 23 99 bc 0f 67 9f 3d
       0.013230336 -0.0052883443 -0.018693797 0.07783329
000020 02 e4 9d bd 3d 04 60 bd 7b 0e 00 bd 9f 4b a3 3d
       -0.07709505 -0.054691542 -0.03126381 0.07973408
000030 85 c2 88 3d 7d 46 01 3c 87 e7 88 bd 44 5b 40 bc
       0.06677727 0.007890341 -0.06684785 -0.011740509
000040 c4 ac aa 3c 79 0a 40 3d b1 49 06 bd 73 df 64 bb
       0.020834334 0.046884988 -0.03278512 -0.0034923225
000050 ba 88 a9 bd a9 8b 24 3d 7d 1e b3 bc c6 65 53 bd
       -0.08278032 0.040172253 -0.021865124 -0.05161073
000060 f4 0a 4f bd 8a 90 ae 3d 66 da 12 3d bc eb 81 3d
       -0.050547555 0.085236624 0.035852812 0.06343791
000070 7a 9d 8d 3b 1c f4 16 3d 89 f7 9f 3d 78 d2 e7 3c
       0.004321751 0.036853895 0.078108855 0.028298602
000080 ec 45 a6 bd 23 97 b2 bd 59 71 72 bd 6b 0a b4 bd
       -0.08118805 -0.08720233 -0.059190128 -0.087910496
000090 bd d6 9a 3d 66 f7 3b 3c d4 cf 50 bd 63 a2 47 3d
       0.07560489 0.011472559 -0.05097945 0.04873885
0000a0 9b 00 8d bd f4 7b 39 bd 16 9f cb 3b c2 4c 72 bc
       -0.06884881 -0.045284227 0.006214033 -0.014788808
0000b0 e1 31 8a 3d 87 f9 5c bc 28 01 52 bc 53 ce aa 3d
       0.06747795 -0.013487226 -0.0128176585 0.083401345
0000c0 c2 1f 54 bc 71 aa d6 3c 63 77 d1 3b 35 80 aa bd
       -0.012947025 0.02620432 0.006392406 -0.08325235
0000d0 ef eb 6f 3d b3 37 c9 3b d1 01 cf bc 75 d9 8a bd
       0.058574613 0.006140673 -0.02526942 -0.06779758
0000e0 e7 6b d4 3c 97 d7 3a bd 29 26 83 bc 37 29 ac 3c
       0.025930358 -0.04561576 -0.016009407 0.021015747
0000f0 fe ca 60 bd 63 7c 44 3d 18 cc 15 bc 9b 12 43 bd
       -0.05488109 0.047970187 -0.009142898 -0.047625165
000100 b4 64 90 3d 9a 42 9b 3d 71 ac 1c 3d 4f 8c 56 bd
       0.070504576 0.075810626 0.03825039 -0.052379902
000110 d2 14 52 3d e6 d6 44 3c 46 a7 c4 bc 46 3d 8e 3d
       0.051289387 0.012014126 -0.024005543 0.06945281
000120 7b c8 08 bd b8 e5 03 bb 10 20 30 bd 1c 41 2f bd
       -0.033394318 -0.0020125937 -0.042999327 -0.042786703
000130 47 0e 93 bd 81 72 8c bd 62 6d af 3d 7b 01 a1 3d
       -0.071804576 -0.068577774 0.08565785 0.078616105
000140 19 1c aa 3d 3d 8c a3 3c 6d 9d a7 3d 71 7a ab bd
       0.083061405 0.019964332 0.081843235 -0.08372963
000150 e2 fa 19 3d 10 5f 8b bd 7c 4f 85 bb 2d fd 81 3d
       0.037592776 -0.06805241 -0.004068313 0.063471176
000160 b4 ff 25 bd cc db 5b bd 17 3e aa bd 45 78 b2 3c
       -0.04052706 -0.05367641 -0.08312624 0.021785865
000170 ce 67 b1 bd 0c f0 93 3d f8 1c 1e 3c 79 74 07 3d
       -0.08662377 0.0722352 0.009650461 0.03307006
000180 cc e0 b4 bc 93 f9 70 bd 6f ab ab 3c a3 09 a1 3d
       -0.022079848 -0.058831763 0.02095577 0.07863166
000190 3f 8d 44 bd 7c 08 a0 bd 3c bf 40 bd d9 d5 e2 3c
       -0.047986265 -0.07814118 -0.047057375 0.027689861
0001a0 fd 42 05 3d 41 67 91 3c 83 bb b0 bd be 89 22 3d
       0.032534588 0.01774943 -0.08629515 0.039682142
0001b0 07 6c 92 3d c8 cd ad 3c c8 f9 94 3d a9 92 64 bd
       0.07149511 0.021216288 0.072742045 -0.05580393
0001c0 a4 c8 8a bd 18 e0 47 3d 8f 9d 19 3d 56 be 71 3d
       -0.067765504 0.048797697 0.037503775 0.05901941
0001d0 17 b3 0a bc cd f1 d5 bc 87 61 a6 3c 3c 18 54 bd
       -0.00846555 -0.026116276 0.020310177 -0.051780924
0001e0 97 c4 b2 bd 42 d3 af 3d 65 80 5a bb d7 ee 4a bd
       -0.08728903 0.08585216 -0.003334069 -0.04954418
0001f0 4a bb 68 3d eb e9 9a 3d c8 e5 99 bd ff a5 8d 3d
       0.056819238 0.075641476 -0.075145304 0.06916427
000200 0f 80 b3 3d 95 e2 94 3d af bc 84 3d d6 7e 38 bc
       0.087646596 0.072697796 0.06481301 -0.011260709
000210 8e 1d 04 3d 42 5f a6 3d a8 a7 48 bd eb 0f 7e 3d
       0.032254748 0.08123638 -0.048988014 0.0620269
000220 23 29 5c bc ba a0 6f bd 35 2c 49 bd 1c 1b ab 3c
       -0.013437542 -0.05850289 -0.049114425 0.02088695
000230 a2 e1 ad 3d 86 9d 8b 3d 53 05 a3 3d e0 12 7c bd
       0.08490302 0.068171546 0.0796 -0.061541438
000240 9c f4 3b 3c ff c9 00 3d 07 9e 82 3d 73 70 f0 bc
       0.011471894 0.03144264 0.063777976 -0.029350495
000250 68 cd 1f bc f4 be 9c 3c 9c 6d af 3c 06 99 40 bd
       -0.0097535625 0.019134022 0.02141457 -0.047020935
000260 08 0b 9b bd 60 fc 55 3c 1e 0f 0e 3d 76 a8 c7 bc
       -0.075704634 0.013060659 0.034682386 -0.02437232
000270 21 b6 77 bd 2d c5 53 bd 03 93 8c bd d3 82 18 3d
       -0.060476426 -0.051701713 -0.06863978 0.03723414
000280 8c b7 4e bc df f0 6d 3d 1d e1 79 bd 5c 18 19 bd
       -0.012617003 0.05809104 -0.0610057 -0.037376747
000290 5c d3 a9 bd db f4 66 bd 72 44 66 b9 f9 1b 36 38
       -0.08292267 -0.056385856 -0.00021960007 4.3418233e-05
0002a0 e5 f4 eb bc 42 d0 7f bd 0d ce 4c bd e4 eb c7 bb
       -0.028803298 -0.06245447 -0.050001193 -0.0061011184
0002b0 de be 8a 3d f8 8c 45 3c 68 1e fe bc b9 bf 1e 3d
       0.06774686 0.012057535 -0.031020358 0.03875706
0002c0 39 cf 90 3d 57 67 74 bd ef ca 23 bd 39 28 09 3c
       0.070707746 -0.059668865 -0.039988454 0.008371406
0002d0 7b 9d 91 3d 9a 11 7b bd 39 a6 76 3d 61 bb 39 bd
       0.07110115 -0.061296083 0.060217116 -0.045344714
0002e0 5b f5 e4 bc 19 fd 62 3d e4 59 a7 bd 2d 82 6f bd
       -0.027949026 0.055417154 -0.08171442 -0.058473755
0002f0 1d 17 94 3d cf 81 3d bd 9d f4 a5 3b e0 c9 a7 bd
       0.07230971 -0.046266373 0.0050645606 -0.081928015
000300 52 48 68 3d d1 9a b0 3d 1e 2d ab 3d 1e 6d fa bc
       0.056709595 0.08623279 0.08358215 -0.03056961
000310 38 7e 45 bd fb d9 3e 3d 34 db 0b bd 64 8c b1 bc
       -0.048216075 0.0465946 -0.034144595 -0.021673389
000320 92 6c 68 3d dc a2 85 3c 9c b6 72 3c d9 3e 8a 3d
       0.056744166 0.016313009 0.014814045 0.067502685
000330 50 0d af bb 34 52 57 3d 57 19 95 bd 71 a1 2d 3d
       -0.005342163 0.05256863 -0.07280224 0.04239029
000340 07 9e 10 bd 87 13 a6 3d b0 dc a6 bd 5a a5 31 3d
       -0.035306957 0.08109193 -0.081475616 0.043370582
000350 89 4b 46 bc 63 f3 79 3d c6 4d 83 bd 46 27 e0 3b
       -0.01210297 0.061023127 -0.064113185 0.0068406193
000360 32 bc a5 3d 4b 40 4e bd a5 45 45 3d 68 55 4a 3c
       0.08092536 -0.050354283 0.04816212 0.012349464
000370 98 43 98 3c 57 d4 cf 3c c5 5d 98 3d 6d 22 89 bd
       0.018586919 0.025369806 0.0743976 -0.06696019
000380 cf 6e 45 bd d4 9c f8 bc 1b 08 b5 3d cb a9 6b 3d
       -0.04820138 -0.030348219 0.088394366 0.057534974
000390 2c 09 98 bd 7d a2 0e bd 82 00 c3 3c a4 2e 05 bd
       -0.074236244 -0.03482293 0.023803953 -0.032515183
0003a0 bb 1d 7a bb 1d c8 89 3d 68 f4 85 bd 02 f2 3b 3d
       -0.0038164693 0.06727622 -0.065407574 0.045885094
0003b0 cd 9f be bc 9f 48 84 3d a0 40 83 bd 17 d7 94 3d
       -0.023269558 0.06459164 -0.064088106 0.07267588
0003c0 0c f7 dc bc ec a4 4a 3d e7 77 94 bd 48 8b ae 3d
       -0.02697327 0.049473688 -0.07249432 0.085226595
0003d0 61 bc a1 bd e3 93 35 3d 76 d3 82 bd 5f 5a 90 3d
       -0.078972585 0.04433049 -0.06387989 0.07048487
0003e0 2e 7b 92 3c 6a 27 56 3d 9f 97 43 3d 9a 86 c3 bb
       0.017881002 0.052283682 0.04775202 -0.0059669735
0003f0 49 d9 60 3d 82 15 49 bc b4 e4 68 3d b7 b5 94 3d
       0.05489472 -0.012273194 0.056858733 0.07261222

actor.linear2.bias f4 [128]
000000 7e e1 82 3d 94 d0 c4 3c 09 a5 c0 3c 5f 9b a6 bd
       0.063906655 0.024025239 0.023516195 -0.081351034
000010 39 74 ea bb 91 d6 5e 3d 54 76 54 3c 46 a2 9e bb
       -0.007154968 0.054403845 0.012967665 -0.004841122
000020 57 8d a3 bd d8 ff 7e bd 55 3b 9d bc d8 bb 62 3d
       -0.07985943 -0.06225571 -0.01919333 0.055354923
000030 b7 b2 3c 3d c3 fe b1 bd e3 3c 85 bd 11 89 30 3d
       0.046068873 -0.0869117 -0.06505754 0.043099467
000040 d8 8e 22 3d 0e 78 76 bd e3 fe b4 3c 38 57 97 3d
       0.039687008 -0.060173087 0.022094196 0.073896825
000050 16 60 59 3d 22 96 5e bd 6b ec 54 ba 2c f9 17 bd
       0.05307015 -0.054342397 -0.0008122387 -0.037102863
000060 35 ea ad bd 01 13 48 bd e0 fe 71 3d f7 53 67 bd
       -0.08491937 -0.04884625 0.05908096 -0.05647656
000070 d2 91 ad 3d 40 42 af 3d ec 54 54 bd fc c1 43 3d
       0.08475079 0.08557558 -0.0518388 0.04779242
000080 a6 aa 6a bd 7a 38 b0 bc 14 cc 72 3d 87 5f 2e bd
       -0.05729165 -0.021511305 0.059276655 -0.04257157
000090 e8 e9 a8 3d 47 e8 ab bd 12 26 e6 ba 0c 59 44 3d
       0.08247739 -0.08393913 -0.0017558953 0.047936484
0000a0 05 26 b6 bc 41 e5 87 bd 4c 92 07 3d cb 40 ad bd
       -0.022234926 -0.066355236 0.033098504 -0.08459624
0000b0 0f ef 48 3c a1 0f 98 3d bf 98 fe 3c 19 56 a3 3c
       0.012264027 0.07424856 0.031078694 0.019938515
0000c0 d7 bd ed bc ac 8e b0 3d 04 32 83 bc de c3 c8 bc
       -0.029021187 0.086209625 -0.01601506 -0.02450746
0000d0 2d 7b 1e 3d 30 a6 7f 3d 28 1d 18 3d de e9 b7 bd
       0.03869169 0.062414348 0.03713718 -0.089801535
0000e0 46 99 8d 3d a7 36 0e 3d 99 59 d6 3c 5e fa a7 3c
       0.06914 0.03472009 0.02616577 0.020505127
0000f0 84 a5 96 3d b5 f5 d4 bc 85 e0 28 3d 0a 8c e9 3a
       0.07355788 -0.025996068 0.041229744 0.0017818224
000100 6d f2 b4 3d 10 9b 8f bd fa d9 7c bc ac 43 82 3c
       0.088353015 -0.07011998 -0.015432829 0.01590141
000110 2d 43 91 bd 8b ff a7 bd df 47 49 bc ba 3c eb bc
       -0.07092891 -0.08203038 -0.012285202 -0.02871548
000120 be 3c 73 3d a1 64 19 3d 6f 79 9b 3d 36 88 90 bc
       0.0593841 0.037449483 0.07591521 -0.017643075
000130 fd ff 49 3d 60 8d 59 bd 85 5b f4 bc 42 41 62 bd
       0.049316395 -0.05311334 -0.029828796 -0.055238016
000140 0f d5 f4 bb 0b 45 76 3d bc 2c 9e 3d 4a 79 88 3d
       -0.0074716876 0.06012444 0.07723376 0.06663759
000150 b5 69 ba bb 73 74 64 3d 09 9b 46 bd 02 c1 15 bd
       -0.005688871 0.055775117 -0.048487697 -0.03656102
000160 a3 67 a4 3d 6e d7 5b bd 0f a4 7e 3b 8b 2f f2 bb
       0.0802758 -0.053672247 0.003885511 -0.0073909215
000170 b7 5f b9 3d 9d 4d 16 3d f6 df e6 bc b9 b3 dd ba
       0.09051459 0.03669511 -0.028182965 -0.0016914523
000180 13 e6 53 bb b4 1d 64 3d 16 f0 ad bd 2c 43 7f 3c
       -0.003233318 0.05569239 -0.084930584 0.01557998
000190 01 e0 e3 3c 07 4a 59 bd 7b 9f 7c 3d 38 77 a8 bc
       0.027816774 -0.053049114 0.06167553 -0.02056466
0001a0 80 58 0f 3d c7 fa 6d 3d 85 e4 10 3d 0e ff 18 3d
       0.03499651 0.058100488 0.035374183 0.037352614
0001b0 e7 0c a6 3c c4 84 5a 3b f4 77 c8 3c 67 0b 4d 3d
       0.020269824 0.0033343295 0.02447126 0.050059702
0001c0 7a af a2 3d 7b 0d fc 3b b5 e9 09 bc b5 d4 11 bd
       0.07943626 0.0076920367 -0.0084175365 -0.035603244
0001d0 bc 5b 90 3d 2b bf b4 bd f5 3b a5 bd 4c e6 02 bc
       0.07048747 -0.08825525 -0.080680765 -0.007989477
0001e0 48 96 f2 3c 32 b4 74 bd 60 d8 b8 bd 4f 01 9f bd
       0.029612675 -0.05974216 -0.09025645 -0.077639215
0001f0 29 9c 4c 3d d8 fc 9f 3d 04 e4 9b 3d 2e ad 1c bc
       0.049953613 0.07811898 0.0761185 -0.009562774

actor.linear3.weight f4 [128, 128]
000000 7c 25 b1 bd 45 d7 85 3d 67 7c 0f 3d 87 70 a0 bd
       -0.08649728 0.065352 0.03503075 -0.07833963
000010 2e e5 56 3d 22 4b de bb ad d6 a2 3d 41 c1 6f bd
       0.052464657 -0.006783859 0.079511024 -0.05853391
000020 76 a6 43 bd f8 f8 7e 3b 05 b5 6c 3d cd 7f 6d 3d
       -0.04776617 0.003890572 0.05778982 0.05798321
000030 4e cb 84 3d 25 f5 34 3d 7a e5 69 3d 35 46 c0 3c
       0.0648409 0.0441791 0.05710361 0.023470977
000040 50 76 8a 3d cb 76 83 3c b6 75 57 ba 97 7d 6b bd
       0.067608476 0.016047856 -0.00082191394 -0.05749282
000050 b8 bb 88 3d 47 93 b9 ba 8b 7e c7 3c ac c7 a9 3d
       0.066764295 -0.0014158272 0.024352333 0.082900375
000060 c3 1f fb bb 58 bd d7 bc d8 d4 a8 3d 4f ee 69 3d
       -0.0076636984 -0.026335403 0.08243722 0.057112034
000070 15 07 28 3c 41 4d ac 3d 11 a3 9f bd ab 2f a1 bd
       0.010255595 0.084131725 -0.07794774 -0.0787042
000080 7b 74 7d 3d 67 cb 7f bd 38 ba 07 bc 99 55 00 bd
       0.061878663 -0.06244984 -0.008284144 -0.031331632
000090 07 e9 48 3d 8b b0 27 bd 8c bb 0e bd 1f 71 24 bc
       0.049050357 -0.04093985 -0.034846827 -0.010036736
0000a0 00 02 20 3b a5 23 11 3d 19 66 b0 bb af 3e fe ba
       0.0024415255 0.035434384 -0.0053832647 -0.0019397343
0000b0 5a 07 92 bd 93 e3 64 bc 1d 3b 3d bd 60 ee 46 bd
       -0.071303084 -0.013970274 -0.046198953 -0.048567176
0000c0 c6 33 90 3c ed 9b 79 bd bc 7e 8b bd 8c 48 50 3c
       0.017602812 -0.060939718 -0.06811282 0.012712609
0000d0 8a f9 da bc 9e d9 02 3b 18 3a 8f bc 35 79 6d 3d
       -0.026730318 0.0019966136 -0.017483756 0.05797692
0000e0 7a 39 41 3d 63 35 cb bc 30 cd 86 bd 67 26 8d 3d
       0.047173955 -0.02480573 -0.06582105 0.0689209
0000f0 f8 a0 10 3d 82 c1 8d 3b 21 80 a5 bd a4 da 89 bd
       0.03530976 0.0043260464 -0.08081079 -0.067311555
000100 73 c3 b2 bd d4 71 9a 3d 24 e0 8b 3c 69 b2 aa 3d
       -0.08728685 0.07541242 0.017074652 0.0833481
000110 de 8a 9e 3d 6e d0 8f bb e2 4c 00 bb 34 05 84 3c
       0.077413306 -0.0043888604 -0.0019577076 0.016115762
000120 6b d8 90 bd 26 8f 01 3d c4 0e 98 3d ba fa 4c 3d
       -0.070725285 0.031630658 0.07424691 0.0500438
000130 08 b4 16 3d 37 16 35 bd ac 11 1f bd 04 45 51 bd
       0.036792785 -0.04421064 -0.038835213 -0.05109121
000140 8e 84 61 bd 0c df 82 bd b6 17 66 3d 40 a7 6b bd
       -0.055058055 -0.06390199 0.056174956 -0.05753255
000150 96 5d 9c 3d c0 bf 8a 3d 83 ff 93 3d 41 d7 3a 3d
       0.076350376 0.06774855 0.07226469 0.04561544
000160 ab 21 56 bd 3b d9 df 3b 35 13 ce bc a6 a5 5f 3d
       -0.052278202 0.006831316 -0.025155643 0.054601334
000170 39 e9 5f 3d 45 e5 3b bc 1c 33 02 3d a3 1e a1 bd
       0.054665778 -0.011468236 0.031787023 -0.078671716
000180 90 c1 7f bd d5 c7 0f bd 4f d7 ba 3c a3 98 21 3b
       -0.062440455 -0.035102684 0.022807745 0.002465763
000190 72 a6 79 bd 18 4d 23 3d 1b 64 a0 bd 2f 9c bb 3c
       -0.06094975 0.039868444 -0.078315936 0.022901623
0001a0 73 7e b7 bd 27 0c 88 3d d4 35 60 3d 2f e4 96 bd
       -0.08959665 0.06642943 0.054738835 -0.07367741
0001b0 91 3b 41 3d b1 61 31 3c 3d e9 e0 3c 26 e9 53 3c
       0.047175948 0.010826514 0.027454967 0.012934005
0001c0 f3 5c b4 bc d4 d8 aa 3d 89 c2 a7 3d ac 9d c3 3c
       -0.022016978 0.08342138 0.081914015 0.023878895
0001d0 62 4f 01 3d a9 91 35 3d e0 80 30 bd e4 0d a6 3d
       0.031569846 0.044328365 -0.043091655 0.08108118
0001e0 97 5d c8 bb 9b ce 5e 3d 9a a3 de 3c 32 5b de 3c
       -0.0061146724 0.054396253 0.02717762 0.027143095
0001f0 f7 f4 99 bd 12 80 aa bd 09 b3 93 bd ad b0 ce 3c
       -0.075174265 -0.08325209 -0.072118826 0.02523073
000200 7d 1e b6 ba 64 40 b3 bd 7d 3d 97 bd e6 ac 80 3d
       -0.0013894584 -0.08752516 -0.07384775 0.06282978
000210 70 1d b4 bc d7 e3 94 bc 55 6a f5 3c 13 05 c2 bc
       -0.021986693 -0.018175049 0.02995793 -0.02368406
000220 37 c7 23 3b 78 5d 65 bd c8 a6 77 bd b3 57 6d bd
       0.0024990567 -0.055997342 -0.06046179 -0.057944965
000230 b2 78 f1 bc 12 68 88 bd 2e 52 3e 3d 30 68 56 3c
       -0.029476497 -0.06660475 0.04646509 0.013086364
000240 25 8f 0b 3d 1c c1 44 3d 68 ed 5b 3d b8 a2 48 bd
       0.03407206 0.048035726 0.053693205 -0.048983306
000250 69 b1 81 3d a0 cf 7f 3c 51 57 3d 3b 48 ad 9e 3d
       0.063326664 0.0156134665 0.0028891156 0.077478945
000260 f1 41 e3 3c ea 37 27 3d 5c d4 b0 3d 6c 59 33 3d
       0.027741404 0.04082481 0.08634254 0.04378645
000270 2c db af 3d 16 52 90 bc e1 7c b0 bd fb a8 72 bd
       0.085867256 -0.017617267 -0.08617569 -0.059243184
000280 f8 69 a3 bd e1 7b 1c bc 75 25 cb bc f6 2a 60 bd
       -0.07979196 -0.009551019 -0.024798134 -0.05472847
000290 65 89 d0 3c d6 81 5b bc 80 a2 98 bd ba 10 a5 bd
       0.02545614 -0.0133976545 -0.074528694 -0.08059831
0002a0 3d e9 b2 bd 77 25 94 3d 10 db 42 bd e4 59 c1 3c
       -0.08735893 0.07233708 -0.047572196 0.023602434
0002b0 cb fa 4a bc f5 3e a9 3d 09 9b 53 3d 67 a0 3f bd
       -0.012388895 0.08263961 0.051661525 -0.04678383
0002c0 a1 66 9b 3d 76 be 78 3d d3 55 8f 3d 6f dd f1 bc
       0.07587934 0.060728513 0.069987915 -0.029524533
0002d0 5c c0 54 3c 5d 83 aa bc 91 83 ae 3c b0 fc b0 3a
       0.012985315 -0.020814592 0.02130297 0.0013503041
0002e0 40 4e 82 bd 02 12 9f bc a7 0e 71 3c f9 0d 73 3b
       -0.06362581 -0.019417766 0.014712966 0.0037087186
0002f0 c8 e7 34 3a 04 ec 9a bd 9a 46 3c bd b7 bd 89 3d
       0.0006900993 -0.07564548 -0.04596577 0.06725638
000300 f5 a0 e3 3c f8 28 9e 3c c6 8f b3 3d ca 8c 97 bd
       0.027786711 0.019306645 0.08767657 -0.073999
000310 82 98 54 bd 73 02 08 3b 35 49 e7 3b 39 2f 07 bd
       -0.051903255 0.0020753413 0.0070582875 -0.03300402
000320 42 fc 8c 3d df b5 58 bd b9 3c 9d bd c9 a4 49 3d
       0.06884052 -0.05290782 -0.076775976 0.049229417
000330 1c b2 27 bd 5c 38 d1 bc c6 24 e9 bc de 2e 24 3d
       -0.040941343 -0.02553957 -0.028459918 0.04008376
000340 59 bd 1f 3d 0a 64 d2 3c 29 29 6d 3a 42 84 2f 3d
       0.038998935 0.025682468 0.0009046966 0.04285074
000350 d8 9d a1 bd 44 ef 21 bc f1 02 3d 3c 44 a8 2f bd
       -0.078914344 -0.0098837055 0.011536346 -0.04288508
000360 26 9b 3f bc aa da 42 3d e3 c0 3c 3d 13 6a 57 3d
       -0.011694705 0.047571816 0.04608239 0.052591395
000370 15 e6 8b bd 0c 6f 6e bd 09 a2 9e bd 18 84 a5 3d
       -0.06830994 -0.05821137 -0.077457495 0.080818355
000380 fd 3f b7 3c 29 23 44 bd 40 d4 8d 3d 53 4f 34 bc
       0.02236938 -0.047885094 0.06925249 -0.0110052405
000390 47 0d 54 3d 96 85 87 3d 80 2b 46 bc ea f6 34 bc
       0.051770475 0.06617276 -0.012095332 -0.011045197
0003a0 33 23 5c bd f6 1d 27 bd cb 84 34 bd 33 3f 7b bc
       -0.053744506 -0.040800057 -0.044071954 -0.015334892
0003b0 a3 72 92 bd f3 84 15 bd f0 99 91 bd 33 c7 09 3d
       -0.071507715 -0.036503743 -0.071094394 0.033637237
0003c0 65 6a 4a bd a8 4c 36 bd 8a 36 96 bb 94 35 ad bd
       -0.049417872 -0.0445067 -0.0045841383 -0.08457485
0003d0 91 c0 a9 3d 37 03 d7 bc c2 2a af bd df 10 8e bc
       0.08288682 -0.02624665 -0.08553077 -0.01734203
0003e0 6e 39 6e 3c 52 c9 40 3c 9b 53 1f 3d c4 a2 d8 bb
       0.0145400595 0.0117667485 0.03889809 -0.0066112
0003f0 8d c8 58 3d 94 e1 51 3d 30 d6 37 bc 7f 52 9f 3d
       0.052925635 0.05124052 -0.0112205 0.07779407

actor.linear3.bias f4 [128]
000000 b0 15 cf 3c 1d e0 51 bd d1 32 83 3d 58 a7 de bc
       0.025278896 -0.05123912 0.06406177 -0.027179405
000010 17 1f f2 bc bd c6 20 3d 98 3e 4f bd a3 a6 b4 3d
       -0.02955584 0.03925203 -0.050596803 0.08820846
000020 ac 7d 67 bd 59 4c 1f 3d 07 5d ca 3c ea 7b 9e bd
       -0.056516334 0.03889117 0.024702562 -0.077384785
000030 5b 40 7b 3d b3 86 b5 ba 90 dc 5c bc 07 3d 33 3d
       0.06134067 -0.0013849348 -0.013480321 0.043759372
000040 fc 25 40 bd 75 be 8c bd 06 aa d3 3b 7b ba 45 3d
       -0.046911225 -0.06872264 0.0064594774 0.048273545
000050 6b 2e a8 bd 32 22 a4 bc 79 63 b3 3d 0b 35 49 3c
       -0.082119785 -0.020035837 0.08759207 0.012280713
000060 a8 2d 30 bd 7e e3 97 3d df 1d 65 bd ab 58 58 bb
       -0.04301229 0.074164376 -0.05593669 -0.0033011835
000070 b9 2f 50 3a 3c 3b 65 3d a4 f3 d6 bb 86 12 95 bc
       0.00079416815 0.055964693 -0.006559806 -0.01819731
000080 fc 00 ac bd b1 1c 13 bd 9b fc 00 3d 83 85 78 3d
       -0.08398625 -0.035916034 0.031490903 0.0606742
000090 52 dc 18 bd ea 32 6e 3c 1a 2b 3a 3d 02 aa 1e 3d
       -0.03731949 0.014538506 0.04545126 0.03873635
0000a0 34 8d 61 3c f0 35 81 bd 52 4d 8f bd 60 cb ae bd
       0.013766576 -0.06309116 -0.069971696 -0.085348845
0000b0 6d 53 89 bd 26 82 63 bd 39 a2 f3 3c 6a 65 71 3d
       -0.06705365 -0.05554404 0.02974044 0.058934607
0000c0 cd b6 8e bc fb 5d 13 bc fc b9 01 bc 1f 71 b4 3c
       -0.01742115 -0.008994575 -0.007917877 0.022026597
0000d0 ca 29 68 3c c2 7b a6 3d df 78 90 bd bc a7 42 3d
       0.01417012 0.08129074 -0.07054304 0.047523245
0000e0 96 c4 d9 3c 94 72 31 bd 72 30 4c bd 46 f5 00 3d
       0.026582997 -0.04332216 -0.04985089 0.03148391
0000f0 0a 97 20 bd 82 15 b2 3d 95 18 25 3d df ff 9a bc
       -0.039206542 0.086955085 0.040306646 -0.018920837
000100 4d be 52 bd 42 49 a5 3d 11 0e 8d 3d 6b dc 94 3d
       -0.051451016 0.080706134 0.068874486 0.07268604
000110 1b 0d dc 3c b6 14 90 3d 80 61 e7 bc e4 1a a3 bc
       0.026861718 0.070352 -0.028244734 -0.019910283
000120 09 04 9e bd c9 ab 8c bd 64 43 61 3d 15 7f 01 3d
       -0.077156134 -0.06868703 0.05499591 0.031615335
000130 90 3b aa bd 11 24 89 bc 10 4d 0f bd 02 df 06 bc
       -0.08312142 -0.01674083 -0.034985602 -0.00823188
000140 68 01 63 3d ae 08 98 3d 2b 9d 8e 3d 94 c6 97 3d
       0.055421263 0.074235305 0.06963571 0.07410923
000150 b6 94 2d bd 86 f7 a8 bd c7 24 90 3d 81 78 7a 3d
       -0.04237815 -0.08250336 0.07038265 0.061150078
000160 08 29 85 3d 6d 24 91 3b 37 9d a3 bd 34 dd 7a 3d
       0.06501967 0.004429391 -0.07988971 0.061246112
000170 dc f0 58 3d c3 f0 5e bd 45 69 89 3d 7e 28 7a 3d
       0.052964076 -0.054428827 0.06709532 0.061073773
000180 c3 06 7e bd 01 c6 5b bd ff fd 9e 3d 31 df 9a 3d
       -0.062018167 -0.053655628 0.0776329 0.07562102
000190 27 9e ed 3c d1 6c 9f bd 2f f2 84 bd b5 d1 88 3b
       0.029006077 -0.07784427 -0.06491505 0.0041753897
0001a0 ec 8b a7 bd 03 b0 42 3d ce db 99 3d fc cc 67 bd
       -0.08180985 0.04753114 0.075126275 -0.056591973
0001b0 62 f0 91 bd f2 b4 0d bd 60 b7 85 bd aa 31 12 bd
       -0.071259275 -0.03459639 -0.06529117 -0.035691895
0001c0 02 02 90 3c 87 35 3d 3d 2e c2 92 3d 54 24 33 3b
       0.017579082 0.046193626 0.07165943 0.0027334886
0001d0 3c bc 97 3d b1 32 75 3d b8 4a 1e bc 79 ca 46 3c
       0.0740895 0.059862796 -0.009661369 0.012133234
0001e0 92 50 c2 3b 69 06 42 3d 16 58 94 bd 3e 15 e4 3c
       0.005930015 0.047369394 -0.072433636 0.02784216
0001f0 4a fc 0e 3d 1d 02 78 3d 6a 3b a9 3d 09 df 09 3d
       0.03490857 0.06054889 0.082632855 0.03365997

actor.linear4.weight f4 [9, 128]
000000 c7 86 d7 3c f8 ce d7 3c f6 2a 51 bd 5b 6b 4b bc
       0.026309384 0.026343808 -0.05106636 -0.012415732
000010 66 a0 c4 3a 05 cb a6 bd 94 46 3e 3d 13 38 af 3d
       0.0015001416 -0.08144192 0.046454027 0.08555617
000020 47 c7 97 3d 4b a2 8a bc cb 8d 8d bd d6 62 52 bc
       0.07411056 -0.01692309 -0.069118105 -0.012840947
000030 6d 04 dc 3c 21 bd 08 bd 8e cb b2 bb a3 b7 38 bd
       0.02685758 -0.033383492 -0.0054563945 -0.045097005
000040 d8 27 92 bd d4 b5 91 bd 3c 13 58 3d c1 21 49 bd
       -0.07136506 -0.07114759 0.05275272 -0.049104456
000050 17 8d 8e 3d 2a da a2 3d 2c 09 b3 b9 f6 cf 8d 3d
       0.069605045 0.07951768 -0.00034148374 0.06924431
000060 e8 7e 44 bd 0f 79 a3 3d b2 c1 76 bb 8d 0b a9 3d
       -0.04797259 0.079820745 -0.0037652072 0.08254156
000070 87 1a 54 3d 00 01 83 bc 20 b8 51 3d ef ca 81 bd
       0.05178311 -0.015991688 0.051200986 -0.06337535
000080 64 fc 7d bd b1 bd 0b 3d 79 50 88 3d dd 7c 98 3d
       -0.062008277 0.03411645 0.06655974 0.07445691
000090 5e 75 96 bd f2 7a 03 3d 6a 09 9a bd 42 b1 0b 3d
       -0.07346605 0.03209967 -0.07521327 0.034104593
0000a0 50 22 12 3d 12 a4 8f 3d 8d dc a1 bc b7 21 75 bd
       0.035677254 0.07013716 -0.019758487 -0.059846606
0000b0 99 3a 83 3c 28 69 96 3d 67 28 aa 3c 61 16 ea bb
       0.016019152 0.07344276 0.020771218 -0.007143781
0000c0 f8 f1 75 bc 89 fd 33 3d e1 1e 55 bd e2 96 77 3c
       -0.015011303 0.04394296 -0.0520314 0.015111657
0000d0 48 52 5a 3d 69 78 21 bc db 74 2d bb cf f2 a7 bd
       0.053301126 -0.009855368 -0.0026467356 -0.08200609
0000e0 f9 93 0a 3d 81 c3 06 38 95 0e d0 bc 06 2b 43 bc
       0.033832524 3.2130167e-05 -0.025397578 -0.011912113
0000f0 74 6b 4d bd 06 96 e1 3c f5 0d 8e bd a6 8f ae bd
       -0.050151303 0.027537357 -0.06936256 -0.085234925
000100 59 52 7b bd ed 59 43 bd 01 30 2e 3d 62 84 72 bd
       -0.06135783 -0.04769318 0.04252625 -0.05920828
000110 1c b3 19 bd 79 18 85 bc ef 43 a5 3d fc 44 cd bc
       -0.037524328 -0.016247021 0.08069598 -0.025057308
000120 30 a1 69 bd ea d2 95 bc 29 26 71 3d 0d 6a c6 3b
       -0.057038486 -0.018289048 0.058874283 0.0060551227
000130 22 bf 9f bd bb 53 06 bd 01 be 09 3d 2e 5c e6 bc
       -0.078001276 -0.032794695 0.033628467 -0.028120127
000140 5f e0 a1 bd 21 1b 51 bd a9 31 35 bd 29 2d 89 3d
       -0.079041235 -0.051051263 -0.044236813 0.06698067
000150 a9 37 f4 bc 91 05 17 bd 39 0b 82 3d 57 cf 23 bc
       -0.029811697 -0.036870543 0.06349797 -0.009998164
000160 e1 73 88 bd e8 9b 92 3d f0 30 1b bc 0b b4 a5 bd
       -0.06662727 0.07158643 -0.009472117 -0.08090981
000170 62 48 14 3d d3 17 1f bc 2f b9 a0 3c 39 d4 4e bd
       0.036201842 -0.00971027 0.019619552 -0.05049536
000180 18 6c 06 bc 89 a2 3f bd 1c 0f 37 bc 1a 3d dd 3c
       -0.0082044825 -0.046785865 -0.011173036 0.027006675
000190 d0 45 60 bd d0 0e 74 bd 91 cf 91 3b f6 68 c7 3c
       -0.05475408 -0.05958444 0.0044497927 0.024342041
0001a0 68 30 b4 bc 83 e9 a2 bc c1 25 b6 bc 1f dd 75 3d
       -0.021995738 -0.019886738 -0.0222348 0.06002533
0001b0 67 8d 2e 3c 60 ca 68 3d ce 51 c5 3b 45 ad 12 3d
       0.01065383 0.056833625 0.006021715 0.035809774
0001c0 26 43 9a 3d be 76 55 3d 27 9d 4c 3d b8 39 86 3d
       0.07532339 0.052115194 0.04995456 0.06553978
0001d0 b9 42 b4 3a dc 3b 93 bd e1 d0 5e bd 18 c1 25 bd
       0.0013752795 -0.07189152 -0.05439842 -0.04046735
0001e0 8d 0b e0 3c 0e 90 2e 3d c1 4d 55 bd 70 97 64 bb
       0.027349258 0.04261785 -0.052076105 -0.0034880303
0001f0 d5 d1 7c bb 16 07 c1 3c b9 df 1e bc 78 c9 ce bc
       -0.0038577218 0.02356295 -0.009696894 -0.025242552
000200 19 85 22 bc 68 f2 8b 3d d6 6a 31 bd 93 45 2d bc
       -0.009919428 0.06833345 -0.043314777 -0.01057567
000210 be 3d 93 3d d8 75 0c bc 1a b4 b3 3d 3d fe 59 3d
       0.07189511 -0.008573018 0.08774586 0.053220976
000220 e5 17 a7 3d fe 34 ae 3b a6 f0 3a 3a d8 8f 0f 3d
       0.081588544 0.0053163758 0.00071311963 0.03504929
000230 5e 21 12 bd 44 37 b6 3d 8d ef 5c 3d b2 1d 41 3d
       -0.035676353 0.0889726 0.05393939 0.04714746
000240 ea 3d 1f bd 5f c0 57 bc 49 31 ff 3c f5 ef 11 bc
       -0.038877405 -0.013168423 0.03115143 -0.008907308
000250 dc 45 09 bd 03 2e 92 3d 0e c5 a7 bd b2 74 85 bd
       -0.03351389 0.07137682 -0.08191882 -0.065163985
000260 e5 96 c6 3c 98 5d 28 bc a4 31 7a 3d 6b 86 3d 3c
       0.024241874 -0.010276221 0.061082497 0.011567692
000270 52 5d 31 bd 88 08 66 bd 35 3f 64 b9 37 64 5a bd
       -0.043301888 -0.05616048 -0.00021767321 -0.05331823
000280 01 6f 53 bd ff 88 c1 3c 2c aa 99 3d 67 5f 17 bd
       -0.051619533 0.023624895 0.07503161 -0.036956217
000290 9b dc 54 bc e2 45 23 3d 6c 34 62 3b 4b 1d 47 3d
       -0.01299205 0.039861567 0.003451611 0.04861192
0002a0 e4 49 09 3b f4 bf b0 bd 9f 7f 54 3d f1 50 d5 bb
       0.0020948583 -0.08630362 0.05187952 -0.006509893
0002b0 95 ad b2 3c 2b 90 78 3d 95 de 40 3d 97 e3 34 bd
       0.021811286 0.060684364 0.04708727 -0.04416236
0002c0 58 18 a2 3d 88 41 57 bd e6 0a d8 3c 01 91 5a 3d
       0.079147995 -0.05255273 0.026372384 0.053360943
0002d0 9b 15 04 bd d3 46 6d 3d ca 2a 0b 3d 29 a6 0d bd
       -0.032247167 0.05792887 0.033976354 -0.03458229
0002e0 cc ab c3 3c da 7d 64 bd b9 dd a0 3d 66 1a 31 3d
       0.02388563 -0.055784084 0.0785479 0.043238066
0002f0 1e c0 d3 bb 6d 70 88 3c 97 16 9a 3d 02 7b a3 3d
       -0.006462111 0.016655171 0.0752384 0.07982446
000300 f2 0a 8e bc 65 8d f0 bc 37 93 ae bc 0e 2b 62 bd
       -0.017339204 -0.029364297 -0.021310432 -0.05521684
000310 6e 33 37 bc 81 12 5d bd 27 20 03 3d 6b 68 31 3d
       -0.011181695 -0.053972725 0.032013085 0.04331247
000320 5e b7 a8 bd a4 44 25 bd df f3 35 3d c3 01 a2 3d
       -0.082380995 -0.040348664 0.044422027 0.07910492
000330 74 2b ff bb 97 28 38 bd 8a 56 7c 3d e8 f3 0f bd
       -0.0077871624 -0.044960584 0.061605968 -0.035144717
000340 03 62 63 bc 66 6c 24 3d 43 1a 28 3c f3 3c eb 3c
       -0.013878348 0.04014244 0.0102601675 0.028715586
000350 39 df 92 bd b3 4e 65 3d 86 c2 5e 3d 4f b4 a4 bd
       -0.071714826 0.055983257 0.05438473 -0.08042204
000360 4a b6 b6 bd 99 8a e3 3c 9e 34 2d 3d 85 8f 87 3d
       -0.08921488 0.02777605 0.042286508 0.06619171
000370 96 fe a2 3d fe 91 bf bc ba e8 77 bc d1 4a c7 3b
       0.07958715 -0.023385044 -0.01513117 0.006081917
000380 7c 5f d9 3c 2a 7b 62 bd b2 dd 95 bd 54 88 37 bd
       0.026534788 -0.05529324 -0.07317676 -0.044807747
000390 a3 fc 6b 3d fb 43 50 3d ec a9 eb 3c 49 7e 99 3d
       0.05761398 0.05084608 0.028767549 0.0749479
0003a0 a9 a1 a0 bd cc f3 9b bd e9 5b 17 3c bc 83 6f 3d
       -0.07843334 -0.0761486 0.009238222 0.05847524
0003b0 29 1a 30 bd 4d a5 a7 bd 03 1e df bc 3b d3 69 bb
       -0.0429937 -0.081858255 -0.02723599 -0.0035678882
0003c0 fd fd a8 bd 9e 10 31 3d 2c 57 f6 3c e9 38 a1 bd
       -0.082515694 0.043228738 0.030070864 -0.07872183
0003d0 11 1c 90 bd bb 7b 7a bd 4b 71 96 3d a4 59 55 3d
       -0.07036603 -0.061153155 0.07345828 0.05208744
0003e0 a1 f4 72 bd 92 f7 50 3d bc b5 85 3d 0d 99 08 bd
       -0.059315328 0.05101735 0.06528804 -0.033349086
0003f0 c8 64 b4 3c 4f 95 aa 3d 51 25 a8 3d 91 2f 38 3d
       0.022020712 0.083292596 0.082102425 0.044967238

actor.linear4.bias f4 [9]
000000 93 0b af 3b 6e 91 29 3d 3a ba 4f bd b7 1b 4e 3d
       0.005341956 0.04139846 -0.05071471 0.0503194
000010 de a0 1f bd 1f a4 ab 3d ed 6a 88 bd ab 55 6a 3d
       -0.038971774 0.08380913 -0.066610195 0.057210606
000020 36 e0 e9 bc
       -0.028549295

critic.linear1.weight f4 [128, 120]
000000 57 fb 9d bd da e8 01 3c 2c 82 bf 3d 07 4c 62 bd
       -0.07713955 0.007929051 0.09351 -0.055248287
000010 a6 6f a3 bd ad ff b6 bd 76 02 7d bd 37 0d 94 3d
       -0.079802796 -0.08935485 -0.061769925 0.07229083
000020 c3 38 09 3d 40 08 c1 bd 49 d2 ab 3d f1 49 bb bd
       0.033501398 -0.09425402 0.08389718 -0.091449626
000030 49 53 8a 3d c3 1a 2b 3c 72 fa 55 3c e4 f0 b5 bd
       0.06754167 0.010443392 0.013060199 -0.08883837
000040 ab cd b5 3d a8 37 c8 bd 47 7c cd 3c 72 34 7c bd
       0.08877119 -0.097762406 0.025083674 -0.061573453
000050 dd 55 b5 3d 9b 06 0f bd 1a 2e 62 bc 89 86 2c bd
       0.08854268 -0.03491841 -0.013804937 -0.04212049
000060 8d 79 e7 bc 4e 04 35 3d 02 58 12 3d a0 90 20 3c
       -0.028256202 0.04419356 0.035728462 0.009800106
000070 4d 0f 0b bd 58 00 a7 bc db 3c 0a bd 09 d7 91 3d
       -0.03395014 -0.020385906 -0.033749443 0.07121093
000080 2f d6 71 bd d3 42 37 3b fa 98 1f 3b 1e 1b 28 bd
       -0.059042152 0.0027963414 0.0024352656 -0.041041486
000090 51 46 c7 3b 09 87 12 bd 35 b4 3e bd df 93 c0 bc
       0.0060813804 -0.03577331 -0.046558578 -0.02350801
0000a0 47 7a 6c 3d a5 15 98 3b bd b7 ec 3c 09 3a 75 bd
       0.0577338 0.004641252 0.028896207 -0.0598698
0000b0 d7 ab 9c 3b d6 b6 3e bc 51 90 a4 3d fa 6c a1 3d
       0.004781227 -0.011640271 0.08035339 0.07882114
0000c0 51 d3 da 3c fa ec a7 bb 7c f2 98 3d 53 35 da bc
       0.026712092 -0.0051246854 0.07468125 -0.026636755
0000d0 86 e1 6f bd 9e 7f ac bc b0 57 2e bd 3d 76 d2 3d
       -0.058564685 -0.021056946 -0.042564094 0.102764584
0000e0 ea e7 76 3d 02 d9 cc bc c1 61 e6 3c e8 11 1d bc
       0.060279764 -0.025005821 0.028122785 -0.009586789
0000f0 bc 13 aa bc 7d 19 75 bc 48 3d bf bd bd 86 52 bd
       -0.020761363 -0.01495969 -0.0933786 -0.051398028
000100 ee 12 b8 bd 24 8e b6 bd 93 c6 21 3c 00 d5 74 bd
       -0.089879856 -0.0891383 0.009874004 -0.059773445
000110 af 50 14 bd f5 96 44 3d 70 ee ad 3d 9d 51 3e bd
       -0.03620976 0.047995526 0.08492744 -0.04646455
000120 28 00 9a bd 70 d3 b7 bd 02 b9 80 3d 2e 2f 0c 3d
       -0.07519561 -0.089758754 0.062852874 0.03422468
000130 9a d3 95 3d 1e 83 41 3d 97 c2 be 3d 8a 5b 95 3d
       0.073157504 0.047244184 0.09314459 0.0729285
000140 e8 2f 07 bd db fb 91 bd 9e 38 50 3d 14 d3 70 3d
       -0.03300467 -0.07128116 0.050835244 0.05879505
000150 0a 18 e4 bc 41 68 95 3d 68 e0 56 3d 75 f7 4d 3d
       -0.027843494 0.072952755 0.052460104 0.05028482
000160 58 20 b8 bd d4 e3 e3 3c cf 12 77 3d 61 45 04 bc
       -0.08990544 0.027818598 0.06032067 -0.008073182
000170 e7 fe 69 3d 48 5e 04 bc f4 4f d1 bd 53 9f 5b 3d
       0.05712786 -0.008079119 -0.10220328 0.05361874
000180 35 21 3d bd 1c 9c 4d bc 07 ec 5c bd 0f 55 78 bd
       -0.046174247 -0.012549426 -0.05393603 -0.060627993
000190 79 1d 48 3d 05 a7 27 3d ff b9 55 bd 06 25 d1 3c
       0.048856232 0.040930767 -0.052179333 0.02553035
0001a0 6b ad 9f bd 08 4a d0 3d 59 18 81 bd e1 0c a3 bc
       -0.07796749 0.1017037 -0.06303472 -0.019903602
0001b0 2b 7b a0 3c 7e e8 28 bd b2 8a 8f 3d 38 0e b0 bd
       0.019589981 -0.041237347 0.07008876 -0.08596462
0001c0 26 31 bc 3c f9 b6 98 3d f2 d8 e0 bc 30 b1 28 3c
       0.022972655 0.07456774 -0.027447198 0.010296151
0001d0 a4 a1 85 3d 44 91 8d 3d 32 77 9d bd d0 f0 ad 3c
       0.06524971 0.06912473 -0.0768875 0.021232992
0001e0 86 1a b0 3d 0f 86 28 bd cb 9c 84 3b 72 5c ca bd
       0.08598809 -0.041143473 0.0040470115 -0.09880914
0001f0 a2 ca b6 bd d4 92 38 bd e9 cb be 3d 8e da 72 3d
       -0.08925368 -0.0450619 0.093162365 0.05929046
000200 de 6a 84 bd 10 14 5b bd 89 c1 8f bd 1f 38 78 bd
       -0.06465696 -0.05348593 -0.07019336 -0.060600396
000210 12 84 99 bd 79 17 e0 3c c8 c9 43 bd ab 27 98 bd
       -0.074958935 0.027354943 -0.047799855 -0.07429441
000220 43 5f 60 3d 4c b1 8c bd c5 22 a0 3d 44 f0 ac 3d
       0.05477835 -0.06869754 0.07819132 0.084442645
000230 d1 a8 b4 3d 35 ac 37 bc 52 87 b4 bb 92 66 aa bc
       0.08821262 -0.011210491 -0.0055092955 -0.020800862
000240 ba 6c b7 3d 01 ad 08 bb 96 ab bf bc 57 d5 9e bd
       0.08956285 -0.0020855071 -0.023397248 -0.07755535
000250 d3 cd ac 3c 10 cd 8e 3d ab 6a 02 bc 74 6e 8c 3d
       0.021094238 0.06972706 -0.007960002 0.06857005
000260 c7 ee 3f ba 2f 43 58 3c 93 d1 f0 bb 3d 85 8a bd
       -0.00073216524 0.013199612 -0.007349202 -0.067636944
000270 6b 15 34 3d 44 9a d7 bc 95 e6 ae 3d 60 87 9c bd
       0.04396574 -0.026318677 0.08540074 -0.07643008
000280 ca 5f 91 3d 41 d3 97 bc 5f 99 1c 3c 74 30 7e bd
       0.070983484 -0.01853335 0.009558051 -0.062057927
000290 bf 3a 93 bd 33 d8 5a 3d 21 f8 4e 3d 31 35 ca 3b
       -0.07188939 0.05342884 0.050529603 0.0061708917
0002a0 a0 18 28 3d 63 8b 35 bd 8a 26 8a 3c a6 ed 59 3d
       0.04103911 -0.044322383 0.01686408 0.053205155
0002b0 17 5f 7b 3c 67 b1 bf 3d 12 16 d9 bc 3f d0 b9 3d
       0.015342495 0.09360009 -0.026499782 0.09072923
0002c0 80 51 9a 3d 79 03 5f bd f7 de f4 3c 26 92 7e 3d
       0.07535076 -0.05444667 0.029891474 0.062151097
0002d0 ce 42 6a 3d 6a 22 35 bd e0 b0 b5 bc 93 24 8d bd
       0.057192616 -0.044222273 -0.022179067 -0.068917416
0002e0 db 7f cb 3b 83 fc aa 3d 0f 2b 1e bc b0 0a 35 bd
       0.00621031 0.08348944 -0.009653821 -0.044199646
0002f0 79 a0 30 bc d0 72 7e bd 45 96 2b bd 3d db 0f 3c
       -0.010780447 -0.062121212 -0.041891355 0.008780298
000300 e5 6f fc bc a3 00 6c 39 8d 1f 7c bd 64 4f cb bd
       -0.030815074 0.00022506951 -0.061553527 -0.09927252
000310 d0 2c 47 3d eb 5b af bc bd 2f 78 bd 3c f6 97 3c
       0.04862672 -0.021406135 -0.0605924 0.01855003
000320 42 9b 74 bd 91 f9 f5 3c 4c 02 bf bd cc 1b 0b 3c
       -0.059718378 0.03002623 -0.0932661 0.008490514
000330 01 b6 21 3d d3 3f ba 3d 05 85 58 3d a3 97 03 3b
       0.039480213 0.09094205 0.052861232 0.0020079396
000340 5b 51 64 3d 03 86 79 bd fe 77 a4 bd b8 87 b9 39
       0.05574165 -0.06091882 -0.08030699 0.00035387068
000350 ee 29 52 3d 34 58 4d 3d ea aa 08 3d 10 7d 7e 3d
       0.05130952 0.050132945 0.03336612 0.062130988
000360 7b aa 85 3d c6 b0 60 3c 47 8f 8c 3d 88 1a 21 bc
       0.06526657 0.013714021 0.068632655 -0.009832986
000370 21 18 a0 3d bc ef a8 3d 90 98 0e bd 7a 62 ab bc
       0.07817102 0.08248851 -0.034813464 -0.02092098
000380 8b 9b bd bc 57 3e f5 3a 8c 18 6f 3d 13 58 7d bd
       -0.023145458 0.0018710595 0.05837302 -0.061851572
000390 86 cd 5b bc 52 50 34 3d 44 17 a0 3d 30 3e 40 bd
       -0.0134157 0.044021912 0.078169376 -0.046934307
0003a0 df 20 c1 3d a3 e5 0e 3d 28 24 1d 3d 4d 42 78 3c
       0.09430098 0.034886967 0.03836456 0.015152526
0003b0 78 d8 ce bc e4 91 9c 3d f8 9d 6e 3d 6e a4 24 3d
       -0.025249705 0.07645014 0.05825612 0.040195875
0003c0 8f 82 7e 3d cd a1 4b bd af 00 41 3c 91 c4 d0 bd
       0.06213623 -0.049714852 0.011779948 -0.10193742
0003d0 5a c6 01 bd 8d 6e 63 3d 73 9f 8f 3d b7 eb ed 3c
       -0.031683303 0.05552535 0.070128344 0.029043062
0003e0 29 2e 83 3b 4e f0 b7 bc e6 78 5d 3d 88 e5 a6 bb
       0.0040033055 -0.022453453 0.054070376 -0.00509328
0003f0 aa 15 3a 3d f6 47 ce 3a 88 70 d4 b8 3f c7 8e 3d
       0.045430817 0.0015737999 -0.00010129908 0.06971597

critic.linear1.bias f4 [128]
000000 4b f9 c2 3d f9 19 1d bd c3 01 4e 3d 57 a3 98 bd
       0.09520205 -0.038354848 0.05029465 -0.074530296
000010 40 6a c7 bc 02 1c 95 3d a6 ad 67 3d 48 2f 86 3d
       -0.024342656 0.07280733 0.05656209 0.06551987
000020 ed 1f 92 bd a8 7b 75 bd 9b c1 88 3d 4d db 95 bd
       -0.071349956 -0.05993238 0.06677552 -0.07317219
000030 36 d1 8d 3d cb 24 31 bb 4b 0b d6 bc 6a e1 8f 3d
       0.069246694 -0.0027029987 -0.026128432 0.07025416
000040 5a 1a 71 3d da 04 90 bc b2 f2 13 3d 20 d6 63 3b
       0.05886302 -0.017580438 0.036120124 0.003476508
000050 94 25 a3 3d bf ce 8d bd b0 8e 77 3d c2 65 9a 3d
       0.07966152 -0.06924199 0.06043881 0.0753894
000060 2b 5c b7 bd 45 57 26 3d dc e9 19 3d 48 5d 86 bd
       -0.089531265 0.04061057 0.03757654 -0.06560761
000070 f1 4d b0 bd 65 2c 91 bd e7 21 2c bd d1 dc c3 3d
       -0.08608616 -0.07088546 -0.04202452 0.09563602
000080 31 ab 79 bd ce e5 87 3c a3 d9 a0 bd ed 24 52 bd
       -0.060954276 0.016589072 -0.07854011 -0.051304746
000090 b3 16 2e 3d 88 ee e8 bc bb 69 d4 3d 7a 76 a9 3c
       0.042502116 -0.028434053 0.10371729 0.020686377
0000a0 0b 99 3a 3c 98 b0 36 bd df 3f 9f bd cf 1d 28 bd
       0.011389027 -0.044602007 -0.07775854 -0.041044053
0000b0 95 43 15 3d 4e 71 08 3d 0b 8c 9e 3c 8a 8b b2 3d
       0.036441404 0.03331118 0.019353887 0.08718021
0000c0 04 69 b1 3d d7 70 86 bd c9 34 6c 3c 07 9a 52 3d
       0.08662608 -0.06564491 0.014416882 0.051416423
0000d0 dd 62 75 3a 07 64 1e 3d 88 5f 5b bd 0d 34 0c bc
       0.000936074 0.038669612 -0.053557903 -0.008557332
0000e0 57 4e ea bb 60 84 31 bc 19 16 1f bd a9 80 ee bc
       -0.007150452 -0.010834783 -0.038839433 -0.029114084
0000f0 04 cc ae bc 28 2b 57 bd 0a 2b 18 3d 73 12 ae 3d
       -0.021337517 -0.05253139 0.03715042 0.08499613
000100 b1 54 8c 3d f9 fd a9 bd 55 7b 0e bd a6 0c 40 bd
       0.06852091 -0.083003946 -0.034785587 -0.046887062
000110 2b e6 b4 3c d6 e5 b3 3d 5a 8e c1 bd a2 d6 b4 bd
       0.022082409 0.08784072 -0.094509795 -0.088300005
000120 29 f6 b6 3d 39 2a b8 3c 37 06 aa 3d 28 17 8c 3d
       0.0893367 0.02248107 0.08301967 0.06840354
000130 da 59 6f 3d 68 1d 5e 3d b3 fb 88 3d d5 eb 47 3d
       0.0584353 0.054227263 0.06688633 0.04880889
000140 48 ca ae 3d a3 1c 8b bb 36 e8 44 bd dd 21 cf 3c
       0.08534676 -0.004245357 -0.048073016 0.025284702
000150 98 e9 17 bd 5f c3 ce bd 3c 97 4e 3c df 1c f2 3c
       -0.037088007 -0.10095858 0.012609299 0.029554782
000160 c4 38 1d bb b1 f8 83 3d 6f 05 01 bc 56 ed ae bd
       -0.0023990134 0.064439185 -0.007874831 -0.08541362
000170 38 d7 bc bd 4a 1c 9d bd a4 80 e2 bc 5e 9c 45 bd
       -0.09220737 -0.07671411 -0.027649231 -0.048244826
000180 45 6c a3 bd 4a dc ab bc 9d 80 86 3d 7c 19 a1 ba
       -0.07979635 -0.020979065 0.065675 -0.001229092
000190 90 ac 22 3d 6e 6d da 3b 60 b3 02 bd 1d c4 bf 3c
       0.03971535 0.006665877 -0.031909347 0.023408944
0001a0 f2 cf 01 bd 38 d6 b4 bb 43 4f 46 bc 59 ea b5 bc
       -0.031692453 -0.005518701 -0.012103858 -0.022206472
0001b0 e0 5f 96 3d 42 26 9b bc ad 50 58 3d 51 35 6f bd
       0.073425055 -0.018939141 0.052811313 -0.058400456
0001c0 99 5d 8d 38 a8 41 a6 3d 31 cc b3 3c a4 4a 8f 3d
       6.740838e-05 0.08117992 0.021947952 0.069966584
0001d0 5b 77 56 bd 76 b7 4b ba 41 6d 41 3d 9f 1f a8 bd
       -0.05235992 -0.0007771173 0.047223333 -0.08209156
0001e0 4e 5c aa 3d 45 8f 12 3c 3e 93 64 bd b3 d7 a3 bd
       0.08318387 0.008945291 -0.055804484 -0.08000126
0001f0 07 1a cd bb 93 27 93 3d d3 2a 96 3c 19 35 5b 3d
       -0.006259206 0.071852826 0.018330967 0.053517435
