hover_falcon_raw_ckpt/ckpt_00009501.pt (torch, 903159 bytes, 15 tensors)

actor.linear1.weight f4 [128, 120]
0.025786754 0.022394294 0.06990543 0.05712191 -0.055126797 0.07615689 0.045878675 -0.03418146
0.0561368 -0.035645597 -0.011448867 -0.020400394 -0.06401295 0.13692787 -0.045708127 0.005419009
0.076935045 0.028246202 0.03667964 -0.030338597 0.055530805 -0.0023335186 -0.063275725 -0.07179732
-0.04708911 0.017171014 0.0352955 0.0069378586 -0.07862567 0.07310465 0.011408221 -0.11327162
-0.050660297 -0.0010791623 0.022418454 -0.072655916 -0.052675698 -0.034096885 0.07439523 -0.018344663
0.031274293 -0.08050533 -0.0074809208 -0.0923815 -0.0015067601 -0.007037554 -0.050619483 0.009017255
-0.055173963 0.07566323 -0.06541767 0.0150424745 0.06516532 -0.022371667 -0.043603685 0.07068696
0.014215917 -0.027034352 -0.09623227 -0.049997192 0.010134414 0.13758135 0.017299952 -0.11975232
-0.030339653 0.01040469 0.084039986 0.08211501 0.08377566 0.01361797 0.027982803 -0.072774015
-0.02758154 -0.08378583 0.09115399 -0.07679297 0.09570759 0.025309548 0.070437305 -0.010122505
0.008825843 0.034069926 -0.066852845 -0.05667086 -0.02008072 0.07768751 -0.06086499 -0.04386252
0.08912049 -0.082712024 0.06077063 0.028020449 -0.01732485 0.049091145 -0.07855073 -0.033927083
-0.016579783 0.08635613 0.05265357 0.012936596 -0.037999388 -0.011397004 0.0054827067 0.07576163
0.05109159 -0.08183375 -0.03703811 0.026738157 -0.019328317 0.1093643 0.05046627 -0.09930679
0.0011407164 -0.00095883646 0.057946105 0.015116512 -0.088572174 -0.03907505 0.009662451 0.052474435
-0.0073587806 0.013123742 -0.010480706 0.054817513 -0.083280556 0.07636086 -0.011769022 -0.025474334
0.040490173 0.050702628 -0.033057738 0.015840132 -0.013371476 -0.052118875 0.009451125 -0.09779153
-0.061892696 -0.08775128 -0.028286967 -0.017828155 0.043351118 0.02660896 0.060181815 0.025291916
-0.050007638 0.019842854 -0.08673927 0.08359516 -0.09173589 0.105912395 0.008687803 -0.04289556
0.0360241 -0.07622386 -0.010067772 -0.06589593 -0.047777496 -0.017284421 -0.026029116 -0.07186553
0.040252388 -0.0676127 -0.0036343911 -0.07141953 -0.08606169 0.08376008 0.024172947 -0.04932106
0.013505483 -0.04098967 0.059965815 -0.042173002 0.08689899 0.03348914 0.03303646 -0.013451459
0.04434584 -0.001920527 0.035403702 0.07295256 0.04264472 0.012833113 -0.027121596 0.045376815
0.025303353 -0.07361502 0.084374085 0.058387965 -0.07997448 0.04144167 -0.06719436 0.008143082
-0.038216155 -0.03513573 0.017434817 -0.033784974 0.010535148 0.04772924 0.06339873 -0.055044714
0.04274475 0.00059192325 0.016865263 0.00867327 -0.022236899 0.066562004 0.07907958 0.08984061
-0.05806684 -0.032363188 -0.008193333 0.04860418 -0.033935685 -0.020229343 0.07234231 -0.09921986
0.004261054 -0.062122364 -0.018069051 -0.08362599 -0.042539623 0.027539445 -0.04018226 0.052301202
0.065392755 0.0028346668 0.068468064 0.035904083 -0.019760301 0.048334666 0.09383005 -0.09222161
-0.026907058 -0.02777063 -0.06869036 0.04756954 0.059132386 0.036129568 -0.0128302425 -0.028021447
-0.079484634 0.021350829 0.06766066 0.0026005518 -0.0063864943 -0.06193359 0.099050865 -0.06380932
0.060444053 -0.0009935184 -0.08958113 -0.10035839 0.0056234375 -0.048898797 0.012592832 -0.091771655
00000000: be3e d33c 3d74 b73c 942a 8f3d aaf8 693d
00000010: a3cc 61bd 25f8 9b3d 47eb 3b3d dc01 0cbd
00000020: b4ef 653d 1e01 12bd 0794 3bbc ba1e a7bc
00000030: 3919 83bd d236 0c3e 7238 3bbd f191 b13b
00000040: 1f90 9d3d 9464 e73c 643d 163d a688 f8bc
00000050: 4574 633d f2ed 18bb b496 81bd 790a 93bd
00000060: 83e0 40bd 3aaa 8c3c 0492 103d fa56 e33b
00000070: 7f06 a1bd e4b7 953d 8ce9 3a3c f3fa e7bd
00000080: 2c81 4fbd ae72 8dba e8a6 b73c a0cc 94bd
00000090: 79c2 57bd 2da9 0bbd 875c 983d 8c47 96bc
000000a0: 7919 003d fadf a4bd 8322 f5bb 8332 bdbd
000000b0: 7b7e c5ba 489b e6bb 6056 4fbd 1cbd 133c
000000c0: 18fe 61bd 53f5 9a3d b3f9 85bd b674 763c
000000d0: 6575 853d c944 b7bc c799 32bd 53c4 903d
000000e0: e1e9 683c 2577 ddbc 6d15 c5bd dbc9 4cbd
000000f0: d00a 263c 20e2 0c3e a1b8 8d3c b440 f5bd
00000100: dd8a f8bc 6f78 2a3c 281d ac3d ea2b a83d
00000110: 9392 ab3d e81d 5f3c 313c e53c 8b0a 95bd
00000120: aff2 e1bc e897 abbd f1ae ba3d a245 9dbd
00000130: 5702 c43d f855 cf3c 6f41 903d ddd8 25bc
00000140: 459a 103c e88c 0b3d 25ea 88bd b41f 68bd
00000150: 5280 a4bc a11a 9f3d 914d 79bd 30a9 33bd
00000160: ce84 b63d ec64 a9bd a0ea 783d 248b e53c
00000170: d8ec 8dbc cc13 493d 35df a0bd 20f7 0abd
00000180: 53d2 87bc 7cdb b03d 45ab 573d 04f4 533c
00000190: 3fa5 1bbd 80ba 3abc 47a8 b33b ea28 9b3d
000001a0: 6a45 513d 7498 a7bd 46b5 17bd fb09 db3c
000001b0: 6b56 9ebc 64fa df3d b8b5 4e3d 5c61 cbbd
000001c0: 1784 953a 6d5a 7bba e558 6d3d 3fab 773c
000001d0: 5465 b5bd 290d 20bd 424f 1e3c 6fef 563d
000001e0: ed21 f1bb f704 573c 44b7 2bbc 5488 603d
000001f0: ff8e aabd 1563 9c3d dbd2 40bc 8daf d0bc
00000200: 06d9 253d 8fad 4f3d 8d67 07bd 2ac3 813c
00000210: 0914 5bbc 9a7a 55bd e4d8 1a3c ed46 c8bd
00000220: 3283 7dbd f1b6 b3bd 12ba e7bc 5a0c 92bc
00000230: f190 313d 09fb d93c 3581 763d fe30 cf3c
00000240: cfd4 4cbd 7b8d a23c 5ca4 b1bd f033 ab3d
00000250: 07e0 bbbd 99e8 d83d 4957 0e3c 41b3 2fbd
00000260: 028e 133d 411b 9cbd 4cf3 24bc 72f4 86bd
00000270: 56b2 43bd 0f98 8dbc 033b d5bc 3c2e 93bd
00000280: b0df 243d 8778 8abd f72e 6ebb 6744 92bd
00000290: 1c41 b0bd 688a ab3d 5806 c63c e104 4abd
000002a0: 1a46 5d3c c9e4 27bd b79e 753d 99bd 2cbd
000002b0: 19f8 b13d e92b 093d 3d51 073d 8263 5cbc
000002c0: fca3 353d 31ba fbba 7903 113d 2768 953d
000002d0: 3bac 2e3d fa41 523c 1c2e debc 0add 393d
000002e0: fa48 cf3c 79c3 96bd 52cc ac3d 3828 6f3d
000002f0: a9c9 a3bd bebe 293d 329d 89bd 906a 053c
00000300: 8b88 1cbd 7cea 0fbd 76d3 8e3c 1d62 0abd
00000310: 9d9b 2c3c bc7f 433d 31d7 813d 9176 61bd
00000320: 1e15 2f3d 4c2b 1b3a 0529 8a3c 551a 0e3c
00000330: 282a b6bc a951 883d 7af4 a13d 5bfe b73d
00000340: 7fd7 6dbd 438f 04bd 543d 06bc 2d15 473d
00000350: 2500 0bbd 02b8 a5bc 3428 943d c833 cbbd
00000360: 50a0 8b3b 0574 7ebd 8c05 94bc 1a44 abbd
00000370: 073e 2ebd 679a e13c 2796 24bd c939 563d
00000380: a3ec 853d d1c5 393b fc38 8c3d 2910 133d
00000390: 5be0 a1bc 92fa 453d f829 c03d afde bcbd
000003a0: 316c dcbc 3b7f e3bc 88ad 8cbd 47d8 423d
000003b0: cd34 723d 99fc 133d f035 52bc 3c8d e5bc
000003c0: d7c8 a2bd efe7 ae3c ac91 8a3d 056e 2a3b
000003d0: cc45 d1bb 13ae 7dbd 2edb ca3d 76ae 82bd
000003e0: 2f94 773d f238 82ba 5076 b7bd b388 cdbd
000003f0: d044 b83b 1b4a 48bd 2a52 4e3c c7f2 bbbd

actor.linear1.bias f4 [128]
-0.052877277 -0.00770663 -0.03679171 -0.047445606 0.09423599 0.037539214 0.09734449 0.04568735
-0.009738638 0.07208268 0.036600195 0.059511304 -0.036292054 -0.08226903 -0.058473248 -0.066725574
-0.076360606 0.07171095 -0.014283272 -0.05532245 0.0329781 0.009984911 0.06161679 0.0744941
-0.06891807 0.037251387 0.06899059 0.089766346 0.04700211 0.02134574 -0.074514605 -0.08871147
0.07302129 -0.014061668 0.05291279 -0.07266868 0.005672903 -0.028490731 0.051401593 -0.047508784
-0.060983844 -0.077314146 -0.078167655 -0.070817515 0.0773573 -0.09430272 0.049653303 0.08919849
-0.03308544 0.030380826 0.033373505 -0.07792088 0.09655354 0.093331635 0.010030913 0.05893642
0.007513249 0.07516911 -0.047388155 0.026196912 -0.03863172 -0.05553596 0.07858105 0.06655122
0.0028276737 -0.022558168 0.020563766 0.010533681 -0.0016907958 0.030693581 0.0630566 0.055597953
0.005341328 -0.046692334 -0.081205234 0.054949947 0.05671598 -0.009137821 0.0038374127 -0.015308958
0.0757184 -0.020009205 0.01968789 -0.045555957 0.032530375 -0.07670259 0.060895536 -0.066115044
0.013814359 -0.0027916192 -0.014404837 -0.005069583 0.0693186 -0.059488963 -0.0023983924 0.05061659
0.093888454 -0.0004380024 0.06297538 0.07114971 -0.053436663 -0.08082805 0.051961526 -0.02292034
0.07023523 -0.05932702 0.07934406 0.08683986 -0.0016403662 0.018431235 0.06361436 -0.033841837
-0.056900214 -0.06764718 0.026370032 -0.022706678 0.0024159309 -0.04848108 0.009033273 0.0442605
0.08348858 0.07034694 -0.028930336 -0.0657279 -0.0093546845 -0.0015286936 -0.01923808 -0.034580864
00000000: d895 58bd e687 fcbb e7b2 16bd 5356 42bd
00000010: ccfe c03d b8c2 193d 8c5c c73d a922 3b3d
00000020: cf8e 1fbc 16a0 933d 16ea 153d 20c2 733d
00000030: faa6 14bd aa7c a8bd a581 6fbd 6ba7 88bd
00000040: f362 9cbd 31dd 923d 6304 6abc cb99 62bd
00000050: 0b14 073d c197 233c e361 7c3d 5d90 983d
00000060: eb24 8dbd e994 183d f04a 8d3d 6bd7 b73d
00000070: 4985 403d 43dd ae3c 1d9b 98bd 5cae b5bd
00000080: 308c 953d e962 66bc 15bb 583d 51d3 94bd
00000090: c2e3 b93b 6565 e9bc 7a8a 523d 9298 42bd
000000a0: 32ca 79bd e156 9ebd 5d16 a0bd c608 91bd
000000b0: 816d 9e3d c921 c1bd 4361 4b3d b3ad b63d
000000c0: 9984 07bd 36e1 f83c a8b2 083d fb94 9fbd
000000d0: ddbd c53d a824 bf3d b358 243c 5167 713d
000000e0: b331 f63b 43f2 993d 151a 42bd e89a d63c
000000f0: 4b3c 1ebd ad79 63bd 1aef a03d 024c 883d
00000100: 7e50 393b e8cb b8bc 5875 a83c 7695 2c3c
00000110: b19d ddba 1b71 fb3c d223 813d aeba 633d
00000120: 4f06 af3b 7640 3fbd ee4e a6bd 3213 613d
00000130: 044f 683d cdb6 15bc 1a7d 7b3b 6cd2 7abc
00000140: 4012 9b3d 58ea a3bc 7f48 a13c e298 3abd
00000150: 923e 053d 3f16 9dbd 996d 793d 5367 87bd
00000160: 9f55 623c 99f3 36bb 4402 6cbc bf1e a6bb
00000170: e9f6 8d3d b3aa 73bd 592e 1dbb 5753 4f3d
00000180: 9748 c03d b0a3 e5b9 3cf9 803d f0b6 913d
00000190: 67e0 5abd 2d89 a5bd 9cd5 543d 70c3 bbbc
000001a0: 7dd7 8f3d e400 73bd 237f a23d 19d9 b13d
000001b0: 8e01 d7ba 1afd 963c 3f48 823d bd9d 0abd
000001c0: 3310 69bd 9b8a 8abd f705 d83c 5b03 babc
000001d0: 9854 1e3b 1994 46bd 4b00 143c 804a 353d
000001e0: 10fc aa3d 0e12 903d 50ff ecbc 599c 86bd
000001f0: 6444 19bc 725e c8ba 2e99 9dbc aaa4 0dbd

actor.linear2.weight f4 [128, 128]
0.010052019 0.029406387 0.08444999 -0.06391463 0.01527128 -0.000714702 -0.020805966 0.07301683
-0.07313686 -0.05873979 -0.025645388 0.07359098 0.05971564 0.012802694 -0.059586488 -0.014382475
0.018703833 0.050797485 -0.029416954 0.00021698265 -0.094015084 0.036558114 -0.015790949 -0.046778955
-0.047325216 0.08737227 0.041204773 0.07363676 0.010852398 0.03506836 0.07462918 0.032946292
-0.07579737 -0.094482295 -0.06612535 -0.08661396 0.07591839 0.004385103 -0.044622373 0.05902986
-0.06141503 -0.04825069 0.005099583 -0.022170061 0.081399016 -0.016907653 -0.0095518865 0.09233216
-0.0017148479 0.027194414 0.012126742 -0.08361617 0.061851073 0.00813097 -0.021460187 -0.06742414
0.011269681 -0.041097607 -0.009944614 0.028385099 -0.046435196 0.04274749 -0.017873311 -0.04074758
0.073730856 0.08474851 0.029837994 -0.049915954 0.041229874 0.018873377 -0.023469709 0.071447164
-0.03361712 0.0046424926 -0.04356115 -0.050068837 -0.0668044 -0.07098862 0.088064745 0.081488796
0.09093666 0.009702041 0.07826864 -0.072897516 0.03536487 -0.059073795 0.0013875258 0.064586684
-0.03297592 -0.06141356 -0.087817356 0.023710696 -0.075278044 0.06939365 0.011635117 0.036663227
-0.0076249945 -0.05895143 0.026584715 0.07778603 -0.03787654 -0.08392705 -0.046153445 0.02625519
0.04208535 0.014965965 -0.0881632 0.023817802 0.07362629 0.024428621 0.079226576 -0.06190405
-0.07059652 0.053389538 0.049036138 0.06804715 -0.013607498 -0.027001003 0.025493558 -0.051958516
-0.098505855 0.07633258 -0.002315678 -0.051993314 0.062259845 0.06974864 -0.07435241 0.06549095
0.10522677 0.071732804 0.065006636 0.0071780817 0.029327342 0.057685796 -0.03689742 0.051481366
-0.01831224 -0.06660374 -0.06800991 0.014710157 0.107289135 0.046848834 0.059000913 -0.06867485
0.023401508 0.035895586 0.06282396 -0.032762278 -0.0100302305 0.03370523 0.010624238 -0.04276288
-0.08096515 0.00854232 0.029737711 -0.03436019 -0.068870686 -0.029161582 -0.05612576 0.031054853
-0.01770831 0.08372477 -0.040066186 -0.02258594 -0.07952346 -0.052722048 -0.006199237 -0.011023693
-0.045397006 -0.065476105 -0.059657123 -0.002036679 0.05450863 0.004621208 -0.04772361 0.032055393
0.05019427 -0.037708584 -0.030621665 0.00022960895 0.07853839 -0.065347254 0.07850411 -0.032045197
-0.009348581 0.045057096 -0.086129874 -0.054877166 0.06153399 -0.028247468 0.016462047 -0.09131688
0.06472899 0.0695435 0.09212402 -0.02655724 -0.029393181 0.046640445 -0.023983682 -0.009008761
0.07509332 0.0029904803 0.021839112 0.07928518 -0.012380527 0.05721471 -0.08878385 0.05475657
-0.04920159 0.07974763 -0.08542431 0.026027342 0.00938434 0.03151316 -0.061475303 0.018239679
0.0797983 -0.05308611 0.07029599 0.017880501 0.0037857713 0.044853043 0.07388816 -0.0655336
-0.065924026 -0.0147293685 0.078763776 0.07098306 -0.099075325 -0.012300004 0.022053244 -0.01665048
0.0051421844 0.0923982 -0.06759057 0.07263605 -0.039204396 0.052168082 -0.07994062 0.07323933
-0.013970006 0.039761364 -0.085487284 0.07741904 -0.07659575 0.06368319 -0.06544143 0.07070787
0.026186261 0.06739559 0.034031376 0.00844035 0.06320707 0.00984725 0.06926066 0.088081315
00000000: 39b1 243c aae5 f03c 1ef4 ac3d ace5 82bd
00000010: 6434 7a3c d75a 3bba 4671 aabc d989 953d
00000020: c7c8 95bd 2299 70bd 4716 d2bc deb6 963d
00000030: 6398 743d 64c2 513c f610 74bd 79a4 6bbc
00000040: c838 993c 0611 503d d3fb f0bc d685 6339
00000050: fb8a c0bd f6bd 153d 055c 81bc 4a9b 3fbd
00000060: 16d8 41bd 3cf0 b23d 56c6 283d dfce 963d
00000070: 42ce 313c d7a3 0f3d 2fd7 983d b1f2 063d
00000080: a73b 9bbd ef7f c1bd ba6c 87bd a962 b1bd
00000090: 1a7b 9b3d e9b0 8f3b f3c5 36bd 4bc9 713d
000000a0: 548e 7bbd 84a2 45bd 671a a73b fd9d b5bc
000000b0: 87b4 a63d eb81 8abc 847f 1cbc a518 bd3d
000000c0: bfc4 e0ba d2c6 de3c 3eaf 463c f43e abbd
000000d0: 8d57 7d3d c337 053c 46cd afbc ab15 8abd
000000e0: 78a4 383c f755 28bd bcee 22bc de87 e83c
000000f0: d532 3ebd fe17 2f3d 0d6b 92bc efe6 26bd
00000100: 3400 973d a090 ad3d cf6e f43c ac74 4cbd
00000110: a8e0 283d 579c 9a3c 8c43 c0bc e452 923d
00000120: 1bb2 09bd 0d20 983b 2d6d 32bd fb14 4dbd
00000130: bfd0 88bd 7b62 91bd 4a5b b43d 99e3 a63d
00000140: 003d ba3d 4ff5 1e3c 4f4b a03d 4b4b 95bd
00000150: c1da 103d 5df7 71bd a4dd b53a 0646 843d
00000160: c211 07bd c98c 7bbd 96d9 b3bd ef3c c23c
00000170: 602b 9abd 421e 8e3d 38a1 3e3c 2e2c 163d
00000180: 17db f9bb 0e77 71bd 30c8 d93c 484e 9f3d
00000190: 6e24 1bbd f2e1 abbd 650b 3dbd 2015 d73c
000001a0: b061 2c3d cf33 753c e88e b4bd 8d1d c33c
000001b0: 61c9 963d 881e c83c 8b41 a23d 1a8f 7dbd
000001c0: e994 90bd fdae 5a3d 1eda 483d 4e5c 8b3d
000001d0: fcf1 5ebc 3531 ddbc ded7 d03c 74d2 54bd
000001e0: 70bd c9bd 4154 9c3d a1c2 17bb f1f6 54bd
000001f0: 2e04 7f3d 60d8 8e3d 1446 98bd 1f20 863d
00000200: 2281 d73d a6e8 923d 3322 853d 1d36 eb3b
00000210: e53f f03c f147 6c3d c021 17bd 20de 523d
00000220: 8d03 96bc 8b67 88bd c848 8bbd df02 713c
00000230: 68ba db3d 90e4 3f3d f1aa 713d 66a5 8cbd
00000240: 85b4 bf3c 4007 133d d9a9 803d bd31 06bd
00000250: d655 24bc 7f0e 0a3d 4911 2e3c 2128 2fbd
00000260: 0ed1 a5bd 16f5 0b3c 809c f33c 45bd 0cbd
00000270: 130c 8dbd 45e4 eebc 20e4 65bd bf66 fe3c
00000280: 0511 91bc e477 ab3d 711c 24bd 2606 b9bc
00000290: 32dd a2bd 13f3 57bd f822 cbbb b89c 34bc
000002a0: 36f2 39bd 5618 86bd 075b 74bd ce79 05bb
000002b0: 7144 5f3d 816d 973b d579 43bd 844c 033d
000002c0: 8298 4d3d 5174 1abd 49da fabc 2fc3 7039
000002d0: bcd8 a03d c8d4 85bd c3c6 a03d d341 03bd
000002e0: ca2a 19bc ca8d 383d dc64 b0bd e1c6 60bd
000002f0: 110b 7c3d 3c67 e7bc 6adb 863c 5804 bbbd
00000300: a290 843d d36c 8e3d 85ab bc3d 928e d9bc
00000310: f8c9 f0bc 0d0a 3f3d 6d79 c4bc 7b99 13bc
00000320: 87ca 993d effb 433b f0e7 b23c 4560 a23d
00000330: b2d7 4abc f959 6a3d 4fd4 b5bd 6d48 603d
00000340: 9b87 49bd ba52 a33d f1f2 aebd 4b37 d53c
00000350: c6c0 193c f113 013d 87cd 7bbd 616b 953c
00000360: 4b6d a33d d270 59bd 58f7 8f3d 217a 923c
00000370: b41a 783b d3b7 373d ad52 973d 7b36 86bd
00000380: 2d03 87bd 7353 71bc e74e a13d 915f 913d
00000390: 01e8 cabd f585 49bc 01a9 b43c 9666 88bc
000003a0: c57f a83b 443b bd3d ed6c 8abd 36c2 943d
000003b0: ca94 20bd 33ae 553d e8b7 a3bd 80fe 953d
000003c0: 74e2 64bc d0dc 223d f513 afbd e08d 9e3d
000003d0: 3cde 9cbd 556c 823d 2806 86bd 4acf 903d
000003e0: 9284 d63c b306 8a3d 7c64 0b3d 6549 0a3c
000003f0: b572 813d 5c56 213c 88d8 8d3d fa63 b43d

actor.linear2.bias f4 [128]
0.066353664 0.029594766 0.01922665 -0.08475336 0.006385161 0.051200923 0.025062833 0.008256725
-0.0710365 -0.06002608 -0.028135953 0.07148641 0.05335329 -0.08827144 -0.056538485 0.04439983
0.040611845 -0.052816663 0.02945684 0.08863722 0.062192697 -0.045477577 -0.0015992543 -0.04319232
-0.086750194 -0.03694941 0.063169286 -0.03992578 0.0879766 0.092425846 -0.047241587 0.063019745
-0.0501645 -0.01151221 0.06379977 -0.037544258 0.09275255 -0.09366949 0.002178114 0.06685401
-0.01885246 -0.06030036 0.037211098 -0.07618793 0.020216582 0.07897021 0.030670336 0.021016901
-0.023159398 0.09371875 -0.005880506 -0.026324678 0.051537834 0.06902417 0.047981407 -0.077674925
0.07565667 0.042140838 0.035097033 0.024616156 0.08410221 -0.026521591 0.032245822 0.014778771
0.099205285 -0.0654775 -0.013151032 0.024412226 -0.06788453 -0.07175631 -0.010962398 -0.021467077
0.059636142 0.03230583 0.088137604 -0.021079877 0.058149103 -0.06526793 -0.018048411 -0.05302034
-0.0012842377 0.059825636 0.08310814 0.071320236 -0.0019396915 0.061265085 -0.03479345 -0.033113576
0.07683251 -0.048298877 0.010200077 -0.0039824294 0.089128606 0.045816034 -0.019753374 0.0035252736
1.6387625e-05 0.065095365 -0.08298977 0.022228919 0.036146633 -0.060988106 0.059649978 -0.01164104
0.044418633 0.06481139 0.031357378 0.043809436 0.009267502 0.0040802085 0.029554723 0.042885277
0.08074201 0.02054444 -0.023318969 -0.051076807 0.07546396 -0.094448745 -0.077814974 -0.018380512
0.038194716 -0.05507973 -0.087253645 -0.08221383 0.055397894 0.080873705 0.07885572 -0.023131678
00000000: 6ee4 873d b970 f23c 3581 9d3c 2b93 adbd
00000010: 9d3a d13b 0fb8 513d 9250 cd3c 3747 073c
00000020: 967b 91bd e8dd 75bd 5f7d e6bc 7867 923d
00000030: fb88 5a3d a8c7 b4bd e694 67bd 99dc 353d
00000040: 9b58 263d 4956 58bd 794f f13c 6e87 b53d
00000050: c5bd 7e3d b246 3abd 129e d1ba 6eea 30bd
00000060: 16aa b1bd 4458 17bd e65e 813d 3789 23bd
00000070: 132d b43d c349 bd3d 6580 41bd 7f10 813d
00000080: 4a79 4dbd b59d 3cbc 74a9 823d 02c8 19bd
00000090: 0df5 bd3d cad5 bfbd b0be 0e3b c1ea 883d
000000a0: 7970 9abc 83fd 76bd aa6a 183d 6b08 9cbd
000000b0: 3f9d a53c 22bb a13d 5b40 fb3c a32b ac3c
000000c0: c7b8 bdbc 9eef bf3d 42b1 c0bb daa6 d7bc
000000d0: 5619 533d 8b5c 8d3d 2788 443d 0814 9fbd
000000e0: e2f1 9a3d df9b 2c3d e8c1 0f3d d2a7 c93c
000000f0: c83d ac3d cf43 d9bc 3214 043d a922 723c
00000100: 242c cb3d 1119 86bd 6d77 57bc 26fc c73c
00000110: 0b07 8bbd f9f4 92bd a19b 33bc b9db afbc
00000120: 0745 743d 1e53 043d 7d81 b43d b5af acbc
00000130: c12d 6e3d 31ab 85bd 43da 93bc db2b 59bd
00000140: de53 a8ba ba0b 753d 9a34 aa3d 5810 923d
00000150: 3f3d feba 19f1 7a3d 9483 0ebd 1aa2 07bd
00000160: 5d5a 9d3d 0bd5 45bd 391e 273c 0a7f 82bb
00000170: 0f89 b63d 98a9 3b3d d4d1 a1bc 4708 673b
00000180: 2878 8937 b850 853d 8af6 a9bd 6c19 b63c
00000190: 7e0e 143d aace 79bd 8953 743d 10ba 3ebc
000001a0: 50f0 353d d6bb 843d 9870 003d 8671 333d
000001b0: b9d6 173c 45b3 853b bf1c f23c 79a8 2f3d
000001c0: 115c a53d d04c a83c 6c07 bfbc ea35 51bd
000001d0: d98c 9a3d 586e c1bd 755d 9fbd ba92 96bc
000001e0: 1072 1c3d 489b 61bd 0ab2 b2bd b95f a8bd
000001f0: e7e8 623d 1da1 a53d 1c7f a13d a57e bdbc

actor.linear3.weight f4 [128, 128]
-0.08866754 0.06420921 0.0341069 -0.07895673 0.058211397 -0.011084771 0.084169514 -0.05737135
-0.048186664 0.00025255603 0.05517563 0.06106532 0.062160034 0.04431565 0.052245982 0.022061158
0.066340946 0.010606804 0.0024225637 -0.064489745 0.06770984 -0.0013642836 0.027045941 0.084724955
-0.009699044 -0.031792264 0.08229901 0.05017621 0.013460804 0.0901936 -0.07929686 -0.07649103
0.06825026 -0.059824705 -0.0124623915 -0.03445321 0.050744835 -0.044867687 -0.042896476 -0.0013238474
0.0034252477 0.036336176 -0.006589001 -0.0010992715 -0.06966248 -0.01374251 -0.045198027 -0.053093083
0.013464022 -0.05861875 -0.06856201 0.009512209 -0.025872217 0.004151601 -0.021464126 0.059007097
0.049358267 -0.021799034 -0.0642372 0.07510994 0.03636299 0.0027448197 -0.083724625 -0.064933695
-0.09465719 0.07346943 0.017229695 0.080106765 0.06999318 7.804824e-05 -0.008289645 0.018868828
-0.074826315 0.027151737 0.07544586 0.044154156 0.03252878 -0.045181174 -0.034425143 -0.05336857
-0.052742194 -0.067981064 0.053258 -0.06124669 0.071665086 0.0634842 0.07650392 0.043616444
-0.058005925 0.011231381 -0.021213606 0.05667246 0.06141222 -0.012211557 0.035585165 -0.076819055
-0.062838405 -0.03187867 0.01995535 0.0041822065 -0.065790035 0.041079678 -0.07894509 0.020938706
-0.090128794 0.06303586 0.057671625 -0.075949006 0.047872506 0.010717006 0.020961387 0.010823231
-0.021887427 0.08825057 0.07867881 0.024221526 0.03450915 0.044160735 -0.046925757 0.08134003
-0.0134756975 0.052877296 0.028819023 0.027484888 -0.074272044 -0.087926306 -0.06881105 0.023690844
0.00012902044 -0.08065244 -0.07040444 0.061479125 -0.02850677 -0.013223958 0.0248935 -0.02921142
0.0061599496 -0.053994674 -0.06154679 -0.062187023 -0.029710045 -0.06652845 0.04945708 0.01524304
0.03420672 0.04928042 0.05061064 -0.047714934 0.058647577 0.0143465875 0.0031252378 0.07738961
0.027921023 0.04644296 0.08816885 0.04998421 0.08757087 -0.023560936 -0.08307582 -0.056303855
-0.08847211 -0.016608799 -0.018136125 -0.05198601 0.018166535 -0.011748629 -0.076648906 -0.08437184
-0.0876276 0.06877099 -0.04366596 0.021080839 -0.011310252 0.084111124 0.04702579 -0.04161808
0.078567475 0.052956354 0.07279969 -0.028494475 0.012131712 -0.020550594 0.023002526 -0.00479715
-0.06502569 -0.020796541 0.014643388 -0.002093606 0.00058308797 -0.07712625 -0.038490128 0.063466206
0.0366718 0.024519015 0.08356133 -0.06894867 -0.044619482 0.0012976698 0.012420245 -0.039058577
0.070392504 -0.04497158 -0.0741033 0.051786564 -0.03962212 -0.026368039 -0.034505554 0.045704428
0.03865612 0.021055412 -0.0002564255 0.037504755 -0.07279521 -0.006094229 0.0004992925 -0.04185039
-0.010318386 0.044061616 0.04313515 0.047952503 -0.06749389 -0.05813194 -0.078666165 0.07984768
0.024060877 -0.056457464 0.074191585 -0.012005849 0.049152415 0.06237229 -0.011621801 -0.0057483837
-0.054855026 -0.036180787 -0.04300252 -0.014276624 -0.070733 -0.036688942 -0.07082816 0.033910513
-0.049100213 -0.055082794 -0.0039816974 -0.082941666 0.08157119 -0.023223516 -0.084802724 -0.017287489
0.019325173 0.016975312 0.032684233 -0.007628088 0.0536039 0.05038648 -0.0133064985 0.08340693
00000000: 5497 b5bd 1e80 833d adb3 0b3d 11b4 a1bd
00000010: 136f 6e3d e69c 35bc 1161 ac3d 38fe 6abd
00000020: 615f 45bd 7f69 8439 d7ff 613d a11f 7a3d
00000030: 859b 7e3d 5484 353d e2ff 553d 9ab9 b43c
00000040: c3dd 873d 29c8 2d3c e0c3 1e3b 3313 84bd
00000050: 75ab 8a3d c3d1 b2ba 738f dd3c 4784 ad3d
00000060: bde8 1ebc 9b38 02bd 628c a83d 9285 4d3d
00000070: b48a 5c3c 6cb7 b83d 6466 a2bd 54a7 9cbd
00000080: cbc6 8b3d c00a 75bd 0f2f 4cbc cf1e 0dbd
00000090: d1d9 4f3d 2ec7 37bd 37b4 2fbd f384 adba
000000a0: 1f7a 603b 3ed5 143d 8ce8 d7bb 6e15 90ba
000000b0: 34ab 8ebd 4428 61bc 9121 39bd 2278 59bd
000000c0: 3498 5c3c 371a 70bd 3d6a 8cbd 19d9 1b3c
000000d0: f9f1 d3bc 270a 883b 89d5 afbc 6db1 713d
000000e0: e52b 4a3d e393 b2bc cb8e 83bd 3dd3 993d
000000f0: 5cf1 143d 6fe2 333b d177 abbd f5fb 84bd
00000100: a1db c1bd 2477 963d 4a25 8d3c 040f a43d
00000110: 9658 8f3d d4ad a338 4bd1 07bc cd92 9a3c
00000120: 8a3e 99bd 526d de3c 5c83 9a3d fdda 343d
00000130: e63c 053d e50f 39bd 6101 0dbd 0099 5abd
00000140: 3308 58bd a839 8bbd 1025 5a3d cfdd 7abd
00000150: 25c5 923d 0104 823d 16ae 9c3d 28a7 323d
00000160: 9f97 6dbd d403 383c 28c8 adbc 6221 683d
00000170: 618b 7b3d fb12 48bc c0c1 113d 4f53 9dbd
00000180: 6cb1 80bd 3593 02bd 6779 a33c e40a 893b
00000190: edbc 86bd 2a43 283d f7ad a1bd a687 ab3c
000001a0: 7295 b8bd f218 813d 1539 6c3d 278b 9bbd
000001b0: f615 443d 6296 2f3c 37b7 ab3c ec53 313c
000001c0: 434d b3bc b7bc b43d 5b22 a13d 396c c63c
000001d0: 7759 0d3d e3e1 343d 3935 40bd 9a95 a63d
000001e0: 2cc9 5cbc dd95 583d df15 ec3c fd27 e13c
000001f0: f11b 98bd b512 b4bd cfec 8cbd 4d13 c23c
00000200: a949 0739 1b2d a5bd 3430 90bd 89d1 7b3d
00000210: 0887 e9bc 4da9 58bc 74ed cb3c ca4c efbc
00000220: 67d9 c93b 8529 5dbd 7d18 7cbd d2b7 7ebd
00000230: 7b62 f3bc 1140 88bd 8293 4a3d f2bd 793c
00000240: 581c 0c3d 44da 493d 1a4d 4f3d bc70 43bd
00000250: 7138 703d f30d 6b3c cad0 4c3b 727e 9e3d
00000260: a1ba e43c f93a 3e3d df91 b43d 3ebc 4c3d
00000270: 5b58 b33d dd02 c1bc a823 aabd df9e 66bd
00000280: de30 b5bd 2d0f 88bc 3692 94bc 48ef 54bd
00000290: fcd1 943c 527d 40bc 1afa 9cbd 25cb acbd
000002a0: 1976 b3bd ced7 8c3d 14db 32bd b9b1 ac3c
000002b0: a34e 39bc 7442 ac3d 1d9e 403d b877 2abd
000002c0: fce7 a03d c3e8 583d 0118 953d 3f6d e9bc
000002d0: 17c4 463c b859 a8bc cb6f bc3c 6931 9dbb
000002e0: 302c 85bd 825d aabc d2ea 6f3c e134 09bb
000002f0: 5fda 183a 5ef4 9dbd d3a7 1dbd 92fa 813d
00000300: 2b35 163d 1adc c83c 3422 ab3d f634 8dbd
00000310: ebc2 36bd 9316 aa3a 497e 4b3c e3fb 1fbd
00000320: f229 903d 1f34 38bd 79c3 97bd 261e 543d
00000330: ce4a 22bd c901 d8bc b255 0dbd 9134 3b3d
00000340: e155 1e3d 667c ac3c d970 86b9 969e 193d
00000350: a815 95bd 19b2 c7bb f4e2 023a 516b 2bbd
00000360: 730e 29bc f479 343d 7cae 303d d869 443d
00000370: 3d3a 8abd c21b 6ebd ba1b a1bd 2e87 a33d
00000380: 511b c53c f13f 67bd c2f1 973d 2eb4 44bc
00000390: 0b54 493d 167a 7f3d 5e69 3ebc f05c bcbb
000003a0: aaaf 60bd 4e32 14bd 6923 30bd 80e8 69bc
000003b0: 77dc 90bd 2547 16bd 5b0e 91bd c0e5 0a3d
000003c0: 4e1d 49bd 7f9e 61bd e678 82bb 52dd a9bd
000003d0: cc0e a73d 3e3f bebc 0dad adbd 7e9e 8dbc
000003e0: d34f 9e3c cf0f 8b3c e7df 053d 0af5 f9bb
000003f0: c38f 5b3d 0e62 4e3d 8003 5abc 41d1 aa3d

actor.linear3.bias f4 [128]
0.026746467 -0.051422838 0.07594507 -0.027170992 -0.020653035 0.044446975 -0.036817458 0.0967965
-0.05699417 0.04413948 0.030555485 -0.06543968 0.07457433 0.002299198 -0.007415853 0.055612355
-0.04198149 -0.072745614 0.0111807715 0.04843255 -0.07496285 -0.017525654 0.077731036 0.007430817
-0.03479558 0.071590416 -0.04761384 0.00041482638 -0.0048079374 0.06381094 -0.011099686 -0.02597972
-0.07450676 -0.022872334 0.036319498 0.06817118 -0.036872562 0.02350669 0.04745391 0.04399561
0.0019789974 -0.07395079 -0.058843046 -0.07682502 -0.07021058 -0.04712319 0.03683167 0.050381705
-0.016055515 -0.0024418836 -0.0081467675 0.029828852 0.013263959 0.08445281 -0.06485199 0.04854496
0.030994551 -0.02489246 -0.034702618 0.03241424 -0.035224546 0.09927215 0.04278827 -0.011975288
-0.05909802 0.08871953 0.081391856 0.0832841 0.031539172 0.071323656 -0.029337445 -0.016287394
-0.07121526 -0.066649705 0.058087904 0.03584837 -0.08632759 -0.01805173 -0.029105667 0.0017125373
0.058648497 0.076280355 0.06763331 0.071623504 -0.04157352 -0.07862596 0.07758624 0.067702405
0.06839248 0.008199297 -0.077574626 0.06733208 0.053586982 -0.0549614 0.06762408 0.069055155
-0.06304776 -0.050270837 0.084928095 0.0845195 0.03914934 -0.07414916 -0.05061182 0.011337471
-0.07336684 0.046999976 0.08230047 -0.05397327 -0.0769565 -0.03891789 -0.06972991 -0.04032172
0.010867247 0.059545197 0.073513456 0.01041902 0.07874914 0.06687335 -0.004816615 0.010316881
0.019167941 0.047957305 -0.066094995 0.037789185 0.041475274 0.063676074 0.08470386 0.03474432
00000000: 681b db3c c1a0 52bd 1789 9b3d b395 debc
00000010: 8e30 a9bc 080e 363d e7cd 16bd 3e3d c63d
00000020: b872 69bd 99cb 343d 7f4f fa3c 3d05 86bd
00000030: 6dba 983d 24ae 163b af00 f3bb c8c9 633d
00000040: c8f4 2bbd a7fb 94bd 8e2f 373c 3661 463d
00000050: 1f86 99bd f691 8fbc 7331 9f3d 367e f33b
00000060: cf85 0ebd ff9d 923d bb06 43bd 0e7d d939
00000070: e78b 9dbb 4faf 823d 75db 35bc 6cd3 d4bc
00000080: 0097 98bd c35e bbbc c1c3 143d 559d 8b3d
00000090: af07 17bd 1a91 c03c 085f 423d be34 343d
000000a0: 11b2 013b 8373 97bd 6805 71bd 7056 9dbd
000000b0: 91ca 8fbd 3f04 41bd cedc 163d 0c5d 4e3d
000000c0: db86 83bc 0208 20bb 057a 05bc a35b f43c
000000d0: 1451 593c 98f5 ac3d 1fd1 84bd 14d7 463d
000000e0: 49e8 fd3c 46eb cbbc 5524 0ebd cbc4 043d
000000f0: 9d47 10bd 324f cb3d c142 2f3d 0034 44bc
00000100: c410 72bd 96b2 b53d c6b0 a63d db90 aa3d
00000110: 382f 013d 2312 923d 1555 f0bc 246d 85bc
00000120: 4ed9 91bd a47f 88bd 95ed 6d3d bed5 123d
00000130: 85cc b0bd 39e1 93bc 026f eebc 3777 e03a
00000140: 6839 703d e038 9c3d 5583 8a3d 58af 923d
00000150: ff48 2abd a606 a1bd 89e5 9e3d 8fa7 8a3d
00000160: 5b11 8c3d 5856 063c 72df 9ebd 67e5 893d
00000170: 067e 5b3d 341f 61bd 7e7e 8a3d ca6c 8d3d
00000180: 2f1f 81bd cbe8 4dbd c8ee ad3d 8f18 ad3d
00000190: 0f5b 203d 84db 97bd 574e 4fbd cdc0 393c
000001a0: 5b41 96bd 0c83 403d 268d a83d 1313 5dbd
000001b0: 5f9b 9dbd 5e68 1fbd 8ece 8ebd 6328 25bd
000001c0: 8a0c 323c aae5 733d 398e 963d 8ab4 2a3c
000001d0: 3b47 a13d e5f4 883d b2d4 9dbb 2308 293c
000001e0: 1606 9d3c e16e 443d d05c 87bd d5c8 1a3d
000001f0: fae1 293d 9a68 823d 3879 ad3d 0f50 0e3d

actor.linear4.weight f4 [9, 128]
0.030517744 0.02542384 -0.05410898 -0.009285667 0.0018824119 -0.08579541 0.038171265 0.082489915
0.07285711 -0.022154553 -0.06961352 -0.014961107 0.02437765 -0.038518038 -0.010607576 -0.044511866
-0.0678461 -0.06530598 0.055836115 -0.052544214 0.070720054 0.07404468 0.001289312 0.07204486
-0.05896717 0.07963914 -0.0067342306 0.08191029 0.05884017 -0.016259337 0.053026006 -0.061102185
-0.061635733 0.03153485 0.059239745 0.073434085 -0.07344763 0.02935632 -0.07869804 0.030283164
0.032524627 0.072740816 -0.025223177 -0.06434642 0.017036974 0.07904084 0.014859161 -0.008030984
-0.016831178 0.03939707 -0.047432438 0.009332141 0.04545544 -0.012085278 -0.008527441 -0.084373586
0.02716581 -0.00078041706 -0.03523287 -0.0074986336 -0.051634923 0.025548872 -0.06622019 -0.09374404
-0.05871847 -0.04824383 0.040214874 -0.060790885 -0.042042643 -0.017072998 0.078488804 -0.024001459
-0.05429247 -0.0151157705 0.05556094 0.0053665796 -0.07158539 -0.034681994 0.024261631 -0.036395162
-0.077639714 -0.048043013 -0.045609053 0.068634555 -0.029391285 -0.03376351 0.061886627 -0.011066968
-0.06741394 0.06992837 -0.015225594 -0.08402589 0.03342848 -0.0051893108 0.01767475 -0.05220476
-0.006653776 -0.046924062 -0.009939689 0.026581736 -0.06163518 -0.06460396 0.0010582753 0.022447722
-0.030364655 -0.017756263 -0.023022832 0.061827924 0.014134487 0.061314408 0.0046955287 0.04029021
0.07616104 0.04721044 0.04374475 0.062187217 -0.00047715742 -0.07233715 -0.0493164 -0.035433523
0.025178116 0.038512867 -0.057638135 -0.0058357534 -0.009027848 0.01968981 -0.012702543 -0.021377776
-0.016141417 0.05183998 -0.07092719 -0.019339038 0.052738 0.013217215 0.12262599 0.044612605
0.0984619 0.03718326 -0.028165579 0.013291029 -0.071263485 0.11877553 0.05655671 0.027856613
-0.04671264 -0.03328146 0.020029683 -0.0010015938 -0.06058514 0.10247216 -0.07416606 -0.05958903
0.045587808 -0.0359662 0.08042411 -0.008748382 -0.05603647 -0.07899444 -0.0011965049 -0.051112756
-0.07187451 0.0060531474 0.10473538 -0.069008164 -0.0178889 0.04059624 0.0060121417 0.051139206
0.020587245 -0.08925579 0.08499012 0.029862376 0.022886883 0.09185556 0.08003333 -0.027223708
0.09917441 -0.09372976 0.032811157 0.059180386 -0.010748589 0.06366594 0.058794413 -0.005841175
0.05779515 -0.10827076 0.10910652 0.031183941 -0.031796593 -0.011822643 0.07769859 0.07408703
-0.025812881 -0.046165112 -0.05057748 -0.07050649 -0.010888871 -0.055697244 0.05094762 0.052299734
-0.09492947 -0.06429683 0.049600065 0.091810495 -0.022535602 -0.005287293 0.0826626 -0.059235707
-0.010810069 0.016681239 0.024562426 0.049210127 -0.09479924 0.06458143 0.04291521 -0.11190967
-0.110879034 0.0060800416 0.0696467 0.06690659 0.10465789 -0.034836397 -0.013136232 -0.020605642
0.03391355 -0.057676468 -0.09896108 -0.07073449 0.08739604 0.08563792 7.462691e-05 0.10419231
-0.09522701 -0.08211372 -0.0072233113 0.046898924 -0.04894118 -0.096954815 -0.005720543 -0.023445545
-0.038228612 0.014342111 0.059370276 -0.10947264 -0.09723623 -0.08918013 0.06472798 0.04205355
-0.10075529 0.06870439 0.09700206 -0.054103613 0.051071122 0.10221924 0.11127988 0.035988703
00000000: 5900 fa3c a845 d03c 61a1 5dbd e922 18bc
00000010: 43bb f63a 81b5 afbd 7959 1c3d 79f0 a83d
00000020: 1c36 953d 777d b5bc 8891 8ebd 6e1f 75bc
00000030: a3b3 c73c 17c5 1dbd 66cb 2dbc 1352 36bd
00000040: e5f2 8abd 24bf 85bd 69b4 643d 9a38 57bd
00000050: add5 903d bda4 973d 22fe a83a 418c 933d
00000060: 8f87 71bd d819 a33d d2aa dcbb 95c0 a73d
00000070: 6402 713d 4d32 85bc cc31 593d 4946 7abd
00000080: c075 7cbd b02a 013d 60a5 723d 9c64 963d
00000090: b66b 96bd aa7c f03c 702c a1bd 6614 f83c
000000a0: 8b38 053d 23f9 943d d6a0 cebc 0ec8 83bd
000000b0: 2091 8b3c 2ae0 a13d d773 733c 6394 03bc
000000c0: 8ae1 89bc d25e 213d 8448 42bd d6e5 183c
000000d0: 7c2f 3a3d 5401 46bc aeb6 0bbc 0fcc acbd
000000e0: d58a de3c e794 4cba 5850 10bd 19b7 f5bb
000000f0: 247f 53bd de4b d13c 739e 87bd e0fc bfbd
00000100: c782 70bd 539b 45bd 5ab8 243d ddff 78bd
00000110: e834 2cbd acdc 8bbc bdbe a03d b59e c4bc
00000120: c861 5ebd 23a8 77bc de93 633d 22da af3b
00000130: 5c9b 92bd b50e 0ebd 54c0 c63c 1813 15bd
00000140: 9201 9fbd c0c8 44bd 8fd0 3abd 4690 8c3d
00000150: fec5 f0bc 9b4b 0abd d57c 7d3d 3a52 35bc
00000160: 5210 8abd 9b36 8f3d c574 79bc c415 acbd
00000170: 4dec 083d 180b aabb a3ca 903c a9d4 55bd
00000180: eb07 dabb 7233 40bd 14da 22bc f1c1 d93c
00000190: 2c75 7cbd 154f 84bd d4b5 8a3a 49e4 b73c
000001a0: 4cbf f8bc 9575 91bc 619a bcbc 473f 7d3d
000001b0: 5694 673c d124 7b3d f3dc 993b 5907 253d
000001c0: 52fa 9b3d bc5f 413d b22d 333d 06b8 7e3d
000001d0: fc2a fab9 8025 94bd feff 49bd be22 11bd
000001e0: 5642 ce3c abbf 1d3d f715 6cbd d939 bfbb
000001f0: 8ae9 13bc 864c a13c 541e 50bc 7220 afbc
00000200: 013b 84bc 2956 543d 4642 91bd e76c 9ebc
00000210: cd03 583d 058d 583c 5623 fb3d b5bb 363d
00000220: 65a6 c93d 794d 183d 80bb e6bc 9ec2 593c
00000230: 97f2 91bd 9640 f33d 02a8 673d 8d33 e43c
00000240: c155 3fbd 2452 08bd 4a15 a43c e947 83ba
00000250: 2028 78bd ecdc d13d 60e4 97bd a013 74bd
00000260: 48ba 3a3d 4b51 13bd 65b5 a43d 6055 0fbc
00000270: 7f86 65bd d6c7 a1bd 0bd4 9cba 9c5b 51bd
00000280: f132 93bd 7b59 c63b 817f d63d 2754 8dbd
00000290: be8b 92bc 3e48 263d 8001 c53b 5877 513d
000002a0: 95a6 a83c bdcb b6bd 4d0f ae3d f1a1 f43c
000002b0: 467d bb3c c51e bc3d 84e8 a33d 4104 dfbc
000002c0: f41b cb3d 63f5 bfbd fe64 063d 2267 723d
000002d0: da1a 30bc 4a63 823d 69d2 703d 5467 bfbb
000002e0: 9bba 6c3d 0fbd ddbd 3d73 df3d 7775 ff3c
000002f0: 253d 02bd c2b3 41bc 7020 9f3d f1ba 973d
00000300: 8975 d3bc a117 3dbd 552a 4fbd b565 90bd
00000310: 3c67 32bc cb22 64bd 74ae 503d 3f38 563d
00000320: 626a c2bd 0eae 83bd 7029 4b3d 2407 bc3d
00000330: 959c b8bc 0741 adbb 024b a93d 24a1 72bd
00000340: b71c 31bc 18a7 883c 2437 c93c 8f90 493d
00000350: 1b26 c2bd 4543 843d dcc7 2f3d e630 e5bd
00000360: 8c14 e3bd 163b c73b eea2 8e3d 5206 893d
00000370: e056 d63d 9cb0 0ebd 5a39 57bc 2acd a8bc
00000380: efe8 0a3d 293e 6cbd 1bac cabd 3fdd 90bd
00000390: b2fc b23d ef62 af3d 0481 9c38 c762 d53d
000003a0: 6106 c3bd 3d2b a8bd 87b1 ecbb 1619 403d
000003b0: 8c76 48bd 3f90 c6bd 6573 bbbb df10 c0bc
000003c0: 9b95 1cbd 2cfb 6a3c 3f2e 733d 3133 e0bd
000003d0: ca23 c7bd 12a4 b6bd 1a90 843d 5840 2c3d
000003e0: ca58 cebd e3b4 8c3d 04a9 c63d c09b 5dbd
000003f0: f42f 513d 5258 d13d b5e6 e33d e468 133d

actor.linear4.bias f4 [9]
0.001972695 0.045974433 -0.049203485 0.051404905 -0.045567498 0.08663165 -0.06649758 0.049905058
-0.02119951
00000000: 5548 013b b04f 3c3d 9889 49bd f38d 523d
00000010: fca4 3abd ef6b b13d e22f 88bd 3f69 4c3d
00000020: 98aa adbc

critic.linear1.weight f4 [128, 120]
-0.06796814 0.055821113 0.1033699 -0.05556722 -0.08193571 -0.09353209 -0.03422066 0.0686206
0.041768298 -0.117474735 0.093719475 -0.100262105 0.06534987 0.0062668305 0.04228919 -0.0925089
0.1722305 -0.08915383 0.055750567 -0.019270811 0.11891665 -0.004895027 -0.0038127308 -0.012106562
-0.029516874 0.0384426 0.045442533 -0.02123379 -0.036306143 -0.02456019 -0.026283674 0.06753977
-0.022673061 0.004645449 0.035087723 0.02871228 0.037483092 -0.005720686 -0.057208937 0.0065077133
0.05663336 0.008146441 0.03871879 -0.104894154 0.001950142 -0.015805496 0.08273181 0.07514826
0.033151086 -0.015957076 0.12078678 -0.0001192371 -0.02376914 0.0091125285 -0.051062874 0.13278586
0.05775581 -0.017320335 0.023051038 -0.050498623 -0.023439035 -0.019086229 -0.077634595 -0.0550783
-0.078820735 -0.086793035 0.06087292 -0.079141274 0.0054151425 0.07862751 0.077540204 -0.016418913
-0.07501202 -0.0828867 0.06691784 0.051030166 0.07135747 0.04330768 0.08876274 0.06921791
-0.027350813 -0.06563873 0.0479423 0.055879645 0.02582766 0.105353154 0.04490752 0.0804262
-0.09383962 0.024132937 0.055927288 -0.013746067 0.058555283 -0.010707228 -0.089940764 0.04978601
-0.039598826 -0.011282663 -0.05644975 -0.073911846 0.11524085 0.079012424 -0.04966141 0.056056377
-0.07914449 0.08624948 -0.063362055 -0.020663373 0.019384785 -0.038882263 0.06414286 -0.09028797
0.024259025 0.06273577 -0.030987455 0.011825259 0.12735143 0.12134306 -0.062803105 0.0533225
0.0958908 0.007369829 0.013419256 -0.10333033 -0.09162224 -0.052305035 0.12391529 0.05905814
-0.056108605 -0.071653955 -0.060931336 -0.07331881 -0.07741647 0.020111138 -0.013895788 -0.07452651
0.13751501 -0.056538004 0.11083785 0.12859125 0.12080001 0.021021426 -0.0074536097 0.01142297
0.08794952 -0.010781572 -0.014535942 -0.111711815 0.018377895 0.062481683 0.00969076 0.06833747
0.03582723 0.012940418 0.026344853 0.003542892 0.07758921 0.0059388154 0.07428376 -0.044205125
0.06919243 -0.013043701 0.01762451 -0.10697384 -0.07549312 0.04617667 0.054195832 0.0059363283
0.047116555 -0.05363733 0.06091844 0.071753055 0.052347478 0.12596002 -0.029275963 0.1229594
0.07055457 -0.045654092 0.025021859 0.021133408 0.052290358 -0.05149918 -0.013219679 -0.0691591
0.017794613 0.070326336 0.040315572 -0.06272335 0.0328899 -0.029357983 -0.032160997 0.041031715
-0.028459605 -0.005953739 -0.0568011 -0.0818747 0.04430741 -0.028751941 -0.042163413 0.018280836
-0.052607805 0.026168512 -0.095492624 0.005760978 0.09492276 0.12523012 0.037760317 0.034343686
0.049141645 -0.04951304 -0.08391829 -0.006355694 0.05094668 0.043040313 0.020280808 0.06175108
0.07007637 0.009339866 0.0634536 -0.023222584 0.14582802 0.121495515 -0.026712451 0.011753196
-0.022309883 0.0007687632 0.057397913 -0.06205251 -0.01328628 0.041236464 0.053675607 -0.047758266
0.092839845 0.030346433 0.033206515 0.015819365 0.03472575 0.12770595 0.03389976 0.074246414
0.07119959 0.001125518 0.017861849 -0.1086193 -0.03228667 0.050095752 0.10233132 0.029112587
0.011093122 -0.03924497 0.059932165 -0.019985687 0.04475426 -0.0038557616 0.034086544 0.06978525
00000000: e132 8bbd aea4 643d 99b3 d33d 749a 63bd
00000010: e9cd a7bd c18d bfbd f62a 0cbd f588 8c3d
00000020: 3c15 2b3d 9896 f0bd ffef bf3d 3856 cdbd
00000030: 27d6 853d fc59 cd3b 6e37 2d3d 4e75 bdbd
00000040: 315d 303e 4996 b6bd b55a 643d d2dd 9dbc
00000050: 938a f33d 7666 a0bb 02df 79bb 9a5a 46bc
00000060: 5fcd f1bc fd75 1d3d f321 3a3d 7cf2 adbc
00000070: c0b5 14bd 7432 c9bc dc50 d7bc 4a52 8a3d
00000080: dbbc b9bc da38 983b 25b8 0f3d 0436 eb3c
00000090: df87 193d 9874 bbbb eb53 6abd a83e d53b
000000a0: 62f8 673d a678 053c 9897 1e3d bfd2 d6bd
000000b0: e89b ff3a 877a 81bc 4c6f a93d 55e7 993d
000000c0: 6fc9 073d 6ab8 82bc 0f5f f73d ee0e fab8
000000d0: 80b7 c2bc b74c 153c 4e27 51bd 04f9 073e
000000e0: 5b91 6c3d 60e3 8dbc 88d5 bc3c a5d7 4ebd
000000f0: 3803 c0bc b95a 9cbc e3fe 9ebd c999 61bd
00000100: c46c a1bd 8cc0 b1bd e255 793d d214 a2bd
00000110: 8271 b13b 7607 a13d 66cd 9e3d f580 86bc
00000120: e79f 99bd 81c0 a9bd 380c 893d 0205 513d
00000130: dd23 923d 6563 313d 3dc9 b53d 1fc2 8d3d
00000140: d00e e0bc 996d 86bd 255f 443d 0ee2 643d
00000150: 8794 d33c 65c3 d73d f3f0 373d 7eb6 a43d
00000160: fd2e c0bd 70b2 c53c 0314 653d 2f37 61bc
00000170: aad7 6f3d 5f6d 2fbc dd32 b8bd 6aec 4b3d
00000180: 6132 22bd ebda 38bc da37 67bd 185f 97bd
00000190: 6503 ec3d 44d1 a13d c369 4bbd 5f9b 653d
000001a0: 8216 a2bd 91a3 b03d f7c3 81bd 3c46 a9bc
000001b0: d7cc 9e3c 0243 1fbd 555d 833d e6e8 b8bd
000001c0: ddba c63c 9d7b 803d 67d9 fdbc bbbe 413c
000001d0: 6a68 023e b682 f83d ea9e 80bd b268 5a3d
000001e0: 6562 c43d 9b7e f13b 70dc 5b3c da9e d3bd
000001f0: 71a4 bbbd ce3d 56bd 4dc7 fd3d f3e6 713d
00000200: 23d2 65bd 4fbf 92bd 2393 79bd 2c28 96bd
00000210: 878c 9ebd 1dc0 a43c 29ab 63bc 5ba1 98bd
00000220: bcd0 0c3e 6594 67bd f4fe e23d 6dad 033e
00000230: ff65 f73d 2035 ac3c 693d f4bb 6927 3b3c
00000240: e11e b43d 31a5 30bc 2928 6ebc 2ac9 e4bd
00000250: 3d8d 963c cbec 7f3d fec5 1e3c 84f4 8b3d
00000260: 93bf 123d 0c04 543c 29d1 d73c dd2f 683b
00000270: 17e7 9e3d 659a c23b 1522 983d 6f10 35bd
00000280: c3b4 8d3d 3fb5 55bc 4761 903c 1a15 dbbd
00000290: 239c 9abd bf23 3d3d 73fc 5d3d 8885 c23b
000002a0: 4afd 403d d1b2 5bbd 9d85 793d 44f3 923d
000002b0: 4f6a 563d aafb 003e 25d4 efbc 23d2 fb3d
000002c0: ea7e 903d c9ff 3abd a4fa cc3c f81f ad3c
000002d0: 6a2e 563d cef0 52bd 5a97 58bc 49a3 8dbd
000002e0: 02c6 913c 4107 903d f121 253d 1a75 80bd
000002f0: 8fb7 063d 2780 f0bc 40bb 03bd df10 283d
00000300: 1e24 e9bc 9517 c3bb 45a8 68bd ecad a7bd
00000310: b07b 353d 3189 ebbc 8bb3 2cbd b1c1 953c
00000320: 487b 57bd 595f d63c a391 c3bd 96c6 bc3b
00000330: dd66 c23d 533c 003e 90aa 1a3d f7ab 0c3d
00000340: c048 493d 2fce 4abd 5add abbd 6d43 d0bb
00000350: 77ad 503d 0a4b 303d f023 a63c b3ee 7c3d
00000360: 3384 8f3d 3d06 193c f6f3 813d 4a3d bebc
00000370: f153 153e a4d2 f83d 12d4 dabc 7a90 403c
00000380: 37c3 b6bc d386 493a 131a 6b3d c62a 7ebd
00000390: b3ae 59bc 91e7 283d f4da 5b3d 2c9e 43bd
000003a0: d122 be3d 1599 f83c 8e03 083d 9d97 813c
000003b0: 973c 0e3d 59c5 023e 7ada 0a3d 810e 983d
000003c0: 17d1 913d 1e86 933a 0353 923c cc73 debd
000003d0: 073f 04bd 3431 4d3d 1593 d13d 857d ee3c
000003e0: edbf 353c 55bf 20bd 6e7b 753d 06b9 a3bc
000003f0: 3e50 373d f2b0 7cbb 559e 0b3d 92eb 8e3d

critic.linear1.bias f4 [128]
0.1252156 -0.006131378 0.084805064 -0.1057418 0.00754501 0.05072457 0.09010713 0.098414145
-0.037545677 -0.024104036 0.098977014 -0.039786953 0.10297517 0.029066455 -0.057291873 0.10247507
0.095698185 0.015238082 0.004259718 -0.03049624 0.11214253 -0.035070244 0.09390451 0.11151497
-0.117023006 0.07264909 0.021245128 -0.029964702 -0.046401765 -0.10223684 -0.010336558 0.12783433
-0.09169067 0.05112199 -0.10621622 -0.01820073 0.076931596 0.0071121524 0.1373551 0.052984606
0.04730627 -0.011377457 -0.10641415 -0.0066246353 0.07481543 0.0038200773 0.052803006 0.11940724
0.12067756 -0.0940682 0.04671736 0.083612666 0.03540795 0.005595693 -0.07824299 0.023153475
0.02522669 0.021009903 -0.0053650383 -0.059940383 0.012599958 -0.020681715 0.07184384 0.11704921
0.1009095 -0.09498629 -0.001037237 -0.012890875 0.057428487 0.123984024 -0.12358773 -0.11745111
0.12290287 0.056532692 0.11572313 0.10464595 0.09341571 0.08401065 0.09902759 0.084965736
0.11886003 -0.021650257 -0.014760142 0.05893369 -0.004302791 -0.12292217 0.04534107 0.06212118
0.03236756 0.09795203 0.022552017 -0.0512593 -0.12104447 -0.09424679 0.011326304 -0.078126304
-0.100921795 0.013254308 0.09882887 0.031033464 0.072191186 0.038433187 -0.045921214 0.056149513
0.001303266 0.029799642 0.020632276 0.016831992 0.10527754 0.013127474 0.085346475 -0.025890464
0.033496615 0.115700625 0.054428905 0.049275152 -0.083594814 0.031468328 0.07921301 -0.108194105
0.1187802 0.044267498 -0.087423615 -0.105368264 -0.03519582 0.103819594 0.05099622 0.08500117
00000000: 8538 003e bae9 c8bb 47ae ad3d 288f d8bd
00000010: 223c f73b 91c4 4f3d 168a b83d 5b8d c93d
00000020: 7fc9 19bd d475 c5bc 76b4 ca3d a5f7 22bd
00000030: a5e4 d23d c61c ee3c e2aa 6abd 73de d13d
00000040: 69fd c33d 26a9 793c 1b95 8b3b 40d3 f9bc
00000050: fcaa e53d d1a5 0fbd 0251 c03d f661 e43d
00000060: c2a9 efbd 0cc9 943d 430a ae3c 8978 f5bc
00000070: c70f 3ebd 8c61 d1bd ab5a 29bc 01e7 023e
00000080: 51c8 bbbd 4b65 513d e487 d9bd b319 95bc
00000090: 508e 9d3d 0f0d e93b d1a6 0c3e 6306 593d
000000a0: 38c4 413d 8368 3abc a9ef d9bd 7813 d9bb
000000b0: d538 993d 435a 7a3b f747 583d c88b f43d
000000c0: cc25 f73d d4a6 c0bd b45a 3f3d 1e3d ab3d
000000d0: ed07 113d 135c b73b dc3d a0bd 5bac bd3c
000000e0: 34a8 ce3c f61c ac3c 34cd afbb 0c84 75bd
000000f0: 0e70 4e3c b36c a9bc dd22 933d 7fb7 ef3d
00000100: a4a9 ce3d 2c88 c2bd e6f3 87ba 4034 53bc
00000110: 223a 6b3d 56eb fd3d 901b fdbd 358a f0bd
00000120: 80b4 fb3d d38e 673d 4000 ed3d 9e50 d63d
00000130: bc50 bf3d c70d ac3d face ca3d 8402 ae3d
00000140: e36c f33d e15b b1bc 86d4 71bc 7464 713d
00000150: 6dfe 8cbb 9ebe fbbd 8fb7 393d c772 7e3d
00000160: d993 043d 139b c83d 02bf b83c 46f5 51bd
00000170: 2ae6 f7bd 7604 c1bd f691 393c af00 a0bd
00000180: 16b0 cebd 9928 593c ca66 ca3d e439 fe3c
00000190: f9d8 933d 1e6c 1d3d e217 3cbd 08fd 653d
000001a0: 5ad2 aa3a 611e f43c 0505 a93c 3fe3 893c
000001b0: c09b d73d 9e14 573c 22ca ae3d 3d18 d4bc
000001c0: bf33 093d 73f4 ec3d d8f0 5e3d bed4 493d
000001d0: c233 abbd efe4 003d 6e3a a23d df94 ddbd
000001e0: 0943 f33d d651 353d 270b b3bd 51cb d7bd
000001f0: 7e29 10bd 5e9f d43d 6ae1 503d 1815 ae3d
