hover_falcon_raw_ckpt/ckpt_00008001.pt (torch, 823671 bytes, 15 tensors)

actor.linear1.weight f4 [128, 120]
000000 61 03 f7 3c 53 e3 ab 3c fd 3e 97 3d cb e8 6a 3d
       0.030152978 0.02098242 0.07385061 0.057350915
000010 43 fe 6c bd f1 44 93 3d e1 21 3d 3d 13 d1 e4 bc
       -0.05785967 0.07190884 0.046174888 -0.027931726
000020 37 31 7c 3d 83 1e 12 bd c8 88 f2 bb a1 21 a5 bc
       0.061570372 -0.03567363 -0.0074015595 -0.020157637
000030 29 b2 88 bd 25 dd 07 3e 47 9c 39 bd 14 2f 3f 3c
       -0.06674606 0.13267954 -0.045315053 0.011668939
000040 d8 2e 9b 3d f1 56 d3 3c 5d 41 12 3d 54 20 00 bd
       0.07577294 0.025798293 0.035706867 -0.03128083
000050 e0 c3 5f 3d 40 f3 53 bb 0d 01 7a bd b0 e2 94 bd
       0.05463016 -0.0032341033 -0.06103616 -0.072698
000060 47 44 46 bd 3f 7e a2 3c bc 5f 22 3d 50 de ec 3b
       -0.048404958 0.01983559 0.03964208 0.00722865
000070 aa 9f a6 bd aa 04 8d 3d 3d 3e 39 3c 13 2e db bd
       -0.08135922 0.06885655 0.011306343 -0.10702147
000080 c6 6f 44 bd 0e d5 57 bb f5 10 ae 3c 38 ee 96 bd
       -0.047958158 -0.0032933387 0.02124832 -0.07369655
000090 98 73 5b bd 69 59 0f bd fa 91 9a 3d 95 a8 9d bc
       -0.053577036 -0.034997378 0.07547374 -0.019245425
0000a0 be 75 08 3d dd d5 a0 bd bc d4 13 bb 31 27 bc bd
       0.033315413 -0.07853291 -0.002255722 -0.09187163
0000b0 60 01 8b bb 8f e7 38 bc b6 95 4a bd 59 24 7a 3c
       -0.0042421073 -0.011285677 -0.04945918 0.015267455
0000c0 52 3d 67 bd 88 18 9b 3d 89 7e 89 bd 62 1c 66 3c
       -0.056454964 0.07573038 -0.06713588 0.014044853
0000d0 c1 9b 83 3d 07 a5 be bc 75 75 32 bd c0 eb 8e 3d
       0.06426192 -0.02327205 -0.043569047 0.069785595
0000e0 ce 6b 66 3c ed c3 df bc f1 d3 bc bd 39 6e 4c bd
       0.014063789 -0.027315104 -0.09220112 -0.049909804
0000f0 d6 36 f2 3b 96 88 08 3e 32 64 8f 3c 6e 73 e8 bd
       0.007391791 0.13333353 0.017503832 -0.113501415
000100 13 3f 03 bd 4f af 0e 3c 2e cc a7 3d 60 27 a7 3d
       -0.032042574 0.008708789 0.08193241 0.08161807
000110 99 b4 a9 3d 0f 60 50 3c 44 57 fe 3c 15 e4 96 bd
       0.082863994 0.012718215 0.03104747 -0.07367722
000120 86 ad fd bc f4 9c aa bd 8b 6c ba 3d 0b f6 9e bd
       -0.030966531 -0.08330718 0.09102734 -0.07761773
000130 46 55 be 3d c8 8c ac 3c 04 42 8d 3d 1e 90 7d bb
       0.09293608 0.021063223 0.06897357 -0.0038690637
000140 6e 91 34 3c 65 be 05 3d 94 fc 8d bd b6 7b 7b bd
       0.011021001 0.032652277 -0.06932941 -0.061397277
000150 75 3a ac bc 4c 44 9d 3d f1 ba 7e bd 4c 64 37 bd
       -0.021023968 0.07679042 -0.06219 -0.044773385
000160 dc 61 b2 3d d5 ad a8 bd 4e 1b 7c 3d f2 e1 e4 3c
       0.087100714 -0.08236281 0.061549477 0.02793977
000170 cb 8f a5 bc 50 b5 37 3d bd 93 a3 bd 43 9e e2 bc
       -0.020210167 0.044850647 -0.07987163 -0.027663356
000180 d0 1a 9a bc 82 8e b0 3d bd 5f 64 3d b6 6a 58 3c
       -0.018811613 0.08620931 0.055755366 0.013209036
000190 54 f1 1f bd 25 42 49 bc 6b de 7a 3b 0d 3b 99 3d
       -0.039048508 -0.0122838365 0.0038279544 0.07481966
0001a0 ed f6 4a 3d a0 f9 a5 bd d1 8f 18 bd 56 5b d1 3c
       0.049551893 -0.08104253 -0.03724653 0.025556248
0001b0 a1 8b b9 bc 5e 58 d7 3d 2a 3f 4d 3d 26 78 be bd
       -0.022649588 0.105149016 0.050109066 -0.0930026
0001c0 b9 87 6a 3a 3e ad 29 bb e7 15 68 3d ca 65 92 3c
       0.0008946616 -0.0025890614 0.056661513 0.017870802
0001d0 bc ca b7 bd f9 7f 23 bd a0 29 21 3c 43 91 52 3d
       -0.089742154 -0.039916966 0.009836584 0.051408064
0001e0 05 e1 73 bb 84 6e 51 3c 23 04 06 bc 27 95 63 3d
       -0.003721298 0.012782697 -0.008179697 0.055562165
0001f0 68 ff ae bd 92 ae 92 3d 31 21 44 bc 35 1a ab bc
       -0.085448086 0.07162203 -0.011970804 -0.02088652
000200 49 1c 37 3d 51 8f 4d 3d 05 44 fb bc 15 ca 87 3c
       0.04470471 0.050185505 -0.030672083 0.016575852
000210 17 98 7e bc 31 e4 68 bd 7a 6b 15 3c 5c e1 be bd
       -0.015539191 -0.056858245 0.009119863 -0.09320328
000220 39 ed 80 bd 56 79 ba bd 8a 9c ec bc 4a 76 96 bc
       -0.06295247 -0.09105174 -0.028883237 -0.018366951
000230 d4 51 2f 3d 08 7d d5 3c 57 95 7b 3d e0 b2 ca 3c
       0.042802647 0.026060596 0.06142172 0.024743497
000240 17 30 4b bd 52 6c b0 3c 95 34 ac bd 93 a4 ac 3d
       -0.04960641 0.021536026 -0.08408467 0.084298275
000250 a5 50 c0 bd c2 33 cf 3d 50 1b 07 3c d7 e7 1c bd
       -0.09390382 0.10117294 0.008246258 -0.038307037
000260 16 20 1b 3d 71 2b a1 bd 3e 05 31 bc 8e ff 87 bd
       0.037872396 -0.07869614 -0.0108044725 -0.0664054
000270 d4 f1 45 bd 02 16 92 bc 16 66 d1 bc da 4d 94 bd
       -0.04832633 -0.01783276 -0.025561374 -0.072414115
000280 ee fd 2e 3d 74 0a 85 bd 6d 04 20 39 f6 3f 91 bd
       0.042722635 -0.064961344 0.00015260438 -0.07092278
000290 e3 b1 b4 bd 7d d5 a1 3d c1 33 d5 3c 41 39 37 bd
       -0.08822992 0.07902048 0.026025655 -0.044732336
0002a0 05 5e 47 3c 2e e3 21 bd de d3 71 3d cb bb 2c bd
       0.012168412 -0.039523296 0.059039943 -0.04217128
0002b0 b7 d7 b0 3d 24 ed 06 3d d4 77 04 3d fe 61 65 bc
       0.08634894 0.032941 0.03234084 -0.014000414
0002c0 2d 89 35 3d 84 bf 7b ba 78 2a 23 3d 39 68 94 3d
       0.044320274 -0.0009603428 0.039835423 0.072464414
0002d0 b8 c8 25 3d 35 9a 04 3c 83 a7 d4 bc 09 a9 4c 3d
       0.040474623 0.008093406 -0.025958782 0.049965892
0002e0 8d 3c cf 3c ce ef 98 bd 39 3f ac 3d b6 ed 72 3d
       0.025297428 -0.07467614 0.08410496 0.05930873
0002f0 a9 ec a4 bd dd 80 27 3d b7 9b 83 bd 84 c9 f8 3b
       -0.08052952 0.040894378 -0.064261846 0.007592382
000300 de d5 26 bd 00 c4 11 bd 73 0c 97 3c 6a ee 10 bd
       -0.040731303 -0.03558731 0.018438553 -0.03538362
000310 19 ee 08 3c 4f 15 30 3d 3b 4c 85 3d ac a8 4e bd
       0.008357548 0.04298907 0.065086804 -0.050453827
000320 37 d5 35 3d b9 8f b6 b9 dc e8 7e 3c 66 eb ac 3b
       0.04439279 -0.00034820827 0.015558448 0.005277085
000330 ce df ba bc 45 34 87 3d bd f3 a4 3d f2 d9 b6 3d
       -0.022811797 0.066017665 0.08054302 0.089282885
000340 1e 4c 7a bd 9c 49 02 bd b1 36 da bb 67 af 3f 3d
       -0.061107747 -0.03180848 -0.0066593518 0.046798136
000350 0a 0f 14 bd e6 8f cc bc 9d 75 91 3d 36 c9 c1 bd
       -0.036147155 -0.02497096 0.07102511 -0.09462206
000360 5b f1 ed 3a 51 95 82 bd 4a 74 7f bc cb 19 ac bd
       0.0018153595 -0.06376136 -0.01559169 -0.08403357
000370 e5 e5 30 bd 37 3f dd 3c fb a7 28 bd 97 d3 53 3d
       -0.043187995 0.027007682 -0.041175824 0.05171546
000380 db 11 84 3d 60 34 98 3b 61 23 8c 3d 5c a9 0f 3d
       0.06448718 0.0046449155 0.068426855 0.035073623
000390 b3 6a b5 bc 81 8b 32 3d 07 e9 bb 3d 16 66 b3 bd
       -0.022145605 0.043590073 0.09175306 -0.08759706
0003a0 aa 44 df bc 4f ce ee bc ab 7c 8d bd a5 07 49 3d
       -0.027254421 -0.02915111 -0.06908544 0.049079556
0003b0 66 db 6e 3d 61 03 12 3d d4 43 53 bc 0e 4a eb bc
       0.058314703 0.035647754 -0.012894589 -0.028721835
0003c0 77 2d a6 bd bc cc b7 3c 1e ae 8c 3d 2d 93 6a 3b
       -0.081141405 0.022436492 0.06869148 0.003579329
0003d0 a6 2a 02 bc 95 2e 81 bd ad ca c9 3d 33 de 7e bd
       -0.0079447385 -0.06307713 0.098531105 -0.062223624
0003e0 cf 48 77 3d 58 db 05 ba 02 52 b5 bd 34 84 cb bd
       0.06037217 -0.0005106232 -0.088535324 -0.09937325
0003f0 a9 33 85 3b 4b f9 4c bd 68 b9 4f 3c 3c b3 b8 bd
       0.0040649963 -0.05004243 0.012678482 -0.09018561

actor.linear1.bias f4 [128]
000000 1c 46 5c bd 14 40 07 bc b8 0d 18 bd 83 ca 44 bd
       -0.0537778 -0.0082550235 -0.03712246 -0.048044693
000010 e5 02 bf 3d c8 54 1c 3d 7a c5 c5 3d 2e f9 3e 3d
       0.09326724 0.03816679 0.09656806 0.046624355
000020 b8 ef 05 bc 1b 5b 97 3d ce eb 18 3d 2e c4 75 3d
       -0.008174829 0.07390424 0.037334256 0.060001545
000030 b3 05 18 bd 75 c8 a9 bd 3b eb 72 bd 6e 1a 87 bd
       -0.03711481 -0.08290187 -0.059306365 -0.06596838
000040 c4 c4 9c bd 98 61 94 3d 71 14 75 bc e5 b7 65 bd
       -0.076547176 0.07245177 -0.014958487 -0.05608358
000050 70 a3 08 3d a1 29 11 3c 3b 74 7a 3d 00 cd 97 3d
       0.03335899 0.008860023 0.061146002 0.074121475
000060 12 c7 8e bd 3a c9 17 3d 32 33 8e 3d a0 78 b8 3d
       -0.069715634 0.03705714 0.069433585 0.090073824
000070 9f 2a 3e 3d 30 6f 9c 3c 26 aa 9b bd 73 fa b7 bd
       0.046427365 0.019095987 -0.076008126 -0.08983316
000080 bb 75 95 3d 68 2a 72 bc b3 20 56 3d f1 88 95 bd
       0.07297846 -0.014780618 0.05227728 -0.0730151
000090 c7 89 cb 3b f2 b1 ea bc c4 43 4e 3d 82 9e 3d bd
       0.0062114927 -0.028649304 0.050357595 -0.046293743
0000a0 a0 5a 77 bd 3d 92 9b bd e1 2e 9e bd ae 73 91 bd
       -0.06038916 -0.07596252 -0.07723785 -0.07102142
0000b0 0a eb 9e 3d 5e a2 be bd df 73 48 3d fd ca b7 3d
       0.07759674 -0.09308313 0.04893863 0.08974264
0000c0 7c 81 05 bd a6 4a f9 3c ae 08 04 3d 79 10 9b bd
       -0.03259419 0.030431103 0.03223484 -0.07571501
0000d0 34 cd c0 3d 9e aa bd 3d f2 85 17 3c 25 17 6f 3d
       0.094141394 0.09261058 0.009248244 0.05837168
0000e0 8f f8 ca 3b db 5a 99 3d 8c b4 3f bd ee 37 dc 3c
       0.0061941813 0.074880324 -0.046803042 0.026882138
0000f0 72 5d 1c bd 3f a8 6b bd c6 3e a3 3d f0 43 8a 3d
       -0.038175054 -0.0575335 0.079709575 0.06751239
000100 a3 0c 2c 39 fc b8 b5 bc d6 ab 9f 3c cd 09 2a 3c
       0.00016407906 -0.022182934 0.019491117 0.010378313
000110 6c 1c 3c bb 32 df 00 3d 4d 40 7f 3d 08 5a 61 3d
       -0.0028703464 0.031462856 0.06231718 0.0550175
000120 a1 40 97 3b 8a c0 41 bd b5 4e a9 bd 97 71 60 3d
       0.0046158587 -0.04730276 -0.08266965 0.054795828
000130 8f 57 69 3d cb be 29 bc 1d df 8f 3b 9d 86 81 bc
       0.056968268 -0.01036043 0.004390611 -0.015811259
000140 7b a3 9a 3d 3f 74 9e bc a8 eb 99 3c b8 38 3b bd
       0.07550713 -0.01934254 0.018789127 -0.045708388
000150 bf eb 01 3d 20 56 9d bd ab ab 7d 3d d6 7e 89 bd
       0.031718966 -0.07682443 0.061931293 -0.06713645
000160 bc 79 77 3c 8b da 01 bb c2 f9 82 bc cb 96 c8 bb
       0.015104707 -0.00198141 -0.015988234 -0.0061214915
000170 46 57 8e 3d 9a 76 78 bd c8 de 9a bb 53 19 4e 3d
       0.0695024 -0.060659982 -0.0047262646 0.05031712
000180 9a 14 c2 3d 90 7a 7f ba b6 59 80 3d 9c 39 8f 3d
       0.09476586 -0.0009745741 0.06267111 0.0699341
000190 25 f1 55 bd 00 d5 a6 bd 0a 80 54 3d f8 47 c5 bc
       -0.052231926 -0.08146095 0.05187992 -0.024082169
0001a0 f0 cb 8e 3d 96 2a 7b bd 15 bb 9f 3d cc 34 ad 3d
       0.06972492 -0.06131991 0.07799355 0.08457336
0001b0 34 56 0b bb 9c ae 93 3c b7 a9 83 3d e8 6c 09 bd
       -0.0021261098 0.018027596 0.06428855 -0.033551127
0001c0 dd 43 6d bd e7 c4 87 bd 09 92 db 3c 6f 04 b5 bc
       -0.057926048 -0.06629353 0.026803033 -0.02209684
0001d0 95 ee 7a 3a d0 f8 49 bd f6 e2 1b 3c 90 7c 37 3d
       0.00095722947 -0.04930955 0.009514561 0.044796526
0001e0 57 10 a6 3d fc eb 8d 3d 7a 9d f4 bc f2 27 87 bd
       0.08108585 0.06929776 -0.029860247 -0.06599416
0001f0 9d 48 21 bc 03 32 00 bb eb f4 a4 bc 34 e0 0f bd
       -0.0098439725 -0.001956106 -0.020136317 -0.035125926

actor.linear2.weight f4 [128, 128]
000000 22 88 11 3c 40 a1 04 3d 36 e6 a7 3d 3f c5 84 bd
       0.008882554 0.032380342 0.08198206 -0.06482934
000010 61 65 60 3c ea 78 6c bb 7f e7 b0 bc 09 3d 94 3d
       0.013696046 -0.0036082813 -0.021594761 0.07238204
000020 f3 0a 8a bd 5c ee 5b bd 08 57 d7 bc d3 7c 99 3d
       -0.0674037 -0.053694114 -0.026286617 0.074945115
000030 2e cd 7e 3d a4 cc 1f 3c f4 1a 7c bd 1c 9a 30 bc
       0.062207393 0.00975338 -0.061549142 -0.01077893
000040 22 f9 9d 3c 7c 5f 52 3d cf 42 f3 bc dd 36 a1 ba
       0.019283835 0.051360592 -0.029694943 -0.0012299676
000050 09 a0 b5 bd 64 58 22 3d bf 6a 42 bc e2 94 40 bd
       -0.08868415 0.039635077 -0.011866271 -0.047016986
000060 9f 9e 30 bd 84 9d b2 3d be fc 24 3d 03 a3 8f 3d
       -0.043120023 0.0872145 0.040280096 0.07013514
000070 9b b6 37 3c 6a 8b 11 3d 38 72 9a 3d 91 a9 ee 3c
       0.01121297 0.035533346 0.07541317 0.02913359
000080 75 c1 94 bd e8 24 bf bd 1a 5f 85 bd 20 06 b3 bd
       -0.072634615 -0.09333211 -0.0651228 -0.087414026
000090 32 bf 9c 3d 7b 19 b4 3b 25 ed 35 bd 43 2b 6b 3d
       0.07653655 0.0054962016 -0.04441561 0.057414304
0000a0 4b a7 83 bd a6 84 49 bd 47 9d bb 3b dd 38 9b bc
       -0.06428393 -0.04919877 0.005725536 -0.018948013
0000b0 37 31 9f 3d 24 0b 8c bc b4 0d 78 bc ac 7c bc 3d
       0.07773059 -0.017095156 -0.015139986 0.09203467
0000c0 cc 83 6c bb c4 47 ca 3c 09 6b 19 3c 7d 35 a9 bd
       -0.00360893 0.024692424 0.009363898 -0.08262155
0000d0 d9 73 76 3d 8d d7 45 3c d7 b5 b5 bc c8 2c 8b bd
       0.060169075 0.012075317 -0.022181435 -0.06795651
0000e0 28 30 95 3c 33 3f 2f bd 5b cb 2d bc 33 a1 db 3c
       0.01821144 -0.04278488 -0.010607566 0.026810264
0000f0 84 75 43 bd 6c 6a 41 3d c7 d4 5c bc 56 e1 26 bd
       -0.047719494 0.047220632 -0.013478464 -0.04074224
000100 bd 1f 94 3d 56 5d aa 3d c9 8b 04 3d c1 23 4b bd
       0.07232616 0.08318584 0.032359872 -0.049594644
000110 93 9a 3c 3d 89 3f 98 3c 67 84 a0 bc 50 d0 8f 3d
       0.04604585 0.018584983 -0.019594384 0.07022154
000120 9e cb 09 bd 7e fd 8b 3b 6a 22 24 bd 84 1b 41 bd
       -0.03364145 0.004272162 -0.040071882 -0.04714538
000130 56 30 93 bd fa 06 8b bd fe 94 bb 3d 10 85 a4 3d
       -0.07186954 -0.0678844 0.091592774 0.08033192
000140 97 3d bb 3d ab 0f 6f 3c 90 37 a9 3d 18 6e 98 bd
       0.09142607 0.014591138 0.08262551 -0.07442874
000150 31 98 10 3d 47 af 81 bd d0 2b 25 bb 0e ad 81 3d
       0.03530139 -0.063322596 -0.0025203116 0.06331836
000160 c2 42 08 bd 58 32 63 bd a0 60 b1 bd 6d 9a be 3c
       -0.03326679 -0.055467933 -0.08661008 0.023266995
000170 f2 98 9a bd ed 9c 93 3d 0f d9 26 3c 85 6e 1a 3d
       -0.07548703 0.072076656 0.010183587 0.037703056
000180 2e 64 18 bc 6c 90 6c bd 35 75 df 3c 05 61 a6 3d
       -0.009301228 -0.05775492 0.027277568 0.08123974
000190 e6 f5 16 bd d3 15 a9 bd 21 cf 40 bd af 34 d2 3c
       -0.0368556 -0.08256116 -0.047072534 0.025659887
0001a0 11 e1 22 3d ec bb 72 3c 00 2e b3 bd f2 da f0 3c
       0.03976542 0.014815312 -0.08749008 0.029401276
0001b0 da bb 91 3d 53 c9 cb 3c bc 80 9f 3d ad 8a 77 bd
       0.07115908 0.024876272 0.07788226 -0.060434986
0001c0 1f 8f 91 bd c7 de 3f 3d 67 71 3d 3d c2 29 86 3d
       -0.07107376 0.046843316 0.046250727 0.065509334
0001d0 8d 38 82 bc c9 9d d7 bc ae 2a e4 3c 13 0d 4b bd
       -0.015896106 -0.026320355 0.027852383 -0.049573015
0001e0 dc 3c c0 bd b4 13 a1 3d 3a 17 75 ba eb ff 51 bd
       -0.09386608 0.07865086 -0.00093494693 -0.051269453
0001f0 89 86 6e 3d 36 50 92 3d 8b 8f 95 bd da f2 8b 3d
       0.05823377 0.07144205 -0.07302769 0.0683343
000200 90 3e d6 3d e9 17 95 3d b2 b7 85 3d 54 de b9 3b
       0.104611516 0.07279951 0.06529178 0.0056722555
000210 5f 56 ed 3c e6 d0 76 3d 42 65 1a bd b2 65 59 3d
       0.028971849 0.060257815 -0.037694223 0.0530755
000220 3d 90 89 bc 74 6d 88 bd 32 75 8a bd 15 20 72 3c
       -0.016792411 -0.066615015 -0.067606345 0.014778157
000230 8a fe d6 3d 60 4a 47 3d 93 3f 7d 3d 23 d2 8d bd
       0.10497768 0.048654914 0.061828207 -0.06924846
000240 f7 72 b8 3c 71 c3 10 3d 55 af 7c 3d 7c 70 03 bd
       0.022515757 0.035342637 0.061690647 -0.032089695
000250 18 ee 42 bc 8e fe 04 3d 47 b5 3a 3c 28 88 2c bd
       -0.011897586 0.032469325 0.011395759 -0.042122036
000260 eb 16 a5 bd f6 47 35 3c af 59 00 3d 3b ed 05 bd
       -0.08061012 0.01106452 0.03133553 -0.032696944
000270 38 9a 8c bd 24 07 06 bd 6f 55 6a bd 63 9b 02 3d
       -0.068653524 -0.032721654 -0.057210382 0.03188647
000280 f9 f4 96 bc ea f9 a7 3d 21 cf 28 bd 23 33 c1 bc
       -0.018427359 0.08201964 -0.04121316 -0.023583954
000290 4c 33 a5 bd 43 1e 5b bd 28 84 98 bb 3a 0a 31 bc
       -0.08066425 -0.053495657 -0.004654426 -0.010805661
0002a0 81 40 30 bd ce 47 84 bd 7f 07 76 bd 8e ed 61 bb
       -0.043030266 -0.06459008 -0.060065743 -0.003447387
0002b0 42 26 64 3d 70 37 ad 3b 97 76 36 bd 57 81 04 3d
       0.055700548 0.0052861497 -0.04454669 0.03234991
0002c0 05 9c 54 3d d8 22 16 bd 19 6a 05 bd 26 1f ec 39
       0.051906604 -0.036654323 -0.032571886 0.00045036635
0002d0 53 38 a2 3d 54 be 84 bd f6 71 a0 3d 17 7a 06 bd
       0.07920899 -0.06481615 0.07834236 -0.032831278
0002e0 d6 a0 43 bc 0e eb 3c 3d 54 fa b2 bd cd ba 64 bd
       -0.011940202 0.046122603 -0.087391526 -0.05584221
0002f0 37 7c 7e 3d b5 d3 06 bd 12 34 74 3c 0d f3 bb bd
       0.06213018 -0.032916743 0.014904993 -0.09177218
000300 bb d3 84 3d d5 c4 8f 3d f6 31 bc 3d 9b 03 d6 bc
       0.06485697 0.070199646 0.09189217 -0.026124766
000310 4a f8 00 bd 93 85 3f 3d 6f 00 d0 bc 16 37 17 bc
       -0.031486787 0.046758246 -0.025390832 -0.009229442
000320 b3 99 97 3d dc ba 9a 3b 24 5d b1 3c 68 77 a1 3d
       0.07402363 0.0047219824 0.021650858 0.07884103
000330 29 d6 23 bc 3e 6e 6c 3d 8e fb b4 bd 19 d5 5b 3d
       -0.00999979 0.057722323 -0.08837043 0.053670023
000340 da 89 47 bd 29 99 9f 3d c6 32 af bd 3b 42 ec 3c
       -0.04871545 0.07792885 -0.08554606 0.028840175
000350 43 89 0e 3c 76 59 0d 3d 07 32 7c bd b8 af 8a 3c
       0.008699718 0.034509145 -0.061571147 0.016929492
000360 63 f4 a1 3d ee c5 5c bd 4e 75 8b 3d 17 ee 91 3c
       0.07907941 -0.053899698 0.068094835 0.017813725
000370 80 09 a4 3b 46 bf 31 3d 18 43 9d 3d 05 fe 86 bd
       0.0050060153 0.043395303 0.07678813 -0.06591419
000380 b3 b8 85 bd 5e c6 81 bc 6b 9f a3 3d 0a 8f 91 3d
       -0.06529369 -0.01584166 0.07989391 0.07107361
000390 23 75 cb bd 94 d4 5c bc 70 d0 aa 3c 33 f8 9d bc
       -0.099344514 -0.013478417 0.020851344 -0.01928339
0003a0 65 33 af 3b 19 8e b7 3d b9 84 86 bd 34 fc 8f 3d
       0.005346703 0.0896265 -0.065682836 0.07030526
0003b0 cc 7e 1d bd ed 0e 57 3d a9 ab a2 bd 4e c8 96 3d
       -0.038451 0.05250447 -0.07942898 0.07362424
0003c0 cf c7 54 bc f3 52 33 3d 73 c9 af bd 67 e9 9c 3d
       -0.012987091 0.04378028 -0.08583345 0.076617055
0003d0 46 93 9c bd 76 ff 80 3d cf e9 88 bd 8a d8 8e 3d
       -0.07645278 0.06298725 -0.066852205 0.06974895
0003e0 35 18 d0 3c af d4 87 3d 61 fb 11 3d 3b 05 01 3c
       0.025402168 0.06632363 0.035640124 0.007874782
0003f0 fc ec 80 3d 52 3e 12 3c 99 53 8b 3d 84 e6 b0 3d
       0.06295201 0.008925991 0.06803054 0.08637717

actor.linear2.bias f4 [128]
000000 f0 2e 88 3d e7 0e f0 3c 3b f5 a3 3c 75 f0 b2 bd
       0.066495776 0.029303981 0.020014396 -0.0873727
000010 7d a3 e5 3b a6 e1 4a 3d 97 4c d2 3c fd 25 ea 3b
       0.0070080147 0.0495316 0.025671287 0.007145642
000020 27 3d 92 bd be 0e 72 bd 9f b3 dc bc 6b 9e 91 3d
       -0.0714057 -0.05909609 -0.026941119 0.07110294
000030 41 57 57 3d 4a 91 b2 bd ac 95 69 bd 3f ce 2f 3d
       0.052573446 -0.08719118 -0.057027504 0.0429213
000040 da 72 30 3d a7 8f 59 bd 92 bd ed 3c 98 e1 b3 3d
       0.04307828 -0.053115513 0.029021058 0.08783263
000050 72 9d 7c 3d 71 00 35 bd db e6 24 ba fe 12 2a bd
       0.06167359 -0.044189874 -0.00062905037 -0.04152202
000060 96 92 b3 bd 83 86 19 bd d4 6d 7e 3d 1d af 2a bd
       -0.087681934 -0.037481796 0.06211646 -0.041670907
000070 7e 5a ae 3d 6f c2 be 3d f0 6c 45 bd 94 ea 76 3d
       0.08513354 0.09314429 -0.048199594 0.060282305
000080 b4 ce 4c bd ef ba 28 bc 2c f3 80 3d d2 de 19 bd
       -0.050001815 -0.010298475 0.06296381 -0.037566014
000090 da 3e bc 3d 03 2e be bd 56 c4 e9 3a fc 57 85 3d
       0.091916755 -0.0928612 0.0017835002 0.06510922
0000a0 f1 4f 9b bc 36 f0 78 bd 8c ec 16 3d 3d e5 9e bd
       -0.018959017 -0.060775958 0.036846682 -0.077585675
0000b0 12 8c 92 3c ec 30 a1 3d c3 51 02 3d 17 7a a5 3c
       0.017889056 0.07870659 0.031816255 0.020199819
0000c0 82 0e c8 bc e9 0c c0 3d 84 2a ea bb c8 86 d1 bc
       -0.02442098 0.093774624 -0.0071461815 -0.025576964
0000d0 6b 4f 53 3d b7 46 8b 3d e3 4b 40 3d 82 fb 9e bd
       0.05158941 0.06800597 0.04694737 -0.07762815
0000e0 87 f7 9d 3d 2f 1b 2d 3d b8 b6 07 3d 47 e8 cb 3c
       0.07713228 0.042262252 0.03313324 0.024891032
0000f0 e4 18 ae 3d f5 0f d2 bc 7f 60 08 3d 33 16 70 3c
       0.08500841 -0.025642375 0.03329515 0.01465373
000100 22 81 c8 3d 4c 2d 88 bd fb 43 4c bc bd 5c ba 3c
       0.09790255 -0.06649265 -0.01246738 0.0227493
000110 1f 05 8c bd 05 ed 91 bd a3 28 32 bc bb 5d ae bc
       -0.06836914 -0.07125286 -0.010873946 -0.021284929
000120 94 03 6e 3d 4f 0a 03 3d a9 5d b3 3d d7 44 bf bc
       0.05810888 0.031992253 0.08758099 -0.023348255
000130 bd 56 6a 3d e5 3a 82 bd ca a3 91 bc 20 ad 5a bd
       0.057211626 -0.063588895 -0.017778296 -0.05338776
000140 e0 b8 0d bb f7 51 78 3d f3 3b a7 3d 0b ae 90 3d
       -0.0021625087 0.060625043 0.08165731 0.07064446
000150 5e 28 07 bb 31 76 77 3d 7a c5 0e bd 4e 54 0c bd
       -0.0020623426 0.06041545 -0.034856297 -0.034260087
000160 d9 78 97 3d 77 aa 44 bd 03 44 38 3c 7b 95 87 bb
       0.07396097 -0.04801413 0.011246684 -0.0041376925
000170 9b 73 b6 3d e1 97 35 3d d8 c2 a0 bc 55 2e 76 3b
       0.08908769 0.044334296 -0.019624159 0.0037564237
000180 63 e8 ba ba ae ee 83 3d 34 ff a9 bd 39 24 b0 3c
       -0.001425993 0.06442009 -0.08300629 0.021501647
000190 52 1f 10 3d 4a a5 72 bd 12 58 77 3d 93 36 50 bc
       0.03518612 -0.059239663 0.060386725 -0.012708324
0001a0 51 10 33 3d 9e c4 83 3d c3 ca 00 3d 68 02 30 3d
       0.043716732 0.06433986 0.03144337 0.042971045
0001b0 d8 1d 1e 3c b2 b4 58 3b 37 1e eb 3c 6e 2a 39 3d
       0.00965067 0.0033066687 0.028700931 0.04520648
0001c0 40 d4 a4 3d 3a 9e a8 3c c4 08 9f bc 74 c7 4b bd
       0.08048296 0.02058326 -0.01941336 -0.04975076
0001d0 c0 dd 99 3d 14 6f c2 bd ff 21 a1 bd 6d e6 8c bc
       0.075129986 -0.09493843 -0.07867812 -0.01719972
0001e0 ce 5e 19 3d ff e6 64 bd ba 6f b2 bd 6e a6 a8 bd
       0.03744393 -0.055884358 -0.087127164 -0.08234869
0001f0 f2 53 5e 3d 43 41 a2 3d 5b a5 a1 3d 35 ec bd bc
       0.054279275 0.07922604 0.07892867 -0.023183921

actor.linear3.weight f4 [128, 128]
000000 c5 c1 b4 bd be f9 85 3d 63 5f 10 3d 94 18 a6 bd
       -0.08826021 0.06541775 0.035247218 -0.08110157
000010 e0 36 75 3d 5b 72 05 bc 13 e4 ae 3d 2c b9 63 bd
       0.059866786 -0.00814494 0.085395955 -0.055596516
000020 dd 28 3c bd 21 df 6b ba 9d b3 56 3d 98 33 83 3d
       -0.045937408 -0.00089977874 0.052417386 0.06406325
000030 bb d9 82 3d 7f 22 2a 3d b2 57 60 3d ab b3 c7 3c
       0.06389185 0.041536804 0.054771133 0.024377665
000040 6d 2b 88 3d de 6c 4d 3c 1e 08 75 3b 62 66 7e bd
       0.06648908 0.012538163 0.0037388871 -0.06210936
000050 ce 54 90 3d f4 6b 8c 3a 40 06 e7 3c 89 72 a9 3d
       0.07047425 0.0010713325 0.028201222 0.08273799
000060 3e 4e 3b bc 15 b6 eb bc 45 c4 ac 3d d8 40 54 3d
       -0.011432229 -0.028773347 0.08435873 0.051819652
000070 8c b4 80 3c eb 6c bb 3d 03 c9 9d bd f0 27 99 bd
       0.015711091 0.09151634 -0.077043556 -0.074783206
000080 29 30 89 3d f4 78 6f bd b4 4a 1c bc 34 9c 06 bd
       0.06698639 -0.05846496 -0.009539295 -0.03286381
000090 94 e1 4a 3d d2 c2 3e bd b2 7e 2e bd 6a 52 b9 ba
       0.049531534 -0.046572514 -0.042601295 -0.0014138941
0000a0 1f a8 bf 3b 96 50 1d 3d ac 22 94 bb 0d 5f 6c 3a
       0.005848899 0.03840693 -0.004520735 0.0009016849
0000b0 98 d8 8b bd 5e cb 3a bc cc 8c 37 bd 4f 49 4c bd
       -0.06828421 -0.011401026 -0.04481201 -0.0498746
0000c0 7b 7d 6c 3c 7a 48 6e bd 5b 58 88 bd 0e 39 ea 3b
       0.014434214 -0.058174588 -0.066574775 0.0071479147
0000d0 d9 94 d4 bc ea cb c9 3b 2e 31 92 bc fb 69 78 3d
       -0.025949882 0.0061583417 -0.017845716 0.060647946
0000e0 e4 ca 50 3d b6 2a a8 bc ab 70 7f bd 40 45 9b 3d
       0.05097474 -0.020528179 -0.062363308 0.07581568
0000f0 3c f6 1b 3d 84 cd 44 39 73 10 af bd bc be 80 bd
       0.038076624 0.00018768577 -0.08548059 -0.0628638
000100 38 2f bd bd b2 1a 99 3d cc 64 92 3c cb 2d a7 3d
       -0.09237522 0.07475795 0.01787033 0.08163031
000110 e2 78 93 3d d6 c3 17 3b 25 61 e1 bb ea a8 a4 3c
       0.07200791 0.0023157499 -0.0068780356 0.020100076
000120 a3 ae 9d bd 84 0b d2 3c 51 e3 9a 3d 2f 7a 3f 3d
       -0.07699325 0.025640257 0.075628884 0.046747383
000130 f4 47 08 3d 60 c7 43 bd fe 4c 05 bd e1 d9 59 bd
       0.033271745 -0.04779756 -0.03254413 -0.0531863
000140 5f 25 51 bd 36 95 8e bd b9 13 56 3d 15 87 7a bd
       -0.05106103 -0.069620535 0.052264903 -0.06116398
000150 da 3a 97 3d 2e 52 87 3d 01 e9 a1 3d 7e 89 3d 3d
       0.07384272 0.066074714 0.0790577 0.0462737
000160 48 f4 75 bd bb 0b 19 3c 6b b6 9a bc ae 58 6f 3d
       -0.060047418 0.009341176 -0.018885812 0.05843418
000170 fd 22 6f 3d 21 11 2d bc a3 81 18 3d 6a 8f 9b bd
       0.058382977 -0.010563166 0.037233006 -0.075957134
000180 28 9e 78 bd fb 78 00 bd 09 4a b4 3c 5a a9 c6 3b
       -0.060697705 -0.031365376 0.022007959 0.0060626687
000190 db 63 83 bd f8 b4 24 3d 73 94 9e bd 66 2c bb 3c
       -0.0641553 0.040211648 -0.07743158 0.02284832
0001a0 74 65 b6 bd 27 bd 81 3d 5c e5 73 3d a3 2d 97 bd
       -0.089060694 0.06334906 0.059544906 -0.073817514
0001b0 cb 92 3d 3d 1a 23 00 3c 66 74 cb 3c 26 7f 0e 3c
       0.04628257 0.007820869 0.024835777 0.008697307
0001c0 1a 19 a3 bc c2 7f ba 3d 56 39 9c 3d 55 dd b7 3c
       -0.01990943 0.09106399 0.076281235 0.022444407
0001d0 46 a1 14 3d a2 3e 2f 3d f9 b5 3c bd 70 fe a2 3d
       0.036286615 0.04278434 -0.04607198 0.07958686
0001e0 be 63 3f bc 31 15 5f 3d fd 01 ff 3c 6b 79 cc 3c
       -0.011681495 0.05446357 0.031128878 0.02496024
0001f0 5f 69 94 bd 58 bf ae bd fa 19 8b bd 90 ce be 3c
       -0.072466604 -0.0853259 -0.06792064 0.023291856
000200 c8 be 22 b8 f2 d5 a7 bd 2f 3b 8f bd 9d 6e 80 3d
       -3.880149e-05 -0.08195104 -0.0699371 0.06271098
000210 11 88 ef bc 8e 9a 78 bc 37 6c c2 3c c4 0b fe bc
       -0.029239686 -0.015173567 0.023733241 -0.03101147
000220 90 d8 c1 3b 19 44 58 bd ab 9b 73 bd 5a 65 7f bd
       0.005915709 -0.052799318 -0.05947463 -0.062352516
000230 8e 6c fb bc 49 b5 85 bd 9e be 45 3d 86 71 60 3c
       -0.030691411 -0.06528718 0.04827749 0.013698941
000240 da 86 0a 3d d6 eb 43 3d d9 be 4a 3d 8d c5 45 bd
       0.03382001 0.047832333 0.049498413 -0.048284102
000250 de a0 65 3d 63 40 46 3c e4 bb 84 3b 63 b9 a0 3d
       0.056061618 0.012100312 0.0040507186 0.0784786
000260 53 44 ee 3c ba b0 37 3d a0 b2 b1 3d 12 9b 45 3d
       0.029085314 0.044846274 0.08676648 0.04824359
000270 6b 6e b0 3d 96 e5 c4 bc 02 93 ac bd aa 2d 70 bd
       0.086148106 -0.024035256 -0.08426477 -0.0586373
000280 e0 f8 b7 bd b9 1c 92 bc fd 00 9f bc 44 42 55 bd
       -0.08983016 -0.017835962 -0.019409651 -0.05206515
000290 f3 78 9c 3c 5c 2f 2d bc a0 25 9a bd 92 c2 ab bd
       0.019100642 -0.010570373 -0.07526708 -0.08386721
0002a0 92 64 b6 bd 01 91 89 3d 67 e8 39 bd cf ba aa 3c
       -0.08905901 0.067171104 -0.04538765 0.02084103
0002b0 94 03 4e bc 81 86 a9 3d 4c aa 49 3d cd e0 2e bd
       -0.012574095 0.08277608 0.049234673 -0.042694855
0002c0 97 d0 a1 3d 4d bf 58 3d 7e 15 92 3d 55 90 d3 bc
       0.079011135 0.052916814 0.071330056 -0.025825659
0002d0 11 7a 3b 3c c0 7f b3 bc 24 fc ac 3c 78 cc 90 bb
       0.011442677 -0.021911502 0.021116324 -0.004418906
0002e0 ea fa 87 bd 1d 81 b3 bc 2c 23 5f 3c e8 f0 2a bb
       -0.06639655 -0.021912152 0.0136192255 -0.0026083533
0002f0 f7 96 2d ba 86 85 9a bd dc 98 1b bd d8 4c 7e 3d
       -0.0006621922 -0.07544999 -0.037987575 0.062085003
000300 49 c4 0e 3d a0 a2 c0 3c c5 81 a8 3d 33 c8 8f bd
       0.03485516 0.023515046 0.082278766 -0.07020607
000310 02 d8 3a bd e0 c7 d3 b8 b7 f3 30 3c f9 cf 20 bd
       -0.045616157 -0.00010098494 0.010800294 -0.03926084
000320 ee af 94 3d 48 3f 37 bd c5 0b 99 bd b7 35 4c 3d
       0.072601184 -0.044738084 -0.07472948 0.049855914
000330 f6 56 20 bd bd d5 cb bc 7e 65 18 bd d5 74 39 3d
       -0.039145432 -0.024882192 -0.037206165 0.045277435
000340 85 70 18 3d a6 88 b7 3c 54 25 39 ba 42 b5 1a 3d
       0.037216682 0.022404026 -0.0007062752 0.037770517
000350 38 31 98 bd a4 ec f6 bb e8 f2 f3 ba e5 db 2f bd
       -0.07431263 -0.007535534 -0.001861182 -0.042934317
000360 66 bd ff bb ae 5c 30 3d 1d 58 27 3d 63 67 3e 3d
       -0.0078045605 0.043057136 0.040855516 0.046485316
000370 86 9a 85 bd 71 3b 72 bd 44 dd a3 bd ff d9 a1 3d
       -0.06523614 -0.05913872 -0.080011874 0.079029076
000380 7c ec ba 3c 18 84 69 bd 3b 6f 94 3d 33 49 5f bc
       0.022817843 -0.05701074 0.07247778 -0.013628292
000390 37 e8 42 3d 98 9d 82 3d 60 79 54 bc 2f 36 d9 bb
       0.04758474 0.06377715 -0.012968391 -0.0066287736
0003a0 34 42 62 bd 9e 11 12 bd 14 d0 3a bd cc 47 80 bc
       -0.055238917 -0.035661332 -0.045608595 -0.015659235
0003b0 2b da 8e bd d8 fa 18 bd 9f 42 97 bd af 0b 11 3d
       -0.06975206 -0.0373486 -0.07385754 0.035411533
0003c0 77 13 4d bd 68 42 67 bd 5d 3f 99 ba 80 d6 a7 bd
       -0.05006739 -0.056459814 -0.0011691857 -0.081952095
0003d0 3f 06 a3 3d d4 c1 b2 bc 77 8d ae bd b5 c7 7e bc
       0.07960176 -0.02182094 -0.08523076 -0.015550544
0003e0 fd f7 8e 3c 23 c2 81 3c 7f 03 fd 3c 0d 98 c7 bb
       0.017452234 0.015839642 0.030885456 -0.006091124
0003f0 92 17 55 3d 01 e3 47 3d d2 f5 75 bc 22 f8 aa 3d
       0.05202443 0.048800472 -0.015012221 0.08348109

actor.linear3.bias f4 [128]
000000 b4 64 ea 3c 64 81 57 bd 62 9f 99 3d ae 5e e1 bc
       0.028612472 -0.05261363 0.07501103 -0.027510967
000010 fe fd b4 bc 59 bc 30 3d 69 74 19 bd 9e 29 c3 3d
       -0.02209377 0.043148372 -0.037464533 0.09529422
000020 e3 0b 67 bd de 4a 32 3d 56 1d f9 3c f1 16 86 bd
       -0.05640782 0.04352843 0.030409496 -0.065473445
000030 8e 0a 96 3d 10 04 5e 3b 27 53 e1 bb 28 1c 60 3d
       0.07326232 0.0033876933 -0.0068763676 0.054714352
000040 ce 39 2e bd 14 97 8f bd 4d a9 02 3c cc d6 42 3d
       -0.042535596 -0.07011238 0.007974935 0.047568128
000050 da 60 9d bd 80 9e 96 bc 93 49 a0 3d 8f 3e cd 3b
       -0.076844886 -0.018386126 0.07826533 0.006263561
000060 ca 23 11 bd cf 93 93 3d ea ed 48 bd ab 63 ed ba
       -0.03543452 0.072059266 -0.049055018 -0.0018111368
000070 2d 1e 57 bb e6 6f 83 3d 3f 7f 66 bc 01 9f cc bc
       -0.0032824383 0.06417827 -0.014068424 -0.024978163
000080 93 d5 97 bd 6a c6 cb bc 74 d9 0a 3d fa 79 8c 3d
       -0.07413783 -0.024874885 0.033898786 0.06859203
000090 d7 54 10 bd 38 b6 a7 3c 8d 23 4c 3d a5 39 27 3d
       -0.03523716 0.02047263 0.04983859 0.04082646
0000a0 91 7f 0a 3b 58 c9 96 bd a3 a7 7c bd 8e 41 9d bd
       0.0021133164 -0.07362622 -0.06168331 -0.07678519
0000b0 62 b1 8d bd d4 ba 59 bd 2f ff 14 3d d4 1b 4e 3d
       -0.06918599 -0.05315669 0.036376175 0.050319508
0000c0 f0 3b 72 bc 11 dd cc ba 61 ff ea bb 95 d4 f6 3c
       -0.014784798 -0.0015629848 -0.007171557 0.030130664
0000d0 f4 99 3e 3c 47 52 ad 3d 4e a0 86 bd 66 4e 4d 3d
       0.011633385 0.08462959 -0.065735444 0.050123595
0000e0 ef de fb 3c 65 f1 ca bc f2 24 10 bd ec df 0d 3d
       0.030745951 -0.024773309 -0.035191484 0.034637377
0000f0 39 0f 0c bd 60 af c8 3d 57 6e 30 3d e6 c3 32 bc
       -0.034194205 0.09799075 0.04307398 -0.010910964
000100 08 df 62 bd f0 c5 b6 3d a5 b6 a2 3d 0c 35 a9 3d
       -0.05538848 0.08924472 0.07944993 0.08262071
000110 73 be fd 3c 24 34 95 3d 0d 71 fd bc 16 f3 94 bc
       0.030974602 0.07285336 -0.030937696 -0.018182319
000120 5e 1b 93 bd 28 6e 84 bd de 26 6f 3d 65 59 10 3d
       -0.07182954 -0.06466323 0.058386676 0.035241503
000130 ac a9 ac bd c9 54 99 bc 19 0e f9 bc 1a df 1a 3b
       -0.084308 -0.018717187 -0.03040223 0.0023631514
000140 be db 65 3d 23 bb 9f 3d 33 75 88 3d 36 ab 8d 3d
       0.056117766 0.07799365 0.06662979 0.069174215
000150 f5 73 24 bd e2 47 a4 bd 9b 08 9d 3d 23 aa 8b 3d
       -0.040149648 -0.08021523 0.07667657 0.068195604
000160 78 8d 8c 3d 66 67 f2 3b bf b3 9e bd ff 42 88 3d
       0.068629205 0.00739758 -0.077491276 0.066534035
000170 55 23 55 3d 85 86 60 bd dd 5b 90 3d 49 e5 8b 3d
       0.05203565 -0.054815788 0.070487715 0.06830842
000180 7c 12 80 bd 98 ab 53 bd f4 d8 ae 3d 2d 85 ae 3d
       -0.062535256 -0.051677316 0.08537474 0.08521495
000190 fc b2 1c 3d 42 e3 98 bd d9 2a 53 bd 0f 6f 16 3c
       0.03825663 -0.07465221 -0.051554535 0.009181752
0001a0 c1 87 99 bd 0d 13 3b 3d 8c 0b a7 3d f3 78 63 bd
       -0.07496596 0.045672465 0.08156499 -0.055535268
0001b0 9c 8a 9c bd c2 ef 1e bd 4e 16 8c bd ad 6c 20 bd
       -0.07643625 -0.03880287 -0.06840192 -0.03916614
0001c0 1a 0e 42 3c d6 81 73 3d 49 6e 92 3d e3 6b 2d 3c
       0.011844182 0.059449993 0.071499415 0.010584804
0001d0 e2 c0 9f 3d 10 82 8a 3d 0e a4 d4 bb be 3f 18 3c
       0.07800461 0.06763089 -0.0064892834 0.009292541
0001e0 79 af a3 3c 6c 7c 3f 3d 25 d5 85 bd c4 ed 13 3d
       0.019981133 0.046749517 -0.06534795 0.036115423
0001f0 cf 3c 27 3d d4 ec 7f 3d e5 a3 ac 3d 9d 58 0b 3d
       0.040829476 0.062481716 0.08429698 0.034020055

actor.linear4.weight f4 [9, 128]
000000 4b b1 ef 3c f0 db d5 3c 2e 7c 5e bd 8a d9 0c bc
       0.029259345 0.026105851 -0.054317646 -0.008596787
000010 a4 6e fe 38 78 d4 b0 bd a1 4c 1a 3d ae 5a a7 3d
       0.00012132272 -0.08634275 0.037670735 0.08171593
000020 e0 3f 90 3d 1c 40 bd bc 3c 23 90 bd 15 0d 85 bc
       0.07043433 -0.023101859 -0.070379704 -0.01624159
000030 b0 3a c3 3c 8e c8 1f bd 8c 0e 2e bc a5 e4 3b bd
       0.023831695 -0.039009623 -0.010623585 -0.04587235
000040 03 2d 89 bd 32 2a 85 bd 74 be 57 3d 23 de 55 bd
       -0.066980384 -0.06502189 0.052671865 -0.0522138
000050 e3 4e 90 3d 47 ad 97 3d 93 fb 0c 3b 3f a2 93 3d
       0.070462964 0.07406097 0.0021512255 0.0720868
000060 bc 3e 75 bd 54 5c a1 3d b6 66 02 bc 23 33 a5 3d
       -0.05987428 0.07878938 -0.0079590585 0.08066394
000070 a1 c3 76 3d 43 ef 8a bc e2 f5 5b 3d 71 00 75 bd
       0.06024516 -0.016959792 0.05370129 -0.059814874
000080 f8 d1 81 bd 2d 68 fb 3c bf fd 6f 3d 38 15 96 3d
       -0.063388765 0.030689323 0.0585916 0.07328266
000090 d7 46 93 bd fe 82 ee 3c ef 5d a3 bd a5 0a f0 3c
       -0.07191246 0.029115196 -0.07976901 0.02930195
0000a0 ba d7 00 3d 72 59 96 3d 3d c2 db bc 53 75 86 bd
       0.031455733 0.07341279 -0.026826018 -0.065653466
0000b0 55 30 95 3c c7 6a 99 3d c7 a8 6d 3c 76 11 18 bc
       0.018211523 0.07491069 0.014505572 -0.009281507
0000c0 6c 0b 95 bc ec 67 21 3d 1b 18 43 bd eb 98 15 3c
       -0.018193923 0.03940575 -0.04763041 0.009130697
0000d0 40 e6 3f 3d 6d 0c 4e bc 55 51 14 bc 22 46 b1 bd
       0.046850443 -0.012576205 -0.009052594 -0.08655955
0000e0 d1 49 db 3c 16 b1 f3 ba a2 8f 13 bd c5 73 d5 bb
       0.026768597 -0.0018592204 -0.03602565 -0.006514045
0000f0 66 cb 55 bd 9c 1d c9 3c d8 a2 8d bd 6b 53 be bd
       -0.05219593 0.024550252 -0.069158256 -0.092932545
000100 7f 7f 6c bd cf 6d 46 bd 79 04 20 3d 77 d4 7b bd
       -0.057738777 -0.048444565 0.039066765 -0.06148192
000110 61 df 2b bd b0 e1 87 bc c4 d7 9e 3d e9 02 b6 bc
       -0.041961078 -0.016587108 0.07755998 -0.022218185
000120 d5 45 5b bd 84 f4 86 bc 1d dd 5f 3d 5f 43 74 3b
       -0.053533394 -0.016474016 0.05465423 0.0037271602
000130 e3 ee 96 bd 3e 5e 16 bd 46 e1 bb 3c 70 8f 13 bd
       -0.07369783 -0.03671097 0.022934567 -0.036025465
000140 0c 9f 9a bd 68 4e 4a bd b1 82 40 bd c4 ab 86 3d
       -0.07549867 -0.04939118 -0.046999637 0.065757304
000150 7f f2 f8 bc dd c9 0e bd c2 52 78 3d 45 06 42 bc
       -0.030389069 -0.03486048 0.0606258 -0.011842315
000160 6e ab 8c bd 56 83 8e 3d de 64 7f bc 00 14 ad bd
       -0.06868635 0.06958644 -0.015588013 -0.0845108
000170 55 78 04 3d 85 7a 96 bb d2 3f 87 3c 66 12 58 bd
       0.03234132 -0.004592242 0.016509924 -0.05275192
000180 b4 10 c8 bb 7c 1e 3a bd 0d f1 3a bc 6a 22 d1 3c
       -0.006105507 -0.04543923 -0.01141001 0.025529105
000190 ed 30 7e bd 0d 70 85 bd 4e db 19 39 7a 7d b1 3c
       -0.062058378 -0.065155126 0.00014672914 0.021666277
0001a0 b4 af ee bc 58 2f 8c bc 89 eb c1 bc 69 11 80 3d
       -0.029136516 -0.017112419 -0.023671882 0.06253321
0001b0 81 2f 6d 3c c6 2e 7d 3d fd 7a db 3a 40 18 27 3d
       0.014476658 0.061812185 0.0016745027 0.04079461
0001c0 6d 77 9b 3d a9 bd 3e 3d 1d f3 33 3d 02 8d 79 3d
       0.07591138 0.046567593 0.043933023 0.06092549
0001d0 cd 38 bd ba 22 ce 93 bd 30 8f 47 bd 32 e7 16 bd
       -0.0014436484 -0.07217051 -0.04872054 -0.03684158
0001e0 ff ec c8 3c ce f7 18 3d ea 9f 6f bd cf 27 d9 bb
       0.024527071 0.0373457 -0.058502115 -0.00662706
0001f0 72 93 1f bc d0 5f a0 3c 1c fc 55 bc b0 b5 a7 bc
       -0.009739744 0.019576937 -0.013060596 -0.020472378
000200 bd b7 8c bc f2 7c 53 3d ce 9c 8b bd 0b 6f 95 bc
       -0.017177457 0.05163283 -0.068170175 -0.018241426
000210 42 49 57 3d dc 3a 3b 3c 13 60 f4 3d dd 02 39 3d
       0.0525601 0.011427607 0.11932387 0.045168746
000220 62 ba c0 3d 60 91 0f 3d d4 8f c9 bc c0 64 65 3c
       0.0941055 0.03505075 -0.024604715 0.014001071
000230 6e e5 88 bd 23 4e ed 3d 94 20 67 3d d3 09 f5 3c
       -0.06684385 0.11587169 0.056427553 0.029911911
000240 b8 6f 39 bd f3 a5 f9 bc cc 0a 8a 3c f6 7d ab bb
       -0.04527256 -0.030474639 0.016850851 -0.0052335216
000250 2c e1 5f bd ad ca cc 3d 77 e3 93 bd 67 bf 76 bd
       -0.0546581 0.09999595 -0.0722112 -0.06024113
000260 32 41 31 3d cf 3d 0d bd 95 6f a0 3d 52 61 aa bb
       0.043275066 -0.034482773 0.078337826 -0.0051995898
000270 89 74 5b bd eb 99 9c bd f3 d7 10 ba 5b cf 4c bd
       -0.053577933 -0.07646545 -0.0005525343 -0.050002437
000280 28 44 91 bd 8a 5d 04 3c 64 e4 d1 3d 8e 98 85 bd
       -0.07093078 0.008078942 0.1024864 -0.06523238
000290 81 7e 86 bc 1e d9 24 3d f8 21 ab 3b b4 2d 4d 3d
       -0.016417744 0.04024612 0.0052225552 0.050092414
0002a0 5a 7f 95 3c f3 c7 b5 bd 27 cd a7 3d b6 01 de 3c
       0.018249203 -0.08876028 0.081934266 0.027100425
0002b0 84 14 bb 3c 14 bb ad 3d c0 71 9e 3d 11 bb 04 bd
       0.022836931 0.08482948 0.0773654 -0.032404963
0002c0 cc c8 c5 3d 00 ab bc bd 0e c4 02 3d 6c 1b 71 3d
       0.096574396 -0.09212303 0.031925254 0.058864042
0002d0 79 5e 48 bc d3 21 82 3d 1e 83 68 3d e4 ea cc bb
       -0.012229555 0.06354108 0.056765668 -0.006253587
0002e0 5b ec 60 3d 44 52 d9 bd e6 c8 da 3d 58 87 01 3d
       0.054912906 -0.10611394 0.106828496 0.031623214
0002f0 77 10 f9 bc a5 9f 1b bc cd f7 90 3d f6 0f a0 3d
       -0.030403359 -0.009498511 0.07078514 0.07815544
000300 68 52 cc bc fb 3d 3e bd 7c ac 48 bd 57 49 8e bd
       -0.024941638 -0.046445828 -0.04899262 -0.06947582
000310 fa 2d 3e bc 9e f7 62 bd 25 c2 40 3d aa 69 4c 3d
       -0.011607641 -0.055411927 0.04706015 0.049905457
000320 0e 43 bc bd e8 f0 79 bd ed 7f 45 3d d2 99 b6 3d
       -0.09192477 -0.06102076 0.048217703 0.08916058
000330 50 1f bb bc 37 ba 26 bc 0d cc a2 3d 22 31 69 bd
       -0.02284208 -0.010176233 0.07949076 -0.056931622
000340 10 59 4e bc 43 0d 94 3c be de b2 3c 1d ec 37 3d
       -0.012594476 0.01807273 0.021834727 0.04490291
000350 c2 b9 c0 bd e9 88 7f 3d 79 6c 31 3d 54 82 e2 bd
       -0.094104305 0.062386427 0.04331634 -0.11060014
000360 5a 8a e2 bd 19 c3 ed 3b 1b 1f 88 3d ee 3e 87 3d
       -0.11061545 0.0072559235 0.06646558 0.066038
000370 74 d9 cf 3d 01 be 09 bd 65 e7 64 bc b2 c5 93 bc
       0.10148898 -0.033628467 -0.013971184 -0.018038604
000380 09 b8 0b 3d 3d c7 65 bd d2 e9 c7 bd db c8 8a bd
       0.034111056 -0.05609821 -0.097613946 -0.067765914
000390 87 e2 af 3d 3a 9f a9 3d cd 84 c0 3a 4b 80 d0 3d
       0.085881285 0.08282323 0.0014688015 0.1018072
0003a0 86 bd bd bd 1c 5c a4 bd f8 06 6d bb 04 61 45 3d
       -0.09264664 -0.08025381 -0.0036167484 0.048188224
0003b0 6f 53 43 bd 1b 89 c3 bd 9a c1 2d bc 9d 3f b6 bc
       -0.04768699 -0.09547635 -0.01060524 -0.02224713
0003c0 0b 36 31 bd 8d 55 88 3c 9e 4b 6c 3d c3 01 db bd
       -0.04326443 0.016642356 0.0576893 -0.106936954
0003d0 e0 2f c3 bd 18 5d aa bd 71 af 85 3d 0a 42 29 3d
       -0.09530616 -0.083185375 0.065276034 0.041322745
0003e0 47 c2 c9 bd 88 87 88 3d 49 d6 c1 3d fe 2e 54 bd
       -0.098515086 0.066664755 0.094647 -0.051802628
0003f0 b3 c9 43 3d c2 5b cc 3d c3 50 de 3d ab 9c 14 3d
       0.047799777 0.09978439 0.10855248 0.036282223

actor.linear4.bias f4 [9]
000000 1e ec af 3a b8 30 38 3d 3f 69 42 bd b0 2c 47 3d
       0.0013421809 0.044968337 -0.04746365 0.0486266
000010 00 a9 30 bd 7e fc b2 3d 95 36 84 bd 57 38 4a 3d
       -0.04312992 0.08739565 -0.06455723 0.049370136
000020 6f 05 b4 bc
       -0.021975247

critic.linear1.weight f4 [128, 120]
000000 70 4d 9b bd f0 4e 12 3d be 78 c8 3d 28 d2 45 bd
       -0.075831294 0.035719812 0.09788655 -0.048296124
000010 ea 44 a6 bd 1d 9b b6 bd fe e4 d3 bc 77 75 8f 3d
       -0.08118613 -0.08916304 -0.025866028 0.070048265
000020 7e f7 0f 3d 41 6c f8 bd 01 cc b4 3d 14 63 be bd
       0.035148136 -0.12130023 0.08827973 -0.092962414
000030 12 5f 87 3d a5 41 2e 3c 3f 3b b2 3c c1 88 ba bd
       0.0660993 0.010635768 0.021756766 -0.09108115
000040 03 6d 1e 3e 99 cc a3 bd dc 95 3f 3d 05 e8 e6 bc
       0.15471272 -0.07998008 0.046773776 -0.028186807
000050 ed 70 e1 3d 5c ff 60 bc 97 56 a9 bb 58 93 ab bc
       0.11007867 -0.013732757 -0.005167793 -0.020944282
000060 1f 9f fd bc ca 08 11 3d 4e 6d 24 3d de f0 62 bc
       -0.030959664 0.035408773 0.040143304 -0.0138513725
000070 20 a4 11 bd 51 68 a5 bc 4d 60 0a bd fc 3e 8d 3d
       -0.035556912 -0.020191344 -0.033783246 0.06896779
000080 21 d8 c0 bc dd c1 38 3c 43 b4 d2 3c 7f 34 a0 3c
       -0.023540558 0.011276689 0.025720721 0.019556282
000090 e9 a7 ea 3c 7a 87 6e bc 4f 30 60 bd b5 b6 18 bb
       0.028644519 -0.014558667 -0.05473357 -0.0023302261
0000a0 0b 01 69 3d c6 c6 0f 3c cf b6 0b 3d 31 20 c7 bd
       0.05688576 0.008775419 0.034109887 -0.09722937
0000b0 40 d3 30 3b 38 62 3b bc 64 3d a4 3d a4 d4 9c 3d
       0.0026981384 -0.011436991 0.08019522 0.076577455
0000c0 43 0e 0a 3d 44 b3 75 bc dc 0e e2 3d 30 8f 27 bc
       0.033705007 -0.014996354 0.110379905 -0.01022701
0000d0 aa 92 05 bd b4 6e 8f 39 8f 69 4f bd 22 d8 fd 3d
       -0.032610573 0.00027357566 -0.050637778 0.1239474
0000e0 1a 51 6d 3d 92 b9 b0 bc 97 b6 b7 3c fd 6b 2f bd
       0.057938673 -0.021572862 0.022425933 -0.042827595
0000f0 ac ec b9 bc 6c 28 71 bc f8 5a a1 bd 59 ba 5b bd
       -0.022695862 -0.01471911 -0.07878679 -0.05364451
000100 a6 98 9f bd 2f f9 ab bd 0a 59 64 3d 49 fb 9c bd
       -0.07792787 -0.083971374 0.055748977 -0.07665116
000110 ff 49 61 bb 53 eb 8e 3d f8 76 9f 3d 0a f0 ce bc
       -0.003437638 0.06978478 0.07786363 -0.025260944
000120 76 d2 9d bd 02 29 ab bd 2e 0e 81 3d be 3e 49 3d
       -0.07706158 -0.08357431 0.06301533 0.0491321
000130 47 9f 93 3d aa 40 43 3d cd 40 b4 3d bb bb 90 3d
       0.07208114 0.04766909 0.08801422 0.07067057
000140 a5 7b cd bc 9d 48 7a bd ce b3 63 3d 7d bd 46 3d
       -0.025083372 -0.061104406 0.055591397 0.048520554
000150 35 b0 8a 3c 18 9f c5 3d 6d f4 37 3d d2 93 92 3d
       0.016929725 0.09649485 0.044910837 0.07157101
000160 3c a1 be bd 85 25 ce 3c ab c9 61 3d 12 8f 82 bc
       -0.09308097 0.025164375 0.055123966 -0.015937362
000170 25 75 72 3d 92 bb d0 bb 8c 8b b9 bd 45 2f 52 3d
       0.05919375 -0.0063700164 -0.090598196 0.05131461
000180 a6 44 18 bd a5 93 40 bc c1 69 62 bd 72 38 95 bd
       -0.037174843 -0.011753951 -0.055276636 -0.07286157
000190 4e 6d d9 3d 94 8c 8f 3d 8f cf 49 bd 6f 1e 41 3d
       0.10616551 0.07009235 -0.04927021 0.047148164
0001a0 42 e9 a8 bd 7e 9a b0 3d 52 1b 79 bd 02 ef c3 bc
       -0.082476154 0.08623217 -0.06081707 -0.023917679
0001b0 a2 89 a0 3c bc 01 0e bd d3 9c 82 3d 9f 26 b5 bd
       0.019596878 -0.034669623 0.06377568 -0.08845257
0001c0 af df dd 3c 61 51 78 3d 98 69 fd bc d0 f9 3f 3c
       0.0270842 0.060624484 -0.03093414 0.011717275
0001d0 cc e0 f0 3d b2 bd e5 3d e0 56 82 bd 40 0b 35 3d
       0.117616266 0.11217822 -0.06364226 0.044200182
0001e0 1c 70 b4 3d 69 98 4c bc c3 a8 02 3c c3 f9 c4 bd
       0.08810446 -0.012487509 0.007974806 -0.09617951
0001f0 00 10 ba bd b1 73 44 bd bf 67 07 3e 7d 8d 77 3d
       -0.09085083 -0.047961894 0.1322317 0.060437668
000200 4a 5e 80 bd 8a 8e 9a bd cc d9 87 bd 43 74 87 bd
       -0.06267984 -0.075467184 -0.06633338 -0.06613972
000210 1a f8 9c bd 95 54 c8 3c 30 1c 0c bd 14 ce 95 bd
       -0.07664509 0.024454394 -0.03420657 -0.07314697
000220 eb 30 f6 3d e0 63 42 bd 2b e4 d0 3d eb 5f f5 3d
       0.12021049 -0.04745853 0.101997696 0.119811855
000230 7f 93 e5 3d 2d d7 49 3c 59 41 10 bc 10 51 32 3b
       0.11209773 0.012319368 -0.008804643 0.0027208962
000240 89 2f b1 3d 7d 36 62 bc 17 33 a2 bc 30 ea d5 bd
       0.08651645 -0.013806936 -0.019799752 -0.10445058
000250 1d de 9c 3c 79 db 88 3d 72 73 18 3b f4 c7 8e 3d
       0.01914888 0.06682486 0.002326217 0.06971732
000260 80 42 0f 3d 68 a5 9f 3c 75 38 8c 3c 44 62 b3 bb
       0.03497553 0.019488052 0.017116765 -0.0054743607
000270 3e 14 8d 3d f7 1b 35 bb 66 20 9d 3d 68 b5 58 bd
       0.068886265 -0.0027635077 0.07672195 -0.052907377
000280 51 36 8e 3d ff 7b 4b bc f8 a7 55 3c 38 a3 cb bd
       0.06943954 -0.0124197 0.013040535 -0.09943241
000290 7d 08 99 bd 82 ed 4e 3d 2a 9f 53 3d d2 c6 ef 3b
       -0.07472322 0.050519474 0.051665463 0.0073174024
0002a0 c9 46 43 3d 54 d1 57 bd 15 7d 4f 3d 6a 1e 7d 3d
       0.047674928 -0.052689865 0.050656397 0.061796583
0002b0 bb c1 32 3d 41 24 f0 3d f7 bd ec bc 39 ff e9 3d
       0.043641787 0.11725665 -0.028899176 0.11425633
0002c0 8c de 90 3d b7 24 4c bd 09 db c7 3c c7 ef ea 3c
       0.070736974 -0.0498397 0.024396436 0.028678788
0002d0 95 50 59 3d 7f 28 41 bd 8d 60 69 bc c6 cc 8a bd
       0.053055365 -0.04715776 -0.014244211 -0.06777339
0002e0 43 27 99 3c 80 c7 95 3d 0e 7c 10 3d bd f1 76 bd
       0.01869548 0.07313442 0.035274558 -0.060289133
0002f0 4d 06 c6 3c 1f ea 1b bd 72 a6 02 bd 9b 67 04 3d
       0.024172926 -0.038065072 -0.031897016 0.03232537
000300 c1 a8 f9 bc fc e1 d8 bb 16 70 78 bd ee 78 ab bd
       -0.030475976 -0.0066187363 -0.06065377 -0.08372675
000310 35 89 38 3d 8d 04 c8 bc 42 58 30 bd d5 42 a1 3c
       0.045052726 -0.024416232 -0.04305292 0.019685188
000320 55 41 4e bd 24 0b fb 3c 25 17 b4 bd 96 94 cd ba
       -0.050355274 0.03064496 -0.08793477 -0.0015684541
000330 16 75 b0 3d a1 9b ee 3d 79 d6 19 3d ee e9 d1 3c
       0.08616082 0.116507776 0.037558053 0.025624242
000340 f9 68 4c 3d e2 95 46 bd d7 84 ad bd dc ac 0b bc
       0.049904797 -0.048482783 -0.08472603 -0.0085251
000350 56 61 53 3d f0 f3 41 3d c0 51 a2 3c cb 7e 81 3d
       0.0516065 0.047351778 0.019814372 0.06323012
000360 9f 72 94 3d c7 36 11 3c 7d 54 84 3d 2e da b5 bc
       0.07248425 0.008863158 0.06461427 -0.022198763
000370 e2 2c 0c 3e bb d5 e6 3d 34 01 d8 bc b3 63 43 3b
       0.13688996 0.112712346 -0.026367761 0.0029814064
000380 fa a6 d1 bc 04 68 41 3a 5b 72 75 3d 7a ae 85 bd
       -0.025592316 0.0007377865 0.05992351 -0.065274194
000390 26 ca 55 bc d7 0d 3a 3d f1 ad 5a 3d c5 52 3c bd
       -0.013048684 0.045423355 0.05338854 -0.045977373
0003a0 fc e2 c3 3d de 47 e7 3c be 2d 08 3d 39 fe 80 3c
       0.09564778 0.028232511 0.03324675 0.015746223
0003b0 ad e3 cd 3c ab 0e f3 3d 24 9b 08 3d 7a a8 85 3d
       0.025132978 0.11868032 0.03335108 0.06526275
0003c0 1a df 81 3d d2 49 99 bc a3 6c 4b 3c 2d d4 cf bd
       0.06341381 -0.018711958 0.012416038 -0.10147891
0003d0 48 13 01 bd ab fd 5e 3d 79 a0 e2 3d e6 b9 f9 3c
       -0.03151253 0.054441135 0.11065764 0.030484151
0003e0 0a 08 94 3b d1 68 30 bd ba 59 5f 3d ee fe 51 bc
       0.00451756 -0.04306871 0.05452893 -0.012817128
0003f0 f2 7b 3a 3d fa 55 00 3a 03 11 62 3c bf ba 91 3d
       0.04552836 0.0004895624 0.013798001 0.07115697

critic.linear1.bias f4 [128]
000000 8d 57 ee 3d c4 07 73 bc c3 e3 9b 3d d9 af c6 bd
       0.11637793 -0.014833394 0.076118015 -0.09701509
000010 b6 0a 9d ba eb 72 73 3d 63 b8 a6 3d 94 af b7 3d
       -0.0011981342 0.059435766 0.08140638 0.08969036
000020 f9 ce 3d bd cc 6c 06 bd ac a5 b8 3d 10 f0 46 bd
       -0.046339963 -0.0328186 0.090159744 -0.048568785
000030 2a 03 c1 3d c9 b6 a6 3c 37 77 46 bd eb 0b c0 3d
       0.094244316 0.02035083 -0.048453536 0.09377273
000040 20 2b b2 3d eb ce d3 3b 63 5f 56 3c 39 f5 b0 bc
       0.08699632 0.0064638755 0.013084265 -0.021601306
000050 6f a6 d3 3d 66 dc 33 bd 60 51 ae 3d 53 57 d2 3d
       0.10334479 -0.04391136 0.08511615 0.10270562
000060 b4 bf dd bd 90 dd 82 3d fc 94 f4 3c 36 c1 1e bd
       -0.1082758 0.06389916 0.029856198 -0.03875848
000070 20 03 62 bd f3 83 bf bd ef 25 9c bc 79 ec f3 3d
       -0.05517876 -0.09351339 -0.019061057 0.11910338
000080 b3 db a9 bd bd e3 2d 3d d6 ab c7 bd 09 72 dd bc
       -0.082938574 0.042453516 -0.09749572 -0.027031915
000090 a7 b4 8b 3d 47 d8 d5 ba f1 9f 03 3e a6 be 34 3d
       0.06821566 -0.0016315066 0.12853982 0.04412713
0000a0 76 26 1e 3d a7 9a a5 bc 12 0a c8 bd 75 26 7f bc
       0.038610898 -0.020215346 -0.09767546 -0.015573134
0000b0 fc 63 87 3d e2 ff 55 3c aa 98 34 3d c0 b5 e2 3d
       0.066108674 0.0130614955 0.044090904 0.11069822
0000c0 12 4e e5 3d 42 ae ae bd ee 74 1b 3d 89 5b 99 3d
       0.11196531 -0.08529331 0.03795331 0.07488162
0000d0 7f af da 3c 39 d8 6b 3c 41 5f 8e bd 99 2d 6c 3c
       0.026695011 0.014394813 -0.06951762 0.014415168
0000e0 ee da 86 3c 4f 8f 48 3c e6 cf 66 bc 14 67 51 bd
       0.016461816 0.012241199 -0.014087653 -0.051123694
0000f0 ec 54 7f 3b 6c e6 f0 bc 86 3e 81 3d f6 d2 dd 3d
       0.003896053 -0.029406749 0.063107535 0.10831253
000100 22 7d bc 3d a0 e4 b0 bd c8 b2 22 bc 4d cb b0 bc
       0.09203555 -0.08637357 -0.00993032 -0.021581316
000110 40 88 47 3d c2 19 ec 3d 85 29 eb bd 5d a5 de bd
       0.048713923 0.115283504 -0.114825286 -0.10871384
000120 8e ba e9 3d 94 c9 43 3d c0 19 db 3d af 4a c4 3d
       0.114125356 0.04779966 0.10698271 0.09584557
000130 74 5a ad 3d 9a bb 99 3d f6 db b8 3d ca 2d 9c 3d
       0.08464518 0.07506485 0.09026329 0.07625921
000140 7f 74 e1 3d 0e e1 54 bc 07 a5 c0 bc 55 94 4d 3d
       0.11008548 -0.01299311 -0.023516191 0.05019029
000150 16 56 55 bc 08 ff e9 bd 97 d3 15 3d 8c 70 5a 3d
       -0.013021013 -0.114255965 0.03657874 0.05332999
000160 57 1f c1 3c d7 6b b6 3d ff 72 60 3c 5d 42 76 bd
       0.023574514 0.089072876 0.013699292 -0.060121883
000170 eb 00 e6 bd e7 5f af bd 36 68 2a 3b e4 00 8e bd
       -0.11230644 -0.08563214 0.0026002056 -0.069337636
000180 d8 ca bc bd 7a 83 88 3b 0a 64 b8 3d 17 07 b6 3c
       -0.09218377 0.004166064 0.09003456 0.022220178
000190 a0 f0 81 3d 4f 52 f3 3c c0 7e 18 bd 18 30 42 3d
       0.06344724 0.029702334 -0.037230253 0.047409147
0001a0 87 39 f7 bb 95 e0 ac 3c 52 dc 41 3c 3f dd 04 3c
       -0.0075446996 0.021103183 0.011832314 0.00810939
0001b0 29 74 c5 3d 23 e0 8e 3b fd d4 9c 3d 1e ca 0d bd
       0.096412964 0.0043602153 0.07657812 -0.034616582
0001c0 22 ac ca 3c 56 10 db 3d a1 06 3b 3d 15 b4 6d 3d
       0.024740282 0.10696475 0.04566062 0.058033068
0001d0 9b 29 99 bd c7 2f b9 3c 5b 5c 90 3d 6a c6 cb bd
       -0.07478639 0.02260579 0.070488654 -0.09949954
0001e0 51 66 e1 3d 46 95 11 3d 4a 08 a1 bd c5 e4 c5 bd
       0.110058434 0.03554275 -0.07862909 -0.09662775
0001f0 7b a0 d8 bc ea c1 c2 3d 82 ed 2c 3d 86 31 9c 3d
       -0.02644371 0.095096424 0.042218693 0.07626633
