hover_falcon_raw_ckpt/ckpt_00000901.pt (torch, 447479 bytes, 15 tensors)

actor.linear1.weight f4 [128, 120]
0.03781482 0.017632142 0.073045716 0.058985572 -0.06185393 0.028257439 0.043573584 0.030407729
0.07571679 -0.037882257 -0.008194219 -0.01766213 -0.07090702 0.08901309 -0.05220313 0.070039004
0.07220323 0.021051612 0.031684604 -0.036377154 0.050715707 -0.0071887868 -0.061627224 -0.076653086
-0.044482954 0.015949799 0.03888807 0.012246264 -0.0860312 0.0251607 0.013324596 -0.04864335
-0.043975163 -0.002070678 0.01757438 -0.07782825 -0.05737971 -0.03895062 0.07618392 -0.023200655
0.034489743 -0.081608996 -0.0029452806 -0.08539936 -0.010938025 -0.055096928 -0.049373172 0.073651835
-0.0528197 0.08102419 -0.06645841 0.016771838 0.060781322 -0.027219411 -0.043365013 0.06582997
0.022251487 -0.025061952 -0.087984525 -0.055983778 -0.0048554223 0.08906294 0.0073431795 -0.055102568
-0.036504388 0.0037194577 0.08254887 0.084391125 0.079476416 0.008791507 0.025634298 -0.07763449
-0.025830049 -0.08652749 0.092219755 -0.074086465 0.07410876 -0.025017966 0.0645073 0.054578386
0.012258118 0.032344546 -0.07199902 -0.065509506 -0.027969893 0.072906025 -0.0634183 -0.048736993
0.09129289 -0.07715844 0.053934913 0.029010974 -0.043685652 -0.0073339106 -0.075131305 0.030976932
-0.01887952 0.08919517 0.047260225 0.010520971 -0.04542803 -0.016344115 0.005331725 0.07083206
0.048462603 -0.085560024 -0.040377725 0.025177395 -0.041150182 0.04110424 0.04916727 -0.033592947
0.0019075805 -0.0029760625 0.058632575 0.016442958 -0.08940166 -0.044100143 0.0061293775 0.047331307
-0.0040015243 0.0116403755 -0.012898728 0.05971843 -0.08108814 0.05583375 -0.016841473 0.0066970726
0.0529095 0.045831967 -0.03569924 0.020603238 -0.011164669 -0.07265374 0.00730354 -0.06560959
-0.06650353 -0.088304415 -0.031805757 -0.020084701 0.03996089 0.023066513 0.060687292 0.021745428
-0.04000022 0.018061247 -0.09004708 0.08622209 -0.08951285 0.08536281 0.0072887316 -0.010710327
0.039453126 -0.07999936 -0.013602834 -0.066541396 -0.05073277 -0.020815162 -0.022427758 -0.075412415
0.048635628 -0.06706405 -0.0074992795 -0.06838381 -0.084248185 0.06315309 0.023641428 -0.017132914
0.014302651 -0.03584937 0.056280304 -0.045403067 0.085155375 0.03000517 0.032354403 -0.016999112
0.04908046 -0.005885247 0.0402917 0.06809152 0.039746597 -0.008005999 -0.037333883 0.07757184
0.025058806 -0.081097946 0.07927009 0.06240622 -0.0812489 0.03813732 -0.06833921 0.0045918245
-0.042849187 -0.03411582 0.01868162 -0.031799164 0.0019117987 0.025885621 0.058367338 -0.02282268
0.044893816 -0.0042793504 0.0064248694 0.0016108504 -0.02289816 0.06384163 0.07849365 0.086275026
-0.063342534 -0.026550103 -0.008076019 0.0438607 -0.045917343 -0.04645965 0.065691635 -0.06689196
0.0024091075 -0.05881317 -0.018303717 -0.0853723 -0.04380123 0.025457786 -0.043302953 0.04867745
0.06514372 0.0068841577 0.06395033 0.031722404 -0.024960047 0.013409382 0.08973838 -0.059471432
-0.024812559 -0.026512137 -0.066909894 0.04805192 0.059390288 0.032997232 -0.015145308 -0.031881224
-0.07334907 0.020205587 0.06716774 0.013107439 -0.014425455 -0.09105868 0.08662667 -0.015885653
0.064405434 -0.002300146 -0.09050838 -0.09034304 -0.0023779154 -0.07803383 0.009108617 -0.043816097
00000000: b6e3 1a3d 4871 903c fe98 953d db9a 713d
00000010: 8c5a 7dbd 257c e73c 377a 323d a119 f93c
00000020: 6811 9b3d 6d2a 1bbd 0c41 06bc 2cb0 90bc
00000030: b337 91bd 7f4c b63d f3d2 55bd 9c70 8f3d
00000040: 49df 933d 6e74 ac3c b7c7 013d 3600 15bd
00000050: 46bb 4f3d ea8f ebbb d46c 7cbd 4bfc 9cbd
00000060: c233 36bd 27a9 823c 1949 1f3d 8ea4 483c
00000070: 2031 b0bd d01d ce3c 684f 5a3c 403e 47bd
00000080: 4d1f 34bd 36b4 07bb 25f8 8f3c 6b64 9fbd
00000090: fd06 6bbd af8a 1fbd 5106 9c3d 4d0f bebc
000000a0: 1e45 0d3d 9e22 a7bd 9c05 41bb dce5 aebd
000000b0: 6735 33bc 51ad 61bd 863b 4abd c6d6 963d
000000c0: 7859 58bd 03f0 a53d 591b 88bd 1865 893c
000000d0: d6f5 783d 3efb debc 839f 31bd ddd1 863d
000000e0: c048 b63c b94e cdbc 3b31 b4bd 3f4f 65bd
000000f0: 3c1a 9fbb a166 b63d 0e9f f03b 3bb3 61bd
00000100: a085 15bd 25c2 733b 620f a93d 41d5 ac3d
00000110: 88c4 a23d 410a 103c 05ff d13c d5fe 9ebd
00000120: 8a99 d3bc 5335 b1bd b6dd bc3d a5ba 97bd
00000130: 55c6 973d 7af2 ccbc 671c 843d 968d 5f3d
00000140: 46d6 483c b77b 043d 3974 93bd d929 86bd
00000150: 1e21 e5bc c14f 953d 74e1 81bd 71a0 47bd
00000160: c4f7 ba3d 3f05 9ebd dbea 5c3d 6ca8 ed3c
00000170: baef 32bd 4d51 f0bb 71de 99bd 56c3 fd3c
00000180: 39a9 9abc f5ab b63d f093 413d 2760 2c3c
00000190: be12 3abd 18e4 85bc c0b5 ae3b 6610 913d
000001a0: b980 463d 183a afbd 1d63 25bd d340 ce3c
000001b0: 188d 28bd eb5c 283d 9f63 493d c298 09bd
000001c0: c807 fa3a 0b0a 43bb b628 703d 62b3 863c
000001d0: 3818 b7bd 5aa2 34bd f2d8 c83b 79de 413d
000001e0: 381f 83bb 46b7 3e3c 3055 53bc 509b 743d
000001f0: 8a11 a6bd eeb1 643d 21f7 89bc 1e73 db3b
00000200: a2b7 583d 4dba 3b3d 5e39 12bd 1fc8 a83c
00000210: 04ec 36bc 7ccb 94bd 8952 ef3b 525e 86bd
00000220: 0133 88bd f2d8 b4bd c146 02bd ac88 a4bc
00000230: 08ae 233d fcf5 bc3c 3d93 783d 7823 b23c
00000240: 45d7 23bd 2ef5 933c 9a6a b8bd 3595 b03d
00000250: 8352 b7bd b2d2 ae3d 50d6 ee3b 5e7a 2fbc
00000260: 9a99 213d b4d6 a3bd 6cde 5ebc db46 88bd
00000270: 2acd 4fbd 8f84 aabc 6bba b7bc d371 9abd
00000280: 2736 473d e058 89bd 84bc f5bb d00c 8cbd
00000290: 508a acbd 6856 813d abab c13c 535a 8cbc
000002a0: ab55 6a3c cad6 12bd 2d86 663d 91f8 39bd
000002b0: f165 ae3d 67cd f53c 0d86 043d b941 8bbc
000002c0: 9808 493d 08d9 c0bb e908 253d 9173 8b3d
000002d0: 54cd 223d 982b 03bc 6aeb 18bd fcdd 9e3d
000002e0: 2048 cd3c ae16 a6bd 5b58 a23d aa9d 7f3d
000002f0: d365 a6bd e135 1c3d 6df5 8bbd 0477 963b
00000300: a182 2fbd 08bd 0bbd 320a 993c d73f 02bd
00000310: 5295 fa3a 150e d43c 9712 6f3d a1f6 babc
00000320: 94e2 373d cb39 8cbb b687 d23b 2c23 d33a
00000330: ec94 bbbc 67bf 823d 47c1 a03d f6b0 b03d
00000340: bbb9 81bd 9a7f d9bc 4751 04bc 47a7 333d
00000350: d313 3cbd 794c 3ebd 5689 863d a7fe 88bd
00000360: 1ee2 1d3b 14e6 70bd adf1 95bc acd7 aebd
00000370: eb68 33bd d98c d03c 705e 31bd 0162 473d
00000380: 126a 853d 8094 e13b 64f8 823d 5aef 013d
00000390: 0379 ccbc 06b3 5b3c c1c8 b73d 5198 73bd
000003a0: b543 cbbc fb2f d9bc 0e08 89bd 17d2 443d
000003b0: 3b43 733d 1b28 073d 0724 78bc e395 02bd
000003c0: 0a38 96bd 3086 a53c 3d8f 893d 95c0 563c
000003d0: be58 6cbc f97c babd 5369 b13d a122 82bc
000003e0: ffe6 833d 0cbe 16bb 755c b9bd c605 b9bd
000003f0: cdd6 1bbb 33d0 9fbd 4f3c 153c 8278 33bd

actor.linear1.bias f4 [128]
-0.057733156 -0.011253101 -0.045062896 -0.050708175 0.08675841 0.023989137 0.086684756 0.055269197
-0.007635236 0.070939526 0.027477715 0.07211409 -0.04291609 -0.080546945 -0.07156228 -0.06433564
-0.07491769 0.08263837 -0.018339679 -0.06848025 0.04614202 -0.0029363506 0.061942544 0.0667185
-0.07392115 0.02574021 0.059625477 0.08101634 0.031340756 0.011348272 -0.08359975 -0.08532537
0.06511628 -0.024209168 0.040385257 -0.077584356 -0.004278197 -0.023293696 0.043719627 -0.056736175
-0.0659291 -0.06844858 -0.06604037 -0.07729602 0.07605663 -0.0778733 0.04991218 0.085235976
-0.036033433 0.016362272 0.027507704 -0.07494867 0.08413677 0.084001556 8.315687e-05 0.054008186
-0.0044871 0.064275905 -0.051529966 0.030592132 -0.04190381 -0.06533654 0.065015554 0.060621116
-0.00645843 -0.024639055 0.019213755 -0.006600683 -0.011161718 0.029822724 0.05066902 0.038929854
-0.0057323384 -0.056287427 -0.08727825 0.052513223 0.06541828 -0.016501384 -0.010187617 -0.021701986
0.06167045 -0.021037444 0.01198407 -0.05613916 0.02837979 -0.08774114 0.06496406 -0.07626744
0.017440097 0.00048643004 -0.02863629 -0.013141164 0.0656536 -0.068249755 -0.0062253093 0.040649585
0.08486378 -0.007255116 0.058634307 0.05998833 -0.05940139 -0.08734851 0.045265567 -0.038513817
0.061232526 -0.07332406 0.07002244 0.069216326 -0.0027877348 0.007173227 0.053231552 -0.022331592
-0.071766816 -0.06366318 0.018738376 -0.028221251 0.0040924125 -0.06106247 0.004633648 0.032596372
0.07350941 0.062470697 -0.040968806 -0.07692497 -0.00811817 -0.012840628 -0.03142109 -0.04656465
00000000: 9a79 6cbd ed5e 38bc df93 38bd 60b3 4fbd
00000010: 65ae b13d de84 c43c c787 b13d f461 623d
00000020: 0031 fabb be48 913d f218 e13c 8db0 933d
00000030: c8c8 2fbd ccf5 a4bd 3f8f 92bd 67c2 83bd
00000040: 726e 99bd 4e3e a93d 183d 96bc 603f 8cbd
00000050: 6aff 3c3d ca6f 40bb 77b7 7d3d b5a3 883d
00000060: f963 97bd 22dd d23c d839 743d e5eb a53d
00000070: 2a5f 003d 1aee 393c 5936 abbd 11bf aebd
00000080: af5b 853d 4e52 c6bc 036b 253d 8ce4 9ebd
00000090: 1e30 8cbb 6cd2 bebc 5a13 333d 3164 68bd
000000a0: d605 87bd c52e 8cbd 2c40 87bd 604d 9ebd
000000b0: 94c3 9b3d 097c 9fbd b770 4c3d 3390 ae3d
000000c0: cb97 13bd 2c0a 863c d657 e13c b07e 99bd
000000d0: e64f ac3d 0209 ac3d 8164 ae38 b037 5d3d
000000e0: 8608 93bb 16a3 833d 1611 53bd 5a9c fa3c
000000f0: 54a3 2bbd 2acf 85bd e026 853d d94d 783d
00000100: 3da1 d3bb d8d7 c9bc 2a66 9d3c 8b4a d8bb
00000110: a3df 36bc c94e f43c 518a 4f3d e974 1f3d
00000120: 57d6 bbbb a58d 66bd f0be b2bd 1b18 573d
00000130: 05fa 853d e92d 87bc f6e9 26bc 5dc8 b1bc
00000140: 279a 7c3d b856 acbc d558 443c 2df2 65bd
00000150: bc7c e83c a0b1 b3bd e10b 853d 1b32 9cbd
00000160: 89de 8e3c 8907 ff39 a796 eabc 094e 57bc
00000170: 6575 863d 87c6 8bbd aefd cbbb 2e80 263d
00000180: 10cd ad3d 53bc edbb 872a 703d 53b6 753d
00000190: df4e 73bd c7e3 b2bd 6368 393d aac0 1dbd
000001a0: f5ce 7a3d ed2a 96bd ed67 8f3d 4ac1 8d3d
000001b0: 6eb2 36bb 640d eb3b 5409 5a3d bef0 b6bc
000001c0: 7bfa 92bd d761 82bd 3981 993c 4130 e7bc
000001d0: a519 863b a41c 7abd dbd5 973b c683 053d
000001e0: 1a8c 963d 46e1 7f3d e8ce 27bd d78a 9dbd
000001f0: 1302 05bc 7f61 52bc 67b3 00bd 93ba 3ebd

actor.linear2.weight f4 [128, 128]
0.008544223 0.032543402 0.08099709 -0.060039334 0.012656596 -0.0039440244 -0.0192364 0.07783256
-0.07649917 -0.055510916 -0.031935383 0.08168566 0.06712637 0.009102537 -0.06765909 -0.011918919
0.021272846 0.048609756 -0.032133073 -0.0028878532 -0.08060042 0.041504644 -0.020882541 -0.051066246
-0.049321525 0.08511069 0.037886165 0.06559959 0.0042325463 0.0376038 0.07796919 0.027865019
-0.0808864 -0.0860813 -0.058154352 -0.085746795 0.077397846 0.010703035 -0.05261534 0.048708268
-0.06795581 -0.046761043 0.0036223119 -0.015750255 0.06908867 -0.01304785 -0.012162736 0.08405564
-0.011029216 0.027452303 0.006750541 -0.08346422 0.05877692 0.006351765 -0.024367996 -0.066565625
0.026388176 -0.045858875 -0.015326471 0.021860987 -0.056796767 0.048695825 -0.008693539 -0.047437858
0.07221186 0.07475772 0.039081935 -0.050356995 0.053164165 0.013053983 -0.023509756 0.07136632
-0.030947395 -0.0024004525 -0.041041195 -0.041413046 -0.07099529 -0.06717383 0.0876774 0.079184525
0.083439656 0.020356117 0.08150128 -0.08543819 0.039300147 -0.069227085 -0.0033659223 0.064378686
-0.039375026 -0.05278494 -0.08270595 0.02125463 -0.08621794 0.072854176 0.00789361 0.034414694
-0.022664675 -0.05734526 0.021355867 0.078469135 -0.04809381 -0.07681927 -0.046990804 0.027122837
0.031924136 0.018281182 -0.08541699 0.040426567 0.07089612 0.02025526 0.07371074 -0.056410395
-0.06803669 0.048682768 0.03887256 0.060596976 -0.010191931 -0.025660492 0.021204406 -0.051709075
-0.08605154 0.08639186 -0.0020735548 -0.04826469 0.055651996 0.07705568 -0.07292809 0.07090472
0.087249674 0.07393738 0.06485191 -0.01254543 0.032984696 0.08113349 -0.050139178 0.062295057
-0.012710819 -0.057414025 -0.0482088 0.02082789 0.08418487 0.0681941 0.08068481 -0.06031444
0.011302206 0.030913465 0.06310936 -0.029039722 -0.011203961 0.018147048 0.02172246 -0.04732145
-0.07615263 0.013052347 0.035010297 -0.025003536 -0.0603099 -0.05203723 -0.06884285 0.03864915
-0.01214883 0.056471802 -0.06324631 -0.037143733 -0.083891764 -0.056165457 0.0005526476 0.00013259477
-0.028303953 -0.061120324 -0.047508065 -0.0056318818 0.06867729 0.011414544 -0.030642482 0.038550258
0.0704188 -0.06020672 -0.040461488 0.006626282 0.07105087 -0.060006097 0.059419546 -0.045741785
-0.029917097 0.055805784 -0.08161029 -0.058676794 0.07281542 -0.045454737 0.005299461 -0.08188039
0.0565861 0.08701748 0.08419788 -0.032200184 -0.049272057 0.046269912 -0.035405926 -0.023322666
0.056007303 0.016551947 0.014006436 0.06720898 -0.0048830714 0.051162742 -0.074270345 0.043036398
-0.034315385 0.07970028 -0.08091554 0.044276107 -0.013458712 0.061223246 -0.06524577 0.0060292543
0.08088532 -0.049272265 0.04840495 0.011731259 0.018344486 0.02475219 0.07498109 -0.06844811
-0.046943802 -0.031022731 0.08810054 0.0577194 -0.07446837 -0.037175298 0.024190765 -0.032613024
-0.004251148 0.065642744 -0.06440312 0.04575753 -0.024103114 0.064454764 -0.064207554 0.07349164
-0.027089296 0.050730266 -0.0722124 0.08447257 -0.078496784 0.04478829 -0.06415232 0.0694137
0.01661663 0.052803013 0.047458913 -0.0073429598 0.054186758 -0.01509811 0.056101266 0.071862824
00000000: 12fd 0b3c 3b4c 053d cde1 a53d ceeb 75bd
00000010: 9c5d 4f3c e03c 81bb a895 9dbc ad66 9f3d
00000020: 99ab 9cbd 6a5f 63bd adce 02bd d04a a73d
00000030: 8d79 893d cf22 153c d990 8abd 9247 43bc
00000040: 6444 ae3c 061b 473d f89d 03bd 2342 3dbb
00000050: d511 a5bd c600 2a3d dd11 abbc d72a 51bd
00000060: 5e05 4abd 834e ae3d 862e 1b3d 1459 863d
00000070: 2cb1 8a3b 7106 1a3d 50ae 9f3d 2e45 e43c
00000080: c5a7 a5bd 654b b0bd 4233 6ebd 049c afbd
00000090: c382 9e3d c85b 2f3c 2f83 57bd 5282 473d
000000a0: 6a2c 8bbd 8288 3fbd 4f64 6d3b ae06 81bc
000000b0: 5c7e 8d3d a6c6 55bc 3646 47bc 5d25 ac3d
000000c0: e3b3 34bc a7e3 e03c a433 dd3b 4aef aabd
000000d0: 11c0 703d 7722 d03b 649f c7bc 8f53 88bd
000000e0: 042c d83c 84d6 3bbd e11b 7bbc d015 b33c
000000f0: baa3 68bd 4675 473d 586f 0ebc 334e 42bd
00000100: d0e3 933d 931a 993d 6114 203d 2343 4ebd
00000110: abc2 593d 60e0 553c 8897 c0bc 8128 923d
00000120: 6485 fdbc e950 1dbb d01a 28bd baa0 29bd
00000130: fb65 91bd 6f92 89bd 3590 b33d 7f2b a23d
00000140: 69e2 aa3d dfc1 a63c 25ea a63d 38fa aebd
00000150: 31f9 203d eec6 8dbd ce96 5cbb f9d8 833d
00000160: b547 21bd 0535 58bd bd61 a9bd 311e ae3c
00000170: 0893 b0bd 9234 953d 3354 013c 6cf6 0c3d
00000180: 45ab b9bc dde2 6abd 80f2 ae3c 6db4 a03d
00000190: 04fe 44bd 6c53 9dbd 6e79 40bd b630 de3c
000001a0: e2c2 023d 6bc2 953c 1aef aebd 5496 253d
000001b0: fc31 913d 5cee a53c a8f5 963d 960e 67bd
000001c0: d256 8bbd 9567 473d d538 1f3d 8934 783d
000001d0: 0ffc 26bc f435 d2bc ddb4 ad3c e5cc 53bd
000001e0: ca3b b0bd 37ee b03d 7ae4 07bb 32b1 45bd
000001f0: 59f3 633d 5ecf 9d3d 535b 95bd 7e36 913d
00000200: f5af b23d 7b6c 973d 14d1 843d 598b 4dbc
00000210: f61a 073d 5129 a63d bd5e 4dbd 1a29 7f3d
00000220: 0a41 50bc f82a 6bbd 9776 45bd 409f aa3c
00000230: 1e69 ac3d 59a9 8b3d 143e a53d 460c 77bd
00000240: e32c 393c 3c3e fd3c 7b3f 813d b6e4 edbc
00000250: d290 37bc 1ea9 943c 4df3 b13c 23d4 41bd
00000260: e9f5 9bbd 83d9 553c f566 0f3d 37d4 ccbc
00000270: 8407 77bd fe24 55bd 7bfd 8cbd 924e 1e3d
00000280: e30b 47bc fa4e 673d 4887 81bd 0724 18bd
00000290: 72cf abbd c00d 66bd 8ddf 103a 2309 0b39
000002a0: b1dd e7bc 4e59 7abd d197 42bd a68b b8bb
000002b0: aea6 8c3d 1104 3b3c f105 fbbc e0e6 1d3d
000002c0: bb37 903d 529b 76bd f2ba 25bd 4821 d93b
000002d0: 1e83 913d f4c8 75bd e961 733d bd5b 3bbd
000002e0: b314 f5bc 9b94 643d 4c23 a7bd 1457 70bd
000002f0: 4020 953d bf2e 3abd 1aa7 ad3b e8b0 a7bd
00000300: d4c6 673d 3836 b23d f06f ac3d 57e4 03bd
00000310: 7fd1 49bd 8585 3d3d ce05 11bd 2d0f bfbc
00000320: ea67 653d f397 873c 407b 653c dda4 893d
00000330: 2c02 a0bb 0690 513d 0d1b 98bd ef46 303d
00000340: 4a8e 0cbd e739 a33d 0cb7 a5bd dd5a 353d
00000350: ee81 5cbc 3ac5 7a3d 939f 85bd 0d91 c53b
00000360: 34a7 a53d b7d1 49bd 4544 463d 7734 403c
00000370: 2d47 963c 1bc5 ca3c b08f 993d 862e 8cbd
00000380: 2548 40bd 6223 febc 0e6e b43d 2d6b 6c3d
00000390: df82 98bd 2045 18bd b62b c63c 3c95 05bd
000003a0: 374d 8bbb b46f 863d c8e5 83bd 3f6c 3b3d
000003b0: e573 c5bc dc00 843d 407f 83bd c982 963d
000003c0: 5fea ddbc 8aca 4f3d 18e4 93bd f4ff ac3d
000003d0: ecc2 a0bd ed73 373d 4b62 83bd c528 8e3d
000003e0: 991f 883c f947 583d 4764 423d 369d f0bb
000003f0: eff2 5d3d 105e 77bc 71ca 653d d12c 933d

actor.linear2.bias f4 [128]
0.06520547 0.023369115 0.024662584 -0.08322437 -0.007722345 0.05380491 0.01315794 -0.005069765
-0.078838944 -0.06202085 -0.019831724 0.055903103 0.045762528 -0.08639454 -0.06678172 0.04118305
0.040795602 -0.062361866 0.023727888 0.073280945 0.05328107 -0.052640654 -0.00052008155 -0.036743473
-0.084666565 -0.04935187 0.058487147 -0.05787096 0.08295262 0.087492496 -0.0513258 0.04715597
-0.056895204 -0.020939194 0.05669791 -0.04204102 0.08394733 -0.08453922 -0.0014678445 0.04903741
-0.023703828 -0.06631419 0.0331263 -0.084498 0.010920109 0.072975084 0.030233867 0.021247102
-0.029053045 0.08587711 -0.015995722 -0.023269985 0.037880793 0.06070361 0.03500506 -0.08904057
0.0694379 0.03541378 0.025761327 0.021636382 0.07344231 -0.02497015 0.04100101 0.0020811246
0.08700114 -0.071131505 -0.015843987 0.016238555 -0.07031899 -0.082370944 -0.011912187 -0.028880926
0.0577527 0.03767423 0.07587655 -0.017927455 0.049179465 -0.05351313 -0.029400576 -0.05679258
-0.008015854 0.059399102 0.07661699 0.06694702 -0.0054955822 0.05610856 -0.04757915 -0.03722157
0.08102562 -0.053023107 0.0054646577 -0.0076575796 0.090040244 0.037231028 -0.028473124 -0.0017774195
-0.0037292019 0.05537731 -0.085210524 0.016016211 0.025878502 -0.051578525 0.06218063 -0.020671152
0.033866823 0.05852119 0.03662816 0.035625167 0.0195993 0.0028522532 0.022918956 0.05142704
0.078381725 0.0074228435 -0.007339104 -0.035267483 0.069704704 -0.0884421 -0.081129566 -0.008042678
0.028744532 -0.060269557 -0.0906031 -0.076709814 0.048310146 0.07834525 0.07682518 -0.009930401
00000000: 728a 853d 9670 bf3c 3009 ca3c 8a71 aabd
00000010: ba0b fdbb 8a62 5c3d 6694 573c 4520 a6bb
00000020: 5076 a1bd 9309 7ebd 2476 a2bc a7fa 643d
00000030: 7d71 3b3d 9fef b0bd dbc4 88bd 8faf 283d
00000040: 4a19 273d 286f 7fbd fd60 c23c 5214 963d
00000050: 403d 5a3d ba9d 57bd 1556 08ba 5380 16bd
00000060: aa65 adbd 3025 4abd 3890 6f3d 1a0a 6dbd
00000070: 10e3 a93d 442f b33d 013b 52bd 9e26 413d
00000080: f20a 69bd ac88 abbc 113c 683d 3433 2cbd
00000090: 94ec ab3d e622 adbd b064 c0ba 74db 483d
000000a0: 882e c2bc bccf 87bd 71af 073d 4a0d adbd
000000b0: 42ea 323c f673 953d 04ad f73c 670e ae3c
000000c0: a700 eebc 57e0 af3d 7609 83bc b2a0 bebc
000000d0: e428 1b3d 59a4 783d 7761 0f3d e75a b6bd
000000e0: 7535 8e3d 0a0e 113d 6b09 d33c c83e b13c
000000f0: ec68 963d 338e ccbc adf0 273d 7a63 083b
00000100: a72d b23d 65ad 91bd 40cb 81bc b806 853c
00000110: 6703 90bd 19b2 a8bd 552b 43bc b197 ecbc
00000120: 188e 6c3d 4b50 1a3d 2a65 9b3d 99dc 92bc
00000130: 6870 493d 9530 5bbd 7ad9 f0bc 569f 68bd
00000140: ee54 03bc 794c 733d 5ee9 9c3d 851b 893d
00000150: 4914 b4bb 17d2 653d 5be2 42bd a575 18bd
00000160: c3f0 a53d c22e 59bd df10 b33b 6fec fabb
00000170: 0567 b83d 907f 183d 7840 e9bc 4df8 e8ba
00000180: a065 74bb 51d3 623d db82 aebd 6e34 833c
00000190: 27ff d33c 0144 53bd 1eb1 7e3d 8c56 a9bc
000001a0: f0b7 0a3d eab3 6f3d 6907 163d b2eb 113d
000001b0: b68e a03c deec 3a3b 89c0 bb3c 29a5 523d
000001c0: 9986 a03d 533b f33b de7c f0bb a374 10bd
000001d0: 57c1 8e3d 2221 b5bd 4227 a6bd 70c5 03bc
000001e0: a779 eb3c 36dd 76bd 1e8e b9bd 091a 9dbd
000001f0: dce0 453d 7973 a03d 8556 9d3d 1fb3 22bc

actor.linear3.weight f4 [128, 128]
-0.086682476 0.06533714 0.035153527 -0.0788136 0.05261891 -0.0067309844 0.07984404 -0.05747726
-0.04894107 0.003654053 0.0571613 0.058107495 0.065914884 0.044075157 0.056363557 0.024928857
0.06813869 0.016593773 -0.00039492367 -0.057403956 0.0679469 -0.0024390938 0.024824798 0.08217839
-0.007792041 -0.026979592 0.082785785 0.056578424 0.009643327 0.08403462 -0.07893205 -0.077951774
0.060392298 -0.062292885 -0.008426976 -0.03149019 0.049280196 -0.04082704 -0.034033455 -0.011969652
0.0034072802 0.03737943 -0.0050356654 -0.0021974358 -0.071146056 -0.013681378 -0.045243897 -0.048272204
0.017628374 -0.05966943 -0.06803021 0.011318152 -0.026587036 0.0019047479 -0.01722321 0.05820903
0.047689654 -0.024098031 -0.06572215 0.06988322 0.035313223 0.0037940443 -0.07981161 -0.066808134
-0.0877612 0.074616306 0.016444255 0.08420485 0.078091 -0.0044507077 -0.0016005517 0.016868465
-0.07056287 0.031985104 0.07511567 0.04923107 0.036660604 -0.044455845 -0.037684318 -0.05167073
-0.05508487 -0.06435588 0.05732456 -0.0563296 0.077013396 0.068469636 0.071320675 0.046088245
-0.053172536 0.007848644 -0.025192998 0.05480854 0.055317543 -0.011029665 0.03173204 -0.07874251
-0.06195303 -0.034525864 0.022497632 0.0028606642 -0.059964553 0.039493393 -0.07814833 0.02269582
-0.088682525 0.06679487 0.055559568 -0.07347502 0.046015527 0.010798358 0.028837388 0.01181026
-0.021305157 0.08362112 0.08242636 0.024735957 0.03207332 0.044678226 -0.04299733 0.080863826
-0.005003627 0.05319386 0.027618041 0.026762055 -0.074784435 -0.08263654 -0.07221672 0.025859784
-0.0034951705 -0.08763342 -0.07452975 0.06325052 -0.021795098 -0.018410416 0.03026172 -0.023093875
0.0022866386 -0.05546972 -0.061751194 -0.05926881 -0.031033665 -0.06674264 0.047013246 0.012904172
0.03338413 0.047289904 0.05294727 -0.050336182 0.06278327 0.015003312 0.0023757739 0.07708319
0.028370898 0.0416536 0.08596465 0.0440136 0.08537312 -0.018250432 -0.08608581 -0.059815068
-0.07922722 -0.010892045 -0.02545624 -0.055423673 0.026073603 -0.013146687 -0.07452646 -0.08192709
-0.08818356 0.07093367 -0.047787294 0.024334842 -0.013661159 0.082907505 0.05232017 -0.046668727
0.07510854 0.059194632 0.06956209 -0.031212686 0.011932242 -0.022130404 0.020005247 0.002993996
-0.06350267 -0.01926099 0.014415379 0.003883039 0.00058008847 -0.07572 -0.045686137 0.067112975
0.027280003 0.017048828 0.08756771 -0.0733738 -0.05158007 0.0011092626 0.0065096994 -0.03230899
0.06902559 -0.053111546 -0.07623312 0.0483027 -0.042751227 -0.024267592 -0.027258366 0.040070754
0.03877499 0.026759822 0.00030589756 0.042823866 -0.078593165 -0.010257301 0.011744961 -0.043196175
-0.013605443 0.047324136 0.046112806 0.05247954 -0.06837682 -0.056923244 -0.07784336 0.08011447
0.021653274 -0.047233947 0.06837213 -0.010929508 0.050158884 0.0669042 -0.012263372 -0.011824528
-0.053017426 -0.041521285 -0.044016186 -0.015900983 -0.072506115 -0.03610931 -0.070942424 0.033847883
-0.04939965 -0.044781193 -0.004793991 -0.08249705 0.082978815 -0.025501067 -0.08504043 -0.01749823
0.014688281 0.010154183 0.039691735 -0.006604958 0.052860267 0.05229923 -0.011359538 0.07752752
00000000: 9586 b1bd 7acf 853d 25fd 0f3d 0669 a1bd
00000010: ed86 573d 978f dcbb 4685 a33d 466d 6bbd
00000020: 6e76 48bd d678 6f3b f821 6a3d 2002 6e3d
00000030: 62fe 863d 2788 343d 79dd 663d 9a37 cc3c
00000040: 4c8c 8b3d aaef 873c c20d cfb9 6920 6bbd
00000050: bf27 8b3d 34d9 1fbb 605d cb3c 254d a83d
00000060: 6154 ffbb 4e04 ddbc 988b a93d c7be 673d
00000070: 0cff 1d3c 581a ac3d 20a7 a1bd 2ea5 9fbd
00000080: ea5d 773d d326 7fbd 4d11 0abc dcfb 00bd
00000090: 08da 493d 413a 27bd aa66 0bbd 5c1c 44bc
000000a0: ad4c 5f3b 2c1b 193d 3902 a5bb db02 10bb
000000b0: 06b5 91bd dc27 60bc aa51 39bd 13b9 45bd
000000c0: 6169 903c ef67 74bd 6c53 8bbd c56f 393c
000000d0: 0ecd d9bc bca8 f93a b017 8dbc 986c 6e3d
000000e0: 3a56 433d 3c69 c5bc 5699 86bd ef1e 8f3d
000000f0: 99a4 103d 80a5 783b 4574 a3bd b4d2 88bd
00000100: 25bc b3bd 6fd0 983d 1ab6 863c 9873 ac3d
00000110: 2dee 9f3d 3ed7 91bb 9ac9 d1ba bc2f 8a3c
00000120: 4483 90bd d002 033d 3fd6 993d 85a6 493d
00000130: 6e29 163d 5517 36bd df5a 1abd b0a4 53bd
00000140: aca0 61bd 04cd 83bd 28cd 6a3d deb9 66bd
00000150: 33b9 9d3d cf39 8c3d 9310 923d 07c7 3c3d
00000160: 72cb 59bd 9997 003c 8c61 cebc eb7e 603d
00000170: a694 623d c5b5 34bc 75f9 013d c143 a1bd
00000180: 76c2 7dbd fe6a 0dbd f44c b83c fb79 3b3b
00000190: 649d 75bd d3c3 213d 3b0c a0bd 96ec b93c
000001a0: 2f9f b5bd c0cb 883d 6e92 633d 127a 96bd
000001b0: c77a 3c3d 99eb 303c 633c ec3c d27f 413c
000001c0: 2788 aebc 8d41 ab3d 27cf a83d 10a3 ca3c
000001d0: 505f 033d 8400 373d f81d 30bd ef9b a53d
000001e0: 77f5 a3bb cee1 593d 3b3f e23c 193c db3c
000001f0: 9528 99bd 593d a9bd 5ce6 93bd e6d7 d33c
00000200: 3b0f 65bb 2779 b3bd 0ea3 98bd 7d89 813d
00000210: a28b b2bc 71d1 96bc 6de7 f73c 5e2f bdbc
00000220: 6edb 153b 3834 63bd d2ee 7cbd dac3 72bd
00000230: 503a febc 5eb0 88bd f690 403d 056c 533c
00000240: ccbd 083d 0fb3 413d 3ddf 583d 502d 4ebd
00000250: 8494 803d 74d0 753c dfb2 1b3b cbdd 9d3d
00000260: 166a e83c f79c 2a3d 3c0e b03d 9b47 343d
00000270: 1ad8 ae3d ee81 95bc c24d b0bd a500 75bd
00000280: e141 a2bd 8c74 32bc 9b89 d0bc ef03 63bd
00000290: 4f98 d53c 3465 57bc 54a1 98bd 64c9 a7bd
000002a0: 9599 b4bd ac45 913d 9cbc 43bd dd59 c73c
000002b0: 0ed3 5fbc 69cb a93d ad4d 563d b527 3fbd
000002c0: 82d2 993d 1276 723d 9276 8e3d bfb1 ffbc
000002d0: 737f 433c d24a b5bc 0be2 a33c eb36 443b
000002e0: b00d 82bd 39c9 9dbc 7b2e 6c3c 967a 7e3b
000002f0: 1411 183a 1613 9bbd 6321 3bbd 8772 893d
00000300: 507a df3c fca9 8b3c b356 b33d 0145 96bd
00000310: a045 53bd ad64 913a 514f d53b 6e56 04bd
00000320: 4a5d 8d3d 7e8b 59bd 1c20 9cbd 0dd9 453d
00000330: e91b 2fbd d4cc c6bc f04c dfbc 3b21 243d
00000340: 86d2 1e3d 6a37 db3c e060 a039 1468 2f3d
00000350: 74f5 a0bd 3d0e 28bc f06d 403c 79ee 30bd
00000360: 5de9 5ebc f4d6 413d c8e0 3c3d c9f4 563d
00000370: 2509 8cbd 5928 69bd 576c 9fbd 0e13 a43d
00000380: 3562 b13c 6278 41bd b006 8c3d ae11 33bc
00000390: 6773 4d3d 1205 893d 4fec 48bc aabb 41bc
000003a0: cd28 59bd 3912 2abd 514a 34bd c742 82bc
000003b0: 167e 94bd 5be7 13bd 434a 91bd 14a4 0a3d
000003c0: 4a57 4abd 7c6c 37bd e916 9dbb 37f4 a8bd
000003d0: ccf0 a93d 9de7 d0bc ad29 aebd 7358 8fbc
000003e0: 1ea7 703c bb5d 263c cd93 223d 676e d8bb
000003f0: 0284 583d b837 563d 5b1d 3abc c0c6 9e3d

actor.linear3.bias f4 [128]
0.025773993 -0.051701244 0.06371682 -0.026256554 -0.030869534 0.040745407 -0.051155437 0.08776099
-0.057315703 0.039500054 0.024917258 -0.07700512 0.05996868 -0.001330824 -0.012370203 0.044543065
-0.045739796 -0.06754565 0.005367971 0.049060866 -0.08216618 -0.021563267 0.08653928 0.011631619
-0.041394677 0.07291942 -0.056302104 -0.004514218 -0.000114669776 0.05623982 -0.0081149675 -0.018050639
-0.08472426 -0.037468784 0.0317089 0.060490705 -0.03622931 0.0138150165 0.046186645 0.0380588
0.01322185 -0.06429043 -0.071040094 -0.08493374 -0.06619132 -0.05659751 0.03008271 0.057780623
-0.018342983 -0.007991695 -0.0064300774 0.022314627 0.013357431 0.08029423 -0.071683235 0.048679005
0.02457056 -0.043980572 -0.05083281 0.03328651 -0.039557304 0.08681524 0.041105475 -0.018444814
-0.051039387 0.08236921 0.06880124 0.074234195 0.027999321 0.07017599 -0.030080602 -0.020241516
-0.07485709 -0.06744369 0.053840544 0.031234026 -0.08207303 -0.016881896 -0.035852697 -0.007994517
0.054467134 0.07382282 0.07051225 0.07305502 -0.04158526 -0.08204077 0.06945622 0.061146583
0.066055894 0.0031663696 -0.08062918 0.061334968 0.052069977 -0.05441945 0.06635761 0.062406734
-0.061380144 -0.05189421 0.07686765 0.075298175 0.028413668 -0.07829169 -0.06610843 0.0018647036
-0.08081081 0.048449524 0.07474571 -0.058336634 -0.07145308 -0.035066627 -0.06570867 -0.0374911
0.017488874 0.045579735 0.07182341 0.0015424177 0.07499732 0.060693342 -0.010353509 0.011611441
0.0069859102 0.046603747 -0.07319993 0.02682036 0.034598406 0.059530705 0.08184832 0.03385232
00000000: fb23 d33c afc4 53bd f77d 823d fc17 d7bc
00000010: 1be2 fcbc a8e4 263d 5d88 51bd 09bc b33d
00000020: dfc3 6abd cfca 213d 471f cc3c dcb4 9dbd
00000030: b8a1 753d 0b6f aeba 64ac 4abc ca72 363d
00000040: a759 3bbd 6055 8abd cee5 af3b 0cf4 483d
00000050: be46 a8bd 73a5 b0bc 823b b13d 8c92 3e3c
00000060: 778d 29bd c756 953d 099d 66bd 01ec 93bb
00000070: de7a f0b8 ba5b 663d a4f4 04bc efde 93bc
00000080: ea83 adbd de78 19bd 31e1 013d 1ac5 773d
00000090: 2f65 14bd 6158 623c 352e 3d3d 8be3 1b3d
000000a0: 75a0 583c b3aa 83bd 787d 91bd bef1 adbd
000000b0: 518f 87bd cad2 67bd 0470 f63c 60ab 6c3d
000000c0: 0644 96bc 99ef 02bc 66b3 d2bb 2acd b63c
000000d0: 20d9 5a3c 4d71 a43d a9ce 92bd a363 473d
000000e0: 3348 c93c f924 34bd 1136 50bd 6f57 083d
000000f0: d706 22bd 30cc b13d 375e 283d 9419 97bc
00000100: ad0e 51bd 30b1 a83d aae7 8c3d 1908 983d
00000110: d55e e53c 6eb8 8f3d 986b f6bc 89d1 a5bc
00000120: ad4e 99bd eb1f 8abd e787 5c3d 80de ff3c
00000130: e815 a8bd e74b 8abc 47da 12bd 6ffb 02bc
00000140: ee18 5f3d 6b30 973d ba68 903d df9d 953d
00000150: 4e55 2abd fe04 a8bd 103f 8e3d d774 7a3d
00000160: 5048 873d de82 4f3b e920 a5bd 603a 7b3d
00000170: 5447 553d eee6 5ebd 80e6 873d 349e 7f3d
00000180: bf69 7bbd 068f 54bd c96c 9d3d ee35 9a3d
00000190: c8c3 e83c 6557 a0bd db63 87bd 1269 f43a
000001a0: 2380 a5bd 0273 463d 4714 993d 65f2 6ebd
000001b0: fe55 92bd 06a2 0fbd 4492 86bd 4590 19bd
000001c0: d444 8f3c d1b1 3a3d 2718 933d f32a ca3a
000001d0: 3298 993d 9599 783d c4a1 29bc ea3d 3e3c
000001e0: 10ea e43b 92e3 3e3d d8e9 95bd 5fb6 db3c
000001f0: 0fb7 0d3d 78d6 733d 18a0 a73d bba8 0a3d

actor.linear4.weight f4 [9, 128]
0.025454529 0.027060788 -0.050402798 -0.011705164 0.0020504412 -0.08276271 0.048204143 0.08410442
0.07178651 -0.017292732 -0.06990991 -0.013124944 0.02565204 -0.033877462 -0.006788034 -0.047199838
-0.070072174 -0.07182386 0.052710842 -0.04853098 0.07104901 0.07827562 -0.001219141 0.069822036
-0.046167 0.078870475 -0.002610128 0.08247801 0.051868077 -0.017691035 0.05138744 -0.0620118
-0.06339528 0.035095863 0.06465538 0.07563176 -0.0722635 0.030620156 -0.07679581 0.03245464
0.034517538 0.071670435 -0.018294303 -0.059872113 0.01730597 0.07432017 0.018927414 -0.008911016
-0.0158831 0.044723548 -0.05025898 0.013657474 0.051932976 -0.011975932 -0.0020745872 -0.082818784
0.033007514 0.0011470307 -0.0246134 -0.010940944 -0.049166117 0.026908308 -0.06871144 -0.086852305
-0.05991804 -0.04908225 0.041402943 -0.06089251 -0.03632185 -0.016115595 0.07928699 -0.025132937
-0.055263713 -0.018651873 0.057232838 0.006179868 -0.07853836 -0.034249485 0.034622524 -0.028515197
-0.0789293 -0.051101234 -0.045995977 0.06567768 -0.028271347 -0.035856616 0.06228661 -0.00810338
-0.06881753 0.07290261 -0.007641206 -0.08228515 0.03435328 -0.008087081 0.017866734 -0.05185322
-0.00674628 -0.04540336 -0.012836503 0.025328154 -0.05447803 -0.061249014 0.006034401 0.024910811
-0.020588381 -0.018876733 -0.02362727 0.06132361 0.012783866 0.05846017 0.0055518155 0.03743586
0.07415557 0.050999302 0.048436128 0.065741815 -0.00012197538 -0.07331397 -0.05305858 -0.039716277
0.026415467 0.041133452 -0.051790096 -0.004320097 -0.0029886998 0.022659566 -0.011770637 -0.023883505
-0.01008112 0.06936018 -0.04214745 -0.010042326 0.07265624 -0.009729618 0.088152036 0.05349937
0.081568554 0.00557046 0.0007634537 0.03624387 -0.034841165 0.087769955 0.0534849 0.047102556
-0.038681425 -0.011845697 0.034095965 -0.007960859 -0.032224268 0.06808172 -0.08327433 -0.0651689
0.023545533 -0.010440759 0.0617734 0.012629844 -0.04525739 -0.056530047 0.00016475271 -0.053421028
-0.051619437 0.023141408 0.07376188 -0.038506187 -0.011861531 0.038453907 0.0029405034 0.04794247
0.00088386313 -0.08616992 0.05232416 -0.0069786343 0.02208635 0.061068684 0.04523819 -0.045338638
0.07830367 -0.05177823 0.027645508 0.052798375 -0.03322517 0.05670573 0.034609478 -0.03544866
0.020263933 -0.0539704 0.077972524 0.043651927 -0.0060570654 0.016303407 0.07644414 0.07792028
-0.01650475 -0.029738026 -0.020690748 -0.05598087 -0.011939694 -0.054843992 0.03110963 0.042343214
-0.082138106 -0.040476304 0.04387072 0.0793974 -0.0076972325 -0.04635803 0.063411936 -0.035747547
-0.0152644925 0.039342154 0.009566037 0.02780916 -0.07070975 0.057366513 0.054942735 -0.079331934
-0.08919771 0.028731268 0.041627757 0.06573728 0.078108884 -0.022304734 -0.01578474 0.006349865
0.027128445 -0.055340607 -0.07230013 -0.0443969 0.05659516 0.04906367 0.029946463 0.07450434
-0.07836539 -0.076833665 0.009160295 0.05926614 -0.042300433 -0.08066526 -0.028613232 -0.0014043787
-0.084184006 0.04427781 0.027921634 -0.07744891 -0.07048181 -0.061178546 0.07424945 0.052609622
-0.05869078 0.049761076 0.06377628 -0.03368847 0.022893028 0.081776924 0.07982996 0.046347238
00000000: 0486 d03c 96ae dd3c 2a73 4ebd 04c7 3fbc
00000010: b260 063b 7f7f a9bd b571 453d f03e ac3d
00000020: ce04 933d 7da9 8dbc ed2c 8fbd 010a 57bc
00000030: 3a24 d23c 18c3 0abd 286e debb 9e54 41bd
00000040: 0082 8fbd 6318 93bd 53e7 573d 6cc8 46bd
00000050: 2582 913d f84e a03d 95cb 9fba dbfe 8e3d
00000060: 9c19 3dbd d886 a13d ae0e 2bbb 3bea a83d
00000070: 9f73 543d caec 90bc a37b 523d 1600 7ebd
00000080: 62d5 81bd aec0 0f3d 0a6a 843d d3e4 9a3d
00000090: e3fe 93bd 1fd7 fa3c 1f47 9dbd 28ef 043d
000000a0: 4362 0d3d f3c7 923d efdd 95bc 763c 75bd
000000b0: 40c5 8d3c 2c35 983d aa0d 9b3c 83ff 11bc
000000c0: 461d 82bc 0a30 373d 5cdc 4dbd 99c3 5f3c
000000d0: acb7 543d b336 44bc ccf5 07bb e59c a9bd
000000e0: e332 073d f757 963a 0ba2 c9bc a541 33bc
000000f0: 6962 49bd d06e dc3c 95b8 8cbd 9fdf b1bd
00000100: 9e6c 75bd 780a 49bd 2296 293d 6d6a 79bd
00000110: 38c6 14bd da04 84bc 3861 a23d 97e3 cdbc
00000120: 345c 62bd d0cb 98bc fb6c 6a3d 7d80 ca3b
00000130: b8d8 a0bd 3049 0cbd 59d0 0d3d b498 e9bc
00000140: afa5 a1bd 874f 51bd 4766 3cbd 0582 863d
00000150: 5099 e7bc 63de 12bd 3f20 7f3d 0ac4 04bc
00000160: 35f0 8cbd f74d 953d 1563 fabb 1e85 a8bd
00000170: 06b6 0c3d ad7f 04bc 425d 923c 0b64 54bd
00000180: e60f ddbb e0f8 39bd 3250 52bc fd7c cf3c
00000190: 5b24 5fbd 3fe0 7abd 39bc c53b c211 cc3c
000001a0: f7a8 a8bc 61a3 9abc fa8d c1bc 772e 7b3d
000001b0: 6c73 513c ee73 6f3d 01ec b53b 5856 193d
000001c0: e0de 973d a5e4 503d f664 463d a5a3 863d
000001d0: 09cd ffb8 a225 96bd f453 59bd 89ad 22bd
000001e0: 4065 d83c 8d7b 283d da21 54bd 9a8f 8dbb
000001f0: 10de 43bb 8ea0 b93c a1d9 40bc 57a7 c3bc
00000200: 482b 25bc b60c 8e3d cea2 2cbd 9188 24bc
00000210: cbcc 943d fa68 1fbc 0e89 b43d 2822 5b3d
00000220: 6a0d a73d 6888 b63b 8322 483a 7474 143d
00000230: 9cb5 0ebd bcc0 b33d fc12 5b3d 9cee 403d
00000240: 6a70 1ebd 7414 42bc 36a8 0b3d 436e 02bc
00000250: 98fd 03bd 6e6e 8b3d bb8b aabd 4677 85bd
00000260: 90e2 c03c b80f 2bbc 1b06 7d3d 68ed 4e3c
00000270: d05f 39bd 0d8c 67bd 78c1 2c39 02d0 5abd
00000280: e76e 53bd 0d93 bd3c 7810 973d aab8 1dbd
00000290: de56 42bc d881 1d3d 76b5 403b 535f 443d
000002a0: 0db3 673a db79 b0bd dc51 563d 07ad e4bb
000002b0: 6fee b43c 2823 7a3d ae4b 393d 02b5 39bd
000002c0: ad5d a03d 6915 54bd d578 e23c 1c43 583d
000002d0: 1e17 08bd 4444 683d abc2 0d3d 9d32 11bd
000002e0: 8c00 a63c 1110 5dbd 0fb0 9f3d 5dcc 323d
000002f0: 597a c6bb b98e 853c bf8e 9c3d ab94 9f3d
00000300: f834 87bc 299d f3bc a57f a9bc 324c 65bd
00000310: b59e 43bc 18a4 60bd 9fd9 fe3c 1470 2d3d
00000320: 0638 a8bd 7bca 25bd c9b1 333d 1b9b a23d
00000330: 1139 fcbb ebe1 3dbd 1ede 813d 056c 12bd
00000340: ec17 7abc 3d25 213d deba 1c3c 09d0 e33c
00000350: 46d0 90bd 26f9 6a3d a20b 613d c878 a2bd
00000360: 4aad b6bd d65d eb3c de81 2a3d 44a1 863d
00000370: 8df7 9f3d 6bb8 b6bc 004f 81bc 8712 d03b
00000380: 793c de3c d5ac 62bd 1712 94bd 86d9 35bd
00000390: 54d0 673d fdf6 483d 4952 f53c bb95 983d
000003a0: 097e a0bd f85a 9dbd 1015 163c 0dc1 723d
000003b0: 3843 2dbd d433 a5bd 4c66 eabc 2113 b8ba
000003c0: aa68 acbd a65c 353d e9bb e43c 899d 9ebd
000003d0: c458 90bd 5b96 7abd 1810 983d 307d 573d
000003e0: be65 70bd 45d2 4b3d 239d 823d ecfc 09bd
000003f0: 298a bb3c a97a a73d e47d a33d 9ad6 3d3d

actor.linear4.bias f4 [9]
0.0037938012 0.04059577 -0.0514909 0.05054838 -0.03810622 0.08477527 -0.06590922 0.056823086
-0.027376972
00000000: 6ca1 783b c047 263d 1fe8 52bd d10b 4f3d
00000010: 4515 1cbd a89e ad3d 6afb 86bd 53bf 683d
00000020: ac45 e0bc

critic.linear1.weight f4 [128, 120]
-0.0761454 0.009348043 0.0938233 -0.057734277 -0.079787925 -0.08951693 -0.06339441 0.07262006
0.033614233 -0.09655691 0.08422105 -0.09353464 0.067528605 0.01028066 0.017261041 -0.088509165
0.08987121 -0.09219022 0.026476676 -0.061329823 0.089541204 -0.033851624 -0.010574699 -0.041051447
-0.02901417 0.038394056 0.03607131 0.009038126 -0.03405042 -0.020550452 -0.030729152 0.07154012
-0.056031752 0.000101826445 0.004732025 -0.043335345 0.006882605 -0.03471344 -0.04576483 -0.022439077
0.05875467 0.0048129703 0.029283822 -0.05966008 0.0043035075 -0.011812117 0.08181513 0.079150416
0.029081844 -0.007922115 0.07714278 -0.025446868 -0.058352366 -0.020024635 -0.04083906 0.10383298
0.060974255 -0.024632437 0.028244209 -0.009468548 -0.02218524 -0.015161163 -0.09402307 -0.051068813
-0.08822289 -0.08905916 0.011907931 -0.063022956 -0.03676195 0.048918884 0.08489548 -0.045397844
-0.076238275 -0.08885455 0.06254784 0.03714264 0.07253817 0.04691837 0.09363007 0.07325763
-0.03221186 -0.07245716 0.049591154 0.059096582 -0.029728444 0.07346542 0.053366974 0.05134454
-0.08904337 0.027692081 0.061175764 -0.0063087186 0.056962095 -0.0089431815 -0.10155216 0.05394747
-0.046639886 -0.01336339 -0.05361266 -0.06202592 0.046395957 0.04032689 -0.051423002 0.026561756
-0.07781393 0.10148121 -0.06329056 -0.020589355 0.018913439 -0.04219321 0.06971349 -0.08563731
0.022383675 0.07460614 -0.027536519 0.011568704 0.06329322 0.06737018 -0.07628984 0.022148024
0.08652108 -0.040077377 0.003927296 -0.10053132 -0.08950674 -0.045349758 0.09093908 0.05947667
-0.064723335 -0.05646359 -0.07027875 -0.06193746 -0.0752357 0.027066663 -0.043837618 -0.07410823
0.05593463 -0.062846035 0.07912386 0.08425743 0.08869668 -0.010660267 -0.002127623 -0.020248584
0.08903253 -0.0077534784 -0.023364771 -0.077665806 0.02074505 0.06943748 -0.0054514837 0.06875624
0.0020161993 0.010743836 -0.0052911285 -0.07017293 0.04426014 -0.025774704 0.08471651 -0.07587787
0.07214451 -0.01854068 0.010115093 -0.06184503 -0.072532035 0.05313411 0.05302898 0.0063570556
0.043729752 -0.046873793 0.019457094 0.055232435 0.01508114 0.09411915 -0.027613029 0.091281004
0.07650956 -0.054335628 0.030234108 0.06244497 0.05602036 -0.044537865 -0.023895156 -0.068731286
0.0077693146 0.085011475 -0.0076421443 -0.047528345 -0.011763092 -0.0617005 -0.043353368 0.009330609
-0.03174976 0.000729817 -0.0620914 -0.09629217 0.048374426 -0.02180625 -0.064536385 0.018735886
-0.05963335 0.028969137 -0.09532809 0.008743503 0.037313998 0.090996064 0.056682285 0.0025522392
0.0575604 -0.065412395 -0.07930691 0.00210951 0.05145007 0.049423534 0.036666963 0.06231583
0.065112464 0.01376862 0.0699027 -0.011242028 0.07548304 0.081580065 -0.039444268 -0.02040088
-0.022838596 0.0015341052 0.05830281 -0.06238172 -0.013988641 0.043645244 0.08241551 -0.04675363
0.09449426 0.03590619 0.038346857 0.016310953 -0.02711073 0.074564934 0.062329315 0.040616415
0.06276798 -0.049046956 0.012277374 -0.10356682 -0.03234336 0.054784566 0.06780333 0.029518535
0.004317832 -0.024933027 0.054637507 -0.006316907 0.044738118 0.00083241734 0.0023146723 0.070191465
00000000: 1ff2 9bbd 8928 193c 6e26 c03d c77a 6cbd
00000010: da67 a3bd a754 b7bd eed4 81bd d3b9 943d
00000020: 14af 093d a1bf c5bd 167c ac3d 178f bfbd
00000030: 704c 8a3d 3770 283c 0767 8d3c 4b44 b5bd
00000040: 660e b83d 3ace bcbd 9de5 d83c fb34 7bbd
00000050: 6161 b73d 00a8 0abd 8141 2dbc 9025 28bd
00000060: 20af edbc 1643 1d3d 83bf 133d a614 143c
00000070: 7478 0bbd 6c59 a8bc b4bb fbbc a083 923d
00000080: 8d81 65bd a88b d538 1a0f 9b3b 6780 31bd
00000090: 7a87 e13b ae2f 0ebd e773 3bbd 28d2 b7bc
000000a0: bda8 703d 1fb6 9d3b a0e4 ef3c 215e 74bd
000000b0: 7004 8d3b 9c87 41bc b18e a73d 9d19 a23d
000000c0: 0c3d ee3c c2cb 01bc 09fd 9d3d f375 d0bc
000000d0: e402 6fbd b40a a4bc dc46 27bd 63a6 d43d
000000e0: 24c0 793d f7c9 c9bc 6660 e73c f821 1bbc
000000f0: d2bd b5bc 8766 78bc 2b8f c0bd 882d 51bd
00000100: 34ae b4bd a664 b6bd 7c19 433c 2e12 81bd
00000110: b393 16bd 2b5f 483d aedd ad3d 17f3 39bd
00000120: d022 9cbd 60f9 b5bd 1519 803d e222 183d
00000130: e48e 943d 7a2d 403d 1fc1 bf3d 1908 963d
00000140: 95f0 03bd 6b64 94bd 1820 4b3d 420f 723d
00000150: 1189 f3bc 0a75 963d 5497 5a3d a74e 523d
00000160: 5f5c b6bd 81da e23c 7093 7a3d 5eb9 cebb
00000170: 1651 693d 6c86 12bc 94fa cfbd 06f8 5c3d
00000180: 7709 3fbd 1ff2 5abc f398 5bbd e40e 7ebd
00000190: b009 3e3d cf2d 253d eda0 52bd 0a98 d93c
000001a0: e95c 9fbd 61d5 cf3d 7b9e 81bd 02ab a8bc
000001b0: 5bf0 9a3c cad2 2cbd f2c5 8e3d 9d62 afbd
000001c0: f85d b73c 1bcb 983d 4494 e1bc a98a 3d3c
000001d0: e09f 813d 60f9 893d d93d 9cbd c66f b53c
000001e0: f731 b13d 2d28 24bd 8cb0 803b 5de3 cdbd
000001f0: 4f4f b7bd abc0 39bd 453e ba3d cf9d 733d
00000200: ab8d 84bd 5e46 67bd 4eee 8fbd 22b2 7dbd
00000210: 2d15 9abd e8ba dd3c 138f 33bd 0ec6 97bd
00000220: b61b 653d 6cb5 80bd b10b a23d 298f ac3d
00000230: 9ba6 b53d 67a8 2ebc 976f 0bbb 5ce0 a5bc
00000240: b056 b63d e410 febb 7a67 bfbc 400f 9fbd
00000250: 86f1 a93c 3d35 8e3d 5ca2 b2bb 12d0 8c3d
00000260: 3622 043b ea06 303c 3461 adbb d3b6 8fbd
00000270: 1f4a 353d 7925 d3bc d97f ad3d db65 9bbd
00000280: 80c0 933d a0e2 97bc c6b9 253c 3751 7dbd
00000290: ad8b 94bd 27a3 593d ea34 593d d94e d03b
000002a0: f81d 333d bcfe 3fbd 7c64 9f3c 683b 623d
000002b0: e316 773c 8ac1 c03d b834 e2bc 89f1 ba3d
000002c0: 0bb1 9c3d 098f 5ebd 85ad f73c 4cc6 7f3d
000002d0: 9b75 653d 566d 36bd c6bf c3bc fdc2 8cbd
000002e0: bc95 fe3b 7f1a ae3d f46a fabb 15ad 42bd
000002f0: fcb9 40bc aab9 7cbd 4d93 31bd 69df 183c
00000300: 090c 02bd 3151 3f3a 8d53 7ebd d434 c5bd
00000310: 4324 463d 05a3 b2bc a72b 84bd 007c 993c
00000320: 1a42 74bd af50 ed3c 603b c3bd e940 0f3c
00000330: 90d6 183d 255c ba3d af2b 683d 7843 273b
00000340: 74c4 6b3d eff6 85bd a96b a2bd b43f 0a3b
00000350: 4fbd 523d 5570 4a3d 1930 163d e23e 7f3d
00000360: af59 853d c795 613c 2629 8f3d 7c30 38bc
00000370: da96 9a3d 7313 a73d 5090 21bd bf1f a7bc
00000380: 0218 bbbc 0714 c93a edce 6e3d f983 7fbd
00000390: 9d30 65bc 5bc5 323d 77c9 a83d bc80 3fbd
000003a0: 3586 c13d 5e12 133d 9811 1d3d 8c9e 853c
000003b0: 5217 debc 80b5 983d 064d 7f3d 665d 263d
000003c0: 808c 803d 76e5 48bd 0a27 493c d71a d4bd
000003d0: 797a 04bd c865 603d 79dc 8a3d dbd0 f13c
000003e0: 9a7c 8d3b 5940 ccbc 94cb 5f3d 0efe cebb
000003f0: 513f 373d 9536 5a3a c2b1 173b 8bc0 8f3d

critic.linear1.bias f4 [128]
0.09627117 -0.037802536 0.050527427 -0.075275116 -0.02365362 0.07167888 0.057084247 0.0660407
-0.070695736 -0.059798095 0.067612916 -0.072575696 0.06966074 -0.0020233206 -0.027102662 0.07085259
0.058980424 -0.01703927 0.03534798 0.0032269082 0.08042887 -0.068381846 0.06124932 0.076210864
-0.09051434 0.041214965 0.036118627 -0.06520324 -0.086477436 -0.07162602 -0.041336574 0.09638874
-0.061804656 0.016841706 -0.0798129 -0.050681647 0.04288775 -0.027974922 0.1042279 0.021289881
0.01133386 -0.044082128 -0.07891822 -0.04038303 0.03596405 0.032280263 0.019779291 0.08774688
0.086947605 -0.06638814 0.0151677495 0.052071966 0.0013421455 0.038276646 -0.054921515 -0.007893854
-0.0064673917 -0.0101214005 -0.038349453 -0.029818835 -0.020719288 -0.05192336 0.03759231 0.08569092
0.06928229 -0.08527585 -0.034280963 -0.046299003 0.022157928 0.088347845 -0.0952775 -0.08922817
0.0899556 0.022980731 0.08361514 0.068696216 0.05880169 0.054077853 0.06758103 0.049042862
0.085918814 -0.006541628 -0.047514196 0.025613163 -0.036624692 -0.10216924 0.013119023 0.030183254
-0.0016734038 0.06519704 -0.00687025 -0.08494798 -0.09312515 -0.07874122 -0.028197434 -0.048932847
-0.08102567 -0.0198094 0.06619422 -0.0005754261 0.040222023 0.0073664486 -0.033452947 0.024166081
-0.030973684 -0.005260428 -0.011375614 -0.022197882 0.07421904 -0.018241215 0.05360159 -0.057779584
0.0005976201 0.08141999 0.022549236 0.06834878 -0.053151198 -4.9702918e-05 0.047922958 -0.08314029
0.08337676 0.009392443 -0.05659784 -0.0811734 -0.007022544 0.07254296 0.018866757 0.05429456
00000000: d229 c53d d5d6 1abd d9f5 4e3d d729 9abd
00000010: 3dc5 c1bc 60cc 923d 2cd1 693d 5940 873d
00000020: edc8 90bd d9ee 74bd a478 8a3d 91a2 94bd
00000030: 4aaa 8e3d b099 04bb 6706 debc 2a1b 913d
00000040: 7595 713d f095 8bbc 0bc9 103d 897a 533b
00000050: e4b7 a43d c80b 8cbd 91e0 7a3d 7114 9c3d
00000060: 955f b9bd 06d1 283d 20f1 133d 4789 85bd
00000070: 151b b1bd aab0 92bd 8a50 29bd 7667 c53d
00000080: e126 7dbd 9ef7 893c f274 a3bd 8f97 4fbd
00000090: 11ab 2f3d aa2b e5bc 7075 d53d 1e68 ae3c
000000a0: a8b1 393c 768f 34bd e09f a1bd ad68 25bd
000000b0: 0a4f 133d 4f38 043d 2e08 a23c a3b4 b33d
000000c0: 9611 b23d 81f6 87bd 2782 783c 6a49 553d
000000d0: eeea af3a f9c7 1c3d 62f5 60bd 3955 01bc
000000e0: 6aec d3bb 3bd4 25bc 5114 1dbd a146 f4bc
000000f0: 7fbb a9bc 97ad 54bd 65fa 193d b97e af3d
00000100: e0e3 8d3d 1ba5 aebd 326a 0cbd 06a4 3dbd
00000110: 8b84 b53c b7ef b43d da20 c3bd 42bd b6bd
00000120: a43a b83d 1642 bc3c 6a3e ab3d 9ab0 8c3d
00000130: 0ada 703d bd80 5d3d ec67 8a3d 2be1 483d
00000140: 34f6 af3d 275b d6bb 3f9e 42bd b2d2 d13c
00000150: c603 16bd 1b3e d1bd 2cf1 563c df42 f73c
00000160: 1d56 dbba 0786 853d d61f e1bb 35f9 adbd
00000170: 66b8 bebd 1443 a1bd 4efe e6bc cf6d 48bd
00000180: c9f0 a5bd 5347 a2bc d690 873d 31d8 16ba
00000190: d9bf 243d 4062 f13b f505 09bd f2f7 c53c
000001a0: 86bc fdbc ab5f acbb c960 3abc 55d8 b5bc
000001b0: 2700 983d 9a6e 95bc 578d 5b3d 49aa 6cbd
000001c0: 9ba9 1c3a 86bf a63d 2db9 b83c 72fa 8b3d
000001d0: 12b5 59bd 1a78 50b8 dd4a 443d 7545 aabd
000001e0: 6fc1 aa3d c3e2 193c 23d3 67bd 3d3e a6bd
000001f0: 5e1d e6bb 6791 943d 758e 9a3c f963 5e3d
