hover_falcon_raw_ckpt/ckpt_00001001.pt (torch, 452727 bytes, 15 tensors)

actor.linear1.weight f4 [128, 120]
0.03765815 0.01774041 0.07206132 0.058228195 -0.06151037 0.028523149 0.04415625 0.029875046
0.07588825 -0.03820899 -0.009187151 -0.01832366 -0.07056906 0.089278944 -0.052163225 0.06950509
0.07186293 0.020960456 0.031884424 -0.036451895 0.051050868 -0.006849869 -0.061738376 -0.076314084
-0.044360068 0.016274856 0.037884016 0.0122489 -0.08571297 0.025426747 0.013681291 -0.04917757
-0.04407533 -0.001665322 0.0173321 -0.07836829 -0.05706036 -0.03861199 0.07613645 -0.022861602
0.03441021 -0.08205473 -0.003675358 -0.085315175 -0.01073052 -0.054830175 -0.04944509 0.07311748
-0.052271653 0.08068233 -0.067176946 0.016857544 0.061001312 -0.026882011 -0.043270074 0.066169105
0.021729678 -0.025113955 -0.08815477 -0.055969313 -0.004694793 0.0893327 0.0074807513 -0.055636916
-0.036617264 0.0031281507 0.08342627 0.08449458 0.07932097 0.009123183 0.026380308 -0.077294946
-0.026543347 -0.08581357 0.09207729 -0.07454934 0.07486937 -0.02473213 0.06447729 0.05404424
0.011773588 0.03294125 -0.07152209 -0.065322496 -0.027821258 0.0732041 -0.06422899 -0.048395853
0.091747195 -0.077544026 0.053188358 0.028875105 -0.042920794 -0.006913152 -0.07542718 0.030443894
-0.018761508 0.08910185 0.047806174 0.010983829 -0.045559634 -0.016205925 0.005504322 0.07117959
0.048002012 -0.086110495 -0.039925355 0.024909243 -0.04018998 0.042278368 0.0493296 -0.034121532
0.0016948757 -0.0035682404 0.058388617 0.017210815 -0.08922649 -0.043726835 0.0060155327 0.047704156
-0.0027236184 0.011215915 -0.013169231 0.059384026 -0.080733664 0.05620972 -0.016574165 0.006960795
0.052448668 0.04604885 -0.036053732 0.020445993 -0.010824956 -0.072277956 0.0077305483 -0.0653454
-0.06667102 -0.08860336 -0.031871844 -0.020548051 0.039798904 0.02295376 0.061231103 0.02163413
-0.04098739 0.018220969 -0.090670496 0.086753346 -0.08921951 0.08573799 0.0073765805 -0.0104459915
0.039188 -0.07992694 -0.0135546485 -0.0670441 -0.051030256 -0.02093226 -0.02247698 -0.07552375
0.04856023 -0.06692462 -0.008673461 -0.06837175 -0.08414347 0.063525595 0.02296899 -0.016868507
0.01468304 -0.03650075 0.05634912 -0.04521728 0.08455234 0.029870816 0.03197617 -0.017110484
0.049009588 -0.005765702 0.040621955 0.06896403 0.039737087 -0.0076443944 -0.03694726 0.0778363
0.02504765 -0.0811685 0.07962127 0.06314618 -0.08183321 0.037936173 -0.06837901 0.0044802437
-0.043127187 -0.03392143 0.018613208 -0.032514695 0.0021073627 0.026200198 0.05822382 -0.02255801
0.04495064 -0.0036854409 0.0061340514 0.0019237469 -0.02308916 0.063419774 0.07793394 0.0861626
-0.063346975 -0.027319433 -0.008245313 0.043154936 -0.045493513 -0.046305336 0.06589551 -0.066626586
0.0019936408 -0.058318224 -0.018826587 -0.084844865 -0.04387987 0.02482217 -0.042977024 0.048561715
0.06462694 0.006184715 0.0640341 0.03177148 -0.024521803 0.01409626 0.08912785 -0.059203163
-0.02524545 -0.026556559 -0.06638086 0.047950532 0.05922642 0.033074986 -0.01554473 -0.03200989
-0.07293693 0.020070607 0.067103654 0.013523081 -0.014612184 -0.09107725 0.086373955 -0.016047994
0.063724086 -0.0019020408 -0.09061368 -0.09001414 -0.0025830893 -0.078052476 0.009517894 -0.04397882
00000000: 6f3f 1a3d 5654 913c e394 933d b080 6e3d
00000010: 4cf2 7bbd 61a9 e93c 2fdd 343d 83bc f43c
00000020: 4c6b 9b3d 0881 1cbd b485 16bc 801b 96bc
00000030: 8386 90bd e1d7 b63d 1ba9 55bd af58 8e3d
00000040: df2c 933d 43b5 ab3c 3e99 023d 954e 15bd
00000050: b71a 513d de74 e0bb 61e1 7cbd 8f4a 9cbd
00000060: e7b2 35bd d952 853c 452c 1b3d 9caf 483c
00000070: 488a afbd c14b d03c 7e27 603c 6b6e 49bd
00000080: 5588 34bd ef46 daba 0cfc 8d3c 8e7f a0bd
00000090: 20b8 69bd 9b27 1ebd 6ded 9b3d 4148 bbbc
000000a0: b8f1 0c3d 4f0c a8bd 46de 70bb b9b9 aebd
000000b0: 10cf 2fbc 9b95 60bd ef86 4abd 9ebe 953d
000000c0: cd1a 56bd c73c a53d 1194 89bd d518 8a3c
000000d0: 83dc 793d aa37 dcbc f63b 31bd ab83 873d
000000e0: 7002 b23c c8bb cdbc 7d8a b4bd 1440 65bd
000000f0: c7d6 99bb 10f4 b63d 1721 f53b 89e3 63bd
00000100: fcfb 15bd a901 4d3b 64db aa3d 7f0b ad3d
00000110: 0873 a23d 6779 153c 841b d83c d04c 9ebd
00000120: 6f71 d9bc 06bf afbd 0593 bc3d 53ad 98bd
00000130: 1d55 993d 099b cabc ab0c 843d 7e5d 5d3d
00000140: 02e6 403c 67ed 063d 2c7a 92bd cdc7 85bd
00000150: 68e9 e3bc 08ec 953d 7d8a 83bd bb3a 46bd
00000160: f4e5 bb3d 67cf 9ebd 09dc 593d 7c8b ec3c
00000170: b7cd 2fbd b987 e2bb 9179 9abd 7965 f93c
00000180: bcb1 99bc 087b b63d 68d0 433d 85f5 333c
00000190: bd9c 3abd 4ac2 84bc 995d b43b 9bc6 913d
000001a0: c29d 443d b35a b0bd c588 23bd 780e cc3c
000001b0: 409e 24bd 152c 2d3d d60d 4a3d 05c3 0bbd
000001c0: 9726 de3a 24d9 69bb e728 6f3d b2fd 8c3c
000001d0: 61bc b6bd e91a 33bd f21d c53b 6f65 433d
000001e0: bc7e 32bb f5c2 373c c2c3 57bc aa3c 733d
000001f0: b157 a5bd 2a3c 663d 8bc6 87bc 6117 e43b
00000200: 6ad4 563d b89d 3c3d 14ad 13bd 5b7e a73c
00000210: 285b 31bc 7706 94bd 8a50 fd3b cfd3 85bd
00000220: d18a 88bd ae75 b5bd 0d8c 02bd 6354 a8bc
00000230: 2d04 233d 8609 bc3c 77cd 7a3d 0f3a b13c
00000240: 65e2 27bd 2444 953c 74b1 b9bd bdab b13d
00000250: b8b8 b6bd 6697 af3d 3eb7 f13b aa25 2bbc
00000260: 9983 203d bcb0 a3bd 5114 5ebc 6b4e 89bd
00000270: 1a05 51bd 227a abbc a521 b8bc 32ac 9abd
00000280: 17e7 463d c60f 89bd 221b 0ebc 7d06 8cbd
00000290: 6953 acbd b519 823d 7729 bc3c d32f 8abc
000002a0: 2291 703c cf81 15bd 56ce 663d c135 39bd
000002b0: c729 ad3d a4b3 f43c 72f9 023d 492b 8cbc
000002c0: 47be 483d 37ee bcbb 3563 263d 033d 8d3d
000002d0: 5bc3 223d d47d fabb 0356 17bd a368 9f3d
000002e0: bb30 cd3c ac3b a6bd 7a10 a33d c952 813d
000002f0: 2c98 a7bd f662 1b3d 4b0a 8cbd 02cf 923b
00000300: 22a6 30bd 33f1 0abd ba7a 983c 212e 05bd
00000310: ae1b 0a3b cca1 d63c 1a7c 6e3d 93cb b8bc
00000320: 2a1e 383d 7087 71bb 2700 c93b 3c26 fc3a
00000330: 7a25 bdbc 3ae2 813d d49b 9f3d 0476 b03d
00000340: 0fbc 81bd 01cd dfbc 5917 07bc 3bc3 303d
00000350: 6857 3abd aaaa 3dbd 3af4 863d 8573 88bd
00000360: bea7 023b 17df 6ebd 373a 9abc 25c3 adbd
00000370: 61bb 33bd dd57 cb3c ad08 30bd a6e8 463d
00000380: 215b 843d 26a9 ca3b 4f24 833d d022 023d
00000390: f3e1 c8bc 00f4 663c aa88 b63d 047f 72bd
000003a0: 8ccf cebc 248d d9bc b0f2 87bd c767 443d
000003b0: 6797 723d a379 073d 53af 7ebc cd1c 03bd
000003c0: f55f 95bd 1d6b a43c a46d 893d ea8f 5d3c
000003d0: f167 6fbc b686 babd d4e4 b03d 1577 83bc
000003e0: c681 823d e64d f9ba aa93 b9bd 5559 b8bd
000003f0: 0c49 29bb fad9 9fbd f1f0 1b3c 2323 34bd

actor.linear1.bias f4 [128]
-0.05739414 -0.0113644 -0.04528931 -0.05052935 0.08693811 0.023646394 0.08741445 0.054807924
-0.0077235745 0.07118026 0.027273806 0.07193434 -0.04272562 -0.080505826 -0.07186793 -0.06492574
-0.07417768 0.08263699 -0.017364265 -0.068813376 0.046400737 -0.0027450018 0.061377756 0.06690933
-0.073801346 0.026006395 0.059292667 0.08059489 0.030699827 0.012229516 -0.08278376 -0.08612442
0.06547933 -0.023742488 0.040685337 -0.07700314 -0.0044497843 -0.022867914 0.042901553 -0.057009608
-0.06577569 -0.06853547 -0.066065304 -0.07729631 0.07567319 -0.07739656 0.049627632 0.08540369
-0.036756966 0.01613368 0.028531672 -0.07429794 0.08389359 0.08373954 0.0003769764 0.054097023
-0.003633345 0.063917674 -0.051469076 0.030572059 -0.041941606 -0.06468564 0.06565021 0.060142428
-0.0069109066 -0.024920328 0.019652432 -0.0067300647 -0.011263639 0.029357005 0.05067414 0.03994512
-0.005087501 -0.05584974 -0.08713009 0.05275953 0.064531185 -0.016447967 -0.010157818 -0.020959912
0.061830994 -0.02096281 0.012227915 -0.05551526 0.028685011 -0.08763882 0.06472549 -0.07567543
0.01788719 0.00066115044 -0.028143687 -0.012788508 0.06559342 -0.06763044 -0.006504909 0.041189983
0.08482911 -0.007409653 0.058357596 0.060292054 -0.05913523 -0.08747336 0.044532202 -0.038236298
0.061916173 -0.07259615 0.070521876 0.06947585 -0.003006411 0.0061606667 0.052813623 -0.021700595
-0.07092587 -0.06331852 0.018574152 -0.028067103 0.004425734 -0.06077564 0.003919135 0.032112133
0.07375961 0.062763356 -0.04122997 -0.076360814 -0.007956164 -0.012151491 -0.031282842 -0.047184803
00000000: 1e16 6bbd c031 3abc 4981 39bd ddf7 4ebd
00000010: 9c0c b23d 15b6 c13c 5906 b33d 467e 603d
00000020: 0a16 fdbb f5c6 913d 516d df3c 5052 933d
00000030: 0f01 2fbd 3de0 a4bd 7e2f 93bd c9f7 84bd
00000040: 78ea 97bd 953d a93d 813f 8ebc 07ee 8cbd
00000050: b30e 3e3d 7de5 33bb 3e67 7b3d c207 893d
00000060: 2925 97bd 5d0b d53c dedc 723d ef0e a53d
00000070: 347e fb3c 4f5e 483c 888a a9bd 0062 b0bd
00000080: 071a 863d 9b7f c2bc aba5 263d d2b3 9dbd
00000090: 7fcf 91bb 7e55 bbbc 8ab9 2f3d e882 69bd
000000a0: 68b5 86bd 535c 8cbd 3f4d 87bd 874d 9ebd
000000b0: 8cfa 9a3d 1682 9ebd 5846 4b3d 21e8 ae3d
000000c0: 798e 16bd c72a 843c 41bb e93c 8529 98bd
000000d0: 67d0 ab3d a37f ab3d eaa4 c539 d794 5d3d
000000e0: 6a1d 6ebb 45e7 823d 3dd1 52bd 4172 fa3c
000000f0: f6ca 2bbd e879 84bd 9e73 863d e857 763d
00000100: e374 e2bb b725 ccbc 23fe a03c e087 dcbb
00000110: 208b 38bc 1a7e f03c b08f 4f3d 7f9d 233d
00000120: 0db5 a6bb b2c2 64bd 4371 b2bd 601a 583d
00000130: ed28 843d e3bd 86bc fa6c 26bc 1fb4 abbc
00000140: 7f42 7d3d 33ba abbc 9857 483c f863 63bd
00000150: d4fc ea3c fb7b b3bd cc8e 843d b8fb 9abd
00000160: 2888 923c 0e51 2d3a 978d e6bc e486 51bc
00000170: d855 863d d481 8abd 2227 d5bb d4b6 283d
00000180: e2ba ad3d adcc f2bb 6008 6f3d cdf4 763d
00000190: c837 72bd 3c25 b3bd 6667 363d aa9d 1cbd
000001a0: d09b 7d3d 4aad 94bd c66d 903d 5b49 8e3d
000001b0: 3507 45bb 6bdf c93b 1953 583d 72c5 b1bc
000001c0: 9541 91bd 24ad 81bd d228 983c fbec e5bc
000001d0: bf05 913b e1ef 78bd 166c 803b 0388 033d
000001e0: 470f 973d 138a 803d c2e0 28bd 0f63 9cbd
000001f0: 925a 02bc 0c17 47bc 7022 00bd da44 41bd

actor.linear2.weight f4 [128, 128]
0.008119292 0.032449912 0.08037976 -0.060807765 0.013185415 -0.004216994 -0.018596772 0.07828512
-0.07686055 -0.055756073 -0.032150604 0.08143577 0.06688608 0.0089511275 -0.06739688 -0.012217857
0.020780452 0.04806772 -0.03190998 -0.0026070066 -0.08086291 0.041372944 -0.021417469 -0.05178779
-0.0498002 0.08457057 0.0371522 0.065253064 0.004587437 0.03712395 0.07797863 0.027933741
-0.08108507 -0.08639647 -0.057636146 -0.08758504 0.077425376 0.011264525 -0.05168345 0.04838705
-0.06812943 -0.046446767 0.0035253607 -0.015331796 0.06867591 -0.013168641 -0.012330652 0.08392389
-0.011057777 0.027496994 0.006821804 -0.082734816 0.05867189 0.0061304127 -0.024601182 -0.06732784
0.025999112 -0.045469508 -0.015170355 0.020960111 -0.056636203 0.048206918 -0.0089855585 -0.04790618
0.071269676 0.07444986 0.039028864 -0.050919443 0.052611534 0.012180162 -0.023272159 0.07046275
-0.031742007 -0.002829279 -0.04223053 -0.041361757 -0.07123074 -0.067322925 0.087452754 0.07868333
0.08373064 0.02022984 0.08111411 -0.08470383 0.038269725 -0.0687489 -0.0035534664 0.06397792
-0.039429504 -0.05305912 -0.08361694 0.02068374 -0.08610771 0.07306774 0.0084662745 0.033742957
-0.02265685 -0.057775475 0.021580052 0.078285396 -0.048128787 -0.07743648 -0.047069203 0.028072434
0.032637917 0.017697362 -0.08595462 0.039649554 0.070680454 0.020716507 0.07268884 -0.056008607
-0.06761576 0.049300164 0.03848214 0.06001234 -0.009496275 -0.025791122 0.020981865 -0.05137798
-0.08675206 0.086106904 -0.0026635246 -0.04858878 0.05624919 0.076749034 -0.073729165 0.07074782
0.08727051 0.07306434 0.06430957 -0.012429396 0.033657473 0.080964215 -0.04982743 0.062406477
-0.013668421 -0.05798417 -0.04843962 0.02027324 0.08385031 0.06775318 0.08050606 -0.060702432
0.010858876 0.030669557 0.063541174 -0.028708145 -0.011398228 0.01804548 0.021233993 -0.04752192
-0.076464176 0.012759884 0.034643926 -0.025209948 -0.05971694 -0.05124831 -0.06863873 0.038691014
-0.012577094 0.05665579 -0.06350113 -0.037417043 -0.08422262 -0.055935003 0.0004901977 -8.837106e-05
-0.02914269 -0.060918074 -0.048269764 -0.0053156298 0.068353206 0.011964518 -0.030816525 0.03807812
0.069860615 -0.06005791 -0.040148266 0.006519809 0.07087975 -0.060902607 0.059671417 -0.046170257
-0.029211389 0.055462025 -0.08209725 -0.059229936 0.07293023 -0.046390776 0.0054267477 -0.082373306
0.056189544 0.08707798 0.08437352 -0.032132655 -0.049541526 0.046081267 -0.03563408 -0.022883242
0.055860464 0.016094323 0.013941319 0.06664436 -0.0049470784 0.05104355 -0.07460359 0.04207117
-0.035193853 0.079928495 -0.08114964 0.044270676 -0.013378464 0.061435334 -0.06446474 0.005976055
0.080382936 -0.05001335 0.048388045 0.0120725315 0.017673947 0.02439421 0.07526967 -0.06829601
-0.047562804 -0.031501696 0.0876017 0.05676415 -0.073975086 -0.036710676 0.024279393 -0.032587446
-0.004466122 0.066287205 -0.065353416 0.045892593 -0.023841336 0.06460308 -0.064382516 0.07346048
-0.027229024 0.05023713 -0.07259408 0.08455323 -0.07785197 0.044972703 -0.06407619 0.06935231
0.016522272 0.05298394 0.04747548 -0.0070743756 0.05419973 -0.013914262 0.055796888 0.07221456
00000000: c706 053c 33ea 043d 259e a43d 9011 79bd
00000010: a407 583c b62e 8abb 4258 98bc f353 a03d
00000020: 1069 9dbd 7b60 64bd 5ab0 03bd ccc7 a63d
00000030: 92fb 883d c0a7 123c 6007 8abd 682d 48bc
00000040: c43b aa3c a8e2 443d 0ab4 02bd 50da 2abb
00000050: 749b a5bd ad76 293d b073 afbc 6f1f 54bd
00000060: 4bfb 4bbd 5633 ad3d e82c 183d 66a3 853d
00000070: 3652 963b 480f 183d 43b3 9f3d 4dd5 e43c
00000080: ee0f a6bd a2f0 b0bd e113 6cbd c95f b3bd
00000090: 3291 9e3d d88e 383c 06b2 53bd 8031 463d
000000a0: 7187 8bbd f73e 3ebd bd09 673b 3732 7bbc
000000b0: f5a5 8c3d 49c1 57bc 8106 4abc 4ae0 ab3d
000000c0: ae2b 35bc 6041 e13c 7189 df3b df70 a9bd
000000d0: f051 703d a1e1 c83b 6b88 c9bc 2ee3 89bd
000000e0: 17fc d43c 3c3e 3abd 158d 78bc 8ab4 ab3c
000000f0: 5dfb 67bd 9e74 453d 2a38 13bc 4539 44bd
00000100: d6f5 913d 2b79 983d bbdc 1f3d e890 50bd
00000110: 317f 573d 4d8f 473c 41a5 bebc c64e 903d
00000120: e803 02bd 6d6b 39bb ecf9 2cbd f26a 29bd
00000130: 6ce1 91bd 9ae0 89bd 6e1a b33d ba24 a13d
00000140: f87a ab3d 0db9 a53c 281f a63d 3479 adbd
00000150: b7c0 1c3d 39cc 8cbd 46e1 68bb db06 833d
00000160: d580 21bd 8554 59bd 5c3f abbd f270 a93c
00000170: 3d59 b0bd 8aa4 953d 21b6 0a3c 0e36 0a3d
00000180: dc9a b9bc faa5 6cbd a6c8 b03c 1854 a03d
00000190: b122 45bd 0497 9ebd a3cb 40bd 29f8 e53c
000001a0: 56af 053d 0ffa 903c fa08 b0bd 9267 223d
000001b0: eac0 903d aab5 a93c e3dd 943d 4869 65bd
000001c0: 227a 8abd f8ee 493d 739f 1d3d 80cf 753d
000001d0: 4496 1bbc e747 d3bc 29e2 ab3c b771 52bd
000001e0: 10ab b1bd d158 b03d 878e 2ebb 0705 47bd
000001f0: 8d65 663d 992e 9d3d 51ff 96bd 3ce4 903d
00000200: e2ba b23d c2a2 953d bcb4 833d aaa4 4bbc
00000210: 6bdc 093d 91d0 a53d d917 4cbd ef9d 7f3d
00000220: 83f1 5fbc cf80 6dbd 9f68 46bd 1114 a63c
00000230: b6b9 ab3d 2ec2 8a3d 5ce0 a43d 1da3 78bd
00000240: 6de9 313c b93e fb3c e021 823d 582d ebbc
00000250: a2bf 3abc 1dd4 933c e9f2 ad3c 58a6 42bd
00000260: 4099 9cbd d50e 513c cae6 0d3d 1885 cebc
00000270: c099 74bd bfe9 51bd 7692 8cbd 787a 1e3d
00000280: 2810 4ebc e70f 683d e10c 82bd 9d42 19bd
00000290: e97c acbd 1a1c 65bd 9c80 003a da53 b9b8
000002a0: a7bc eebc 3b85 79bd 84b6 45bd bc2e aebb
000002b0: c4fc 8b3d d306 443c f072 fcbc cef7 1b3d
000002c0: 1513 8f3d 48ff 75bd 8272 24bd 1fa4 d53b
000002d0: 6729 913d 0375 79bd 046a 743d 061d 3dbd
000002e0: b94c efbc 262c 633d 9a22 a8bd 179b 72bd
000002f0: 725c 953d 4104 3ebd dcd2 b13b 56b3 a8bd
00000300: 0227 663d f155 b23d 06cc ac3d 889d 03bd
00000310: 0eec 4abd b6bf 3c3d 0bf5 11bd a375 bbbc
00000320: f1cd 643d 3ed8 833c 216a 643c d77c 883d
00000330: 1a1b a2bb 0b13 513d c4c9 98bd d252 2c3d
00000340: 6e27 10bd 8db1 a33d c831 a6bd 2b55 353d
00000350: 5831 5bbc 9ea3 7b3d 1706 84bd c8d2 c33b
00000360: cf9f a43d ccda 4cbd 8b32 463d decb 453c
00000370: f4c8 903c 5ed6 c73c fc26 9a3d c7de 8bbd
00000380: 37d1 42bd ec07 01bd 8568 b33d 8681 683d
00000390: 4080 97bd ef5d 16bd 94e5 c63c 6a7a 05bd
000003a0: 8c58 92bb 96c1 873d 03d8 85bd dff9 3b3d
000003b0: e84e c3bc 9f4e 843d fbda 83bd 7372 963d
000003c0: 670f dfbc 73c5 4d3d 34ac 94bd 3e2a ad3d
000003d0: db70 9fbd 4c35 383d 613a 83bd 9508 8e3d
000003e0: b759 873c b005 593d a675 423d 2ad0 e7bb
000003f0: 8900 5e3d a5f8 63bc 478b 643d 3ae5 933d

actor.linear2.bias f4 [128]
0.06471356 0.022999741 0.02511793 -0.08309248 -0.0075953216 0.054101594 0.013780853 -0.005322958
-0.07863587 -0.061889682 -0.019829625 0.05620035 0.04660448 -0.08579447 -0.06593656 0.04133332
0.040778425 -0.06171563 0.023354454 0.07380416 0.05218087 -0.052641295 -0.00022154798 -0.03662963
-0.08475441 -0.048558462 0.05918724 -0.057860255 0.08249002 0.08733671 -0.051871274 0.046802837
-0.056680858 -0.020618422 0.05729112 -0.041310508 0.083963305 -0.084211506 -0.0018570836 0.04849083
-0.023260942 -0.06609576 0.033543453 -0.084221974 0.011163328 0.07305976 0.030046321 0.021682495
-0.029395694 0.08586668 -0.015579854 -0.023091769 0.037025362 0.060732663 0.03586922 -0.08965019
0.06929509 0.03431068 0.025864244 0.021059401 0.07348046 -0.025662653 0.041505173 0.0011642128
0.08762437 -0.07159497 -0.015727721 0.017010244 -0.0703126 -0.0824596 -0.011645654 -0.02933699
0.05742242 0.037490044 0.0759274 -0.017634964 0.048680443 -0.052651785 -0.029287267 -0.05660958
-0.008470845 0.060380157 0.07677052 0.067117006 -0.0049919835 0.05667892 -0.047857657 -0.036945187
0.08094846 -0.052590385 0.005543735 -0.0073169703 0.09008146 0.037416086 -0.02872241 -0.0021753514
-0.0035891712 0.054912183 -0.08453972 0.01604487 0.026327582 -0.051640704 0.061943356 -0.020088099
0.034360066 0.0587185 0.03645854 0.035872404 0.019293819 0.003038601 0.022692973 0.051507022
0.07897913 0.0076588034 -0.0072801453 -0.035261825 0.06929371 -0.08865579 -0.0809172 -0.007468226
0.029518869 -0.05995922 -0.09116375 -0.07713872 0.04861392 0.078339785 0.07638742 -0.009563232
00000000: 8b88 843d f469 bc3c 1ec4 cd3c 642c aabd
00000010: 2de2 f8bb a299 5d3d 16c9 613c 356c aebb
00000020: d80b a1bd 0980 7dbd bd71 a2bc 5732 663d
00000030: 57e4 3e3d 03b5 afbd bf09 87bd 214d 293d
00000040: 4707 273d 87c9 7cbd d751 bf3c a326 973d
00000050: 9cbb 553d 669e 57bd 554f 68b9 f308 16bd
00000060: b893 adbd 3de5 46bd 526e 723d e0fe 6cbd
00000070: 87f0 a83d 97dd b23d f976 54bd 55b4 3f3d
00000080: 302a 68bd f7e7 a8bc 18aa 6a3d 3535 29bd
00000090: f4f4 ab3d 1577 acbd 6369 f3ba 529e 463d
000000a0: bb8d bebc 375d 87bd dc64 093d 927c acbd
000000b0: 64e6 363c 5ba0 953d b423 f63c 7d9f b13c
000000c0: 3dcf f0bc dfda af3d a542 7fbc f32a bdbc
000000d0: e8a7 173d d0c2 783d 9aeb 123d 859a b7bd
000000e0: 96ea 8d3d 5b89 0c3d 40e1 d33c c484 ac3c
000000f0: ec7c 963d 7c3a d2bc 5401 2a3d 8098 983a
00000100: 6874 b33d 62a0 92bd 6cd7 80bc 1159 8b3c
00000110: 0d00 90bd 94e0 a8bd 6acd 3ebc 2154 f0bc
00000120: c533 6b3d 298f 193d d37f 9b3d 3377 90bc
00000130: 2565 473d 66a9 57bd daeb efbc 72df 67bd
00000140: 4dc9 0abc 2f51 773d dd39 9d3d a474 893d
00000150: cb93 a3bb 2828 683d 6406 44bd d653 17bd
00000160: 4ec8 a53d 0469 57bd 38a8 b53b 32c3 efbb
00000170: a17c b83d 9c41 193d 424b ebbc 5790 0ebb
00000180: 4d38 6bbb 99eb 603d 2923 adbd 8870 833c
00000190: f1ac d73c 3485 53bd 51b8 7d3d cc8f a4bc
000001a0: 24bd 0c3d cf82 703d 8d55 153d f1ee 123d
000001b0: 120e 9e3c 4423 473b 9de6 b93c 07f9 523d
000001c0: cfbf a13d b3f6 fa3b 498e eebb b46e 10bd
000001d0: dce9 8d3d 2b91 b5bd ebb7 a5bd 05b8 f4bb
000001e0: 8ed1 f13c cd97 75bd 0fb4 babd e8fa 9dbd
000001f0: 641f 473d 9c70 a03d 0271 9c3d 1aaf 1cbc

actor.linear3.weight f4 [128, 128]
-0.086704165 0.06548759 0.035493832 -0.07880364 0.0524581 -0.0064436803 0.079881154 -0.057620075
-0.048399847 0.003402619 0.057107445 0.05783927 0.06508336 0.04426355 0.056366723 0.024475541
0.067831784 0.01626189 -0.00043289957 -0.057597376 0.06780956 -0.0019541893 0.024957782 0.082139164
-0.00800897 -0.027102787 0.08303083 0.05640532 0.0099976035 0.0844549 -0.078836285 -0.07821587
0.06130837 -0.06289576 -0.008682367 -0.031172937 0.049464453 -0.04108399 -0.034805126 -0.011459251
0.0035575095 0.03738841 -0.004937472 -0.0017280065 -0.07094367 -0.013283674 -0.045209713 -0.048130594
0.01722421 -0.059951805 -0.06792757 0.011309556 -0.026809493 0.0022603252 -0.017428396 0.057827316
0.048043683 -0.024057813 -0.06556931 0.069782056 0.03549149 0.0035598497 -0.08002371 -0.06711237
-0.087918326 0.074973464 0.016264195 0.08405624 0.077626504 -0.004221924 -0.0017271513 0.01673326
-0.07089081 0.03227699 0.07498257 0.049645107 0.0367576 -0.04402493 -0.03764734 -0.051427707
-0.05443745 -0.06429104 0.057642244 -0.05690096 0.076736376 0.06809305 0.07178416 0.04618842
-0.052731194 0.007444863 -0.025358727 0.054430578 0.0548701 -0.01074895 0.031618908 -0.07841551
-0.061817825 -0.034967933 0.022459274 0.0031126027 -0.06066195 0.03985 -0.07821755 0.022825237
-0.089602135 0.06653562 0.05556311 -0.07340769 0.046688966 0.010201597 0.02830527 0.011844868
-0.02118079 0.083847955 0.08203043 0.024744116 0.03227781 0.044023905 -0.042802073 0.08071021
-0.005486905 0.054123558 0.027264632 0.02657123 -0.07455357 -0.08310975 -0.07243036 0.025641395
-0.0026532332 -0.087183475 -0.07474788 0.06343469 -0.021891989 -0.018351257 0.0300301 -0.022572437
0.001998022 -0.055378027 -0.061080933 -0.05870873 -0.03023825 -0.06642904 0.04688939 0.013380507
0.03380601 0.047388326 0.052942064 -0.04948436 0.06309048 0.014623486 0.002472932 0.07690945
0.028407155 0.04136835 0.08586328 0.044072513 0.08518926 -0.018152969 -0.08682126 -0.059412457
-0.07929383 -0.0103091225 -0.02510599 -0.055125937 0.026229149 -0.012998193 -0.074640065 -0.0822957
-0.08807566 0.07100817 -0.047879327 0.024060437 -0.013000868 0.0825943 0.052243818 -0.046739016
0.07541587 0.059730865 0.06936633 -0.030707728 0.0129714245 -0.022141844 0.020152654 0.0025469568
-0.06361238 -0.019489843 0.014067304 0.0039352905 0.00050751976 -0.07532336 -0.045836605 0.06736871
0.026710141 0.017191753 0.08778181 -0.07350886 -0.051455665 0.00085083174 0.0071092895 -0.032235254
0.069295466 -0.052621268 -0.07611113 0.04853229 -0.041730348 -0.02476972 -0.027510514 0.039583657
0.038581364 0.026785094 0.0007243487 0.043231133 -0.078537166 -0.010728233 0.011517412 -0.043208197
-0.012859186 0.047677558 0.046046533 0.05260766 -0.068773374 -0.05704871 -0.07772082 0.080346674
0.021711797 -0.04774903 0.06845181 -0.011053497 0.05113263 0.066404834 -0.012364518 -0.012081055
-0.052968953 -0.04141602 -0.044295456 -0.01583889 -0.072369866 -0.03568294 -0.07078635 0.034187775
-0.049611967 -0.04546881 -0.0043967417 -0.08271414 0.08291944 -0.025295885 -0.084967226 -0.017371537
0.014678526 0.010272391 0.039596353 -0.006478811 0.052760117 0.052270837 -0.011636438 0.07772295
00000000: f491 b1bd 5c1e 863d fb61 113d ce63 a1bd
00000010: 4ede 563d 8225 d3bb bb98 a33d 0703 6cbd
00000020: eb3e 46bd 79fe 5e3b 7fe9 693d dfe8 6c3d
00000030: 6d4a 853d b24d 353d cbe0 663d ee80 c83c
00000040: 64eb 8a3d a837 853c ccf6 e2b9 3aeb 6bbd
00000050: bddf 8a3d db11 00bb 4374 cc3c 9438 a83d
00000060: 0e38 03bc aa06 debc 110c aa3d 4409 673d
00000070: fdcc 233c b1f6 ac3d eb74 a1bd a42f a0bd
00000080: 7c1e 7b3d 7ecf 80bd 7d40 0ebc 635e ffbc
00000090: 3d9b 4a3d b047 28bd d28f 0ebd 95bf 3bbc
000000a0: 1b25 693b 9724 193d 84ca a1bb 477e e2ba
000000b0: ea4a 91bd c4a3 59bc d22d 39bd 9624 45bd
000000c0: c919 8d3c 0690 75bd 9c1d 8bbd b74b 393c
000000d0: 959f dbbc f721 143b ffc5 8ebc 56dc 6c3d
000000e0: 74c9 443d e414 c5bc 3449 86bd e5e9 8e3d
000000f0: 865f 113d 5e4c 693b 79e3 a3bd 3672 89bd
00000100: 860e b4bd b08b 993d 7d3c 853c ae25 ac3d
00000110: a5fa 9e3d 1158 8abb 9561 e2ba 3114 893c
00000120: 332f 91bd e134 043d 7690 993d ab58 4b3d
00000130: 238f 163d 7c53 34bd 1934 1abd dca5 52bd
00000140: cef9 5ebd 05ab 83bd 461a 6c3d fb10 69bd
00000150: f627 9d3d 5e74 8b3d 9303 933d 1230 3d3d
00000160: aafc 57bd 0af4 f33b 1bbd cfbc 99f2 5e3d
00000170: 78bf 603d 5d1c 30bc d482 013d 5098 a0bd
00000180: b034 7dbd 893a 0fbd 83fc b73c cffc 4b3b
00000190: aa78 78bd c139 233d 8630 a0bd fefb ba3c
000001a0: 5381 b7bd d443 883d 2596 633d c556 96bd
000001b0: ee3c 3f3d 9924 273c 74e0 e73c fa10 423c
000001c0: 5683 adbc 7ab8 ab3d 92ff a73d 2cb4 ca3c
000001d0: bd35 043d 6952 343d 3a51 2fbd 654b a53d
000001e0: 7fcb b3bb aab0 5d3d 145a df3c e8ab d93c
000001f0: 8baf 98bd 7235 aabd 5e56 94bd e70d d23c
00000200: dee1 2dbb 408d b2bd 6b15 99bd 0cea 813d
00000210: d456 b3bc 6055 96bc af01 f63c d5e9 b8bc
00000220: 3ff1 023b 12d4 62bd 0030 7abd 9178 70bd
00000230: 35b6 f7bc f30b 88bd 170f 403d ea39 5b3c
00000240: 2c78 0a3d 431a 423d c7d9 583d 1db0 4abd
00000250: 9535 813d 5997 6f3c ea10 223b b482 9d3d
00000260: 1fb6 e83c dc71 293d 16d9 af3d 6185 343d
00000270: b577 ae3d 89b5 94bc 58cf b1bd 7a5a 73bd
00000280: ce64 a2bd 98e7 28bc 14ab cdbc bccb 61bd
00000290: 83de d63c 5ff6 54bc e4dc 98bd a68a a8bd
000002a0: 0361 b4bd bb6c 913d 1d1d 44bd 651a c53c
000002b0: 9801 55bc 3327 a93d 9dfd 553d 6971 3fbd
000002c0: a373 9a3d 5aa8 743d ef0f 8e3d c68e fbbc
000002d0: 1986 543c d062 b5bc 2e17 a53c d8ea 263b
000002e0: 3547 82bd 2aa9 9fbc 8d7a 663c 9cf3 803b
000002f0: 130b 053a 2243 9abd 2abf 3bbd 9bf8 893d
00000300: 3acf da3c b8d5 8c3c f3c6 b33d d08b 96bd
00000310: 2dc3 52bd 5a0a 5f3a 0bf5 e83b 1d09 04bd
00000320: c8ea 8d3d 6689 57bd 27e0 9bbd cbc9 463d
00000330: 71ed 2abd dee9 cabc bb5d e1bc 7922 223d
00000340: 7e07 1e3d 6a6c db3c 38e2 3d3a 2113 313d
00000350: 18d8 a0bd 78c5 2fbc 87b3 3c3c 14fb 30bd
00000360: 56af 52bc 8b49 433d 4a9b 3c3d 217b 573d
00000370: 0ed9 8cbd e8ab 69bd 182c 9fbd cc8c a43d
00000380: f0dc b13c 7d94 43bd 7630 8c3d ba19 35bc
00000390: 7370 513d 42ff 873d 8c94 4abc 9eef 45bc
000003a0: f9f5 58bd d8a3 29bd 276f 35bd 8fc0 81bc
000003b0: a736 94bd 4628 12bd 6ff8 90bd 7b08 0c3d
000003c0: eb35 4bbd 813d 3abd 8b12 90bb 0866 a9bd
000003d0: abd1 a93d 5139 cfbc 4c03 aebd c14e 8ebc
000003e0: 337e 703c 884d 283c c92f 223d 354c d4bb
000003f0: fe1a 583d f219 563d c2a6 3ebc 362d 9f3d

actor.linear3.bias f4 [128]
0.025941893 -0.051742602 0.06366391 -0.026124807 -0.030705675 0.04069742 -0.050368324 0.087262265
-0.056414448 0.039503157 0.024779586 -0.07696879 0.059728425 -0.0008151073 -0.012263333 0.04410655
-0.04597217 -0.06755998 0.005452825 0.04871201 -0.08227062 -0.021013387 0.086510524 0.011996778
-0.04179855 0.07296391 -0.056581404 -0.004449744 -0.00039529658 0.05602857 -0.007941401 -0.017513344
-0.08482962 -0.037670735 0.031573117 0.060185745 -0.035965133 0.013141354 0.046571076 0.037669
0.013499874 -0.064146996 -0.0713479 -0.08450701 -0.06655853 -0.0567543 0.031068742 0.058096383
-0.018346513 -0.008494128 -0.00643557 0.022439223 0.013355859 0.080468275 -0.070869826 0.049089674
0.025376972 -0.044581026 -0.04992592 0.03310227 -0.039470233 0.086480014 0.04160519 -0.018338313
-0.050407197 0.082604304 0.0681788 0.07371215 0.02747923 0.07017405 -0.02998395 -0.020443533
-0.07529699 -0.06724885 0.053825736 0.031194068 -0.08204822 -0.016227385 -0.03560535 -0.007725273
0.05439491 0.07473099 0.070548534 0.072718464 -0.041613318 -0.082133435 0.069403365 0.061205443
0.065946475 0.0033898046 -0.08017557 0.061397925 0.052120697 -0.0545824 0.06662827 0.06210633
-0.06114385 -0.052432816 0.07677487 0.07530799 0.028698917 -0.07775721 -0.0666952 0.0025166415
-0.08138599 0.047812868 0.07438449 -0.05885163 -0.07152662 -0.035233434 -0.06514392 -0.037234224
0.017324649 0.045949943 0.07176999 0.0016196115 0.07435897 0.060934972 -0.010819931 0.011998915
0.0072823903 0.046718914 -0.07275315 0.026320526 0.035141878 0.05947704 0.08245288 0.034031294
00000000: 1884 d43c 0df0 53bd 3962 823d b103 d6bc
00000010: 788a fbbc 56b2 263d 044f 4ebd 8fb6 b23d
00000020: d612 67bd 10ce 213d 8ffe ca3c d0a1 9dbd
00000030: cba5 743d edac 55ba 26ec 48bc 12a9 343d
00000040: 504d 3cbd e35c 8abd 9dad b23b 3f86 473d
00000050: 807d a8bd 4424 acbc 6e2c b13d 228e 443c
00000060: f534 2bbd 1a6e 953d e7c1 67bd 28cf 91bb
00000070: cf3f cfb9 377e 653d a61c 02bc 2578 8fbc
00000080: 27bb adbd a14c 1abd d052 013d 5485 763d
00000090: 2d50 13bd d54e 573c 50c1 3e3d cf4a 1a3d
000000a0: 932e 5d3c 805f 83bd d91e 92bd 0312 adbd
000000b0: d74f 88bd 3277 68bd e083 fe3c 79f6 6d3d
000000c0: 6d4b 96bc f42a 0bbc 79e1 d2bb 76d2 b73c
000000d0: 88d2 5a3c 8dcc a43d 3324 91bd 4112 493d
000000e0: 5ee3 cf3c 989a 36bd 1f7f 4cbd 3f96 073d
000000f0: 8aab 21bd 6f1c b13d 346a 2a3d 3b3a 96bc
00000100: c777 4ebd 722c a93d 54a1 8b3d 65f6 963d
00000110: 1f1c e13c 6ab7 8f3d e7a0 f5bc 3279 a7bc
00000120: 4f35 9abd c4b9 89bd 6078 5c3d b48a ff3c
00000130: e608 a8bd 4bef 84bc ead6 11bd 4924 fdbb
00000140: 32cd 5e3d 900c 993d c07b 903d 6bed 943d
00000150: ba72 2abd 9335 a8bd 5a23 8e3d 8fb2 7a3d
00000160: f20e 873d 7c27 5e3b 1733 a4bd 647c 7b3d
00000170: 837c 553d cb91 5fbd 6774 883d 3563 7e3d
00000180: f971 7abd cbc3 56bd 253c 9d3d 133b 9a3d
00000190: fe19 eb3c 2c3f 9fbd 7e97 88bd 3dee 243b
000001a0: b3ad a6bd 6dd7 433d e556 983d 680e 71bd
000001b0: 8c7c 92bd ef50 10bd 2d6a 85bd ea82 18bd
000001c0: 6cec 8d3c 0236 3c3d 25fc 923d 2549 d43a
000001d0: 8449 983d f396 793d 1446 31bc 1997 443c
000001e0: 1ea1 ee3b 555c 3f3d 9aff 94bd 259e d73c
000001f0: eef0 0f3d 329e 733d 0edd a83d 6664 0b3d

actor.linear4.weight f4 [9, 128]
0.025351658 0.027389979 -0.05042485 -0.011131387 0.001989318 -0.082870185 0.04809041 0.083967626
0.0722908 -0.01720031 -0.070045054 -0.013221494 0.025430646 -0.03403628 -0.006728879 -0.047275502
-0.07000292 -0.071471885 0.05319737 -0.04795988 0.07112475 0.078097075 -0.0014247363 0.0692445
-0.046422813 0.07879314 -0.0024245437 0.08299783 0.051616237 -0.017648812 0.05147588 -0.06186817
-0.06329569 0.034667715 0.06475159 0.07506155 -0.07209542 0.03042787 -0.07708517 0.03255956
0.034283962 0.07164932 -0.018426696 -0.059964873 0.017553428 0.07460775 0.01896841 -0.008657492
-0.016372148 0.044382107 -0.050262377 0.014002334 0.051894248 -0.0115442285 -0.0017475494 -0.08283883
0.033287138 0.0014127349 -0.024637772 -0.0105749015 -0.049311887 0.026462147 -0.06870068 -0.085993715
-0.0599731 -0.048865426 0.041155133 -0.06073184 -0.036087643 -0.016236564 0.07908332 -0.025434088
-0.055346347 -0.019204922 0.057132967 0.0066407444 -0.07858117 -0.03448932 0.034277804 -0.028735444
-0.07911601 -0.05092519 -0.04580196 0.06567559 -0.028353428 -0.03564918 0.062175583 -0.00874352
-0.06876519 0.072117016 -0.007983669 -0.08200716 0.03447887 -0.00821324 0.017871358 -0.05188068
-0.0067008287 -0.044869944 -0.013242665 0.025527863 -0.0550793 -0.061042313 0.0062058843 0.024227826
-0.02069162 -0.01910634 -0.023448939 0.06135338 0.012472816 0.05839408 0.0051682726 0.037457917
0.07387223 0.050657663 0.048654586 0.06614035 -0.00014988332 -0.07314958 -0.053120025 -0.040137935
0.026402611 0.041061327 -0.051561728 -0.0047620796 -0.0032461807 0.022453785 -0.010752753 -0.024348458
-0.010602989 0.06910709 -0.04240072 -0.010303819 0.07317061 -0.009563215 0.088125855 0.053384446
0.081940405 0.0058601736 0.0008497052 0.036069654 -0.035775583 0.08810589 0.05316354 0.047346044
-0.038562357 -0.012850416 0.03331901 -0.008397621 -0.03258626 0.06893961 -0.08297805 -0.06536858
0.023612432 -0.010292745 0.061213598 0.012684449 -0.04374379 -0.056364793 -8.235313e-05 -0.053224508
-0.052198965 0.024315454 0.07386935 -0.037519407 -0.012345841 0.03952971 0.00308645 0.047864072
0.0011784813 -0.08599783 0.052136652 -0.006827738 0.022163766 0.061186053 0.0454466 -0.045047853
0.0782183 -0.051845953 0.027275661 0.05256918 -0.033149645 0.057075042 0.034099355 -0.03519411
0.021432545 -0.054187074 0.07799515 0.04398603 -0.005196575 0.016731473 0.07664817 0.07840114
-0.016824754 -0.029652465 -0.020891625 -0.055608775 -0.011327578 -0.054967735 0.031387057 0.042353034
-0.082150295 -0.0406247 0.04397299 0.07973525 -0.00723764 -0.046018813 0.06278189 -0.035598774
-0.013932667 0.040781014 0.010116401 0.02815069 -0.07084092 0.0568601 0.054805942 -0.07920157
-0.08928018 0.02841213 0.041416973 0.06639676 0.07841816 -0.022659257 -0.015552523 0.0061123297
0.026763286 -0.05572674 -0.072157204 -0.044366717 0.056714326 0.049512893 0.029707875 0.074430175
-0.078521006 -0.077025525 0.009104673 0.059085418 -0.04276991 -0.08102801 -0.028404785 -0.002121166
-0.083671436 0.044439934 0.028470883 -0.077884994 -0.070365906 -0.06116446 0.07399056 0.05212948
-0.05942923 0.05036471 0.06529927 -0.032986253 0.02251317 0.08218999 0.080871075 0.04614689
00000000: 48ae cf3c f360 e03c 4a8a 4ebd 6c60 36bc
00000010: 385f 023b d8b7 a9bd 73fa 443d 38f7 ab3d
00000020: 330d 943d aae7 8cbc c873 8fbd f79e 58bc
00000030: ee53 d03c a069 0bbd ee7d dcbb f5a3 41bd
00000040: b15d 8fbd da5f 92bd 7ce5 593d 9471 44bd
00000050: daa9 913d 5cf1 9f3d 38be baba 0fd0 8d3d
00000060: d925 3ebd 4c5e a13d 18e5 1ebb c4fa a93d
00000070: 8c6b 533d 3e94 90bc 5fd8 523d 7a69 7dbd
00000080: 2ca1 81bd bcff 0d3d 7b9c 843d dfb9 993d
00000090: c3a6 93bd de43 f93c d4de 9dbd 2c5d 053d
000000a0: 576d 0c3d e1bc 923d 95f3 96bc ba9d 75bd
000000b0: 35cc 8f3c f3cb 983d a463 9b3c 27d8 0dbc
000000c0: e21e 86bc 03ca 353d ecdf 4dbd 0c6a 653c
000000d0: 108f 543d 0124 3dbc 070e e5ba 68a7 a9bd
000000e0: 1858 083d 842b b93a 27d5 c9bc 5a42 2dbc
000000f0: 43fb 49bd 25c7 d83c f1b2 8cbd 791d b0bd
00000100: 5aa6 75bd 1d27 48bd 4992 283d f3c1 78bd
00000110: a3d0 13bd 8b02 85bc 70f6 a13d 265b d0bc
00000120: dab2 62bd a453 9dbc 4204 6a3d 9a9a d93b
00000130: 2aef a0bd ac44 0dbd e266 0c3d 9866 ebbc
00000140: 9307 a2bd ef96 50bd d69a 3bbd ec80 863d
00000150: 7345 e8bc e004 12bd d3ab 7e3d fb40 0fbc
00000160: c4d4 8cbd 16b2 933d efcd 02bc 5ff3 a7bd
00000170: b739 0d3d d390 06bc f466 923c d680 54bd
00000180: a092 dbbb 8cc9 37bd c3f7 58bc cf1f d13c
00000190: d59a 61bd 8107 7abd bb5a cb3b 6f79 c63c
000001a0: 7981 a9bc e684 9cbc fd17 c0bc af4d 7b3d
000001b0: c85a 4c3c a12e 6f3d 9d5a a93b 796d 193d
000001c0: 534a 973d 697e 4f3d 084a 473d 9874 873d
000001d0: ff29 1db9 72cf 95bd 6294 59bd ad67 24bd
000001e0: 4a4a d83c ec2f 283d 6432 53bd 380b 9cbb
000001f0: e0bd 54bb 00f1 b73c 512c 30bc 6b76 c7bc
00000200: 29b8 2dbc 0588 8d3d 61ac 2dbd 59d1 28bc
00000210: 79da 953d 08af 1cbc 547b b43d a6a9 5a3d
00000220: 5fd0 a73d b306 c03b c0be 5e3a c6bd 133d
00000230: 6b89 12bd dc70 b43d 03c2 593d eded 413d
00000240: 90f3 1dbd 8d8a 52bc 8479 083d 2d96 09bc
00000250: 2c79 05bd 3630 8d3d 65f0 a9bd f6df 85bd
00000260: dc6e c13c e7a2 28bc 1cbb 7a3d 6fd2 4f3c
00000270: b02c 33bd c5de 66bd 00b5 acb8 f101 5abd
00000280: 95ce 55bd 3431 c73c d048 973d f3ad 19bd
00000290: 3646 4abc e8e9 213d 0a46 4a3b 1e0d 443d
000002a0: 4577 9a3a a11f b0bd 3e8d 553d 38bb dfbb
000002b0: c990 b53c 3a9e 7a3d 3726 3a3d 1984 38bd
000002c0: eb30 a03d 6c5c 54bd 3571 df3c c852 573d
000002d0: ecc7 07bd 85c7 693d c4ab 0b3d b327 10bd
000002e0: 4e93 af3c 44f3 5dbd ecbb 9f3d b22a 343d
000002f0: 0848 aabb 7110 893c b7f9 9c3d c790 a03d
00000300: 11d4 89bc bae9 f2bc ea24 abbc 07c6 63bd
00000310: 4e97 39bc d925 61bd b78f 003d 607a 2d3d
00000320: 6a3e a8bd 1666 26bd 061d 343d 3c4c a33d
00000330: ba29 edbb 397e 3cbd cb93 803d 05d0 11bd
00000340: d745 64bc fe09 273d 43bf 253c 479c e63c
00000350: 0b15 91bd 23e6 683d 327c 603d 6f34 a2bd
00000360: 87d8 b6bd 8ec0 e83c d8a4 293d 06fb 873d
00000370: b399 a03d e89f b9bc 02d0 7ebc f049 c83b
00000380: ae3e db3c b941 64bd 28c7 93bd e0b9 35bd
00000390: 484d 683d 08ce 4a3d ee5d f33c d96e 983d
000003a0: 9fcf a0bd 8fbf 9dbd c42b 153c 8d03 723d
000003b0: 802f 2fbd 03f2 a5bd 27b1 e8bc 4303 0bbb
000003c0: ee5b abbd a606 363d c53b e93c 2b82 9fbd
000003d0: 001c 90bd 9687 7abd 5d88 973d b985 553d
000003e0: 106c 73bd 3a4b 4e3d a0bb 853d 981c 07bd
000003f0: 8a6d b83c 3a53 a83d bc9f a53d 8504 3d3d

actor.linear4.bias f4 [9]
0.0037488188 0.04083989 -0.051570136 0.050099034 -0.037489515 0.08440187 -0.0654951 0.05685237
-0.027715605
00000000: beae 753b ba47 273d 353b 53bd a534 4d3d
00000010: 9b8e 19bd e3da ac3d 4c22 86bd 08de 683d
00000020: d60b e3bc

critic.linear1.weight f4 [128, 120]
-0.076149344 0.008862209 0.09430272 -0.05708035 -0.079426974 -0.08893487 -0.063064344 0.07181684
0.033395678 -0.09578829 0.084672466 -0.092986524 0.06789437 0.010862863 0.016118987 -0.08931237
0.08931297 -0.09420392 0.02608375 -0.061505884 0.08918781 -0.034215257 -0.011645018 -0.041415267
-0.029320769 0.040409725 0.036396123 0.009258126 -0.033671044 -0.019967934 -0.03190279 0.0707369
-0.057613984 0.001092623 0.004254563 -0.042961035 0.006558664 -0.035076544 -0.0455094 -0.022802874
0.059075866 0.0042574815 0.028699651 -0.059328675 0.0047235116 -0.011228322 0.08121413 0.07834719
0.028456751 -0.007005332 0.07644649 -0.025964446 -0.058582794 -0.020385632 -0.041486457 0.10346926
0.060361844 -0.024738204 0.028145261 -0.009748082 -0.021717604 -0.014572455 -0.09361942 -0.05187202
-0.08888291 -0.089270875 0.011464911 -0.062458687 -0.036820922 0.04856638 0.0847119 -0.045761477
-0.07605047 -0.08903552 0.063138716 0.036584504 0.072703235 0.0475232 0.093455724 0.072454505
-0.03300903 -0.07201374 0.049953837 0.058610857 -0.02937486 0.07314763 0.053428393 0.050981402
-0.08941809 0.0278337 0.061427094 -0.006214994 0.05638613 -0.008346514 -0.101756126 0.053144597
-0.04686478 -0.013249737 -0.05433652 -0.06176745 0.046937972 0.040135857 -0.05150966 0.026200676
-0.07815878 0.10115993 -0.06330438 -0.020548109 0.019244228 -0.04198425 0.06956848 -0.08643904
0.022188196 0.074342445 -0.027634349 0.010755975 0.06381546 0.06754691 -0.076009266 0.02179567
0.086554624 -0.04050164 0.004480937 -0.10000576 -0.08904994 -0.04470053 0.0913749 0.05867563
-0.06481113 -0.055554535 -0.0697503 -0.061513435 -0.07477426 0.027715964 -0.04497475 -0.0749093
0.05547204 -0.0648026 0.078819744 0.08416037 0.088433556 -0.0109346155 -0.003501751 -0.0205231
0.08857836 -0.005684139 -0.022957606 -0.077556856 0.02121916 0.07008698 -0.0062987674 0.06795516
0.00054966495 0.011632044 -0.005688136 -0.0697309 0.044029087 -0.026048558 0.08535221 -0.07615238
0.07242105 -0.018960232 0.0094903335 -0.061453924 -0.07202617 0.053784426 0.052267097 0.005556014
0.043157846 -0.046283912 0.018743835 0.054638576 0.014948068 0.09384726 -0.027364168 0.09100655
0.07580601 -0.054425057 0.030118113 0.062063027 0.056508385 -0.043884512 -0.023149034 -0.06953232
0.0071540843 0.08436129 -0.008010589 -0.04708063 -0.011739547 -0.061964512 -0.043166857 0.009056198
-0.031657137 0.0007496451 -0.06146099 -0.096846715 0.04845613 -0.021145163 -0.063790195 0.017934928
-0.060321327 0.02948074 -0.09469975 0.008249125 0.037716243 0.09076288 0.05569942 0.0022781258
0.05681339 -0.06393203 -0.07907669 0.002301968 0.05069583 0.050031718 0.036042184 0.061515145
0.06469407 0.013672345 0.06903836 -0.011089451 0.076093376 0.081442304 -0.03833313 -0.020673787
-0.023133263 0.001329396 0.05815581 -0.062403735 -0.01372005 0.043726917 0.08138589 -0.04755316
0.09409454 0.035066634 0.038095377 0.015651396 -0.026491713 0.07472187 0.061109994 0.04034878
0.062767506 -0.0494131 0.012674104 -0.10308487 -0.031759012 0.055581946 0.06827666 0.02860403
0.00432187 -0.02404283 0.055004146 -0.0059298007 0.045329645 0.0016299098 0.0013627948 0.06927696
00000000: 30f4 9bbd cc32 113c c921 c13d 16cd 69bd
00000010: 9caa a2bd 7c23 b6bd e127 81bd b514 933d
00000020: e8c9 083d a72c c4bd c268 ad3d b86f bebd
00000030: 340c 8b3d 26fa 313c f70b 843c 67e9 b6bd
00000040: b8e9 b63d fced c0bd 97ad d53c 98ed 7bbd
00000050: 19a8 b63d 4c25 0cbd bfca 3ebc 0ea3 29bd
00000060: 1c32 f0bc ab84 253d 1a14 153d 65af 173c
00000070: a6ea 09bd cb93 a3bc 80ac 02bd 82de 903d
00000080: a4fc 6bbd 5836 8f3a dc69 8b3b e9f7 2fbd
00000090: 10ea d63b 6cac 0fbd 1168 3abd 18cd babc
000000a0: 89f9 713d 5882 8b3b 881b eb3c a002 73bd
000000b0: b0c7 9a3b fff6 37bc 9853 a63d 7e74 a03d
000000c0: 221e e93c fc8c e5bb fa8f 9c3d 64b3 d4bc
000000d0: 83f4 6fbd c5ff a6bc b4ed 29bd b1e7 d33d
000000e0: fb3d 773d c6a7 cabc e490 e63c 6bb6 1fbc
000000f0: 1ee9 b1bc 4ec1 6ebc 8abb bfbd c177 54bd
00000100: 3e08 b6bd a6d3 b6bd 52d7 3b3c aed4 7fbd
00000110: 89d1 16bd 8aed 463d 6f7d ad3d 6370 3bbd
00000120: 59c0 9bbd 4158 b6bd df4e 813d a2d9 153d
00000130: 6fe5 943d b0a7 423d b765 bf3d 0763 943d
00000140: 7a34 07bd f17b 93bd 659c 4c3d f011 703d
00000150: 8ca3 f0bc 6dce 953d bbd7 5a3d e0d1 503d
00000160: d520 b7bd 8003 e43c fa9a 7b3d 26a7 cbbb
00000170: 25f5 663d d1bf 08bc 8465 d0bd 26ae 593d
00000180: 49f5 3fbd 6d15 59bc f98f 5ebd deff 7cbd
00000190: 0842 403d 7f65 243d cbfb 52bd cda2 d63c
000001a0: b611 a0bd f02c cf3d baa5 81bd 8254 a8bc
000001b0: 12a6 9d3c adf7 2bbd eb79 8e3d f406 b1bd
000001c0: 05c4 b53c da40 983d 6e61 e2bc d439 303c
000001d0: aeb1 823d 0956 8a3d bfaa 9bbd d58c b23c
000001e0: 8d43 b13d 0ce5 25bd d3d4 923b d2cf ccbd
000001f0: d15f b6bd e717 37bd c322 bb3d db55 703d
00000200: b3bb 84bd 278d 63bd 3fd9 8ebd 83f5 7bbd
00000210: 3f23 99bd 970c e33c 7237 38bd 0c6a 99bd
00000220: a636 633d 3ab7 84bd 3f6c a13d 465c ac3d
00000230: a71c b53d 1a27 33bc a27d 65bb 0f20 a8bc
00000240: 9268 b53d 0442 babb 9711 bcbc 21d6 9ebd
00000250: ced3 ad3c c389 8f3d e465 cebb 132c 8b3d
00000260: 6417 103a 5494 3e3c 8b63 babb 13cf 8ebd
00000270: d857 343d c963 d5bc 24cd ae3d c7f5 9bbd
00000280: 7d51 943d 7d52 9bbc 587d 1b3c 1cb7 7bbd
00000290: 7582 93bd 0f4d 5c3d 0616 563d 390f b63b
000002a0: 48c6 303d 3394 3dbd ac8c 993c b3cc 5f3d
000002b0: bee8 743c fe32 c03d d22a e0bc a461 ba3d
000002c0: 2e40 9b3d cfec 5ebd 43ba f63c cd35 7e3d
000002d0: 5675 673d 3fc0 33bd 0ba3 bdbc f666 8ebd
000002e0: cf6c ea3b 9dc5 ac3d d83e 03bc 9ed7 40bd
000002f0: 3b57 40bc 80ce 7dbd bbcf 30bd 7360 143c
00000300: eaaa 01bd d583 443a 85be 7bbd 9257 c6bd
00000310: ef79 463d 9f38 adbc 6fa4 82bd 45ec 923c
00000320: 7f13 77bd 9881 f13c f1f1 c1bd 5727 073c
00000330: 597c 1a3d e4e1 b93d 1325 643d 9c4c 153b
00000340: 28b5 683d ccee 82bd f6f2 a1bd 9ddc 163b
00000350: 6ea6 4f3d 0fee 4c3d f8a0 133d 4ef7 7b3d
00000360: 537e 843d f901 603c fc63 8d3d 87b0 35bc
00000370: d8d6 9b3d 39cb a63d 3303 1dbd 135c a9bc
00000380: f881 bdbc 213f ae3a c934 6e3d 0f9b 7fbd
00000390: 10ca 60bc ff1a 333d a5ad a63d 1ac7 42bd
000003a0: a3b4 c03d 08a2 0f3d e609 1c3d 5b37 803c
000003b0: 2605 d9bc c807 993d 794e 7a3d c344 253d
000003c0: 408c 803d 6465 4abd 0ca7 4f3c 291e d3bd
000003d0: bd15 02bd e5a9 633d a2d4 8b3d 0053 ea3c
000003e0: 799e 8d3b 78f5 c4bc 074c 613d c64e c2bb
000003f0: 94ab 393d b3a2 d53a ce9f b23a 14e1 8d3d

critic.linear1.bias f4 [128]
0.09590735 -0.03807704 0.050316256 -0.074958876 -0.023950212 0.07214007 0.056841694 0.065773845
-0.07098425 -0.059941437 0.06731572 -0.07291237 0.0694038 -0.0023276636 -0.026659288 0.07056296
0.05888313 -0.017339302 0.035670586 0.003472784 0.080106094 -0.06876567 0.060957342 0.0759122
-0.09012892 0.04093088 0.03675668 -0.06545132 -0.08636002 -0.071316145 -0.04164893 0.096043505
-0.061458528 0.016636468 -0.07934188 -0.050990187 0.042678118 -0.028238252 0.103992894 0.021008592
0.011291898 -0.044347614 -0.07859045 -0.04069772 0.035905797 0.032722346 0.019554805 0.08747403
0.08674491 -0.06602782 0.014838245 0.051783662 0.0011145315 0.038476348 -0.05447598 -0.0081975525
-0.0067633884 -0.010430419 -0.03862343 -0.029554563 -0.020965703 -0.052203465 0.03735447 0.08538298
0.06892712 -0.08461386 -0.034480393 -0.046592668 0.022004874 0.08813476 -0.094929814 -0.08891597
0.089654624 0.022719974 0.08329196 0.06845849 0.058541976 0.054153435 0.06727387 0.048882395
0.085659705 -0.0058980715 -0.047816347 0.02540154 -0.03687646 -0.101774685 0.01286354 0.029872335
-0.002054597 0.06488312 -0.007231675 -0.085201986 -0.09274068 -0.077957936 -0.028214468 -0.048690457
-0.080738924 -0.02030599 0.065956175 -0.00087533606 0.039965484 0.007059291 -0.033066288 0.02386623
-0.031274687 -0.005440356 -0.011693112 -0.022424445 0.073862955 -0.018540697 0.053280424 -0.058075015
0.00029576907 0.08121118 0.022261003 0.06891446 -0.052838046 -0.00035622108 0.04761802 -0.08275805
0.08313156 0.009101645 -0.05626994 -0.08076514 -0.006722953 0.07223978 0.018626956 0.05396766
00000000: 136b c43d acf6 1bbd 6b18 4e3d 0a84 99bd
00000010: 3c33 c4bc 2cbe 933d d6d2 683d 70b4 863d
00000020: 3160 91bd 2785 75bd d3dc 893d 1553 95bd
00000030: 9423 8e3d b78b 18bb 9464 dabc 5083 903d
00000040: 702f 713d 270b 8ebc 521b 123d a697 633b
00000050: aa0e a43d 04d5 8cbd 68ae 793d db77 9b3d
00000060: 8395 b8bd 23a7 273d 2c8e 163d 570b 86bd
00000070: 86dd b0bd 330e 92bd 1298 2abd 75b2 c43d
00000080: f0bb 7bbd 3449 883c ff7d a2bd 16db 50bd
00000090: 40cf 2e3d e853 e7bc 3afa d43d 361a ac3c
000000a0: a701 393c d8a5 35bd 08f4 a0bd a7b2 26bd
000000b0: f511 133d de07 063d 6631 a03c 9625 b33d
000000c0: 51a7 b13d 9839 87bd 1c1c 733c 1b1b 543d
000000d0: 7915 923a 6099 1d3d 3522 5fbd 074f 06bc
000000e0: 6a9f ddbb 59e4 2abc 9a33 1ebd 691c f2bc
000000f0: 44c0 abbc 4dd3 55bd 0001 193d 46dd ae3d
00000100: a929 8d3d 084a adbd 503b 0dbd f4d7 3ebd
00000110: 9143 b43c ff7f b43d 906a c2bd 9319 b6bd
00000120: d89c b73d 3d1f ba3c fa94 aa3d f733 8c3d
00000130: b6c9 6f3d fecf 5d3d e2c6 893d e838 483d
00000140: 5b6e af3d 9c44 c1bb 13db 43bd e416 d03c
00000150: c50b 17bd 3f6f d0bd 99c1 523c d4b6 f43c
00000160: 6ba6 06bb 71e1 843d b0f7 ecbb 617e aebd
00000170: d3ee bdbd 69a8 9fbd 0722 e7bc a56f 47bd
00000180: 735a a5bd bf58 a6bc 0814 873d cf76 65ba
00000190: d9b2 233d a051 e73b 8470 07bd 1d83 c33c
000001a0: e319 00bd 0445 b2bb 7794 3fbc 78b3 b7bc
000001b0: 7645 973d a9e2 97bc 933c 5a3d 11e0 6dbd
000001c0: 7411 9b39 0c52 a63d b55c b63c 0623 8d3d
000001d0: b56c 58bd 2fc3 bab9 1d0b 433d 0d7d a9bd
000001e0: e140 aa3d 111f 153c 4f7b 66bd 3268 a5bd
000001f0: 384c dcbb 73f2 933d 8f97 983c 310d 5d3d
