hover_falcon_raw_ckpt/ckpt_00010901.pt (torch, 977335 bytes, 15 tensors)

actor.linear1.weight f4 [128, 120]
000000 85 71 ac 3c 1a 12 b4 3c 10 e6 8a 3d e3 4a 6a 3d
       0.021050224 0.021981288 0.06782162 0.057200324
000010 0a 91 5b bd ad 62 a4 3d 27 94 41 3d d0 a8 1a bd
       -0.053605117 0.080266334 0.04726043 -0.03775865
000020 aa 5f 50 3d 88 a0 12 bd e7 67 5d bc 4f 9d a6 bc
       0.050872482 -0.035797626 -0.013513542 -0.020338682
000030 d6 f6 7f bd 3d 6c 10 3e 84 f5 3c bd 3a 65 f1 3a
       -0.06249126 0.1410379 -0.04613258 0.0018417009
000040 ca 65 9d 3d 29 2a ec 3c 3a 6e 18 3d f0 fc f3 bc
       0.0768543 0.028828697 0.037214495 -0.029783696
000050 57 a6 65 3d 47 98 eb ba 67 0a 7b bd 5f f1 91 bd
       0.056066837 -0.0017974459 -0.061289217 -0.07126116
000060 ed d6 48 bd df 58 82 3c 64 59 08 3d 2a e9 e3 3b
       -0.049033094 0.015911518 0.033288375 0.0069552856
000070 a3 e8 9d bd 7b 22 9e 3d 2c 71 47 3c 83 4e ef bd
       -0.077103876 0.077214204 0.012172978 -0.11684897
000080 8a ef 58 bd a8 28 88 3a 93 fe bb 3c 4b 91 93 bd
       -0.052962817 0.0010388093 0.022948539 -0.07205447
000090 1d 90 55 bd 13 77 09 bd 1d ca 93 3d 7d e3 91 bc
       -0.05213939 -0.033560824 0.072162844 -0.01780867
0000a0 d9 66 04 3d 3d 55 a3 bd 6d bf 17 bc 36 5c bd bd
       0.032324646 -0.07975242 -0.009261948 -0.092461035
0000b0 74 2e 81 37 0e e1 3f bb 2f eb 51 bd 06 40 b2 3b
       1.539963e-05 -0.002927843 -0.05124968 0.005439761
0000c0 8f 92 67 bd 13 b9 a1 3d 58 f8 84 bd 6f 5a 80 3c
       -0.056536254 0.07896628 -0.0649268 0.015668122
0000d0 f4 8e 86 3d 08 e0 b2 bc f7 aa 32 bd 58 dd 91 3d
       0.06570235 -0.021835342 -0.043620076 0.07122296
0000e0 8a be 98 3c 8c 96 d7 bc 8a f0 c6 bd 5e 7e 4c bd
       0.018645544 -0.026316904 -0.09713848 -0.0499252
0000f0 65 01 3f 3c 89 17 11 3e 1b 19 70 3c 97 94 fc bd
       0.011658047 0.14169134 0.014654423 -0.12333029
000100 ec d3 f6 bc 05 b3 61 3c a7 ab ac 3d 5a 6d a9 3d
       -0.03013035 0.013775592 0.084311776 0.0827281
000110 a4 ad ac 3d a3 ea 67 3c d7 d7 e0 3c 97 f1 93 bd
       0.08431557 0.014155063 0.02744667 -0.07223814
000120 67 5c e1 bc 57 76 ac bd 37 16 be 3d f0 56 9f bd
       -0.027509881 -0.08421009 0.09281581 -0.07780254
000130 27 24 c7 3d a8 01 f1 3c b4 78 8f 3d 71 7f 60 bc
       0.097236924 0.029419735 0.07005444 -0.013702259
000140 a4 6d 17 3c d4 30 0d 3d 19 f8 86 bd 22 c7 62 bd
       0.009242449 0.034470394 -0.065902896 -0.05536569
000150 6c fc 9f bc d8 35 a0 3d c9 8c 77 bd be 77 31 bd
       -0.019529544 0.0782277 -0.060436998 -0.043327086
000160 8c e1 b7 3d d3 15 ad bd ef c8 76 3d 04 4b cd 3c
       0.089785665 -0.08451428 0.06025022 0.025060184
000170 ff 35 81 bc 08 eb 59 3d 28 82 9f bd 4b a8 19 bd
       -0.015772818 0.05320266 -0.07788497 -0.037514012
000180 fa 08 67 bc da ba b5 3d 86 22 57 3d fb 3d 5c 3c
       -0.014101261 0.0887353 0.05252316 0.013442512
000190 95 38 19 bd 21 ae 31 bc f4 8d ba 3b ac 40 9c 3d
       -0.037407476 -0.010844738 0.0056931917 0.07629523
0001a0 c6 97 5c 3d e2 27 a3 bd d7 09 16 bd 6a ba c8 3c
       0.05385568 -0.079665914 -0.036630478 0.024502952
0001b0 03 f5 90 bc 69 68 e8 3d 64 6a 4d 3d 14 c9 d2 bd
       -0.017694956 0.1134804 0.05015029 -0.10292259
0001c0 8e cc 02 3a c8 38 65 b9 24 56 79 3d 4c b3 7e 3c
       0.00049895875 -0.00021860295 0.060873166 0.015545677
0001d0 b9 ff b3 bd c7 9c 1d bd 88 3d 2d 3c 89 15 59 3d
       -0.087890096 -0.038479593 0.010573752 0.052999053
0001e0 42 14 47 bc d7 4c 46 3c 7a 72 4b bc c6 52 60 3d
       -0.012150826 0.012103281 -0.01241743 0.05476644
0001f0 7d a0 a7 bd 5a 50 a5 3d fb 68 26 bc 67 5b e5 bc
       -0.081849076 0.080719665 -0.010156865 -0.027997686
000200 a1 a2 12 3d a3 e0 56 3d 0e 3f 0f bd 0a 29 81 3c
       0.035799626 0.052460324 -0.034972243 0.01576664
000210 83 a0 43 bc 83 9f 43 bd 75 6f ce 3b 1f 72 cd bd
       -0.011940124 -0.047759544 0.006299908 -0.100315325
000220 f8 9a 7f bd a0 f6 b0 bd f1 f4 e7 bc 5e 78 92 bc
       -0.06240365 -0.0864079 -0.02831504 -0.017879661
000230 9b 53 31 3d 6a 80 d9 3c a6 2b 7c 3d 5c b6 ce 3c
       0.043292623 0.02655049 0.061565064 0.02523344
000240 16 98 53 bd 42 e2 ab 3c 8c 6c b5 bd d7 ea aa 3d
       -0.051658712 0.020981912 -0.08858594 0.083455734
000250 81 f1 b8 bd 30 d6 e1 3d 43 d8 08 3c 9c 09 3a bd
       -0.09030438 0.11027181 0.008352342 -0.04541932
000260 a1 2f 0e 3d 3c 5b 9b bd e2 ff 23 bc db 0b 87 bd
       0.03471339 -0.07585761 -0.010009738 -0.06594058
000270 76 ef 43 bd b1 12 8e bc 79 3f df bc eb 4c 93 bd
       -0.04783579 -0.017342897 -0.027251946 -0.07192405
000280 02 e5 23 3d e8 e3 89 bd f4 2f aa bb ac 0a 93 bd
       0.04001332 -0.06732923 -0.0051937047 -0.0717977
000290 7f 52 ad bd 08 78 b4 3d b1 cd d0 3c 4f 5b 54 bd
       -0.084630005 0.08811957 0.025488706 -0.05184489
0002a0 3e 72 4e 3c 4f 11 21 bd 47 e3 76 3d 8f d1 2d bd
       0.01260048 -0.039323147 0.060275342 -0.04243618
0002b0 e0 d9 b1 3d a2 ee 08 3d 81 6b 08 3d a5 58 5d bc
       0.086841345 0.033430703 0.03330565 -0.013509904
0002c0 6e 5e 43 3d 0d f9 5a ba e5 e0 0f 3d be 77 94 3d
       0.047697477 -0.00083531515 0.035126586 0.072494015
0002d0 6e 8a 34 3d ea d7 8c 3c bf a5 f9 bc f6 86 2f 3d
       0.04407733 0.0171928 -0.030474542 0.04285332
0002e0 dc 3d da 3c b0 15 93 bd ce f5 ae 3d 80 bf 6b 3d
       0.026640825 -0.07181871 0.08542977 0.057555676
0002f0 a1 e6 a3 bd 58 81 29 3d 96 b8 86 bd d2 75 04 3c
       -0.08002973 0.041383117 -0.06578176 0.008084731
000300 d5 d2 18 bd 75 20 16 bd 8a 7b 9d 3c 46 89 0b bd
       -0.03731044 -0.036652047 0.019223947 -0.03406646
000310 ae 23 44 3c d3 5b 55 3d 10 d1 7e 3d 65 cb 6b bd
       0.011971397 0.052089524 0.062211096 -0.05756702
000320 08 dc 25 3d f4 2b ca 3a 7d 08 9a 3c 89 2c 07 3c
       0.04049304 0.0015424476 0.018802876 0.008250364
000330 53 89 b6 bc f4 32 88 3d 4c c1 a0 3d fd df b7 3d
       -0.022282278 0.066503435 0.078493685 0.08978269
000340 51 cc 71 bd 8d d7 08 bd ab 7e 23 bc 14 eb 47 3d
       -0.059032742 -0.03340869 -0.0099789305 0.048808172
000350 f1 0d 05 bd 55 fb 81 bc 41 24 94 3d a1 5b d0 bd
       -0.032484 -0.015866915 0.072334774 -0.10173727
000360 58 a4 c0 3b ba ee 6c bd f9 57 98 bc 2e ad aa bd
       0.0058789663 -0.057844855 -0.018596636 -0.08333813
000370 9a 46 2e bd 19 1e e1 3c e5 c0 28 bd c4 fe 55 3d
       -0.0425478 0.027480172 -0.041199584 0.052244917
000380 a0 c7 88 3d ba 97 b3 3b c8 29 8d 3d 05 e6 0f 3d
       0.066787004 0.0054807337 0.06892735 0.035131473
000390 68 68 95 bc 4a e1 57 3d 71 76 bf 3d ef fb c1 bd
       -0.018238261 0.052705087 0.09348763 -0.09471881
0003a0 56 2c df bc eb fc e0 bc 24 ab 8b bd 0e b6 42 3d
       -0.02724282 -0.02746435 -0.06819752 0.047536902
0003b0 77 b2 72 3d b7 b3 13 3d dc 8b 36 bc 3b f6 e5 bc
       0.05925223 0.03606006 -0.0111417435 -0.028071513
0003c0 ed b2 9f bd c4 4c 9a 3c 23 0b 8d 3d 99 7e 1b 3b
       -0.07797799 0.018835433 0.0688689 0.002372658
0003d0 f0 53 a8 bb 8a bc 7c bd 10 2b d0 3d a4 93 7b bd
       -0.0051369593 -0.061703242 0.101644635 -0.061420098
0003e0 c4 c7 7d 3d 52 fc 66 3b 24 f0 b4 bd 01 0d ce bd
       0.06195809 0.003524561 -0.08834866 -0.10061074
0003f0 9f 37 e1 3b 5b 58 47 bd 1a 21 24 3c d1 0d b7 bd
       0.0068730856 -0.048668247 0.010017658 -0.08938182

actor.linear1.bias f4 [128]
000000 bf 63 56 bd 77 72 fe bb f0 95 15 bd 77 b4 42 bd
       -0.05234122 -0.00776511 -0.036519945 -0.047535386
000010 4e 82 c3 3d f5 a0 18 3d 57 fc c7 3d aa b9 3a 3d
       0.09546338 0.037262876 0.09764927 0.04558722
000020 04 52 06 bc 81 00 95 3d 94 7b 17 3d d1 5b 6f 3d
       -0.008198265 0.07275487 0.036983088 0.058437172
000030 41 36 12 bd c1 e8 a5 bd 60 23 6a bd 87 4b 8a bd
       -0.03569627 -0.08101035 -0.057162642 -0.06752687
000040 14 b7 9a bd f6 82 91 3d a4 b8 5b bc fb d1 66 bd
       -0.07554451 0.07105057 -0.013410721 -0.056352597
000050 fd 60 11 3d c2 7d 2c 3c f5 1f 79 3d bb 7f 9c 3d
       0.035492886 0.01052803 0.060821492 0.0764155
000060 ea c7 89 bd 2b bd 19 3d 0b 0e 8e 3d 92 58 b7 3d
       -0.06727584 0.03753392 0.06936272 0.0895244
000070 7c 8f 41 3d f5 11 c7 3c ad b6 96 bd ad 6c b1 bd
       0.047255978 0.024300555 -0.073590614 -0.086633064
000080 51 6e 96 3d af 2e 5f bc 2e d4 5a 3d 39 5c 94 bd
       0.0734526 -0.01362197 0.053425007 -0.072441526
000090 07 f9 c6 3b f5 c4 ea bc 66 6d 57 3d 2d 41 41 bd
       0.006072167 -0.02865837 0.052594565 -0.047181297
0000a0 19 16 79 bd 90 7d a1 bd 29 19 9e bd 39 26 95 bd
       -0.06081209 -0.07885277 -0.07719643 -0.07282681
0000b0 91 ce 9f 3d 84 0b c6 bd f6 cd 4f 3d 0b be b5 3d
       0.07803071 -0.09670165 0.05073353 0.088741384
0000c0 95 d2 07 bd 99 48 fc 3c c6 8d 0e 3d e6 83 9e bd
       -0.03315981 0.030796336 0.034803174 -0.077400014
0000d0 5b 72 cb 3d 50 ca c1 3d f0 97 2a 3c c3 da 73 3d
       0.09933921 0.09462416 0.010412201 0.0595348
0000e0 0b 8a dc 3b 85 a8 9c 3d c1 93 44 bd 3a 38 dc 3c
       0.006730323 0.0764933 -0.04799247 0.02688228
0000f0 e9 0e 1e bd f2 52 61 bd b4 0b a1 3d 2f fd 89 3d
       -0.03858844 -0.055010743 0.0786356 0.06737744
000100 d6 77 ac 3b 40 b7 be bc b8 cf b1 3c ae 3b 40 3c
       0.005263309 -0.02328074 0.021705493 0.011732979
000110 02 41 e1 ba 6b 3d ff 3c 17 4b 82 3d bc 0d 67 3d
       -0.0017185512 0.031157216 0.063619785 0.056409582
000120 4a d9 b9 3b ee 75 3b bd 50 45 a5 bd b2 cc 5d 3d
       0.005671655 -0.045766763 -0.08069861 0.05415029
000130 68 ea 64 3d 20 ab 02 bc 30 ea 99 3b 8d 7f 6f bc
       0.05588761 -0.00797537 0.004697107 -0.014617813
000140 5d a1 98 3d 30 e6 93 bc ae d8 ab 3c 5a 17 38 bd
       0.074526526 -0.018054098 0.020977344 -0.044944145
000150 b6 33 06 3d ae a3 9e bd 24 c0 79 3d 19 f3 84 bd
       0.03276416 -0.07746063 0.060974255 -0.0649168
000160 78 55 7c 3c 52 15 ce ba b4 90 71 bc c1 23 80 bb
       0.015401237 -0.0015722907 -0.014743973 -0.003910512
000170 30 ca 8d 3d 43 ca 72 bd 17 92 13 bb e6 39 52 3d
       0.0692333 -0.059274923 -0.0022517496 0.051324748
000180 cc 54 c0 3d cc 27 04 3a 39 8c 86 3d 49 02 94 3d
       0.09391174 0.00050413306 0.06569714 0.07226998
000190 1e e7 51 bd cf d8 a4 bd 0c 1d 57 3d 5e 52 bc bc
       -0.0512458 -0.080491655 0.052517936 -0.022988494
0001a0 9f 28 93 3d 28 5c 71 bd 46 9c a5 3d 98 5a b4 3d
       0.07185482 -0.058925778 0.080864474 0.08806342
0001b0 9b b8 c1 3a 77 0a 9b 3c ef c0 82 3d 61 09 0d bd
       0.0014779748 0.018925888 0.063844554 -0.034432773
0001c0 93 08 67 bd 05 49 8c bd a7 fa d5 3c b1 a9 b0 bc
       -0.05640466 -0.06849865 0.026120497 -0.02156529
0001d0 84 a7 9c 3b b6 0e 42 bd 53 6a 0d 3c 5a a7 33 3d
       0.0047807116 -0.04737731 0.008631307 0.04386077
0001e0 02 cd ab 3d 23 07 8e 3d c8 9f ea bc 0c a1 85 bd
       0.083887115 0.06934955 -0.028640643 -0.06524858
0001f0 d3 20 11 bc e1 8b df ba 9c ec 92 bc 5b 33 0c bd
       -0.008857924 -0.0017055237 -0.01793509 -0.034228664

actor.linear2.weight f4 [128, 128]
000000 fb d2 5a 3c 25 9f d6 3c 99 9b b5 3d c2 32 7e bd
       0.013355966 0.026198933 0.088675685 -0.062060125
000010 6d 31 66 3c 6a d7 30 3b da b1 af bc 77 8e 93 3d
       0.01404987 0.0026983866 -0.02144711 0.072049074
000020 b8 52 9f bd 28 57 83 bd 87 04 ca bc 01 cf 94 3d
       -0.07779449 -0.06413108 -0.024660362 0.07266045
000030 93 b0 76 3d 03 0c 86 3c a7 31 78 bd 7d ca 89 bc
       0.060226988 0.01636315 -0.060594227 -0.016820187
000040 b3 89 a5 3c 28 00 55 3d b1 3a db bc 1e 78 2d 3b
       0.020207262 0.052002102 -0.026761385 0.00264693
000050 25 ff c9 bd 9b 01 16 3d a7 9f 99 bc f2 0b 3e bd
       -0.09863118 0.036622625 -0.018752886 -0.04639811
000060 d5 e5 51 bd 68 14 b6 3d 31 f0 2f 3d f4 61 9d 3d
       -0.051244576 0.08890611 0.042953674 0.07684699
000070 b7 95 3e 3c 86 a7 15 3d 33 79 9c 3d d8 35 25 3d
       0.0116323745 0.036536716 0.076403044 0.040334553
000080 b3 4b 9b bd 80 d8 c2 bd 9d 1a 87 bd c6 9d ae bd
       -0.07582798 -0.0951395 -0.06596873 -0.08526187
000090 17 cd 98 3d 66 10 25 3a 97 f5 36 bd 34 bf 7a 3d
       0.07460993 0.0006296694 -0.044667806 0.0612175
0000a0 07 a3 65 bd d6 e8 44 bd a7 00 56 3b 56 77 d9 bc
       -0.056063678 -0.048073612 0.0032654197 -0.026546162
0000b0 0d d2 b3 3d 80 34 99 bc 10 86 04 bc 6e 2a c2 3d
       0.087802984 -0.018701792 -0.008088604 0.09480749
0000c0 cb 40 96 3a ca ed f0 3c 76 5c 8b 3c 2e 78 ac bd
       0.0011463402 0.029410262 0.017011862 -0.0842136
0000d0 43 6c 81 3d 31 df ad 3b 0a 39 9d bc 2b b1 84 bd
       0.063194774 0.0053061475 -0.019192237 -0.064791046
0000e0 1f 84 d9 3b 2f aa 29 bd 98 62 3b bc e9 80 f6 3c
       0.0066380645 -0.041422065 -0.011437081 0.030090766
0000f0 ed 45 45 bd d4 ba 2a 3d ea c6 b5 bc 45 21 28 bd
       -0.04816239 0.04168208 -0.022189576 -0.041047353
000100 0d c5 9c 3d 28 d5 b2 3d 3c ca c1 3c e6 bd 4e bd
       0.07654772 0.087320626 0.023656003 -0.05047407
000110 09 c1 1d 3d d2 d1 a7 3c 3f 13 d0 bc 29 c0 92 3d
       0.03851417 0.020485792 -0.025399802 0.07165558
000120 b4 1e 09 bd 7b 1b c4 3b f6 fe 3b bd b7 10 5d bd
       -0.033476546 0.0059847212 -0.045897447 -0.05397102
000130 99 22 86 bd ec 31 99 bd 6c 69 b1 3d 54 d0 ac 3d
       -0.06549568 -0.07480225 0.08662686 0.08438173
000140 a4 bf c1 3d 1b 79 97 3b dc 61 a1 3d 8b 28 8b bd
       0.09460381 0.004622591 0.07879993 -0.06794842
000150 ba 01 0d 3d 1e 1a 64 bd 68 e9 b8 3b 1b 5c 88 3d
       0.034425475 -0.05568897 0.0056430586 0.06658193
000160 cc ea ea bc 6c 5c 89 bd a5 1d b7 bd ab f7 c0 3c
       -0.028676413 -0.06707081 -0.08941201 0.023555597
000170 37 72 9a bd e2 fc 90 3d e0 24 2b 3c a9 ad 15 3d
       -0.07541316 0.070794836 0.010445803 0.03654257
000180 03 7c 85 bb 33 b2 70 bd d9 c3 d2 3c 79 d7 95 3d
       -0.0040736212 -0.058763694 0.025728153 0.07316489
000190 5b e4 1c bd cb d0 a9 bd c7 0d 3e bd 52 e8 e2 3c
       -0.038303714 -0.08291777 -0.046399858 0.02769867
0001a0 74 8a 3a 3d b7 e7 6f 3c 0e 61 b6 bd 91 d6 b8 3c
       0.045542195 0.0146426475 -0.089052305 0.02256325
0001b0 ba f2 9e 3d d5 f3 c7 3c 05 13 a8 3d db fa 84 bd
       0.0776114 0.02440826 0.08206753 -0.064931594
0001c0 74 a1 93 bd ca b5 66 3d 6c 04 5c 3d e4 ae 91 3d
       -0.07208529 0.05632571 0.053715155 0.07113436
0001d0 b8 ff 51 bc e4 e6 de bc c5 9e cc 3c a0 eb 59 bd
       -0.012817316 -0.027209707 0.024978051 -0.053203225
0001e0 b9 25 d2 bd 00 61 91 3d 46 a1 05 bc ca e2 50 bd
       -0.10261101 0.070985794 -0.008156126 -0.050997533
0001f0 4c 9b 8a 3d d6 6f 8c 3d f1 4d 98 bd 28 75 86 3d
       0.06767902 0.068572685 -0.07436741 0.065653145
000200 b3 e2 db 3d ee a2 92 3d 84 e7 84 3d 72 50 07 3c
       0.10736599 0.071599826 0.064894706 0.008258926
000210 14 a2 01 3d ba 1d 6c 3d a8 c3 14 bd 45 c7 4f 3d
       0.03164871 0.057645537 -0.036319405 0.050727148
000220 91 50 b3 bc 71 87 87 bd 27 40 89 bd 70 64 5e 3c
       -0.021889003 -0.0661763 -0.06701689 0.013573751
000230 6f 86 de 3d bb 60 41 3d ea 7d 67 3d 79 91 8f bd
       0.10865485 0.04721139 0.056516565 -0.070101686
000240 cb 09 c2 3c b9 96 15 3d 09 1e 89 3d 9f 58 04 bd
       0.02368631 0.036520693 0.06695182 -0.03231108
000250 45 96 43 bc 8b 93 0b 3d 04 6d 23 3c 2a 1d 2a bd
       -0.0119376825 0.034076255 0.009974722 -0.04153172
000260 b9 23 aa bd 03 a9 f0 3b 8d 33 f9 3c 23 5b 0e bd
       -0.08307595 0.0073443665 0.03042009 -0.034754883
000270 7f db 8f bd 87 85 de bc a7 0d 61 bd 21 02 05 3d
       -0.070242874 -0.02716328 -0.05494466 0.032472733
000280 6b ab 97 bc 7e 1e b1 3d 93 d0 25 bd b3 8d ab bc
       -0.018514356 0.08648394 -0.040482115 -0.02094159
000290 45 40 a3 bd 1b cf 58 bd d3 fb 00 bc 25 86 28 bc
       -0.07971243 -0.052931886 -0.00787254 -0.010285889
0002a0 16 8f 3c bd 84 39 88 bd 8c 60 78 bd 3b 0a f5 ba
       -0.046034895 -0.06651595 -0.06063895 -0.0018695066
0002b0 6c de 5b 3d 38 3e 7b 3b 87 e2 44 bd 10 47 fd 3c
       0.053678915 0.0038336646 -0.048067596 0.030917674
0002c0 b3 17 4b 3d 29 9f 15 bd 76 0a df bc eb 56 bf ba
       0.04958315 -0.03652874 -0.027226668 -0.0014598047
0002d0 4d 6d a1 3d 45 c7 89 bd ae de a4 3d 63 8d ff bc
       0.078821756 -0.06727461 0.08050285 -0.031195348
0002e0 ef 94 30 bc 82 18 33 3d 5d a3 ae bd 39 9f 5c bd
       -0.010777696 0.043724544 -0.08527253 -0.053862784
0002f0 eb 38 74 3d e3 a9 d1 bc 6d aa 69 3c 31 97 be bd
       0.059624594 -0.025593704 0.014261824 -0.09306181
000300 2a 89 86 3d 80 b1 8c 3d 7d 80 bf 3d c5 e0 d9 bc
       0.06569131 0.06869793 0.09350679 -0.026596436
000310 23 0c f8 bc 6d 38 43 3d 53 6f c5 bc 9f da fa bb
       -0.030279225 0.047661234 -0.024100935 -0.007655456
000320 ce 9c 9c 3d f2 93 fa 37 a7 90 b2 3c 30 16 a0 3d
       0.076470956 2.9871215e-05 0.021797491 0.07816732
000330 47 be 32 bc a2 be 68 3d 66 bf b9 bd d1 6c 65 3d
       -0.0109096235 0.056822427 -0.090697095 0.05601198
000340 5c 97 46 bd c1 06 9f 3d 5b 34 b2 bd 80 5b c9 3c
       -0.04848419 0.0776496 -0.08701392 0.024579763
000350 88 9a 38 3c 55 40 00 3d 8d ed 7a bd c6 3b 9f 3c
       0.011267312 0.03131135 -0.061261702 0.019437682
000360 88 21 a7 3d 0a 33 5b bd 38 7f 8c 3d 14 30 98 3c
       0.081606925 -0.05351547 0.068602026 0.018577613
000370 db ac 2e 3b 74 dd 3b 3d 83 17 97 3d 04 6f 87 bd
       0.0026653323 0.04586549 0.073775314 -0.066129714
000380 c3 c4 88 bd 46 ce 5b bc a6 76 9a 3d e9 15 92 3d
       -0.06678154 -0.013415879 0.07542162 0.07133085
000390 2d d5 ce bd af ab 33 bc 96 92 ac 3c 77 51 87 bc
       -0.10099254 -0.0109662255 0.021065991 -0.016518338
0003a0 00 fa eb 3b 81 da c1 3d 95 6b 89 bd 5d 54 94 3d
       0.007201433 0.094655044 -0.06709973 0.072426535
0003b0 78 e9 28 bd 56 03 4e 3d d7 e5 a4 bd e4 58 96 3d
       -0.04123828 0.05029615 -0.08051651 0.07341173
0003c0 84 13 50 bc 00 4a 26 3d 67 60 b0 bd 01 a2 a0 3d
       -0.012699965 0.040597916 -0.08612137 0.078434
0003d0 16 53 96 bd 96 a9 85 3d 2e b5 87 bd 24 12 90 3d
       -0.07340066 0.065264866 -0.06626354 0.0703471
0003e0 0b 39 cf 3c e5 61 88 3d 44 30 0d 3d e2 01 15 3c
       0.025295755 0.06659297 0.034469858 0.009094687
0003f0 c5 03 83 3d da 53 3c 3c 75 d6 8e 3d 64 55 b4 3d
       0.06397203 0.011494601 0.06974498 0.088053495

actor.linear2.bias f4 [128]
000000 d2 b0 8a 3d 8a bc f5 3c a0 2d a3 3c 71 dc b0 bd
       0.06772007 0.029997129 0.019919217 -0.08635796
000010 c0 6b cc 3b 99 02 54 3d 0a 42 d1 3c 05 36 26 3c
       0.0062384307 0.05176029 0.025544185 0.010144715
000020 d1 d9 91 bd af 1e 7d bd 6e c6 eb bc 58 a8 94 3d
       -0.07121623 -0.06179684 -0.028781142 0.072586715
000030 54 b1 5b 3d 05 9c b5 bd 8f 84 64 bd 04 f4 33 3d
       0.05363591 -0.08867649 -0.05579048 0.043933883
000040 b4 2b 2b 3d 72 a7 55 bd 8c 33 fc 3c d5 9c b8 3d
       0.041789725 -0.05216164 0.030786298 0.09014288
000050 0f 60 80 3d d8 ba 32 bd 23 d0 b9 b9 3a cf 35 bd
       0.06268322 -0.04363522 -0.00035441024 -0.04438708
000060 9a 1d b2 bd 1e 3f 18 bd 08 b2 84 3d 81 b0 22 bd
       -0.08697052 -0.03716957 0.06479269 -0.03971911
000070 7a df b4 3d 02 e6 bc 3d ff 11 42 bd ee 56 88 3d
       0.08831687 0.09223558 -0.047380444 0.066572055
000080 6d 2b 49 bd cc dd 2d bc 51 9b 82 3d 48 b2 17 bd
       -0.04911368 -0.0106119625 0.063772805 -0.037035257
000090 b5 78 bf 3d bf dd c2 bd 3d d5 04 39 e6 2c 8b 3d
       0.09349195 -0.09514951 0.00012667938 0.06795673
0000a0 3d a9 86 bc 8e c1 79 bd e1 b8 1b 3d 1e c6 98 bd
       -0.016438121 -0.060975604 0.03801811 -0.07459663
0000b0 35 c9 aa 3c 44 20 a0 3d 09 4f 01 3d bc c9 b8 3c
       0.020847896 0.07818654 0.031569514 0.022557132
0000c0 7e 96 b8 bc 77 3d c1 3d 8d 09 5e bb 8a 8e de bc
       -0.022532698 0.094355516 -0.0033880204 -0.027167577
0000d0 d3 5d 62 3d 36 4b 8f 3d ff 39 47 3d 48 ef 9c bd
       0.05526526 0.06996767 0.048639294 -0.07662827
0000e0 19 ce 99 3d f1 cb 2a 3d d9 04 07 3d 3d dc c9 3c
       0.07510013 0.0416984 0.032963607 0.02464115
0000f0 21 d7 ae 3d ff e0 de bc dc fa 05 3d fa 91 78 3c
       0.08537126 -0.027206896 0.03270994 0.015171522
000100 7c b9 ca 3d 8c 72 85 bd 94 9d 1a bc d9 20 d4 3c
       0.098986596 -0.06515989 -0.009436984 0.02589457
000110 57 88 8b bd 14 03 93 bd 00 2a 1f bc fb ee af bc
       -0.06813114 -0.071783215 -0.009714603 -0.02147626
000120 ad d2 75 3d d1 ea 03 3d 6e 7d b7 3d 59 54 a3 bc
       0.06001537 0.03220636 0.08959471 -0.019937681
000130 7e 3c 73 3d 17 da 87 bd 3f 54 92 bc ff b3 58 bd
       0.05938386 -0.06633394 -0.017862437 -0.052906033
000140 1b 2d 31 ba b8 00 70 3d ad c0 aa 3d b7 01 95 3d
       -0.00067587354 0.058594435 0.08337531 0.07275718
000150 7a fb d6 ba dd 0e 7c 3d d2 e0 0c bd 2b dd 08 bd
       -0.001640185 0.061537612 -0.034394093 -0.033414047
000160 c2 28 a1 3d cd c7 48 bd 25 14 2f 3c 50 48 5b bb
       0.07869102 -0.04901867 0.010685955 -0.003345985
000170 a1 94 b5 3d d5 0c 42 3d af 79 a1 bc d1 22 ce 3b
       0.08866239 0.04737552 -0.019711344 0.0062907715
000180 d6 91 ce 3a a7 f5 84 3d 93 8d aa bd e3 7d c9 3c
       0.0015760015 0.06492167 -0.083277844 0.02459616
000190 2d b1 16 3d c9 9b 7d bd 8c 01 75 3d 70 05 33 bc
       0.03679006 -0.061916146 0.05981593 -0.010926589
0001a0 25 00 3a 3d 3b a5 85 3d c4 e6 01 3d 39 d8 35 3d
       0.045410294 0.06525656 0.031714216 0.04439566
0001b0 6c c0 c8 3b 87 d5 77 3b fb 44 ed 3c 16 bd 2d 3d
       0.006126454 0.0037816481 0.028963557 0.042416655
0001c0 c7 af a6 3d fb 6f a8 3c a4 26 d2 bc 88 63 61 bd
       0.081389956 0.020561209 -0.02565319 -0.05502656
0001d0 f7 70 9a 3d 41 7e c4 bd 40 fe 9d bd 00 06 a0 bc
       0.075410776 -0.095943935 -0.0771451 -0.019534111
0001e0 57 7f 1d 3d b9 0b 5d bd 43 ff b2 bd 5c d5 a8 bd
       0.03845152 -0.053966258 -0.087400936 -0.0824382
0001f0 22 51 68 3d aa 0b a8 3d 05 ec a0 3d ef 5a c3 bc
       0.056718 0.0820535 0.07857517 -0.023847071

actor.linear3.weight f4 [128, 128]
000000 bf 0f b5 bd da c3 81 3d c4 37 0d 3d 7c bb a0 bd
       -0.08840894 0.06336184 0.03447701 -0.0784826
000010 2c 0b 6b 3d 23 33 3e bc 56 4e aa 3d fc dd 6e bd
       0.0573837 -0.011608872 0.08315723 -0.05831717
000020 02 0e 4a bd 37 06 27 3a ae 48 67 3d 6f eb 7c 3d
       -0.049329765 0.00063714705 0.056465797 0.061747964
000030 5f a0 7e 3d 6e a8 34 3d 30 07 5c 3d fa 90 b0 3c
       0.06216466 0.04410594 0.053717792 0.021553505
000040 74 e6 88 3d 01 05 28 3c f2 b5 06 3b 58 d3 83 bd
       0.066845804 0.010255099 0.0020555225 -0.06436795
000050 2d 31 8b 3d 36 4b 6d b9 a6 c3 de 3c 27 59 ac 3d
       0.06796489 -0.000226301 0.027192902 0.08415442
000060 c8 fc 1b bc be 34 0a bd 4b 12 a8 3d df 14 4b 3d
       -0.009520717 -0.033741705 0.08206614 0.04958045
000070 05 8c 52 3c e0 db b8 3d 0c 42 a4 bd b8 d4 9d bd
       0.012850766 0.09026313 -0.0802041 -0.077065885
000080 18 7b 86 3d 0e 0b 76 bd 5d a7 58 bc f2 8a 0d bd
       0.06566447 -0.060069136 -0.013223496 -0.034556337
000090 bc 00 54 3d df 6f 37 bd 12 11 28 bd 8b 89 ac ba
       0.051758513 -0.044784423 -0.041031905 -0.001316355
0000a0 52 fe 34 3b 77 a4 11 3d d8 57 df bb d3 5c 01 bb
       0.0027617407 0.035557237 -0.0068158917 -0.0019739165
0000b0 63 a7 8d bd 44 a1 70 bc 99 ac 3c bd 39 0e 5a bd
       -0.06916692 -0.014686886 -0.04606304 -0.05323622
0000c0 3f a0 69 3c f6 22 72 bd a8 cd 8d bd 9a c7 34 3c
       0.014259397 -0.059115373 -0.069239914 0.011033917
0000d0 1d 14 cf bc 4d 19 54 3b f0 06 b8 bc e5 37 71 3d
       -0.025278145 0.0032363713 -0.022464246 0.058891196
0000e0 d5 9e 47 3d 80 20 b4 bc c0 5c 84 bd f1 64 99 3d
       0.04873546 -0.021988153 -0.06463003 0.07489956
0000f0 76 30 14 3d 46 15 38 3b b4 66 ab bd 39 55 84 bd
       0.03617903 0.0028088852 -0.083691984 -0.064615674
000100 44 bc c3 bd 21 4e 93 3d 2c 1f 80 3c af 5f a2 3d
       -0.09557393 0.07192636 0.015639864 0.079284064
000110 9b a8 8f 3d 85 d1 ef b9 0c a0 1c bc 34 29 98 3c
       0.07014581 -0.00045741737 -0.0095596425 0.018574335
000120 f2 6e 98 bd 89 d4 e7 3c 9e 20 97 3d 69 57 39 3d
       -0.07443036 0.028299587 0.07379268 0.045249376
000130 ea 19 06 3d cf eb 37 bd d9 a5 0c bd 3e f5 5b bd
       0.032739557 -0.04490262 -0.034337852 -0.053700678
000140 d2 19 59 bd 6a 4e 8a bd 9b 2a 56 3d 70 69 7c bd
       -0.05300314 -0.067532375 0.052286725 -0.06162399
000150 f3 f8 90 3d 2f a1 7d 3d 0e d8 9c 3d 8e e2 30 3d
       0.07078733 0.061921295 0.07658397 0.04318481
000160 de 33 69 bd d3 8f 3e 3c e5 24 b0 bc fe 17 68 3d
       -0.05693423 0.01163097 -0.021501968 0.056663506
000170 6e 24 80 3d 33 9c 50 bc 09 d6 10 3d f7 e2 9e bd
       0.062569484 -0.012732553 0.03536037 -0.07758134
000180 22 67 81 bd c4 1d 02 bd 7e 29 9a 3c 30 68 8c 3b
       -0.06318499 -0.031766668 0.018818613 0.004284881
000190 08 f9 84 bd 3b 64 29 3d cd 02 a2 bd cb 79 a3 3c
       -0.064928114 0.041355353 -0.079106905 0.019955536
0001a0 ae 9a b9 bd 2e eb 80 3d 61 e6 67 3d 41 13 9c bd
       -0.09062706 0.06294857 0.05661619 -0.0762086
0001b0 25 45 46 3d 57 dc 46 3c 15 4b a8 3c 01 56 3a 3c
       0.048405785 0.012137494 0.020543614 0.011373044
0001c0 f8 93 b5 bc 85 6f b1 3d f2 90 a2 3d b0 69 c6 3c
       -0.022165284 0.08663849 0.079378024 0.024220318
0001d0 a7 bf 0b 3d cc 50 35 3d 5f 5e 3f bd 15 46 a7 3d
       0.03411832 0.044266507 -0.04672086 0.08167664
0001e0 ef bb 5d bc 52 14 59 3d cc 20 e9 3c 80 5c e3 3c
       -0.013533576 0.052997895 0.028458022 0.027754068
0001f0 a3 5c 98 bd 70 d0 b0 bd 0d ca 8d bd cd 3d c2 3c
       -0.07439544 -0.08633506 -0.06923304 0.02371111
000200 0d 40 db ba a5 25 a6 bd a5 6a 90 bd a0 42 7f 3d
       -0.0016727463 -0.08112649 -0.07051591 0.062319398
000210 6d e9 ed bc 2b 04 60 bc 28 d0 cc 3c 97 04 f5 bc
       -0.02904197 -0.013672869 0.0250016 -0.029909415
000220 c7 06 b9 3b 58 60 5a bd 4f a9 78 bd 0f 23 80 bd
       0.00564656 -0.053314537 -0.06070834 -0.06256687
000230 94 19 02 bd 99 02 85 bd f8 a5 46 3d f3 69 6a 3c
       -0.031762674 -0.06494636 0.048498124 0.014307487
000240 20 e8 04 3d c2 8d 45 3d 32 47 4d 3d c8 8f 4d bd
       0.032447934 0.048230894 0.050116725 -0.05018595
000250 fa 28 6d 3d cd 89 47 3c ea 1b 8b 3b 8e fc a1 3d
       0.057900406 0.01217885 0.004245271 0.07909499
000260 94 22 f1 3c 8c db 38 3d 22 be b1 3d 8a 21 46 3d
       0.029435433 0.04513125 0.08678843 0.04837183
000270 3b c0 b0 3d 39 91 c7 bc ae 9e ac bd 8f 5a 6b bd
       0.08630415 -0.02436124 -0.08428703 -0.05745941
000280 d0 13 b4 bd c2 8c 91 bc 22 cb a1 bc dc 2d 5c bd
       -0.087928414 -0.017767314 -0.019750182 -0.053754672
000290 a5 6c 90 3c e4 bd 31 bc b0 97 a2 bd 41 64 ad bd
       0.01762993 -0.010848496 -0.07939088 -0.084663875
0002a0 dc 94 b3 bd 6f 96 89 3d 7b 22 38 bd ee a2 ad 3c
       -0.08768627 0.06718146 -0.04495476 0.021195855
0002b0 15 2f 60 bc 5f cc a9 3d be e6 43 3d e1 6c 30 bd
       -0.0136831 0.08290934 0.047827475 -0.043072585
0002c0 40 65 9f 3d 22 40 55 3d bf c2 92 3d 86 0f e5 bc
       0.07782984 0.052063115 0.07166051 -0.027961504
0002d0 64 fb 2b 3c 78 b1 ac bc 78 9a b5 3c b9 d6 b0 bb
       0.010496948 -0.021080717 0.022168383 -0.0053966907
0002e0 88 1e 87 bd 21 5c b4 bc d3 55 5a 3c f2 11 1e bb
       -0.0659762 -0.022016587 0.013326126 -0.0024119583
0002f0 51 98 d4 b9 b9 53 9a bd be 7b 16 bd 1e 2f 7e 3d
       -0.00040549276 -0.075355 -0.036739103 0.062056653
000300 63 e4 0f 3d 50 f6 c4 3c 3b 1d ab 3d 26 3d 8f bd
       0.035129916 0.024043232 0.08355185 -0.06994085
000310 12 32 3b bd 46 41 07 3a 51 fe 2f 3c 14 26 23 bd
       -0.045702048 0.0005159568 0.010741786 -0.039831236
000320 9e 5a 91 3d 02 fd 36 bd 54 f4 99 bd 9c ae 48 3d
       0.07097362 -0.04467488 -0.07517305 0.048994645
000330 c2 47 25 bd 3d 65 cd bc 37 c9 13 bd c6 ab 36 3d
       -0.040351637 -0.025072688 -0.036080565 0.04459741
000340 f4 26 18 3d 24 b3 b6 3c 3f 07 56 bb d9 97 16 3d
       0.037146524 0.022302218 -0.0032658128 0.036765907
000350 33 a6 98 bd 7e 88 d0 bb dd 1b c1 ba e3 02 30 bd
       -0.07453575 -0.0063639274 -0.0014733035 -0.042971503
000360 8c 52 35 bc 3f 2d 2e 3d c7 cb 2a 3d 5d c7 4d 3d
       -0.011067044 0.04252362 0.041698243 0.050238956
000370 fc 24 87 bd bd 04 73 bd 10 87 a3 bd e2 70 a1 3d
       -0.06598851 -0.05933069 -0.079847455 0.07882859
000380 40 cd bd 3c 5c a9 66 bd c5 1f 96 3d 7f 4c 58 bc
       0.02316916 -0.056313857 0.07330278 -0.013201832
000390 5e 30 43 3d b6 cc 81 3d 89 87 4d bc 9e 77 d0 bb
       0.04765355 0.06337874 -0.012544521 -0.0063619157
0003a0 bb 6a 64 bd e5 67 1c bd aa fd 31 bd 5c e8 7f bc
       -0.05576585 -0.03818502 -0.043454804 -0.015619364
0003b0 95 e2 8d bd 72 90 1d bd c4 4d 94 bd e2 00 0f 3d
       -0.06927983 -0.038467832 -0.07241395 0.03491295
0003c0 58 97 4d bd 7c 76 63 bd 1e 30 4e bb e6 50 a7 bd
       -0.05019316 -0.055532917 -0.0031461786 -0.08169727
0003d0 17 2e a4 3d 92 ed b5 bc 57 19 b1 bd 46 2a 86 bc
       0.080166034 -0.022208009 -0.08647411 -0.01637758
0003e0 e5 e4 90 3c 8f 17 89 3c 14 62 02 3d 31 ec ce bb
       0.01768727 0.016734866 0.031831816 -0.0063147773
0003f0 3b 0a 57 3d 76 08 48 3d fd e6 55 bc 6b 46 ac 3d
       0.05249999 0.048836194 -0.01305556 0.08411869

actor.linear3.bias f4 [128]
000000 cc ac d8 3c 43 2a 57 bd b2 3a 9b 3d ef e6 d4 bc
       0.026449583 -0.05253054 0.075795546 -0.025989024
000010 83 51 9f bc 27 8d 3d 3d a9 6c 17 bd bd 56 c9 3d
       -0.019448048 0.04627719 -0.03696886 0.09830997
000020 9a e5 67 bd bd 9d 36 3d db 72 fc 3c 75 bc 83 bd
       -0.05661545 0.044584025 0.030816486 -0.0643243
000030 d3 96 99 3d 86 90 f2 3a 28 ec b9 bb 06 3f 67 3d
       0.074994706 0.0018506206 -0.005673904 0.05645659
000040 39 f1 2e bd c0 ea 95 bd e8 48 31 3c ba 51 51 3d
       -0.042710517 -0.07320166 0.010820605 0.05110333
000050 f6 74 94 bd df a7 8a bc 33 53 99 3d d7 d4 dc 3b
       -0.07248871 -0.01692575 0.07486572 0.0067392397
000060 6e f8 04 bd be 76 91 3d d7 79 3b bd ae a5 35 b9
       -0.032463484 0.071027264 -0.045770492 -0.00017323226
000070 60 e6 c2 bb 4d 35 83 3d 1c 0d 48 bc 8d 86 e1 bc
       -0.005947873 0.06406651 -0.012210157 -0.02752998
000080 b3 d4 95 bd 66 2b b0 bc 56 6b 18 3d 7b d9 8b 3d
       -0.0731596 -0.021505069 0.03721174 0.068285905
000090 83 8f 1e bd ca 9f c9 3c 32 c7 41 3d 9a a3 3a 3d
       -0.038711082 0.024612326 0.047309108 0.04556618
0000a0 c8 32 c5 39 ce a0 9b bd 75 85 71 bd 5c 1d 9a bd
       0.00037612603 -0.075990304 -0.058965165 -0.07525131
0000b0 e1 e0 8a bd 51 bc 36 bd a5 a8 17 3d 54 c1 45 3d
       -0.067811735 -0.044613186 0.037026066 0.048280075
0000c0 87 ca 8c bc 78 cf c6 ba 4e 08 d4 bb 6b 98 00 3d
       -0.017186416 -0.0015168032 -0.0064707166 0.031395357
0000d0 05 3f 52 3c b3 d2 ad 3d 1e 5e 85 bd 3d 34 45 3d
       0.012832408 0.08487453 -0.06512092 0.04814552
0000e0 b4 da fa 3c 13 6a c7 bc 75 29 0a bd 42 22 07 3d
       0.030621864 -0.024342572 -0.033730943 0.032991655
0000f0 77 8a 0c bd 03 e8 ce 3d 8d 12 33 3d ea 65 2b bc
       -0.034311738 0.101028465 0.043718863 -0.01046131
000100 8d 4f 76 bd 31 08 b8 3d 2e 60 a7 3d cc d2 ae 3d
       -0.06013446 0.089859374 0.08172642 0.085363
000110 b9 58 05 3d c2 9f 96 3d 9b ea f9 bc 6b 7a 65 bc
       0.032555316 0.0735469 -0.030507376 -0.0140062375
000120 cb d3 8a bd b1 bb 87 bd 61 cd 6e 3d 22 c5 1a 3d
       -0.067786776 -0.06627596 0.058301333 0.037785657
000130 df 38 b0 bd 68 77 96 bc f3 65 e7 bc ed 25 a6 3a
       -0.08604597 -0.018367484 -0.028246855 0.0012676098
000140 96 1f 80 3d d8 df a2 3d 9b c7 8a 3d 98 ca 90 3d
       0.062560245 0.07952851 0.06776353 0.07069892
000150 0d ec 27 bd 9d b3 9d bd fe b3 a1 3d c8 71 89 3d
       -0.0409966 -0.07700274 0.07895659 0.06711155
000160 54 0a 8b 3d 0e 79 43 3c f2 f1 9a bd 97 93 8d 3d
       0.06789079 0.011930717 -0.07565679 0.06912916
000170 2f f0 59 3d c1 07 66 bd a7 d0 87 3d 60 02 90 3d
       0.053207573 -0.05615974 0.06631594 0.07031703
000180 25 39 85 bd 59 93 3d bd 94 9d b0 3d eb f3 ae 3d
       -0.0650504 -0.0462831 0.08623806 0.085426174
000190 17 ba 1e 3d e4 36 96 bd db a1 48 bd c7 3c 45 3c
       0.038751688 -0.07334688 -0.048982482 0.012038416
0001a0 c8 b8 97 bd b9 df 37 3d 43 02 aa 3d 63 05 5f bd
       -0.07408291 0.044891093 0.08301213 -0.054448497
0001b0 c8 93 a0 bd 2b 25 28 bd 58 3c 8e bd 22 bf 2c bd
       -0.07840687 -0.04105107 -0.069451034 -0.042174466
0001c0 4c 5a 13 3c 78 54 72 3d 36 52 96 3d 19 31 26 3c
       0.008993696 0.059162587 0.07339899 0.010143542
0001d0 9b 3f a1 3d 44 ae 8a 3d db cc 80 bb 14 80 1a 3c
       0.0787346 0.0677152 -0.0039306707 0.00942995
0001e0 18 e5 a0 3c 19 3e 4b 3d 5b b2 83 bd b4 37 19 3d
       0.01964049 0.049619768 -0.06430503 0.03740664
0001f0 91 90 2d 3d c1 c0 81 3d 3d b5 b1 3d f6 47 12 3d
       0.042374197 0.06335593 0.086771466 0.03571316

actor.linear4.weight f4 [9, 128]
000000 71 e0 07 3d 79 d3 eb 3c f8 eb 68 bd 4e a8 fd bb
       0.03317303 0.028787361 -0.056865662 -0.0077410107
000010 0b 98 9f 3a f9 49 b5 bd 17 f2 11 3d 57 4a a4 3d
       0.001217605 -0.08852 0.035631265 0.08021992
000020 6f 58 96 3d 1b f2 ca bc 7d 5f 91 bd 9b 26 87 bc
       0.07341086 -0.024773648 -0.07098291 -0.0164979
000030 32 75 b1 3c 38 1d 25 bd ae c2 5d bc c7 4c 3b bd
       0.021662328 -0.04031107 -0.013535185 -0.045727517
000040 c8 39 86 bd d2 c5 82 bd c8 26 6a 3d ec 0f 61 bd
       -0.0655399 -0.063853875 0.05716589 -0.054946825
000050 23 88 8a 3d 0a 54 92 3d 26 2f 33 3b 91 58 94 3d
       0.06764247 0.071449354 0.0027341335 0.07243455
000060 a0 a8 7c bd 43 a7 a0 3d ef 92 0f bc c9 cf a3 3d
       -0.06168425 0.07844403 -0.008763059 0.07998616
000070 40 c0 7b 3d 92 65 91 bc 6f 2b 5f 3d cb 3a 75 bd
       0.06146264 -0.017748628 0.05448478 -0.059870522
000080 c5 85 7c bd f6 d3 f6 3c 83 22 67 3d 96 96 91 3d
       -0.06165101 0.030130368 0.056429397 0.071088
000090 d6 84 91 bd dd 6e e0 3c b0 52 a4 bd 89 fc e8 3c
       -0.071054146 0.027396614 -0.08023584 0.02844073
0000a0 2d 89 f5 3c 84 e9 99 3d 42 5f df bc f0 cc 87 bd
       0.029972637 0.07515243 -0.027267102 -0.066308856
0000b0 d2 4a 99 3c 48 21 a2 3d 0a cc 47 3c fb b2 1d bc
       0.018712435 0.07916504 0.012194643 -0.009625192
0000c0 83 f8 98 bc 89 07 19 3d 5b c3 37 bd 35 f3 de 3b
       -0.018673187 0.0373607 -0.04486404 0.006803895
0000d0 d4 1d 39 3d 16 a9 3b bc ee 25 43 bc a3 31 a7 bd
       0.045194462 -0.011453887 -0.011910899 -0.08163764
0000e0 4e 2d c8 3c 56 59 e9 ba c8 a6 1b bd 72 96 b1 bb
       0.024435665 -0.0017803113 -0.038000852 -0.005419546
0000f0 18 58 5a bd 3b 1e c2 3c ae d1 81 bd 0e f3 c6 bd
       -0.05330667 0.023696056 -0.06338821 -0.09714328
000100 eb 0b 67 bd e4 ce 50 bd fb e5 1d 3d a1 92 81 bd
       -0.05640785 -0.050978556 0.038549405 -0.06326795
000110 6a 3b 38 bd 0f fe b1 bc 3c b2 9f 3d e0 f7 d6 bc
       -0.044978537 -0.02172759 0.077976674 -0.026241243
000120 00 4c 57 bd b5 ea 8f bc e1 9e 5d 3d 3a 95 84 3b
       -0.052562714 -0.017567972 0.054106597 0.0040461095
000130 a0 5f 92 bd 30 8e 14 bd 56 d0 b2 3c ac a6 1f bd
       -0.07147145 -0.036268413 0.021827858 -0.03897731
000140 73 79 a1 bd 9b ce 3d bd a9 4d 40 bd d4 42 89 3d
       -0.07884493 -0.046339612 -0.046949062 0.067021996
000150 50 76 00 bd c5 99 10 bd a8 17 78 3d 69 80 59 bc
       -0.03136283 -0.035302896 0.060569435 -0.013275244
000160 86 d8 8d bd d2 ba 93 3d 77 23 92 bc 43 ab b0 bd
       -0.06926064 0.072133675 -0.017839177 -0.086264156
000170 34 aa 00 3d 14 a0 36 bb 9e 21 85 3c 75 3e 60 bd
       0.03141232 -0.002786641 0.016251381 -0.054747064
000180 55 8f a6 bb c8 53 4f bd b1 59 30 bc c0 c9 cc 3c
       -0.0050830045 -0.05061701 -0.010763572 0.024998546
000190 4e 54 86 bd 20 69 89 bd 5f 14 5f b9 bf 34 a1 3c
       -0.065590486 -0.06709504 -0.00021274526 0.019678472
0001a0 f7 05 0b bd 6d b0 85 bc 9e 61 c8 bc 07 ae 84 3d
       -0.033941235 -0.016319478 -0.02446061 0.064785056
0001b0 87 3c 82 3c 2e 5c 83 3d 16 b0 66 3b 36 a4 30 3d
       0.015898002 0.06414066 0.003520017 0.043125354
0001c0 53 84 a0 3d 2a 04 3a 3d c9 ab 25 3d 4d 47 78 3d
       0.07837739 0.045414127 0.04044703 0.060614873
0001d0 97 e5 03 bb 67 0d 99 bd 74 54 3d bd 04 bf 0f bd
       -0.002012586 -0.074732594 -0.04622312 -0.035094276
0001e0 10 7a bc 3c dd b6 14 3d 59 35 73 bd 9b fe fc bb
       0.023007423 0.036307205 -0.05937705 -0.007720781
0001f0 a9 b3 3a bc 16 e5 8a 3c a5 6c 6c bc 60 6c 9f bc
       -0.011395373 0.01695494 -0.0144302 -0.019460857
000200 18 b0 87 bc 61 50 50 3d b4 09 95 bd 82 61 aa bc
       -0.01656346 0.050857905 -0.07277241 -0.020798448
000210 91 f7 5d 3d 40 a0 76 3c c8 bd 00 3e da a3 37 3d
       0.054191176 0.015052855 0.12572396 0.044833995
000220 40 72 d2 3d b2 65 20 3d fa 44 f2 bc 6c 2e 58 3c
       0.10275698 0.039159484 -0.029573906 0.013194662
000230 2a 09 96 bd 2f 1a f9 3d 0d f0 6b 3d c1 1e e8 3c
       -0.07325967 0.12163197 0.057601977 0.028334977
000240 76 fc 4b bd 42 1c 11 bd af 01 b3 3c 2c 7d 4f b9
       -0.049801312 -0.03542734 0.021851389 -0.00019787689
000250 b1 95 86 bd 72 fe d7 3d 39 41 9b bd 52 06 75 bd
       -0.0657152 0.105465785 -0.075807996 -0.05982048
000260 50 86 45 3d 87 e7 15 bd d6 ad aa 3d d3 f5 33 bc
       0.048223794 -0.036597755 0.08333938 -0.010983902
000270 78 f6 71 bd 81 fd a4 bd 00 ea 07 bb 65 59 56 bd
       -0.05907294 -0.080561645 -0.002073884 -0.052331347
000280 a1 d7 90 bd 2d 2f cc 3b 62 3b dc 3d c8 09 91 bd
       -0.07072378 0.0062312097 0.10753514 -0.07081944
000290 47 52 99 bc 81 f0 29 3d b7 51 00 3c 02 d5 57 3d
       -0.01871599 0.041489128 0.007831982 0.052693374
0002a0 0d b6 c2 3c 1b 55 b9 bd 6e 4c b5 3d 90 25 06 3d
       0.02376845 -0.09049436 0.088524684 0.032750666
0002b0 f8 a4 b5 3c 52 3c c8 3d 67 d3 aa 3d 91 81 c9 bc
       0.02217339 0.0977713 0.08341103 -0.024597915
0002c0 76 e0 d1 3d d5 95 c2 bd 91 ba 06 3d 90 7d 77 3d
       0.10247891 -0.095012344 0.032892767 0.06042248
0002d0 a8 1d 0c bc e4 28 8b 3d 16 da 7d 3d 9a 27 43 bb
       -0.0085519925 0.06794909 0.06197556 -0.0029778243
0002e0 d2 d2 77 3d 58 b9 e0 bd 2d 00 e6 3d fa f0 f0 3c
       0.06050379 -0.109728515 0.11230502 0.029411782
0002f0 fb 0f 08 bd ee 81 45 bc 51 90 aa 3d a9 44 93 3d
       -0.033218365 -0.012054903 0.083283074 0.0719083
000300 31 db e0 bc 01 c0 39 bd c0 74 4f bd 12 d2 90 bd
       -0.027448269 -0.045349125 -0.05064845 -0.07071318
000310 80 9e 42 bc f6 b0 67 bd 04 2f 63 3d bc ff 63 3d
       -0.01187861 -0.056565247 0.05546476 0.05566381
000320 7e 99 c7 bd a2 90 87 bd df e2 53 3d bb 64 c1 3d
       -0.09746073 -0.066193834 0.051730033 0.09443041
000330 8b e4 af bc 16 62 83 ba c7 eb b0 3d a0 87 79 bd
       -0.021471282 -0.0010023739 0.08638721 -0.060920358
000340 a0 0b e8 bb 5c 2a 85 3c 28 f3 da 3c 3a d4 58 3d
       -0.007081464 0.01625555 0.026727274 0.05293677
000350 fe 95 c6 bd c5 04 8b 3d c0 5f 32 3d cb 45 e7 bd
       -0.096965775 0.06788019 0.043548346 -0.11292609
000360 1e f5 e4 bd 0e 2f 16 3c cb e5 93 3d 16 1e 8c 3d
       -0.11179565 0.009166492 0.07221564 0.06841676
000370 d8 48 dd 3d 19 3e 17 bd 21 4a 3c bc 08 fb af bc
       0.108049095 -0.036924455 -0.011492283 -0.021482006
000380 50 91 07 3d 00 8e 74 bd 0a b2 cb bd 8a 36 94 bd
       0.033097565 -0.059705734 -0.09946068 -0.07236965
000390 8f 9c b7 3d 10 12 b6 3d e0 4a be 39 c9 c0 db 3d
       0.08965408 0.08890164 0.0003629541 0.1073013
0003a0 d7 af c6 bd 30 08 ac bd c7 01 0a bc 4b 53 3b 3d
       -0.097015075 -0.08399999 -0.008423275 0.04573373
0003b0 61 c0 50 bd 4a 32 ca bd bc 47 f1 ba 1d 88 cf bc
       -0.050964717 -0.09872873 -0.0018408219 -0.025333459
0003c0 de 41 0c bd 79 49 5a 3c 43 2a 7c 3d c8 85 e1 bd
       -0.034242503 0.013323181 0.06156374 -0.11011845
0003d0 af a1 c8 bd c2 6c bc bd f7 52 81 3d 56 d6 2c 3d
       -0.09796464 -0.092004314 0.063146524 0.042196594
0003e0 62 a7 d0 bd bb 73 92 3d 41 02 cd 3d 82 78 5f bd
       -0.10188176 0.0715098 0.100101955 -0.054558285
0003f0 ee cd 5c 3d 7b c5 d6 3d b5 67 ec 3d 40 a8 0c 3d
       0.053907327 0.10486885 0.11543218 0.034340143

actor.linear4.bias f4 [9]
000000 b9 42 2d ba d7 0c 41 3d 29 d8 4a bd 55 83 4d 3d
       -0.0006609369 0.047131386 -0.049522553 0.050174076
000010 18 0b 40 bd ac 4d b3 3d fc 1d 8b bd 68 bc 4e 3d
       -0.04688558 0.08755049 -0.067928284 0.050472647
000020 79 58 9a bc
       -0.018841015

critic.linear1.weight f4 [128, 120]
000000 f0 a1 8d bd 73 48 89 3d bc 1b cc 3d 1f 86 70 bd
       -0.06915653 0.06703272 0.099662274 -0.058721658
000010 3c 2f a3 bd 31 c2 cf bd dc 0f 47 bd 32 42 7f 3d
       -0.079679936 -0.10144461 -0.04859911 0.06231899
000020 02 3b 16 3d 21 0e cc bd f4 46 b8 3d 24 aa d3 bd
       0.036677368 -0.099636324 0.08997908 -0.10335186
000030 b3 74 8a 3d 9d b4 d7 ba 51 f6 02 3d 29 5d ca bd
       0.0676054 -0.0016457025 0.031973187 -0.0988105
000040 2c c0 33 3e 66 1e ad bd ad c3 6b 3d a2 8f 8f bc
       0.17553777 -0.08453064 0.057559658 -0.017524544
000050 9f 5d f7 3d 9e 69 46 bb b5 4b b1 bb 8c c1 27 bc
       0.12078404 -0.0030275355 -0.0054106363 -0.010239016
000060 86 5b 07 bd d7 97 2f 3d 50 60 2a 3d a2 9f c5 bc
       -0.033046268 0.042869415 0.041595757 -0.02412397
000070 41 79 0b bd 21 02 05 bd 4b 63 07 bd be d4 7a 3d
       -0.034051184 -0.032472733 -0.033053678 0.061238043
000080 d9 a7 e5 bc 3d 32 23 3c 1e 5b 16 3d 7f 5b f6 3c
       -0.028034138 0.009960708 0.03670799 0.030072926
000090 90 2d 21 3d 31 87 7c bb d6 ae 65 bd 87 38 09 3c
       0.039350092 -0.0038532729 -0.05607494 0.008375294
0000a0 28 ae 75 3d 16 b0 fa 3b 92 a3 0c 3d d8 ed da bd
       0.05998054 0.0076503856 0.03433568 -0.10689896
0000b0 30 b3 89 3b 8d 4c c2 bc c4 53 a5 3d 05 ff 8c 3d
       0.004202269 -0.023718143 0.08072618 0.068845786
0000c0 37 fc bb 3c 3d d1 7f bc 29 c3 f8 3d ad 98 37 ba
       0.022947414 -0.015613851 0.12146599 -0.00070036465
0000d0 13 6f b3 bc 0c e4 33 3c a8 cc 52 bd 8d e2 09 3e
       -0.02190355 0.010979664 -0.051464707 0.13465329
0000e0 74 c1 73 3d 48 48 a7 bc c1 a8 8f 3c ff 73 41 bd
       0.059510663 -0.020420209 0.017536523 -0.047229763
0000f0 95 a7 ad bc 57 2d dd bc d5 5d a1 bd 61 6d 7b bd
       -0.021198073 -0.026999159 -0.07879225 -0.06138361
000100 b4 e6 a5 bd a8 81 b0 bd d6 98 65 3d 2f dc ad bd
       -0.08100644 -0.0861848 0.05605396 -0.08489262
000110 a1 62 ee 3b ce d9 a4 3d 6a 37 9d 3d 88 64 6e bc
       0.007274941 0.080493554 0.07676585 -0.014550336
000120 4f a3 97 bd 12 1a a9 bd 6b 3c 88 3d 5d 5c 53 3d
       -0.074041955 -0.08256926 0.06652149 0.051601756
000130 7c a3 96 3d e2 f8 10 3d a5 eb b4 3d 6f d2 80 3d
       0.07355401 0.035393603 0.08834008 0.06290137
000140 47 3a ef bc 70 14 89 bd dd 8f 1d 3d 79 b2 94 3d
       -0.029202593 -0.06693351 0.038467277 0.072606035
000150 2d a0 e2 3c 41 93 db 3d aa 3a 37 3d e3 8b a8 3d
       0.027664268 0.10721446 0.04473368 0.08229806
000160 9f 94 bb bd c4 47 cd 3c 87 5d 67 3d ae 45 78 bc
       -0.091592066 0.025058635 0.05648568 -0.015153332
000170 83 1e 78 3d 07 95 98 bc c1 8b b8 bd f4 de 31 3d
       0.060575973 -0.01862575 -0.09011031 0.043425515
000180 29 12 27 bd 41 dc 38 bc 56 a2 6e bd 17 5d 8f bd
       -0.040788803 -0.011282981 -0.058260284 -0.07000177
000190 1d 95 ef 3d 4c 97 a5 3d 7d 80 4c bd e9 53 6d 3d
       0.11698363 0.08085498 -0.049927223 0.05794135
0001a0 f4 3e a4 bd 02 ca b1 3d 9b 6a 7e bd fb 90 9f bc
       -0.0801982 0.08681108 -0.062113386 -0.019478312
0001b0 c2 c0 a9 3c 80 c0 3f bd 0c 29 83 3d 07 48 c6 bd
       0.020721797 -0.04681444 0.064043134 -0.09681707
0001c0 94 02 d1 3c e8 69 7b 3d ee dc 07 bd 0b 13 44 3c
       0.025513925 0.061380297 -0.03316968 0.011967431
0001d0 51 cb 03 3e 8d 20 fc 3d a9 8c 80 bd e6 58 62 3d
       0.12870528 0.12310896 -0.06276829 0.05526056
0001e0 17 fa c1 3d 64 86 97 3c 5c e8 1f 3c 16 00 da bd
       0.09471529 0.0184967 0.009759989 -0.10644548
0001f0 bf 16 b7 bd 57 61 76 bd 06 8d e0 3d 8e 4b 58 3d
       -0.08939885 -0.060151424 0.10964398 0.05280643
000200 8e 93 7a bd b6 e7 5c bd 2a 59 84 bd de 67 9c bd
       -0.061175875 -0.053931914 -0.06462319 -0.076369986
000210 09 ff 99 bd d5 f1 48 3c b1 c2 c5 bc 1a 6f a5 bd
       -0.07519347 0.0122646885 -0.024140688 -0.080778316
000220 54 2d 10 3e d1 bd 54 bd ae a9 e6 3d 6a 72 05 3e
       0.14079791 -0.051938836 0.112628326 0.13031927
000230 fb 2e fb 3d fa 58 bb 3c 82 14 14 bc 6c 6f 59 3c
       0.1226482 0.022869576 -0.009038093 0.013271194
000240 56 ef ac 3d ae 22 d1 bb 04 2e 96 bc 67 a1 ea bd
       0.08444087 -0.006382308 -0.018332489 -0.11456566
000250 bb c1 a8 3c 3d c9 5f 3d 6b 6f 42 3b 36 4d 7e 3d
       0.02060019 0.054635275 0.002966846 0.062085353
000260 a7 ec f9 3c 14 50 95 3c f7 f3 e4 3c 1d 39 a0 3b
       0.030508352 0.01822666 0.027948363 0.004889621
000270 da af a2 3d 6c 29 ff 3b 48 70 9a 3d 6b 7e 2d bd
       0.07943697 0.0077869203 0.07540947 -0.04235689
000280 85 82 94 3d 36 b1 5d bc c0 e0 59 3c 05 22 df bd
       0.07251457 -0.01353102 0.0132982135 -0.108951606
000290 6c 10 96 bd 11 00 1d 3d 67 d4 55 3d c2 dd a5 b9
       -0.07327351 0.03833014 0.052204516 -0.00031636475
0002a0 f5 80 17 3d a0 4a 5a bd 3a 45 7c 3d cf c4 91 3d
       0.036988217 -0.053293824 0.061589457 0.071176164
0002b0 51 fa 5d 3d 0b e0 02 3e bd 1e f3 bc 4d 9b ff 3d
       0.0541938 0.12780778 -0.029677743 0.12480793
0002c0 ba 12 94 3d 55 a1 47 bd 7e 47 a0 3c d6 bd c7 3c
       0.07230134 -0.048737843 0.01956534 0.024382513
0002d0 13 3a 5f 3d c7 14 73 bd 81 69 6b bc 06 73 9a bd
       0.054498743 -0.059345987 -0.014368416 -0.0754147
0002e0 42 03 80 3c 0a 44 91 3d 61 89 11 3d bc 0c 8c bd
       0.015626553 0.070930555 0.035531405 -0.068383664
0002f0 7f 41 0e 3d 62 5f e1 bc f3 df 06 bd 09 a4 2f 3d
       0.03473043 -0.027511302 -0.03292842 0.042881045
000300 06 2d e1 bc 21 cb b8 bb fd 44 6a bd c1 8e a6 bd
       -0.02748729 -0.005639449 -0.0571947 -0.08132697
000310 bb 58 3e 3d c8 e9 15 bd 33 6d 2e bd b8 d7 44 3c
       0.04647134 -0.036599904 -0.04258461 0.012014322
000320 f2 02 5f bd c1 d7 cb 3c 21 d6 d6 bd 7a 1f b7 3c
       -0.05444617 0.024883153 -0.104900606 0.022353876
000330 d3 1f c6 3d 3e 1f 02 3e 20 f4 19 3d 98 42 14 3d
       0.09674039 0.1270723 0.03758633 0.03619632
000340 a2 68 52 3d fe 08 47 bd f1 b7 aa bd dd 16 fe bb
       0.051369317 -0.04859256 -0.08335865 -0.0077541904
000350 a6 d2 58 3d 88 21 10 3d 05 ca a4 3c d5 15 63 3d
       0.052935265 0.035188228 0.020115862 0.055440743
000360 66 17 8d 3d 38 f8 18 3c 40 87 7c 3d 50 7a 9e bc
       0.068892285 0.009336524 0.061652422 -0.019345433
000370 1f 18 17 3e a5 8e fc 3d 4e fc dc bc 7c 21 5f 3c
       0.14755295 0.12331895 -0.026975777 0.013618823
000380 5e 55 bf bc a2 a0 ad 3a f8 30 70 3d 2e 5b 79 bd
       -0.023356136 0.0013246725 0.05864045 -0.06087797
000390 2e 46 44 bc a7 b0 08 3d 8b 74 5b 3d e5 26 5e bd
       -0.011979623 0.033371594 0.05357794 -0.05423631
0003a0 ff aa c0 3d b2 94 ed 3c a0 40 fe 3c 10 c2 82 3c
       0.09407615 0.029001568 0.031036675 0.015961677
0003b0 79 b9 13 3d 8f 8f 04 3e 59 ff 0a 3d 5f fc 9b 3d
       0.036065552 0.12945388 0.033934925 0.07616495
0003c0 6a 68 8f 3d c8 c9 48 3c 01 b0 68 3c 07 d6 e4 bd
       0.07002337 0.01225514 0.014202119 -0.11173635
0003d0 a4 45 f6 bc 3e 0c 2d 3d cd 57 b4 3d fe 45 bb 3c
       -0.030062504 0.042248003 0.08805809 0.022860523
0003e0 92 69 c5 3b ce 49 b0 bc c3 5b 66 3d cd bb bc bc
       0.006024548 -0.021519568 0.056239855 -0.02303877
0003f0 3f 6c 40 3d f6 bf 3f bc 4b 4a c3 3c b3 1d 82 3d
       0.04697823 -0.011703482 0.023839137 0.06353321

critic.linear1.bias f4 [128]
000000 00 22 02 3e f0 59 8c bb 22 78 b1 3d aa 58 dc bd
       0.12708282 -0.0042831823 0.08665492 -0.10759099
000010 0f ff 19 3c 8c 28 48 3d 00 54 bc 3d a1 57 cd 3d
       0.00939919 0.048866794 0.09195709 0.100264795
000020 5e 31 12 bd 5b 45 b6 bc fb 87 ce 3d f8 57 1b bd
       -0.03569161 -0.022249868 0.1008453 -0.03792569
000030 45 ae d6 3d f3 44 fd 3c 72 44 72 bd 59 a9 d5 3d
       0.10482458 0.030916667 -0.059147306 0.10432691
000040 18 c5 c7 3d c2 19 8c 3c 6c 42 1d 3b 24 94 04 bd
       0.097543895 0.017102126 0.002399589 -0.03236784
000050 a6 7b e9 3d 16 08 08 bd ba 20 c4 3d 72 2f e8 3d
       0.11400537 -0.033210836 0.095765546 0.113371745
000060 19 75 f3 bd 17 93 98 3d b4 f0 9e 3c c1 29 e6 bc
       -0.11887569 0.0744993 0.019401886 -0.028096082
000070 9a 84 36 bd e1 2b d5 bd d0 fd 0a bc 63 cd 04 3e
       -0.044560052 -0.1040876 -0.008483365 0.12968974
000080 cd 92 bf bd 75 f8 58 3d a5 4f dd bd ed d4 85 bc
       -0.09354172 0.052971322 -0.108062066 -0.016336882
000090 85 58 a1 3d 5c f6 12 3c 36 8c 0e 3e 59 af 60 3d
       0.07878212 0.008969869 0.13920674 0.054854725
0000a0 00 54 49 3d 7e d2 1b bc 18 be dd bd bc b1 9b bb
       0.049152374 -0.0095106345 -0.10827273 -0.004751412
0000b0 97 01 9d 3d 79 86 01 3b 00 d8 5f 3d da 57 f8 3d
       0.07666319 0.001976399 0.054649353 0.12126131
0000c0 65 ed fa 3d eb 74 c4 bd 6e fa 46 3d 9f 06 af 3d
       0.12252311 -0.09592613 0.048578672 0.08546185
0000d0 75 9d 18 3d c9 e6 74 3b 79 09 a4 bd 9a dc cc 3c
       0.037259538 0.0037369004 -0.08009619 0.025007535
0000e0 76 dc dd 3c 26 48 bb 3c b3 3e 66 bb 25 1e 7d bd
       0.027082663 0.022861551 -0.0035132586 -0.061796326
0000f0 89 ca 6c 3c d8 3c 9a bc 9f ef 96 3d e8 82 f3 3d
       0.014452585 -0.01882784 0.07369923 0.11890203
000100 2d 7e d2 3d 22 52 c6 bd 11 ed 57 3a 1a e1 34 bc
       0.10277972 -0.09683634 0.0008236925 -0.0110399965
000110 ee ca 72 3d a4 db 00 3e 3b 74 00 be 3a 57 f4 bd
       0.05927556 0.12583786 -0.12544338 -0.119307
000120 16 86 ff 3d 30 27 6f 3d a4 cd f0 3d 9f 1f da 3d
       0.12476747 0.05838698 0.11757973 0.106505625
000130 2d 1e c3 3d c2 db af 3d 60 9d ce 3d db ca b1 3d
       0.0952724 0.08586837 0.10088611 0.0868127
000140 14 3c f7 3d d2 84 c0 bc 99 61 53 bc a5 f4 78 3d
       0.12072006 -0.023500834 -0.012901687 0.060780186
000150 c3 df 20 bb fc 86 ff bd c4 4f 41 3d 69 09 83 3d
       -0.0024547435 -0.12476918 0.04719521 0.06398279
000160 a9 2f 0c 3d 83 6d cc 3d 02 14 c8 3c a0 53 4a bd
       0.03422514 0.09981825 0.024423603 -0.049396157
000170 fb b0 fb bd 7c cc c4 bd 5c d6 57 3c 30 d1 a3 bd
       -0.12289616 -0.09609315 0.013173666 -0.07998884
000180 2c 7b d2 bd 42 02 78 3c bf 36 ce 3d 3f b0 06 3d
       -0.102773994 0.015137257 0.10069036 0.032882925
000190 ac a2 97 3d bc 03 25 3d 1c b3 43 bd 75 96 6d 3d
       0.07404074 0.040286765 -0.047778234 0.058004815
0001a0 6f bf 4f 3b b3 a3 01 3d 0b 3f b8 3c 3b 0d 99 3c
       0.0031699797 0.031650256 0.022490999 0.018683067
0001b0 07 6f db 3d a3 95 75 3c 65 9c b2 3d 2c f4 c4 bc
       0.10714536 0.014989289 0.08721236 -0.024042211
0001c0 c5 c6 10 3d d8 be f0 3d d8 82 66 3d a0 37 42 3d
       0.03534581 0.117551506 0.056277126 0.04741633
0001d0 c2 ff ae bd e4 8d 08 3d f2 03 a6 3d 86 5d e1 bd
       -0.08544876 0.033338442 0.08106221 -0.11004166
0001e0 5b 0b f7 3d e0 e5 3c 3d 62 d8 b6 bd ec 95 db bd
       0.12062713 0.046117663 -0.089279905 -0.10721955
0001f0 2c c3 17 bd f7 69 d8 3d 7f 76 58 3d 34 e2 b1 3d
       -0.037051365 0.10567086 0.05284738 0.08685723
