hover_starship_raw_ckpt/ckpt_00002101.pt (torch, 511031 bytes, 15 tensors)

actor.linear1.weight f4 [128, 120]
0	0xbd0817da	-0.03322587
1	0x3d08efa2	0.033431657
2	0xbd769859	-0.060203884
3	0xbda4197a	-0.08012672
4	0xbcf99204	-0.030465133
5	0xbd95285f	-0.07283091
6	0x3c9f075f	0.019412694
7	0xbd3279ba	-0.04357312
8	0x3db43806	0.08799748
9	0xbd9e9981	-0.07744122
10	0x3cc622c4	0.0241865
11	0x3cf8f1d6	0.030388754
12	0xbd881077	-0.066437654
13	0xbd9ad4d0	-0.07560122
14	0xbd69dd63	-0.057095896
15	0xbd9b8b04	-0.075948745
16	0xbdb5ed1a	-0.08883114
17	0x3c3b485b	0.011430825
18	0xbbbbe2f8	-0.005733844
19	0x3d6e1ab4	0.058130935
20	0xbcfc6cda	-0.030813623
21	0x3da6796d	0.08128629
22	0x3d9bb82d	0.07603488
23	0xbcf8f3aa	-0.030389626
24	0x3d8c4095	0.068482555
25	0x3c52b7ef	0.012861236
26	0xbcfabf75	-0.030608872
27	0x3cad967d	0.021189922
28	0xbc389d60	-0.01126799
29	0x3dbe045a	0.09278174
30	0xbd2565d8	-0.04038033
31	0xbdbd3810	-0.09239209
32	0x3d54b76b	0.051932734
33	0x3b1b9572	0.00237402
34	0xbc9b6f43	-0.018973952
35	0x3d9266cf	0.071485154
36	0xbce77280	-0.02825284
37	0x3cfade9e	0.03062373
38	0x3c92be9b	0.017913153
39	0x3db30e98	0.08743018
40	0x3be277b3	0.006911242
41	0xbc14f7cd	-0.009092283
42	0xbd6a6d7f	-0.05723333
43	0x3c5de2fc	0.013542887
44	0x3db1c30f	0.086797826
45	0x3d1adf02	0.037810333
46	0xbd569e05	-0.052396793
47	0xbd29cee4	-0.041457072
48	0x3d11dad9	0.0356091
49	0x3d48249e	0.048863046
50	0x3daaf7de	0.08348058
51	0x3d984819	0.074356265
52	0xbbe784ab	-0.007065376
53	0x3cdeebcc	0.027212046
54	0xbd0044b8	-0.031315535
55	0xbcad8a0d	-0.021183992
56	0xbc2509d4	-0.010073144
57	0xbd88abbc	-0.06673381
58	0xbd176488	-0.03696111
59	0xbdb3ceea	-0.087797
60	0x3c485c70	0.01222907
61	0xbccbe571	-0.02488968
62	0xbc7502c0	-0.014954269
63	0x3cbafd7d	0.02282595
64	0x3d79a10a	0.060944594
65	0xbd36a803	-0.044593822
66	0xbd465048	-0.048416406
67	0x3d8b87c8	0.068130076
68	0x3d1d10fc	0.038346276
69	0xbc69a1d7	-0.014259777
70	0x3da7c658	0.08192128
71	0xbd35a041	-0.044342283
72	0xbd3e192b	-0.04641072
73	0xbd20ede1	-0.03928936
74	0x3d5adcfa	0.053433396
75	0xbd25fdd6	-0.04052528
76	0x3ca498ff	0.020092485
77	0xbd69218a	-0.05691675
78	0xbcce319b	-0.025170138
79	0x3c0ac26e	0.008469207
80	0x3c97e6cc	0.01854267
81	0x3d689b3d	0.05678867
82	0x3d739bd1	0.05947477
83	0xbda75f48	-0.0817247
84	0xbd484ef8	-0.048903435
85	0xbb89dd62	-0.004207299
86	0x3da3d4c0	0.07999563
87	0x3b6adf50	0.003583867
88	0x3bffd07b	0.007806835
89	0x3b1604aa	0.0022890964
90	0x3d35c307	0.044375446
91	0x3c835d40	0.016035676
92	0xbbb6644c	-0.0055661555
93	0x3db460f0	0.08807552
94	0xbc8758f1	-0.016521903
95	0x3d09dd6e	0.033658437
96	0xbad9e1ba	-0.0016623058
97	0xbc848ff7	-0.016181929
98	0x3d9992d8	0.07498711
99	0x3d749398	0.05971107
100	0xbd85a472	-0.06525506
101	0x3d99a8b6	0.07502882
102	0xbd52de37	-0.05148145
103	0xbc4fae3d	-0.012675819
104	0xbd441f41	-0.04788137
105	0x3d48a8b9	0.04898903
106	0xbd1c6ca4	-0.038189545
107	0xbd482fef	-0.048873838
108	0x3c88b414	0.01668743
109	0x3cbd9779	0.023143517
110	0xbd783c34	-0.06060429
111	0xbda977ef	-0.08274829
112	0xbcea1415	-0.028574029
113	0x3c49ea57	0.012323937
114	0x3d5e448f	0.0542646
115	0x3d49762d	0.049184967
116	0xbd56c64a	-0.052435197
117	0x3cdcd519	0.026957082
118	0xbd4d513c	-0.0501263
119	0x3cd791bb	0.026314607
120	0x3c3b7f7a	0.011443967
121	0x3da2b803	0.07945254
122	0x3d8ee73d	0.06977699
123	0xbc8aa11e	-0.01692253
124	0x3d8149fc	0.063129395
125	0xbdc028a1	-0.09382749
126	0xbccf0e34	-0.025275327
127	0xbc7fb1d3	-0.015606361
128	0x3d9f149a	0.07767601
129	0xbd3a8a38	-0.045541972
130	0xbcf03b34	-0.029325105
131	0xbc3f36ef	-0.011670812
132	0xbd54c591	-0.051946227
133	0x3ce02d5b	0.027365377
134	0x3d97a477	0.07404416
135	0x3d99c917	0.07509058
136	0x3d1b91db	0.037980895
137	0xbc77ebd2	-0.015131908
138	0xbc8d4720	-0.01724583
139	0x3d51a1ef	0.051179823
140	0xbd93bf15	-0.072141804
141	0xbccd1f96	-0.025039475
142	0xbc799c51	-0.015235023
143	0xbc29cffd	-0.01036453
144	0xbd87b45f	-0.066262
145	0xbdb3c26c	-0.087773174
146	0xbd66f19a	-0.056382753
147	0xbd2869cd	-0.041116524
148	0x3da139a5	0.07872323
149	0xbd879d26	-0.066217706
150	0x3db1b0ab	0.08676275
151	0xbd4368a7	-0.047707226
152	0x3ca4af0b	0.020102998
153	0xbd5390fe	-0.051651947
154	0x3d2ab331	0.041674796
155	0x3d20f0cf	0.039292153
156	0x3d97b151	0.07406867
157	0x3d794d48	0.060864717
158	0x3d65d6e9	0.056113157
159	0xbdb9a77c	-0.09065148
160	0xbdac918b	-0.084261976
161	0xbcdc910d	-0.026924634
162	0xbd9523da	-0.07282229
163	0xbc922150	-0.01783815
164	0x3b826c11	0.0039801677
165	0x3d1bfc33	0.038082313
166	0xbc30eb94	-0.010798354
167	0x3d689ecb	0.05679206
168	0xbd34ee8e	-0.044172816
169	0xbb9f86cc	-0.004868364
170	0x3d9b65c3	0.07587769
171	0xbcd050c7	-0.025429143
172	0xbd65dd90	-0.0561195
173	0xbc1d212c	-0.009590428
174	0x3ce039dc	0.02737134
175	0xbda77527	-0.08176642
176	0xbc86ac1b	-0.016439488
177	0xbd853c3f	-0.06505632
178	0xbdb86b4d	-0.09004841
179	0xbc95119e	-0.018196877
180	0x3d225864	0.039635077
181	0xbd15e1a8	-0.036592156
182	0xbd505d6e	-0.05087035
183	0x3d74a2ac	0.05972545
184	0xbd5bb905	-0.053643245
185	0xbcf108d5	-0.029423157
186	0xbd7049b7	-0.05866405
187	0x3c5f3496	0.013623377
188	0x3da5942b	0.080849014
189	0x3d094706	0.033515
190	0x3d8904b3	0.066903494
191	0x3cdeb9a1	0.027188124
192	0x3bd9d555	0.0066477456
193	0x3d8c33f6	0.06845848
194	0x3c29655c	0.010339107
195	0xbdabd34e	-0.083899125
196	0xbd0fc40b	-0.03509907
197	0xbd2e05ab	-0.042485874
198	0xbb261f0d	-0.0025348098
199	0xbd9e442e	-0.07727848
200	0x3d84680a	0.064651564
201	0x3d914742	0.070936695
202	0x3d005493	0.031330656
203	0xbd2f2068	-0.042755514
204	0xbd49cbd2	-0.049266644
205	0xbdabd587	-0.083903365
206	0x3d5c74ba	0.053822257
207	0xbd3f9541	-0.0467732
208	0x3cc6807b	0.024231186
209	0x3d73e91a	0.059548475
210	0x3a6f45d0	0.00091275293
211	0xbc84c904	-0.016209133
212	0xbd757aed	-0.059931684
213	0xbdb30539	-0.087412305
214	0xbc4ba54d	-0.0124295475
215	0x3d8451ca	0.064609125
216	0x3d97f9f9	0.074207254
217	0x3935ecd8	0.00017349736
218	0x3c5df3bf	0.013546883
219	0x3d01ec6d	0.031719614
220	0xbd5164f2	-0.05112166
221	0x3daf6ab7	0.08565276
222	0x3c0fbe17	0.008773348
223	0xbd5f75a3	-0.054555546
224	0xbbecf6cc	-0.007231569
225	0xbd881c40	-0.06646013
226	0x3c9827de	0.018573698
227	0xbd44f708	-0.04808715
228	0xbcd4526c	-0.025918208
229	0xbc774233	-0.015091467
230	0xbca01642	-0.019541863
231	0x3d9c3775	0.07627765
232	0xbceea43e	-0.029131051
233	0xbd0e3fb6	-0.03472873
234	0xbc591eb4	-0.013251949
235	0xbd72cc2a	-0.059276737
236	0x3d03ecd3	0.032208275
237	0xbd435fa3	-0.04769863
238	0x3c9e7e49	0.019347327
239	0xbda01457	-0.078163795
240	0x3d6c38e4	0.057671443
241	0x3d9d6f8c	0.076872915
242	0x3c146508	0.009057291
243	0xb97d25d7	-0.00024142057
244	0x3d505cfa	0.05086992
245	0xbd3d2ce0	-0.046185374
246	0x3d4667ff	0.048439022
247	0x3d0ec54d	0.03485613
248	0xbb9498e0	-0.0045348257
249	0xbc80f397	-0.015741153
250	0x3d9fc886	0.07801919
251	0xbd2ee5b9	-0.04269955
252	0xbdb19e03	-0.086727165
253	0xbdb3527b	-0.08755966
254	0x3d037009	0.032089267
255	0xbc91cf94	-0.017799176

actor.linear1.bias f4 [128]
0	0x3d16cc8c	0.036816165
1	0x3c09b31a	0.008404518
2	0xbd9c0c34	-0.07619515
3	0x3d745059	0.059646938
4	0x3c9ea305	0.019364843
5	0x3d8e8506	0.06958966
6	0x3abdf7a3	0.0014493357
7	0x3dae11e7	0.08499508
8	0x3d6ea58c	0.058263347
9	0xbcf91641	-0.03040612
10	0x3dabed3e	0.0839486
11	0xbd32eab0	-0.043680847
12	0x3d89279e	0.066970095
13	0x3d49c7ef	0.049262937
14	0x3cd80095	0.026367465
15	0xbd4b9973	-0.049706887
16	0xbd91e3cb	-0.07123526
17	0x3d99c030	0.0750736
18	0x3bc52f45	0.006017598
19	0xbd821b62	-0.06352879
20	0x3c986cd4	0.01860658
21	0x3cf32a91	0.029683383
22	0x3d26965e	0.040670745
23	0xbc21e645	-0.009881561
24	0xbd9e6fcd	-0.07736168
25	0x3d295235	0.041338164
26	0x3c09b9e1	0.008406133
27	0xbd121a3c	-0.03566955
28	0x3c6950bb	0.014240439
29	0x3d7ca9ce	0.061685376
30	0xbd1e5ba7	-0.038661625
31	0xbd884fce	-0.066558465
32	0xbc86ffe6	-0.016479444
33	0x3db91c3f	0.09038591
34	0xbd79d431	-0.060993377
35	0xbd6a5b77	-0.057216134
36	0x3a2c62b5	0.0006575988
37	0x3d48ee85	0.049055595
38	0xbc8fb8e8	-0.017544225
39	0xbda37ea9	-0.07983143
40	0xbb527309	-0.0032112023
41	0x3ce5230d	0.027970815
42	0xbb2bdcff	-0.0026224253
43	0xbd6040c0	-0.05474925
44	0x3d32283d	0.043495405
45	0x3db49e53	0.088192604
46	0xbd4d2440	-0.0500834
47	0xbbb6b084	-0.0055752415
48	0x3db50d1e	0.088403925
49	0xbc881b92	-0.016614709
50	0xbd0e5130	-0.034745395
51	0x3ccde406	0.025133144
52	0xbd7e997f	-0.062158104
53	0x3c6f6c32	0.014613198
54	0xbd1c116a	-0.038102545
55	0x3d866d34	0.065637976
56	0x3d3b9f8a	0.045806445
57	0x3d6e8700	0.058234215
58	0xbd37430b	-0.04474167
59	0x3da8c51e	0.08240722
60	0xbdb39961	-0.08769489
61	0x3c6ab1bf	0.0143246045
62	0xbd9bfecf	-0.0761696
63	0x38cd2356	9.7817436e-05
64	0xbd3fb0ab	-0.046799343
65	0x3d83db9b	0.06438371
66	0x3c2e8adf	0.010653227
67	0x3db3b448	0.0877462
68	0xbda72970	-0.081622005
69	0xbd270716	-0.040778242
70	0xbdb00873	-0.085953616
71	0x3c43580e	0.011922849
72	0x3d047061	0.032333735
73	0xbdab7a53	-0.08372941
74	0x3db8df71	0.09026993
75	0xbb2aa40e	-0.0026037726
76	0xbd27fb8f	-0.04101139
77	0x3d8e137f	0.06937312
78	0x3da1c13b	0.07898184
79	0xbd55fe56	-0.052244507
80	0x3ce4291b	0.027851632
81	0x3d9abc3b	0.07555433
82	0x3d9574d8	0.07297677
83	0x3b762bd4	0.0037562745
84	0xbdb3edec	-0.08785614
85	0xbc6bc3bf	-0.014389931
86	0xbd7dd659	-0.061971996
87	0xbd7988ce	-0.060921483
88	0xbd113c5d	-0.035457958
89	0x3bace114	0.005275855
90	0x3c5fc55d	0.013657895
91	0x3b34b96a	0.0027576336
92	0x3cd0a438	0.02546893
93	0x3ca511d0	0.020150095
94	0xbc8bda68	-0.017071918
95	0xbda8971a	-0.08231945
96	0xbd19da39	-0.03756163
97	0x3af9d9fd	0.0019062158
98	0x3ccf851a	0.025332022
99	0x3d3febaa	0.046855606
100	0x3d479af1	0.048731748
101	0xbad3e324	-0.0016165716
102	0x3db387d0	0.087661386
103	0x3d0309c2	0.031991728
104	0xb8d621bf	-0.00010210601
105	0x3dac89d1	0.08424724
106	0xbc393342	-0.011303725
107	0xbd7a3068	-0.06108132
108	0x3db29391	0.08719552
109	0xbd832443	-0.06403401
110	0xbd948601	-0.07252122
111	0x3ca46137	0.020065887
112	0xbd5b9ca3	-0.053616177
113	0x3c37e3a5	0.011223708
114	0xba87dfe9	-0.0010366413
115	0x3d9e9569	0.077433415
116	0xbc728af1	-0.014803634
117	0xbcc0db8c	-0.023542188
118	0xbd72fff0	-0.059326112
119	0xbcc29cbb	-0.023756376
120	0xbd8e06a4	-0.0693486
121	0x3d6bc129	0.05755726
122	0xbd84ac9b	-0.064782344
123	0xbd0ee93d	-0.034890402
124	0xbda92b3b	-0.08260199
125	0xbd2a4893	-0.04157312
126	0x3db1f3d4	0.08689085
127	0x3d8c6e67	0.06856995

actor.linear2.weight f4 [128, 128]
0	0x3d719a16	0.05898484
1	0xbd4f1505	-0.050557155
2	0x3dad07b9	0.084487386
3	0xbd27f122	-0.041001447
4	0xbd8e0918	-0.06935328
5	0x3c4b760a	0.012418279
6	0xbd880bc7	-0.06642871
7	0xbd744f67	-0.059646036
8	0x3d916bc6	0.07100634
9	0x3d2195f4	0.039449647
10	0xbda9753c	-0.08274314
11	0x3d98e897	0.07466238
12	0x3cd10163	0.025513357
13	0xbd1c07c1	-0.038093332
14	0x3d1f4318	0.038882345
15	0xbd91f504	-0.07126811
16	0x3bd80da8	0.006593425
17	0xbd4fe2b6	-0.050753318
18	0x3d41e678	0.047338933
19	0x3d66afda	0.05632005
20	0x39de8fec	0.0004245037
21	0xbcc4c76d	-0.024020875
22	0xbbd6a155	-0.006549994
23	0xbc45645c	-0.012047853
24	0x3d149c2d	0.036281753
25	0xbd232b16	-0.03983601
26	0x3d91d6e0	0.07121062
27	0x3cf59540	0.029978395
28	0xbc879bed	-0.016553843
29	0xbcf242c9	-0.029572861
30	0x3d91b11a	0.071138576
31	0xbd9c1109	-0.07620437
32	0x3d1656db	0.036703926
33	0xbd9ca44f	-0.07648527
34	0xbd33e57e	-0.043920033
35	0x3d08d698	0.033407778
36	0xbd43d426	-0.047809742
37	0xbd272646	-0.040807985
38	0xbd3aef7e	-0.045638554
39	0xbcf44999	-0.02982025
40	0xbce4e723	-0.027942246
41	0x3ce775d8	0.028254434
42	0x3d936c7b	0.071984254
43	0xbd76e94d	-0.060281087
44	0xbd9f2c77	-0.07772153
45	0xbd94b265	-0.072605886
46	0xbc44c0ee	-0.012008889
47	0xbd9308b7	-0.071793966
48	0x3d723ab3	0.05913801
49	0xbcd9cbab	-0.026586374
50	0xb99110e1	-0.0002766913
51	0xbccbafc8	-0.024864092
52	0xbcb13df3	-0.021635985
53	0x3d464421	0.048404817
54	0xbd5191b5	-0.051164348
55	0x3d4315ed	0.047628332
56	0x3d31a1ae	0.04336708
57	0x3c1a6670	0.009423837
58	0xbd3c9ec9	-0.046049867
59	0xbda3ec30	-0.080040336
60	0x39bed7a7	0.00036400298
61	0x3d98eb46	0.0746675
62	0x3b8ae788	0.0042390265
63	0x3d53b06c	0.05168192
64	0xbce18fc9	-0.027534382
65	0xbcdce380	-0.02696395
66	0x3d8949fa	0.06703563
67	0xbda99f13	-0.08282294
68	0x3d5bc5a1	0.05365527
69	0xbdae3703	-0.085065864
70	0xbd488a9a	-0.048960306
71	0x3ba02dab	0.0048882565
72	0x3c98cdc8	0.018652812
73	0x3ca3c5ef	0.019991843
74	0x3c8506a9	0.016238527
75	0x3cbaf29b	0.022820761
76	0xbd4ee702	-0.050513275
77	0xbda95cb6	-0.08269636
78	0x3cb7aa12	0.022419963
79	0x3d875882	0.066086784
80	0xbd2635e5	-0.04057874
81	0xbba1f7d1	-0.004942872
82	0x3a31292f	0.0006758151
83	0x3c57927b	0.013157482
84	0xbd964ee2	-0.073392645
85	0x3cb4e4d4	0.02208177
86	0x3d894a2a	0.06703599
87	0xbce64825	-0.028110573
88	0x3d82ad09	0.0638066
89	0x3da55f2e	0.08074795
90	0xbc954a05	-0.018223772
91	0x3b84f179	0.004057106
92	0xbd9bec3b	-0.07613417
93	0x3d5c3467	0.053760912
94	0x3d2bd5ab	0.041951817
95	0xbd4ddb4a	-0.05025796
96	0x3db19f49	0.08672959
97	0x3d213aaa	0.039362587
98	0xbd6312fb	-0.055438023
99	0xbc531b8b	-0.012884985
100	0x3db11ae6	0.086477086
101	0xbd86cfbd	-0.06582592
102	0xbd8c8926	-0.068620965
103	0x3cdfc483	0.027315384
104	0x3cb3e61f	0.021960316
105	0x3d0153f7	0.031574216
106	0x3d3874e0	0.045033336
107	0xbd896e76	-0.06710522
108	0xbd07a915	-0.033120234
109	0xbb97210b	-0.0046120933
110	0xbd6be64b	-0.05759267
111	0x3d6a003b	0.057129126
112	0x3d41c88f	0.04731041
113	0xbd9bdcb5	-0.07610456
114	0xbcb73a21	-0.022366585
115	0xbd9cdec6	-0.07659678
116	0x3da8d4db	0.08243724
117	0x3d0f5a59	0.03499827
118	0x3caff1ca	0.021477599
119	0x3c2acdb7	0.010425023
120	0xbc6ec0f0	-0.014572367
121	0xbc8c794d	-0.017147684
122	0x3d8306d1	0.063977845
123	0xbd56d5c3	-0.052449953
124	0x3cd48bb0	0.025945514
125	0xbd7d0a2b	-0.061777275
126	0xba510126	-0.00079728884
127	0xbc1ddce6	-0.009635186
128	0x3c848cbf	0.016180394
129	0xbc4db023	-0.012554201
130	0xbd4d9811	-0.05019385
131	0xbd61779d	-0.055045713
132	0xbd411db1	-0.047147457
133	0x3c2df15e	0.010616628
134	0x3c0879d2	0.0083298255
135	0xbcbac05b	-0.0227968
136	0xbd7830de	-0.06059348
137	0x3d898ace	0.06715928
138	0xbce41b74	-0.027845122
139	0x3cc22501	0.023699285
140	0xbd940c96	-0.07228963
141	0x3a4ef719	0.0007895097
142	0x3d273634	0.040823177
143	0xbc40a485	-0.0117579745
144	0x3c6fb555	0.014630635
145	0xbd88667b	-0.066601716
146	0x3d6f00a1	0.05835021
147	0x3da63645	0.0811582
148	0xbd0e6ed3	-0.03477366
149	0xbd60498a	-0.054757632
150	0xbc7a2bb6	-0.015269211
151	0x3bee13e1	0.0072655533
152	0xbdace41c	-0.08441946
153	0x3d7b3e88	0.06133893
154	0xbd82c77f	-0.06385707
155	0x3cb02c9c	0.021505646
156	0xbd8d73aa	-0.06906827
157	0xbd207ff3	-0.039184522
158	0x3da1ec10	0.079063535
159	0xbdb7357d	-0.08945749
160	0x3da79116	0.0818197
161	0xb8c9fe84	-9.631834e-05
162	0xbda1b5f6	-0.078960344
163	0xbd72c77c	-0.059272274
164	0xbd501ad9	-0.050806854
165	0x3da1a7e8	0.07893354
166	0x3da6ed51	0.08150733
167	0x3dad7302	0.084692016
168	0x3db1cc49	0.086815424
169	0x3d4a5bd8	0.049403995
170	0xbc63d035	-0.013904621
171	0x3d977418	0.0739519
172	0xbda5ae2f	-0.080898635
173	0xbd5fd37c	-0.054645047
174	0x3cdab241	0.026696326
175	0x3d314557	0.04327902
176	0x3db82058	0.08990544
177	0xbc4f3760	-0.01264748
178	0xbc55874e	-0.013032747
179	0xbd59e011	-0.053192202
180	0xbd659b5a	-0.056056358
181	0xbdac4ef4	-0.084134966
182	0xbbd27585	-0.006422701
183	0x3d8deece	0.06930314
184	0x3d936698	0.071973026
185	0xbd0d7f2a	-0.0345451
186	0xbca186ea	-0.019717652
187	0xbcf6d47d	-0.03013062
188	0xbd148716	-0.03626164
189	0xbdae4ab6	-0.08510344
190	0x3d90cd08	0.070703566
191	0x3d73251b	0.05936156
192	0xbcf2f694	-0.029658593
193	0xbcd5096f	-0.026005475
194	0x3c68431b	0.014176155
195	0xbd9ed823	-0.077560686
196	0x3d80ea80	0.06294727
197	0x3c8cd3da	0.017190862
198	0x3d27b3a1	0.04094279
199	0x3d26de04	0.040739074
200	0x3db1021a	0.08642979
201	0xbd64ed33	-0.055890273
202	0x3c6aa1f8	0.014320843
203	0x3dab4863	0.08363416
204	0xbd3280ff	-0.04358005
205	0x3dbbb14c	0.09164676
206	0x3d9e8663	0.07740476
207	0x3cfde51b	0.030993035
208	0x3d0ec411	0.034854952
209	0x3caa17ff	0.020763395
210	0xbc4f5f05	-0.012656932
211	0xbcde518b	-0.027138492
212	0xbd477a81	-0.048700813
213	0x3d6edcfb	0.058316212
214	0x3d118931	0.035531227
215	0xbd24ab01	-0.040202145
216	0xbd0db6fc	-0.034598336
217	0xbdb40ce8	-0.08791524
218	0xbd9b5a74	-0.07585612
219	0xbdadab49	-0.08479936
220	0xbc8742a3	-0.016511267
221	0x3d57edcb	0.05271701
222	0x3d579c1a	0.052639104
223	0xbda7ae93	-0.08187594
224	0xbbd33f7e	-0.006446778
225	0x3c0566bb	0.008142169
226	0x3b233cfe	0.002490818
227	0xbd76244d	-0.060093213
228	0x3d1b5b1d	0.03792869
229	0x3da06a6c	0.07832798
230	0x3cbe4d7b	0.023230305
231	0x3d34d606	0.04414942
232	0xbd8494af	-0.06473672
233	0xbd4b9a01	-0.049707416
234	0x3d58837e	0.052859776
235	0x3d30c286	0.043154262
236	0x3c1972c6	0.009365743
237	0xbb4c2c69	-0.00311544
238	0xbd22b6ac	-0.03972499
239	0xbd82a2f1	-0.06378735
240	0x3d03323e	0.032030337
241	0xbd9a62b4	-0.075383574
242	0xbd6d26d2	-0.05789835
243	0xbd08d4e4	-0.033406153
244	0xbd91851a	-0.07105465
245	0xbd448eb5	-0.04798766
246	0xbd035365	-0.032061953
247	0x3d7ca1e1	0.061677817
248	0xbcfaca00	-0.0306139
249	0xbc273b94	-0.010207076
250	0xbc3f4e5c	-0.011676397
251	0x3db72f39	0.08944554
252	0xbd137e5b	-0.036009174
253	0xbd0b6b76	-0.03403803
254	0x3d83527f	0.06412219
255	0x3d64e788	0.055884868

actor.linear2.bias f4 [128]
0	0xbdac82ac	-0.08423361
1	0x3d868066	0.06567459
2	0xbd8e3bd4	-0.06945005
3	0xbd655dc6	-0.055997632
4	0xbd47509e	-0.048660867
5	0xbd0d432e	-0.034487896
6	0x3d8df282	0.0693102
7	0xbd028514	-0.031865194
8	0x3c7fdaa6	0.015616095
9	0x3d8f0941	0.06984187
10	0xbd0879eb	-0.033319395
11	0x3d9f178d	0.07768164
12	0xbd828eac	-0.06374869
13	0x3d8bcadc	0.06825802
14	0x3d28f1ce	0.041246228
15	0xbd96e07f	-0.07367038
16	0x3c962d17	0.018332047
17	0xbbc67f67	-0.006057668
18	0x3d8f5ce1	0.07000137
19	0xbd90b798	-0.07066268
20	0xbd2ddea2	-0.042448647
21	0x3ba906ce	0.005158282
22	0xbd6ed7b7	-0.05831119
23	0xbbbf7adb	-0.005843503
24	0xbd16a051	-0.036773983
25	0xbd4f51e9	-0.050615225
26	0x3cb7b7a1	0.022426428
27	0xbd6d4670	-0.057928503
28	0x3cebb1c8	0.028771296
29	0x3ac7a117	0.0015230504
30	0xbd4f1be6	-0.050563715
31	0x3d17b8e6	0.037041567
32	0xbd05ad32	-0.032635875
33	0x3bbdde5d	0.00579433
34	0x3d677518	0.056508154
35	0x3d9a016c	0.075198025
36	0x3d279eb9	0.040922854
37	0x3d76048f	0.06006294
38	0x3d2d9594	0.042378977
39	0xbd6322c9	-0.055453096
40	0xbd32fe4d	-0.04369955
41	0x3d7b8fc9	0.06141642
42	0xbd5280ee	-0.05139249
43	0xbd9a47cf	-0.07533228
44	0x3c2a31b9	0.010387831
45	0x3d0d8303	0.03454877
46	0x3d87b302	0.0662594
47	0xbd226259	-0.039644573
48	0x3c7f3cbf	0.015578448
49	0xbd72d7cb	-0.059287827
50	0xbda70f98	-0.08157271
51	0x3d08216e	0.033235006
52	0xbc64a676	-0.013955703
53	0x3d0cba15	0.03435715
54	0xbd52c428	-0.0514566
55	0x3b266a2b	0.002539287
56	0xbca21069	-0.019783216
57	0xbda17ba8	-0.07884914
58	0x3c7abaca	0.015303323
59	0xbda462b6	-0.0802664
60	0x3cefcf21	0.029273571
61	0x3d720dd9	0.059095237
62	0xbd76ca41	-0.060251478
63	0xbca0734b	-0.019586226
64	0xbd161fdb	-0.036651473
65	0xbbc9e1ac	-0.0061609354
66	0x3cb080da	0.021545816
67	0x3d1889bb	0.037240725
68	0xbc91685d	-0.01774996
69	0xbd5fc0ab	-0.054627102
70	0x3c21b175	0.009868969
71	0x3dae6d87	0.085169844
72	0xbd9ff722	-0.07810809
73	0x3d992180	0.07477093
74	0x3db21407	0.08695226
75	0xbd989df3	-0.074520014
76	0xbd0e6679	-0.034765694
77	0xbdab4fd0	-0.083648324
78	0xbca82389	-0.020524757
79	0x3daf189c	0.08549616
80	0xbcc4b255	-0.024010817
81	0xbd1a2344	-0.03763129
82	0xbc460989	-0.012087234
83	0xbc90bfd8	-0.017669603
84	0x3c306048	0.010765143
85	0xbd3c85af	-0.046025928
86	0x3d903819	0.0704195
87	0x3d01beae	0.031675987
88	0xbd9a1862	-0.07524182
89	0xbb0e51b6	-0.0021716184
90	0xbda61ba3	-0.0811074
91	0x3beaa1ac	0.007160386
92	0x3d9b8875	0.075943865
93	0x3c87d934	0.016583063
94	0xbdac9b7d	-0.084280945
95	0xbd9df471	-0.07712639
96	0x3b45d8d6	0.0030189059
97	0x3cfec6b3	0.031100607
98	0xbdabb0ee	-0.08383356
99	0x3cf22a2b	0.029561123
100	0x3d822e95	0.06356541
101	0xbbc9102f	-0.0061359624
102	0x3d979793	0.07401957
103	0xbcd098fa	-0.02546357
104	0xbd9a3669	-0.07529909
105	0x3b7fb6f7	0.0039018968
106	0xbd730315	-0.05932911
107	0x3a1e3e6e	0.00060365244
108	0xbcb24e2c	-0.02176579
109	0x3d4e24aa	0.050327934
110	0x3c1d3877	0.009595982
111	0x3d38de96	0.04513415
112	0xbcea46b1	-0.028598161
113	0x3daf3304	0.08554652
114	0x3cd14840	0.025547147
115	0x3ce05792	0.027385507
116	0x3d0aeaa0	0.033915162
117	0x3d4abf9e	0.049499147
118	0x3b2c87a7	0.0026325972
119	0xbccf0ff0	-0.025276154
120	0x3d85eb5e	0.06539033
121	0xbd982577	-0.07429021
122	0x3d13a8af	0.03604954
123	0xbd31c44d	-0.043400098
124	0xbd2d5260	-0.042314887
125	0xbc246831	-0.010034607
126	0x3daa1fa8	0.08306819
127	0x3d1a0e8c	0.03761153

actor.linear3.weight f4 [128, 128]
0	0xbc875ed1	-0.016524704
1	0x3bb578bd	0.0055380748
2	0x3d9dc0a7	0.07702761
3	0x3d49da3a	0.049280383
4	0x3b25912a	0.0025263526
5	0x3d306327	0.04306331
6	0x3d8a024a	0.06738718
7	0x3d143320	0.03618157
8	0xbcfe33e4	-0.031030603
9	0xbdb0d164	-0.08633688
10	0x3d593003	0.053024303
11	0xbdab2a05	-0.08357624
12	0xbda94f46	-0.08267073
13	0x3d333085	0.043747444
14	0x3d29922a	0.04139916
15	0xbd9e42d9	-0.07727594
16	0x3c800028	0.015625075
17	0xbbaac66c	-0.005211642
18	0xbc147fa4	-0.009063635
19	0x3da24ce3	0.07924821
20	0x3c4af25b	0.012386884
21	0x3c143f9c	0.009048369
22	0x3d279ba1	0.040919904
23	0x3c320b45	0.010866945
24	0x3c373086	0.0111810025
25	0x3d10a772	0.03531594
26	0x3d5354e3	0.051594626
27	0xbb9d1662	-0.004793928
28	0x3ca55f1c	0.020186953
29	0xbd1e7499	-0.038685415
30	0xbc01f833	-0.00793271
31	0xbd648a55	-0.055795986
32	0x3cbf9043	0.023384219
33	0xbc8dcf7a	-0.017310847
34	0x3c9d4376	0.019197207
35	0x3d9da427	0.07697325
36	0xbda04e7b	-0.07827469
37	0x3d63c94b	0.05561189
38	0xbd4421ec	-0.047883913
39	0x3d15e195	0.036592085
40	0xbd82f14b	-0.06393679
41	0x3d075a5f	0.03304517
42	0x3cb4940f	0.022043256
43	0xbc66f25e	-0.014095871
44	0xbd336cd9	-0.043804977
45	0x3dadcb71	0.08486069
46	0x3daffcbf	0.08593129
47	0xbca0ec6e	-0.019643988
48	0x3cef69e5	0.0292253
49	0xbcbea614	-0.023272552
50	0xbd2ce606	-0.042211555
51	0x3d3dc888	0.04633382
52	0xbd1ac7d8	-0.037788242
53	0xbc7a09eb	-0.015261154
54	0xbda582e3	-0.08081605
55	0x3db96f26	0.09054403
56	0x3d17159f	0.036885854
57	0xbd931fb3	-0.071837805
58	0xbd64068f	-0.055670317
59	0xbc80a0d0	-0.015701681
60	0x3d84ea1d	0.06489966
61	0x3d8285f8	0.06373209
62	0xbd2cbceb	-0.042172354
63	0xbcbcd49c	-0.023050599
64	0xbd826ac6	-0.06368022
65	0x3d360ea7	0.044447567
66	0x3c8c05e4	0.017092653
67	0x3cc11285	0.023568401
68	0xbd381b7c	-0.044948086
69	0xbc947270	-0.018120974
70	0xbd70bd28	-0.058774143
71	0xbd58369a	-0.052786447
72	0x3d42bf44	0.047545686
73	0x3d413c83	0.04717685
74	0xbce9664e	-0.028491165
75	0x3d52b0b0	0.051438034
76	0x3cf4f87b	0.029903641
77	0x3c9c53bb	0.019082895
78	0x3d9fd764	0.078047544
79	0xbd500f36	-0.050795756
80	0xbc5e185b	-0.0135556115
81	0x3c9bdad8	0.019025251
82	0x3cb5fab8	0.022214279
83	0xbd09fc8a	-0.033688106
84	0x3d417683	0.047232162
85	0xbd935821	-0.07194544
86	0xbc7f445a	-0.015580261
87	0xbc2b9d7a	-0.010474557
88	0xbd84eb35	-0.06490175
89	0xbd160f42	-0.036635645
90	0xbdb832f7	-0.08994096
91	0xbd1b4164	-0.03790416
92	0xbd29f6f3	-0.041495275
93	0x3d771b62	0.06032885
94	0xbd22c148	-0.03973511
95	0xbd979705	-0.074018516
96	0x3d7da171	0.06192154
97	0xbd8dd554	-0.06925455
98	0xbd2f178b	-0.04274706
99	0x3c5eb79c	0.013593581
100	0xbd322b33	-0.04349823
101	0xbd9d21ad	-0.07672439
102	0x3d2a6c0e	0.041606955
103	0x3c67ae8e	0.014140738
104	0xbb13aa2b	-0.0022531848
105	0x3d0f975e	0.035056464
106	0x3d932714	0.07185188
107	0x3b8181ab	0.003952225
108	0x3d997e7b	0.07494827
109	0x3d889105	0.06668285
110	0x3d35bd52	0.044370003
111	0x3c593f54	0.0132597275
112	0xbd8f13a2	-0.069861665
113	0x3a9c09be	0.0011904759
114	0x3c64dc5d	0.013968554
115	0x3d7bcc9e	0.061474435
116	0xbd53c08d	-0.051697303
117	0x3d4f3ec7	0.05059698
118	0xbd4e155e	-0.050313346
119	0x3d3cb2e0	0.046069026
120	0xbd69fd1f	-0.05712616
121	0xbc3df543	-0.0115941195
122	0x3d88e84f	0.06684934
123	0x3c5de30d	0.013542903
124	0x3c84f078	0.016227946
125	0xbbecc08b	-0.0072251013
126	0xbd72529b	-0.05916081
127	0xbd01e86e	-0.031715803
128	0x3d24eada	0.040263034
129	0x3c316ef1	0.010829673
130	0xbcbeff2b	-0.023315033
131	0x3d4bf785	0.0497966
132	0x3c7beee6	0.015376782
133	0xbcc84c30	-0.024450392
134	0x3d0005a1	0.03125537
135	0x3c84734d	0.016168261
136	0x3d9569b4	0.07295552
137	0x3da585f7	0.080821924
138	0xbc34152a	-0.010991374
139	0x3b83561d	0.0040080682
140	0x3d47d33b	0.04878543
141	0x3ce436f4	0.027858235
142	0x3c9641f6	0.018342
143	0x3d3b1f5b	0.0456842
144	0xbcd95e2b	-0.02653416
145	0x3d7d9106	0.061905883
146	0x3c6cd0d3	0.014454084
147	0x3d8ec855	0.06971804
148	0x3d5d0150	0.05395633
149	0x3d143fb4	0.036193565
150	0x3bc24914	0.0059291217
151	0x3da80098	0.08203238
152	0x3b49f590	0.0030816533
153	0xbd2de41d	-0.042453874
154	0xbcbd98d8	-0.02314417
155	0xbd208d80	-0.039197445
156	0xbdaad266	-0.083409116
157	0x38caeb20	9.675906e-05
158	0xbc88d0c3	-0.016701108
159	0x3c588d85	0.013217335
160	0xbc9a41ce	-0.018830206
161	0x3db4759b	0.08811494
162	0x3d9fcb33	0.07802429
163	0x3da375d1	0.07981456
164	0xbdb3e068	-0.087830365
165	0x3cf8e439	0.030382263
166	0x3c4494cf	0.011998369
167	0x3d5b4d53	0.05354054
168	0xbd066f86	-0.0328212
169	0x3d0729eb	0.03299896
170	0x3c9e7e67	0.019347383
171	0xbcfb8b8f	-0.030706195
172	0x3b38c0ae	0.0028191018
173	0x3c0b7f38	0.008514218
174	0xbda6d8cf	-0.08146822
175	0xbd8d81ef	-0.069095485
176	0xbd06fcd8	-0.032955974
177	0xbce3c244	-0.027802594
178	0x3cca2bc6	0.024679076
179	0xbd147bee	-0.036251
180	0x3d87dbd1	0.066337235
181	0xbd1fc1e1	-0.039003257
182	0xbd93507a	-0.07193084
183	0xbda8bf08	-0.08239561
184	0xbdab3258	-0.08359212
185	0x3d0dada2	0.034589417
186	0xbc88f0a9	-0.016716318
187	0x3d969c01	0.07353974
188	0x3c929f8a	0.01789834
189	0x3cfc8d0a	0.030828971
190	0x3d2007ee	0.039070062
191	0x3d99b5bd	0.07505367
192	0xbcfd4a25	-0.030919144
193	0xbc1a4687	-0.009416229
194	0xbd816f3d	-0.06320045
195	0x3d14f773	0.0363688
196	0xbca74d3c	-0.02042257
197	0xbd47fb3c	-0.04882358
198	0x3d1fb770	0.0389933
199	0xbd0f2f7b	-0.03495739
200	0x3d097734	0.033560947
201	0x3d14e7cd	0.036353875
202	0x3d8491af	0.064730994
203	0xbd905bd6	-0.07048766
204	0xbccecde7	-0.025244666
205	0xbd368deb	-0.044568937
206	0x3da12d03	0.078699134
207	0xbda9fde7	-0.08300381
208	0x3d90cdd5	0.07070509
209	0x3b577ef9	0.0032882078
210	0x3d92e93c	0.07173392
211	0xbd06e7af	-0.032935794
212	0x3b4bdb35	0.0031106
213	0x3d877a13	0.06615081
214	0x3d93188b	0.071824156
215	0xbcdc2f74	-0.026878096
216	0xbc47ce63	-0.0121952025
217	0xbda1a452	-0.0789267
218	0x3d11f765	0.035636324
219	0x3d109466	0.035297774
220	0x3c7417a8	0.014898218
221	0x3c86ce17	0.016455693
222	0xbdac0559	-0.083994575
223	0x3c3014d3	0.010747152
224	0xbd11255d	-0.035436023
225	0x3cda71e5	0.026665637
226	0xbc6e5189	-0.014545807
227	0xbdac4dda	-0.084132865
228	0xbd8162e9	-0.06317694
229	0x3cc3652f	0.023851959
230	0xbd96db94	-0.073661
231	0xbcce9969	-0.025219636
232	0xbc0b7837	-0.008512548
233	0x3d4d9683	0.050192367
234	0xbc138f1f	-0.009006291
235	0xbcaa77f4	-0.020809151
236	0x3cc78cfe	0.024359223
237	0x3daf2e60	0.08553767
238	0xbdb1f37f	-0.08689021
239	0x3d07263e	0.032995455
240	0xbd0fd4ab	-0.035114925
241	0xbd3fc72f	-0.046820816
242	0xbd313a18	-0.043268293
243	0x3d81a7c0	0.06330824
244	0x3d8e9834	0.06962624
245	0xbc8447ad	-0.016147459
246	0xbd99c470	-0.075081706
247	0xbd67fea6	-0.056639336
248	0xbd83edd7	-0.06441849
249	0x3bd4ade2	0.006490455
250	0xbd12ad77	-0.03580996
251	0x3d274356	0.0408357
252	0x3d673801	0.056449894
253	0x3d05743f	0.032581564
254	0x3d8fd79e	0.070235476
255	0x3cd0e776	0.025500994

actor.linear3.bias f4 [128]
0	0xbd869a00	-0.06572342
1	0xbd588ac7	-0.052866723
2	0x3d60bf46	0.054869913
3	0xbd18af47	-0.037276533
4	0x3d91c576	0.07117741
5	0x3cac6de2	0.02104849
6	0xbd6923bd	-0.05691885
7	0x3d19696f	0.037454065
8	0xbced2e06	-0.02895261
9	0x3bb667da	0.0055665793
10	0x3d4ef830	0.05052966
11	0x3d96fe87	0.07372766
12	0xbd89b5a2	-0.06724097
13	0x3bdac179	0.006675896
14	0x3c39acf6	0.011332741
15	0x3c93a278	0.018021807
16	0x3da005ae	0.07813583
17	0xbd7145a5	-0.05890431
18	0xbc91a9bf	-0.017781137
19	0xbdac15d9	-0.084026046
20	0x3d800584	0.06251052
21	0xbdaacb49	-0.08339555
22	0xbd374921	-0.044747476
23	0x3c1b95bc	0.009496149
24	0xbd322ac6	-0.043497823
25	0xbd7b22de	-0.06131255
26	0xbd1b577b	-0.037925225
27	0x3c8f47f7	0.01749037
28	0xbdaf1d9e	-0.08550571
29	0xbd60b5c3	-0.05486084
30	0x3d25d461	0.040485743
31	0xbc800805	-0.015628824
32	0xbd452c85	-0.04813816
33	0xbadf850f	-0.0017053204
34	0x3da57377	0.08078664
35	0x3a1064c5	0.000550818
36	0xbd907934	-0.07054368
37	0x3c20ed70	0.0098222345
38	0xbd85313e	-0.06503533
39	0x3d3fb931	0.04680747
40	0x3d832e73	0.06405344
41	0xbda4eb4c	-0.08052692
42	0x3d44c9ef	0.04804414
43	0xbcc5ae06	-0.024130832
44	0xba3701fb	-0.0006981191
45	0xbd95d4e2	-0.07315995
46	0x3daa4a52	0.08314957
47	0xbdaca2f5	-0.08429519
48	0x3d870969	0.06593592
49	0xbd755bb6	-0.059901915
50	0x3b72622e	0.003698479
51	0x3d2f5a84	0.04281093
52	0xbd9bcade	-0.07607053
53	0x3bef9786	0.007311764
54	0xbdaf49ce	-0.08558999
55	0xbd8f793a	-0.07005544
56	0x3bd520a3	0.0065041347
57	0x3d040a43	0.03223635
58	0x3ce3acc3	0.02779234
59	0x3cd8332e	0.026391592
60	0xbd219bfa	-0.03945539
61	0x3d238b21	0.039927606
62	0xbcb726f1	-0.022357436
63	0x3d758b73	0.059947442
64	0xbce7636c	-0.02824565
65	0x3da6f2db	0.0815179
66	0xbd9b67b4	-0.07588139
67	0xbd2923a7	-0.041293766
68	0x3c299c22	0.010352166
69	0x3d67bf8e	0.056579165
70	0xbd63bdcb	-0.055600923
71	0xbd0dc557	-0.034612026
72	0xbca9fcff	-0.02075052
73	0xbd84144a	-0.06449182
74	0xbda40c5f	-0.08010172
75	0xbc86f14e	-0.016472485
76	0x3daff5b6	0.085917875
77	0x3d8e0f48	0.069365084
78	0x3d5b6820	0.0535661
79	0x3b9ab859	0.004721683
80	0xbd812780	-0.06306362
81	0xbd877f12	-0.066160336
82	0xbda0fb07	-0.0786038
83	0xbba16828	-0.0049257465
84	0xbc9a9509	-0.018869894
85	0xbd7c2fe2	-0.061569102
86	0xbdb351b3	-0.08755817
87	0x3d736ec6	0.059431814
88	0x3b7eb08d	0.0038862557
89	0x3d8c4fdb	0.06851169
90	0x3bbff3af	0.005857907
91	0x3d1d3559	0.038380954
92	0xbb9d1fd8	-0.004795056
93	0x3d7681ad	0.060182262
94	0x3c6e4ca7	0.0145446425
95	0x3ccfa729	0.025348263
96	0xbd318b29	-0.043345604
97	0x3d2f9f89	0.042876754
98	0xbd99abf9	-0.07503504
99	0xbd91b479	-0.071145006
100	0xbd3643be	-0.044498198
101	0x3d58e2fa	0.052950837
102	0x3bfcefbc	0.0077190083
103	0x3d78e15b	0.06076179
104	0x3d85b739	0.065290876
105	0xbd0ea45e	-0.03482472
106	0x3d667dff	0.056272503
107	0xbdb21642	-0.086956516
108	0x3d144a27	0.03620353
109	0xbd23f305	-0.040026683
110	0xbc944b82	-0.018102411
111	0xb9e2bee8	-0.00043248315
112	0xbcb4fdd3	-0.02209369
113	0x3b4a1474	0.0030834945
114	0x3c0217a0	0.007940203
115	0xbd022a05	-0.031778354
116	0xbd31e86e	-0.043434553
117	0xbc657746	-0.014005488
118	0xbd359953	-0.044335674
119	0x3a0dc7d7	0.00054085016
120	0xbca7019b	-0.020386508
121	0xbdbbe188	-0.09173876
122	0xbc9ddeae	-0.019271221
123	0x3b8d60ab	0.0043145022
124	0xbd01fb08	-0.031733543
125	0x3d849cff	0.06475257
126	0x3d9a9467	0.07547837
127	0x3ce2aacb	0.027669331

actor.linear4.weight f4 [9, 128]
0	0xbc3577a0	-0.011075884
1	0x3c884a78	0.016637072
2	0x3d775951	0.060387913
3	0xbd9743a1	-0.07385946
4	0xbd00fe7a	-0.031492688
5	0x3d6abe60	0.057310462
6	0xbdaecd99	-0.085353084
7	0xbda716bf	-0.08158635
8	0x3cc0afe2	0.023521367
9	0x3d5edaa7	0.054407742
10	0xbc559086	-0.013034945
11	0x3c8bcab3	0.017064428
12	0xbd9864d5	-0.07441107
13	0x3c994c5c	0.018713169
14	0xbda596b5	-0.08085386
15	0x3d44c729	0.048041496
16	0xbb565393	-0.0032703623
17	0x3d2f266b	0.042761248
18	0x3d9a5da1	0.075373895
19	0xbd9835ff	-0.07432174
20	0x3d8466db	0.064649306
21	0x3d7cc6db	0.06171308
22	0xbd2af80c	-0.041740462
23	0xbba6acab	-0.0050865016
24	0x3d8f3d85	0.06994156
25	0xbdab5cd2	-0.083673134
26	0xbd15684c	-0.03647642
27	0xbd8440d2	-0.06457676
28	0x3cae393d	0.021267528
29	0x3d3e3ad7	0.046442833
30	0x3d36a897	0.044594374
31	0x3cee0c39	0.029058563
32	0x3c343cb2	0.011000799
33	0x3c340b6a	0.010989049
34	0x3db17bc1	0.08666182
35	0xbcd20a27	-0.025639607
36	0xbcec5942	-0.028851155
37	0xbcc2bd33	-0.023771858
38	0xbd9b2ea2	-0.07577254
39	0xbdaf9b93	-0.08574595
40	0x3aafffac	0.0013427637
41	0xbda3ac99	-0.07991905
42	0x3d146529	0.036229286
43	0x3d902626	0.07038526
44	0xbd76b191	-0.060227934
45	0xbcbb5f9f	-0.022872744
46	0xbd06783c	-0.03282951
47	0x3c82fe10	0.015990287
48	0x3d3bc964	0.045846358
49	0x3d9ee5ac	0.0775865
50	0x3d9753f6	0.07389061
51	0xbd8072a7	-0.06271868
52	0xbdb70fa8	-0.08938533
53	0x3c52c15b	0.012863482
54	0x3d4c81e4	0.04992856
55	0x3d28fddf	0.041257735
56	0x3db4179f	0.08793568
57	0xbd98c3cd	-0.07459221
58	0xbcfcced6	-0.030860346
59	0x3d5d1bb0	0.053981483
60	0x3cfcf9ae	0.030880775
61	0x3d8b92a0	0.06815076
62	0xbd08cec8	-0.033400327
63	0xbd720e8c	-0.059095904
64	0xbd174468	-0.03693047
65	0x3ca25fbc	0.01982104
66	0xbc89d250	-0.016823918
67	0x3d8017b7	0.06254523
68	0x3da89ade	0.082326636
69	0xbc2a43d4	-0.010392148
70	0xbce8bb5d	-0.028409654
71	0x3cd54703	0.026034838
72	0x3d93b7e3	0.07212808
73	0xbbd94ac0	-0.0066312253
74	0x3d4e18d4	0.050316647
75	0xbbf83be3	-0.0075754984
76	0xbc63c20e	-0.013901247
77	0xbd145431	-0.036213104
78	0xbda97c30	-0.0827564
79	0xbc251857	-0.010076604
80	0x3cac5866	0.021038245
81	0x3d91b181	0.07113934
82	0x3d0869df	0.03330409
83	0xbd9a5e77	-0.07537549
84	0x3daa85e7	0.08326321
85	0xbd21ae08	-0.03947261
86	0x3d73e969	0.05954877
87	0xbd325f6a	-0.043548025
88	0xbd745c1b	-0.05965815
89	0xbd809d5a	-0.062800124
90	0x3db4c15a	0.088259414
91	0xbcd6397e	-0.026150461
92	0x3cd1627f	0.025559662
93	0x3d1771d7	0.0369738
94	0xbdbbcdc6	-0.091701075
95	0x3d37f26c	0.044908926
96	0x3d2b386d	0.04180186
97	0xbcac317f	-0.021019695
98	0xbd83b581	-0.064311035
99	0x3b5951c6	0.0033160313
100	0xbc307cb0	-0.010771915
101	0xbd6d0e70	-0.057875097
102	0xbcf1fa83	-0.029538399
103	0xbd40d89b	-0.04708157
104	0xbd32b16e	-0.04362624
105	0xbd92d519	-0.071695514
106	0xbc16e44e	-0.0092097055
107	0xbc7058a9	-0.014669576
108	0xbcca4b63	-0.02469415
109	0xbc8649fe	-0.016392704
110	0xbc04e4ce	-0.008111192
111	0xbd9eb79f	-0.07749867
112	0xbc32bcc8	-0.010909267
113	0x3cddd452	0.027078781
114	0xbda230a9	-0.079194374
115	0xbcef1315	-0.029183904
116	0x3da5d24a	0.0809675
117	0x3d7321b3	0.05935831
118	0x3d104c30	0.035228908
119	0xb9778f19	-0.00023609064
120	0x3dae4b87	0.085104994
121	0xbbb14f6c	-0.005411079
122	0x3ad0f5bd	0.0015942376
123	0x3d0771b8	0.033067435
124	0x3ce7b3c9	0.02828397
125	0x3d02bc39	0.031917784
126	0xbc57175e	-0.01312813
127	0x3cd08177	0.025452359
128	0x3aa524f8	0.0012599519
129	0x3b40703d	0.0029363774
130	0x3caf132b	0.021371445
131	0x3da30b5d	0.07961152
132	0x3d6d5357	0.057940807
133	0x3cbdae56	0.023154419
134	0x3d1c89bd	0.038217295
135	0xbd690a5a	-0.056894638
136	0x3d451bce	0.04812222
137	0x3d30a89e	0.043129556
138	0x3cd4ff6e	0.026000705
139	0xbd88a1f4	-0.06671515
140	0x3db57c86	0.088616416
141	0x3d895046	0.06704764
142	0x3d021a56	0.031763397
143	0x3d908f1d	0.07058547
144	0xbccd9d99	-0.025099562
145	0x3d1db5a7	0.038503315
146	0xbd7bb4f7	-0.06145188
147	0xbd417df7	-0.04723927
148	0x3d14112b	0.036149185
149	0xbd75328a	-0.05986265
150	0xbc143b05	-0.0090472745
151	0x3daeba17	0.085315876
152	0xbd92ef27	-0.07174521
153	0x3cc65d9b	0.024214556
154	0xbd86f459	-0.06589574
155	0xbc115df0	-0.008872494
156	0xbd2a5cf8	-0.04159257
157	0x3cef8f00	0.029242992
158	0xbd9a6079	-0.07537932
159	0xbbcc7317	-0.0062393057
160	0x3d096900	0.0335474
161	0x3d62ec51	0.05540115
162	0x3d72b57c	0.05925511
163	0x3da8f3b3	0.08249607
164	0x3d9b9dc8	0.07598454
165	0xbd7782d1	-0.06042749
166	0xbd92be8c	-0.0716525
167	0x3da04966	0.078265
168	0x3cf78e20	0.030219138
169	0x3c8ec9cb	0.017430207
170	0xbd3117b3	-0.043235492
171	0xbcaecdea	-0.021338422
172	0xbcb7bffb	-0.02243041
173	0xbd3b9968	-0.045800596
174	0xbd13b564	-0.03606166
175	0x3d91a4d7	0.07111519
176	0x3c7e9a5e	0.015539734
177	0xbd7e02c8	-0.06201437
178	0xbcbe1857	-0.023204966
179	0xbcd9ba93	-0.026578223
180	0x3ceaff60	0.028686225
181	0x3c153314	0.009106416
182	0xbb580987	-0.0032964663
183	0xbbc0a1aa	-0.005878647
184	0x3d7249e9	0.059152517
185	0x3ce04022	0.02737433
186	0x3d2993b2	0.04140062
187	0xbcdf5899	-0.027263926
188	0xbc1594f2	-0.00912975
189	0xbce4afb9	-0.027915822
190	0xb96ac978	-0.00022391032
191	0x3da8af4d	0.08236561
192	0x3beb66aa	0.0071838694
193	0xbd919b7b	-0.07109734
194	0xbd8c3f98	-0.06848067
195	0xbda11f7b	-0.078673325
196	0xbd5e5b02	-0.05428601
197	0xbce34e19	-0.0277472
198	0x399b1da0	0.00029585976
199	0xbd8c881f	-0.068619005
200	0x3d599777	0.053122964
201	0xbda7c497	-0.081917934
202	0x3da8fea6	0.08251695
203	0x3c50b65d	0.012738791
204	0xbd590f83	-0.05299331
205	0xbd628621	-0.055303697
206	0xbd980711	-0.07423223
207	0xbda807ab	-0.082045875
208	0xbd7ace1b	-0.061231714
209	0xbc8fbb6c	-0.017545424
210	0x3c6f7856	0.014616093
211	0xbda49737	-0.080366544
212	0xbd151a88	-0.036402255
213	0xbc07fb42	-0.008299651
214	0xbda37c98	-0.07982749
215	0xbd7fbbd0	-0.06243497
216	0x3cf7c93a	0.03024732
217	0xbda1a115	-0.07892052
218	0xbd57a9e9	-0.052652273
219	0x3d10fc02	0.035396583
220	0xbcd45337	-0.025918586
221	0xbcb5276e	-0.022113528
222	0xbd7511ac	-0.059831306
223	0x3cd3c031	0.02584848
224	0xbd248d69	-0.04017392
225	0xbc84bee5	-0.016204307
226	0x3d91f9a6	0.07127695
227	0xbd1763c1	-0.036960367
228	0xbd489559	-0.048970554
229	0xbc3d6412	-0.011559503
230	0xbc2fd0b1	-0.010730908
231	0xbcc86038	-0.024459943
232	0x3ce36813	0.027759587
233	0xbb84939f	-0.004045918
234	0xbd8ac919	-0.067766376
235	0xbd63d1fb	-0.055620175
236	0x3b257967	0.0025249363
237	0xbda6154e	-0.08109532
238	0x3d9d4092	0.076783314
239	0xbdaedafa	-0.0853786
240	0xbd49b160	-0.049241424
241	0x3bc169a0	0.005902484
242	0x3d297047	0.04136684
243	0x3d9e3d94	0.07726589
244	0xbda8255c	-0.08210251
245	0x3cb42520	0.021990359
246	0xbda17cca	-0.0788513
247	0x3da34262	0.07971646
248	0x3ce8bdee	0.028410878
249	0xbcc0e120	-0.023544848
250	0x3cc76c74	0.024343707
251	0xbbe055e9	-0.006846179
252	0xbda57b1e	-0.08080123
253	0x3ceee767	0.029163076
254	0x3d814e98	0.06313819
255	0xbd99a9cf	-0.075030915

actor.linear4.bias f4 [9]
0	0xbc73eeda	-0.01488849
1	0xbd5e9be5	-0.05434789
2	0x3d3e24b6	0.04642173
3	0xbd837573	-0.06418886
4	0xbd640fb1	-0.055679027
5	0x3c0b14c2	0.008488836
6	0xbd8c8c15	-0.06862656
7	0x3d7e888c	0.06214194
8	0xbd7e8f76	-0.062148534

critic.linear1.weight f4 [128, 120]
0	0x3d1fc061	0.039001826
1	0x3d3ccddf	0.04609477
2	0xbb4be71d	-0.0031113096
3	0x3dd1c90b	0.10243424
4	0xbd19c891	-0.03754479
5	0xbd5b5b83	-0.05355407
6	0x3d83558d	0.06412802
7	0xbc66b6e9	-0.014081695
8	0xbd8f3154	-0.069918305
9	0x3d0986cb	0.033575814
10	0xbdac0380	-0.08399105
11	0xbc05311e	-0.008129386
12	0xbd860c08	-0.065452635
13	0x3d4da2a3	0.05020393
14	0x3d13ee47	0.03611591
15	0x3d8378b9	0.064195104
16	0xbcc130a0	-0.023582757
17	0xbde5fb64	-0.112295896
18	0x3d7b376c	0.06133215
19	0xbd917c37	-0.0710377
20	0x3aebfabf	0.0018003805
21	0x3d37a982	0.04483939
22	0x3d1a4e91	0.037672583
23	0x3c4624d6	0.012093743
24	0xbc843b6e	-0.01614162
25	0xbd040b25	-0.03223719
26	0x3bb64c70	0.0055633113
27	0x3ce19702	0.027537826
28	0x3d85479a	0.065077975
29	0xbda6425f	-0.08118128
30	0xbb7d4f8f	-0.0038652157
31	0x3db89386	0.09012513
32	0xbd3fb84d	-0.046806622
33	0x3d998c88	0.07497507
34	0xbcf57395	-0.02996234
35	0x3db72272	0.08942117
36	0x3d8dee6c	0.06930241
37	0xbd750644	-0.05982043
38	0xbc6a124d	-0.01428659
39	0xbd04c560	-0.032414794
40	0xbcf73826	-0.03017814
41	0xbd8df5a1	-0.069316156
42	0xbba8ef21	-0.0051554595
43	0xbc8c1c39	-0.017103301
44	0x3d9a551b	0.07535764
45	0xbda1a8a1	-0.078934915
46	0x3d709d3a	0.058743693
47	0x3d87f0c7	0.066377215
48	0xbd2a365b	-0.041555744
49	0x3d9492ab	0.07254537
50	0x3d5198f0	0.051171243
51	0xbd7cc14b	-0.061707776
52	0x3d803e8a	0.062619284
53	0x3d32a8c5	0.043617982
54	0x3d6cdee0	0.057829738
55	0xbda29557	-0.079386406
56	0xbd590797	-0.052985754
57	0xbd1aa9bf	-0.03775954
58	0xbd7f6845	-0.0623553
59	0x3daa2a66	0.08308868
60	0x3a6b2385	0.00089698314
61	0x3d8a630e	0.067571744
62	0xbd96a430	-0.07355535
63	0x3d529904	0.05141546
64	0x3b9f26b1	0.0048569073
65	0x3d9a0e94	0.07522312
66	0xbd623495	-0.055225927
67	0xbc6c930c	-0.014439356
68	0x3d678e10	0.056531966
69	0xbd645c96	-0.05575236
70	0x3cf7aeec	0.030234776
71	0x3d9724d5	0.07380072
72	0x3d36f056	0.044662796
73	0xbd5f3cd8	-0.054501384
74	0xbda8e98d	-0.08247671
75	0xbd534aab	-0.05158488
76	0xbd7709c8	-0.060312063
77	0x3ce83aa2	0.02834827
78	0x3c0b678c	0.008508574
79	0xbda2eb8c	-0.07955083
80	0x3d440ef7	0.047865834
81	0xbda57efc	-0.08080861
82	0x3aa02d53	0.0012220539
83	0x3c5ebf4a	0.013595412
84	0xbda9e077	-0.082947664
85	0x3d1ac954	0.037789658
86	0x3d4b48b1	0.04962987
87	0x3c9ab5fd	0.018885607
88	0xbcc3ce26	-0.02390201
89	0xbd8d364e	-0.068951234
90	0xbbd76774	-0.006573612
91	0x3c046fdd	0.008083311
92	0xbb9174fc	-0.0044389945
93	0xbd2d3af7	-0.04229256
94	0xbbffa112	-0.0078011835
95	0x3cb77050	0.022392422
96	0xbcaf8882	-0.021427397
97	0xbc5472c2	-0.0129668135
98	0xbda82862	-0.082108274
99	0xbcc32233	-0.023820018
100	0xbd507c71	-0.050899927
101	0x3db0acfb	0.086267434
102	0xbd7db662	-0.061941512
103	0xbd37f461	-0.044910792
104	0xbc777264	-0.015102956
105	0xbcbc558f	-0.022990016
106	0xbd69167c	-0.05690621
107	0xbd2b5ed4	-0.041838482
108	0xbcf3ebed	-0.029775584
109	0xbd99d5bd	-0.075114705
110	0x3ad5bfe9	0.0016307804
111	0xbd8246f2	-0.06361188
112	0x3d8b3a34	0.06798211
113	0xbd277f24	-0.040892735
114	0x3d7bc52b	0.06146733
115	0x3d0e346b	0.03471796
116	0x3d86ca73	0.06581583
117	0x3d8c35dc	0.0684621
118	0x3c15220f	0.0091023585
119	0x3a96bd0a	0.001150043
120	0x3d9c62d2	0.07636036
121	0x3d5c2b5f	0.0537523
122	0x3da6c942	0.08143856
123	0xbc9490c1	-0.01813543
124	0x3cc46371	0.023973199
125	0x3cd35146	0.02579559
126	0x3d3d78e2	0.04625786
127	0xbd5c8752	-0.05383999
128	0xbc9bd9c4	-0.019024737
129	0xbca52383	-0.020158535
130	0xbd9bfe43	-0.07616856
131	0xbd86d3aa	-0.065833405
132	0xbd296198	-0.04135284
133	0xbd019319	-0.031634424
134	0xbc0576e4	-0.0081460215
135	0xbd8055d6	-0.06266372
136	0x3d25eaaf	0.040507015
137	0xbdaeb545	-0.08530668
138	0x3d62419f	0.055238362
139	0xbd947c9f	-0.07250332
140	0xbd6756f1	-0.0564794
141	0x3d8f32b6	0.06992094
142	0xbd74c3a4	-0.05975689
143	0x3d479944	0.04873015
144	0x3d8a7c75	0.067620195
145	0xbc149db4	-0.0090708025
146	0x3d1cf7f7	0.038322415
147	0xbd9e4b28	-0.07729179
148	0xbdae1954	-0.08500925
149	0x3d8e2fe7	0.069427304
150	0xbdbe5a35	-0.092945494
151	0xbd349ab1	-0.044092838
152	0x3d684d7e	0.056714527
153	0x3c775c3e	0.015097676
154	0x3ca88ab4	0.020573951
155	0x3dc2719a	0.09494324
156	0x3d84c523	0.06482913
157	0xbd8d806e	-0.06909262
158	0xbd109d46	-0.035306238
159	0x3cab17cd	0.020885373
160	0xbce6b171	-0.028160783
161	0xbcf1cb13	-0.029515779
162	0xbcb8ee72	-0.022574637
163	0x3d46d2a6	0.048540734
164	0xbc0b6e2c	-0.008510154
165	0xbd9b1509	-0.075723715
166	0x3d8166e5	0.06318454
167	0x3b686106	0.003545822
168	0xbd8cff8c	-0.06884679
169	0x3cfec98c	0.031101964
170	0xbdb98004	-0.0905762
171	0x3c671e60	0.014106363
172	0x3d83ee12	0.06441893
173	0x3d5f9eb5	0.054594714
174	0x3c0d06b1	0.008607552
175	0x3d866604	0.06562427
176	0xbd9cc771	-0.07655228
177	0xbd903140	-0.07040644
178	0xbb7daa04	-0.0038706074
179	0x3cf5ba88	0.029996172
180	0xbd749d10	-0.0597201
181	0x3d47b654	0.048757866
182	0x3c9dde8b	0.019271156
183	0x3c48b714	0.0122506805
184	0xbd9b261c	-0.07575628
185	0xbd99389d	-0.07481501
186	0xbd5405f6	-0.051763497
187	0xbd296422	-0.04135526
188	0x3c071283	0.00824416
189	0x3cdf8fc0	0.027290225
190	0xb89beb7a	-7.434837e-05
191	0xbcae4e28	-0.021277502
192	0xbc8c005d	-0.017090017
193	0xbd60a490	-0.05484444
194	0xbd99ba93	-0.07506289
195	0xbdca027f	-0.09863757
196	0x3d3229de	0.04349696
197	0xbd0e52de	-0.034746997
198	0x3db9b715	0.09068123
199	0x3c3dadc0	0.01157707
200	0x3d017b8a	0.031611957
201	0x3d60f660	0.05492246
202	0x3c5e41ef	0.0135655245
203	0xbd0b0e69	-0.03394929
204	0x3b44a007	0.003000261
205	0x3d79d9c6	0.0609987
206	0x3d546045	0.051849622
207	0x3d920bde	0.0713117
208	0x3db7cb26	0.08974294
209	0xbd29dee8	-0.041472346
210	0x3d8c3201	0.06845475
211	0xbdabc1ea	-0.083865955
212	0xbb92e2ab	-0.0044825873
213	0x3c698796	0.014253518
214	0xbc6526c1	-0.01398629
215	0xbd4fa0b4	-0.050690368
216	0xbd739646	-0.059469484
217	0x3d731470	0.059345663
218	0x3da2be2a	0.07946427
219	0xbd6eda7c	-0.05831383
220	0x3d827b98	0.0637123
221	0x3dd4f673	0.10398569
222	0x3dae0b90	0.08498299
223	0xbbfc9b75	-0.0077089616
224	0xbd99e58e	-0.07514487
225	0x3d0d99ed	0.034570623
226	0x3d453e89	0.04815534
227	0x3d5263a5	0.05136456
228	0xbdb1a3f5	-0.086738504
229	0x3cc4c32c	0.024018846
230	0xbd0a1bed	-0.03371804
231	0xbd9372ed	-0.07199655
232	0xbd6e8290	-0.058229983
233	0x3db4ce09	0.088283606
234	0xbd7cafac	-0.06169097
235	0xbcce74af	-0.025202123
236	0x3d5467a3	0.05185665
237	0x3d3fe5ae	0.0468499
238	0xbd5f6619	-0.054540727
239	0xbc71d0c4	-0.014759246
240	0x3d938ca3	0.07204559
241	0xbd90e19f	-0.07074284
242	0xbc4adde6	-0.012382006
243	0xbd563529	-0.05229679
244	0xbd4845b8	-0.048894614
245	0xbd1e4727	-0.038642075
246	0x3d983267	0.074314885
247	0xbc9d4528	-0.019198015
248	0x3d9b0f77	0.07571309
249	0x3cd8febc	0.026488654
250	0x3d7cea57	0.06174692
251	0x3d93431d	0.07190535
252	0xbd8015d6	-0.06254165
253	0x3d83839f	0.06421589
254	0x3d915a61	0.070973165
255	0x3cf4740d	0.029840494

critic.linear1.bias f4 [128]
0	0xbd36f4d8	-0.044667095
1	0xbd1c8791	-0.038215224
2	0xbd56f763	-0.05248202
3	0x3c1b60e6	0.009483552
4	0x3cbd400c	0.023101829
5	0x3b4f10aa	0.0031595626
6	0xbc98a07e	-0.018631216
7	0x3d745c3b	0.05965827
8	0xbc447c89	-0.011992582
9	0x3d54a0c3	0.051911127
10	0x3d482c09	0.04887012
11	0x3d4171df	0.047227737
12	0x3bee1f8e	0.007266945
13	0x3cb15ec3	0.021651631
14	0x3d96247b	0.07331177
15	0x3d9632aa	0.07333882
16	0x3d30ddf3	0.043180417
17	0x3c1f04b8	0.009705715
18	0x3d713eca	0.05889777
19	0x3d8a209c	0.06744501
20	0x3cf791fc	0.030220978
21	0xbd911324	-0.07083729
22	0x3b62d3f9	0.0034611209
23	0x3be30780	0.0069283843
24	0x3b74bde8	0.0037344638
25	0x3d728178	0.059205502
26	0x3d1d73f2	0.038440652
27	0xbd3ffdce	-0.046872906
28	0xbcd6ea4e	-0.026234772
29	0x3dcc6df7	0.09981912
30	0xbd841fde	-0.06451391
31	0xbbb3e0a8	-0.0054894276
32	0x3da6aa36	0.08137934
33	0xbd572384	-0.052524105
34	0xbd9e5f1e	-0.07732986
35	0xbcc17e5f	-0.023619829
36	0x3c888f31	0.016669841
37	0xbcbcfb3a	-0.023069013
38	0x3caf9e93	0.021437919
39	0xbdbdd61a	-0.09269352
40	0x3d152cec	0.036419794
41	0xbdc4097b	-0.09572121
42	0x3d2b901d	0.041885484
43	0xbd42ae9b	-0.047529798
44	0xbd9e9550	-0.07743323
45	0x3d9b9efd	0.07598684
46	0x3d3643ef	0.04449838
47	0x3cce4f45	0.025184283
48	0x3daf7f05	0.08569149
49	0x3d2f9bf7	0.04287335
50	0x3dcdf13e	0.10055779
51	0xbd0ff8b5	-0.035149295
52	0xba365c70	-0.0006956523
53	0x3d1fd6c9	0.039023194
54	0x3c676f8c	0.014125716
55	0xbd39d3b4	-0.04536791
56	0x3dd1ff51	0.10253776
57	0x3bf854e9	0.0075784815
58	0xbc36f9e2	-0.011167975
59	0x3bbaef61	0.0057048057
60	0xbcb0a650	-0.021563679
61	0x3d439729	0.04775158
62	0xbda18288	-0.07886225
63	0xbd6212ce	-0.055193715
64	0x3d024938	0.031808108
65	0xbbeba01f	-0.007190719
66	0xbcf8e7ba	-0.030383933
67	0xbd90ada3	-0.070643686
68	0x3c299ab4	0.0103518255
69	0x3dd3aa5e	0.10335229
70	0x3c88f968	0.016720489
71	0x3d209137	0.039200988
72	0xbcd87a21	-0.026425423
73	0xbd4b248a	-0.049595393
74	0xbce8da59	-0.028424429
75	0xbd8db898	-0.06919974
76	0x3d47e896	0.048805796
77	0xbccc2e13	-0.024924314
78	0xbc9919b7	-0.01868902
79	0x3dd9278a	0.106032446
80	0xbd51a97a	-0.051187016
81	0xbd2c26b3	-0.042029094
82	0xbd0606b5	-0.03272124
83	0x3d8353a1	0.06412435
84	0x3d458470	0.048222005
85	0x3d3a699c	0.045510873
86	0xbc46e62d	-0.012139839
87	0xbd691e8b	-0.056913894
88	0xbd449521	-0.047993783
89	0x3d8c3f80	0.06848049
90	0x3da46c9d	0.08028529
91	0xbd450e2d	-0.048109222
92	0x3d402aba	0.046915747
93	0x3d81c879	0.06337065
94	0xbd33b5ca	-0.04387454
95	0xbb1ebdff	-0.0024222133
96	0xbd46398a	-0.048394717
97	0xbce9c7f4	-0.028537728
98	0x3cec8edb	0.028876713
99	0xba4a29b8	-0.0007711905
100	0xbc7bf99f	-0.0153793385
101	0xbdaaf26c	-0.083470196
102	0xbdb72e45	-0.08944372
103	0x3da1c83a	0.07899518
104	0x3cd79688	0.026316896
105	0x38869064	6.416513e-05
106	0xbc4cb08f	-0.012493267
107	0xbd1efc3d	-0.038814772
108	0xbd9a3bcb	-0.07530936
109	0xbd49ebfb	-0.049297314
110	0x3c9d217a	0.019181002
111	0xbd0464c1	-0.03232265
112	0xbdb09e6a	-0.08623965
113	0x3c5e605d	0.0135727795
114	0x3cd7e720	0.026355326
115	0xbd964aeb	-0.07338508
116	0xbd0eac0a	-0.034832038
117	0xbd0b9acf	-0.034083184
118	0xbd22ebfd	-0.039775837
119	0x3dce7ca0	0.10082364
120	0x3d270841	0.040779356
121	0x3dcc7b0f	0.09984409
122	0xbb4e44f1	-0.0031474198
123	0x3d797d94	0.060910776
124	0x3cafb2ee	0.021447625
125	0xbd6c4662	-0.05768431
126	0xbd5372e9	-0.05162326
127	0x3ca0c249	0.019623892
