hover_starship_raw_ckpt/ckpt_00004201.pt (torch, 622263 bytes, 15 tensors)

actor.linear1.weight f4 [128, 120]
0	0xbd11e7b8	-0.035621375
1	0x3d0329ac	0.032022163
2	0xbd87b421	-0.06626154
3	0xbda4010e	-0.08008014
4	0xbce2024e	-0.02758899
5	0xbd81f374	-0.06345263
6	0x3c9fc7bc	0.01950442
7	0xbd85f0cf	-0.06540071
8	0x3dbcb2ea	0.09213813
9	0xbd9e4f3a	-0.07729955
10	0x3c961e35	0.01832495
11	0x3cf76898	0.030201241
12	0xbd81a4a3	-0.0633023
13	0xbd8798d8	-0.066209495
14	0xbd6d6c70	-0.057964742
15	0xbdc84cb3	-0.09780254
16	0xbdb47cf1	-0.08812893
17	0x3bfa5f97	0.0076407897
18	0xbbe3f94b	-0.0069572083
19	0x3d6849de	0.05671107
20	0xbd035954	-0.03206761
21	0x3da3e167	0.080019765
22	0x3d92d95c	0.07170364
23	0xbd01ab29	-0.03165737
24	0x3d9304f3	0.07178678
25	0x3c724623	0.01478723
26	0xbd124943	-0.0357144
27	0x3ca9668c	0.020678781
28	0xbbf0556d	-0.0073344023
29	0x3dd1528a	0.10220821
30	0xbd358784	-0.04431869
31	0xbde9fd20	-0.11425233
32	0x3d4ea71c	0.050452337
33	0xbb08f76a	-0.0020899423
34	0xbca583ef	-0.020204512
35	0x3d8e3f62	0.06945683
36	0xbcf1787b	-0.029476395
37	0x3cf084fc	0.029360287
38	0x3c44d57c	0.012013789
39	0x3db075df	0.08616232
40	0x3c123c80	0.008925557
41	0xbb810942	-0.003937871
42	0xbd70c84a	-0.05878476
43	0x3c82a7ca	0.015949149
44	0x3dc002d8	0.093755424
45	0x3d420b9c	0.047374353
46	0xbd64ce6c	-0.05586092
47	0xbd81aea3	-0.063321374
48	0x3d06bea9	0.03289667
49	0x3d4d9b1d	0.050196756
50	0x3da54baa	0.080710724
51	0x3d90f55b	0.07078048
52	0xbc086dde	-0.008326976
53	0x3cd4ace6	0.02596135
54	0xbd042985	-0.03226616
55	0xbcb7ed83	-0.022452122
56	0xbc2c2bb5	-0.010508467
57	0xbd8e729f	-0.06955456
58	0xbd1cb424	-0.038257733
59	0xbdb70f67	-0.08938485
60	0x3cc00613	0.023440396
61	0xbc721553	-0.014775592
62	0xbc77b720	-0.015119344
63	0x3a7a8ae3	0.0009557439
64	0x3d66ca46	0.056345247
65	0xbd3067dc	-0.043067798
66	0xbd5b3dbc	-0.05352567
67	0x3d8e66aa	0.06953175
68	0x3d13d153	0.0360883
69	0xbc7d5071	-0.015461073
70	0x3dab37b8	0.08360237
71	0xbd3ad356	-0.045611702
72	0xbd43a7e8	-0.04776755
73	0xbd0ede50	-0.034879982
74	0x3d4f9a4b	0.050684255
75	0xbd2aebcc	-0.04172878
76	0x3d04be92	0.032408305
77	0xbd36d650	-0.044637978
78	0xbcd9e238	-0.026597127
79	0xbc5bde5c	-0.013419714
80	0x3c6364ef	0.013879045
81	0x3d71b121	0.059006814
82	0x3d73dee7	0.059538748
83	0xbdaf585e	-0.085617766
84	0xbd53b54a	-0.051686563
85	0xbbab9851	-0.0052366634
86	0x3d9e8965	0.0774105
87	0x3b1756ac	0.0023092432
88	0x3c087209	0.008327969
89	0x3ba4c56c	0.0050284173
90	0x3d2ff6b8	0.0429599
91	0x3c58ab30	0.013224408
92	0x3c1c3a85	0.0095354365
93	0x3dda9400	0.1067276
94	0xbc808014	-0.015686072
95	0x3c3fa784	0.011697654
96	0xba72137d	-0.00092344714
97	0xbcaf0cff	-0.021368502
98	0x3d9acd49	0.07558686
99	0x3d73caff	0.059519764
100	0xbd898966	-0.0671566
101	0x3d97e95d	0.074175574
102	0xbd4f3d5e	-0.050595634
103	0xbc64e7b9	-0.013971263
104	0xbd5b99e7	-0.05361357
105	0x3d30d6a5	0.04317345
106	0xbd0c5acb	-0.034266274
107	0xbd44d990	-0.048059046
108	0x3ce2ea9e	0.027699765
109	0x3d45105f	0.048111316
110	0xbd79d699	-0.060995672
111	0xbdd7062a	-0.104992226
112	0xbcd6fa7d	-0.026242489
113	0x3c394a7c	0.011309262
114	0x3d5bc5ae	0.05365532
115	0x3d49d859	0.04927859
116	0xbd588534	-0.052861407
117	0x3ccb3897	0.024807258
118	0xbd4fd8c4	-0.050743833
119	0x3ccc47d6	0.024936598
120	0x3bf70ed3	0.007539609
121	0x3dabd71e	0.0839064
122	0x3d932bfc	0.07186124
123	0xbcafb5d6	-0.02144901
124	0x3d6dd997	0.058068838
125	0xbdd90170	-0.10595977
126	0xbc999463	-0.018747514
127	0x3c413d48	0.011794396
128	0x3d951449	0.0727926
129	0xbd40ac02	-0.04703904
130	0xbcdf6fa8	-0.027274922
131	0xbc8712b0	-0.016488403
132	0xbd69e265	-0.057100672
133	0x3c7966b2	0.015222238
134	0x3d97e214	0.07416168
135	0x3dd1f871	0.102524646
136	0x3d20da5e	0.03927075
137	0xbc848574	-0.016176917
138	0xbc46b477	-0.012127987
139	0x3d6491a7	0.055802967
140	0xbd893838	-0.06700176
141	0xbca25f34	-0.019820787
142	0xbc5fd419	-0.013661408
143	0xbba88b54	-0.0051435623
144	0xbd8c63fe	-0.068550095
145	0xbdb60865	-0.0888832
146	0xbd5f4584	-0.054509655
147	0xbd3a3707	-0.045462634
148	0x3d9620e4	0.07330492
149	0xbda0888c	-0.07838544
150	0x3db5e28f	0.08881103
151	0xbca602a2	-0.020264927
152	0x3cb77496	0.02239446
153	0xbd51a9b1	-0.05118722
154	0x3d3dbc40	0.046322107
155	0x3d2d64e1	0.042332534
156	0x3da1c5cc	0.07899055
157	0x3d87533b	0.06607672
158	0x3d7531cf	0.059861954
159	0xbdaef63d	-0.0854306
160	0xbdb091a3	-0.08621528
161	0xbd004e19	-0.03132448
162	0xbd92a911	-0.07161153
163	0xbcb11a8c	-0.021619104
164	0xbb122827	-0.0022301765
165	0x3cd38009	0.025817888
166	0xbc0091ba	-0.007847244
167	0x3dac85d4	0.08423963
168	0xbd30a6b1	-0.04312772
169	0xbb872696	-0.004124473
170	0x3da19faf	0.07891785
171	0xbcb240dc	-0.021759443
172	0xbd53c977	-0.051705804
173	0xbb905c1a	-0.0044055106
174	0x3cc12dce	0.023581412
175	0xbd9cc3d2	-0.07654537
176	0xbc579332	-0.013157653
177	0xbd83885c	-0.06422493
178	0xbdad2542	-0.08454372
179	0xbca42899	-0.02003889
180	0x3cf8512a	0.03031214
181	0xbd49af99	-0.04923973
182	0xbd5d68e6	-0.054055117
183	0x3db28b1e	0.08717941
184	0xbd4f2e08	-0.05058101
185	0xbcf6e857	-0.030140085
186	0xbd6819d2	-0.05666525
187	0x3c4158c9	0.011800953
188	0x3daf50fd	0.08560369
189	0x3d1e1515	0.038594324
190	0x3d85eebb	0.06539675
191	0x3d04bfe4	0.032409564
192	0x3c15cf94	0.009143729
193	0x3d836242	0.064152256
194	0x3c63df61	0.013908238
195	0xbdaf3496	-0.08554952
196	0xbd4ef7d6	-0.050529324
197	0xbd67e12e	-0.056611232
198	0xbb127a38	-0.002235068
199	0xbd4c0064	-0.04980506
200	0x3d870ff0	0.06594837
201	0x3d8759fd	0.06608961
202	0x3ccd502a	0.02506264
203	0xbd29bec8	-0.04144171
204	0xbd365967	-0.044518854
205	0xbda23114	-0.07919517
206	0x3d68008e	0.056641154
207	0xbd2a3063	-0.04155005
208	0x3cd9042c	0.026491247
209	0x3d70cb65	0.058787722
210	0x3b9c569f	0.004771068
211	0xbc80ed0d	-0.015738035
212	0xbda22367	-0.07916909
213	0xbdd96c5c	-0.10616371
214	0xbc6a7268	-0.014309503
215	0x3dbcbc54	0.09215608
216	0x3d906108	0.07049757
217	0x39231db2	0.00015555954
218	0x3be649dd	0.007027848
219	0x3d051394	0.032489374
220	0xbd4a6a5a	-0.04941783
221	0x3db7c405	0.08972935
222	0x3bf93b6d	0.007605961
223	0xbd4a0a90	-0.04932648
224	0xbbaff02e	-0.005369208
225	0xbd7d438c	-0.061831996
226	0x3c750be2	0.014956446
227	0xbd45d9ed	-0.048303533
228	0xbd24b375	-0.040210206
229	0xbd30eec9	-0.043196473
230	0xbca533dc	-0.02016633
231	0x3dd539c2	0.10411407
232	0xbd01d3d4	-0.031696156
233	0xbd0c8148	-0.03430298
234	0xbc34970f	-0.011022343
235	0xbd7e68c5	-0.062111635
236	0x3cfe7f21	0.03106648
237	0xbd33111f	-0.0437175
238	0x3c9b5a18	0.018963858
239	0xbd9553e8	-0.072913945
240	0x3d5c1e79	0.05374
241	0x3da582c7	0.080815844
242	0x3bf52b57	0.007481973
243	0xbb5960bc	-0.003316923
244	0x3d4708ff	0.048592564
245	0xbd5c2b56	-0.053752266
246	0x3d5a96c4	0.053366438
247	0x3d51fe6d	0.05126803
248	0xbc0b4fb4	-0.008502889
249	0xbca634e4	-0.020288892
250	0x3d9ca75c	0.07649109
251	0xbd3c0bd2	-0.04590971
252	0xbdb673ab	-0.08908781
253	0xbdc2d59f	-0.09513401
254	0x3d0f28f9	0.034951184
255	0xbab34d20	-0.0013679601

actor.linear1.bias f4 [128]
0	0x3d119b51	0.035548512
1	0x3c5f3d78	0.013625495
2	0xbd936426	-0.07196836
3	0x3d6b40bd	0.057434786
4	0x3cd1ed2c	0.025625788
5	0x3d8c95cf	0.06864511
6	0x3a9b2ebb	0.0011839488
7	0x3da4a504	0.08039287
8	0x3d692959	0.056924198
9	0xbd013b8c	-0.03155093
10	0x3db08df0	0.086208224
11	0xbd2fa306	-0.04288008
12	0x3d95a7ab	0.07307371
13	0x3d65ff98	0.056151956
14	0x3cc98557	0.024599714
15	0xbd352c5d	-0.04423176
16	0xbd8fd8f6	-0.07023804
17	0x3d9f2292	0.07770266
18	0x3c59be4e	0.013290001
19	0xbd89046b	-0.06690296
20	0x3cc82a03	0.024434095
21	0x3d17d5ba	0.03706906
22	0x3d373ac3	0.044733774
23	0xbbf625c9	-0.0075118286
24	0xbd90b22b	-0.07065233
25	0x3d35dc56	0.04439958
26	0x3c132333	0.00898056
27	0xbd058c8f	-0.03260475
28	0x3c56aa7e	0.013102172
29	0x3d89d815	0.067306675
30	0xbd2d5793	-0.042319845
31	0xbd8f69d3	-0.07002606
32	0xbcbf10d4	-0.023323454
33	0x3db766ac	0.0895513
34	0xbd6c1f49	-0.057647023
35	0xbd4e8b3e	-0.05042576
36	0x3a3836ac	0.000702719
37	0x3d3a1b4d	0.045436192
38	0xbca94f63	-0.020667737
39	0xbd95199a	-0.07280274
40	0xbb8edb1e	-0.004359617
41	0x3cea7709	0.028621214
42	0xbb812a1f	-0.003941789
43	0xbd652208	-0.055940658
44	0x3d2dc8f5	0.042427976
45	0x3db891b2	0.09012164
46	0xbd456b83	-0.048198234
47	0xba908e78	-0.0011028787
48	0x3db506d9	0.08839197
49	0xbc51f75b	-0.012815322
50	0xbd2108a3	-0.039314877
51	0x3cd9dcc2	0.026594523
52	0xbd631a66	-0.055445097
53	0x3c75d197	0.015003583
54	0xbd327d31	-0.043576423
55	0x3d82a9d5	0.06380049
56	0x3d24ce4d	0.040235806
57	0x3d8567f2	0.065139666
58	0xbd3531e4	-0.044237033
59	0x3dac958a	0.0842696
60	0xbdaff00d	-0.08590708
61	0x3cb3ca2f	0.021946995
62	0xbd95d181	-0.0731535
63	0xbb1b15a5	-0.0023664024
64	0xbd298eac	-0.041395828
65	0x3d7dd026	0.061966084
66	0x3c722449	0.014779159
67	0x3db2348a	0.08701427
68	0xbdaac4bb	-0.083383046
69	0xbd1d8480	-0.03845644
70	0xbdaa2914	-0.08308616
71	0x3c7c47f9	0.015398019
72	0x3d0e9114	0.034806326
73	0xbdafaddd	-0.08578084
74	0x3db6c743	0.08924725
75	0x3af9e48b	0.0019065303
76	0xbd182b8e	-0.037150912
77	0x3d8f652c	0.07001719
78	0x3da34f37	0.079740934
79	0xbd6270d8	-0.055283397
80	0x3cacaf14	0.021079578
81	0x3d92d305	0.07169155
82	0x3d9aec5d	0.07564614
83	0x3a9aa19b	0.001179743
84	0xbdbc032d	-0.09180293
85	0xbc3cbfc9	-0.0115203345
86	0xbd848737	-0.06471103
87	0xbd805fa0	-0.06268239
88	0xbd121506	-0.03566458
89	0x3bf91cdc	0.0076023173
90	0x3c1f447c	0.009720918
91	0x3c0cd530	0.00859575
92	0x3ceaa922	0.028645102
93	0x3cf33db8	0.029692516
94	0xbc95906f	-0.018257348
95	0xbd96d116	-0.07364099
96	0xbd165c0a	-0.03670887
97	0xba28f64b	-0.0006445392
98	0x3cd3273b	0.025775542
99	0x3d376f31	0.044783775
100	0x3d490714	0.049079016
101	0xba907308	-0.001102061
102	0x3db86b2a	0.09004815
103	0x3d13714a	0.035996713
104	0xbbc2c1b6	-0.0059435023
105	0x3dbc8336	0.09204714
106	0xbc891d48	-0.016737595
107	0xbd7a754b	-0.061147016
108	0x3dbb358a	0.09141071
109	0xbd693c22	-0.056942113
110	0xbd8e8a38	-0.06959957
111	0x3c92e15b	0.017929723
112	0xbd74243a	-0.05960486
113	0x3c8c1651	0.017100485
114	0x3b723dba	0.0036963061
115	0x3d990808	0.07472235
116	0xbc919336	-0.017770391
117	0xbcd5cc07	-0.026098264
118	0xbd647b97	-0.055781927
119	0xbd035406	-0.032062553
120	0xbd879705	-0.066206016
121	0x3d593305	0.05302717
122	0xbd6b4534	-0.057439044
123	0xbd03d841	-0.032188658
124	0xbdb1502d	-0.086578704
125	0xbd0ea2fd	-0.034823406
126	0x3dc21516	0.09476678
127	0x3d8f8ba2	0.07009055

actor.linear2.weight f4 [128, 128]
0	0x3d76b4a3	0.060230862
1	0xbd35684f	-0.04428893
2	0x3db1dc34	0.086845785
3	0xbd29c0db	-0.041443687
4	0xbd8bf856	-0.06834476
5	0x3c4dffd0	0.0125731975
6	0xbd80996e	-0.062792644
7	0xbd797374	-0.06090112
8	0x3d910216	0.07080476
9	0x3d1eb74c	0.038749024
10	0xbda4310e	-0.08017169
11	0x3d961a69	0.07329256
12	0x3cf2dfd1	0.02964774
13	0xbd1ea337	-0.038729873
14	0x3d1aac32	0.037761874
15	0xbd8974b8	-0.067117155
16	0x3bf37540	0.007429749
17	0xbd469dd9	-0.04849038
18	0x3d3024c1	0.0430038
19	0x3d5add0b	0.05343346
20	0x3b574b9a	0.0032851459
21	0xbcb61534	-0.022226907
22	0xbbe00e22	-0.0068376223
23	0xbc432c5c	-0.011912432
24	0x3d16402d	0.036682297
25	0xbd22f61d	-0.039785493
26	0x3d929c73	0.071587466
27	0x3cebff41	0.028808238
28	0xbc8f8051	-0.01751724
29	0xbcb75648	-0.02238001
30	0x3d8cfea6	0.06884508
31	0xbd9bbe23	-0.07604625
32	0x3d0eca51	0.034860913
33	0xbd94a398	-0.072577655
34	0xbd327cda	-0.0435761
35	0x3d072890	0.032997668
36	0xbd3350ab	-0.043778103
37	0xbd328a56	-0.04358896
38	0xbd42f125	-0.047593255
39	0xbcda9dfd	-0.026686663
40	0xbd100ee7	-0.035170462
41	0x3cec2aa2	0.028828923
42	0x3d974bb1	0.07387484
43	0xbd808b92	-0.06276621
44	0xbd9db82e	-0.07701145
45	0xbd95a9e2	-0.07307793
46	0xbc521d78	-0.012824409
47	0xbd8e2271	-0.06940163
48	0x3d79d801	0.060997013
49	0xbcb69b9a	-0.022290993
50	0xbb74de9c	-0.003736413
51	0xbcb63dff	-0.022246359
52	0xbc9db40a	-0.019250888
53	0x3d40b266	0.047045134
54	0xbd5b0c56	-0.05347856
55	0x3d4a1a45	0.04934146
56	0x3d2f4ffc	0.04280089
57	0x3c58a5d5	0.013223131
58	0xbd4c438e	-0.049869113
59	0xbda1e08d	-0.07904158
60	0x3b3a0ca5	0.0028388884
61	0x3da41019	0.08010883
62	0x3c00f9c1	0.007872046
63	0x3d55ae7c	0.052168354
64	0xbcbd165c	-0.02308195
65	0xbccd7a7c	-0.02508282
66	0x3d9007a9	0.07032711
67	0xbd9f7dbb	-0.07787653
68	0x3d5cc735	0.053900916
69	0xbda96d4d	-0.082728006
70	0xbd3075c8	-0.043081075
71	0x3bbc8338	0.005752947
72	0x3cb66007	0.022262586
73	0x3c927634	0.01787863
74	0x3c8161a1	0.015793623
75	0x3cb09d8b	0.021559497
76	0xbd54c47e	-0.051945202
77	0xbda30ec0	-0.07961798
78	0x3ca64d74	0.020300604
79	0x3d7efb98	0.062251657
80	0xbd34359e	-0.043996446
81	0xbb54ecef	-0.0032489856
82	0x3c0bef63	0.008540961
83	0x3c5c5787	0.0134486025
84	0xbd998cbc	-0.07497546
85	0x3ccee264	0.025254436
86	0x3d871dbe	0.0659747
87	0xbcd493d6	-0.0259494
88	0x3d80754f	0.06272375
89	0x3da49596	0.08036344
90	0xbc816f49	-0.015800135
91	0x3be88354	0.0070957337
92	0xbd955901	-0.07292367
93	0x3d6feef9	0.05857751
94	0x3d1c6253	0.038179707
95	0xbd3be559	-0.04587302
96	0x3db3bc6f	0.08776175
97	0x3d1d759a	0.03844223
98	0xbd5cfd91	-0.053952757
99	0xbc9cdf7c	-0.019149534
100	0x3dade5db	0.08491107
101	0xbd839436	-0.06424753
102	0xbd8ecddd	-0.06972859
103	0x3ce09c05	0.027418146
104	0x3cbc34b4	0.02297435
105	0x3d1b4376	0.037906133
106	0x3d3ef6f0	0.046622217
107	0xbd8caedd	-0.0686929
108	0xbd02383a	-0.031791903
109	0xbbe3a36d	-0.006946972
110	0xbd6680f3	-0.05627532
111	0x3d656757	0.056006756
112	0x3d4128aa	0.04715792
113	0xbd9e99a2	-0.07744147
114	0xbc6e33f7	-0.014538757
115	0xbd97b68e	-0.074078664
116	0x3da15f8f	0.078795545
117	0x3d0bdf6b	0.034148615
118	0x3cd3da8f	0.025861053
119	0x3be47614	0.006972084
120	0xbbea3700	-0.00714767
121	0xbc85a702	-0.016314987
122	0x3d898868	0.067154706
123	0xbd608c27	-0.05482116
124	0x3cfc0f85	0.030769119
125	0xbd84447f	-0.06458377
126	0x39c5780a	0.00037664204
127	0xbb7e5e68	-0.0038813595
128	0x3ca2a9bc	0.019856326
129	0xbc86d205	-0.016457567
130	0xbd523625	-0.051321167
131	0xbd606b70	-0.05478996
132	0xbd2deefa	-0.042464234
133	0x3c2437ce	0.0100230705
134	0x3bafa124	0.0053597856
135	0xbcc831e6	-0.024437856
136	0xbd6aec92	-0.057354517
137	0x3d8afd31	0.06786574
138	0xbcc80246	-0.024415147
139	0x3cc801bb	0.024414888
140	0xbd9fe007	-0.07806402
141	0x3b028c7a	0.0019920156
142	0x3d27c047	0.040954854
143	0xbc6838ea	-0.014173726
144	0x3ca6d5fc	0.020365708
145	0xbd89a670	-0.067211986
146	0x3d78ceee	0.06074422
147	0x3d9f7bb8	0.07787269
148	0xbd063cb6	-0.032772742
149	0xbd56a0a2	-0.052399285
150	0xbc8156eb	-0.015788516
151	0x3c33a104	0.010963682
152	0xbdb8f489	-0.090310164
153	0x3d785571	0.06062836
154	0xbd6743e9	-0.05646125
155	0x3ccde6ec	0.025134526
156	0xbd91e335	-0.071234144
157	0xbd1f95fb	-0.038961392
158	0x3da0854c	0.07837924
159	0xbdbc0a9d	-0.09181712
160	0x3da60715	0.081068195
161	0x398b0ad4	0.00026520214
162	0xbda6b0ea	-0.081392124
163	0xbd614539	-0.054997656
164	0xbd58492d	-0.05280416
165	0x3da05634	0.07828942
166	0x3da40d9b	0.080104075
167	0x3db2b27e	0.08725451
168	0x3dbc1389	0.091834135
169	0x3d48c7dd	0.04901873
170	0xbc5bc51e	-0.013413696
171	0x3d985241	0.07437564
172	0xbd9c0e5b	-0.076199256
173	0xbd5733b8	-0.052539557
174	0x3ce54805	0.027988443
175	0x3d43fe06	0.047849678
176	0x3dbb5a4a	0.09148081
177	0xbc218852	-0.009859161
178	0xbbfc7ddb	-0.007705433
179	0xbd6e5deb	-0.058195036
180	0xbd510d74	-0.05103822
181	0xbdb14ba2	-0.08657004
182	0xbbbb4732	-0.0057152743
183	0x3d8e9371	0.06961716
184	0x3d8dde40	0.069271564
185	0xbd0ce92d	-0.03440206
186	0xbc801b75	-0.015638093
187	0xbd06870f	-0.032843646
188	0xbd0889cd	-0.033334542
189	0xbdbe416b	-0.09289821
190	0x3d94bcaa	0.07262547
191	0x3d780061	0.060547236
192	0xbd0b760e	-0.034048133
193	0xbcda2691	-0.026629718
194	0x3c28dfc4	0.010307256
195	0xbda0ac8f	-0.07845413
196	0x3d78d73e	0.060752146
197	0x3ca1c7ce	0.019748595
198	0x3d1261c3	0.035737764
199	0x3d2c0520	0.041997075
200	0x3db29ac3	0.08720925
201	0xbd503711	-0.050833765
202	0x3c93a7aa	0.018024284
203	0x3db1db33	0.08684387
204	0xbd223c35	-0.0396082
205	0x3dbaf272	0.09128274
206	0x3da46ac7	0.08028179
207	0x3d0182f3	0.031619024
208	0x3d19e6da	0.037573673
209	0x3cb98000	0.022644043
210	0xbc81f3cd	-0.015863324
211	0xbcd0a982	-0.025471453
212	0xbd39ae91	-0.045332495
213	0x3d6857d7	0.056724396
214	0x3d17cd39	0.03706095
215	0xbd13ecd2	-0.03611452
216	0xbd07d855	-0.033165295
217	0xbdb44b87	-0.08803468
218	0xbda0aff5	-0.07846061
219	0xbdb274c9	-0.08713681
220	0xbc7bf086	-0.0153771695
221	0x3d5891c2	0.05287338
222	0x3d5f8418	0.054569334
223	0xbda6a19c	-0.08136293
224	0xbaea38a3	-0.0017869662
225	0x3c261583	0.010136965
226	0xbb08dc81	-0.0020883384
227	0xbd6bf4c7	-0.057606485
228	0x3d0ae32c	0.033908054
229	0x3da748e4	0.081682
230	0x3c913d2d	0.017729366
231	0x3d186e09	0.037214313
232	0xbd8cf143	-0.068819545
233	0xbd542e34	-0.051801875
234	0x3d5b4dfd	0.053541172
235	0x3d314fbd	0.043288935
236	0x3c4dc51e	0.012559203
237	0xba027ecc	-0.00049780007
238	0xbd1ed971	-0.038781587
239	0xbd8dc5c4	-0.069224864
240	0x3cef5fc3	0.029220467
241	0xbd8dad43	-0.06917813
242	0xbd76450d	-0.060124446
243	0xbcf302b0	-0.029664367
244	0xbd98a8d1	-0.07454074
245	0xbd486525	-0.048924584
246	0xbd0833ba	-0.033252455
247	0x3d7e28d6	0.062050663
248	0xbd0d31e1	-0.034471396
249	0xbc13e6fc	-0.009027239
250	0xbc9f63b1	-0.019456716
251	0x3db476a3	0.08811691
252	0xbd0a1338	-0.033709735
253	0xbcebe0fb	-0.028793802
254	0x3d8cfd88	0.06884295
255	0x3d6033c8	0.054736882

actor.linear2.bias f4 [128]
0	0xbda8a4f3	-0.082345866
1	0x3d8a5af9	0.06755633
2	0xbd8e3f78	-0.069456995
3	0xbd5dcdf7	-0.0541515
4	0xbd41d040	-0.047317743
5	0xbd0c1798	-0.03420219
6	0x3d91c09e	0.07116817
7	0xbce0ddd1	-0.02744952
8	0x3c8ed175	0.017433861
9	0x3d9e3216	0.07724397
10	0xbd085118	-0.033280462
11	0x3d9dde6e	0.07708441
12	0xbd821058	-0.063507736
13	0x3d8332bf	0.064061634
14	0x3d3e1404	0.046405807
15	0xbd98af11	-0.07455266
16	0x3c9e158b	0.019297382
17	0xbb3c472e	-0.002872895
18	0x3d846c2d	0.064659454
19	0xbd9bdddb	-0.07610675
20	0xbd3fa487	-0.046787765
21	0x3bad10e5	0.005281555
22	0xbd79102e	-0.060806446
23	0x3aead89e	0.001791734
24	0xbd2bce5b	-0.041944843
25	0xbd39bb52	-0.04534466
26	0x3cb9e4a6	0.022692036
27	0xbd6cadd0	-0.057782948
28	0x3d06314d	0.03276186
29	0x3b8fcdb7	0.004388537
30	0xbd317693	-0.04332597
31	0x3d2592b9	0.04042313
32	0xbcdbae95	-0.026816646
33	0x3ba4594b	0.0050155274
34	0x3d662966	0.056191824
35	0x3d9b666a	0.07587893
36	0x3d219dec	0.039457247
37	0x3d7bec54	0.061504677
38	0x3d0cf518	0.034413427
39	0xbd618a3a	-0.055063464
40	0xbd259f4a	-0.040435113
41	0x3d7194ec	0.058979914
42	0xbd520254	-0.05127175
43	0xbda51f0f	-0.080625646
44	0x3c4ec9a4	0.012621317
45	0x3d302126	0.043000363
46	0x3d8a952b	0.06766733
47	0xbd208cfa	-0.039196946
48	0x3c98dacf	0.018659024
49	0xbd825ccd	-0.063653566
50	0xbd9d7522	-0.07688357
51	0x3d0e7253	0.034776997
52	0xbc44cfef	-0.012012466
53	0x3d10b492	0.035328455
54	0xbd658c4f	-0.05604201
55	0x3bd544a5	0.006508427
56	0xbc7127df	-0.014718979
57	0xbd90320a	-0.07040794
58	0x3c80ecbc	0.015737884
59	0xbda34e63	-0.079739355
60	0x3cea3af6	0.028592568
61	0x3d6284a0	0.055302262
62	0xbd5f66bd	-0.05454134
63	0xbc8491b6	-0.016182762
64	0xbd024cea	-0.031811632
65	0x3bb50884	0.005524697
66	0x3ca19d66	0.019728374
67	0x3d2ec80b	0.042671245
68	0xbca9113f	-0.020638106
69	0xbd541865	-0.051781077
70	0x3c4aae50	0.012370661
71	0x3da7b1a1	0.08188177
72	0xbda33a2b	-0.07970079
73	0x3da5e2e6	0.08099918
74	0x3db4ddbb	0.08831354
75	0xbd95a9bf	-0.07307767
76	0xbce83cc3	-0.028349286
77	0xbda4933e	-0.08035897
78	0xbcc619de	-0.024182256
79	0x3dae4c22	0.08510615
80	0xbcc70ac7	-0.024297131
81	0xbd097759	-0.033561084
82	0xbc42703c	-0.011867579
83	0xbcb86cf0	-0.022512883
84	0x3c035270	0.00801526
85	0xbd35488c	-0.04425864
86	0x3d8e9cd3	0.069635056
87	0x3d0d2d3e	0.034466974
88	0xbd99662a	-0.074901894
89	0xbafe68cd	-0.0019409895
90	0xbdb246f7	-0.08704942
91	0x3bb2e629	0.005459566
92	0x3d9462cc	0.072454065
93	0x3c9a2db3	0.01882062
94	0xbda93230	-0.08261526
95	0xbd99d5f8	-0.075115144
96	0x3c070a09	0.008242139
97	0x3d080957	0.033212032
98	0xbdaa3a07	-0.08311849
99	0x3cf420b1	0.029800745
100	0x3d87174e	0.06596242
101	0xbb1c4fc8	-0.0023851264
102	0x3da104d4	0.07862249
103	0xbca3f132	-0.020012472
104	0xbd963a59	-0.07335348
105	0xbad955f6	-0.0016581404
106	0xbd612bc9	-0.054973397
107	0x3c154f27	0.00911311
108	0xbc912af3	-0.017720675
109	0x3d4c30c3	0.04985119
110	0x3c2c68b0	0.010523006
111	0x3d393998	0.04522094
112	0xbd069300	-0.032855034
113	0x3dba1ee6	0.09087925
114	0x3cfc0a55	0.030766645
115	0x3d08bdb0	0.033384025
116	0x3d29e5ca	0.04147891
117	0x3d51428a	0.051088847
118	0x3c16eec2	0.009212198
119	0xbcf07aae	-0.029355373
120	0x3d864118	0.065553844
121	0xbd945bad	-0.07244048
122	0x3d266b58	0.040629715
123	0xbd263dd3	-0.040586304
124	0xbd44cee2	-0.04804886
125	0xbc053938	-0.008131318
126	0x3dadf78a	0.0849448
127	0x3d367a29	0.044550095

actor.linear3.weight f4 [128, 128]
0	0xbcb257f2	-0.021770451
1	0x3b0d9696	0.0021604649
2	0x3d96b1c5	0.073581256
3	0x3d6ba15d	0.057526935
4	0x3b0933e2	0.0020935466
5	0x3d2b6cca	0.041851796
6	0x3d9e6814	0.07734695
7	0x3d2769bc	0.04087232
8	0xbd07b9c9	-0.033136163
9	0xbdb5f485	-0.08884529
10	0x3d4cc040	0.04998803
11	0xbdacdbfe	-0.08440398
12	0xbda150ae	-0.078767166
13	0x3d32218f	0.043489035
14	0x3d375be3	0.044765364
15	0xbd9ed167	-0.07754784
16	0x3cafce5d	0.021460706
17	0x3b113990	0.0022159554
18	0xbbc576bc	-0.006026117
19	0x3da11e45	0.078671016
20	0x3bfeda47	0.0077774855
21	0x3c1c859d	0.00955334
22	0x3d2209be	0.039560072
23	0x3c92b644	0.017909177
24	0x3bea2192	0.007145115
25	0x3d15d447	0.036579397
26	0x3d6fa29e	0.058504693
27	0xbc0cc77d	-0.008592484
28	0x3ce1e694	0.027575769
29	0xbd1d5b2b	-0.038417023
30	0xba38608c	-0.00070334296
31	0xbd5fd76c	-0.0546488
32	0x3cea50d3	0.028602993
33	0xbcac826f	-0.02105829
34	0x3ca69406	0.020334255
35	0x3d9cf8b4	0.07664624
36	0xbd9b5ec8	-0.075864375
37	0x3d6c7f89	0.057738815
38	0xbd3c47bd	-0.045966852
39	0x3d2741c7	0.040834215
40	0xbd89fae9	-0.067373104
41	0x3d0d3488	0.034473926
42	0x3ca100c0	0.019653678
43	0xbc9005ec	-0.017580949
44	0xbd1a0a63	-0.03760756
45	0x3d9eefa5	0.07760552
46	0x3db4cee9	0.088285275
47	0xbc5b5f0a	-0.013389358
48	0x3cfcd665	0.03086395
49	0xbcb7f588	-0.022455946
50	0xbd2fad63	-0.042889964
51	0x3d3d6367	0.046237376
52	0xbd28940b	-0.04115681
53	0xbc3c6f81	-0.011501194
54	0xbda8a8c4	-0.082353145
55	0x3dc39320	0.09549546
56	0x3d2de427	0.04245391
57	0xbd954ed0	-0.07290423
58	0xbd676eca	-0.05650214
59	0xbcaf7e0b	-0.021422407
60	0x3d896702	0.067091
61	0x3d845f6b	0.06463512
62	0xbd11683b	-0.035499793
63	0xbc8869e8	-0.016652063
64	0xbd64fd57	-0.055905666
65	0x3d4ddb06	0.050257705
66	0x3c92a116	0.017899077
67	0x3ca1790d	0.019711042
68	0xbd1981ab	-0.037477177
69	0xbcb61d0c	-0.022230648
70	0xbd4bf109	-0.049790416
71	0xbd604ef3	-0.05476279
72	0x3d63a6c2	0.055578955
73	0x3d4ce69a	0.050024606
74	0xbcde1020	-0.027107298
75	0x3d416606	0.047216438
76	0x3d1130b7	0.03544685
77	0x3cb5fd02	0.02221537
78	0x3da0d7bd	0.07853649
79	0xbd3e5212	-0.046464987
80	0xbc9984a6	-0.01874001
81	0x3cb02395	0.021501342
82	0x3cba482f	0.022739498
83	0xbd0b6526	-0.03403201
84	0x3d56aab0	0.052408874
85	0xbd859510	-0.06522572
86	0xbc42ff4f	-0.011901691
87	0xbc01ae54	-0.007915098
88	0xbd8836e0	-0.066510916
89	0xbd12231c	-0.035678014
90	0xbdbf919c	-0.09353945
91	0xbd1c7995	-0.038201887
92	0xbd25e0fa	-0.040497757
93	0x3d84ee49	0.06490762
94	0xbd0de2b9	-0.034640048
95	0xbd9060e7	-0.07049733
96	0x3d8b3bc9	0.067985125
97	0xbd8de1d0	-0.06927836
98	0xbd2306f4	-0.039801553
99	0x3c0bc8e4	0.008531783
100	0xbd27c5e9	-0.040960226
101	0xbd9efbd6	-0.07762878
102	0x3d3e4284	0.046450153
103	0x3c935ba1	0.017988028
104	0xbba39e64	-0.004993247
105	0x3d03fdf8	0.032224625
106	0x3d97c4f5	0.074106134
107	0x3a4fa77f	0.0007921382
108	0x3d95ebfd	0.07320402
109	0x3d962c0d	0.07332621
110	0x3d55a0fe	0.052155487
111	0x3c2031fe	0.009777544
112	0xbd983f99	-0.07434005
113	0x3a3e99c3	0.0007270837
114	0x3c9cb563	0.01912946
115	0x3d849b14	0.06474891
116	0xbd44185b	-0.04787479
117	0x3d492c55	0.049114544
118	0xbd4d5896	-0.05013331
119	0x3d324eed	0.0435323
120	0xbd4adb5c	-0.049525604
121	0xbb751137	-0.0037394294
122	0x3d8dc63b	0.06922575
123	0x3c83c86b	0.016086778
124	0x3c87a9d8	0.01656048
125	0xbb3aaa65	-0.002848291
126	0xbd535c93	-0.051601958
127	0xbcda33a6	-0.026635956
128	0x3d1bffef	0.038085874
129	0x3c66cb09	0.014086493
130	0xbcbe9752	-0.023265515
131	0x3d3a4806	0.045478843
132	0x3c74cad8	0.01494094
133	0xbcba411e	-0.022736128
134	0x3ccc6c9b	0.02495413
135	0x3c5e2e46	0.013560837
136	0x3d9c80db	0.07641765
137	0x3dad26a9	0.084546395
138	0xbc35be93	-0.0110928
139	0x3be580cc	0.007003879
140	0x3d3ea601	0.046545032
141	0x3cd6a72a	0.026202757
142	0x3c83c0b9	0.016083108
143	0x3d4fe84d	0.05075865
144	0xbcf5e0b7	-0.030014379
145	0x3d65df62	0.056121238
146	0x3c8ed4bb	0.017435422
147	0x3d89c3d4	0.067268044
148	0x3d6369c4	0.055520788
149	0x3d0d8e8e	0.03455978
150	0x3a8b2684	0.0010616337
151	0x3d9cec61	0.07662273
152	0x3b8ef0af	0.004362188
153	0xbd22dd59	-0.039761875
154	0xbcdfc5dd	-0.027316028
155	0xbd272ca6	-0.040814064
156	0xbdaefb60	-0.0854404
157	0x3b2a3026	0.002596864
158	0xbcadc9aa	-0.021214325
159	0x3c8cdef1	0.01719615
160	0xbcc6fb17	-0.02428965
161	0x3db1f6ac	0.08689627
162	0x3da73bbf	0.081656925
163	0x3dab61d4	0.083682686
164	0xbdb15878	-0.08659452
165	0x3d02cd13	0.031933855
166	0x3c76da4e	0.015066696
167	0x3d51ef96	0.051253878
168	0xbcffbb37	-0.0312172
169	0x3cf33ba5	0.029691527
170	0x3c8ad742	0.016948346
171	0xbd05725a	-0.032579757
172	0x39ac6f05	0.00032889112
173	0x3c7854e4	0.015156958
174	0xbda533e5	-0.08066539
175	0xbd8cd45e	-0.06876443
176	0xbd022989	-0.031777892
177	0xbcd01d93	-0.025404727
178	0x3cd8b229	0.02645214
179	0xbd0938f6	-0.033501588
180	0x3d964b27	0.07338553
181	0xbd274c9e	-0.040844552
182	0xbd928785	-0.071547545
183	0xbda5b91f	-0.0809195
184	0xbdb9f5a0	-0.090800524
185	0x3d2d800d	0.042358447
186	0xbc31aa66	-0.010843849
187	0x3d96faf6	0.07372086
188	0x3c904a52	0.017613564
189	0x3ce52d3c	0.027975671
190	0x3d1184d9	0.035527084
191	0x3d985c47	0.074394755
192	0xbd067995	-0.032830793
193	0xbc328b43	-0.01089746
194	0xbd7d0cbc	-0.061779723
195	0x3d069d7d	0.032865036
196	0xbcb8c777	-0.02255605
197	0xbd574f46	-0.052565835
198	0x3d1de29a	0.038546182
199	0xbd1fe2eb	-0.039034765
200	0x3d01efb5	0.031722743
201	0x3d20c9bd	0.039254893
202	0x3d8c5978	0.06853002
203	0xbd91bf15	-0.07116524
204	0xbcfcc7b9	-0.030856954
205	0xbd357f6b	-0.04431097
206	0x3da5529b	0.08072396
207	0xbda91325	-0.08255605
208	0x3d986ed5	0.074430145
209	0x3be03ee2	0.0068434337
210	0x3d96bfcd	0.07360802
211	0xbd0b14a7	-0.033955242
212	0x3b2989e1	0.0025869536
213	0x3d82090e	0.06349383
214	0x3d8cf11d	0.06881926
215	0xbcc7d82d	-0.024395073
216	0xbc86e8b7	-0.016468389
217	0xbd99a9c8	-0.07503086
218	0x3d205e67	0.03915253
219	0x3d17a4e2	0.03702248
220	0x3c70490a	0.014665851
221	0x3c6a03ca	0.01428313
222	0xbdb0dcb7	-0.08635848
223	0x3c3e00de	0.011596886
224	0xbd0da7c3	-0.03458382
225	0x3caba533	0.020952797
226	0xbc810282	-0.015748266
227	0xbda08eac	-0.078397125
228	0xbd7d12d5	-0.061785538
229	0x3cf5a521	0.029985966
230	0xbda0a6e3	-0.07844331
231	0xbcbafbbc	-0.022825114
232	0xbba7b8da	-0.0051184716
233	0x3d4b0dec	0.049573824
234	0xbc186826	-0.009302175
235	0xbc7671a2	-0.015041741
236	0x3cee5325	0.02909238
237	0x3da471ae	0.08029495
238	0xbdbcdd0f	-0.09221851
239	0x3d16ef03	0.036849033
240	0xbd17e0f1	-0.037079755
241	0xbd26034a	-0.04053048
242	0xbd3036d3	-0.043021034
243	0x3d7d8f98	0.06190452
244	0x3d901a1f	0.07036232
245	0xbc51d89e	-0.012807993
246	0xbd8e7875	-0.06956569
247	0xbd5e38b6	-0.054253303
248	0xbd811401	-0.063026436
249	0xb88a8cf1	-6.606605e-05
250	0xbd11dce8	-0.035611063
251	0x3d24ac4e	0.040203385
252	0x3d61ac08	0.055095702
253	0x3d072dfb	0.033002835
254	0x3d89d8e7	0.06730824
255	0x3cbc2ccc	0.02297058

actor.linear3.bias f4 [128]
0	0xbd7e51c5	-0.0620897
1	0xbd53fbeb	-0.05175392
2	0x3d662c6c	0.056194708
3	0xbd188f43	-0.037246
4	0x3d90e64d	0.070751764
5	0x3cd43d5b	0.025908163
6	0xbd743a90	-0.059626162
7	0x3d23de1a	0.040006734
8	0xbccd24a4	-0.025041886
9	0x3c1f4a93	0.00972237
10	0x3d634497	0.055485334
11	0x3d97283f	0.07380723
12	0xbd8be95e	-0.06831621
13	0x3c453841	0.012037338
14	0x3be213ce	0.0068993336
15	0x3cc7a722	0.024371687
16	0x3da95f7b	0.082701646
17	0xbd6999a6	-0.057031296
18	0xbc95509b	-0.018226912
19	0xbdb79068	-0.0896309
20	0x3d8571b3	0.06515827
21	0xbda3cb31	-0.0799774
22	0xbd2fcb39	-0.042918418
23	0x3c3c1366	0.011479234
24	0xbd3b5782	-0.04573775
25	0xbd79d841	-0.06099725
26	0xbd23706b	-0.039902132
27	0x3c84f3b2	0.016229484
28	0xbdaef513	-0.08542838
29	0xbd55fb4a	-0.0522416
30	0x3d210123	0.039307725
31	0xbc655ab0	-0.013998672
32	0xbd459954	-0.04824193
33	0x3b70bb09	0.0036732575
34	0x3db3d43d	0.087807156
35	0x38db7e44	0.000104662526
36	0xbd9153a9	-0.07096035
37	0x3bdea7a3	0.006794886
38	0xbd912b95	-0.07088391
39	0x3d4452e4	0.047930613
40	0x3d8b83da	0.06812258
41	0xbda2e760	-0.079542875
42	0x3d45d51d	0.048298944
43	0xbcb8ba40	-0.022549748
44	0x3a8d1bee	0.001076577
45	0xbd9a20ee	-0.07525812
46	0x3da4c514	0.08045402
47	0xbd93033f	-0.071783535
48	0x3d83f330	0.06442869
49	0xbd7b3fe8	-0.061340243
50	0x3ba28d38	0.0049606822
51	0x3d28f017	0.041244593
52	0xbda27594	-0.079325825
53	0x3bec287f	0.007206976
54	0xbdad7a49	-0.0847059
55	0xbd899faa	-0.06719907
56	0x3c1336b4	0.00898521
57	0x3d0624cf	0.032749947
58	0x3d00fafd	0.03148936
59	0x3cf9a7fb	0.030475607
60	0xbd17b062	-0.037033446
61	0x3d2ef960	0.04271829
62	0xbca64be3	-0.020299857
63	0x3d71e9e6	0.059060954
64	0xbd01aa32	-0.03165645
65	0x3daa688f	0.08320724
66	0xbda30946	-0.07960753
67	0xbd2961c7	-0.041353013
68	0x3c4894a4	0.01224247
69	0x3d685793	0.056724142
70	0xbd62c806	-0.05536654
71	0xbd0655f5	-0.03279682
72	0xbc815099	-0.015785502
73	0xbd856037	-0.06512492
74	0xbd9d467f	-0.07679462
75	0xbc8072d9	-0.015679764
76	0x3da8a433	0.082344435
77	0x3d899c5a	0.06719275
78	0x3d553ae0	0.0520581
79	0x3c07e844	0.0082951225
80	0xbd7a0bdd	-0.06104647
81	0xbd794ef0	-0.060866296
82	0xbd9630f7	-0.07333558
83	0xbbdaa277	-0.0066721993
84	0xbc5ecfe9	-0.013599374
85	0xbd84b0ae	-0.064790115
86	0xbda80d46	-0.08205657
87	0x3d662dd6	0.056196056
88	0x3b68e4e6	0.0035536825
89	0x3d999458	0.074989974
90	0x3b7315a0	0.0037091747
91	0x3d22258e	0.039586596
92	0xbb0e25ec	-0.0021690084
93	0x3d83251b	0.06403562
94	0x3c079fc0	0.008277833
95	0x3d03a655	0.03214105
96	0xbd396d49	-0.045270238
97	0x3d2a7985	0.041619796
98	0xbd93e9fe	-0.07222365
99	0xbd9d1bec	-0.07671341
100	0xbd471d84	-0.048612133
101	0x3d5e1a9d	0.0542246
102	0x3b5139a0	0.0031925216
103	0x3d5e0a54	0.05420907
104	0x3d881a68	0.066456616
105	0xbd27a234	-0.040926173
106	0x3d4f8317	0.050662126
107	0xbdb69e3a	-0.08916898
108	0x3d0d51b1	0.034501735
109	0xbd284636	-0.041082583
110	0xbc8659a2	-0.016400162
111	0xbb91984f	-0.0044432054
112	0xbc988acc	-0.018620871
113	0x3aa6f865	0.0012738822
114	0x3c2464c3	0.010033789
115	0xbccde418	-0.025133178
116	0xbd347b09	-0.044062648
117	0xbc5b8592	-0.013398545
118	0xbd327df8	-0.043577164
119	0xba3ce341	-0.00072054943
120	0xbc6eb142	-0.014568629
121	0xbdb0483d	-0.08607528
122	0xbc2bb974	-0.010481227
123	0x3be2ac07	0.00691748
124	0xbce19101	-0.027534964
125	0x3d81d7d6	0.063399956
126	0x3da36b55	0.07979456
127	0x3d0b21a2	0.03396762

actor.linear4.weight f4 [9, 128]
0	0xbc272890	-0.010202542
1	0x3c5b8c63	0.01340017
2	0x3d6379a2	0.05553592
3	0xbda35062	-0.07974316
4	0xbcdebda4	-0.027190037
5	0x3d7a9f78	0.061187238
6	0xbdb6a664	-0.08918455
7	0xbda3c9d6	-0.079974815
8	0x3cbb842d	0.022890175
9	0x3d729442	0.05922342
10	0xbbf40488	-0.007446829
11	0x3cbc098e	0.022953775
12	0xbd9ba37d	-0.07599542
13	0x3ca146f8	0.01968716
14	0xbdb13bb0	-0.086539626
15	0x3d5cb3f9	0.053882573
16	0x3a1ebc49	0.00060552784
17	0x3d251e75	0.04031225
18	0x3d9d0b84	0.07668212
19	0xbda3325c	-0.0796859
20	0x3d859b11	0.06523717
21	0x3d721c13	0.059108805
22	0xbd27535e	-0.04085099
23	0xbc05f321	-0.008175642
24	0x3d85e08d	0.0653697
25	0xbdae27ec	-0.08503708
26	0xbd2cdaf8	-0.042201012
27	0xbd8ae7fb	-0.06782528
28	0x3ca038ea	0.019558389
29	0x3d2db883	0.042412292
30	0x3d487695	0.048941214
31	0x3cef4465	0.029207418
32	0x3c5fc697	0.013658187
33	0x3c46c914	0.012132902
34	0x3dbbc98d	0.09169302
35	0xbcb6aa0d	-0.022297883
36	0xbd07d662	-0.033163436
37	0xbcb8a9ae	-0.022541847
38	0xbda5f6d1	-0.08103717
39	0xbdb11fd3	-0.08648648
40	0x3bc45194	0.00599117
41	0xbdaacbc1	-0.08339644
42	0x3d0a5c55	0.03377946
43	0x3d905e29	0.070492096
44	0xbd7ac4ef	-0.061222967
45	0xbcb0e6eb	-0.021594485
46	0xbd0c312c	-0.03422658
47	0x3c9e2c1c	0.019308142
48	0x3d49fad5	0.049311478
49	0x3d976089	0.073914595
50	0x3d9e47c3	0.07728531
51	0xbd78e3be	-0.060764067
52	0xbdc0794d	-0.09398136
53	0x3c7b5f7c	0.0153425895
54	0x3d5ba43a	0.053623416
55	0x3d141242	0.036150225
56	0x3dbc97e0	0.09208655
57	0xbd8e5856	-0.069504425
58	0xbcde06dc	-0.02710288
59	0x3d7027b1	0.058631603
60	0x3cdedb47	0.027204169
61	0x3d8f1817	0.06987017
62	0xbd01f248	-0.031725198
63	0xbd75937b	-0.0599551
64	0xbd25b787	-0.04045823
65	0x3cad65bc	0.021166675
66	0xbcb387fd	-0.02191543
67	0x3d6d5450	0.057941735
68	0x3db1f043	0.086884044
69	0xbbfdcc96	-0.007745336
70	0xbcc00088	-0.023437753
71	0x3cd87d86	0.026427042
72	0x3d8f275e	0.069899306
73	0xbc408ee7	-0.011752821
74	0x3d50a7bb	0.05094121
75	0xbbcb1668	-0.0061977394
76	0xbc800f9d	-0.015632445
77	0xbd14e347	-0.03634956
78	0xbda50304	-0.08057216
79	0xbc026595	-0.007958789
80	0x3cd96415	0.02653698
81	0x3d9a5048	0.07534844
82	0x3ce0e9ac	0.027455173
83	0xbd9ba889	-0.07600505
84	0x3dae193c	0.08500907
85	0xbd10fd78	-0.035397977
86	0x3d7ab4a5	0.061207432
87	0xbd360eea	-0.044447817
88	0xbd67b9eb	-0.05657379
89	0xbd765eed	-0.060149122
90	0x3db0e5d2	0.08637585
91	0xbcaf19b6	-0.021374565
92	0x3cc3f2ec	0.023919545
93	0x3d2e13ae	0.042499237
94	0xbdc5ba20	-0.09654641
95	0x3d4c1057	0.04982027
96	0x3d11388b	0.035454314
97	0xbc93e3ff	-0.018053053
98	0xbd912ee3	-0.07089021
99	0xb9af32dc	-0.00033416494
100	0xbc5b5a27	-0.013388193
101	0xbd5f8dd3	-0.054578613
102	0xbd046a99	-0.032328222
103	0xbd4c46ad	-0.04987209
104	0xbd3f1f2b	-0.046660583
105	0xbd9946e7	-0.07484227
106	0xbbdd714f	-0.006757892
107	0xbca3d91a	-0.020000983
108	0xbca7431d	-0.020417744
109	0xbc9ed544	-0.019388802
110	0xbc2b805d	-0.010467616
111	0xbd9d1889	-0.07670695
112	0xbc7a2e52	-0.015269833
113	0x3cafd9a1	0.021466078
114	0xbda5b016	-0.08090226
115	0xbcba903a	-0.02277385
116	0x3d9c8e60	0.076443434
117	0x3d623c0a	0.05523304
118	0x3d24b8ae	0.040215187
119	0x3b4ddf71	0.00314137
120	0x3dbadceb	0.09124168
121	0xbbcfa6db	-0.0063370294
122	0x3bcfc3ca	0.0063404785
123	0x3d18d904	0.037316337
124	0x3ce7747e	0.02825379
125	0x3d0cf21c	0.03441058
126	0xbc1e061b	-0.00964501
127	0x3cd9bcd3	0.026579296
128	0xbc0d729c	-0.008633282
129	0x393dd7c0	0.00018104818
130	0x3c48719a	0.012234116
131	0x3d9d2bc2	0.07674362
132	0x3d8d16b8	0.06889099
133	0x3ce166f2	0.027514908
134	0x3d0dd4b3	0.034626674
135	0xbd848758	-0.06471127
136	0x3d332d43	0.043744337
137	0x3d5dd051	0.054153744
138	0x3d2058eb	0.0391473
139	0xbd73d235	-0.05952664
140	0x3da8928f	0.08231079
141	0x3d8d3241	0.06894351
142	0x3cc14810	0.023593932
143	0x3d9c86e6	0.07642917
144	0xbc95d7d7	-0.018291397
145	0x3d0bb777	0.034110513
146	0xbd8122d4	-0.06305471
147	0xbd5e6d2e	-0.05430334
148	0x3d1441e9	0.03619567
149	0xbd893266	-0.06699066
150	0xbbe612ef	-0.0070213
151	0x3db212ee	0.08695017
152	0xbd9ae3db	-0.07562991
153	0x3cf4fc5e	0.029905494
154	0xbd9858a7	-0.07438784
155	0xbc195190	-0.009357825
156	0xbd1a5c33	-0.037685584
157	0x3ce3ce61	0.02780837
158	0xbd813908	-0.06309706
159	0xbb9f31c0	-0.0048582256
160	0x3d04ad93	0.032392096
161	0x3d5324c7	0.051548745
162	0x3d8a29f5	0.06746284
163	0x3daee6ae	0.085400924
164	0x3d85827f	0.06519031
165	0xbd9135af	-0.070903175
166	0xbd9cc727	-0.07655173
167	0x3d9681c1	0.07348967
168	0x3d0e2e27	0.034711983
169	0x3c07a7be	0.008279739
170	0xbd301363	-0.04298724
171	0xbcd867da	-0.026416708
172	0xbd063510	-0.032765448
173	0xbd32415b	-0.04351936
174	0xbd176def	-0.036970075
175	0x3dae524a	0.08511789
176	0x3cae433f	0.0212723
177	0xbd8630da	-0.065522864
178	0xbc9f6d86	-0.019461405
179	0xbcc662fd	-0.024217123
180	0x3cc3fff0	0.023925751
181	0x3b7fff43	0.003906206
182	0xbb43b318	-0.0029861387
183	0xbc837d9c	-0.016051106
184	0x3d8bb6eb	0.06821998
185	0x3d22e241	0.039766554
186	0x3d39544f	0.04524642
187	0xbcd55a3e	-0.026044007
188	0xbc55a2f5	-0.01303934
189	0xbd0451c8	-0.032304555
190	0xbbabfcf1	-0.005248659
191	0x3da2820e	0.07934962
192	0x3bd0e732	0.006375217
193	0xbd9d377c	-0.076765984
194	0xbd9d05f0	-0.07667148
195	0xbdac7b4b	-0.08421954
196	0xbd4704bd	-0.048588503
197	0xbcb6723b	-0.022271266
198	0x3bb8b30a	0.0056365775
199	0xbd9aa2de	-0.07550596
200	0x3d4562de	0.04818999
201	0xbdb776db	-0.08958217
202	0x3d9ef8ed	0.077623226
203	0x3c071aa5	0.008246099
204	0xbd73659e	-0.05942308
205	0xbd786ef6	-0.060652696
206	0xbd9bdc53	-0.07610383
207	0xbdb60b78	-0.08888906
208	0xbd608be8	-0.054820925
209	0xbc86dda2	-0.016463105
210	0x3b89beae	0.004203639
211	0xbda99844	-0.082809955
212	0xbcd4f9be	-0.025997993
213	0xbc03b018	-0.0080375895
214	0xbdac9a52	-0.08427872
215	0xbd84355f	-0.06455492
216	0x3d0d6224	0.034517422
217	0xbdb8dae7	-0.09026127
218	0xbd4eea2d	-0.050516296
219	0x3d2f7cac	0.042843506
220	0xbce13d82	-0.02749515
221	0xbc2fa0c8	-0.010719486
222	0xbd7dbd5a	-0.061948158
223	0x3d076f3e	0.033065073
224	0xbd4929dd	-0.04911219
225	0xbc5ba346	-0.013405627
226	0x3d8513c9	0.06497914
227	0xbd23421d	-0.039857972
228	0xbd540bd9	-0.05176911
229	0xbbad2bb4	-0.005284751
230	0xbc87a606	-0.016558658
231	0xbcb3c01e	-0.021942195
232	0x3ca580c6	0.020203006
233	0xbc66ff1e	-0.014098911
234	0xbd84c6b9	-0.06483216
235	0xbd863453	-0.06552949
236	0x3c48ac22	0.012248071
237	0xbda8afad	-0.082366325
238	0x3da075a1	0.07834936
239	0xbdba7374	-0.09104052
240	0xbd7878fc	-0.060662255
241	0xbb677a00	-0.003532052
242	0x3d3755a0	0.044759393
243	0x3db320fa	0.08746524
244	0xbdb4e680	-0.08833027
245	0x3c8e2da0	0.01735574
246	0xbd9f2706	-0.07771115
247	0x3daf75de	0.08567403
248	0x3d09421c	0.033510312
249	0xbcedabcb	-0.029012581
250	0x3ce6246c	0.02809354
251	0xbabb3432	-0.0014282523
252	0xbdb10fe2	-0.086456075
253	0x3d0892c9	0.03334311
254	0x3d8379fb	0.0641975
255	0xbdaed724	-0.085371286

actor.linear4.bias f4 [9]
0	0xbc28e366	-0.010308122
1	0xbd4740c4	-0.04864575
2	0x3d364ebe	0.04450869
3	0xbd8099bf	-0.06279325
4	0xbd711cdf	-0.058865424
5	0x3bc1abf1	0.0059103896
6	0xbd89ff2a	-0.06738122
7	0x3d6e7216	0.05821427
8	0xbd845693	-0.06461825

critic.linear1.weight f4 [128, 120]
0	0x3d222ed5	0.039595444
1	0x3d34a3be	0.04410147
2	0xbafe59a9	-0.0019405383
3	0x3de1310e	0.109956846
4	0xbd2f9048	-0.042862207
5	0xbd6ad2e0	-0.057330012
6	0x3d9eedfa	0.07760234
7	0xbc32e39e	-0.010918526
8	0xbd917945	-0.071032085
9	0x3d46f6cd	0.04857521
10	0xbda98349	-0.08276994
11	0xbb568d65	-0.0032738086
12	0xbd90c683	-0.07069113
13	0x3d3e2d08	0.046429664
14	0x3d4a36be	0.049368612
15	0x3d89f325	0.06735829
16	0xbcff5a8a	-0.031171102
17	0xbde1bc75	-0.110222735
18	0x3d791cdb	0.060818534
19	0xbd87912d	-0.06619487
20	0x3b2f6847	0.0026765035
21	0x3d3a3a56	0.04546579
22	0x3d63b9eb	0.055597227
23	0x3c504efb	0.012714143
24	0xbc98c35e	-0.018647846
25	0xbce3ab10	-0.02779153
26	0x3be10204	0.0068666954
27	0x3ccd695b	0.025074651
28	0x3d762292	0.060091563
29	0xbdadfa8d	-0.084950544
30	0xbc056743	-0.008142295
31	0x3dbf0e05	0.09328846
32	0xbd377feb	-0.044799726
33	0x3db241f3	0.08703985
34	0xbd0b2f72	-0.033980794
35	0x3dd3902b	0.10330232
36	0x3d9132fe	0.07089804
37	0xbd726234	-0.059175685
38	0xbc266eb8	-0.010158233
39	0xbd023a68	-0.03179398
40	0xbcebc2cc	-0.02877941
41	0xbd7380fc	-0.05944918
42	0xbb5a5f7e	-0.0033321078
43	0xbcbaddb4	-0.022810794
44	0x3d928032	0.071533576
45	0xbda95667	-0.08268433
46	0x3d5871e7	0.052843
47	0x3d8e6b4b	0.06954058
48	0xbd30a32e	-0.04312437
49	0x3d7bb4b9	0.061451647
50	0x3d37b8ea	0.044854082
51	0xbd7a48df	-0.06110465
52	0x3d8816c6	0.06644969
53	0x3d3599a2	0.04433597
54	0x3d4e9184	0.050431743
55	0xbda14f30	-0.07876432
56	0xbd444a5f	-0.04792249
57	0xbd03294f	-0.032021817
58	0xbd64ceee	-0.055861406
59	0x3da19ec5	0.07891611
60	0x3a2bdec9	0.000655633
61	0x3d82dfc4	0.06390336
62	0xbd7c9587	-0.061666038
63	0x3d5f8de2	0.05457867
64	0x3b8de1d8	0.004329901
65	0x3d87fdb9	0.06640191
66	0xbd6f4948	-0.058419496
67	0xbc3de227	-0.011589563
68	0x3d831932	0.0640129
69	0xbd603d70	-0.05474609
70	0x3cd3ba2a	0.025845606
71	0x3d986e33	0.07442894
72	0x3d2aab4c	0.041667268
73	0xbd4c6e98	-0.049910158
74	0xbda4a37a	-0.08038993
75	0xbd4eb435	-0.050464828
76	0xbd79f0ea	-0.06102077
77	0x3cccfdf6	0.025023442
78	0x3ac9833c	0.0015374194
79	0xbd9c7145	-0.07638792
80	0x3d39ae1f	0.04533207
81	0xbd92995d	-0.07158158
82	0xbb983000	-0.004644394
83	0x3c519c44	0.012793604
84	0xbd8cc042	-0.06872608
85	0x3d2356ce	0.039877705
86	0x3d272ada	0.04081235
87	0x3ca00e4e	0.019538071
88	0xbca82618	-0.020525977
89	0xbd6816c6	-0.056662343
90	0xbb3fbe58	-0.002925774
91	0x3b97184b	0.0046110502
92	0xbb233465	-0.0024903056
93	0xbd34fada	-0.044184543
94	0xbae29d81	-0.0017289371
95	0x3cd155e4	0.025553651
96	0xbc92c9db	-0.017918518
97	0xbbe82139	-0.0070840386
98	0xbda6d62a	-0.08146317
99	0xbcb384d1	-0.021913918
100	0xbcff3ea7	-0.031157805
101	0x3dbb85d0	0.09156382
102	0xbd5f8121	-0.054566506
103	0xbd34e26d	-0.04416125
104	0xbc373202	-0.011181356
105	0xbcb0d410	-0.021585494
106	0xbd5891b5	-0.052873332
107	0xbd2754d5	-0.040852387
108	0xbcd547cd	-0.026035214
109	0xbd9d9d17	-0.07695978
110	0x3afeebc4	0.0019448926
111	0xbd77a21a	-0.060457326
112	0x3d80d96c	0.0629147
113	0xbd23e860	-0.040016532
114	0x3d5b52de	0.053545825
115	0x3cfece75	0.031104306
116	0x3d8b60b4	0.06805554
117	0x3da5b569	0.08091242
118	0x3b11c14e	0.0022240463
119	0x3b166950	0.0022950955
120	0x3d9bba68	0.076039135
121	0x3d4a23e5	0.049350638
122	0x3daa9db8	0.08330864
123	0xbc1c059d	-0.009522823
124	0x3ca97c1f	0.020689068
125	0x3cbd0df8	0.02307795
126	0x3d700b1d	0.05860435
127	0xbd4a93c7	-0.049457338
128	0xbcb1ce55	-0.021704832
129	0xbbaf9295	-0.00535805
130	0xbd984e2d	-0.07436786
131	0xbd743a0e	-0.059625678
132	0xbd36c1c4	-0.044618383
133	0xbd0cb4cd	-0.034352113
134	0xbb9d699e	-0.0048038503
135	0xbd6eb815	-0.058281023
136	0x3d01a028	0.031646878
137	0xbdaa74ac	-0.08323035
138	0x3d56a661	0.052404765
139	0xbd8fcf38	-0.07021946
140	0xbd6c817f	-0.057740685
141	0x3d8c025d	0.06836388
142	0xbd36e70a	-0.04465393
143	0x3d413187	0.047166374
144	0x3d81950d	0.06327257
145	0xbb44321a	-0.002993709
146	0x3d22bae4	0.039729014
147	0xbd9fa365	-0.07794837
148	0xbdb4a7d7	-0.088210754
149	0x3d889ef1	0.06670941
150	0xbdabb692	-0.08384432
151	0xbd22a70e	-0.039710097
152	0x3d68b277	0.056810822
153	0x3cf575c5	0.029963383
154	0x3c6503ed	0.013977987
155	0x3dd879c6	0.105701014
156	0x3d83ec04	0.06441501
157	0xbd90a5b2	-0.07062854
158	0xbcf48276	-0.029847365
159	0x3c9e4955	0.019322077
160	0xbce53fcf	-0.027984528
161	0xbce0d76b	-0.02744647
162	0xbcc1b01b	-0.023643544
163	0x3d3a039c	0.0454136
164	0xbc39eb34	-0.011347581
165	0xbda0a5d1	-0.07844127
166	0x3d76630a	0.060153045
167	0x3c01e70b	0.00792862
168	0xbd902da1	-0.07039953
169	0x3cba09ad	0.022709692
170	0xbdcd3051	-0.10018981
171	0x3c221e1a	0.009894872
172	0x3d885395	0.06656567
173	0x3d59ab54	0.053141907
174	0x3bc72cee	0.006078354
175	0x3d833357	0.06406277
176	0xbd98968f	-0.07450592
177	0xbd86a608	-0.06574637
178	0xbaf35a43	-0.0018566329
179	0x3cef4711	0.029208692
180	0xbd7af3ac	-0.06126754
181	0x3d3c9518	0.046040624
182	0x3c80b4b6	0.01571117
183	0x3c88436f	0.016633717
184	0xbd9b097a	-0.07570167
185	0xbd9e91a0	-0.077426195
186	0xbd62f7b2	-0.055412002
187	0xbd1b1087	-0.03785756
188	0x3c6480f1	0.013946758
189	0x3cd65bb1	0.026166769
190	0xba163376	-0.0005729714
191	0xbcbb0a18	-0.022831962
192	0xbc92acac	-0.017904602
193	0xbd66eb95	-0.056377012
194	0xbd98ad43	-0.07454922
195	0xbdc92661	-0.09821773
196	0x3d23ab8d	0.039958525
197	0xbd1973a1	-0.037463788
198	0x3d9cb9c7	0.07652622
199	0x3c82c0c9	0.015961068
200	0x3cfd3143	0.030907279
201	0x3d5bcfde	0.053665034
202	0x3c03ce22	0.008044751
203	0xbcf955ec	-0.030436479
204	0x3c6bb1f9	0.014385694
205	0x3d7a57df	0.061118957
206	0x3d4d06fd	0.050055493
207	0x3d8eebb3	0.0697855
208	0x3db752e7	0.08951359
209	0xbd192429	-0.037388
210	0x3d937732	0.07200469
211	0xbdad80a7	-0.08471804
212	0xbb99c236	-0.004692341
213	0x3c3b8154	0.011444408
214	0xbc5389de	-0.012911288
215	0xbd3da7b3	-0.04630251
216	0xbd65b8bc	-0.05608438
217	0x3d7d6090	0.061859667
218	0x3d989273	0.07449808
219	0xbd69b0f9	-0.05705354
220	0x3da3d14e	0.07998906
221	0x3ddcb2bf	0.107762806
222	0x3d8d68b5	0.06904737
223	0xbc157045	-0.009121005
224	0xbd942c8e	-0.07235061
225	0x3d01d630	0.031698406
226	0x3d433b9d	0.047664274
227	0x3d4c52ae	0.049883537
228	0xbdaceb1c	-0.08443281
229	0x3c999143	0.018746024
230	0xbc9957eb	-0.01871868
231	0xbd8a6e83	-0.0675936
232	0xbd6d2639	-0.05789778
233	0x3d9f807b	0.077881776
234	0xbd86c18b	-0.06579884
235	0xbcd0f152	-0.025505695
236	0x3d6291a7	0.055314686
237	0x3d6eca30	0.05829829
238	0xbd2eabfe	-0.042644493
239	0xbc80a832	-0.015705202
240	0x3d96cdd7	0.073634796
241	0xbd908f90	-0.070586324
242	0xbc381943	-0.011236492
243	0xbd486c7d	-0.048931587
244	0xbd583bb2	-0.052791305
245	0xbd247462	-0.040150054
246	0x3db68a85	0.08913139
247	0xbc8ebc62	-0.017423812
248	0x3d9105d5	0.070811905
249	0x3d300840	0.042976618
250	0x3d80aa32	0.06282462
251	0x3d94c741	0.07264567
252	0xbd87f3e9	-0.06638319
253	0x3d806da9	0.06270916
254	0x3d87bbe9	0.06627638
255	0x3d017e75	0.03161474

critic.linear1.bias f4 [128]
0	0xbd346a65	-0.04404678
1	0xbd22ef73	-0.039779138
2	0xbd4b9ad6	-0.04970821
3	0x3c0e31c6	0.008678859
4	0x3cd371a1	0.025811018
5	0x3b615fa6	0.0034389286
6	0xbc44f8b6	-0.012022188
7	0x3d70c76a	0.058783926
8	0xbc9614a4	-0.01832039
9	0x3d53f0fd	0.051743496
10	0x3d6e0376	0.05810877
11	0x3d3b706f	0.045761522
12	0x3c5576e1	0.013028831
13	0x3ca46c95	0.020071307
14	0x3d91a3f1	0.071113475
15	0x3d93b2ac	0.07211813
16	0x3d2bb8bf	0.041924234
17	0x3c2526d6	0.01008006
18	0x3d742f0f	0.05961519
19	0x3d8ad870	0.067795634
20	0x3ce9aea1	0.028525652
21	0xbd9481b3	-0.07251301
22	0x3b60f0f7	0.0034323314
23	0x3c42f061	0.011898131
24	0x3b1c6820	0.0023865774
25	0x3d6bc1f1	0.057558004
26	0x3d3f7e13	0.046751093
27	0xbd45ff23	-0.04833902
28	0xbce19b3e	-0.027539846
29	0x3dcb2bdd	0.09920476
30	0xbd803a6c	-0.06261143
31	0xbbbb3cd6	-0.0057140393
32	0x3da75c14	0.081718594
33	0xbd3c91fc	-0.04603766
34	0xbd9c80a0	-0.07641721
35	0xbcc4b531	-0.02401218
36	0x3c814c03	0.015783316
37	0xbc9ee367	-0.019395543
38	0x3cb40634	0.021975614
39	0xbdb776a5	-0.089581765
40	0x3d128c0a	0.035778083
41	0xbdb589ef	-0.08864199
42	0x3d2aff36	0.041747294
43	0xbd45b59e	-0.048268907
44	0xbd9f2e85	-0.07772545
45	0x3d99c177	0.075076036
46	0x3d35209f	0.044220563
47	0x3cd21c2e	0.025648203
48	0x3dad573a	0.08463903
49	0x3d30fe2c	0.043211147
50	0x3dcabd30	0.09899366
51	0xbd15b6d8	-0.036551327
52	0x3a4c7fa4	0.00078010024
53	0x3d1daa03	0.038492214
54	0x3c711431	0.014714287
55	0xbd3aa74d	-0.045569707
56	0x3dd1a628	0.1023677
57	0x3be156e1	0.006876812
58	0xbc2e42f5	-0.010636081
59	0x3bd9403d	0.0066299723
60	0xbcc16f45	-0.023612628
61	0x3d3d3189	0.04618982
62	0xbd9db537	-0.077005796
63	0xbd5646dc	-0.05231367
64	0x3d078668	0.033087164
65	0xbbbe38d4	-0.0058051143
66	0xbcfe5352	-0.03104559
67	0xbd923339	-0.07138676
68	0x3c90c95e	0.017674144
69	0x3dd1006c	0.102051586
70	0x3cb133db	0.021631172
71	0x3d2aedbc	0.041730627
72	0xbcf4a7f2	-0.029865239
73	0xbd4a8edc	-0.049452648
74	0xbcf22ec5	-0.029563317
75	0xbd7c7ccf	-0.061642464
76	0x3d41e8d5	0.047341187
77	0xbcc49e07	-0.024001135
78	0xbca1ba0d	-0.019742036
79	0x3dda1c12	0.10649885
80	0xbd54f57d	-0.05199193
81	0xbd2bd69f	-0.041952725
82	0xbd0be33f	-0.034152266
83	0x3d88eeec	0.06686196
84	0x3d443ab9	0.047907565
85	0x3d3688b0	0.04456395
86	0xbc4466ca	-0.011987397
87	0xbd3f7a7a	-0.046747662
88	0xbd456165	-0.048188586
89	0x3d8d411f	0.068971865
90	0x3da47472	0.08030023
91	0xbd4c1641	-0.04982591
92	0x3d39fa4b	0.045404714
93	0x3d7d50e9	0.06184474
94	0xbd1adde1	-0.037809256
95	0xbb928cc4	-0.004472347
96	0xbd443728	-0.047904164
97	0xbcda0fff	-0.026618956
98	0x3cdc9913	0.02692846
99	0x3bed256b	0.0072371266
100	0xbc76c82f	-0.015062376
101	0xbda14f94	-0.078765064
102	0xbda68920	-0.08131623
103	0x3da01f35	0.07818452
104	0x3cbd56f5	0.023112753
105	0xba5998aa	-0.0008300642
106	0xbc5fe7e9	-0.0136661315
107	0xbd260f05	-0.040541667
108	0xbd900f9f	-0.070342295
109	0xbd454bed	-0.04816811
110	0x3c916711	0.017749341
111	0xbcdda1a7	-0.02705462
112	0xbda627d8	-0.08113068
113	0x3c495102	0.01228738
114	0x3cc20049	0.023681777
115	0xbd989553	-0.07450356
116	0xbd0fb4b3	-0.035084438
117	0xbd0d3b36	-0.034480296
118	0xbd25a42a	-0.040439762
119	0x3dcab470	0.09897697
120	0x3d208a4f	0.0391944
121	0x3dca5ad7	0.098806076
122	0xbb5a243c	-0.0033285758
123	0x3d85704a	0.06515558
124	0x3cc8c1eb	0.02450653
125	0xbd66964a	-0.05629567
126	0xbd50fe98	-0.05102405
127	0x3c97c250	0.018525273
