hover_starship_raw_ckpt/ckpt_00004901.pt (torch, 659383 bytes, 15 tensors)

actor.linear1.weight f4 [128, 120]
00000000: af81 04bd 5620 033d 7d73 82bd a0cd a1bd
00000010: d092 e6bc 6b9f 71bd dc0f 933c 499b 99bd
00000020: 5f79 c63d f3c7 99bd d3ef ab3c 251a 013d
00000030: ddc5 82bd a6e6 7cbd 63cb 5dbd a9f9 dbbd
00000040: 4f85 b4bd 8d59 343c 50fc f3bb f771 673d
00000050: 9d55 05bd 41d5 a23d 3b36 973d 84c4 03bd
00000060: 7a3e 923d 5d50 413c a375 06bd c6c4 b23c
00000070: dfde 00bc 6a7c da3d 1b50 3bbd a1aa fdbd
00000080: 1bf4 4d3d b47b 5dbb bb5c a9bc 6ccc 8f3d
00000090: bcca f4bc 6e5b ec3c 185e 663c 2e69 af3d
000000a0: 9fbe 1c3c 692c 89bb 5f20 66bd b1c2 803c
000000b0: 2c35 bf3d ae81 543d 6025 67bd 8a5c 95bd
000000c0: bfb8 0a3d 1fee 443d eb32 a43d 613c 943d
000000d0: d0d1 0abc fe9e d03c 562c 02bd 1b20 bcbc
000000e0: 82b2 30bc 4331 8fbd b7ad 1bbd bc7c babd
000000f0: 41c8 c63c 2e17 26bc fcf3 45bc 40cc 0dbc
00000100: 438a 6a3d 9385 28bd ed24 5abd 2e1f 913d
00000110: f116 153d c148 82bc 6cf6 a83d 56ec 3cbd
00000120: 0d8c 40bd 7c84 08bd 55e9 523d 2599 27bd
00000130: ee57 123d dab4 21bd 9d92 e0bc 25b2 bcbc
00000140: 7c17 623c 526c 713d 073b 6f3d 4224 b2bd
00000150: 6acd 51bd 44ae b3bb 28b4 9f3d 02bd eb3a
00000160: 3354 033c 9faf 893b df87 303d 551f 4d3c
00000170: b198 713c 73ec e83d 9637 81bc 6680 073b
00000180: 72db 83ba 2226 a9bc 9e13 9d3d fb68 793d
00000190: 1c6f 88bd fd88 983d 27d1 54bd 932e 6dbc
000001a0: 2677 5bbd 26d7 303d 684b 12bd 4820 3dbd
000001b0: 8adf 003d a686 733d d2b0 7dbd ffde eabd
000001c0: 9d98 cebc fc33 0b3c ceb3 5b3d 4406 493d
000001d0: e95d 4bbd 3992 cf3c eaa7 47bd 4956 c83c
000001e0: 5be3 493b 4741 ad3d c0f9 8b3d ca56 b8bc
000001f0: fcc1 6a3d 177c e6bd a499 8abc a329 ba3c
00000200: 70ef 873d 03fe 45bd 3511 fdbc 8986 8fbc
00000210: 1ffc 6cbd a484 0d3c 628b 943d ac5d e83d
00000220: 1d15 1f3d 426a 94bc 774e 37bc 1231 683d
00000230: 2622 87bd d71d 9abc cd7d 84bc c288 87bb
00000240: 3eb5 96bd 8537 b0bd 3df1 6ebd 5563 3dbd
00000250: ae91 943d 4608 aebd e4ae b83d 55d6 18bc
00000260: 719e af3c 2b3e 4fbd a7ac 403d 9bef 2f3d
00000270: 8beb a33d 0564 893d 4e6a 6e3d 1ae6 acbd
00000280: 04b6 b6bd 0a02 02bd 30f8 99bd 5eae bdbc
00000290: 708b 44bb 6b4b 9d3c 8dbc dabb 29ec c23d
000002a0: bb13 36bd 919f 23bb 685e a13d 024a afbc
000002b0: 442f 4fbd 8661 5ebb 39ee bc3c bab3 9abd
000002c0: 90ac 4bbc b078 7fbd ca16 adbd 7d93 9ebc
000002d0: f23a ed3c 5b33 65bd 9796 67bd 26f2 c83d
000002e0: 1305 51bd 56fa 04bd 7982 65bd a034 133c
000002f0: 1e9e b13d b248 223d 4ed6 853d 3cdf 083d
00000300: 8ba0 1e3c cf79 803d b591 5d3c 9732 afbd
00000310: f414 5dbd dd77 82bd 5b5b 0dbb 9c2d 1fbd
00000320: 814c 883d 0bce 883d 76e8 d73c d29f 20bd
00000330: b358 32bd fa02 a0bd c0c5 643d 0f14 26bd
00000340: 8b2c dc3c b0a3 723d 85ef 813b df50 7bbc
00000350: 6eba abbd bb60 eabd 8733 84bc f32e d33d
00000360: df7c 923d 36de cdb9 e055 bc3b 0ab1 083d
00000370: 3ddc 46bd 0be5 b93d 9f0f 1b3c 6cfa 45bd
00000380: 7ea4 02bc 1b7a 7cbd bbec 943c 45ff 46bd
00000390: 6d51 2fbd 99b1 5dbd 2ffc a2bc 81d0 eb3d
000003a0: f63a 08bd 9fd1 02bd 34d0 35bc 2ce2 7bbd
000003b0: 0363 ee3c 84d4 30bd 2dae 8b3c 3965 93bd
000003c0: 2924 4a3d 58e4 ac3d 8391 9b3b d1c5 bbbb
000003d0: c067 493d fea2 6dbd 0cb2 643d 2bc7 733d
000003e0: ecc4 6abc db2b cabc 9dc7 963d 154d 47bd
000003f0: 0c50 b5bd e092 cbbd b543 113d 9e8c e13b
-0.03235024 0.03201326 -0.06369684 -0.07900548 -0.028146178 -0.058989923 0.017951898 -0.075003214
0.096911184 -0.075088404 0.02098838 0.031519074 -0.06385396 -0.0617434 -0.054149043 -0.10740978
-0.08814489 0.011007679 -0.0074458495 0.05650517 -0.03255235 0.07950831 0.073833905 -0.032169834
0.07140823 0.011798945 -0.03282703 0.021822345 -0.007865637 0.10668261 -0.04573069 -0.123860605
0.050281625 -0.0033795657 -0.0206741 0.07021412 -0.029881828 0.02885219 0.01406052 0.08564983
0.009566932 -0.0041862023 -0.056183215 0.015717836 0.093363136 0.051881485 -0.056432128 -0.07293041
0.033867594 0.048078652 0.08017524 0.07238079 -0.008472875 0.025466438 -0.031780563 -0.022964528
-0.010784747 -0.06991818 -0.038007464 -0.091058224 0.02426541 -0.010137362 -0.012082096 -0.008654654
0.057260763 -0.04114301 -0.05325787 0.07086025 0.03639883 -0.015903832 0.08250126 -0.046123825
-0.047008563 -0.033329472 0.051492054 -0.040917534 0.035728388 -0.039479114 -0.02741366 -0.023034165
0.013799544 0.058941193 0.058405902 -0.08698322 -0.05122129 -0.0054834206 0.07798034 0.0017985406
0.00801568 0.004201844 0.043098327 0.012519677 0.014745877 0.11373224 -0.015773576 0.0020675897
-0.0010059907 -0.020648066 0.07669757 0.060891133 -0.066618174 0.074480034 -0.051957276 -0.014476436
-0.053580426 0.04317393 -0.035716444 -0.046173364 0.031463183 0.059454583 -0.061936207 -0.114683144
-0.025219256 0.008496281 0.053638272 0.04907824 -0.049650107 0.02533828 -0.04874412 0.024455206
0.003080568 0.08459716 0.068347454 -0.022502322 0.057313904 -0.11254137 -0.016918965 0.022724932
0.06637466 -0.048337948 -0.030891994 -0.017520206 -0.05785763 0.008637581 0.07253148 0.113459915
0.038838495 -0.018117074 -0.011188141 0.056687422 -0.0659831 -0.018813057 -0.016173268 -0.004136176
-0.07358788 -0.086043395 -0.05833553 -0.04623731 0.07254349 -0.08497672 0.09017733 -0.0093284445
0.021437855 -0.050596397 0.047039654 0.042953115 0.08003911 0.0670853 0.05820685 -0.08442326
-0.089214355 -0.031740226 -0.07518041 -0.023154434 -0.0029990338 0.019201001 -0.006675309 0.095177
-0.04445241 -0.0024966935 0.07879335 -0.021397594 -0.050582185 -0.003393264 0.023062812 -0.07553811
-0.012431279 -0.062370956 -0.08451612 -0.019357437 0.028958771 -0.05595718 -0.056540098 0.09811811
-0.05103023 -0.0324653 -0.05603263 0.008984715 0.086727366 0.03962011 0.06535016 0.033416018
0.009681831 0.06273233 0.013523509 -0.08554571 -0.05397506 -0.06370518 -0.0021569345 -0.038861856
0.06655217 0.066799246 0.026355963 -0.039214917 -0.04354162 -0.07813068 0.05585265 -0.040546473
0.026876708 0.059238136 0.0039653205 -0.015339105 -0.08385168 -0.11444231 -0.016137851 0.10311689
0.071527235 -0.00039266207 0.005747542 0.033371963 -0.04854988 0.090768896 0.009464174 -0.048334524
-0.007973788 -0.061639886 0.018179288 -0.048583288 -0.042802263 -0.05412445 -0.019895641 0.11514378
-0.033259355 -0.03193819 -0.011097003 -0.06149499 0.029099947 -0.04317142 0.017050827 -0.07197041
0.04935089 0.084419906 0.004747571 -0.0057303687 0.04917121 -0.05801677 0.05583386 0.059516113
-0.014329176 -0.024679115 0.07362292 -0.048657496 -0.08853158 -0.099401236 0.03546496 0.006883218

actor.linear1.bias f4 [128]
00000000: f681 0f3d c6be 6f3c d497 8bbd b766 643d
00000010: eff9 e03c 5027 913d 22e3 943a bfbe a03d
00000020: e182 6e3d 4336 01bd 76f1 b63d d98f 38bd
00000030: 0803 973d e2b7 713d d47e b23c d2c0 2bbd
00000040: ab33 8cbd a480 a33d 6348 853c 9626 91bd
00000050: cc6e ea3c 334a 2d3d edd2 393d 7ded 90bb
00000060: 1e5d 8dbd d2d7 423d 7a71 2f3c 3d91 f0bc
00000070: 9ea5 4e3c 4a5c 8f3d 3652 36bd ce4b 93bd
00000080: 38dd dabc 52d0 ba3d 6747 66bd 911c 48bd
00000090: 5e08 8d3a 3faf 2c3d 33bb c1bc 4ce7 8dbd
000000a0: 59aa bbbb f346 ef3c 1198 5ebb c221 6bbd
000000b0: f23d 363d 9dea ba3d 7858 52bd 45ac 203b
000000c0: 8196 bb3d b4a1 1fbc 9dd7 2abd 8c5c de3c
000000d0: aa5e 51bd c08d 863c 3c95 3abd f269 873d
000000e0: b772 1c3d e849 863d f95e 2ebd a9f3 ac3d
000000f0: a71b abbd 7771 b03c c8bd 8bbd b8c6 92bb
00000100: b2ec 1abd b6ba 7a3d 445c 8c3c 6845 b63d
00000110: 5925 acbd da17 18bd 1f6e a9bd 4c13 8d3c
00000120: 55db 1e3d 4c85 b0bd 3bb9 b83d a1e6 9f3b
00000130: 8f8a 1dbd c608 943d c8f1 a43d 4a1a 62bd
00000140: 39e7 8f3c 9d9f 8e3d b939 9d3d 8109 433b
00000150: 7f3a bfbd ff83 19bc c1fb 84bd 3635 80bd
00000160: 8bcc 0fbd d1b0 d63b e21d 333c 1f9e 423c
00000170: 8ee2 ea3c d756 0b3d 0155 a3bc b345 91bd
00000180: b9db 16bd f3bd bfba 397e db3c cd39 343d
00000190: bc1d 4a3d 4b2d 773a 3149 b43d 99c9 1d3d
000001a0: 5f82 b3bb fef9 c23d c9c7 83bc aab0 7cbd
000001b0: 2fc0 c03d a350 5fbd e4e4 89bd 8b28 6f3c
000001c0: 662f 80bd a5ec a13c 38af a73b 8294 983d
000001d0: 6167 94bc bd9b e8bc 6e9d 5dbd 1b4b 12bd
000001e0: b318 83bd b77d 553d 4393 5ebd 5d63 edbc
000001f0: c904 b2bd 3403 06bd b084 c73d aab6 923d
0.03503605 0.014632886 -0.06816068 0.05576202 0.027462928 0.070875764 0.0011359195 0.07848882
0.058230285 -0.03154589 0.08932774 -0.04505906 0.07373625 0.059013255 0.021788992 -0.041931935
-0.068457924 0.079835206 0.016269868 -0.07087438 0.028617285 0.04230709 0.04536717 -0.004422842
-0.06902526 0.047569104 0.010708207 -0.02936613 0.012612728 0.070000246 -0.044511996 -0.07192193
-0.026716813 0.09121765 -0.05622044 -0.048855368 0.001075994 0.042159315 -0.023648834 -0.06928882
-0.005727094 0.029208636 -0.003396515 -0.05740524 0.04449267 0.0912678 -0.0513539 0.0024516743
0.09159566 -0.009743143 -0.04170953 0.02714374 -0.05111567 0.016425014 -0.045552477 0.06612004
0.038195338 0.06557065 -0.04257104 0.08444912 -0.08354884 0.02153848 -0.06823307 -0.0044792555
-0.037823386 0.061213218 0.01713384 0.08899957 -0.08405561 -0.03713212 -0.08272957 0.017221116
0.03878339 -0.08619174 0.09019705 0.004879788 -0.038462218 0.07228236 0.080539286 -0.055200852
0.01756631 0.069640376 0.07677025 0.0029760303 -0.09337329 -0.009369849 -0.06493331 -0.06260149
-0.035107177 0.00655184 0.010932418 0.011878519 0.028672483 0.034018364 -0.019937994 -0.07093372
-0.036830638 -0.0014628753 0.026793586 0.044000436 0.049344763 0.00094290514 0.08803023 0.038522337
-0.005478188 0.095203385 -0.016086476 -0.061691917 0.09411656 -0.05452026 -0.067331105 0.014597069
-0.062590405 0.019766161 0.0051173232 0.074502006 -0.018115701 -0.028394574 -0.054105215 -0.035716157
-0.064011954 0.052121844 -0.05433966 -0.028978044 -0.08692319 -0.0327179 0.09742105 0.07163747

actor.linear2.weight f4 [128, 128]
00000000: f2f4 6a3d 5da6 37bd fd4a ac3d c800 2cbd
00000010: 732f 93bd bf79 433c 1437 83bd 997e 7cbd
00000020: e2ef 8d3d fd28 133d bf4e aabd 747b 953d
00000030: d8f2 e83c e150 2bbd 0b27 123d 2b59 8bbd
00000040: 4b8e 913b 3679 49bd 1fee 313d 3ce7 5e3d
00000050: 0a2d 0eba 4ea9 d2bc d746 bebb 6700 81bc
00000060: 096a 143d 717e 27bd ffef 883d 6f49 d03c
00000070: a146 a0bc 8e59 d1bc e6a3 8a3d 6393 9bbd
00000080: 9cba 1a3d 608a 9abd d3be 29bd fff7 fd3c
00000090: 2459 3cbd 92ec 26bd fa40 3fbd 4124 f5bc
000000a0: 91c3 13bd 6452 e23c f963 943d 9487 81bd
000000b0: 5139 a1bd 2f2a 98bd 77a8 70bc e14c 95bd
000000c0: c501 6c3d 1e38 d0bc 2d28 36bb bcef bcbc
000000d0: cf68 b7bc 8a4e 433d 5569 4fbd 37ec 403d
000000e0: 4807 3c3d 9935 4a3c 58ed 51bd 1ca5 a0bd
000000f0: 503b 973a 46cc a33d 6701 073c 7a11 4c3d
00000100: 4fc2 c1bc 3f2f d2bc 2d01 903d 8b6d a3bd
00000110: feee 683d 90d8 adbd 1593 26bd ac28 353b
00000120: 558d 983c ec98 7a3c cbc2 493c 2a6f 9d3c
00000130: c11f 58bd d161 a6bd 0606 a03c 8612 803d
00000140: dab6 2cbd 72a0 e5ba 62cc fd3b 4e44 1e3c
00000150: f13b 93bd 1456 b93c 247b 8b3d 5cc5 f4bc
00000160: 61df 823d 8a6a a43d 2c5a 8abc 43cb 953b
00000170: e06c 9cbd 404f 613d fbc1 223d 3835 48bd
00000180: f4e7 ae3d b9e2 173d 9c53 54bd 2b11 a1bc
00000190: 47c2 ae3d 90e3 89bd 9902 8fbd 2364 ed3c
000001a0: 1d58 ba3c beba 0e3d ea7d 3e3d 84aa 8ebd
000001b0: 3c0e 0fbd e8fa 2bbc 928d 74bd 6d99 673d
000001c0: a596 4e3d 78d7 a3bd e62c 79bc 493a 9ebd
000001d0: 531b a63d 4b13 0b3d 211a ba3c 3740 1f3c
000001e0: 0230 febb fe72 8ebc 6d84 893d 6a43 6bbd
000001f0: d995 e03c 4c70 8abd 285f 14bb 72d3 83bb
00000200: 21ad b43c 22de 8fbc 08cc 5cbd 686d 5cbd
00000210: a8e6 2abd 87b7 2d3c 9a67 c13b b55a ccbc
00000220: 9952 6cbd 9e78 8c3d 737d cebc 9806 c43c
00000230: b1d9 a2bd ec49 3d3b 9fc6 2c3d a4fc 5dbc
00000240: 9ac3 a93c 6e3c 8cbd 8e24 803d 0b35 9e3d
00000250: c2da 02bd 42b8 55bd b8cd 91bc 9088 4e3c
00000260: 966a bbbd af04 7a3d 3efe 58bd d829 de3c
00000270: 9d4c 91bd b3a4 25bd f53f a53d fb9c bcbd
00000280: 0438 a63d c72b 26ba 49c7 a9bd f5f0 58bd
00000290: 2077 5ebd 2e34 a13d 16f9 a23d 93a6 b23d
000002a0: 1e39 c13d 2420 503d 9768 4bbc 1460 993d
000002b0: 111b 98bd f0ab 52bd 463c ef3c 1e38 443d
000002c0: ae36 b83d 8a3a 33bc d588 01bc b7ba 73bd
000002d0: a882 4cbd d947 aebd 87e1 97bb d2a0 8c3d
000002e0: fd8c 8c3d ac2d 11bd e118 5ebc 5279 ffbc
000002f0: ec78 02bd a74b c1bd 614d 8f3d 9fa7 753d
00000300: 45f0 12bd 693f c7bc 6594 da3b d797 a4bd
00000310: 4cda 793d aef4 9c3c 3afa 053d 4104 2a3d
00000320: 196b b13d a148 4bbd 72c4 973c d117 b23d
00000330: 1239 19bd d042 b93d 02d6 a23d 2ec3 143d
00000340: 30f8 193d 6486 bd3c e823 9cbc 174b c1bc
00000350: 6ba7 35bd 48e5 693d e909 213d 8a48 11bd
00000360: 4ac2 0dbd f7df b5bd f063 a1bd 2a3e b7bd
00000370: a503 83bc fa05 573d 4d6b 643d c4f4 a6bd
00000380: 0729 38bb 9d3b 023c 81b0 42bb bcd5 69bd
00000390: b86e 0c3d 338c a93d 58f1 973c 35f2 0d3d
000003a0: 845e 8fbd b89b 5dbd 5804 5c3d edfe 313d
000003b0: 4cbf 4b3c 1b1c c63a 05fa 17bd 3606 91bd
000003c0: b86c f13c 04f5 89bd 324f 80bd 107f ebbc
000003d0: d5c4 95bd 309e 45bd 4fcb 0abd 81b3 7e3d
000003e0: d7ff 19bd b23a 03bc c031 aabc 4c90 b63d
000003f0: ca85 09bd b621 ddbc 472e 8d3d b59e 5e3d
0.057362504 -0.04483639 0.084127404 -0.041992933 -0.071867846 0.011930882 -0.0640699 -0.06164417
0.0693052 0.03592776 -0.08315801 0.072989374 0.02843611 -0.04182518 0.035681766 -0.06804117
0.0044420115 -0.04918786 0.04343998 0.05441974 -0.00054235815 -0.025715496 -0.0058067846 -0.015747262
0.036233936 -0.04089207 0.066864006 0.02542564 -0.019564928 -0.025555398 0.067695424 -0.07596471
0.03777562 -0.07545924 -0.04144175 0.031002043 -0.04598345 -0.040752955 -0.046692826 -0.029924514
-0.03607518 0.027627178 0.07245631 -0.063246876 -0.0787226 -0.07429921 -0.014688603 -0.07290054
0.057618875 -0.025417384 -0.0027794943 -0.023063533 -0.022388844 0.047682323 -0.05063756 0.047100272
0.04590538 0.01234188 -0.05125174 -0.07843992 0.0011538062 0.079979464 0.00824008 0.049821354
-0.023652224 -0.025657294 0.07031474 -0.07979878 0.056868546 -0.08488572 -0.040667612 0.002764265
0.01862208 0.0152952485 0.012314509 0.019218046 -0.052764658 -0.08124126 0.019534122 0.06253533
-0.04216657 -0.001751913 0.0077453116 0.00965984 -0.07189167 0.022624053 0.068105966 -0.029879265
0.063902624 0.08028133 -0.0168887 0.00457135 -0.07637954 0.05500722 0.039735775 -0.04887888
0.08540335 0.037081454 -0.05183755 -0.019661507 0.08533149 -0.06732857 -0.06982917 0.028978413
0.022747094 0.03484606 0.0465068 -0.06966117 -0.034925684 -0.010496832 -0.059705324 0.056542803
0.050436635 -0.08000082 -0.0152084585 -0.07725961 0.081106804 0.033953946 0.022717537 0.0097199
-0.007757188 -0.017388817 0.06714711 -0.057437338 0.027415203 -0.067597 -0.0022639725 -0.004023009
0.02205521 -0.017561976 -0.053905517 -0.053815275 -0.041723877 0.010602838 0.005902243 -0.024945596
-0.05769596 0.068589434 -0.025206303 0.023928925 -0.079516776 0.0028883172 0.042181607 -0.013549004
0.020723153 -0.068474635 0.06256972 0.07724961 -0.031946905 -0.052177675 -0.01779829 0.012605801
-0.09151189 0.061039623 -0.05297684 0.027119562 -0.07094691 -0.040440273 0.080688395 -0.09209629
0.08116153 -0.0006338921 -0.08289964 -0.05296417 -0.054312825 0.078712806 0.079576656 0.08723178
0.09434722 0.0508119 -0.012415073 0.074890286 -0.074270375 -0.051433504 0.029203545 0.04790508
0.08994804 -0.01093925 -0.007906158 -0.059504237 -0.04992929 -0.085097976 -0.0046350393 0.068666115
0.06862829 -0.035443947 -0.013555736 -0.03118578 -0.0318536 -0.09438258 0.06997181 0.05997431
-0.03587367 -0.024322229 0.006670522 -0.08036774 0.0609992 0.019159641 0.032709338 0.041507963
0.086630054 -0.04962981 0.01852629 0.08695949 -0.037407942 0.090459466 0.07950975 0.03631895
0.037590206 0.023135372 -0.01906009 -0.023595376 -0.044349115 0.057103425 0.03931609 -0.03546957
-0.034609117 -0.088806085 -0.0788039 -0.08947404 -0.015992949 0.052495934 0.055766392 -0.08152154
-0.0028100626 0.007948783 -0.0029707255 -0.0570886 0.034285277 0.08278694 0.018547699 0.034654815
-0.07000449 -0.054103583 0.05371508 0.043456007 0.012435745 0.0015114577 -0.03710367 -0.07081263
0.029470786 -0.06736186 -0.06265105 -0.028747112 -0.07312933 -0.048246562 -0.033885296 0.062182907
-0.037597504 -0.0080095995 -0.020775676 0.08914241 -0.033574857 -0.026993614 0.06893592 0.054350574

actor.linear2.bias f4 [128]
00000000: 8e25 afbd c1a2 8a3d 7be4 8fbd c7d5 59bd
00000010: 9902 4fbd fb44 02bd 2b70 973d 8bef d7bc
00000020: dedd 853c 190b a13d 7b87 03bd 4209 a33d
00000030: 3b5b 87bd 777b 7e3d 744c 443d d5be 96bd
00000040: cccc ac3c ae12 03bb e4ba 843d 0dc6 a2bd
00000050: 7f7c 45bd e692 be3b 40b7 81bd 8225 5a3b
00000060: 4c13 33bd 05f2 35bd 2552 b63c 1b9f 73bd
00000070: 8138 143d e01b bc3b 929b 23bd 4453 2e3d
00000080: 6ca6 cdbc f917 0c3b 7fd1 713d 924c 9c3d
00000090: a72b 193d ab76 853d b3de 073d ffef 67bd
000000a0: b08c 22bd 2e89 663d 81dd 50bd 457b aabd
000000b0: 6a01 3d3c 668f 383d 30cb 8a3d 0083 13bd
000000c0: 145a af3c c452 82bd 8678 98bd 99d2 0e3d
000000d0: c720 35bc acc9 1a3d af78 74bd 3eaf fa3b
000000e0: 0cbf 51bc eb08 89bd 205a 733c 6bbe a5bd
000000f0: bfe8 e13c 8f52 593d 9c12 5bbd c18c 7abc
00000100: 9f4b f7bc 283f 0c3c 75ea ad3c 7d3f 243d
00000110: 5e62 c9bc 65d3 4fbd f669 5c3c 9adf ac3d
00000120: 0aed 9dbd 6dd7 ab3d 5605 b93d 72ed 98bd
00000130: ebf9 dcbc b465 9dbd 0e38 c7bc 7967 b33d
00000140: f1e8 b4bc aa6f fcbc 3dac 34bc fc64 bcbc
00000150: cbf8 0b3c f0bf 2ebd 3131 8c3d b5f2 183d
00000160: b947 9bbd 7889 bdb9 cd3b afbd b89d f23b
00000170: b5ae 943d 6936 b53c 007e a5bd c4e1 96bd
00000180: 116f 3b3c e36d f73c cecd abbd cc5c f03c
00000190: 9321 8d3d 1c9a 4dba bffb a43d 8e21 87bc
000001a0: b726 91bd ff9d 91bb cc9e 5dbd dfad 373c
000001b0: 9ae6 97bc 703d 503d e231 393c b5dc 433d
000001c0: 0eec 11bd 99a8 bd3d 7d86 053d bd1e 183d
000001d0: cfa1 3b3d 75e9 533d f60a 443c cf7b 03bd
000001e0: f3ca 8b3d 6a5c 90bd 4810 393d 424b 18bd
000001f0: d0c3 4ebd 0622 92bb bbbc b23d 5ec3 463d
-0.08552085 0.06769324 -0.07026001 -0.05318239 -0.050539587 -0.031804066 0.07394441 -0.02635934
0.016341146 0.07863445 -0.032111626 0.0796075 -0.06609198 0.062129464 0.047924474 -0.07360617
0.021093749 -0.0020000148 0.06480959 -0.079479314 -0.04821443 0.0058158515 -0.0633378 0.0033286517
-0.043719575 -0.04442026 0.022255966 -0.059477907 0.0361867 0.0057406276 -0.039943285 0.042559877
-0.02510377 0.0021376594 0.05903768 0.07631792 0.037395146 0.06516775 0.033171367 -0.056625362
-0.03968495 0.05628317 -0.050992493 -0.08324293 0.011535982 0.04505863 0.06777036 -0.036013603
0.021405257 -0.063634425 -0.07444863 0.03486881 -0.011055178 0.037789986 -0.059685405 0.007650285
-0.012801897 -0.06691154 0.01485303 -0.0809296 0.027576802 0.05305725 -0.053484544 -0.015292347
-0.030187426 0.0085599795 0.021229962 0.04009961 -0.024583038 -0.05073871 0.013452997 0.08441086
-0.07711227 0.083906986 0.09034221 -0.07467164 -0.026974639 -0.07685414 -0.024318721 0.0875997
-0.022083731 -0.030814964 -0.011027393 -0.022997372 0.008543204 -0.042663515 0.0684532 0.03734084
-0.075820394 -0.0003615131 -0.08556328 0.0074040554 0.07259885 0.022120671 -0.08080673 -0.0736728
0.0114400545 0.030203765 -0.083888635 0.029341124 0.068911694 -0.00078430935 0.08055829 -0.016495492
-0.070874624 -0.0044438834 -0.05410652 0.011210888 -0.018542577 0.05083984 0.011303397 0.047817905
-0.03562551 0.09260673 0.03259896 0.03713869 0.04580861 0.051736314 0.011965504 -0.032100495
0.06825819 -0.070488766 0.045181543 -0.037181146 -0.05047971 -0.0044596223 0.08727404 0.04852616

actor.linear3.weight f4 [128, 128]
00000000: 92c7 b9bc 2760 0f3b 9dad 993d cdb3 753d
00000010: fdf6 383b 6570 2e3d 83a2 a03d e738 2d3d
00000020: fcd9 10bd c403 b8bd 64e2 503d e39a adbd
00000030: 6bad 9dbd a5d8 393d 218b 3d3d 8c4d a4bd
00000040: 42f3 ca3c 0e70 943b 8019 00bc e39c a13d
00000050: a600 f83b d8da 2c3c 79ff 223d ba8f a23c
00000060: 24fa e33b 157b 113d 6749 713d d0dd 09bc
00000070: 6130 f03c 4e42 17bd 82c2 d637 232c 63bd
00000080: 892a fc3c aea7 b1bc d040 8e3c b86f 993d
00000090: 2a6c 9bbd efec 663d dc51 3fbd a584 203d
000000a0: 1ad1 8fbd 3c7e 0d3d e206 b53c 1384 8fbc
000000b0: 0577 11bd dd1e 993d 72a3 b53d 8ea0 4ebc
000000c0: d816 fe3c 1a76 d5bc accf 36bd c812 363d
000000d0: 2c4d 2ebd 2975 1dbc 96a5 a8bd 28fc c23d
000000e0: 139f 3e3d ee84 9abd 4f0f 73bd 3ec5 a4bc
000000f0: f12e 8a3d 1c59 823d d117 01bd 337d 8dbc
00000100: 7877 5cbd 439d 523d e92e 8e3c 976e a43c
00000110: 263d 14bd 1735 a0bc 4ef5 45bd 0e9d 66bd
00000120: db20 6d3d 657f 4d3d 632c e6bc c9a6 423d
00000130: 1d1d 1f3d c256 b43c b758 9c3d d722 39bd
00000140: fbdb a2bc b3c1 ad3c a354 bc3c 74b7 07bd
00000150: 49be 593d 8d97 7cbd d50f 23bc e76b ffbb
00000160: 76e6 85bd 654c 19bd 46c0 c0bd fe28 1ebd
00000170: 024a 25bd 65dd 843d 88a1 05bd 0214 8ebd
00000180: 9e86 8e3d 9ba8 8ebd ce16 2fbd 9819 e43b
00000190: 98e4 26bd 7e01 a1bd 2b14 493d 2c7b 923c
000001a0: 6a78 f1bb 097d 033d 5e34 983d 9722 e339
000001b0: ee1c 933d 259a 943d 3b70 613d fe39 b53b
000001c0: 5709 99bd 5160 07b9 9f77 993c 0cb9 863d
000001d0: 18d2 41bd bda3 483d ab88 50bd 3166 2d3d
000001e0: 0fb9 44bd 8fa3 eaba a33e 8b3d 0438 8c3c
000001f0: 1661 863c 1221 9eba 16aa 4bbd c44d d7bc
00000200: 2e4b 173d 2f75 883c d4a9 b9bc 56bb 2b3d
00000210: 59a3 7c3c 3232 b1bc f00c b23c 4baa 463c
00000220: f5bd a13d 26a3 b03d f591 0cbc bb1a 0f3c
00000230: 15cf 343d af65 ca3c 8705 733c cb64 593d
00000240: b8e9 01bd de41 553d 3cca a13c 0205 893d
00000250: 9f49 633d ffbf 083d ee04 30b9 aab8 913d
00000260: 6f25 ad3b f193 1cbd 594b f9bc 19a0 28bd
00000270: 1002 b7bd be0b 353b fab5 bfbc 5f0e 983c
00000280: 38b9 e2bc d222 b33d 18d0 a93d 43d6 ae3d
00000290: 1558 b2bd c736 0a3d cb82 773c f969 493d
000002a0: fa22 dabc 2de7 003d 6a17 653c 31e8 05bd
000002b0: f3d8 41bb a9bc 973c 350b a7bd f2d3 8cbd
000002c0: 138f 02bd 9c29 c9bc b132 e83c adcb 03bd
000002d0: 4e1f 993d 3d37 2abd e2e1 92bd 8c46 a6bd
000002e0: 9512 c4bd 41d5 3b3d 1f02 07bc b06d 993d
000002f0: 8df4 9c3c fc1c db3c bdca f93c 686c 9a3d
00000300: 41d0 17bd db0d 4dbc 035e 77bd 4d4b 063d
00000310: cb75 bfbc 7d04 61bd d0af 143d 6db4 18bd
00000320: baa4 f53c e72c 203d 1a04 8f3d 854c 93bd
00000330: 195c 0bbd 852a 38bd dbb2 a93d c133 a9bd
00000340: f5be 9e3d 2d7b cf3b d858 983d f45d 0ebd
00000350: 6ff6 d639 e6dd 713d daec 883d a567 c4bc
00000360: 8af3 8ebc 050c 98bd dbcb 283d c043 1b3d
00000370: d636 7d3c 263b 543c 29d5 b6bd 8518 443c
00000380: cd80 14bd 2f33 9d3c d93c 82bc c6e9 9abd
00000390: 63f4 7abd b415 023d b774 acbd 12e2 bebc
000003a0: 9448 b2ba 861f 4c3d 9d47 24bc 29f8 53bc
000003b0: b2cc ff3c f19c 9f3d e97f c8bd bbf6 213d
000003c0: 4611 16bd 7fa2 1bbd 158f 35bd 46d9 7e3d
000003d0: ecae 903d e4a6 31bc e67f 8bbd 53e5 5bbd
000003e0: c633 84bd 7d5d 7fbb cb95 0fbd 43d7 1e3d
000003f0: 14e7 623d 6fc0 063d 3ccc 833d 8a9d a93c
-0.02267817 0.002187738 0.07503817 0.059985925 0.0028223388 0.042587657 0.07843497 0.042290594
-0.035364136 -0.08985093 0.050997153 -0.08476808 -0.076990925 0.045372624 0.04627526 -0.080226034
0.024774197 0.0045299595 -0.00781858 0.07891252 0.0075684367 0.010550223 0.03979442 0.019843925
0.0069573093 0.03551777 0.058907893 -0.008414701 0.029319944 -0.036928467 2.5601363e-05 -0.055462014
0.030782001 -0.021686401 0.01736489 0.07492012 -0.0758899 0.0563783 -0.046708927 0.039189
-0.07022305 0.034544215 0.022098009 -0.017519033 -0.035513896 0.0747659 0.08869065 -0.012611521
0.031016752 -0.026057292 -0.044631645 0.044451505 -0.042554066 -0.009610453 -0.08234708 0.09520751
0.046538424 -0.075448856 -0.05934077 -0.020113584 0.067472346 0.063646525 -0.031516854 -0.017271614
-0.05382487 0.051419508 0.017356353 0.020072265 -0.03619113 -0.019556565 -0.048329644 -0.056302123
0.05789266 0.05017032 -0.028097337 0.04752234 0.038846124 0.022014026 0.076341085 -0.04519924
-0.019880285 0.021210527 0.022989577 -0.03313394 0.053159986 -0.061667968 -0.009952505 -0.0077948454
-0.065380976 -0.03742637 -0.09411673 -0.038613312 -0.040353782 0.0648754 -0.03262475 -0.0693741
0.0695927 -0.06965753 -0.042746358 0.006961059 -0.040745348 -0.07861613 0.0490915 0.017880999
-0.007369091 0.032101665 0.07431863 0.00043322585 0.07183252 0.07255963 0.055038672 0.005530595
-0.074724846 -0.00012910484 0.018733798 0.06578264 -0.0473195 0.048984278 -0.050911587 0.042333785
-0.048028048 -0.0017901527 0.067990564 0.017116554 0.016403716 -0.0012064299 -0.049722753 -0.026282199
0.03693693 0.01665744 -0.022663988 0.041926704 0.0154198045 -0.02163038 0.021734685 0.012125562
0.078975596 0.08624868 -0.008579721 0.0087344 0.0441428 0.02470669 0.014832861 0.05307464
-0.031717032 0.05206477 0.019749753 0.06690408 0.055490132 0.033386227 -0.00016786504 0.071153
0.0052840034 -0.038227025 -0.030431436 -0.041168306 -0.0893594 0.0027625407 -0.023402203 0.01856154
-0.02767621 0.08746876 0.08291644 0.08536961 -0.087082066 0.033743646 0.015106867 0.04917333
-0.026628006 0.031470466 0.013982633 -0.032692138 -0.0029578775 0.018522577 -0.081564344 -0.06876363
-0.031874727 -0.024555974 0.028344484 -0.032176662 0.07476674 -0.041556586 -0.0717199 -0.081189245
-0.09573857 0.04585767 -0.008240252 0.07491624 0.01915958 0.02674722 0.030492181 0.07540208
-0.03706384 -0.01251551 -0.06039239 0.032786656 -0.023371598 -0.05493592 0.03630048 -0.037281442
0.029985774 0.039105322 0.06983204 -0.07192329 -0.034023378 -0.044962425 0.08286067 -0.082618244
0.07751266 0.0063318224 0.074388206 -0.03475757 0.00041000868 0.05904951 0.06685801 -0.023975203
-0.017450113 -0.074241675 0.041210037 0.03790641 0.015454968 0.012953555 -0.08927376 0.011968737
-0.036255646 0.019189445 -0.015898155 -0.0756412 -0.06126822 0.03175898 -0.08420699 -0.023301158
-0.0013601952 0.04983475 -0.01002684 -0.012937584 0.031225536 0.07793606 -0.09790022 0.03954194
-0.036637567 -0.037996765 -0.044325907 0.062218927 0.07064614 -0.0108430125 -0.06811504 -0.053685497
-0.064551875 -0.0038965635 -0.035054963 0.03877951 0.055396155 0.032898363 0.06435439 0.020705003

actor.linear3.bias f4 [128]
00000000: 67ac 7dbd 0f8f 54bd 82da 693d 0082 23bd
00000010: 5d2f 923d e400 f43c fff6 76bd 1266 203d
00000020: 5a61 b6bc 2d97 5d3c 5df2 623d bafb 993d
00000030: d852 8dbd defc 773c 9c89 b93b 98af d73c
00000040: 30d1 a93d 259e 65bd f70c 82bc 79a2 c0bd
00000050: 7fa9 8f3d 8af1 a0bd 36b6 27bd 20ef 4e3c
00000060: 5d45 39bd 918b 6fbd 4a8b 27bd 2c5d 713c
00000070: 4227 a8bd 1368 4fbd 204b 213d 2501 3fbc
00000080: 4612 42bd a7e9 e43b 91b8 b73d b96e 1d3a
00000090: 7ca4 91bd f6bf 643b 3dbf 99bd d63d 403d
000000a0: 66eb 8c3d f3d1 a2bd ae06 4c3d 2778 acbc
000000b0: dad8 2d3b 65ce 96bd d607 a53d e65b 90bd
000000c0: 179d 863d 138f 7dbd 794c fc3b d498 293d
000000d0: 15cd a6bd 701f 173c 6743 abbd f39c 87bd
000000e0: 774a 4f3c a39a 0c3d 9c8e 0c3d d4af 003d
000000f0: db55 0ebd dda4 353d 8a70 a3bc fd76 6b3d
00000100: 3067 02bd 9e5a aa3d 0f88 a5bd 562c 20bd
00000110: 68f0 783c 384e 743d 0715 6bbd 34a7 0bbd
00000120: e014 4bbc 0148 8abd be73 97bd f28e 6dbc
00000130: c0a3 aa3d 0f82 823d e18c 553d 9bad 193c
00000140: 9d9d 70bd 7bd3 6ebd 3b54 8bbd cebf a9bb
00000150: 60a5 51bc b3ff 84bd c06a a7bd c6b3 5c3d
00000160: d585 163b c2cf 9e3d 94ac 513b 4670 263d
00000170: 362f c4ba 3957 8a3d 4931 c93b 66b5 063d
00000180: 24b2 44bd 5e83 363d 9e9a 96bd 64a2 a1bd
00000190: 8842 53bd 0747 5c3d ee1d 9fba a3e4 533d
000001a0: e39d 833d d376 2cbd 619f 503d d653 bcbd
000001b0: dd80 163d f1f4 26bd c9cc 5ebc aebd c7bb
000001c0: 67f0 94bc ef55 b1b9 fab7 d63b 45e9 ccbc
000001d0: de01 35bd 8789 2abc 0205 39bd 87b8 04b8
000001e0: f6f0 3cbc 983a aebd 37a4 dcbb dcda 053c
000001f0: f9c8 edbc 18ed 803d c675 a73d 7071 153d
-0.061931994 -0.051894244 0.05709315 -0.0399189 0.0713794 0.029785581 -0.060294148 0.03915984
-0.022263218 0.013524813 0.055406917 0.07518716 -0.06900567 0.015135972 0.0056621563 0.026328847
0.082918525 -0.05605902 -0.015875323 -0.09405989 0.07014751 -0.0785857 -0.040945254 0.012630254
-0.045232166 -0.05848271 -0.04090432 0.014731687 -0.08210613 -0.050636362 0.039378285 -0.011657988
-0.04738071 0.0069858613 0.0897075 0.00060055737 -0.07111451 0.0034904457 -0.07507179 0.04693397
0.06880836 -0.07950201 0.049811058 -0.021053387 0.0026526959 -0.073635854 0.08058135 -0.07048778
0.06572931 -0.061904024 0.007699546 0.041405514 -0.08144585 0.009223804 -0.08362465 -0.066217326
0.012652031 0.03432716 0.03431569 0.031417683 -0.034749847 0.04434668 -0.019951124 0.057486523
-0.03183669 0.08318065 -0.08082592 -0.039104782 0.015194036 0.059644908 -0.0573931 -0.034095004
-0.012395114 -0.06752015 -0.07395123 -0.014499413 0.08332014 0.06372463 0.052136306 0.00937977
-0.05874406 -0.058307152 -0.06803175 -0.0051803356 -0.012795776 -0.06494083 -0.08174658 0.053882383
0.0022967954 0.077544704 0.0031993734 0.040634416 -0.0014967683 0.06754918 0.0061399085 0.03288784
-0.04802145 0.044558875 -0.0735371 -0.07892302 -0.05157712 0.053778674 -0.0012139657 0.051731717
0.06426599 -0.042105507 0.050933246 -0.09195678 0.036743987 -0.040760938 -0.013598629 -0.0060956096
-0.018181039 -0.00033824096 0.0065526934 -0.025013575 -0.044191234 -0.010408766 -0.04517079 -3.1643107e-05
-0.011532059 -0.085072696 -0.006733443 0.008169856 -0.029026495 0.06295222 0.081767604 0.036485136

actor.linear4.weight f4 [9, 128]
00000000: 7365 d1bb 0d07 0e3c 1493 563d 9518 aabd
00000010: fbe8 d1bc 4923 843d c603 bfbd a75f 9dbd
00000020: 0a41 c63c fa51 7e3d d097 aebb 898d d53c
00000030: 15dc a0bd 64c4 a03c 61f3 b7bd 140c 6a3d
00000040: 5066 7f3b 57f2 203d ee95 a43d e79a a9bd
00000050: 6a4a 873d 2f2a 833d ac50 2bbd 3a6b 08bc
00000060: 7038 7e3d 7afc b2bd 44f6 35bd 97f6 93bd
00000070: c0a7 ac3c 886c 1c3d b62e 453d 3c9d fc3c
00000080: f82b 903c 34df 833c 1b01 c23d 8c47 9fbc
00000090: d2d4 04bd a51f c8bc 8e17 adbd bb4b b5bd
000000a0: b9b5 1d3c 218e a4bd 867b f63c c48d 953d
000000b0: 71e3 69bd afa3 a7bc 4212 10bd 3c06 ab3c
000000c0: 01fe 573d 1c36 903d 1ed5 a53d baf9 6ebd
000000d0: 60bc c7bd 6157 a13c dc08 6d3d e20f 0a3d
000000e0: f44e c33d 806e 8fbd 3200 c2bc 5624 803d
000000f0: 321a cf3c 1e7e 983d 256a e4bc caec 81bd
00000100: 5f74 34bd 2f79 c13c ed86 ccbc c7c7 7b3d
00000110: 9fb9 b93d 2ad3 e1bb 6ab0 a4bc 6e6f f33c
00000120: 6f13 913d 983d 73bc 3175 593d b541 20bb
00000130: aae8 96bc bb2a 22bd 7721 9fbd 6b0c 80bb
00000140: 0db6 f83c 9322 a23d c562 f63c fbbe 91bd
00000150: dcd0 b33d 0498 12bd 6704 863d 020b 40bd
00000160: 6918 6fbd 3f25 68bd 95aa ad3d 1006 99bc
00000170: dbdd e53c 8376 393d b1ac ccbd 3efa 583d
00000180: 6ce1 0b3d 08dd 63bc 3d28 99bd 8d42 7abb
00000190: fd91 8bbc f201 5dbd 8f89 12bd 01b8 5bbd
000001a0: 41e1 47bd 579c 9ebd 209a 6ebb 1f3e b9bc
000001b0: 9ab8 90bc c575 c3bc 6812 15bc e648 9bbd
000001c0: 6dea 89bc 8b29 953c 4092 a7bd 562c a7bc
000001d0: 9a9e 943d 7ccf 5d3d 59bb 293d b8ef 9c3b
000001e0: 0fed c13d 901e 4dbb 2820 223c 1954 2a3d
000001f0: a231 053d 2144 1c3d c354 babb 263d e33c
00000200: 4214 3abc 1124 8d3a 2e69 213c fb1f 9b3d
00000210: b72e 983d a781 ef3c c0e9 0b3d 1bd4 8abd
00000220: deaf 2b3d b855 703d 3e1f 323d bd5f 69bd
00000230: 0624 a63d c258 993d b0b9 a33c d523 a13d
00000240: b09a 85bc c0ac ff3c 4ed5 82bd fdfd 69bd
00000250: 7b84 203d 2f97 89bd 48f4 943a a3e1 b53d
00000260: 9f7c 9ebd 2baf 0d3d e4b9 9fbd b194 25bc
00000270: 2e0e ffbc 1717 e33c bc4d 70bd bc63 bcbb
00000280: da0b 063d 0533 4c3d b9c0 8f3d e803 b43d
00000290: 8282 753d 5053 98bd 99c6 a2bd f1eb 8e3d
000002a0: 9347 143d f6cb 493b 1a60 2ebd 322d d9bc
000002b0: b2aa 14bd 9da3 30bd 0f1b 22bd 60ce b93d
000002c0: f891 c53c 6039 8abd 3b83 93bc 32fe c9bc
000002d0: 94be b43c f918 403b 01ea 0cbb 2771 a1bc
000002e0: 504c 923d 148a 3c3d 55be 413d c1be d2bc
000002f0: cdbe 41bc 94f8 0dbd 916d 01bc 4434 9f3d
00000300: 422c bb3b 52ae a6bd 2dfd a3bd 7c61 afbd
00000310: fb9e 3dbd c5df a6bc b8a8 e63b 7942 9fbd
00000320: cbad 483d 59bc bebd c99d a13d 6fb1 cc3b
00000330: efb2 81bd 18b5 81bd 76f2 9fbd 0250 bbbd
00000340: 4b91 53bd c2e3 7cbc 6203 843a 85d2 b0bd
00000350: 334f b5bc ed98 3cbc 9e01 aebd a9df 88bd
00000360: 9e1b 123d 948d bebd a4f6 4cbd 9487 3e3d
00000370: 89ba e1bc f54c d0bb fb6e 82bd 201e 103d
00000380: 7cf7 5abd 4148 52bc f38b 803d 1e8b 27bd
00000390: dc27 58bd 3d9d abb9 9589 9dbc a9e2 b8bc
000003a0: 1553 833c 33c6 91bc c8e1 87bd ade9 8dbd
000003b0: d6f7 863c 50de a9bd 3d27 a93d b618 c1bd
000003c0: a6c4 83bd f280 dcbb 9f83 323d 0872 ba3d
000003d0: e1f9 b9bd 167b 983c fc4e 9dbd c13b b53d
000003e0: e3ca 123d bd04 00bd f78e f73c 78a9 fa39
000003f0: 643f b6bd 2bf3 0f3d 63e6 843d d865 b1bd
-0.0063902675 0.008668673 0.05238636 -0.0830547 -0.025623789 0.064520426 -0.093268916 -0.0768426
0.024200935 0.062089898 -0.005328156 0.026068466 -0.07854477 0.019624896 -0.08981968 0.057140425
0.0038970895 0.039293613 0.08036409 -0.082814984 0.0660599 0.0640453 -0.04182498 -0.008326346
0.06206554 -0.08739562 -0.04442431 -0.07224768 0.021076083 0.03818944 0.04814025 0.030836694
0.017599091 0.016097642 0.09472867 -0.019443296 -0.032429524 -0.024429152 -0.08451758 -0.08852335
0.009625846 -0.080349214 0.030088197 0.0730243 -0.05710167 -0.020463793 -0.035173662 0.020876996
0.05273247 0.070415705 0.080972895 -0.058343627 -0.097527266 0.019694986 0.057869777 0.033706553
0.095365435 -0.07003498 -0.023681734 0.062569305 0.025281046 0.0744593 -0.027882645 -0.06343992
-0.044056293 0.023617355 -0.024966681 0.06146982 0.090686075 -0.006891628 -0.020103652 0.02971622
0.07083785 -0.014846228 0.053090278 -0.0024453227 -0.01842149 -0.039591532 -0.07770055 -0.0039077303
0.030360246 0.07916751 0.030076394 -0.07116505 0.08780071 -0.035789505 0.065438084 -0.046885498
-0.05837289 -0.056676146 0.084798016 -0.018679649 0.02805989 0.045279037 -0.09993876 0.052973025
0.034150526 -0.013907678 -0.07478378 -0.003818664 -0.017037386 -0.053956933 -0.035775717 -0.053642277
-0.048798803 -0.07744663 -0.0036407784 -0.02261263 -0.01766615 -0.023859868 -0.009098627 -0.07582264
-0.016835416 0.018208286 -0.08182192 -0.020406883 0.07256813 0.05415295 0.041438434 0.004789319
0.094690435 -0.0031298734 0.009895362 0.041584108 0.032518037 0.03815091 -0.005686374 0.027739119
-0.011357369 0.0010768195 0.009851737 0.07574459 0.07430785 0.029236628 0.03415847 -0.06778737
0.041915767 0.058675498 0.043486826 -0.05697607 0.0811234 0.07487632 0.019986004 0.078681625
-0.016309112 0.031210303 -0.06388341 -0.057126988 0.039188843 -0.06718289 0.0011364305 0.088809274
-0.07738613 0.03459088 -0.07799128 -0.010106252 -0.031134691 0.027720971 -0.058667883 -0.005749194
0.032726146 0.049853344 0.07019181 0.087898076 0.059938915 -0.074377656 -0.07948036 0.06978596
0.03620107 0.0030791736 -0.04257212 -0.026510809 -0.0362956 -0.043124784 -0.039576586 0.09072566
0.024117455 -0.06749225 -0.018006912 -0.024657343 0.022063531 0.002931176 -0.0021501782 -0.019707276
0.07143462 0.04603012 0.047300655 -0.025725724 -0.011825276 -0.03466089 -0.007899658 0.07773641
0.005712063 -0.08138718 -0.08007274 -0.085635155 -0.046294194 -0.020370374 0.007039156 -0.077763505
0.048993867 -0.09313268 0.07891423 0.0062467377 -0.06332957 -0.06333369 -0.07809918 -0.0914612
-0.051652234 -0.015435161 0.0010071809 -0.086339034 -0.022132492 -0.01151107 -0.08496402 -0.06683285
0.03567087 -0.09304348 -0.050039902 0.046516016 -0.027554767 -0.0063568302 -0.06368824 0.03518498
-0.053458676 -0.0128346095 0.06276693 -0.040904157 -0.052772388 -0.00032732813 -0.019230643 -0.022569017
0.016030828 -0.017794704 -0.06634861 -0.06929336 0.0164756 -0.08294356 0.08259437 -0.09428541
-0.06433992 -0.0067292387 0.043582555 0.09103781 -0.09080864 0.01861338 -0.07681081 0.08849288
0.03583802 -0.03125452 0.030219538 0.0004780998 -0.088988096 0.035144012 0.06489255 -0.08662003

actor.linear4.bias f4 [9]
00000000: eb10 e6bb a336 3fbd 6bf0 403d 1685 85bd
00000010: f9a2 71bd ffb1 583b 0bdb 8bbd 6997 6a3d
00000020: 4bf0 88bd
-0.0070210597 -0.046682965 0.04710428 -0.06519525 -0.058993313 0.0033065078 -0.068288885 0.057273302
-0.06686457

critic.linear1.weight f4 [128, 120]
00000000: 02c7 253d 8caf 353d 672c bdba 4aca e43d
00000010: dc75 2bbd 5dc1 63bd f12b a93d a9bc 30bc
00000020: 50aa 92bd 1add 5a3d 95a3 a8bd 6306 4fbb
00000030: 33a9 8ebd a53e 453d 7329 5f3d 0b38 8a3d
00000040: d945 00bd 85e0 cdbd 1ea9 7e3d 402d 81bd
00000050: a725 7f3b 8710 3f3d 7ef4 543d 7fa9 633c
00000060: 4a48 98bc 1c5f 0abd 5b76 e73b 60a2 af3c
00000070: f7ba 7a3d a871 aabd c656 13bc df52 bf3d
00000080: 6f97 32bd 5aae b13d 6d70 03bd 6fd3 de3d
00000090: aee6 933d 428d 6dbd 08b9 03bc 77c7 fabc
000000a0: 8c59 f3bc 8df9 62bd e33b 83bb c120 c2bc
000000b0: 7472 953d 20cd a5bd c093 5c3d 33b0 8e3d
000000c0: daa9 26bd 817e 713d a301 473d 7230 83bd
000000d0: 7586 8b3d 7a69 3a3d 1fdc 493d b4e3 9ebd
000000e0: 4830 44bd c43b f7bc 444a 58bd 1d69 a03d
000000f0: 1e89 313b 2a6a 863d 091e 7ebd 1018 603d
00000100: 6a42 bf3b 0b60 8a3d f2ec 62bd 1a10 6cbc
00000110: 287c 883d 1682 5bbd 01e8 d53c 0cda 9a3d
00000120: 4dc9 313d 645e 51bd d072 a4bd 899f 44bd
00000130: 11d8 74bd 741d db3c 1415 a6b9 a62b 9cbd
00000140: 2699 363d 31ef 8ebd 9d08 4abb 995d 693c
00000150: 9f94 82bd 30bd 273d f6c7 243d bec4 a93c
00000160: 3910 9fbc 3b1e 62bd 56a6 26bb 313b c03b
00000170: 12ce 13bb 90d7 2ebd 0c96 7abb 4d75 d23c
00000180: 5a37 86bc a255 e6bb a812 a3bd df5d cdbc
00000190: 1a72 bfbc 3b0d bd3d 3483 60bd 51f9 2fbd
000001a0: ca03 28bc 8ccc c2bc ee01 5bbd c584 27bd
000001b0: 9250 c6bc aaa7 9ebd aa59 883a 4a00 77bd
000001c0: fc0a 833d 19ff 22bd 9202 643d 93c2 e43c
000001d0: 6f5c 913d 409c a73d 31ea 15ba fd91 683b
000001e0: ad20 9e3d 2bdd 493d 9c8f ad3d fd9b 02bc
000001f0: 0598 ad3c 56b2 c93c d922 823d 92d2 49bd
00000200: 5ecd b6bc dfce a3ba 5d83 95bd 7d12 74bd
00000210: df95 34bd 8b62 06bd d551 65ba e5f6 6dbd
00000220: dfee fe3c 5cf3 94bd b11e 5b3d 204c 8abd
00000230: 965f 68bd d3fe 8d3d 25a2 47bd cf2a 453d
00000240: a163 813d 3af5 ffbb e735 273d fca3 a6bd
00000250: 8b65 b3bd 21c8 8b3d 2ad7 a4bd d6e5 21bd
00000260: c803 6c3d d77a f83c ebdc 7c3c 39aa e13d
00000270: 4037 863d e7a9 8ebd ee2c ebbc f13b a63c
00000280: 3203 eebc 1c2d c1bc ad32 c6bc 34c3 393d
00000290: 8eb2 2abc 787c 9dbd f404 793d 62ec 043c
000002a0: 5acc 8abd 32fe 9d3c a8e5 c7bd f4a1 c33b
000002b0: 5c65 8b3d 0b9e 5d3d 49df 863b 1c30 853d
000002c0: 9942 98bd 34ca 84bd 05fe 223a 8529 ec3c
000002d0: 4731 74bd 57e8 423d 5eeb 7f3c e9c6 893c
000002e0: 1fb1 97bd 87fe 9dbd be01 56bd 2dec 25bd
000002f0: f9f8 853c 1619 de3c 0a8e 4a3a 3d15 b3bc
00000300: 6c01 83bc b8cb 6bbd 4b1f 98bd 5d8e c4bd
00000310: 6f97 263d 172c 13bd 6a18 993d 8547 843c
00000320: 6b1c f83c 76ea 5c3d 81c2 223c 8105 ecbc
00000330: d846 9a3c e2e1 7d3d c040 4d3d bcea 903d
00000340: ca9a ba3d ae74 15bd bd92 933d fdf9 a9bd
00000350: 5d00 babb 7c90 503c 5c47 4bbc bddd 3cbd
00000360: b09c 60bd 4d02 7a3d f157 9b3d f376 74bd
00000370: a652 b23d 9dbe dd3d 6dc8 893d 463e 05bc
00000380: 3000 93bd 549d f83c d4db 3f3d 0e72 4b3d
00000390: 1464 aabd 75d2 923c f739 99bc 1cfc 89bd
000003a0: d504 68bd 6c2f 9c3d 10cb 83bd 7771 eabc
000003b0: e535 6d3d a120 713d 305c 2bbd f22e 70bc
000003c0: f1ec 993d 92c1 8ebd d1dc 26bc 05b1 45bd
000003d0: 0121 57bd ace0 1cbd 01d2 c13d 378b 90bc
000003e0: efc9 8e3d c8c0 453d baae 823d 59e0 923d
000003f0: 3a54 87bd 9d37 843d 1695 8b3d 0c97 003d
0.04047299 0.044356868 -0.0014432789 0.11171396 -0.041860446 -0.055604327 0.08260334 -0.010787168
-0.07161391 0.053433515 -0.08234326 -0.00315895 -0.06965866 0.048155446 0.05448289 0.067489706
-0.031316612 -0.10052589 0.062173 -0.06307459 0.0038932355 0.04664662 0.05199098 0.0138953915
-0.018589158 -0.03378211 0.0070636696 0.021439731 0.06121346 -0.083224595 -0.008992856 0.09341978
-0.04360145 0.08675833 -0.03208964 0.108801715 0.07221733 -0.057996042 -0.00803972 -0.03061269
-0.029705785 -0.05541377 -0.004004942 -0.023697259 0.07297221 -0.08095765 0.053851843 0.06967201
-0.040689327 0.058958534 0.048585545 -0.064057246 0.06812755 0.045510747 0.04928219 -0.07758275
-0.047897607 -0.030179866 -0.0528052 0.07832549 0.0027089785 0.06563218 -0.062040363 0.054710448
0.0058367746 0.067566 -0.05540175 -0.014408136 0.06664306 -0.053590856 0.026111605 0.075611204
0.043404866 -0.05111541 -0.08029711 -0.048003707 -0.05977637 0.026747443 -0.00031677692 -0.07625513
0.044579647 -0.06979216 -0.0030827888 0.014243507 -0.063760035 0.040951908 0.04022976 0.020723697
-0.019416915 -0.05520461 -0.0025428734 0.005866431 -0.0022553247 -0.042686045 -0.0038236408 0.025690699
-0.016383816 -0.007029251 -0.07962543 -0.025069175 -0.023369838 0.09231039 -0.054812625 -0.042962376
-0.01025481 -0.023779176 -0.053468637 -0.040898103 -0.02420834 -0.07746823 0.0010402699 -0.06030301
0.063985795 -0.03979406 0.055666514 0.027924811 0.070977084 0.08184099 -0.0005718796 0.0035487406
0.07721076 0.049283188 0.08474657 -0.007971761 0.021190653 0.02462117 0.06354303 -0.04927308
-0.022314724 -0.0012497565 -0.07300446 -0.059587944 -0.04408824 -0.03280882 -0.00087478507 -0.058096785
0.031119762 -0.072729796 0.053496066 -0.06752801 -0.056731783 0.069333695 -0.048738617 0.04813653
0.06317831 -0.0078112157 0.04082289 -0.08136746 -0.08759602 0.06825281 -0.08048852 -0.03952583
0.057620794 0.030332012 0.01543353 0.110187955 0.06553507 -0.06966 -0.028707948 0.020292254
-0.029054258 -0.02358108 -0.024194086 0.045352176 -0.010418547 -0.07689756 0.06079574 0.008112999
-0.06777258 0.019286249 -0.097606 0.005970234 0.06806442 0.0541058 0.004115973 0.06503317
-0.074345775 -0.0648388 0.00062176614 0.028828392 -0.059617307 0.047584858 0.015620081 0.01681848
-0.0740683 -0.07714563 -0.052247755 -0.040508438 0.016354071 0.027111571 0.0007726854 -0.021860713
-0.015991889 -0.05756733 -0.07427844 -0.09597466 0.040671762 -0.03593072 0.0747536 0.016147384
0.030286988 0.053934537 0.009934069 -0.028811218 0.018832609 0.061982997 0.05011058 0.07076022
0.09111555 -0.036488228 0.072057225 -0.082996346 -0.005676313 0.01272976 -0.01240715 -0.046109904
-0.05483693 0.06103735 0.07585133 -0.05968375 0.0870717 0.10827372 0.06727681 -0.008132523
-0.0717777 0.030348457 0.046840504 0.049669318 -0.0831987 0.01792262 -0.018704398 -0.06737539
-0.056645233 0.076262325 -0.064352155 -0.028618557 0.057912726 0.058869008 -0.041835964 -0.01465963
0.07515896 -0.06970514 -0.010184483 -0.048264522 -0.05252171 -0.0383002 0.09463883 -0.017644508
0.069721095 0.048279554 0.06380983 0.07171697 -0.06607862 0.0645592 0.06815545 0.03139405

critic.linear1.bias f4 [128]
00000000: d893 2fbd 2ef6 1ebd 2cfc 43bd 7820 243c
00000010: 4a62 df3c fc2f b43b 3887 45bc 1e0f 763d
00000020: 0b8f d2bc 1cb2 593d 9686 703d 3b59 403d
00000030: 64c2 5c3c 8502 ae3c 4497 923d 51e1 953d
00000040: f2dc 2f3d 62f4 583c 2e7a 7b3d 82bb 8d3d
00000050: 9930 f03c 1eed 92bd fe8b a03b 6501 4a3c
00000060: 235f 5f3b afd3 6f3d 1dc8 493d 338e 41bd
00000070: 960f d9bc 3ccc cd3d b436 82bd 8dca 83bb
00000080: b7ac a93d 612e 3fbd ff3e 9fbd e443 b8bc
00000090: 0a75 893c f2a7 a2bc 189c bf3c 22d7 b8bd
000000a0: 1a55 173d 036c b5bd f3ac 303d 4722 41bd
000000b0: c97e 9cbd 3319 9c3d 10ff 393d 5c37 df3c
000000c0: e3d2 af3d 685e 363d bef3 cc3d 5e7a 11bd
000000d0: d592 0d3b 3a64 233d 78b5 843c 28f4 35bd
000000e0: e381 d43d 43df 0e3c a840 15bc dd28 023c
000000f0: 6063 babc 7d6d 413d 2cad 9fbd 59b9 58bd
00000100: 13b7 033d 862d e1bb 6c23 f6bc 077d 8fbd
00000110: 701f 973c 566c d33d 4ac1 b33c 3311 263d
00000120: 066f f0bc 808d 43bd 2d00 e8bc 7423 7bbd
00000130: 4c0e 463d 7536 b8bc a167 97bc d28f dd3d
00000140: 5ee8 4dbd 4508 31bd 3d57 07bd c814 8d3d
00000150: 834d 3c3d 03a8 3b3d a8fc 29bc 8211 3cbd
00000160: 26bf 3ebd 587f 903d 8d94 a73d 6415 48bd
00000170: b345 3e3d bec5 813d 8b8a 1abd 5813 f8bb
00000180: c5b3 3ebd c4f1 e1bc f17f e23c 3bff 013c
00000190: 2620 61bc fd28 9fbd dd90 a5bd 44f8 a23d
000001a0: 8537 c83c 578c fe39 cb9d 4dbc 6cdc 24bd
000001b0: b8d3 90bd 3b96 48bd ac23 9d3c cb81 dbbc
000001c0: 67c7 a5bd 1a4c 5b3c af3d c93c f397 96bd
000001d0: 8767 08bd 6a61 07bd 11ef 1fbd 11a0 cc3d
000001e0: 86f2 243d 0d77 cc3d 4324 12bb fdb9 853d
000001f0: e55b c13c 8921 6bbd 2558 56bd 40c9 a03c
-0.042865604 -0.038808994 -0.04784791 0.010017507 0.027268548 0.0054988842 -0.012056164 0.06007301
-0.025702974 0.053148374 0.0587221 0.046960097 0.013474081 0.021241436 0.07157758 0.07318366
0.04293532 0.013241859 0.061395817 0.0692053 0.029320048 -0.07174133 0.004899501 0.012329434
0.0034083806 0.058551487 0.04926311 -0.047254752 -0.02649669 0.1004872 -0.0635809 -0.0040219487
0.08284896 -0.04667509 -0.077756874 -0.02249331 0.016779441 -0.019855473 0.023389861 -0.09025408
0.036946394 -0.08858492 0.043133687 -0.04715183 -0.0764137 0.07621994 0.045409262 0.027248077
0.08585145 0.044523627 0.10007428 -0.03551709 0.0021602411 0.039890505 0.016199812 -0.0444223
0.103763364 0.008720222 -0.0091096535 0.007944313 -0.022752464 0.047223557 -0.07796702 -0.052911136
0.032157015 -0.006871882 -0.030046187 -0.07006269 0.018447608 0.10323398 0.021942753 0.040543746
-0.029349815 -0.047742367 -0.028320396 -0.061313108 0.04835348 -0.022486905 -0.018482031 0.10818447
-0.05027043 -0.043220777 -0.03304218 0.06888729 0.04597236 0.045814525 -0.010375179 -0.045915134
-0.046569012 0.07055539 0.08182631 -0.048848525 0.04645319 0.063365445 -0.03772978 -0.0075706653
-0.04655816 -0.027581103 0.027648898 0.007934387 -0.013740575 -0.0777149 -0.08084271 0.07957509
0.024440536 0.00048551217 -0.012549828 -0.040249273 -0.07071632 -0.048971396 0.019182049 -0.026795289
-0.080946736 0.013384843 0.024565546 -0.07353201 -0.033301856 -0.033051886 -0.03904635 0.09991468
0.04027035 0.09983645 -0.0022299446 0.06529615 0.023603389 -0.05740503 -0.052330155 0.019627213
