hover_starship_raw_ckpt/ckpt_00000301.pt (torch, 415671 bytes, 15 tensors)

actor.linear1.weight f4 [128, 120]
0	0xbd0bbd99	-0.03411636
1	0x3d0aa81c	0.033851728
2	0xbd6e38fc	-0.058159813
3	0xbda5893b	-0.08082815
4	0xbd077f81	-0.03308058
5	0xbd9cd4ac	-0.076577514
6	0x3c9c2ef2	0.019065354
7	0xbd0b59dd	-0.034021247
8	0x3daedf59	0.08538694
9	0xbda19ba7	-0.078910165
10	0x3cd8689f	0.026417075
11	0x3cf36332	0.029710386
12	0xbd8d8c75	-0.06911556
13	0xbda283ba	-0.07935281
14	0xbd6815e3	-0.056661498
15	0xbd87f257	-0.066380195
16	0xbdb4954c	-0.088175386
17	0x3c3c76cb	0.011502932
18	0xbbc0f15c	-0.0058881473
19	0x3d6ec993	0.058297705
20	0xbcfa27a0	-0.030536473
21	0x3da70ad5	0.08156363
22	0x3d98a1f4	0.07452765
23	0xbcf6b0dc	-0.03011363
24	0x3d8f312b	0.069918
25	0x3c595080	0.013263822
26	0xbce447e1	-0.027866306
27	0x3ca5f735	0.020259479
28	0xbc678d9a	-0.014132882
29	0x3db64f5a	0.08901854
30	0xbd1ee0da	-0.038788654
31	0xbda99d45	-0.0828195
32	0x3d540434	0.05176182
33	0x3a15a494	0.0005708423
34	0xbca63124	-0.020287104
35	0x3d92a3dd	0.07160161
36	0xbce504b2	-0.02795634
37	0x3cfd2ae9	0.03090425
38	0x3c86a879	0.016437756
39	0x3db39f47	0.08770614
40	0x3c24e63d	0.010064659
41	0xbc052b7b	-0.008128042
42	0xbd5e0823	-0.05420698
43	0x3c54a25b	0.012978162
44	0x3daa80bd	0.08325336
45	0x3d0b44c7	0.034001138
46	0xbd58c516	-0.05292233
47	0xbd029646	-0.031881593
48	0x3d0fdefb	0.03512476
49	0x3d4638d6	0.048394047
50	0x3da47140	0.08029413
51	0x3d95d62c	0.07316241
52	0xbbd73779	-0.006567892
53	0x3ce154f8	0.027506337
54	0xbd0a68d7	-0.03379139
55	0xbcab4690	-0.02090767
56	0xbbe1f1b6	-0.0068952693
57	0xbd86a6b9	-0.065747686
58	0xbd0d8b69	-0.03455678
59	0xbdb008e3	-0.08595445
60	0x3bdf8a80	0.0068219304
61	0xbcec9fc4	-0.028884776
62	0xbc8719a3	-0.016491717
63	0x3d04bc6d	0.03240626
64	0x3d7c5e10	0.061613142
65	0xbd3de1a5	-0.04635777
66	0xbd4ede3b	-0.050504904
67	0x3d85469d	0.06507609
68	0x3d215f74	0.03939767
69	0xbc63e2b4	-0.013909031
70	0x3da51b47	0.08061843
71	0xbd347d83	-0.04406501
72	0xbd397638	-0.045278758
73	0xbd183947	-0.037164
74	0x3d6bde7e	0.057585232
75	0xbd228c84	-0.039684787
76	0x3c62c949	0.013841935
77	0xbd7c9f04	-0.061675087
78	0xbcc91db5	-0.024550298
79	0x3c93fde9	0.01806541
80	0x3ca6e471	0.020372601
81	0x3d61dfdd	0.055145133
82	0x3d6ebcb2	0.058285423
83	0xbda23def	-0.07921969
84	0xbd43cd11	-0.04780299
85	0xbb6d1062	-0.0036173095
86	0x3da05a1c	0.07829687
87	0x3b7d5019	0.0038652478
88	0x3c0f2341	0.0087364325
89	0x3ba52c86	0.005040708
90	0x3d448599	0.04797897
91	0x3c86c52a	0.016451437
92	0xbc637f14	-0.013885278
93	0x3da5e674	0.08100596
94	0xbc699265	-0.014256095
95	0x3d316cc3	0.043316614
96	0x3b1f8301	0.002433956
97	0xbc8aee93	-0.016959464
98	0x3d947815	0.07249466
99	0x3d80bbee	0.06285845
100	0xbd855c9c	-0.065118045
101	0x3d9c7590	0.07639611
102	0xbd54a780	-0.051917553
103	0xbc4acd7b	-0.012378092
104	0xbd40df3b	-0.04708789
105	0x3d454507	0.048161533
106	0xbd0fde6d	-0.03512423
107	0xbd3abe55	-0.04559167
108	0x3c28a558	0.010293327
109	0x3c693e0d	0.014235985
110	0xbd827b25	-0.06371144
111	0xbd952e47	-0.07284217
112	0xbcec529d	-0.028847987
113	0x3c3dfbfc	0.011595722
114	0x3d5b38a7	0.053520825
115	0x3d412e7e	0.04716348
116	0xbd558856	-0.052131973
117	0x3ce55295	0.02799348
118	0xbd3d6a4c	-0.04624395
119	0x3cda8eb7	0.02667938
120	0x3c20c5b2	0.009812759
121	0x3da2db51	0.079519875
122	0x3d893514	0.06699577
123	0xbc8bc37a	-0.017060984
124	0x3d8b9902	0.06816293
125	0xbdb43529	-0.08799202
126	0xbcca260c	-0.024676345
127	0xbcc23d0b	-0.023710748
128	0x3d9f4282	0.07776357
129	0xbd3b99e0	-0.045801044
130	0xbd03efd4	-0.03221114
131	0xbc41f130	-0.011837289
132	0xbd3fbda4	-0.046811715
133	0x3d0805cb	0.03320865
134	0x3d991230	0.07474172
135	0x3d8926ef	0.06696879
136	0x3d18fa56	0.037348114
137	0xbc72d7ab	-0.014821927
138	0xbc8ead29	-0.017416554
139	0x3d521e99	0.05129871
140	0xbd939cdf	-0.07207655
141	0xbccc9a43	-0.024975901
142	0xbc88ce6a	-0.016699988
143	0xbc28c5c3	-0.010301056
144	0xbd8997e4	-0.06718424
145	0xbdb473c8	-0.08811146
146	0xbd739923	-0.059472214
147	0xbd28acfe	-0.041180603
148	0x3dac546b	0.08414539
149	0xbd77392d	-0.06035726
150	0x3db11406	0.08646397
151	0xbd64b151	-0.055833165
152	0x3ca0dfe6	0.019638013
153	0xbd5244aa	-0.051335014
154	0x3d273b46	0.040828012
155	0x3d1fdbf1	0.03902811
156	0x3d97d74f	0.07414114
157	0x3d799038	0.060928553
158	0x3d5b42c3	0.053530466
159	0xbdb98639	-0.09058804
160	0xbdb13b33	-0.086538695
161	0xbcd4d664	-0.025981136
162	0xbd9a8c5b	-0.07546302
163	0xbc84f4c4	-0.016229995
164	0x3c263d09	0.010146388
165	0x3d344370	0.044009626
166	0xbc48edac	-0.012263697
167	0x3d47532f	0.048663314
168	0xbd3f1fca	-0.046661176
169	0xbbc96b4f	-0.0061468254
170	0x3d9487eb	0.07252487
171	0xbccd2740	-0.02504313
172	0xbd655f58	-0.05599913
173	0xbc1c11a1	-0.009525687
174	0x3cd57fb1	0.026061865
175	0xbda75423	-0.08170345
176	0xbc57bfc2	-0.013168277
177	0xbd872989	-0.06599719
178	0xbdb8ce4d	-0.09023724
179	0xbc99038f	-0.018678455
180	0x3d3bffc3	0.04589821
181	0xbcf90a0f	-0.030400304
182	0xbd56cfb3	-0.05244417
183	0x3d5352ba	0.051592566
184	0xbd5da7f6	-0.05411526
185	0xbcecb250	-0.02889362
186	0xbd82bec5	-0.06384043
187	0x3c646cc6	0.013941949
188	0x3da58faf	0.08084046
189	0x3d098e4e	0.033582978
190	0x3d8b4e5b	0.068020545
191	0x3cdf39de	0.027249273
192	0x3c1175bc	0.008878168
193	0x3d8b07c7	0.06788593
194	0x3c6a2919	0.014292025
195	0xbdaca9f2	-0.08430852
196	0xbce7d4da	-0.028299738
197	0xbd10938c	-0.03529696
198	0xbb56c55d	-0.0032771446
199	0xbdaef2b2	-0.08542384
200	0x3d852c8e	0.06502639
201	0x3d8a3ff8	0.06750482
202	0x3d126f68	0.035750777
203	0xbd322d4c	-0.04350023
204	0xbd481894	-0.048851565
205	0xbdabad1e	-0.08382629
206	0x3d5536cf	0.052054223
207	0xbd3f5c7e	-0.046719067
208	0x3cc6d4df	0.024271427
209	0x3d6b1443	0.05739237
210	0xbaee2643	-0.0018169362
211	0xbca7b046	-0.020469796
212	0xbd5bcd34	-0.053662494
213	0xbd9f391a	-0.07774563
214	0xbc69ba14	-0.014265556
215	0x3d671368	0.05641499
216	0x3d940b30	0.07228696
217	0x3af8d2e6	0.0018983751
218	0x3c48cb02	0.012255432
219	0x3d0947ce	0.033515744
220	0xbd4fb5f0	-0.05071062
221	0x3daf8f28	0.08572227
222	0x3c039ed7	0.008033476
223	0xbd5f5a96	-0.05452975
224	0xbc29d9a0	-0.010366827
225	0xbd891d85	-0.066950835
226	0x3cb39ae8	0.021924451
227	0xbd39b7db	-0.045341354
228	0xbcb35b92	-0.02189425
229	0xbb6deba8	-0.0036303792
230	0xbc9fa339	-0.01948701
231	0x3d8b0975	0.06788913
232	0xbd067efd	-0.03283595
233	0xbd0d298d	-0.034463454
234	0xbc3a5cc4	-0.011374656
235	0xbd7d0ee6	-0.061781786
236	0x3d055c75	0.032558877
237	0xbd4577d6	-0.048209988
238	0x3c8c7d91	0.017149718
239	0xbda04237	-0.078251295
240	0x3d658db4	0.05604334
241	0x3d9c4984	0.076312095
242	0x3ba8d8e0	0.0051528066
243	0x3aa0a8a0	0.0012257285
244	0x3d5e07e7	0.054206755
245	0xbd2e04ce	-0.04248505
246	0x3d46c01e	0.04852306
247	0x3cecc687	0.028903259
248	0xbbe5994f	-0.007006801
249	0xbc6ab0b6	-0.014324358
250	0x3d97793e	0.07396172
251	0xbd2af69e	-0.0417391
252	0xbdaa9748	-0.08329636
253	0xbdabbbca	-0.08385427
254	0x3d1004d1	0.035160843
255	0xbcc2ac38	-0.02376376

actor.linear1.bias f4 [128]
0	0x3d17edf2	0.037092157
1	0x3c0abd8e	0.008468045
2	0xbd9d3bdb	-0.07677432
3	0x3d803b10	0.06261265
4	0x3c85d91a	0.016338874
5	0x3d94a275	0.07257549
6	0x3ab4cbd0	0.0013793651
7	0x3dad45ab	0.08460554
8	0x3d78bf1f	0.060729142
9	0xbd090de7	-0.033460524
10	0x3dab6c88	0.0837031
11	0xbd30ebb6	-0.04319354
12	0x3d8a1b38	0.06743473
13	0x3d4be3f6	0.049777947
14	0x3cf89078	0.030342326
15	0xbd4d97f3	-0.05019374
16	0xbd967664	-0.073468
17	0x3d9a9e3a	0.075497106
18	0x3c07d877	0.008291355
19	0xbd85b013	-0.06527724
20	0x3c91bb33	0.017789459
21	0x3cf15dbf	0.029463647
22	0x3d1e99f3	0.038721036
23	0xbc1ef6f5	-0.009702434
24	0xbda2d551	-0.07950843
25	0x3d237b67	0.039912608
26	0x3ba5f3bc	0.005064456
27	0xbd131a06	-0.03591349
28	0x3c804c4d	0.015661383
29	0x3d7789a8	0.060434014
30	0xbd086947	-0.033303525
31	0xbd85bd03	-0.06530192
32	0xbc9110c0	-0.017708182
33	0x3dbaa0b8	0.09112686
34	0xbd77f4a6	-0.06053605
35	0xbd7e864e	-0.0621398
36	0x3ac6544c	0.0015131324
37	0x3d47886e	0.048714094
38	0xbc79317a	-0.01520955
39	0xbdaa7a52	-0.08324112
40	0xbb89f7f2	-0.0042104656
41	0x3ce1116b	0.027474126
42	0xba83092b	-0.0009997239
43	0xbd6c6417	-0.05771264
44	0x3d2b786d	0.041862894
45	0x3db22465	0.08698348
46	0xbd53e466	-0.05173149
47	0xbb3a64ed	-0.0028441504
48	0x3db01b61	0.08598972
49	0xbc8ba503	-0.017046457
50	0xbd009251	-0.03138954
51	0x3cd12012	0.025527988
52	0xbd790058	-0.060791343
53	0x3c606c8d	0.0136977555
54	0xbd0b1076	-0.033951245
55	0x3d8495b3	0.06473865
56	0x3d3a4d67	0.045483973
57	0x3d6feaa9	0.0585734
58	0xbd3eab84	-0.04655029
59	0x3da87c27	0.08226805
60	0xbdb34fb4	-0.087554365
61	0x3c620db5	0.013797213
62	0xbd9fa391	-0.0779487
63	0x3a023db8	0.0004968303
64	0xbd35a5bf	-0.04434752
65	0x3d854c7b	0.06508728
66	0x3c078637	0.008271745
67	0x3db745f9	0.08948893
68	0xbdaddded	-0.084895946
69	0xbd2a5b9c	-0.04159127
70	0xbdb2b57f	-0.08726024
71	0x3c3e1770	0.011602268
72	0x3d04ef77	0.032454934
73	0xbda8e479	-0.08246703
74	0x3db86e3b	0.090054
75	0xbb99cb50	-0.004693426
76	0xbd2fc961	-0.04291666
77	0x3d8b55c3	0.06803467
78	0x3d9fa1a1	0.077945
79	0xbd541c3a	-0.05178473
80	0x3ceab00f	0.028648404
81	0x3d9ec24b	0.07751902
82	0x3d948087	0.07251077
83	0x3bb8dc8c	0.0056415256
84	0xbdb57da5	-0.088618554
85	0xbc32dd69	-0.010917046
86	0xbd80e430	-0.06293523
87	0xbd7f48cd	-0.062325288
88	0xbd16c67b	-0.03681038
89	0x3bb92aff	0.0056508775
90	0x3c7507eb	0.014955501
91	0xba2822de	-0.0006413887
92	0x3cdadd6f	0.026716916
93	0x3caf85fb	0.021426192
94	0xbc75ee6a	-0.015010456
95	0xbda4e275	-0.08051006
96	0xbd1a1af8	-0.037623376
97	0x3bbd9e35	0.005786682
98	0x3cbc3974	0.022976615
99	0x3d484ba4	0.04890026
100	0x3d4c6721	0.04990304
101	0xbb8b906a	-0.004259159
102	0x3db15a32	0.086597815
103	0x3d07a1bf	0.033113237
104	0x3b75fc61	0.0037534463
105	0x3da40588	0.080088675
106	0xbc3635a5	-0.011121188
107	0xbd7c2fe3	-0.061569106
108	0x3db30bba	0.08742471
109	0xbd8cd24a	-0.06876047
110	0xbd9a0b38	-0.07521671
111	0x3cb80f5b	0.02246826
112	0xbd4dfc1d	-0.050289262
113	0x3c33de69	0.01097832
114	0x3982907f	0.0002490319
115	0x3d9f5181	0.077792175
116	0xbc5432ab	-0.012951533
117	0xbcb911e5	-0.02259154
118	0xbd67ab12	-0.05655963
119	0xbc9ebff2	-0.019378636
120	0xbd904104	-0.07043651
121	0x3d7099a1	0.058740262
122	0xbd82f223	-0.0639384
123	0xbd0ab6d7	-0.033865776
124	0xbda49e05	-0.08037952
125	0xbd431613	-0.047628473
126	0x3daadc16	0.08342759
127	0x3d8e42a0	0.069463015

actor.linear2.weight f4 [128, 128]
0	0x3d6f98b7	0.05849525
1	0xbd5cb267	-0.053881075
2	0x3dac8dc9	0.08425481
3	0xbd27327a	-0.040819623
4	0xbd8c26a2	-0.06843306
5	0x3c32b1e2	0.010906668
6	0xbd8950d2	-0.067048684
7	0xbd799c12	-0.060939856
8	0x3d9563d2	0.0729443
9	0x3d288eb8	0.041151732
10	0xbda854ac	-0.08219275
11	0x3d983a14	0.074329525
12	0x3cc44e1a	0.023963023
13	0xbd25236a	-0.040316977
14	0x3d12087c	0.035652623
15	0xbd951349	-0.07279069
16	0x3bfcdd0c	0.0077167805
17	0xbd4e1f31	-0.050322715
18	0x3d476b1c	0.04868613
19	0x3d71d075	0.05903669
20	0xbaabbe96	-0.0013103064
21	0xbcdb5f88	-0.026778951
22	0xbbc6f248	-0.0060713626
23	0xbc60b336	-0.013714602
24	0x3d08c555	0.033391315
25	0xbd1ebd3b	-0.038754683
26	0x3d8f0509	0.06983382
27	0x3cfcf4c4	0.030878432
28	0xbc9bf578	-0.019037947
29	0xbd057c86	-0.032589458
30	0x3d947e64	0.072506696
31	0xbd9a0ef9	-0.07522387
32	0x3d1c5386	0.03816559
33	0xbd9ebf3f	-0.07751321
34	0xbd3e83d9	-0.04651246
35	0x3d051655	0.032492
36	0xbd54981b	-0.05190287
37	0xbd20a5d8	-0.03922066
38	0xbd384b64	-0.044993773
39	0xbd037fc9	-0.032104287
40	0xbcda6d78	-0.026663527
41	0x3cf1a1d1	0.029496105
42	0x3d8fe090	0.07025254
43	0xbd7a4ad4	-0.061106518
44	0xbd9c4323	-0.07629993
45	0xbd8ab1ad	-0.0677217
46	0xbc35864f	-0.011079385
47	0xbd99d40b	-0.07511147
48	0x3d6ba816	0.057533346
49	0xbceb77fc	-0.028743736
50	0xb925d1b0	-0.00015813741
51	0xbcd49510	-0.025949985
52	0xbcc01d7d	-0.023451561
53	0x3d55ab49	0.052165303
54	0xbd4c58f9	-0.04988954
55	0x3d3ca5d6	0.04605659
56	0x3d2dbc11	0.042415682
57	0x3bf22d9b	0.0073906905
58	0xbd3aef98	-0.04563865
59	0xbda2ddc0	-0.07952452
60	0xba3a9e30	-0.00071189087
61	0x3d9a1882	0.07524206
62	0x3b2a1344	0.0025951425
63	0x3d5567c2	0.052100904
64	0xbd022a54	-0.03177865
65	0xbce4e829	-0.027942734
66	0x3d876d17	0.06612604
67	0xbdb03ab1	-0.086049445
68	0x3d6f7706	0.05846312
69	0xbdac1ee8	-0.084043324
70	0xbd49ea19	-0.04929552
71	0x3b549946	0.003243999
72	0x3c89b9ab	0.016812166
73	0x3cacd18c	0.021096013
74	0x3c775bb3	0.015097546
75	0x3cc34615	0.023837129
76	0xbd4d803c	-0.050171122
77	0xbda69788	-0.08134371
78	0x3cbd367c	0.02309727
79	0x3d848649	0.06470925
80	0xbd2d8370	-0.042361677
81	0xbbc99d6a	-0.0061527984
82	0xbb4b8b12	-0.0031058234
83	0x3c388f4e	0.011264635
84	0xbd8e02e2	-0.069341436
85	0x3ca61822	0.02027518
86	0x3d89efe5	0.067352094
87	0xbce40b8e	-0.027837541
88	0x3d883ded	0.066524364
89	0x3da759db	0.081714354
90	0xbc904248	-0.01760973
91	0x398a4752	0.0002637455
92	0xbda0743e	-0.078346714
93	0x3d54914a	0.05189637
94	0x3d1dd0f9	0.03852937
95	0xbd508ba8	-0.050914437
96	0x3db1157f	0.08646678
97	0x3d28546d	0.04109614
98	0xbd681d5c	-0.056668624
99	0xbc6a1ed9	-0.014289581
100	0x3db20b8a	0.08693607
101	0xbd89e4b0	-0.06733072
102	0xbd8ac5f2	-0.06776036
103	0x3cd710eb	0.026253184
104	0x3cacb5c6	0.02108277
105	0x3cf95c2c	0.030439459
106	0x3d424888	0.047432452
107	0xbd89f80c	-0.06736764
108	0xbd0dcf16	-0.03462132
109	0xbbba669c	-0.0056885015
110	0xbd733b17	-0.059382524
111	0x3d67717e	0.05650472
112	0x3d5464a1	0.05185378
113	0xbd9a3670	-0.075299144
114	0xbce6bdd8	-0.028166696
115	0xbda2e1e8	-0.079532444
116	0x3daae8d0	0.08345187
117	0x3d0e0215	0.034669954
118	0x3c9b87b0	0.0189856
119	0x3c143f3a	0.0090482775
120	0xbc8aee06	-0.016959202
121	0xbc953b0b	-0.01821663
122	0x3d826d79	0.063685365
123	0xbd5c5bb1	-0.05379838
124	0x3cbf5337	0.02335511
125	0xbd786152	-0.060639687
126	0x3b2790a2	0.0025568386
127	0xbc173d04	-0.009230856
128	0x3c6cd1e7	0.0144543415
129	0xbc4a21f8	-0.0123372
130	0xbd4b5eb2	-0.049650855
131	0xbd5b1935	-0.053490836
132	0xbd433e47	-0.047666814
133	0x3c6166a5	0.0137573825
134	0x3c278c82	0.010226371
135	0xbc971b55	-0.01844565
136	0xbd7e61ff	-0.062105175
137	0x3d891231	0.06692923
138	0xbcdecc21	-0.027196946
139	0x3cbb2dee	0.02284905
140	0xbd912f5b	-0.070891105
141	0xbab2b551	-0.0013634359
142	0x3d1da43d	0.038486708
143	0xbc35ac36	-0.011088422
144	0x3c4562fe	0.012047527
145	0xbd82b975	-0.06383029
146	0x3d6128f7	0.054970708
147	0x3daaa626	0.083324715
148	0xbd146a54	-0.036234215
149	0xbd67f1e0	-0.056627154
150	0xbc51d5c4	-0.012807313
151	0x3ba2aeac	0.00496467
152	0xbda5ca88	-0.080952704
153	0x3d7a7c1a	0.06115351
154	0xbd8a5dfe	-0.06756209
155	0x3c9bbfa5	0.019012282
156	0xbd8fe86c	-0.07026753
157	0xbd205855	-0.03914674
158	0x3d9ffc9e	0.07811855
159	0xbdad59ae	-0.08464371
160	0x3daac79c	0.08338854
161	0x3a27e12e	0.0006404099
162	0xbd9b94be	-0.0759673
163	0xbd80b36e	-0.062842235
164	0xbd5703ae	-0.052493744
165	0x3da573eb	0.0807875
166	0x3da8942d	0.08231387
167	0x3da68f1e	0.08132766
168	0x3da79ff0	0.081848025
169	0x3d3ae17e	0.045625202
170	0xbc88b4eb	-0.01668783
171	0x3d967b67	0.07347756
172	0xbda49308	-0.080358565
173	0xbd63e1b5	-0.055635173
174	0x3cd4c5aa	0.02597316
175	0x3d256772	0.040381856
176	0x3db59ecc	0.08868179
177	0xbc3d092c	-0.011537831
178	0xbc698e88	-0.0142551735
179	0xbd4d7e77	-0.050169434
180	0xbd6bd24d	-0.057573605
181	0xbda9f6c3	-0.08299019
182	0xbbd884ed	-0.006607643
183	0x3d89be36	0.06725733
184	0x3d955021	0.07290674
185	0xbd05419d	-0.032533277
186	0xbcb7ac34	-0.02242098
187	0xbce91586	-0.028452646
188	0xbd187a7e	-0.037226193
189	0xbda8f7b0	-0.08250368
190	0x3d91f0cb	0.07126006
191	0x3d7761b5	0.060395915
192	0xbcf056ff	-0.029338358
193	0xbccfd535	-0.02537022
194	0x3c99b967	0.018765165
195	0xbda095ac	-0.07841048
196	0x3d8437ac	0.06455931
197	0x3c838395	0.016053954
198	0x3d35c6eb	0.044379156
199	0x3d2e1162	0.042497046
200	0x3daf5ed1	0.08563007
201	0xbd60d350	-0.054889023
202	0x3c286002	0.010276796
203	0x3da5aa2a	0.08089097
204	0xbd399ee5	-0.04531755
205	0x3db3f45f	0.087868445
206	0x3d9bfbc9	0.076163836
207	0x3d095c5f	0.033535358
208	0x3d03d228	0.032182842
209	0x3ca041d7	0.019562645
210	0xbc4a4cb0	-0.012347385
211	0xbcf9ed2c	-0.0305086
212	0xbd423ac2	-0.047419317
213	0x3d6a94bc	0.05727075
214	0x3d1e3210	0.038621962
215	0xbd322388	-0.043490916
216	0xbd006546	-0.031346582
217	0xbdaf9dcb	-0.085750185
218	0xbd9a2978	-0.07527441
219	0xbdaec50e	-0.08533679
220	0xbc7e1ba1	-0.015509517
221	0x3d5647d2	0.052314587
222	0x3d60cb3e	0.054881327
223	0xbdacf377	-0.08444875
224	0xbbe26d3b	-0.006909994
225	0x3bd53215	0.0065062144
226	0x3ba26fbd	0.004957168
227	0xbd7efdf3	-0.062253904
228	0x3d286203	0.041109096
229	0x3d9d013d	0.07666252
230	0x3cc8c3df	0.024507461
231	0x3d3a02aa	0.045412697
232	0xbd863d51	-0.06554664
233	0xbd3b6b49	-0.045756612
234	0x3d58a801	0.052894596
235	0x3d2a055d	0.04150902
236	0x3bc29008	0.00593758
237	0xbbe269de	-0.006909593
238	0xbd293e78	-0.04131934
239	0xbd893d7d	-0.06701181
240	0x3d0cf7a0	0.03441584
241	0xbda29da8	-0.07940227
242	0xbd665fed	-0.056243826
243	0xbd11b755	-0.03557523
244	0xbd969f4c	-0.07354602
245	0xbd3c36a2	-0.04595054
246	0xbd069ca0	-0.032864213
247	0x3d8222a7	0.06354266
248	0xbcf9f71c	-0.030513339
249	0xbc3d66de	-0.01156017
250	0xbc14f209	-0.009090909
251	0x3db3ca84	0.08778861
252	0xbd19603a	-0.037445284
253	0xbd1ba159	-0.03799567
254	0x3d803b94	0.062613636
255	0x3d667c1b	0.0562707

actor.linear2.bias f4 [128]
0	0xbdaf6550	-0.08564246
1	0x3d82fb23	0.06395557
2	0xbd8fe4bc	-0.070260495
3	0xbd6321ee	-0.05545228
4	0xbd3d0eb2	-0.046156593
5	0xbd086d64	-0.033307448
6	0x3d8de261	0.06927944
7	0xbd035caa	-0.032070793
8	0x3c7f7cda	0.015593732
9	0x3d8339ae	0.06407486
10	0xbd0d3ef6	-0.034483872
11	0x3d9e9cc7	0.07744747
12	0xbd80e5f6	-0.062938616
13	0x3d91c2ad	0.071172096
14	0x3d280898	0.04102382
15	0xbd9628fc	-0.07332036
16	0x3ca2b0ba	0.01985966
17	0xbb9a0762	-0.004700587
18	0x3d98d36f	0.07462203
19	0xbd8e440d	-0.069465734
20	0xbd2a612b	-0.041596573
21	0x3bd71136	0.006563331
22	0xbd6b74fb	-0.05748461
23	0xbbdc9a0f	-0.0067322324
24	0xbd1a5883	-0.037682068
25	0xbd4b2797	-0.049598303
26	0x3ce36314	0.027757205
27	0xbd5fc70f	-0.054633196
28	0x3ce50db0	0.027960628
29	0xba73b4c3	-0.000929665
30	0xbd4ebc6e	-0.05047267
31	0x3d0bb479	0.03410766
32	0xbd1430e1	-0.036179427
33	0x3bd9bd4e	0.0066448813
34	0x3d5c94e9	0.05385295
35	0x3d9a4325	0.07532338
36	0x3d3894ac	0.04506366
37	0x3d717493	0.058949064
38	0x3d3a06e4	0.045416728
39	0xbd683348	-0.05668953
40	0xbd2bb186	-0.041917346
41	0x3d79de64	0.061003104
42	0xbd457c8f	-0.04821449
43	0xbd990d01	-0.074731834
44	0x3c48aa21	0.012247593
45	0x3d1020f6	0.035187684
46	0x3d8dc2da	0.069219306
47	0xbd21d195	-0.039506514
48	0x3c8025c2	0.015643004
49	0xbd6e2dad	-0.05814903
50	0xbdaa73ff	-0.08322906
51	0x3d06ea19	0.032938097
52	0xbc45443a	-0.012040192
53	0x3d0e9876	0.034813367
54	0xbd4ab688	-0.04949048
55	0x3b062026	0.002046594
56	0xbcbe71a7	-0.023247553
57	0xbda90771	-0.082533725
58	0x3c4aa048	0.012367316
59	0xbda55473	-0.08072748
60	0x3d00a908	0.0314112
61	0x3d731522	0.059346326
62	0xbd813589	-0.06309039
63	0xbc9be96a	-0.019032199
64	0xbd26ab3c	-0.040690646
65	0xbc1f768c	-0.009732854
66	0x3ca99c22	0.020704333
67	0x3d11c8e2	0.035591967
68	0xbc723a5d	-0.014784423
69	0xbd5ef881	-0.05443621
70	0x3c2238de	0.0099012535
71	0x3db20e1d	0.08694098
72	0xbd9e8f23	-0.07742145
73	0x3d95f3d0	0.07321894
74	0x3daf1580	0.08549023
75	0xbd950366	-0.07276039
76	0xbd16ecb1	-0.03684682
77	0xbdad0966	-0.08449058
78	0xbca28b11	-0.019841703
79	0x3da845f1	0.08216465
80	0xbcd16657	-0.025561495
81	0xbd16c1ca	-0.036805905
82	0xbc67fbcd	-0.014159155
83	0xbc7d1034	-0.015445758
84	0x3c6205c0	0.013795316
85	0xbd33036d	-0.04370444
86	0x3d90c57c	0.07068917
87	0x3cee83d4	0.029115595
88	0xbd94f85e	-0.07273935
89	0xbb7be63e	-0.0038436796
90	0xbda2db0c	-0.07951936
91	0x3c116f2e	0.008876605
92	0x3da15d11	0.07879079
93	0x3c9a7e94	0.018859185
94	0xbdad6eaf	-0.08468377
95	0xbd9a3efb	-0.07531544
96	0x381f994c	3.8051323e-05
97	0x3d0d010c	0.034424827
98	0xbda70136	-0.08154528
99	0x3cf2a625	0.02962024
100	0x3d8303ac	0.06397185
101	0xbc01f274	-0.0079313405
102	0x3d98aa96	0.07454412
103	0xbcdfa8a6	-0.027302098
104	0xbda313b7	-0.07962745
105	0x3b033be7	0.0020024718
106	0xbd7770dd	-0.06041037
107	0x3a8d44f6	0.0010777998
108	0xbcb70ada	-0.022344042
109	0x3d49d462	0.04927481
110	0x3c27f4ac	0.010251205
111	0x3d2f459f	0.042791005
112	0xbce3f97f	-0.02782893
113	0x3da96925	0.08272008
114	0x3cb8ff3a	0.022582639
115	0x3cdf8e90	0.027289659
116	0x3d105767	0.035239603
117	0x3d441b7a	0.047877766
118	0xbad70889	-0.0016405742
119	0xbcc96881	-0.024585964
120	0x3d83c5c7	0.064342074
121	0xbd94fcaf	-0.07274758
122	0x3d0e0936	0.034676753
123	0xbd37c354	-0.044864014
124	0xbd1f1340	-0.038836718
125	0xbc2c2edd	-0.01050922
126	0x3daaf0b7	0.08346694
127	0x3d156987	0.03647759

actor.linear3.weight f4 [128, 128]
0	0xbc828c80	-0.015936136
1	0x3c1ffbd6	0.009764632
2	0x3d9591e6	0.073032185
3	0x3d3f0969	0.046639834
4	0x3b1df8b3	0.0024104535
5	0x3d389ecd	0.04507332
6	0x3d894539	0.06702656
7	0x3d1fbaac	0.038996384
8	0xbd00c372	-0.03143639
9	0xbda83676	-0.082135126
10	0x3d5ca18b	0.053864997
11	0xbdaa675c	-0.083204955
12	0xbdadcb77	-0.084860735
13	0x3d314216	0.043275915
14	0x3d2d55fa	0.04231832
15	0xbd9846f7	-0.074354105
16	0x3c4f25c8	0.012643285
17	0xbbdbc0b1	-0.00670632
18	0xbc51b3b2	-0.01279919
19	0x3d9c737d	0.07639215
20	0x3c414d9b	0.011798288
21	0x3c1c2a89	0.009531626
22	0x3d1e76be	0.03868746
23	0x3c1fb360	0.009747356
24	0x3c11cf55	0.008899529
25	0x3d2c4758	0.042060226
26	0x3d53e24b	0.05172948
27	0xbbdbbaf2	-0.006705635
28	0x3cacec71	0.021108838
29	0xbd211004	-0.039321914
30	0xbc1ab96c	-0.009443622
31	0xbd6898c1	-0.056786302
32	0x3cc01293	0.023446357
33	0xbcac9f86	-0.02107216
34	0x3cb6d73c	0.022319429
35	0x3da57419	0.080787845
36	0xbda46da4	-0.08028725
37	0x3d6d0226	0.057863377
38	0xbd3c9ad9	-0.04604611
39	0x3d1521ce	0.03640919
40	0xbd83dff8	-0.06439203
41	0x3cfc9578	0.030832991
42	0x3cbea418	0.023271605
43	0xbc79c348	-0.015244313
44	0xbd39a71c	-0.045325384
45	0x3daeef26	0.08541708
46	0x3db47996	0.08812253
47	0xbc9fa6a3	-0.019488638
48	0x3cffecc7	0.031240834
49	0xbcc12029	-0.023574905
50	0xbd2e1c5c	-0.042507514
51	0x3d3fb3d1	0.046802346
52	0xbd1e9542	-0.038716562
53	0xbc3e494e	-0.011614157
54	0xbda78e50	-0.08181441
55	0x3db3158b	0.08744343
56	0x3d13ca1a	0.03608141
57	0xbd95c882	-0.073136345
58	0xbd59a9dd	-0.05314051
59	0xbc7f03da	-0.015564883
60	0x3d84c79b	0.06483384
61	0x3d823ee3	0.06359651
62	0xbd464389	-0.04840425
63	0xbcc5024c	-0.024048947
64	0xbd845ad1	-0.06462634
65	0x3d38d449	0.045124326
66	0x3c9755e1	0.018473567
67	0x3cbc0407	0.02295114
68	0xbd3b2502	-0.04568959
69	0xbca6cd49	-0.02036156
70	0xbd7d163b	-0.06178878
71	0xbd546f5b	-0.05186401
72	0x3d4b7d0d	0.049679805
73	0x3d41bc03	0.047298443
74	0xbcdfaa00	-0.027302742
75	0x3d49d1ca	0.049272336
76	0x3cc36b18	0.023854777
77	0x3c9a04af	0.018801061
78	0x3da14ded	0.07876191
79	0xbd513e38	-0.051084727
80	0xbc53aa0a	-0.012918958
81	0x3ca25d3e	0.019819852
82	0x3cb05a7b	0.02152752
83	0xbd05dccc	-0.03268127
84	0x3d42f210	0.04759413
85	0xbd98d9d9	-0.07463426
86	0xbc43927c	-0.01193678
87	0xbc4989a3	-0.012300882
88	0xbd7f96fd	-0.062399853
89	0xbd113737	-0.035453048
90	0xbdb46bd9	-0.08809633
91	0xbd1395bf	-0.03603148
92	0xbd228339	-0.039675925
93	0x3d7e3f51	0.062072102
94	0xbd158389	-0.036502395
95	0xbd96248a	-0.07331188
96	0x3d7bc159	0.061463688
97	0xbd8a5232	-0.06753959
98	0xbd2354b0	-0.039875686
99	0x3c64de04	0.013968948
100	0xbd2491c6	-0.040178083
101	0xbd9fbcce	-0.077996835
102	0x3d21d40c	0.039508864
103	0x3c77b034	0.015117694
104	0xbb198cb9	-0.0023429825
105	0x3d04d2f1	0.032427732
106	0x3d943a99	0.07237739
107	0x3ba9ad43	0.005178125
108	0x3d9c8eef	0.0764445
109	0x3d86b5d6	0.06577651
110	0x3d2e467b	0.042547684
111	0x3c673700	0.014112234
112	0xbd91ceb1	-0.071195014
113	0x3b8bfd84	0.004272165
114	0x3c5b1094	0.013370652
115	0x3d78962b	0.060690086
116	0xbd4f89ee	-0.05066865
117	0x3d50c9d7	0.05097374
118	0xbd3db826	-0.046318196
119	0x3d33c6b1	0.04389066
120	0xbd721cd0	-0.05910951
121	0xbc66c6e9	-0.01408551
122	0x3d8b3065	0.0679634
123	0x3c88f771	0.016719552
124	0x3c831d9c	0.01600533
125	0xbbc6e142	-0.0060693333
126	0xbd7ab6bb	-0.06120942
127	0xbd017123	-0.031602036
128	0x3d256357	0.04037794
129	0x3c5dbcf6	0.013533821
130	0xbca9a8c1	-0.020710351
131	0x3d5f4a9b	0.05451451
132	0x3c62e3cb	0.013848255
133	0xbcc29f87	-0.02375771
134	0x3d0a731e	0.03380119
135	0x3c63b1a1	0.0138973305
136	0x3d938ca6	0.07204561
137	0x3d9e7dc4	0.07738832
138	0xbbf35280	-0.0074256063
139	0x3b3c32eb	0.0028716873
140	0x3d4cf5f8	0.05003926
141	0x3cce5740	0.025188088
142	0x3c924bb1	0.017858358
143	0x3d2811c9	0.041032586
144	0xbcd9700a	-0.026542682
145	0x3d80c746	0.062880084
146	0x3c579646	0.013158387
147	0x3d951d67	0.07280999
148	0x3d5eeb43	0.05442358
149	0x3d1c9a44	0.038233057
150	0x3bfedb7a	0.0077776285
151	0x3daf3da9	0.085566826
152	0x3b1cec7c	0.0023944667
153	0xbd38260d	-0.044958163
154	0xbcb5c673	-0.022189355
155	0xbd18fa20	-0.037347913
156	0xbda60afe	-0.08107565
157	0xbac45429	-0.0014978695
158	0xbc72f4dc	-0.014828887
159	0x3c3ea707	0.011636502
160	0xbc6a87bf	-0.014314591
161	0x3db1ba20	0.08678079
162	0x3d9eb833	0.07749977
163	0x3d9f1a6d	0.07768712
164	0xbdb28660	-0.08717036
165	0x3d0110e0	0.031510234
166	0x3c1f483c	0.009721812
167	0x3d617c28	0.055050045
168	0xbd0a8038	-0.033813685
169	0x3d03258e	0.032018237
170	0x3c9508f4	0.018192746
171	0xbcf33a26	-0.029690813
172	0x3baa07e2	0.005188928
173	0x3b7a15bb	0.0038159925
174	0xbda6585c	-0.08122322
175	0xbd8b1cc0	-0.06792593
176	0xbd0ee417	-0.034885492
177	0xbcfb7035	-0.030693153
178	0x3cc39012	0.023872409
179	0xbd1fb24d	-0.0389884
180	0x3d7d1e1a	0.061796285
181	0xbd17ccf2	-0.037060685
182	0xbd900067	-0.07031327
183	0xbdaa6c55	-0.08321444
184	0xbda14fab	-0.078765236
185	0x3cfc0b9d	0.030767256
186	0xbca244b5	-0.019808153
187	0x3d93b01c	0.072113246
188	0x3c8f56ea	0.017497499
189	0x3d041bd5	0.032253105
190	0x3d2635d2	0.04057867
191	0x3d9a91ac	0.07547316
192	0xbcd7ea0f	-0.026356725
193	0xbc018e22	-0.007907422
194	0xbd858561	-0.06519581
195	0x3d1c666d	0.03818362
196	0xbc962bea	-0.018331487
197	0xbd42423e	-0.047426455
198	0x3d272a0b	0.04081158
199	0xbd097502	-0.033558853
200	0x3d10ff68	0.035399824
201	0x3d13a555	0.036046345
202	0x3d7e8543	0.062138807
203	0xbd8fe313	-0.07025733
204	0xbcba8247	-0.0227672
205	0xbd420906	-0.047371887
206	0x3d9d78c9	0.076890536
207	0xbdab85f7	-0.08375161
208	0x3d9170d1	0.07101596
209	0x3a9a0067	0.0011749387
210	0x3d8f1dbe	0.06988095
211	0xbd0b94aa	-0.034077324
212	0x3b3a3871	0.002841499
213	0x3d8833f9	0.06650538
214	0x3d9c03d5	0.076179184
215	0xbceed01b	-0.029151967
216	0xbc17cafe	-0.009264706
217	0xbda8e4a1	-0.082467325
218	0x3d11800b	0.035522502
219	0x3d0d343d	0.034473646
220	0x3c8c850a	0.017153282
221	0x3c85096b	0.016239842
222	0xbda84bd5	-0.08217589
223	0x3becec26	0.0072302995
224	0xbd15d4b0	-0.036579788
225	0x3ce1c867	0.02756138
226	0xbc69d7c8	-0.014272638
227	0xbdb04e03	-0.086086296
228	0xbd88d034	-0.066803366
229	0x3cb29011	0.021797212
230	0xbd92e12b	-0.07171854
231	0xbcdbe74a	-0.026843686
232	0xbc1811af	-0.00928156
233	0x3d4f7cd2	0.050656147
234	0xbbe799db	-0.0070679015
235	0xbcc8fc9a	-0.024534512
236	0x3cb3ebad	0.021962965
237	0x3db4b211	0.08823026
238	0xbdb37cb8	-0.087640226
239	0x3d038f4f	0.03211909
240	0xbd0c82f6	-0.03430458
241	0xbd4cfc79	-0.050045464
242	0xbd2ed0c3	-0.04267956
243	0x3d820636	0.06348841
244	0x3d8fdd65	0.070246495
245	0xbc9233de	-0.017846998
246	0xbda33df6	-0.079708025
247	0xbd604598	-0.05475387
248	0xbd8122bd	-0.06305454
249	0x3c289c0f	0.0102911135
250	0xbd0cd6a1	-0.034384374
251	0x3d22cf5e	0.039748542
252	0x3d6d4222	0.057924397
253	0x3d146e70	0.036238134
254	0x3d8f2250	0.069889665
255	0x3cd8a2b2	0.026444767

actor.linear3.bias f4 [128]
0	0xbd84ae04	-0.06478503
1	0xbd5c8ee1	-0.053847197
2	0x3d6c2467	0.057651903
3	0xbd1316e1	-0.03591049
4	0x3d920206	0.07129292
5	0x3c9d8272	0.01922724
6	0xbd69af15	-0.057051737
7	0x3d226c75	0.039654214
8	0xbcf03b7f	-0.029325245
9	0x3b1a6b7d	0.0023562603
10	0x3d4bc8a2	0.049751885
11	0x3d96d88a	0.0736552
12	0xbd8356d1	-0.06413043
13	0x3bb542b2	0.0055316323
14	0x3c5aa3ae	0.013344688
15	0x3c8bfbf7	0.01708792
16	0x3d9f5fe9	0.07781965
17	0xbd7588aa	-0.059944786
18	0xbca054a0	-0.019571602
19	0xbda7cae5	-0.08192996
20	0x3d7aaf4f	0.061202344
21	0xbdacb0b8	-0.08432144
22	0xbd3da697	-0.04630145
23	0x3bf8b957	0.0075904536
24	0xbd3282c1	-0.043581728
25	0xbd831d01	-0.064020164
26	0xbd12bef8	-0.035826653
27	0x3ca4cf9d	0.020118529
28	0xbdad1e90	-0.08453095
29	0xbd6df2e4	-0.058092967
30	0x3d2094cf	0.039204415
31	0xbc8fdb4e	-0.017560627
32	0xbd43e0d7	-0.047821846
33	0xbb42e554	-0.002973874
34	0x3da0be98	0.07848853
35	0xb8dc7375	-0.00010511923
36	0xbd8f8b12	-0.070089474
37	0x3c398059	0.011322104
38	0xbd80203b	-0.062561475
39	0x3d45034f	0.04809886
40	0x3d8469b2	0.06465472
41	0xbd9fe3d9	-0.0780713
42	0x3d43a849	0.04776791
43	0xbcc601c9	-0.024170773
44	0x38d7064a	0.0001025317
45	0xbd9ab275	-0.07553569
46	0x3dae4c4f	0.085106485
47	0xbdaf8e9b	-0.08572122
48	0x3d829523	0.06376102
49	0xbd70ef57	-0.058822002
50	0x3af1ddc6	0.0018452934
51	0x3d37f1b0	0.044908226
52	0xbd9808ff	-0.07423591
53	0x3bfd4c32	0.0077300305
54	0xbdb2acfb	-0.087244
55	0xbd8ebff1	-0.06970204
56	0x3b870d28	0.0041214414
57	0x3cff510d	0.031166578
58	0x3cdd5321	0.027017178
59	0x3ccf9c00	0.025342941
60	0xbd21bda5	-0.0394875
61	0x3d1ef8d2	0.038811512
62	0xbcb4fe63	-0.022093957
63	0x3d77379c	0.060355768
64	0xbce0177b	-0.027354946
65	0x3da9055c	0.08252975
66	0xbd95e5a9	-0.07319195
67	0xbd1a0009	-0.03759769
68	0x3c09896c	0.00839458
69	0x3d62af4d	0.05534296
70	0xbd5cd563	-0.05391444
71	0xbd131604	-0.035909668
72	0xbcbac974	-0.022801138
73	0xbd7dc950	-0.061959565
74	0xbda60597	-0.08106535
75	0xbc739109	-0.014866122
76	0x3dadc3a4	0.08484581
77	0x3d92fa44	0.07176641
78	0x3d6960f3	0.056977224
79	0x3b8c62ba	0.00428423
80	0xbd82e5d6	-0.06391494
81	0xbd880e63	-0.06643369
82	0xbda1be5c	-0.07897636
83	0xbb81f8c1	-0.0039664214
84	0xbcb5b3de	-0.022180494
85	0xbd6f6ea2	-0.058455117
86	0xbdb6198b	-0.08891591
87	0x3d7b4045	0.06134059
88	0x3b9f78ec	0.00486671
89	0x3d8afa66	0.06786041
90	0x3ba35271	0.004984193
91	0x3d139eed	0.036040235
92	0xbc024dc5	-0.007953112
93	0x3d63f752	0.055655785
94	0x3c7f737b	0.0155914975
95	0x3cd42a35	0.025899032
96	0xbd2cda38	-0.042200297
97	0x3d2f8ee5	0.042860884
98	0xbd9bf2c4	-0.07614663
99	0xbd90dbd8	-0.07073182
100	0xbd3201ce	-0.043458752
101	0x3d5cb023	0.053878915
102	0x3c22265a	0.009896839
103	0x3d834007	0.064086966
104	0x3d884bd1	0.06655086
105	0xbd0dd112	-0.034623213
106	0x3d6af5cb	0.057363313
107	0xbdac3dba	-0.08410211
108	0x3d15087c	0.036385044
109	0xbd2a96c1	-0.041647676
110	0xbc99bd16	-0.018766921
111	0x3b369290	0.0027858354
112	0xbcadace3	-0.021200603
113	0x3b98b17c	0.0046598297
114	0x3c13c764	0.009019706
115	0xbd0edb3b	-0.034877043
116	0xbd37f3fd	-0.04491042
117	0xbc68d9f4	-0.01421212
118	0xbd35b4c7	-0.044361856
119	0xba3209da	-0.0006791629
120	0xbcb9d4f5	-0.022684554
121	0xbdb4f952	-0.088366166
122	0xbcbc397c	-0.02297663
123	0x3b87f6e2	0.004149304
124	0xbcf66e4f	-0.030081896
125	0x3d8638cc	0.06553802
126	0x3d9d0be1	0.07668281
127	0x3ce42bb3	0.027852869

actor.linear4.weight f4 [9, 128]
0	0xbc12e006	-0.008964544
1	0x3c9e38d2	0.019314203
2	0x3d79d5ce	0.060994916
3	0xbd982648	-0.074291766
4	0xbd0a529a	-0.03377018
5	0x3d5a33ce	0.05327206
6	0xbda6dc1c	-0.08147451
7	0xbdadd78f	-0.0848838
8	0x3cb3d415	0.021951715
9	0x3d577f54	0.052611664
10	0xbc5753cc	-0.013142537
11	0x3c54a703	0.012979272
12	0xbd9bf080	-0.07614231
13	0x3cb25828	0.021770552
14	0xbd9eeae3	-0.07759645
15	0x3d3b70a0	0.045761704
16	0xbbe329b5	-0.006932462
17	0x3d349014	0.044082716
18	0x3d9243aa	0.07141812
19	0xbd91ea14	-0.07124725
20	0x3d84d591	0.06486047
21	0x3d85ef3e	0.065397725
22	0xbd23222b	-0.039827507
23	0xbb166e77	-0.0022954026
24	0x3d966cf6	0.073450014
25	0xbd9ee58d	-0.07758627
26	0xbd1a9f19	-0.037749384
27	0xbd85412a	-0.0650657
28	0x3cbc593e	0.022991773
29	0x3d4c2dab	0.04984824
30	0x3d28a91c	0.0411769
31	0x3cd84489	0.026399868
32	0x3c12f171	0.008968697
33	0x3bc28665	0.0059364312
34	0x3dad9466	0.084755704
35	0xbcf66f5b	-0.030082395
36	0xbce5cd13	-0.028051889
37	0xbcd444a8	-0.025911644
38	0xbd94513c	-0.07242057
39	0xbdb54746	-0.08851485
40	0xbb0f31a7	-0.0021849663
41	0xbda49f5f	-0.0803821
42	0x3d0d0131	0.034424964
43	0x3d93127a	0.071812585
44	0xbd79d71c	-0.06099616
45	0xbcb0ea4a	-0.021596093
46	0xbd07d1be	-0.03315901
47	0x3c9c3abb	0.019070974
48	0x3d2c6b52	0.042094536
49	0x3da0936e	0.0784062
50	0x3d91641d	0.07099173
51	0xbd855b48	-0.06511551
52	0xbdafcc41	-0.0858388
53	0x3c283dad	0.010268611
54	0x3d34b49b	0.04411755
55	0x3d277db9	0.040891383
56	0x3da8b844	0.08238271
57	0xbd9cdfcb	-0.076598726
58	0xbd0c5566	-0.03426113
59	0x3d4b7bb9	0.049678538
60	0x3d118a6f	0.03553241
61	0x3d840f32	0.06448211
62	0xbd0febdb	-0.03513704
63	0xbd6a9afa	-0.057276703
64	0xbd128d36	-0.0357792
65	0x3c96b4de	0.018396791
66	0xbc52e58c	-0.012872111
67	0x3d7ddbbe	0.06197714
68	0x3d9fc2e0	0.07800841
69	0xbc42a0d9	-0.011879169
70	0xbd00174b	-0.031272214
71	0x3cc71b81	0.024305107
72	0x3d9a848f	0.07544815
73	0xbb5dae05	-0.0033825648
74	0x3d5e1e70	0.054228246
75	0xbc3b9c29	-0.011450806
76	0xbc633327	-0.013867176
77	0xbd1b3355	-0.03789075
78	0xbdb03dad	-0.08605514
79	0xbc376b05	-0.011194949
80	0x3c94e674	0.018176295
81	0x3d91b15a	0.07113905
82	0x3d15944b	0.036518376
83	0xbda31610	-0.079631925
84	0x3daec44f	0.08533537
85	0xbd2ce276	-0.042208157
86	0x3d7e06dc	0.06201826
87	0xbd3b95db	-0.04579721
88	0xbd80390e	-0.06260882
89	0xbd737fb0	-0.059447944
90	0x3db4fb50	0.088369966
91	0xbcf9a24e	-0.0304729
92	0x3cd62a8a	0.026143331
93	0x3d0be8c7	0.03415754
94	0xbdb5e51e	-0.08881591
95	0x3d354f25	0.04426493
96	0x3d349f36	0.044097148
97	0xbcc98cfb	-0.024603358
98	0xbd7c74e5	-0.061634917
99	0x3b862b1e	0.0040944954
100	0xbc22a6ab	-0.009927432
101	0xbd712bbc	-0.0588796
102	0xbcfbefe4	-0.030754037
103	0xbd4a7417	-0.04942712
104	0xbd28b136	-0.041184627
105	0xbd904d9f	-0.07046055
106	0xbc3dd434	-0.011586238
107	0xbc4617fa	-0.012090677
108	0xbcdde32c	-0.027085863
109	0xbc61b376	-0.013775697
110	0xbb993aee	-0.0046762144
111	0xbda59544	-0.08085111
112	0xbbdb042e	-0.006683848
113	0x3d00fd2f	0.031491455
114	0xbd9e9e26	-0.07745008
115	0xbcef80a8	-0.029236153
116	0x3daed6c2	0.085370556
117	0x3d7e0091	0.06201226
118	0x3d1d9e3a	0.038480975
119	0xbb554c09	-0.0032546541
120	0x3dab2b89	0.08357913
121	0xbb4420ef	-0.0029926857
122	0xbb774331	-0.0037729258
123	0x3cf08d31	0.0293642
124	0x3ce251fd	0.027626986
125	0x3cf12339	0.02943574
126	0xbc80a0f7	-0.015701754
127	0x3cecf2b9	0.028924333
128	0x3b1bb659	0.002375981
129	0x3b3c59af	0.002873998
130	0x3cdf728d	0.027276302
131	0x3da58eee	0.08083902
132	0x3d5df260	0.054186225
133	0x3cc0cb27	0.02353437
134	0x3d123ebd	0.035704363
135	0xbd5da668	-0.054113775
136	0x3d4b20c1	0.049591783
137	0x3d301334	0.042987064
138	0x3cad185f	0.021129785
139	0xbd8a45ae	-0.067515716
140	0x3dad2d2b	0.08455881
141	0x3d8afd60	0.06786609
142	0x3d0dfde5	0.03466596
143	0x3d8f9beb	0.07012161
144	0xbcceffea	-0.025268514
145	0x3d24cd87	0.04023507
146	0xbd6bf0c3	-0.057602655
147	0xbd3ebe8f	-0.04656845
148	0x3d1f0965	0.03882732
149	0xbd728c89	-0.059216056
150	0xbc2b789f	-0.01046577
151	0x3dae0e3d	0.084988095
152	0xbd961a02	-0.07329179
153	0x3cbde606	0.023180973
154	0xbd808141	-0.06274653
155	0xbc3b0f84	-0.011417273
156	0xbd347569	-0.044057284
157	0x3cf1a928	0.029499605
158	0xbda50625	-0.080578126
159	0xbbe6c11b	-0.007042063
160	0x3d108ce8	0.03529063
161	0x3d7ac277	0.061220612
162	0x3d6e6451	0.058201138
163	0x3daae672	0.08344735
164	0x3da128c3	0.07869103
165	0xbd71bf55	-0.05902036
166	0xbd8fa0bf	-0.07013082
167	0x3d9d6280	0.07684803
168	0x3cfb7648	0.03069605
169	0x3ca1f919	0.0197721
170	0xbd41e6bd	-0.04733919
171	0xbc9de3a2	-0.019273583
172	0xbcaa96ca	-0.020823855
173	0xbd3eb4c6	-0.046559118
174	0xbd186dcb	-0.03721408
175	0x3d8d152c	0.06888804
176	0x3c7d593c	0.01546317
177	0xbd81aa6f	-0.06331336
178	0xbcc3ba27	-0.023892475
179	0xbce9cb4b	-0.02853932
180	0x3ceac738	0.028659448
181	0x3c37c11a	0.011215473
182	0xba5f11c2	-0.0008509421
183	0xbb5d2c55	-0.0033748348
184	0x3d7410bd	0.059586275
185	0x3cb91bf0	0.02259633
186	0x3d214152	0.039368935
187	0xbcb65ebb	-0.022261968
188	0xbc1f886c	-0.009737115
189	0xbcde0a5c	-0.02710455
190	0x3ab31289	0.001366214
191	0x3da9e95b	0.08296462
192	0x3c031cb8	0.008002453
193	0xbd8bf42c	-0.068336815
194	0xbd8a5ab5	-0.06755582
195	0xbdab7ab0	-0.0837301
196	0xbd610e24	-0.054945126
197	0xbceb3b73	-0.028714871
198	0xbadd334e	-0.0016876252
199	0xbd82c0e2	-0.06384446
200	0x3d5bb105	0.053635616
201	0xbda56558	-0.080759704
202	0x3da738c5	0.08165125
203	0x3c89e971	0.016834946
204	0xbd53cf4a	-0.051711358
205	0xbd63d194	-0.05561979
206	0xbd95e276	-0.073185846
207	0xbd9f0bab	-0.07765897
208	0xbd77cee3	-0.060500037
209	0xbc83ff71	-0.016113015
210	0x3c8651a8	0.016396359
211	0xbda140a1	-0.07873655
212	0xbd21b229	-0.039476547
213	0xbc1fb535	-0.009747793
214	0xbd9ee6da	-0.07758875
215	0xbd8063f7	-0.06269067
216	0x3cef90ec	0.029243909
217	0xbd9b4f65	-0.07583503
218	0xbd5a7144	-0.053330675
219	0x3d0d2c6b	0.03446619
220	0xbcbd26f5	-0.023089865
221	0xbcd57b48	-0.026059762
222	0xbd7c2f74	-0.061568692
223	0x3cd1a838	0.025592908
224	0xbd16ed32	-0.0368473
225	0xbc8f03c4	-0.01745785
226	0x3d95ee38	0.07320827
227	0xbd2671d6	-0.040635906
228	0xbd4db53b	-0.050221663
229	0xbc6455bc	-0.013936456
230	0xbc1fba98	-0.009749077
231	0xbce9e7ef	-0.028552977
232	0x3ce06c7c	0.02739548
233	0x392f2d8b	0.00016706267
234	0xbd8d4cc3	-0.06899407
235	0xbd56b016	-0.052414022
236	0xba668519	-0.0008793637
237	0xbda92d99	-0.0826065
238	0x3da3e62e	0.08002888
239	0xbdae7b4c	-0.08519611
240	0xbd406b36	-0.046977244
241	0x3c0a49ff	0.008440494
242	0x3d2a6adf	0.041605826
243	0x3d9fe86c	0.07808003
244	0xbda5fe77	-0.08105176
245	0x3cb7684d	0.022388602
246	0xbda62861	-0.081131704
247	0x3da1b075	0.07894985
248	0x3cd90483	0.02649141
249	0xbcad4b1b	-0.021153977
250	0x3cd72cb8	0.02626644
251	0xbc1cd17e	-0.009571431
252	0xbda5d57e	-0.08097361
253	0x3cee1c8a	0.029066343
254	0x3d84972e	0.06474148
255	0xbd966490	-0.073433995

actor.linear4.bias f4 [9]
0	0xbc946654	-0.0181152
1	0xbd63d0ca	-0.05561904
2	0x3d41a2fc	0.047274575
3	0xbd82effb	-0.06393429
4	0xbd68b709	-0.05681518
5	0x3c237567	0.009976721
6	0xbd8aea95	-0.06783024
7	0x3d7e7faf	0.062133487
8	0xbd73d627	-0.059530403

critic.linear1.weight f4 [128, 120]
0	0x3d28dbf0	0.041225374
1	0x3d41d4d8	0.047322124
2	0x38d89adc	0.000103285274
3	0x3dcad499	0.09903831
4	0xbd08f4f0	-0.033436716
5	0xbd4bcb06	-0.049754165
6	0x3d46539e	0.048419587
7	0xbc839b2d	-0.016065205
8	0xbd882a38	-0.066486776
9	0x3cbc6c4d	0.02300086
10	0xbda54de5	-0.08071498
11	0xbc2fc3e0	-0.010727853
12	0xbd7b530e	-0.061358504
13	0x3d5d3336	0.054003917
14	0x3d41c72b	0.047309082
15	0x3d7ed158	0.062211365
16	0xbc6ded57	-0.014521918
17	0xbdacb9fb	-0.084339105
18	0x3d7ebbe8	0.06219092
19	0xbd98f03f	-0.07467698
20	0x3932ed17	0.00017063726
21	0x3d3202cf	0.04345971
22	0x3cab0a50	0.02087894
23	0x3c2fa945	0.010721509
24	0xbc44535c	-0.011982765
25	0xbd60eb94	-0.054912165
26	0x3c131a4a	0.008978436
27	0x3ce48f88	0.027900472
28	0x3d8d895f	0.06910967
29	0xbd9e7a0c	-0.07738122
30	0x3ca15ef9	0.019698607
31	0x3db4835c	0.08814117
32	0xbd0c049d	-0.034184087
33	0x3d89bb81	0.06725217
34	0xbcb430c2	-0.021995906
35	0x3d9f3e12	0.07775511
36	0x3d891aee	0.066945896
37	0xbd7ac4de	-0.061222903
38	0xbcaefef3	-0.021361804
39	0xbd0a64b7	-0.033787455
40	0xbd046119	-0.032319162
41	0xbd98c331	-0.07459105
42	0xbb6b7574	-0.0035928162
43	0xbc3a0786	-0.011354333
44	0x3da182ee	0.07886301
45	0xbd99e05d	-0.07513497
46	0x3d86db1a	0.06584759
47	0x3d83e09e	0.06439327
48	0xbcdfd1b2	-0.02732167
49	0x3d7df79d	0.06200372
50	0x3d86b77e	0.06577967
51	0xbd808ffd	-0.062774636
52	0x3d6da415	0.05801781
53	0x3d2c8ad8	0.0421246
54	0x3d891e2d	0.06695209
55	0xbda565bd	-0.08076046
56	0xbd55844b	-0.052128118
57	0xbd2dac24	-0.042400494
58	0xbd918fbc	-0.07107493
59	0x3da70d97	0.08156889
60	0x3ad73a0f	0.0016420501
61	0x3d9229a5	0.07136849
62	0xbda08a26	-0.0783885
63	0x3d4a789e	0.049431436
64	0x3c816486	0.015795004
65	0x3d9d6fcd	0.0768734
66	0xbd2d4b36	-0.042308055
67	0xbced292b	-0.028950294
68	0x3d4792b1	0.04872388
69	0xbd6bf5d1	-0.057607476
70	0x3cfb8711	0.030704053
71	0x3d94515e	0.07242082
72	0x3d403b1f	0.046931382
73	0xbd815f3a	-0.06316991
74	0xbdadeb09	-0.08492095
75	0xbd111b4d	-0.035426427
76	0xbd79c449	-0.060978208
77	0x3d0367b5	0.032081325
78	0x3c255eaa	0.01009337
79	0xbda6fbe6	-0.081535146
80	0x3d80b265	0.06284026
81	0xbdab5016	-0.083648846
82	0x3c18bd37	0.009322456
83	0x3c052cf0	0.00812839
84	0xbdc5b340	-0.0965333
85	0x3d0d7303	0.03453351
86	0x3d5859c7	0.052819993
87	0x3c8f35a7	0.017481638
88	0xbd05a576	-0.0326285
89	0xbd8ac879	-0.067765184
90	0xbc5515e8	-0.013005711
91	0x3c3b71f6	0.011440745
92	0xbc0e8339	-0.008698278
93	0xbd228745	-0.039679784
94	0xbc050d65	-0.008120869
95	0x3ca72d66	0.02040739
96	0xbc98b498	-0.018640801
97	0xbbe0ba49	-0.0068581444
98	0xbda48aba	-0.080342725
99	0xbd078893	-0.03308923
100	0xbd8893c0	-0.06668806
101	0x3da0f1a8	0.07858592
102	0xbd8c9a4f	-0.068653695
103	0xbd3e1969	-0.04641095
104	0xbc924c3e	-0.01785862
105	0xbcee5a0f	-0.029095678
106	0xbd6cb4b7	-0.05778953
107	0xbd39f3ba	-0.04539845
108	0xbd104de4	-0.035230532
109	0xbd9e96d5	-0.07743613
110	0x3aaae178	0.0013037166
111	0xbd865952	-0.06560005
112	0x3d9bc1f7	0.07605355
113	0xbd3be254	-0.04587014
114	0x3d83beaa	0.06432851
115	0x3d093115	0.033494074
116	0x3d80433c	0.06262824
117	0x3d5a8049	0.053345
118	0x3c510020	0.012756377
119	0xba434447	-0.0007448834
120	0x3da258dd	0.079271056
121	0x3d675501	0.05647755
122	0x3dabc97d	0.0838804
123	0xbcb60543	-0.022219306
124	0x3ccdce8b	0.025122901
125	0x3cdd0ef5	0.026984671
126	0x3d059039	0.032608245
127	0xbd612501	-0.05496693
128	0xbc891da6	-0.01673777
129	0xbcf9e64b	-0.03050532
130	0xbd96ad8a	-0.07357319
131	0xbd8e0bc3	-0.06935837
132	0xbd2488b1	-0.04016942
133	0xbcf966b7	-0.030444486
134	0x3c683232	0.014172124
135	0xbd82a4a4	-0.06379059
136	0x3d46b56e	0.04851287
137	0xbd71fa63	-0.059076678
138	0x3d6b65d0	0.057470143
139	0xbd97f3ea	-0.0741957
140	0xbd67c8da	-0.05658803
141	0x3d8f9027	0.07009917
142	0xbd861895	-0.065476574
143	0x3d485ce5	0.048916716
144	0x3d934b40	0.07192087
145	0xbcf63bd0	-0.030057818
146	0x3d29d6a7	0.041464474
147	0xbda0b5fd	-0.078472115
148	0xbdab7c66	-0.083733365
149	0x3d90a109	0.07061965
150	0xbda4766d	-0.080304004
151	0xbd39387f	-0.045219894
152	0x3d8b6c9f	0.06807827
153	0x3bd48751	0.0064858575
154	0x3ceed538	0.029154405
155	0x3dafb1f7	0.08578866
156	0x3d82daa3	0.06389358
157	0xbd8d303c	-0.068939656
158	0xbd3805fa	-0.044927575
159	0x3cac9e21	0.021071495
160	0xbcf46379	-0.029832589
161	0xbcd3f06e	-0.025871482
162	0xbc95ef46	-0.018302571
163	0x3d570999	0.052499387
164	0xbbe5d3f5	-0.0070137926
165	0xbd989ee7	-0.07452183
166	0x3d94acff	0.07259559
167	0x3b1e8487	0.002418788
168	0xbd668e54	-0.05628808
169	0x3cb0e824	0.021595068
170	0xbd99abc1	-0.075034626
171	0x3c72f48d	0.014828813
172	0x3d79f238	0.061022013
173	0x3d5fd529	0.054646645
174	0x3c38eca4	0.011286888
175	0x3d86c6b0	0.065808654
176	0xbd96a5c0	-0.07355833
177	0xbd9a2bac	-0.07527861
178	0xbbe7c349	-0.0070728404
179	0x3cdaec72	0.026724074
180	0xbd705fb7	-0.05868503
181	0x3d4cca83	0.049997818
182	0x3ccddbbe	0.025129195
183	0x3c363f82	0.01112354
184	0xbd86ed88	-0.06588274
185	0xbd971a83	-0.073781036
186	0xbd2905c8	-0.04126528
187	0xbd621af5	-0.05520149
188	0x3afc4407	0.0019246348
189	0x3cdcb0a4	0.026939698
190	0xbbbb5e96	-0.0057180626
191	0xbcacda67	-0.021100236
192	0xbc83ed01	-0.016104223
193	0xbd7c4904	-0.06159307
194	0xbd9aaba6	-0.075522706
195	0xbdaa6107	-0.08319288
196	0x3d3440a8	0.044006974
197	0xbd08b663	-0.033377063
198	0x3dcda74e	0.100416765
199	0x3c2b34f3	0.010449636
200	0x3d38d3e9	0.04512397
201	0x3d6b1395	0.05739172
202	0x3cad283c	0.02113735
203	0xbd2f11ed	-0.042741705
204	0xbbf89981	-0.0075866585
205	0x3d720430	0.059086025
206	0x3d5a1f58	0.053252548
207	0x3d925a0c	0.07146081
208	0x3da8bb7c	0.08238885
209	0xbd17df82	-0.037078388
210	0x3d80208f	0.0625621
211	0xbdaa3231	-0.083103545
212	0xbc0a0370	-0.008423671
213	0x3c8037a8	0.015651539
214	0xbc989726	-0.01862676
215	0xbd544053	-0.051819157
216	0xbd6e32d6	-0.05815395
217	0x3d8a87c6	0.06764178
218	0x3dab2546	0.08356719
219	0xbd8797f8	-0.066207826
220	0x3d515a31	0.051111404
221	0x3dc7250e	0.097238645
222	0x3dbf399f	0.09337162
223	0xbbfb72f4	-0.0076736156
224	0xbd9df290	-0.07712281
225	0x3cef50c1	0.029213311
226	0x3d49e972	0.049294896
227	0x3d4e0d5e	0.050305717
228	0xbdbddebb	-0.09270998
229	0x3cb8741d	0.022516305
230	0xbd282ed7	-0.041060295
231	0xbd95c579	-0.073130555
232	0xbd581f40	-0.052764177
233	0x3dbc11d5	0.09183089
234	0xbd7c1981	-0.06154776
235	0xbce25735	-0.027629474
236	0x3d3ad517	0.045613375
237	0x3d075689	0.03304151
238	0xbd8a9911	-0.06767476
239	0xbc78e642	-0.0151916165
240	0x3d93eafc	0.07222554
241	0xbd943a82	-0.07237722
242	0xbc2a0020	-0.010376006
243	0xbd4d36c5	-0.05010106
244	0xbd43ed60	-0.0478338
245	0xbd204959	-0.03913245
246	0x3d6b1667	0.05739441
247	0xbc91cce7	-0.0177979
248	0x3da1b2ea	0.07895453
249	0x3c6796b9	0.014135056
250	0x3d82e650	0.06391585
251	0x3d98bd10	0.07457936
252	0xbd7bd94c	-0.061486527
253	0x3d828228	0.063724816
254	0x3db9d596	0.090739414
255	0x3cffec96	0.031240743

critic.linear1.bias f4 [128]
0	0xbd3c938d	-0.046039153
1	0xbd1bc3cf	-0.038028535
2	0xbd6897b0	-0.056785285
3	0x3c15e5bf	0.009149014
4	0x3ca7fb43	0.020505553
5	0x3b51e152	0.003202517
6	0xbcbc4173	-0.022980427
7	0x3d750ba3	0.05982555
8	0xbc47df1c	-0.0121991895
9	0x3d521e16	0.051298223
10	0x3d31f392	0.043445177
11	0x3d434fec	0.04768364
12	0x3bc65bd8	0.006053429
13	0x3cbc26de	0.022967752
14	0x3d96f188	0.07370287
15	0x3d95f40c	0.07321939
16	0x3d327b18	0.043574423
17	0x3c239766	0.009984827
18	0x3d6e813a	0.05822871
19	0x3d87a884	0.06623939
20	0x3cfbee3d	0.03075325
21	0xbd904f69	-0.07046396
22	0x3b7c58ee	0.0038505155
23	0x3bfd968c	0.007738894
24	0x3b76d848	0.0037665535
25	0x3d740558	0.05957541
26	0x3d1754fd	0.036946286
27	0xbd3cc741	-0.04608846
28	0xbcd8113a	-0.026375402
29	0x3dcbe66e	0.0995606
30	0xbd845832	-0.064621344
31	0xbba4a8ec	-0.00502502
32	0x3da191aa	0.07889111
33	0xbd6e63ee	-0.05820077
34	0xbd9e141e	-0.07718681
35	0xbcc0efec	-0.023551904
36	0x3c8b8902	0.017033104
37	0xbcc6a6fd	-0.024249548
38	0x3ca6ead2	0.020375643
39	0xbdbf4994	-0.09340206
40	0x3d12fddc	0.03588663
41	0xbdc7ffa8	-0.097655594
42	0x3d28c45c	0.041202888
43	0xbd3f7dd9	-0.046750877
44	0xbda09c44	-0.07842305
45	0x3d9cda92	0.076588765
46	0x3d350f43	0.044204008
47	0x3cc9593d	0.024578685
48	0x3db0029d	0.085942484
49	0x3d29be39	0.041441176
50	0x3dcedaaa	0.101003006
51	0xbd0efb15	-0.03490742
52	0xbb530a10	-0.0032202043
53	0x3d215cbc	0.03939508
54	0x3c4c7be8	0.012480713
55	0xbd3c58e1	-0.0459832
56	0x3dd0fb02	0.10204126
57	0x3c066f45	0.00820524
58	0xbc42f032	-0.011898087
59	0x3b625c10	0.0034539737
60	0xbcad9a60	-0.021191776
61	0x3d44fe85	0.04809429
62	0xbda26510	-0.079294324
63	0xbd6962a9	-0.056978855
64	0x3d036e3d	0.032087553
65	0xbbf10311	-0.007355102
66	0xbcfcdc42	-0.030866746
67	0xbd8e9ef7	-0.06963914
68	0x3c030fc1	0.0079993615
69	0x3dd485cf	0.103770845
70	0x3c76c3fb	0.015061374
71	0x3d213262	0.03935469
72	0xbcca65be	-0.024706718
73	0xbd46263c	-0.048376307
74	0xbce692d5	-0.028146187
75	0xbd9ce29f	-0.07660412
76	0x3d48b362	0.048999198
77	0xbce6c0c7	-0.028168095
78	0xbc976ae7	-0.018483592
79	0x3dd6c3f3	0.10486593
80	0xbd49b3da	-0.049243785
81	0xbd233803	-0.03984834
82	0xbd0434a5	-0.03227677
83	0x3d74c91f	0.059762117
84	0x3d4b5bf9	0.04964826
85	0x3d3b5b9f	0.045741674
86	0xbc475cd4	-0.012168128
87	0xbd802b03	-0.06258204
88	0xbd412a41	-0.047159437
89	0x3d8a972a	0.067671135
90	0x3da42b5f	0.08016085
91	0xbd42bc72	-0.047542997
92	0x3d4157ff	0.04720306
93	0x3d842161	0.06451679
94	0xbd426d43	-0.04746748
95	0xbb0b800f	-0.0021286046
96	0xbd4cdd03	-0.05001546
97	0xbcef1a0a	-0.029187221
98	0x3cf287e1	0.029605808
99	0xbb830ae0	-0.003999099
100	0xbc8fc9e3	-0.017552322
101	0xbda9a0bd	-0.082826115
102	0xbdbf411e	-0.09338592
103	0x3da22aa1	0.07918287
104	0x3cf17934	0.02947674
105	0x39dda292	0.0004227353
106	0xbc4d6fb3	-0.012538838
107	0xbd19f4c4	-0.037586942
108	0xbd9f4cac	-0.07778296
109	0xbd466704	-0.048438087
110	0x3ca719b5	0.020398
111	0xbcf2b16b	-0.029625615
112	0xbdb4739d	-0.08811114
113	0x3c5ee7fd	0.013605115
114	0x3ceba2dc	0.02876418
115	0xbd9632c1	-0.07333899
116	0xbd0eaf10	-0.03483492
117	0xbd0a6ce5	-0.033795256
118	0xbd23797d	-0.039910782
119	0x3dcf77bd	0.1013026
120	0x3d2b7a9a	0.04186497
121	0x3dcc3592	0.09971155
122	0xbb8401f8	-0.004028555
123	0x3d7a8f75	0.061171968
124	0x3c9d77b0	0.01922211
125	0xbd67a756	-0.05655607
126	0xbd4df356	-0.05028089
127	0x3ca4360d	0.020045305
